results/phase3_t2/NPCAgent/NPCAgent-557427.onnx (onnx, 106831 bytes, 9 tensors)

action_model._continuous_distribution.log_sigma f4 [1, 2]
0	0x3d25e9c7	0.04050615
1	0xbcbd0a25	-0.023076126

action_model._continuous_distribution.mu.bias f4 [2]
0	0x3ae8148c	0.0017706319
1	0x3b2ddfa2	0.0026531

action_model._continuous_distribution.mu.weight f4 [2, 128]
0	0xbc9de851	-0.019275816
1	0xbd3fa5d1	-0.046788994
2	0xbcc53fe3	-0.024078315
3	0xbd09b37d	-0.03361844
4	0x3cf6891e	0.03009468
5	0x3bda6e64	0.0066659916
6	0x3ca7e962	0.020497028
7	0x3bd4d97a	0.006495652
8	0xbd0cd545	-0.034383077
9	0xbd0536eb	-0.032523077
10	0x3cc96941	0.024586322
11	0x3c126264	0.008934591
12	0x3d027766	0.03185215
13	0xbccbb0fe	-0.02486467
14	0x3d4390a7	0.047745373
15	0xbc86ca21	-0.016453804
16	0xbbed358b	-0.007239049
17	0x3c3784b7	0.011201075
18	0x3d1302f4	0.03589149
19	0xbc76202e	-0.015022321
20	0xbd6ec0bc	-0.058289275
21	0x3c860610	0.016360313
22	0x3c58031f	0.013184338
23	0x3d189e72	0.03726048
24	0xbc4371f4	-0.011929024
25	0xbb480e8c	-0.0030526249
26	0x3c841b8a	0.016126413
27	0x3a669176	0.0008795479
28	0xbc756c0f	-0.014979376
29	0xbcb70aa5	-0.022343943
30	0x3d1238f9	0.035698865
31	0x3b7b3e18	0.0038336571
32	0x3be15b3e	0.006877332
33	0xbd0b9bdd	-0.03408419
34	0x3cbdae27	0.023154331
35	0xbc9d47d4	-0.01919929
36	0x3d907716	0.07053964
37	0x3c8fd803	0.017559057
38	0xbd6cfa9f	-0.0578562
39	0xbb5eb241	-0.003398076
40	0x3d6637c9	0.056205545
41	0xbac3f999	-0.0014951705
42	0xbd0f169e	-0.03493368
43	0xba0d74d7	-0.00053961336
44	0x3c5f8c23	0.013644251
45	0x3c04aa36	0.008097222
46	0xbc16ca67	-0.00920353
47	0x3d496db3	0.049176883
48	0xbd78c1cf	-0.060731705
49	0x3cc9f059	0.02465074
50	0xbd0f2213	-0.034944605
51	0xbca0caaa	-0.019627888
52	0xbc6d7cc9	-0.014495083
53	0x3b1cf89f	0.00239519
54	0x3c09a75c	0.008401718
55	0xbb420415	-0.0029604484
56	0x3bdc2084	0.0067177434
57	0x3c79a99c	0.015238192
58	0x3d236584	0.039891735
59	0x3d5793a0	0.05263102
60	0x3d6a529c	0.05720769
61	0xbda0cccd	-0.07851563
62	0x3ce2203b	0.02760326
63	0xbb80ffd2	-0.003936746
64	0x3c82d157	0.015968962
65	0x3c15ac99	0.009135389
66	0x3cddd42c	0.02707871
67	0x3d151f85	0.036407012
68	0x3c6fb1e8	0.0146298185
69	0xbbf94022	-0.007606522
70	0xbb0b9d30	-0.0021303408
71	0xbc06404d	-0.008194041
72	0x3c09e6e2	0.008416863
73	0x3d316f54	0.04331906
74	0xbd5a76c9	-0.05333594
75	0xbaf00045	-0.0018310627
76	0x3d1cde70	0.03829807
77	0x3c0345ab	0.008012216
78	0xbd18b1de	-0.037279002
79	0x3cd02e18	0.025412604
80	0x3d00cea8	0.031447083
81	0x3ab46ea9	0.001376589
82	0xbcf63538	-0.030054674
83	0x3ccd7fb7	0.025085313
84	0xbd17ca41	-0.03705812
85	0x3d02fb8d	0.03197818
86	0x3c37d6f7	0.011220685
87	0xbc981793	-0.018565929
88	0xbc8286ac	-0.015933357
89	0xbcf58a9f	-0.029973326
90	0x3b6815a1	0.0035413282
91	0x3b9bdaca	0.0047563063
92	0xbd410ef3	-0.047133397
93	0xbd318ef5	-0.043349225
94	0xbd463611	-0.048391405
95	0x3b07e344	0.0020734826
96	0xbd029ab0	-0.031885803
97	0x3bb9a2f8	0.0056651793
98	0xbcb5f7f2	-0.022212956
99	0x3c8842f8	0.016633496
100	0x3d02a8df	0.03189933
101	0xba5be97c	-0.0008388979
102	0xbbf4ac2f	-0.007466815
103	0xbd448eb5	-0.04798766
104	0xbc6e7601	-0.0145545015
105	0x3cb5a8e6	0.022175264
106	0xbc78ef6d	-0.015193802
107	0x3c7bf36b	0.01537786
108	0xbcbd4336	-0.023103338
109	0x3d15f1c5	0.036607523
110	0x3c12087f	0.008913158
111	0xbc46b8f6	-0.012129059
112	0xbd25a609	-0.040441547
113	0xbb94caee	-0.0045407927
114	0xbd554e10	-0.0520764
115	0x3c1d7f40	0.009612858
116	0x3cefc75a	0.029269863
117	0xbc41a62f	-0.011819406
118	0x3c92fdfa	0.017943371
119	0xbcc4a390	-0.024003774
120	0x3c930594	0.017946996
121	0x3d3f1c3d	0.04665779
122	0xbcafedfb	-0.021475783
123	0xbcdd14e8	-0.026987508
124	0xbc87e69b	-0.016589453
125	0x3c1d9131	0.009617136
126	0xbc83a853	-0.016071474
127	0x3ca8ebd6	0.020620268
128	0xbd168816	-0.036750875
129	0x3cf096cb	0.029368779
130	0x3ca9b455	0.020715872
131	0xbad99e84	-0.0016603027
132	0x3d147738	0.03624651
133	0xbb96b985	-0.0045997524
134	0x3d7fa9d9	0.06241784
135	0x3d8465be	0.06464718
136	0xbb6dbd00	-0.0036275983
137	0x3dbd2d25	0.09237126
138	0x3ce870df	0.028374134
139	0xbc8bfc36	-0.017088037
140	0x3c14feec	0.009093981
141	0xbc11e425	-0.008904492
142	0xbc0ec895	-0.008714815
143	0xbd328023	-0.043579232
144	0x3d0df07e	0.03465318
145	0x3c9d4c86	0.019201528
146	0x3ba5e092	0.0050621713
147	0xbc8ed218	-0.017434165
148	0x3cbbe570	0.022936553
149	0xbca5d660	-0.020243824
150	0xbdc6b32c	-0.09702143
151	0x3c117efe	0.008880375
152	0x3ccba82b	0.024860462
153	0xbd552757	-0.05203947
154	0x3d90a658	0.070629776
155	0xbd2e99e0	-0.042627215
156	0x3be162a7	0.0068782154
157	0xbc46b165	-0.012127255
158	0xbd38721f	-0.04503071
159	0xbd2aba54	-0.041681603
160	0xbccc95d0	-0.02497378
161	0xbd205a6d	-0.039148737
162	0x3a849fc2	0.0010118412
163	0xbc864e89	-0.01639487
164	0xbd05e714	-0.032691076
165	0x3d8b07a7	0.06788569
166	0x3cf3e4cf	0.02977219
167	0xbd00a345	-0.031405706
168	0xbd82ace0	-0.063806295
169	0xbd688242	-0.05676485
170	0xbca3d8ee	-0.020000901
171	0xbcf72373	-0.03016827
172	0x3d1e6a36	0.03867551
173	0xbd235adc	-0.039881572
174	0xbd5c7535	-0.053822715
175	0x3adfddff	0.001707971
176	0x3d9bc271	0.07605446
177	0x3998865a	0.000290918
178	0xbc580361	-0.013184399
179	0x3d40eca2	0.04710067
180	0x3d23f801	0.040031437
181	0x3d8f43fc	0.06995389
182	0xbd570867	-0.052498247
183	0x3d058c68	0.032604605
184	0xbd8f1f9a	-0.069884494
185	0x3d5706d5	0.05249675
186	0x3bf4c129	0.0074693155
187	0x3b8929d6	0.0041858954
188	0xbcac0f1b	-0.021003297
189	0x3cf9b67c	0.030482523
190	0x3c95a529	0.018267231
191	0x3a3656fc	0.00069557107
192	0xbd75bd2e	-0.05999487
193	0x3daa1e73	0.08306589
194	0x3d9e8d21	0.07741762
195	0x3c7d5e68	0.015464403
196	0xbca98ae6	-0.020696115
197	0xbbca0c95	-0.0061660507
198	0xbd5e8c22	-0.05433286
199	0x3da8e943	0.08247616
200	0x3bada645	0.005299362
201	0xbd35ec90	-0.044415057
202	0x3d401929	0.046898995
203	0x3cb53af4	0.022122838
204	0x3d311718	0.043234915
205	0x3d3c9bfd	0.0460472
206	0xbcb4a749	-0.022052424
207	0xbd01e519	-0.031712625
208	0x3d00ee06	0.031476997
209	0x3dbdb87b	0.092637025
210	0xbc0ccb32	-0.008593367
211	0xbc024136	-0.007950118
212	0x3d71c846	0.059028886
213	0xbcc919f5	-0.02454851
214	0x3a635f48	0.0008673561
215	0x3bf916c7	0.007601592
216	0x3b78690d	0.0037904412
217	0x3c759220	0.014988452
218	0x3c3f454e	0.011674238
219	0x3d406b6c	0.046977445
220	0xbd14c3b5	-0.036319453
221	0x3c478a9b	0.012179042
222	0x3d59ab2a	0.05314175
223	0xbd2cc063	-0.04217566
224	0xbd40d5d9	-0.04707894
225	0xbd752fef	-0.059860166
226	0x3d383f8c	0.044982478
227	0xbd484de7	-0.04890242
228	0x3d478c7e	0.04871797
229	0x3d76756c	0.060170576
230	0xbb7b30e0	-0.0038328692
231	0x3d2b8879	0.041878197
232	0xbc0d4ea6	-0.008624708
233	0xbd8167b8	-0.06318611
234	0xbd79e4ff	-0.061009403
235	0x3d94491b	0.07240506
236	0x3c7ebecf	0.015548422
237	0x3d47132b	0.048602264
238	0x3d85d42e	0.06534611
239	0xbd12ae43	-0.03581072
240	0x3ca460ba	0.020065654
241	0x3d452184	0.048127666
242	0xbc01db92	-0.007925885
243	0xbcdcb083	-0.026939636
244	0xbd15ca43	-0.036569845
245	0xbc2b186b	-0.010442833
246	0xbcbc4b09	-0.022984998
247	0x3d292f83	0.041305076
248	0x3c220eb9	0.0098912055
249	0x3d410778	0.047126263
250	0x3cdebfdf	0.0271911
251	0xbb81ed4c	-0.0039650556
252	0x3cbd5906	0.023113739
253	0xbd440472	-0.047855802
254	0xbc689495	-0.014195581
255	0x3bfe4670	0.0077598616

action_model._discrete_distribution.branches.0.bias f4 [2]
0	0x3c3787e6	0.011201834
1	0xbc3787e2	-0.011201831

action_model._discrete_distribution.branches.0.weight f4 [2, 128]
0	0x3da2813e	0.07934807
1	0x3daa1f34	0.08306733
2	0xbd4ca29b	-0.04995976
3	0xbcfd5a79	-0.03092693
4	0xbd541468	-0.051777273
5	0x3d99e389	0.07514102
6	0xbcbe6820	-0.02324301
7	0xbe004d57	-0.12529503
8	0xbd14903d	-0.03627037
9	0x3cd7e5b4	0.026354648
10	0x3bce4fc3	0.0062961294
11	0x3d294fd8	0.04133591
12	0xbd91408b	-0.07092389
13	0xbd44417a	-0.047914006
14	0x3cfbc58c	0.030733846
15	0x3d6731fa	0.056444146
16	0xbdf34312	-0.11878027
17	0xbd12aeb1	-0.03581113
18	0x3d2fa1fc	0.04287909
19	0x3cb2c8bd	0.021824235
20	0x3d23ce5e	0.03999173
21	0xbc9c34c7	-0.019068135
22	0xbcc439f6	-0.02395342
23	0xbd8d8e4c	-0.069119066
24	0xbda4a1ca	-0.08038671
25	0x3b8b48a7	0.004250604
26	0xbddbd8db	-0.10734721
27	0x3da9117b	0.08255287
28	0xbb1dc65d	-0.0024074533
29	0xbcc8ee59	-0.024527716
30	0x3d097349	0.03355721
31	0x3c62cd1b	0.013842846
32	0xbccebd5c	-0.025236778
33	0x3de8b8cb	0.113633715
34	0x3d5d5fa3	0.054046284
35	0xbd65a61d	-0.05606662
36	0x3bf7a2b9	0.00755724
37	0xbda7440b	-0.08167275
38	0x3cad9f2f	0.021194069
39	0x3d59d197	0.053178396
40	0x3d1cb79b	0.038261037
41	0x3d6308b1	0.05542821
42	0x3e0b0d0f	0.135792
43	0x3d9ee4bc	0.07758471
44	0xbd57bd53	-0.052670788
45	0x3da4b7f0	0.08042896
46	0x3d94000e	0.07226573
47	0xbba3fc7f	-0.005004465
48	0x3d50ec1a	0.051006414
49	0xbdb773b5	-0.08957616
50	0x3ab5dc1d	0.0013874803
51	0xbe016380	-0.12635612
52	0xbcd8c0da	-0.026459146
53	0xbd4530da	-0.04814229
54	0xbd0c28d2	-0.034218617
55	0xbd95a1ad	-0.07306228
56	0x3d853087	0.065033965
57	0xbd92bc9f	-0.07164883
58	0x3d1885a2	0.037236817
59	0x3d4d17c1	0.05007148
60	0xbca95c7b	-0.020673981
61	0x3e05158f	0.12996505
62	0x3d8ace18	0.067775905
63	0x3d5ff7aa	0.05467955
64	0x3c87ab6a	0.016561229
65	0xbdac2f66	-0.08407478
66	0xbd80cc48	-0.062889636
67	0xbd35c82a	-0.044380344
68	0x3c8b3a11	0.016995462
69	0xbd34da64	-0.044153586
70	0x3dbcecae	0.092248306
71	0xbdce3fdd	-0.10070775
72	0x3b86146b	0.0040917895
73	0x3ce839f2	0.028347943
74	0x3a5baede	0.0008380244
75	0xbd7f515d	-0.062333453
76	0x3bf2f474	0.007414395
77	0xbd3c101c	-0.0459138
78	0xbbb289ee	-0.0054485714
79	0x3d0d1fa0	0.034453988
80	0x3cc6bb87	0.024259342
81	0xbdaa9476	-0.08329098
82	0x3dc27749	0.09495408
83	0x3cadf3d0	0.021234423
84	0xbdd511c5	-0.1040378
85	0x3d299aa4	0.041407242
86	0x3d8b3583	0.06797316
87	0xbd828e51	-0.06374801
88	0xbd1a6f82	-0.037704
89	0x3d6ba426	0.05752959
90	0x3ce3709d	0.02776366
91	0xbdc79300	-0.09744835
92	0x3ca61a49	0.020276206
93	0x3d30e9dc	0.043191776
94	0x3d8a519e	0.067538485
95	0x3cca6ea3	0.024710959
96	0x3de4f0ca	0.11178739
97	0x3dc55268	0.09634858
98	0xbded7579	-0.11594672
99	0x3ce7ab81	0.028280022
100	0xbdb49d20	-0.08819032
101	0xbc99f3da	-0.018793035
102	0xbd94411d	-0.07238982
103	0x3bdae2ff	0.006679892
104	0x3d74d10f	0.059769686
105	0xb7f68a74	-2.9389957e-05
106	0x3da9fb98	0.08299941
107	0xbda09d87	-0.07842546
108	0x3d485b97	0.048915472
109	0xbdc823cc	-0.09772453
110	0xbdf86184	-0.12127975
111	0xbcd903b2	-0.02649102
112	0xbd5feb88	-0.05466798
113	0xbe047a0c	-0.12937182
114	0x3de67421	0.112526186
115	0x3dbac750	0.09120047
116	0x3c818b8d	0.015813613
117	0x3d959875	0.073044695
118	0x3d805d1a	0.06267758
119	0x3cf834f3	0.030298686
120	0xbba1aa0e	-0.004933602
121	0xbccef708	-0.025264278
122	0xbd3ee5f8	-0.046606034
123	0x3dafb887	0.08580118
124	0xbda65bd7	-0.08122986
125	0x3dd18f0a	0.10232361
126	0xbc9c60e4	-0.01908917
127	0x3d5bf18d	0.053697158
128	0xbd971de6	-0.073787495
129	0xbdbddd70	-0.092707515
130	0x3d457164	0.04820384
131	0x3d094730	0.033515155
132	0x3d1190db	0.035538536
133	0xbdd4bb34	-0.10387269
134	0x3cc7609a	0.024338055
135	0x3decc085	0.11560158
136	0x3d31f00f	0.04344183
137	0xbcd1fb5e	-0.025632557
138	0xbc33f85b	-0.0109845055
139	0xbd40cb5c	-0.04706894
140	0x3d9e679b	0.07734605
141	0x3d37a0ce	0.04483109
142	0xbd709d9b	-0.058744054
143	0xbd713368	-0.058886915
144	0x3df8419e	0.121218905
145	0x3d41cdb3	0.04731531
146	0xbd25e225	-0.04049887
147	0xbc8fc611	-0.0175505
148	0xbd65ed6c	-0.056134626
149	0x3c9e7c70	0.019346446
150	0x3ce71394	0.028207578
151	0x3d9ca14b	0.07647952
152	0x3da33a25	0.079700746
153	0xbcee1d17	-0.029066605
154	0x3dce09d3	0.100604676
155	0xbd6bda42	-0.057581194
156	0xbaf95fc9	-0.0019025739
157	0x3c8f304b	0.017479083
158	0xbd10d98f	-0.03536373
159	0xbd4b4d22	-0.049634106
160	0x3d34736d	0.04405539
161	0xbde3c0db	-0.11120769
162	0xbd93e533	-0.07221451
163	0x3d34d264	0.044145957
164	0xbba6f7cf	-0.005095459
165	0x3db32aff	0.08748435
166	0xbc9e4ae1	-0.019322814
167	0xbd748b7e	-0.059703343
168	0xbd02dfd8	-0.031951755
169	0xbd0e0ae7	-0.034678366
170	0xbdf0ed8a	-0.11764057
171	0xbdb20a11	-0.08693326
172	0x3d3f0cd5	0.046643097
173	0xbda85558	-0.08219403
174	0xbd93286d	-0.07185445
175	0xbbc7c47d	-0.0060964213
176	0xbd290999	-0.04126892
177	0x3db941f1	0.090457805
178	0xbc69056c	-0.014222484
179	0x3e06ceb8	0.13164794
180	0x3d097aa7	0.033564236
181	0x3d2ee5f9	0.042699788
182	0x3d0a4d76	0.03376528
183	0x3d9690dd	0.07351849
184	0xbd8e499d	-0.06947634
185	0x3d9f59e5	0.07780818
186	0xbd0be3d1	-0.03415281
187	0xbce4eb26	-0.027944159
188	0xba6cd76a	-0.0009034785
189	0xbe02eb6e	-0.12785122
190	0xbd84a678	-0.06477064
191	0xbd6ab7d7	-0.05730423
192	0xbbe0502c	-0.0068454947
193	0x3db0e6b6	0.086377546
194	0x3d5ff697	0.054678526
195	0x3d583fc9	0.052795205
196	0xbc0b9963	-0.008520457
197	0x3d098eff	0.033583637
198	0xbdb17d85	-0.08666519
199	0x3ddea709	0.10871703
200	0x3bc14fec	0.00589942
201	0xbc4d6a17	-0.012537501
202	0xbc2fbc0c	-0.010725986
203	0x3d08fca7	0.033444073
204	0xbc897ae4	-0.016782232
205	0x3d466a9e	0.04844152
206	0x3bda9ed5	0.0066717663
207	0xbd1abb1b	-0.037776094
208	0xbca06433	-0.019579029
209	0x3d89c2f9	0.06726641
210	0xbdbd78c1	-0.092515476
211	0xbcd74dbf	-0.02628219
212	0x3dd3818f	0.10327446
213	0xbd05eb5b	-0.032695156
214	0xbda00cd9	-0.078149505
215	0x3dc84428	0.09778625
216	0x3d0eab67	0.03483143
217	0xbd635f60	-0.05551088
218	0xbd0e68df	-0.03476798
219	0x3ddeb135	0.10873643
220	0xbcef372c	-0.029201113
221	0xbd186c1e	-0.037212484
222	0xbd91ce5d	-0.07119439
223	0x3b0c0880	0.002136737
224	0xbde8f1b7	-0.113742284
225	0xbdc4dc88	-0.096123755
226	0x3dfa3d86	0.12218766
227	0xbc86997f	-0.016430615
228	0x3da74d09	0.0816899
229	0x3bf57892	0.0074911797
230	0x3d824772	0.06361283
231	0xba4f7990	-0.00079145376
232	0xbd8588ce	-0.06520234
233	0x3bb804c7	0.005615804
234	0xbda2be78	-0.07946485
235	0x3d97309a	0.07382317
236	0xbd4846f8	-0.048895806
237	0x3dd44144	0.10364011
238	0x3dbf2372	0.093329325
239	0x3d0393a0	0.032123208
240	0x3d5ec67b	0.054388504
241	0x3e0c4754	0.13699085
242	0xbdd8af6c	-0.10580334
243	0xbdca1764	-0.09867743
244	0xbc9bf93d	-0.019039745
245	0xbd998f8d	-0.07498083
246	0xbd3c2cca	-0.04594115
247	0xbc6409c0	-0.01391834
248	0x39b1e89a	0.00033933372
249	0x3c82abdd	0.015951091
250	0x3d87466e	0.0660523
251	0xbdd6dd5c	-0.1049144
252	0x3dc7d0a9	0.09756596
253	0xbdacaae8	-0.08431035
254	0x3d06a961	0.032876376
255	0xbd810faf	-0.063018195

network_body._body_endoder.seq_layers.0.bias f4 [128]
0	0x3d175340	0.036944628
1	0x3ca32997	0.019917293
2	0x3c6872b1	0.014187501
3	0xbd066ab1	-0.032816593
4	0xbd47db82	-0.048793323
5	0x3c392667	0.01130066
6	0x3d03253e	0.03201794
7	0xbb8b5a61	-0.0042527174
8	0x3d0fe9cc	0.035135075
9	0x3c201e00	0.009772778
10	0x3cdf82e8	0.0272841
11	0xbc0f93bc	-0.00876325
12	0xbadb9bdd	-0.0016754825
13	0x3c023469	0.007947066
14	0x3d48ade6	0.048993967
15	0x3c625e90	0.013816491
16	0xbb1ec74d	-0.002422768
17	0xbd152a76	-0.036417447
18	0x3d17b160	0.037034392
19	0xbc0ae98d	-0.008478534
20	0x3cd55e66	0.02604599
21	0x3c62b6f5	0.013837566
22	0x3ce6e075	0.028183201
23	0x3c17c375	0.009262909
24	0x3d2e2eb7	0.04252502
25	0x3d029682	0.031881817
26	0x3c69d0e5	0.014270996
27	0x3c0153b7	0.007893494
28	0x3c698609	0.014253148
29	0x3b8f9ddb	0.0043828315
30	0x3ce52f10	0.027976543
31	0x3bd70356	0.006561677
32	0x3b5984d4	0.0033190744
33	0x3c1a0f48	0.009403057
34	0x3cc02171	0.023453446
35	0x3c1c13c1	0.009526194
36	0x3cb2e083	0.021835571
37	0x3ce2a4e5	0.027666518
38	0x3c1db1ab	0.009624879
39	0x3ca342fa	0.019929398
40	0x3bb611e3	0.0055563315
41	0xbd69172d	-0.056906868
42	0x3d4ae403	0.049533855
43	0x3bd11a13	0.006381282
44	0x3c945aa5	0.018109629
45	0x3d151f05	0.036406536
46	0xbd54cd7f	-0.05195379
47	0xbc0891e3	-0.008335563
48	0x3bfe06af	0.0077522616
49	0x3c9d4840	0.01919949
50	0x3d1e6b5e	0.038676612
51	0xbce67618	-0.028132483
52	0x3cf856d5	0.030314842
53	0xbc534862	-0.012895675
54	0x3c45d106	0.012073761
55	0x3c5fb91c	0.013654973
56	0x3c998823	0.018741673
57	0x3cbaf0bf	0.022819875
58	0x3d28eed0	0.041243374
59	0x3b44a8f0	0.003000792
60	0x3ba19307	0.004930857
61	0xbc86cd12	-0.016455207
62	0x3d35a963	0.044350993
63	0x3c7331b7	0.014843396
64	0x3c460b6a	0.012087682
65	0x3cac6459	0.021043943
66	0x3d05c7ca	0.032661237
67	0x3cf04f5a	0.029334713
68	0x3b201946	0.0024429127
69	0x3ccb10b4	0.024788238
70	0xbbbbb158	-0.005727928
71	0x3c2a4489	0.010392317
72	0x3a26f421	0.00063687755
73	0x3c324e4c	0.010882925
74	0x3c92095d	0.01782673
75	0x3a696f45	0.0008904825
76	0x3d90fb5d	0.07079194
77	0x3cc407c0	0.023929477
78	0xbc99ca51	-0.01877323
79	0x3bd5f4c9	0.006529425
80	0x3b9e4e6d	0.0048311264
81	0x3cd96265	0.026536176
82	0x3ca8ca3a	0.020604242
83	0xbc8228e8	-0.015888646
84	0xbc54a244	-0.01297814
85	0x3cbcbfdd	0.023040706
86	0x3c7b03b1	0.015320704
87	0x3c71235e	0.014717905
88	0x3b925329	0.00446548
89	0x3bbaa9cb	0.0056965104
90	0x3c893dfb	0.016753187
91	0xbb5e8308	-0.0033952612
92	0xbc77fea7	-0.015136397
93	0x3c46495f	0.012102454
94	0x3ba11f18	0.0049170367
95	0xbb7b5db2	-0.0038355407
96	0x3d433c52	0.047664948
97	0xbcc26b95	-0.02373294
98	0x3cab23dc	0.020891123
99	0x3c15e7cc	0.009149503
100	0x3ca327ad	0.01991638
101	0x3bff1e13	0.0077855675
102	0x3c5d2a09	0.0134987915
103	0xbc4f4de4	-0.012652848
104	0x3ce6ba6a	0.028165061
105	0xbc10670f	-0.008813634
106	0x3bc01d5c	0.005862875
107	0x3c6091df	0.013706653
108	0xbc29f359	-0.01037296
109	0x3caaf2a1	0.020867648
110	0x3cad30fa	0.021141518
111	0x3bf1703b	0.0073681152
112	0x3b0ca2fb	0.0021459449
113	0x3d0bcd85	0.034131546
114	0xbcd03a8f	-0.025418548
115	0x3c6a036c	0.014283042
116	0xbbf32810	-0.0074205473
117	0xba22190c	-0.0006183542
118	0x3cdc4033	0.026886081
119	0x3bdd0edd	0.0067461566
120	0x3c0fe05b	0.008781518
121	0xbcd17f3c	-0.025573365
122	0x3b4a90bb	0.003090902
123	0xbcf16096	-0.029465001
124	0x3d09b1c5	0.0336168
125	0x3d18ed71	0.037335817
126	0xbc760a72	-0.015017139
127	0x3c268e1f	0.01016572

network_body._body_endoder.seq_layers.0.weight f4 [128, 69]
0	0xbbdeae54	-0.006795684
1	0x3ca9c894	0.020725526
2	0xbdbb1996	-0.091357395
3	0x3e20e1c6	0.15711126
4	0xbd0ccf80	-0.034377575
5	0x3dd28c71	0.10280693
6	0x3d571f11	0.05251986
7	0x3e122b68	0.1427437
8	0xbcde552d	-0.027140224
9	0x3dc8bec1	0.098020084
10	0x3d3c4c3e	0.045971148
11	0x3d72b2d7	0.059252586
12	0xbd741037	-0.059585776
13	0xbd04789d	-0.03234159
14	0x3db94507	0.09046369
15	0x3e25ac92	0.16179112
16	0xbc8eefbb	-0.017448297
17	0x3eacf1f6	0.33778352
18	0xbda2d35b	-0.07950469
19	0xbe32e465	-0.17469938
20	0x3c14cb86	0.009081727
21	0x3b62fd92	0.0034636003
22	0x3e8f59bf	0.27998158
23	0x3d8b7c67	0.06810837
24	0x3e01868a	0.12648979
25	0x3e2bdb10	0.16782784
26	0xbdfb8aca	-0.12282331
27	0xbdc584a4	-0.0964444
28	0x3de44e94	0.111478
29	0x3c375f98	0.011192225
30	0xbd12f1ab	-0.035875004
31	0x3e4f7568	0.2025963
32	0xbe9bd76e	-0.30437797
33	0x3e8c4339	0.27395037
34	0xbc8a4c14	-0.01688198
35	0x3d867168	0.06564599
36	0x3bb084e2	0.0053869346
37	0x3e1a7db8	0.1508702
38	0xbdf65c7b	-0.12029358
39	0x3e7c09fd	0.24613185
40	0xbdafc6f3	-0.085828684
41	0xbe2543d4	-0.16139156
42	0x3cf1f36e	0.029535022
43	0xbdc6e9a2	-0.09712531
44	0xbe81cb79	-0.2535055
45	0xbce8cd61	-0.028418245
46	0xbc86adaf	-0.01644024
47	0xbe01081a	-0.12600747
48	0xbd8e5eca	-0.06951673
49	0xbd17965a	-0.03700862
50	0xbdd071a3	-0.101779245
51	0xbdd37fdb	-0.10327121
52	0x3e846efc	0.25865924
53	0xbe0bc58a	-0.13649574
54	0x3dfde89f	0.123978846
55	0x3e048bcd	0.12943955
56	0x3e433702	0.19063953
57	0x3c0cd310	0.008595243
58	0xbe0c5e8c	-0.13707942
59	0x3d7579a2	0.05993045
60	0xbd78aaab	-0.060709637
61	0x3d3bc507	0.045842197
62	0xbd06e31b	-0.03293143
63	0x3d918694	0.07105747
64	0xbd036d6a	-0.032086767
65	0x3e3bdb1b	0.18345301
66	0x3b511eca	0.003190922
67	0xbb8038ee	-0.0039130365
68	0xbe195710	-0.14974618
69	0x3d338cf8	0.04383561
70	0xbd8ace4d	-0.0677763
71	0x3c366ac0	0.01113385
72	0xbe96a77e	-0.2942466
73	0x3dfe5fb4	0.12420598
74	0xbc6e175f	-0.014531939
75	0x3e2cfc02	0.16893008
76	0xbd507fe5	-0.05090322
77	0x3d5155ab	0.05110709
78	0xbdd3fe90	-0.10351288
79	0xbce35ca4	-0.027754135
80	0x3e459813	0.19296293
81	0x3d1850c3	0.037186395
82	0x3d2ed14b	0.042680066
83	0x3dd679bc	0.10472438
84	0x3e5dc10b	0.21655671
85	0x3cf186a2	0.029483143
86	0x3c6727f4	0.014108647
87	0xbe8d2637	-0.27568218
88	0xbc3a532c	-0.011372369
89	0xbe0361e8	-0.12830317
90	0x3c72edad	0.014827174
91	0xbdc2c9d2	-0.095111504
92	0x3d1fa4f0	0.038975656
93	0xbe8568ab	-0.26056418
94	0x3ec66c8e	0.38754696
95	0x3d67206b	0.0564274
96	0x3d0b13c2	0.03395439
97	0xbe5c6851	-0.21524169
98	0x3e7f23c3	0.24915986
99	0xbe3285a1	-0.17433788
100	0xbbad5bdb	-0.005290491
101	0xbe23b14a	-0.15985599
102	0x3e4fae84	0.20281416
103	0xbe428ea7	-0.1899973
104	0x3e30ba7f	0.17258643
105	0x3d9ed62e	0.07755695
106	0xbd9b8317	-0.07593363
107	0xbdf7d06b	-0.121002994
108	0x3d638401	0.05554581
109	0x3b500eb5	0.0031747047
110	0x3e00286a	0.12515417
111	0xbc82135c	-0.015878372
112	0xbd6f7ed3	-0.05847056
113	0x3d9d789a	0.076890185
114	0x3e86dd67	0.26340792
115	0x3e342f08	0.17596066
116	0x3d60bd95	0.0548683
117	0x3c7d05d8	0.015443288
118	0xbde0e1e8	-0.10980588
119	0xbd789115	-0.060685236
120	0x3ddf91fa	0.10916515
121	0x3e0c6859	0.1371168
122	0xbd5ca572	-0.05386872
123	0xbe7226e1	-0.23647644
124	0xbdfec381	-0.12439633
125	0x3e70441d	0.23463483
126	0xbdc843f5	-0.09778587
127	0x3d4d7840	0.050163507
128	0xbe961895	-0.2931563
129	0xbe6abfd1	-0.22924735
130	0x3e9699c5	0.29414192
131	0xbdbf3792	-0.09336771
132	0xbba956b7	-0.005167808
133	0xbb6552a0	-0.0034991875
134	0x3e117588	0.14204991
135	0x3d9c76dc	0.07639858
136	0xbe628ddd	-0.22124429
137	0xbd939b7b	-0.0720739
138	0xbd96107d	-0.07327364
139	0xba44b9ff	-0.0007504522
140	0xbdf16f5f	-0.117888205
141	0x3e0c3ffe	0.13696286
142	0x3e279cd1	0.16368414
143	0x3e970523	0.29496107
144	0xbd6886e6	-0.056769274
145	0xb9d6b85b	-0.00040954616
146	0x3dd29473	0.10282221
147	0x3e79ef35	0.24407656
148	0x3e1d2213	0.1534503
149	0x3ddd24c6	0.107980296
150	0xbd4d60f6	-0.050141297
151	0xbd8820b1	-0.066468604
152	0xbe607c67	-0.21922456
153	0x3d12d86a	0.03585092
154	0xbe0a27ee	-0.13491794
155	0x3d822e44	0.06356481
156	0x3e253118	0.16132009
157	0xbdcb29c0	-0.099200726
158	0x3b95a819	0.004567158
159	0xbdb8a4c1	-0.09015799
160	0x3bf11688	0.0073574223
161	0x3dc21076	0.09475796
162	0xbe49fc5e	-0.19725177
163	0xbdbd8e86	-0.092557
164	0xbc76a121	-0.015053065
165	0x3e08cc94	0.1335929
166	0x3e042434	0.12904435
167	0xbb085266	-0.0020801066
168	0x3cbf4c8b	0.023351928
169	0x3d4dac46	0.05021312
170	0x3e23fe9b	0.16015093
171	0x3e80fb4c	0.25191724
172	0x3dc4621d	0.09589026
173	0x3df9240e	0.1216508
174	0xbde1368d	-0.10996733
175	0x3cf3a718	0.029742762
176	0xbe39116e	-0.18073055
177	0xbcd39d6f	-0.025831906
178	0xbd239f3e	-0.039946787
179	0xbe3d94dc	-0.18513817
180	0xbd8ee5b8	-0.06977409
181	0xbc205d19	-0.009787821
182	0xbd585f56	-0.052825294
183	0x3d800705	0.06251339
184	0xbd4aa65b	-0.049475055
185	0xbc97f2a3	-0.018548315
186	0xbccdc23a	-0.025117029
187	0x3dd571f1	0.10422123
188	0x3dd4cdd0	0.10390818
189	0x3dffee81	0.12496663
190	0xbe2b6535	-0.16737826
191	0xbe0a1e95	-0.13488229
192	0x3e0af485	0.1356984
193	0xbdfc0879	-0.123063035
194	0x3e432d97	0.1906036
195	0x3c383a86	0.011244422
196	0x3d0f32c0	0.03496051
197	0x3d2350b3	0.039871883
198	0x3e95a5a2	0.2922793
199	0xba8f0ec6	-0.0010914437
200	0xbd18c311	-0.037295405
201	0xbd360318	-0.044436544
202	0x3ce088a7	0.02740891
203	0x3dd4c82e	0.10389744
204	0xbc45ad38	-0.012065224
205	0x3c996a0b	0.018727323
206	0x3d65157f	0.055928703
207	0xbd46503b	-0.048416357
208	0xbdf1e4c0	-0.11811209
209	0xbcc110e6	-0.023567628
210	0x3e07b1e6	0.13251457
211	0xbda9e156	-0.082949325
212	0xbe139bb9	-0.14414872
213	0x3aa264c1	0.0012389646
214	0x3cca6ef8	0.024711117
215	0xbe0b8c18	-0.1362766
216	0xbdb022a5	-0.08600358
217	0x3dc923a1	0.09821249
218	0xbe1e094f	-0.15433238
219	0x3e06edd8	0.13176668
220	0xbd8dc697	-0.06922644
221	0x3d465af1	0.048426572
222	0x3c247c9e	0.010039477
223	0x3e3ae1e9	0.1825024
224	0x3d304233	0.043031882
225	0x3e45df10	0.19323373
226	0xbdefa8a2	-0.11702086
227	0x3d94eee4	0.07272127
228	0xbe1fa679	-0.15590848
229	0xbe5c9483	-0.21541028
230	0x3e24e846	0.1610423
231	0x3e05ec02	0.13078311
232	0xbda45b9c	-0.080252856
233	0x3e03a3dc	0.12855476
234	0x3d90e1dc	0.07074329
235	0xbd86b3a7	-0.06577235
236	0xbd84892f	-0.06471478
237	0xbd39d2ed	-0.04536717
238	0xbe467f40	-0.1938448
239	0x3bb206c6	0.0054329364
240	0x3e033e44	0.12816721
241	0xbe015c27	-0.1263281
242	0xbe1ae266	-0.15125427
243	0x3d9417b8	0.072310865
244	0xbdeec044	-0.116577655
245	0xbcebf88c	-0.02880504
246	0x3d338243	0.0438254
247	0xbde976fc	-0.113996476
248	0x3c326903	0.010889295
249	0x3e1c439c	0.15260166
250	0xbdb6c3f6	-0.08924095
251	0x3d0ba9c0	0.034097433
252	0xbe3034e9	-0.17207684
253	0xbe2d4109	-0.1691934
254	0x3e79ca44	0.24393564
255	0xbe5f5d1e	-0.21812865

network_body._body_endoder.seq_layers.2.bias f4 [128]
0	0x3acd87a7	0.0015680686
1	0x3c947319	0.01812129
2	0x3a014eb6	0.00049326883
3	0x3ad5d630	0.0016314443
4	0x3c366c33	0.011134195
5	0x3cbbb708	0.022914425
6	0x3c0d6eaa	0.008632341
7	0x3d0980bf	0.033570047
8	0x3c87a531	0.016558262
9	0x3c7f38c1	0.015577496
10	0x3b24bf87	0.0025138573
11	0x3b2a701e	0.0026006768
12	0x3a2b44fe	0.0006533413
13	0x39b313a0	0.00034156162
14	0x3bce79aa	0.0063011246
15	0x3c275361	0.01021275
16	0x3c272cda	0.010203565
17	0x3bdd83bc	0.0067600887
18	0x3b9870dc	0.0046521258
19	0x3c58dec3	0.013236704
20	0x3c810a2f	0.015751926
21	0xbab84fb0	-0.0014061835
22	0x3c7f1e8d	0.015571249
23	0x3ccaec6c	0.024770938
24	0xbb7d6757	-0.0038666332
25	0x3c3f35c6	0.011670535
26	0x3c74555c	0.014912929
27	0x3ce027e2	0.027362768
28	0x3ceabe58	0.028655216
29	0xbba98914	-0.0051738117
30	0x3c2bdb19	0.010489249
31	0x3bba23ea	0.005680551
32	0x3c5d54bc	0.013508972
33	0x3c6e79d0	0.01455541
34	0x3bbf4fee	0.005838386
35	0x3c94d2a9	0.018166857
36	0x3bb8e38d	0.0056423605
37	0x3c87b7ba	0.0165671
38	0x3cf59fdb	0.029983452
39	0x3c19baf7	0.009382955
40	0x3ca25204	0.019814499
41	0x3c1534e4	0.009106848
42	0x3d1d5dbe	0.038419478
43	0x3c93bf2a	0.01803549
44	0x3c11d8fa	0.008901829
45	0x3c60ce8d	0.013721121
46	0x3c144ad2	0.009051042
47	0x3b2c7786	0.0026316359
48	0x3ce10d2f	0.027472107
49	0x3c1c8dc9	0.009555289
50	0x3c7392b5	0.014866521
51	0x3c138870	0.009004697
52	0x3cb07c47	0.021543635
53	0x3cc2c56c	0.023775779
54	0x3a6ae768	0.0008960874
55	0x3c8094be	0.015695926
56	0x3ca77fa2	0.020446602
57	0x3c432ade	0.011912076
58	0x3b83982b	0.0040159426
59	0x3bf941fb	0.0076067424
60	0x3c1b7cef	0.009490236
61	0x3d0e7ba8	0.034785897
62	0x3b93b921	0.004508153
63	0x3c2cee5a	0.010554874
64	0x3c480235	0.012207557
65	0x3c8cff2d	0.017211521
66	0x3c2086b1	0.009797738
67	0x3bcd13c3	0.0062584593
68	0x3aa2ae50	0.0012411568
69	0x3b827763	0.003981517
70	0x3ccf945b	0.025339296
71	0x3ccc833e	0.024964925
72	0xbc7b04d5	-0.015320976
73	0x3ad647bc	0.0016348283
74	0x3d1755af	0.03694695
75	0x3a8c5947	0.0010707759
76	0x3b66fe4f	0.0035246795
77	0x3b5b21ed	0.003343697
78	0x3c0ca406	0.008584028
79	0x3b1c329a	0.0023833872
80	0x3b4ba421	0.003107317
81	0x3c4bee0f	0.012446894
82	0x3caae0e0	0.020859182
83	0x3a5e515e	0.00084807526
84	0x3b68b849	0.0035510233
85	0x3bf1edab	0.0073830686
86	0x3c4c3f1e	0.01246622
87	0x3c0bfe1d	0.008544472
88	0x3a0ec8cd	0.0005446792
89	0x3cde55e4	0.027140565
90	0x3a234162	0.00062276993
91	0x3c629da8	0.0138315335
92	0x3c594056	0.013259968
93	0x3c9209c6	0.017826926
94	0x3c44277b	0.0119723035
95	0x3c393bd5	0.011305769
96	0x3ca04d5f	0.019568143
97	0x3c9c7c6d	0.0191023
98	0x3cb7beea	0.022429902
99	0x3a578cc2	0.00082225737
100	0x3c512bd4	0.012766797
101	0x3cc5fc14	0.024168052
102	0x3ced0243	0.028931743
103	0x3bba1b96	0.005679558
104	0x3bc24feb	0.005929937
105	0x3c24bc4e	0.010054661
106	0x3d0249ee	0.031808786
107	0x3c9be72b	0.019031128
108	0x3b728f38	0.0037011635
109	0x3c8efdf3	0.017455077
110	0x3cfd5aad	0.030927027
111	0xbb78c824	-0.003796109
112	0x3c7f5ca0	0.015586048
113	0x3d08c56f	0.033391412
114	0x3d15a0d9	0.03653035
115	0x3c3049f3	0.010759818
116	0x3b9bf8da	0.00475989
117	0x3c3adbfb	0.0114049865
118	0x3c047049	0.0080834115
119	0x3cb18ade	0.021672662
120	0xbb9085a2	-0.0044104615
121	0x3c04cf5a	0.008106077
122	0x3d259070	0.04042095
123	0x3cd2b2f8	0.025720105
124	0x3c95a2a3	0.018266028
125	0x3cd84915	0.026402036
126	0xbb8f5103	-0.004373671
127	0x3b91fb45	0.0044550025

network_body._body_endoder.seq_layers.2.weight f4 [128, 128]
0	0xbda5e72c	-0.08100733
1	0xbda23662	-0.07920529
2	0xbd96eed0	-0.073697686
3	0x3da36d1b	0.079797946
4	0xbdb893a3	-0.090125345
5	0x3d077598	0.03307113
6	0x3e0aa627	0.13539945
7	0xbd12370a	-0.03569702
8	0x3a864480	0.0010243803
9	0x3d9f941e	0.07791923
10	0xbb87e676	-0.004147346
11	0x3c5f24aa	0.013619581
12	0xbca4a999	-0.020100402
13	0x3d2a8dab	0.04163901
14	0x3dfe31cc	0.12411842
15	0xbd14b2ba	-0.03630326
16	0x3dd4a870	0.103836894
17	0x3df37e5c	0.118893355
18	0x3d8c045b	0.06836768
19	0x3c85665f	0.016284166
20	0x3d749e76	0.059721433
21	0xbbc46869	-0.005993892
22	0xbde88a0d	-0.11354456
23	0xbdc86693	-0.097851895
24	0xbdbd203b	-0.09234663
25	0xbb525617	-0.003209477
26	0x3d5aa136	0.0533764
27	0x3e1edab2	0.15513113
28	0x3e053a99	0.13010634
29	0x3e042fa5	0.129088
30	0x3b44a95f	0.003000818
31	0xbe1be0ee	-0.15222523
32	0xbb6c7783	-0.0036081977
33	0x3e72d000	0.23712158
34	0x3db29ab9	0.08720917
35	0x3bb96a8a	0.0056584524
36	0xbdae24c8	-0.08503109
37	0xbda609e5	-0.08107356
38	0xbdbaf002	-0.09127809
39	0xbd55828d	-0.052126456
40	0x3c0a7d6c	0.0084527545
41	0xbd8cae42	-0.068691745
42	0xbd260ca7	-0.04053941
43	0x3d2dba68	0.0424141
44	0xbc96a108	-0.018387333
45	0xbd583dd1	-0.052793328
46	0x3d8d5d6c	0.069025844
47	0x3cb88969	0.02252646
48	0xbc8de24e	-0.017319825
49	0x3b67c5ff	0.0035365818
50	0xbd2465c2	-0.040136106
51	0xbdca1685	-0.098675765
52	0x3c1d7aa8	0.009611763
53	0x3de29616	0.11063783
54	0xbdd4551a	-0.10367794
55	0xbc8f5632	-0.017497156
56	0xbd055cae	-0.03255909
57	0x3c807578	0.015681013
58	0x3ba13764	0.004919933
59	0xbd475835	-0.048668105
60	0x3d84f615	0.06492249
61	0xbe5907a6	-0.21194324
62	0xbdcc7755	-0.09983698
63	0x3dd05a2b	0.10173448
64	0x3e38b89e	0.18039176
65	0xbc9e8d71	-0.019354554
66	0xbd99d746	-0.07511763
67	0x3dabaf19	0.083830066
68	0x3da00672	0.07813729
69	0xbcbd1bf4	-0.023084618
70	0x3db66051	0.0890509
71	0x3b5c22d4	0.0033590095
72	0x3dc9073e	0.098158345
73	0x3c83ffc4	0.01611317
74	0x3d4a1d03	0.049344074
75	0xbd856404	-0.06513217
76	0x3d8bd2f7	0.06827348
77	0xbc312c2c	-0.010813754
78	0x3c5370b2	0.012905287
79	0xbc860bab	-0.016362986
80	0xbe20a784	-0.15688902
81	0xbd705494	-0.05867441
82	0x3d0c30ca	0.034226216
83	0x3c99c9f9	0.018773066
84	0xbd192717	-0.037390795
85	0x3cf75ab0	0.03019461
86	0xbdac810b	-0.084230505
87	0x3cbe1cf7	0.02320717
88	0xbce88ae0	-0.028386533
89	0xbd9bb525	-0.0760291
90	0x3d3f9483	0.04677249
91	0x3abfa87a	0.0014622353
92	0xbcc8d75c	-0.024516754
93	0x3d913f2a	0.07092126
94	0x3e097fa0	0.13427591
95	0xbd07fcff	-0.03320026
96	0x3c8d9c49	0.017286437
97	0x3db9f2f6	0.09079544
98	0xbd5ab90f	-0.053399142
99	0xbb82aa9d	-0.003987624
100	0x3bfe08ab	0.007752498
101	0xbd40661d	-0.046972383
102	0xbd97efac	-0.07418761
103	0xbd110b9f	-0.035411473
104	0x3c43292c	0.011911672
105	0xbd43eb2f	-0.04783171
106	0xbd9baa15	-0.076008
107	0x3e18bd33	0.14915924
108	0x3c63de94	0.013908047
109	0xbd70d97e	-0.058801167
110	0x3cb43195	0.021996299
111	0xbd21a9b6	-0.03946849
112	0x3cf7fd7a	0.030272234
113	0xbc01480f	-0.007890715
114	0x3d96a5cd	0.07355843
115	0xbcc0481c	-0.023471884
116	0x3d3b4c56	0.045727096
117	0x3bd9231f	0.006626501
118	0xbe186c51	-0.1488507
119	0x3dc12070	0.09430015
120	0x3e0e722f	0.13910745
121	0xbcd400a8	-0.02587922
122	0x3dc53d16	0.09630792
123	0xbd0ef5aa	-0.034902252
124	0x3d63b3e5	0.055591483
125	0x3c8ff8b6	0.01757465
126	0xbdc10e99	-0.094266124
127	0x3d819d06	0.06328778
128	0xbe2cab63	-0.16862254
129	0xbb7fee78	-0.003905205
130	0x3d96618c	0.07342824
131	0xbcf89584	-0.030344732
132	0xbd86c042	-0.06579639
133	0x3e29c4c2	0.16578963
134	0x3db66c9e	0.08907436
135	0xbc773c1d	-0.015090016
136	0xbc6b47d7	-0.01436039
137	0x3dd8336b	0.10556682
138	0xbe1e6b8c	-0.15470713
139	0x3cb5c64d	0.022189284
140	0x3e1dac6d	0.15397806
141	0xbdc4d056	-0.096100494
142	0x3c8b5d05	0.017012129
143	0xbbaec0ea	-0.0053330557
144	0x3d462f66	0.048385046
145	0x3ca1fa0b	0.01977255
146	0x3e229db6	0.15880474
147	0xbc5c4e1b	-0.013446356
148	0xbdf68af2	-0.120382205
149	0x3d820959	0.06349439
150	0xbbe3b28b	-0.006948774
151	0xbcbd3679	-0.023097264
152	0x3b728d4f	0.0037010496
153	0xbd0816ba	-0.0332248
154	0xbd64eda7	-0.055890705
155	0x3de0c838	0.10975689
156	0x3d385aad	0.04500835
157	0x3e1e4328	0.15455306
158	0x3dc2318b	0.09482106
159	0xbe3edfaa	-0.18640009
160	0x3dd6ab5f	0.10481905
161	0x3d1b7a53	0.037958454
162	0xbda87db6	-0.082271025
163	0x3d37c36e	0.04486411
164	0xbe0d57fe	-0.13803098
165	0x3d329cc3	0.04360653
166	0x3d71d0fa	0.059037186
167	0xbd1061cd	-0.03524952
168	0x3d89ca6b	0.06728061
169	0x3db6fdaf	0.08935105
170	0xbe359bfb	-0.17735283
171	0x3d3ed097	0.046585646
172	0xbe109c74	-0.14122182
173	0x3ddeb1b5	0.10873739
174	0x3ca9b651	0.020716818
175	0xbcab1362	-0.020883266
176	0xbbf8a4db	-0.0075880117
177	0xbd637fa3	-0.055541646
178	0xbdfa6afd	-0.12227438
179	0xbe0dd576	-0.1385096
180	0x3dceda14	0.10100189
181	0xbd178bda	-0.036998607
182	0xbbbe9068	-0.0058155544
183	0xbca59aea	-0.02021547
184	0x3d9edc61	0.07756878
185	0xbe7fbdb1	-0.24974705
186	0xbdb977bf	-0.09056043
187	0xbd88af48	-0.06674057
188	0xbd22d56a	-0.03975431
189	0xbd7a1acb	-0.061060708
190	0x3d0e63be	0.03476309
191	0x3d38f28b	0.045153182
192	0x3ce88503	0.028383737
193	0xbd9bc5a4	-0.07606056
194	0x3daaa0c2	0.08331443
195	0x3df11abd	0.11772678
196	0xbc8de795	-0.017322341
197	0x3e1698ea	0.1470677
198	0xbd2d7246	-0.042345308
199	0x3d2f8269	0.04284898
200	0xbd9e7c84	-0.07738593
201	0xbdcea41a	-0.10089894
202	0x3bcc0908	0.0062266625
203	0x3d8e6e5a	0.06954642
204	0x3e8428ea	0.25812465
205	0x3e2eaacd	0.17057343
206	0xbc591fd3	-0.013252216
207	0x3e50a661	0.20375969
208	0x3c16ee0f	0.009212031
209	0x3e6e65ca	0.23281017
210	0x3d720304	0.059084907
211	0x3dde3ed0	0.10851824
212	0xbd01d337	-0.03169557
213	0x3de61b3b	0.112356625
214	0x3d5663ee	0.052341394
215	0x3dd72183	0.10504439
216	0x39d61c76	0.00040838466
217	0xbb7a4233	-0.003818643
218	0xbcd471f9	-0.025933253
219	0x3c9ed151	0.01938692
220	0xbdde6f64	-0.1086109
221	0xbd876c2f	-0.06612431
222	0xbcb4f631	-0.02209005
223	0xbd93b938	-0.07213062
224	0xbd9d59b2	-0.07683124
225	0xbdcaaac8	-0.09895855
226	0x3d4a39d6	0.049371563
227	0xbc8af3ea	-0.01696201
228	0xbd436710	-0.04770571
229	0x3e246718	0.16054952
230	0xbc874f50	-0.016517311
231	0xbdadeb1a	-0.08492108
232	0xbd52ecae	-0.051495247
233	0xbe59982b	-0.21249454
234	0x3d787615	0.060659487
235	0x3d622370	0.055209577
236	0xbc5dc000	-0.013534546
237	0x3dc3f740	0.095686436
238	0xbca6775a	-0.020320583
239	0xbd121d43	-0.035672437
240	0x3d1197f9	0.035545323
241	0xbe17efcd	-0.1483757
242	0xbe32f135	-0.17474826
243	0x3db82d77	0.08993047
244	0xbce1b4af	-0.027551977
245	0x3d92de90	0.07171357
246	0xbc887bed	-0.016660655
247	0xbd9d8fdb	-0.07693454
248	0x3d24f9ab	0.040277164
249	0x3d8a5b9c	0.06755754
250	0xbe1da8de	-0.15396449
251	0x3d9f51cb	0.07779273
252	0xbe268923	-0.16263251
253	0x3d11c803	0.035591137
254	0xbddd30ee	-0.10800348
255	0xbdf4e274	-0.11957255
