results/phase3_t2/NPCAgent/NPCAgent-999974.onnx (onnx, 107855 bytes, 9 tensors)

action_model._continuous_distribution.log_sigma f4 [1, 2]
0	0x3d3a6a11	0.04551131
1	0xbc122efb	-0.008922334

action_model._continuous_distribution.mu.bias f4 [2]
0	0x3a99c9dc	0.0011733132
1	0x3ad2ceb7	0.0016083334

action_model._continuous_distribution.mu.weight f4 [2, 128]
0	0x3d5ccd51	0.053906742
1	0xbd48c767	-0.04901829
2	0x3d23085a	0.039802887
3	0xbd289199	-0.041154478
4	0xbc64292a	-0.01392583
5	0xbc96a531	-0.018389316
6	0xbe15df08	-0.14635861
7	0x3d1e6963	0.038674723
8	0xbcd8aec9	-0.026450532
9	0xbac13237	-0.0014739697
10	0xbd1e3cf5	-0.038632352
11	0x3dc2c018	0.09509295
12	0x3ce78bb8	0.028264865
13	0x3cbc7c20	0.023008406
14	0x3d6d7241	0.05797029
15	0x3ce637bd	0.02810275
16	0x3d3d3060	0.046188712
17	0xbd6ddc50	-0.058071434
18	0xbd8ce632	-0.06879844
19	0xbd746aa2	-0.059672005
20	0xbd097077	-0.03355452
21	0xbd6f843e	-0.058475725
22	0x3d9a5be0	0.07537055
23	0x3d1be759	0.038062427
24	0x3d67be02	0.05657769
25	0x3a14e703	0.00056801754
26	0xbd7c3bc5	-0.06158044
27	0x3ca83da4	0.020537205
28	0xbd203582	-0.03911353
29	0x3b23a2cd	0.0024968863
30	0xb920a502	-0.00015320259
31	0xbc7a9e3b	-0.015296514
32	0x3d9655fa	0.073406175
33	0xbdca72d5	-0.09885184
34	0xbc64add9	-0.013957464
35	0xbd3ed101	-0.04658604
36	0x3d095cf1	0.0335359
37	0xbd9eb861	-0.07750011
38	0xbcd69ce1	-0.026197853
39	0x3d20efb6	0.039291106
40	0xbc32a0c1	-0.0109025845
41	0xbd48a6c0	-0.04898715
42	0x3d98dcb2	0.07463969
43	0x3d103454	0.035206154
44	0xbd94031d	-0.07227156
45	0x3cb60f01	0.022223951
46	0xbdddae23	-0.108242296
47	0x3d895b53	0.06706872
48	0x3d8f1740	0.069868565
49	0x3b2d520c	0.0026446609
50	0xbdf53a82	-0.1197405
51	0x3d38c7b7	0.045112338
52	0xbcf35176	-0.02970193
53	0xbd2b04ff	-0.04175281
54	0x3dc6a970	0.097002864
55	0x3d28e53e	0.041234247
56	0xba44113f	-0.00074793765
57	0xbde91ecb	-0.113828264
58	0xbd439d95	-0.047757704
59	0xbd956dee	-0.07296358
60	0xbd9ee967	-0.07759362
61	0x3da0b323	0.078466676
62	0x3bf87674	0.00758248
63	0xbc4b1ef0	-0.012397513
64	0x3d86f4ee	0.065896854
65	0xbddf3334	-0.10898438
66	0x3b5971b9	0.0033179356
67	0x3d42ff80	0.047606945
68	0x3dd9ca65	0.10634307
69	0xbdad48d2	-0.08461155
70	0xbd011ba5	-0.031520505
71	0xbcb048d4	-0.021519102
72	0xbd26b3fe	-0.040698998
73	0xbd3f75ce	-0.046743207
74	0xbc5f13f0	-0.013615593
75	0xbd7c2321	-0.06155694
76	0x3d85ab4c	0.06526813
77	0xbd2817a8	-0.041038185
78	0xbc402dad	-0.01172964
79	0xbdb52316	-0.08844583
80	0xbd181a4c	-0.037134454
81	0xbda7dc35	-0.08196298
82	0x3d2deaa3	0.042460095
83	0x3d1753f0	0.036945283
84	0xbd1f1668	-0.038839728
85	0x3cd6601e	0.02616888
86	0x3c61d737	0.013784221
87	0x3d90b97b	0.070666276
88	0x3c85abf2	0.016317341
89	0x3dc357dd	0.09538243
90	0x3d0f0600	0.03491783
91	0xbda0e3e2	-0.07855965
92	0xbd8fc27c	-0.07019517
93	0xbcb264ac	-0.02177652
94	0xbdbc2b86	-0.09187989
95	0x3b49456d	0.0030711547
96	0x3b624e17	0.0034531408
97	0x3d8c2a87	0.06844049
98	0xbd51b2ab	-0.05119578
99	0x3d869e2f	0.0657314
100	0xbda9db27	-0.08293753
101	0x3d163ec4	0.03668095
102	0xbcba3def	-0.02273461
103	0xbdadb8b2	-0.084824935
104	0x3dc21566	0.09476738
105	0x3ab5145e	0.0013815274
106	0xbd30b6f0	-0.043143213
107	0xbd613d99	-0.054990385
108	0xbc8c35b8	-0.017115459
109	0xbce6e2b8	-0.02818428
110	0x3cd37ef1	0.025817366
111	0x3dc3c633	0.09559288
112	0x3d97d583	0.07413771
113	0x3d784fbd	0.06062292
114	0xbcbb58bc	-0.02286946
115	0xbc784678	-0.01515352
116	0xbd2ae253	-0.041719746
117	0xbd613965	-0.054986376
118	0x3da97bb8	0.082755506
119	0xbd006898	-0.03134975
120	0xbda05c15	-0.07830063
121	0xbd3a8577	-0.04553744
122	0x3cd9dcdf	0.026594577
123	0xbd77f29d	-0.06053411
124	0xbd5ad47a	-0.05342529
125	0x3d374370	0.044742048
126	0x3d8c6b55	0.068564095
127	0x3daa2d7c	0.08309457
128	0xbd230596	-0.03980025
129	0x3cfafd25	0.030638287
130	0x3cb57884	0.022152193
131	0xbcfc5a0a	-0.030804653
132	0x3d61b47f	0.055103775
133	0x3daa0c51	0.083031304
134	0xbc46ccf0	-0.012133822
135	0x3bc3f0d9	0.005979639
136	0x3ddeddca	0.10882147
137	0x3cc10fc5	0.02356709
138	0xbd43bc35	-0.04778691
139	0xbd1abb94	-0.037776545
140	0x3cdb3972	0.02676079
141	0x3d785624	0.060629025
142	0x3d9d12d8	0.0766961
143	0xbb617274	-0.0034400495
144	0xbd7ecc48	-0.062206537
145	0x3bb00fe3	0.0053729876
146	0x3d3017db	0.0429915
147	0x3c11ba99	0.008894586
148	0xbcb44a00	-0.022007942
149	0xbd22a980	-0.03971243
150	0xbd9b5ac5	-0.07585672
151	0x3d5d5796	0.054038607
152	0xbbc53c90	-0.0060191825
153	0xb9f04d02	-0.00045833742
154	0xbd0587c2	-0.032600172
155	0xbd08948f	-0.0333448
156	0xbd7c1b99	-0.061549757
157	0x3d88275a	0.06648131
158	0xbd2d6b7b	-0.04233883
159	0x3dba6cae	0.0910276
160	0xbd1d8332	-0.038455196
161	0xbd4aaf26	-0.04948344
162	0x3da879fe	0.08226393
163	0x3db6f58d	0.08933554
164	0x3c7621e3	0.015022728
165	0xbd1667f1	-0.03672022
166	0x3dc5b834	0.096542746
167	0x3ba3c8ba	0.0049982937
168	0xbd85f876	-0.06541531
169	0xbd1b6680	-0.03793955
170	0xba1c6ab3	-0.0005966827
171	0xbd8d5825	-0.06901578
172	0x3dd860cc	0.105653375
173	0xbda3704f	-0.079804055
174	0x3d1895bd	0.037252177
175	0x3d8af119	0.06784267
176	0x3cbf70b4	0.02336917
177	0xbd8fd228	-0.07022506
178	0x3cc837b8	0.024440631
179	0x3da7f796	0.0820152
180	0xbc64e91d	-0.013971594
181	0x3be8088d	0.0070810975
182	0xbca8ff7d	-0.020629639
183	0xbd1295af	-0.03578728
184	0x3d8a2b6c	0.06746563
185	0xbd2adfe3	-0.04171742
186	0xbdb279f4	-0.08714667
187	0xbafc10f7	-0.001923113
188	0xbb20c1a5	-0.0024529484
189	0xbc93ccc0	-0.018041968
190	0x3dcd3fa0	0.10021901
191	0xbddaad79	-0.106776185
192	0xbd7cd894	-0.061729982
193	0x3d77f13b	0.06053279
194	0xbd7896ab	-0.060690563
195	0xbdec7474	-0.11545649
196	0x3ce25f5a	0.027633358
197	0x3d184050	0.03717071
198	0x3de6d205	0.11270527
199	0xbd68cd58	-0.056836456
200	0xbd22e616	-0.03977021
201	0x3d322f3d	0.04350208
202	0xbd2b25cc	-0.041784093
203	0xbcd8f842	-0.026485566
204	0x39b78c82	0.00035009166
205	0xbd650743	-0.05591513
206	0xbd5ccf06	-0.05390837
207	0x3d82ab0e	0.06380282
208	0xbd251ea6	-0.04031243
209	0xbd0b7a09	-0.03405193
210	0x3d4cd4c3	0.050007593
211	0x3d4ec813	0.050483774
212	0x3d427a77	0.047480073
213	0x3db1a252	0.08673538
214	0x3db6598b	0.08903798
215	0xbbcd006d	-0.0062561543
216	0x3d9efc85	0.07763008
217	0xbd78bace	-0.060725026
218	0x3c9b2785	0.018939743
219	0x3c5c4fb2	0.013446735
220	0xbcc8718e	-0.02446821
221	0x3dd068ff	0.101762764
222	0xbc3cdc1e	-0.011527089
223	0x3dced7e3	0.10099771
224	0xbc925fd8	-0.017867967
225	0x3da0e0d6	0.07855384
226	0x3dce48e2	0.10072495
227	0x3dc41772	0.09574784
228	0xbce61c0c	-0.028089546
229	0x3da5d5d3	0.08097424
230	0xbd88f95f	-0.06688189
231	0x3cc13509	0.02358486
232	0x3d3468df	0.044045325
233	0x3c52fb66	0.012877321
234	0xbd507e0a	-0.05090145
235	0xbd93f853	-0.072250985
236	0xbc866f51	-0.016410502
237	0x3db15a37	0.08659785
238	0x3d36ce06	0.044630073
239	0xbc04cfa3	-0.008106145
240	0xbdba1fa2	-0.09088065
241	0x3d2b1b75	0.041774232
242	0x3dc0e2d4	0.09418264
243	0xbd1fd7ee	-0.039024286
244	0xbda89aa8	-0.08232623
245	0xbd3002fa	-0.04297159
246	0x3cabf6cd	0.020991707
247	0x3cbb9447	0.022897853
248	0x3d3719c3	0.044702303
249	0xbb3a428a	-0.0028421008
250	0x3d293dc9	0.04131869
251	0xbd7d9b5a	-0.061915733
252	0xbce798d3	-0.028271114
253	0xbdb1e012	-0.08685316
254	0x3dd9a6ef	0.10627543
255	0xbd9a546a	-0.07535632

action_model._discrete_distribution.branches.0.bias f4 [2]
0	0x3c41a909	0.011820086
1	0xbc41a906	-0.0118200835

action_model._discrete_distribution.branches.0.weight f4 [2, 128]
0	0xbd31b6bd	-0.043387163
1	0x3d373f31	0.044738
2	0x3dbd6296	0.092473194
3	0x3d98bdfe	0.07458113
4	0xbd8ef27d	-0.06979845
5	0xbbd75aed	-0.0065721185
6	0xbc4eed6d	-0.012629849
7	0x3e056504	0.13026816
8	0xbd40a803	-0.04703523
9	0xbd8c711d	-0.06857512
10	0xbd292417	-0.041294184
11	0xbce2df30	-0.027694315
12	0xbd9ce37e	-0.07660578
13	0xbcda073a	-0.026614774
14	0xbbc12f31	-0.005895518
15	0x3df0d7d1	0.11759914
16	0x3aab3bfd	0.0013064143
17	0x3dc1b313	0.09457984
18	0x3d5277da	0.05138383
19	0x3d936b3a	0.07198186
20	0x3d6db556	0.058034264
21	0x3d6ec772	0.058295675
22	0xbc988a6b	-0.01862069
23	0x3dd7dc4c	0.10540065
24	0xbd913796	-0.0709068
25	0x3dedaf63	0.11605718
26	0x3d2d09f2	0.042245813
27	0xbd22a54b	-0.039708417
28	0x3d8e147f	0.06937503
29	0x3d9e6f08	0.07736021
30	0x3de64cd8	0.112451255
31	0xbe12f11e	-0.14349791
32	0xbd400005	-0.04687502
33	0x3d4abbd3	0.04949553
34	0x3d54388f	0.05181175
35	0xbdc75dfd	-0.09734724
36	0x3d96b1be	0.073581204
37	0x3d9f8d6f	0.07790648
38	0xbdabf0e9	-0.08395559
39	0x3d47a025	0.04873671
40	0xbdbc8723	-0.09205463
41	0xbcb04328	-0.021516398
42	0x3df525c9	0.119700976
43	0xbd497a69	-0.049189005
44	0xbd90926d	-0.070591785
45	0xbd242f3c	-0.04008411
46	0xbd9d8030	-0.076904655
47	0xbd728fb0	-0.059219062
48	0xbd5e8789	-0.054328475
49	0x3d5c78ff	0.05382633
50	0xbd2a60c9	-0.041596208
51	0xbdb47772	-0.08811845
52	0x3dba0642	0.09083225
53	0x3d3f43c6	0.046695493
54	0xbc9beeda	-0.019034792
55	0x3dd9e79b	0.10639878
56	0x3dccb8a2	0.099961534
57	0xbd250c80	-0.040295124
58	0xbcfcd3ec	-0.030862771
59	0xbdcd3a3d	-0.10020874
60	0xbbf56ebf	-0.0074900086
61	0xbd307c9d	-0.04308759
62	0x3de3f594	0.11130825
63	0x3d203236	0.039110385
64	0x3da46c70	0.08028495
65	0x3c10c416	0.008835813
66	0xbdafb41f	-0.08579277
67	0xbdc3fedd	-0.09570096
68	0xbd901994	-0.07036129
69	0x3c86eed3	0.016471302
70	0xbc54fa23	-0.01299909
71	0x3d86a4ca	0.065744
72	0x3c5f28de	0.013620583
73	0xbd6f2988	-0.058389217
74	0x3df20892	0.11818041
75	0x3d799e1a	0.060941793
76	0x3cc5c45d	0.024141485
77	0xbd9829fd	-0.07429884
78	0x3d7a61e9	0.06112853
79	0x3dbf7ca8	0.09349948
80	0x3ddfcbc6	0.109275386
81	0x3d7ea712	0.06217105
82	0x3de92c84	0.11385444
83	0xbde160f7	-0.11004823
84	0xbbe95ef3	-0.0071219145
85	0xbc9063bb	-0.01762568
86	0xbdbad12c	-0.091219276
87	0x3d80a14a	0.062807634
88	0xbd820b97	-0.06349867
89	0xbd65905f	-0.056045886
90	0xbe2fadbc	-0.17156118
91	0x3c8127df	0.015766082
92	0x3de95b40	0.11394358
93	0xbdc5841f	-0.09644341
94	0x3c5876b5	0.013211896
95	0xbc9dc8b6	-0.019260745
96	0xbcd17488	-0.025568262
97	0x3d795b0e	0.060877852
98	0xbdcbefaf	-0.099578254
99	0x3d81f11b	0.06344815
100	0x3d9bdb2c	0.07610163
101	0xbdf8613b	-0.1212792
102	0x3cbf7ec2	0.023375873
103	0x3c970bcd	0.018438244
104	0xbd3b5cb5	-0.04574271
105	0x3dc8e5ef	0.09809481
106	0x3d25ebde	0.040508144
107	0x3d6f72fe	0.058459274
108	0xbce091f2	-0.027413342
109	0xbdd827c1	-0.105544575
110	0x3d9496a4	0.07255295
111	0xbd0b5f7f	-0.03402662
112	0xbd3e92b3	-0.046526622
113	0x3cb29e22	0.02180392
114	0xbd9889fe	-0.07448195
115	0x3d8e7a8e	0.06956969
116	0xbdba1b4f	-0.0908724
117	0x3c0959b4	0.008383203
118	0x3deb99b0	0.11503923
119	0x3c0885ea	0.008332709
120	0x3d740ebc	0.059584364
121	0x3bd22b50	0.0064138547
122	0x3da9a1bc	0.082828015
123	0x3d370a9f	0.044687863
124	0x3da9e237	0.082951
125	0xbc553bd0	-0.013014749
126	0xbd3813d4	-0.044940785
127	0xbe0ff3af	-0.14057802
128	0x3d04c645	0.032415647
129	0xbd4d9412	-0.05019004
130	0xbd93f21b	-0.07223912
131	0xbd395549	-0.04524735
132	0x3d828493	0.06372943
133	0x3b81fa03	0.0039665713
134	0x3c9009c3	0.01758278
135	0xbe0c2cca	-0.1368896
136	0x3d5c750b	0.05382256
137	0x3d84fd35	0.06493608
138	0x3d716992	0.05893857
139	0x3d4760e9	0.048676405
140	0x3dc2d560	0.09513354
141	0x3d0ed90a	0.034874953
142	0x3ca96eec	0.020682774
143	0xbe09c13c	-0.1345262
144	0xbc4aada8	-0.012370504
145	0xbdbe37a5	-0.09287957
146	0xbd8cd1ee	-0.068759784
147	0xbd811757	-0.0630328
148	0xbd37aae9	-0.044840727
149	0xbd60e450	-0.054905236
150	0x3c55ce98	0.013049744
151	0xbe031997	-0.1280273
152	0x3d9973a2	0.07492758
153	0xbe06ed8e	-0.13176557
154	0xbd2e7f6f	-0.042602
155	0x3d1d95bc	0.038472876
156	0xbd7dc924	-0.0619594
157	0xbd76a821	-0.060218934
158	0xbdeacc8e	-0.11464797
159	0x3e0950fe	0.13409802
160	0x3cb505b8	0.022097453
161	0xbd581bee	-0.05276101
162	0xbd7875ca	-0.060659207
163	0x3dea3185	0.11435226
164	0xbd7afe37	-0.061277594
165	0xbd844d54	-0.06460062
166	0x3d95e5e7	0.07319241
167	0xbd6f610f	-0.05844217
168	0x3dddad2e	0.10824047
169	0x3c91c271	0.017792912
170	0xbe04e864	-0.12979275
171	0x3d94adc7	0.07259708
172	0x3d433b18	0.047663778
173	0x3d18806d	0.03723185
174	0x3d9facd3	0.077966355
175	0x3d804df4	0.062648684
176	0x3d8fd6f7	0.07023423
177	0xbd827a5d	-0.06370995
178	0x3d05e6b1	0.032690708
179	0x3db533d3	0.08847775
180	0xbda58a37	-0.08083003
181	0xbd15184c	-0.036400124
182	0x3b9b2331	0.0047344198
183	0xbdbcc751	-0.09217704
184	0xbdd1135f	-0.10208773
185	0x3d30cd6e	0.043164663
186	0x3c981c99	0.018568324
187	0x3dcdca18	0.10048312
188	0x3b2c0868	0.0026250128
189	0x3d175bf3	0.036952924
190	0xbdcc8acc	-0.09987411
191	0xbd4ac162	-0.04950083
192	0xbdb89acf	-0.090139024
193	0xbcc6eef0	-0.024283856
194	0x3de5006b	0.1118172
195	0x3de7a7c0	0.11311293
196	0x3d97e6c2	0.074170604
197	0xbbc1a6ff	-0.0059098
198	0x3d288f08	0.04115203
199	0xbd9e21f1	-0.077213176
200	0xbc99a433	-0.018755054
201	0x3d353936	0.044244014
202	0xbde18613	-0.11011901
203	0xbd659f18	-0.056059927
204	0xbcfd4583	-0.030916935
205	0x3d93eb14	0.07222572
206	0xbd8df623	-0.069317125
207	0xbdb55551	-0.088541634
208	0xbddc082a	-0.10743745
209	0xbd81a8b5	-0.063310064
210	0xbddacb36	-0.10683291
211	0x3dce11ed	0.10062013
212	0xbb4a0cfb	-0.003083049
213	0x3c182e31	0.009288357
214	0x3dba5eed	0.09100137
215	0xbd81201d	-0.06304953
216	0x3d7b7ff2	0.061401315
217	0x3d8226ea	0.063550785
218	0x3e154a9e	0.14579245
219	0xbc405148	-0.011738129
220	0xbdbe68d5	-0.09297339
221	0x3de16b08	0.11006743
222	0xbcc1e6eb	-0.02366968
223	0x3cf68eae	0.030097332
224	0x3c06d242	0.00822884
225	0xbd9df3d1	-0.0771252
226	0x3dd54e6f	0.10415351
227	0xbd34af72	-0.04411263
228	0xbd7ad508	-0.06123832
229	0x3e07f685	0.13277633
230	0xbc8fbe6a	-0.017546851
231	0xbc249962	-0.010046335
232	0x3d741b41	0.059596304
233	0xbdc62829	-0.09675629
234	0xbd6f8042	-0.058471926
235	0xbd632d6a	-0.055463232
236	0xbaf4a5e0	-0.0018665157
237	0x3dd28ccc	0.10280761
238	0xbda7d618	-0.08195132
239	0x3d2c0d38	0.042004794
240	0x3d8c0cc3	0.068383716
241	0xbd47f95e	-0.0488218
242	0x3da2da4d	0.07951794
243	0xbd7b7b0a	-0.061396636
244	0x3dc40337	0.09570926
245	0xbbe8105e	-0.0070820292
246	0xbddeefef	-0.108856075
247	0xbbd8739f	-0.00660558
248	0xbda6d917	-0.08146875
249	0x3c0e138d	0.008671653
250	0xbd99665b	-0.07490226
251	0xbd2da0ac	-0.042389557
252	0xbd9e5032	-0.0773014
253	0x3bcbc3ec	0.006218424
254	0x3d75fcee	0.060055666
255	0x3e091d3e	0.13390061

network_body._body_endoder.seq_layers.0.bias f4 [128]
0	0x3ad5afc6	0.0016302995
1	0x3d019c1b	0.031643014
2	0xbae2722e	-0.001727646
3	0xbc6368ef	-0.013879999
4	0x3d5319ab	0.05153815
5	0x3cf9099d	0.030400092
6	0x3d3c1936	0.04592248
7	0x3d038a5c	0.03211437
8	0x3c28d47b	0.010304566
9	0xbb72e37b	-0.0037061858
10	0x3cc555eb	0.02408882
11	0x3d047b64	0.032344237
12	0x3d00dfca	0.031463422
13	0x3d23bd96	0.039975725
14	0x3bd81204	0.0065939445
15	0x3d029ee3	0.031889807
16	0x3ce5eba5	0.028066466
17	0x3c0081c5	0.0078434395
18	0x3cd8ade3	0.026450103
19	0x3d6e8dbb	0.058240633
20	0x3c99f1c5	0.018792043
21	0x3d04dad7	0.032435264
22	0x3c84de86	0.016219389
23	0x3c5ddd75	0.013541569
24	0x3ba3ce63	0.0049989684
25	0x3ba6bf12	0.0050886953
26	0x3d2a1644	0.04152514
27	0x3d06fce0	0.032956004
28	0x3c1330d5	0.00898381
29	0x3d875c44	0.06609395
30	0x3d24804f	0.040161427
31	0xbbeb386b	-0.0071783564
32	0x3b96329a	0.004583669
33	0x3d32602c	0.043548748
34	0x3cfec874	0.031101443
35	0x3c93c7be	0.01803958
36	0x3c93994a	0.01801743
37	0x3cab6d7f	0.020926235
38	0xbc30b531	-0.010785387
39	0x3d179728	0.03700939
40	0x3d3583f9	0.044315312
41	0x3d2b151e	0.041768186
42	0x3d31bb9e	0.043391816
43	0x3d03acd3	0.03214724
44	0x3ad0d4a8	0.0015932517
45	0x3be43bff	0.00696516
46	0x3cfaa1a1	0.030594649
47	0x3bd45890	0.006480284
48	0x3cbbde42	0.02293313
49	0x3d5cfd53	0.053952526
50	0x3cbea0ef	0.023270098
51	0x3c926d0d	0.017874265
52	0x3d470b00	0.048594475
53	0x3c9ec5d2	0.019381437
54	0x3cb5ed2c	0.022207819
55	0x3bdc51ec	0.006723633
56	0x3c80a00d	0.015701318
57	0x3b63d1cb	0.0034762498
58	0x3d13890c	0.03601937
59	0x3cea5d9b	0.028609088
60	0xbaa2bef6	-0.001241653
61	0x3c734a8e	0.014849318
62	0x3cb34959	0.02188556
63	0x3b5950c7	0.003315972
64	0x3c2008b7	0.009767703
65	0xbc70096c	-0.014650684
66	0x3ccd141b	0.025034001
67	0xbc9412ff	-0.018075464
68	0x3c547fd9	0.012969934
69	0x3d1468e3	0.03623284
70	0x3d5c6ac5	0.05381276
71	0x3caac6ed	0.020846808
72	0x3d206dc1	0.03916717
73	0x3cf71733	0.03016243
74	0x3c02877c	0.007966872
75	0x3bf24491	0.0073934277
76	0xbb874c6f	-0.0041289846
77	0x3d8a80c4	0.06762841
78	0x3ba45779	0.0050153104
79	0x3ca0519f	0.01957017
80	0x3c8aa9d9	0.016926693
81	0x3d0d2d68	0.03446713
82	0x3c64049c	0.013917115
83	0x3c042c89	0.008067259
84	0x3c5c96fc	0.013463732
85	0x3cd29d5d	0.025709802
86	0x3cf231db	0.029564789
87	0x3cf4b7c2	0.029872779
88	0x3c9de35d	0.019273454
89	0x3b77ac66	0.0037791966
90	0x3d6441fe	0.055726998
91	0xbc81b20c	-0.01583197
92	0x3cfe4ffa	0.031043995
93	0x3ca7bd3d	0.020475978
94	0x3d3697df	0.04457843
95	0x3ca27bf6	0.0198345
96	0x3ba76b3f	0.0051092203
97	0x3b586f4c	0.0033025322
98	0xba899a6a	-0.001049829
99	0x3de62cf2	0.112390414
100	0xba8bdefe	-0.0010671315
101	0x3d5d7189	0.054063354
102	0x3c801740	0.015636086
103	0xba5f98ab	-0.0008529524
104	0x3c835334	0.016030885
105	0x3b8bfac5	0.0042718374
106	0x3cc8cb3a	0.024510968
107	0x3cbed8bb	0.023296705
108	0xbc9353ea	-0.01798435
109	0xbba12359	-0.004917544
110	0x3d300d49	0.04298142
111	0x3c933651	0.017970236
112	0x3cae28e7	0.021259738
113	0x3cb923ba	0.022600044
114	0xbb8a5c16	-0.0042224033
115	0x3d511b64	0.051051512
116	0x3c710dce	0.014712764
117	0x3c0c55e6	0.008565402
118	0x38dd7932	0.000105606756
119	0x3b26d55c	0.0025456762
120	0xbac33fc6	-0.0014896325
121	0x3d24d61b	0.04024325
122	0x3c91b453	0.01778618
123	0xbd28d7d8	-0.04122147
124	0x3d0599b3	0.032617282
125	0x3cd09559	0.02546184
126	0x3ca3aaf6	0.019978981
127	0x3c3ff301	0.0117156515

network_body._body_endoder.seq_layers.0.weight f4 [128, 71]
0	0xbde51621	-0.111858614
1	0x3dae7d7d	0.08520029
2	0xbdd30965	-0.10304526
3	0xbd8d2f4d	-0.068937875
4	0x3d95d5bd	0.07316158
5	0x3d2d1b64	0.04226245
6	0xbdef6fa3	-0.11691215
7	0x3e29ff0e	0.16601202
8	0x3df1a3b5	0.11798803
9	0x3e1961f5	0.14978774
10	0x3d5f63b4	0.054538444
11	0xbe3a6b6f	-0.18205045
12	0xbe19293b	-0.14957134
13	0x3d129868	0.035789877
14	0xbd1b1d25	-0.03786959
15	0x3de29ae7	0.110647015
16	0x3dff35d2	0.12461437
17	0x3d320388	0.0434604
18	0x3d9c2f75	0.07626239
19	0xbdec1453	-0.11527314
20	0xbdda4167	-0.10657006
21	0xbc722eb9	-0.014781647
22	0x3da36b15	0.07979409
23	0xbc9e6176	-0.019333582
24	0x3e0f2c4c	0.13981742
25	0xbc15dcfd	-0.009146926
26	0xbd610dd4	-0.05494483
27	0xbd562664	-0.052282706
28	0x3e54c8da	0.20779744
29	0xbce065e8	-0.027392343
30	0xbc409cd6	-0.011756143
31	0x3dba7f82	0.091063514
32	0xbe5bdefa	-0.21471778
33	0x3dfae140	0.12249994
34	0x3dded1ac	0.108798355
35	0xbe34e978	-0.17667186
36	0xbe9d6b6a	-0.30746013
37	0x3e0172a6	0.12641391
38	0x3ccc7a8d	0.02496078
39	0xbc89856a	-0.01678725
40	0xbe2ed0f3	-0.17071895
41	0xbd8e09ef	-0.069354884
42	0xbe12c310	-0.14332223
43	0xbd2d26a7	-0.04227319
44	0xbe2f024e	-0.17090723
45	0xbcc1257f	-0.02357745
46	0xbd982b40	-0.07430124
47	0x3d1fef9d	0.039046872
48	0x3ceaac87	0.02864672
49	0x3e31c11f	0.17358826
50	0x3d904403	0.07044222
51	0xbe3bd3ef	-0.18342565
52	0x3c0aa7fe	0.008462904
53	0xbdc0cf28	-0.09414512
54	0xbdf9148c	-0.12162122
55	0xbe4a5bef	-0.19761632
56	0xbaa1a5d6	-0.0012332748
57	0x3dcc081a	0.09962483
58	0xbe40d355	-0.18830617
59	0x3cb8d3a6	0.02256186
60	0xbd3518e6	-0.044213198
61	0xbd72c2af	-0.059267696
62	0xbe226c30	-0.15861583
63	0x3d8fa457	0.07013767
64	0xbd43fee5	-0.04785051
65	0x3da41a55	0.08012835
66	0x3e38e1b2	0.18054846
67	0x3cb1c732	0.021701429
68	0x3e298f3a	0.16558543
69	0xbe1a1407	-0.15046702
70	0x3dde9d1b	0.10869809
71	0xbd93b5c9	-0.07212407
72	0x3e1cc9a6	0.15311298
73	0x3d712485	0.05887272
74	0xbd09eeb9	-0.03367493
75	0x3da07dcd	0.078364946
76	0xbd497a24	-0.049188748
77	0xbda4da95	-0.08049504
78	0x3ddb8791	0.107192166
79	0xbb521b41	-0.0032059702
80	0xbe02afbd	-0.12762351
81	0xbc4a1e20	-0.012336284
82	0x3e38e7e5	0.1805721
83	0xbd0b6ac4	-0.034037367
84	0x3d088db2	0.033338256
85	0xbdbf0c83	-0.09328558
86	0xbcb5cb41	-0.022191646
87	0x3da9e257	0.08295124
88	0x3c69d8b0	0.014272854
89	0xbcab7545	-0.020929942
90	0xbdff1dba	-0.12456842
91	0x3e14c9f5	0.14530165
92	0x3dded4bd	0.1088042
93	0x3e2063b8	0.1566304
94	0x3e54da4e	0.20786402
95	0x3df955a7	0.1217454
96	0xbc9ac395	-0.018892089
97	0x3e46ee36	0.19426808
98	0xbcef5235	-0.029214004
99	0x3eab8a5a	0.3350399
100	0x3b472c0a	0.003039124
101	0x3ccdab3a	0.025106061
102	0xbd93b416	-0.07212083
103	0x3c4aa66e	0.0123687815
104	0xbe802ad4	-0.25032675
105	0x3e0f5215	0.13996156
106	0xbe3f6e90	-0.1869452
107	0x3e7068e8	0.23477519
108	0xbc8cb4b5	-0.017176012
109	0xbd5e505d	-0.05427586
110	0x3e30b1ca	0.17255321
111	0xbc24a14a	-0.01004822
112	0x3d94cec7	0.07266002
113	0x3ca7d7d5	0.020488659
114	0x3d26de16	0.04073914
115	0xbd51142b	-0.051044624
116	0x3e5b3f44	0.21410853
117	0x3da285cd	0.07935677
118	0x3dbac1d5	0.09119002
119	0x3cb2f32c	0.021844469
120	0x3cfd4fda	0.030921865
121	0xbd8c8406	-0.06861119
122	0xbe96b55a	-0.29435235
123	0x3dbf2fa3	0.09335258
124	0x3c2f40d3	0.010696608
125	0xbd037b19	-0.032099817
126	0xbe9ce907	-0.30646536
127	0x3eab023f	0.3340015
128	0xbd1721f5	-0.03689762
129	0x3da51325	0.08060292
130	0xbda88c6e	-0.0822991
131	0x3d2d7559	0.04234824
132	0x3def5bf0	0.116874576
133	0x3d8b6ad9	0.06807489
134	0xbe5b5ba6	-0.2142168
135	0x3d21d3f7	0.039508786
136	0xbb37573f	-0.0027975587
137	0x3e2b8d84	0.16753203
138	0xbdbbe784	-0.091750175
139	0x3d1c8180	0.03820944
140	0xbdf7ba0e	-0.12096034
141	0x3d838877	0.06422513
142	0xbcd24ee4	-0.025672384
143	0xbd9a69d9	-0.0753972
144	0x3da4ba62	0.08043362
145	0xbe9268e3	-0.28595647
146	0xbe4830fe	-0.19549939
147	0x3dca5f62	0.09881474
148	0xbd01d5ad	-0.031697918
149	0x3e1fa5b1	0.1559055
150	0x3e28f1a8	0.16498435
151	0x3e24d80f	0.16098045
152	0xbd9d6f67	-0.07687264
153	0xbce6cfda	-0.028175283
154	0xbe2284d3	-0.15870981
155	0xbdd5f9ad	-0.104480125
156	0xbca29e29	-0.019850807
157	0xbcebfa41	-0.028805854
158	0x3dfd842b	0.12378725
159	0xbb1383e9	-0.0022509045
160	0x3dd40d28	0.10354072
161	0xbdd13c65	-0.102165975
162	0xbe195aee	-0.14976093
163	0xbe942db4	-0.2894112
164	0x3d27a2ee	0.040926866
165	0xbdad27ad	-0.08454833
166	0x3e60da36	0.21958241
167	0xbceaaa85	-0.028645763
168	0xbe8015fd	-0.25016776
169	0xbbcd980b	-0.0062742284
170	0xbe087920	-0.13327456
171	0x3be0a87c	0.0068560224
172	0x3dc12b30	0.094320655
173	0x3eb07521	0.34464362
174	0xbdb29e23	-0.087215684
175	0xbd042357	-0.032260265
176	0x3d825cdf	0.0636537
177	0x3cafec75	0.021475056
178	0xbe16b31b	-0.14716761
179	0x3d56e5bc	0.052465186
180	0x3e213ef0	0.15746665
181	0x3d258249	0.040407453
182	0xbdb60c6f	-0.0888909
183	0x3e63a88f	0.22232269
184	0xbc5af15e	-0.0133632105
185	0xbcdc0f86	-0.02686287
186	0x3d9a1d66	0.075251386
187	0xbe08561c	-0.13314098
188	0xbdcadfe0	-0.09905982
189	0x3cf3cfe1	0.02976221
190	0xbcd158ea	-0.025555093
191	0xbb474253	-0.0030404523
192	0x3c90a019	0.017654466
193	0x3e3801b8	0.17969406
194	0xbe067b9d	-0.13133092
195	0x3e897bd8	0.26852298
196	0x3bc80ed5	0.0061052837
197	0x3e2a09dc	0.16605324
198	0xbd8a22ac	-0.067448944
199	0xbd06f824	-0.03295149
200	0x3d8bde0c	0.068294615
201	0x3db25bf2	0.087089434
202	0x3e369a70	0.1783235
203	0x3e0f4d75	0.13994391
204	0x3d177ef1	0.036986295
205	0x3d1afd19	0.03783903
206	0x3b92fef6	0.00448596
207	0x3dbbfadf	0.09178709
208	0xbe19eeba	-0.15032473
209	0x3da45a38	0.0802502
210	0x3d39de88	0.045378238
211	0x3d93e4f2	0.07221402
212	0x3ce070e5	0.027397582
213	0xbe64ed02	-0.22356036
214	0xbd2a671f	-0.04160225
215	0xbe083c00	-0.13304138
216	0xbaa09fbf	-0.0012254639
217	0xbd08a957	-0.03336462
218	0x3cef0716	0.029178184
219	0xbe5d9ce9	-0.21641888
220	0x3c9fe2a1	0.019517245
221	0x3da89337	0.08231204
222	0xbe0155e6	-0.12630424
223	0x3e145a51	0.14487578
224	0x3e41908e	0.189028
225	0xba1a1e4b	-0.0005879148
226	0xbd7c401f	-0.06158459
227	0x3e35d7bc	0.17758077
228	0x3d129710	0.035788596
229	0xbd7092ec	-0.058733866
230	0xbe0f60dd	-0.14001794
231	0xbcb0ac14	-0.021566428
232	0x3da01aef	0.07817637
233	0x3e028ccb	0.12749021
234	0xbcec3c18	-0.028837249
235	0x3d9b141b	0.07572194
236	0xbe77ddd5	-0.24205716
237	0xbe5ebaed	-0.21750994
238	0xbdcb1036	-0.09915201
239	0x3ca4ca61	0.020116033
240	0xbd97c3eb	-0.07410415
241	0xbe243bfa	-0.16038504
242	0x3da80091	0.08203233
243	0xbd64c2bf	-0.055849787
244	0xbcee432c	-0.029084764
245	0xbd98c521	-0.07459474
246	0xbe593acd	-0.21213837
247	0xbd099c02	-0.033596046
248	0x3e854b4c	0.2603401
249	0xbe44da4e	-0.19223902
250	0x3d938dc2	0.072047725
251	0xbd90a6da	-0.070630744
252	0xbe6e22e4	-0.23255497
253	0x3e0ee6e0	0.1395526
254	0xbdc3ab75	-0.09554187
255	0x3e857896	0.26068562

network_body._body_endoder.seq_layers.2.bias f4 [128]
0	0x3ca2681f	0.01982504
1	0x3b66fcd8	0.0035245921
2	0x3c8a0889	0.016849773
3	0x3c508893	0.012727874
4	0x3d266b96	0.040629946
5	0x3bea903b	0.007158307
6	0x3d00669e	0.031347863
7	0x3cb5e731	0.022204967
8	0x3d404f47	0.046950605
9	0x3bcacb77	0.0061888057
10	0x3c8edbfe	0.017438885
11	0x3cd091de	0.02546018
12	0xbb33ac56	-0.0027415953
13	0x3cb578b6	0.022152286
14	0x3d0d6ea8	0.03452936
15	0x3d0a14f6	0.033711396
16	0x3c717ff5	0.01473998
17	0x3c7d39d9	0.0154556865
18	0x3c3d43f7	0.011551849
19	0x3bf29e0d	0.007404095
20	0x3b5b19f9	0.003343223
21	0x3c30cf83	0.010791662
22	0x3d13b983	0.03606559
23	0x3ca98636	0.02069388
24	0x3d0ae813	0.03391273
25	0x3d21beb0	0.039488494
26	0x3c44248c	0.011971604
27	0x3c21de33	0.009879637
28	0x3c3456cb	0.011007021
29	0x3a75a99c	0.0009371282
30	0x3ce331cc	0.027733706
31	0x3d189f81	0.03726149
32	0x3ce1e2e7	0.027574016
33	0x3c8f90c9	0.017525094
34	0x3d00751c	0.031361684
35	0x3d306193	0.043061804
36	0x3c3e9ef2	0.011634575
37	0x3c756110	0.014976755
38	0x3d21d9e1	0.039514426
39	0x3cce5d8f	0.025191097
40	0x3ca3d2b8	0.01999794
41	0x3bbf8b5f	0.0058454718
42	0x3d26baa6	0.040705346
43	0x3cbb94c2	0.022898082
44	0x3d7aa0fc	0.061188683
45	0x3cb742ad	0.02237066
46	0x3cb18e07	0.02167417
47	0x3d32ac0e	0.043621115
48	0x3d22e0e4	0.039765254
49	0x3c4a91e1	0.012363882
50	0x3c5f7e55	0.01364096
51	0x3ce0d7f0	0.027446717
52	0x3c8839b7	0.016629083
53	0x3bccfd61	0.006255791
54	0x3ca95dc6	0.020674597
55	0x3d34d8ca	0.04415206
56	0x3c36257f	0.011117338
57	0x3d12f5c4	0.03587891
58	0x3cf54bf4	0.029943444
59	0x3cc6b0b8	0.024254188
60	0x3d0338a1	0.032036427
61	0x3cbaa96a	0.022785861
62	0x3cd5c820	0.026096404
63	0x3c5636d0	0.013074592
64	0x3d156bfa	0.036479928
65	0x3cfe228d	0.031022334
66	0x3c894c16	0.016759913
67	0x3cc3b2ec	0.023889028
68	0x3d213498	0.039356798
69	0x3c00c99d	0.007860568
70	0x3cc8e955	0.024525324
71	0x3c1269e4	0.008936379
72	0x3c33ed4b	0.010981868
73	0x3d290160	0.041261077
74	0x3cf219a5	0.029553244
75	0x3cacfa9b	0.021115592
76	0x3c818245	0.015809188
77	0x3bdaa1de	0.006672128
78	0x3c1cfe2f	0.0095820865
79	0x3c90de54	0.01768414
80	0x3ca1648d	0.019701267
81	0x3b8b4c87	0.004251066
82	0x3cb02531	0.02150211
83	0x3cb398b4	0.0219234
84	0x3a61b2af	0.0008609695
85	0x3d1dd753	0.038535427
86	0x3ce22078	0.027603373
87	0x3cc525b7	0.024065835
88	0x3ccfc1d3	0.025360977
89	0x3cbdab24	0.023152895
90	0x3d1f4fb8	0.038894385
91	0x3b98ba4b	0.0046608797
92	0x3c6659a5	0.014059459
93	0x3cd83288	0.026391283
94	0x3c704c2d	0.014666599
95	0x3cffe304	0.03123618
96	0xbc9579fc	-0.018246643
97	0x3d105e16	0.035245977
98	0x3d4e8a63	0.050424945
99	0x3ca8009c	0.020508103
100	0x3caef98c	0.021359228
101	0x3cb0cf08	0.021583095
102	0x3cb1e5a3	0.021715945
103	0x3c264f60	0.01015076
104	0x3d548a49	0.05188969
105	0x3c88c58a	0.016695756
106	0x3c6db1f8	0.014507763
107	0x3cb30fb1	0.021858068
108	0x3b4ff186	0.0031729653
109	0x3d5e2ad7	0.054240074
110	0x3c818a89	0.015813129
111	0x3c4d6909	0.012537249
112	0x3d297125	0.04136767
113	0x3c7efc1f	0.01556304
114	0x3d06fca2	0.032955773
115	0x3b8fa5cc	0.004383778
116	0x3c6f7176	0.014614454
117	0x3c6f92f7	0.0146224415
118	0x3caf6ff2	0.021415684
119	0x3c939924	0.01801736
120	0x3c628a62	0.013826938
121	0xbc5f1a16	-0.013617059
122	0x3cb27fee	0.021789517
123	0x3c8233ce	0.015893843
124	0x3c1dd50b	0.009633313
125	0x3c7a2c20	0.015269309
126	0x3ced35a9	0.028956251
127	0x3cd15397	0.025552554

network_body._body_endoder.seq_layers.2.weight f4 [128, 128]
0	0xbcf1cbe8	-0.029516175
1	0xbdd272ad	-0.10275779
2	0x3e380156	0.1796926
3	0x3bc890d2	0.0061207796
4	0x3d6bb767	0.057547953
5	0xbd1c507b	-0.03816269
6	0x3b45618d	0.003011796
7	0x3d45d3f3	0.048297834
8	0xbdaead37	-0.08529132
9	0xbe2b47cd	-0.16726609
10	0xbd94a932	-0.07258834
11	0x3e49c0d6	0.19702467
12	0x3c8cda13	0.01719383
13	0x3cb148a5	0.021641085
14	0xbddc3d84	-0.10753921
15	0xbdf3cb08	-0.119039595
16	0x3ddbb527	0.107279114
17	0xbd846d7c	-0.06466195
18	0x3b7bddbc	0.0038431725
19	0x3d2904ac	0.04126422
20	0xbd3ab0fa	-0.045578934
21	0x3d131d3d	0.035916556
22	0x3d73e7d8	0.059547275
23	0xbd0215e5	-0.03175916
24	0xbd69ebef	-0.05710977
25	0x3d11ce1d	0.035596956
26	0xbde23f60	-0.11047244
27	0x3d307759	0.04308257
28	0x3d1b6a28	0.037943035
29	0x3ccbf82c	0.024898611
30	0x3c228248	0.009918757
31	0xbe20d2a5	-0.15705355
32	0x3d10904b	0.03529386
33	0xbd77e20b	-0.060518306
34	0xbd5e519d	-0.05427705
35	0xbd6b87f5	-0.057502706
36	0xbdea3729	-0.11436302
37	0x3db9e0ca	0.09076078
38	0x3d4e4ce3	0.050366294
39	0xbd98d18d	-0.07461844
40	0xbe2aa841	-0.16665746
41	0xbbc368e0	-0.00596343
42	0x3d6a6a92	0.05723054
43	0x3d7cd75b	0.061728816
44	0xbc068a49	-0.008211681
45	0x3cb3e769	0.02196093
46	0x3db25533	0.08707657
47	0x3c345714	0.011007089
48	0xbd0a1f44	-0.033721223
49	0x3d5dc1d3	0.054139923
50	0x3d6fcaa3	0.05854286
51	0x3d4497e6	0.047996424
52	0x3dd6a70d	0.10481081
53	0x3d800fa9	0.06252987
54	0xbda7e3aa	-0.0819772
55	0xbd9d6e4d	-0.07687054
56	0x3ceb2609	0.02870466
57	0xbd57c4f3	-0.05267806
58	0xbe22094c	-0.15823859
59	0xbd45389e	-0.048149697
60	0x3cc3c0cf	0.02389565
61	0x3e0e1848	0.1387645
62	0xbd08632a	-0.033297695
63	0x3c57678f	0.013147249
64	0x3d4d4d09	0.050122295
65	0x3c75ac38	0.014994673
66	0x3e68b270	0.22724319
67	0xbcc9becb	-0.02462711
68	0x3bd3f02a	0.006467839
69	0x3e37ca87	0.17948352
70	0x3d708648	0.05872181
71	0xbdb17cdf	-0.086663954
72	0xbcf32993	-0.02968291
73	0xbde4fbdc	-0.11180851
74	0x3dac05db	0.08399554
75	0xbce5054f	-0.027956633
76	0xbda520eb	-0.08062919
77	0x3d8d14b7	0.06888717
78	0xbc10da3c	-0.008841094
79	0xbc8f21a1	-0.01747209
80	0x3d483e31	0.048887435
81	0x3c57eb3d	0.013178644
82	0xbd3ab556	-0.04558309
83	0xbe1b2d5f	-0.15154026
84	0xbc40b321	-0.011761458
85	0xbd9ef29a	-0.07761116
86	0x3d815337	0.063147
87	0x3e463d06	0.19359216
88	0xbb9fc5c4	-0.0048758704
89	0x3db99109	0.090608664
90	0xba83174e	-0.0010001452
91	0x3c0c888a	0.008577475
92	0x3cd37ccb	0.025816342
93	0x3cf5d0c9	0.030006783
94	0xbda76f67	-0.08175545
95	0xbd7e0650	-0.06201774
96	0xbc36a36f	-0.011147364
97	0x3e6d98c5	0.23202808
98	0xbe12eadf	-0.14347409
99	0xbe5c66ee	-0.2152364
100	0xbdafdc0b	-0.08586892
101	0x3cfc60ba	0.030807842
102	0x3d517d48	0.051144868
103	0x3c837f53	0.016051924
104	0x3d59a3b9	0.053134654
105	0xbdf5d2d3	-0.12003102
106	0x3b4bb7c7	0.0031084882
107	0x3d4b0613	0.04956634
108	0x3e2b1bb8	0.16709793
109	0x3d6144d5	0.054997284
110	0x3e8197ca	0.25311118
111	0xbe4941e5	-0.19654043
112	0x3d678e3d	0.056532133
113	0xbd681af6	-0.056666337
114	0xbd71cced	-0.059033323
115	0xbd509940	-0.0509274
116	0x3ce667dc	0.028125696
117	0x3d23a797	0.039954748
118	0x3a93c26b	0.0011273151
119	0xbadbdb9c	-0.0016773823
120	0xbd9473c4	-0.07248643
121	0xba98c083	-0.0011654053
122	0xbdab1a10	-0.083545804
123	0x3e4134e8	0.18867838
124	0xbd4685ef	-0.048467573
125	0x3dc3618d	0.09540091
126	0xbd53258c	-0.05154948
127	0x3db65156	0.08902232
128	0x3e0f4671	0.13991715
129	0x3c267bef	0.010161384
130	0xbd3df3ed	-0.046375204
131	0x3c2705c1	0.010194243
132	0xbdcd5fa1	-0.100280054
133	0xbc403adb	-0.011732782
134	0xbda23ab0	-0.0792135
135	0xbd6cc365	-0.05780353
136	0xbd8c2bb5	-0.06844274
137	0x3d7bff5c	0.061522827
138	0x3cd6554f	0.026163725
139	0xbe048c76	-0.12944207
140	0xbd35891b	-0.044320207
141	0x3dfd83d8	0.12378663
142	0xbdb324ea	-0.08747275
143	0x3d6a14cd	0.057148743
144	0x3dd7f351	0.10544456
145	0x3dae78d1	0.08519138
146	0xbdc27f37	-0.094969206
147	0x3d6800b5	0.0566413
148	0x3cd2cbb8	0.025731906
149	0x3d9f0c72	0.07766046
150	0x3d45172a	0.048117794
151	0xbc04b588	-0.008099921
152	0x3e4dd62e	0.20101234
153	0x3e382a30	0.17984843
154	0x3e76c6d5	0.24099286
155	0xbd8ce30a	-0.06879242
156	0xbd822841	-0.06355334
157	0xbb843739	-0.0040349034
158	0x3bf6c56f	0.00753086
159	0xbdb656b4	-0.08903256
160	0x3db56424	0.08856991
161	0x3d03542b	0.03206269
162	0xbda6e8c9	-0.08149869
163	0x3d80fdce	0.062984094
164	0xbd24f9c5	-0.04027726
165	0xbd03e793	-0.03220327
166	0xbd0a05a9	-0.033696804
167	0xbd484b86	-0.04890015
168	0x3c725569	0.014790871
169	0x3d2f5ed2	0.042815037
170	0x3d271254	0.040788963
171	0xbd2b9454	-0.041889504
172	0x3df4422a	0.11926682
173	0x3c7c3ec6	0.015395826
174	0x3c68a641	0.014199794
175	0xba89710b	-0.001048596
176	0xbd12d45f	-0.035847064
177	0xbe20788c	-0.15670985
178	0xbdee4864	-0.11634901
179	0x3d9865c1	0.07441283
180	0x3ddd0b4b	0.107931696
181	0xbde36643	-0.11103489
182	0x3edcc966	0.43122405
183	0x3da9a3e0	0.0828321
184	0xbe78f849	-0.24313463
185	0xbd991fcc	-0.07476768
186	0x3e032d27	0.12810193
187	0x3e10a86f	0.14126752
188	0xbdc41982	-0.09575178
189	0x3defd19a	0.117099
190	0x3c67276b	0.014108519
191	0x3d0c0eed	0.03419392
192	0x3dc1f2d7	0.09470146
193	0xbd93f4fb	-0.07224461
194	0xbded16ee	-0.11576639
195	0xbd8302ee	-0.06397043
196	0x3e076097	0.1322044
197	0xbddb3496	-0.10703389
198	0x3deae4d3	0.11469426
199	0x3e10c20b	0.14136522
200	0x3d8ec4b6	0.069711134
201	0x3b088d8e	0.0020836326
202	0xbd66c81d	-0.056343187
203	0x3e02e941	0.12784292
204	0x3e424220	0.18970537
205	0xbe777ec6	-0.24169454
206	0xbc8a3ab9	-0.016873704
207	0xbbb01655	-0.005373756
208	0xbe50930c	-0.20368594
209	0x3adfe100	0.0017080605
210	0x3cad0707	0.021121515
211	0x3bbd5b95	0.0057787397
212	0x3b35896a	0.0027700313
213	0x3e6458cc	0.22299498
214	0xbc7e4825	-0.01552013
215	0xbcdac2f1	-0.026704283
216	0xba4543c8	-0.0007525054
217	0x3d2ac4a9	0.041691456
218	0x3b8696f7	0.004107352
219	0xbb8ab445	-0.0042329156
220	0x3c2427e5	0.010019277
221	0x3dc07e2a	0.09399064
222	0x3db272e4	0.0871332
223	0xbe0e85dc	-0.13918251
224	0x3d0c8535	0.034306724
225	0xbcb61aca	-0.02222957
226	0x3e198385	0.14991577
227	0x3dacbb12	0.08434118
228	0x3e50e20d	0.20398732
229	0xbe053fe8	-0.1301266
230	0xbddaa8db	-0.10676738
231	0x3c77d6cd	0.015126896
232	0xbd6bf619	-0.057607744
233	0xbd3a9aba	-0.045557715
234	0x3dfd5c4b	0.12371119
235	0xbd44ca28	-0.048044354
236	0xbd6e2be5	-0.05814733
237	0xbde5b945	-0.11216978
238	0x3e05fb19	0.13084067
239	0x3e100f66	0.14068374
240	0xbbcc0a6b	-0.006226828
241	0xbd3546c3	-0.044256937
242	0x3e44ee30	0.19231486
243	0x3d74d5fb	0.05977438
244	0xbcdc5e8d	-0.026900554
245	0x3d689238	0.05678007
246	0xbe190194	-0.14942008
247	0x3c2602b3	0.0101324795
248	0x3be83ef7	0.007087584
249	0x3e1bf354	0.15229541
250	0x3dc15da7	0.09441691
251	0x3c8bc2df	0.017060695
252	0xbc98ffb7	-0.018676622
253	0x3c74d59a	0.014943505
254	0x38e56a1a	0.00010939334
255	0xbc9e6aa2	-0.019337956
