results/testing_child_sensors/NPCAgent/NPCAgent-252567.pt (torch, 444103 bytes, 33 tensors)

network_body._body_endoder.seq_layers.0.weight f4 [128, 8]
00000000: 10ec 4dbf a2bd a83d cd14 3ebf 0acf d5be
00000010: 141e ba3d 3917 63be c76e 0f3f a854 be3b
00000020: 4890 9ebc 99f4 1abe 375b 59bf 0cfc 4c3e
00000030: 32b9 aa3d 32de 03bf 8fea 50be c089 82be
00000040: 4de4 7d3e dcc6 00bf 5bb6 05bf 85da 9abb
00000050: 73f3 783e cc28 ecbe 6e15 9ebe 8df1 083f
00000060: cf96 523e 49de 10bf 3be5 843e 040c 673e
00000070: 8a84 74be 4765 2e3f 63c7 b6be afb7 a5be
00000080: 9794 1dbe e1a7 fd3e f81f 3cbd 3903 6ebe
00000090: b46d 50be c565 89bd d88f 91bd c228 f2be
000000a0: 75bf 0a3e 5743 3bbe eea8 f93c b519 2e3e
000000b0: c671 79be fd9c 70bc 7a95 ad3d 71b0 9fbe
000000c0: b947 d9bd 2788 393e 0d36 8fbd 7a26 3dbc
000000d0: d329 a5be 684c 13bd 5398 e4be a28c c2be
000000e0: 2242 b8be 0192 253d bf35 71bd 4649 f7be
000000f0: ea0d edbd ae1b 8f3e ad18 1fbe 9ca4 aa3e
00000100: 0168 12be 1757 c5be a9ef 14bf 27c9 053f
00000110: 65a8 1bbf 310d fd3c 4c07 57be 45f7 01bf
00000120: b65a 93be d6b4 2b3e 8928 003d c36f 063f
00000130: 340c 9abe 55c2 c93d 292f 48bc dfed cbbe
00000140: c25a 13bd 9cc8 04bf b528 713d 852f 96bd
00000150: 98fc a8be 092c ef3e 4e46 40bf 44c0 b0be
00000160: 29fa 37be 0e16 0cbf d91b e3be 69ad 05bf
00000170: 7bb9 743f 92ea 2b3f b829 0cbf a67f 8dbe
00000180: 44b5 e73e e893 e83c 9999 123f 4ae1 a43e
00000190: 30eb 07bf e8da 603f 7a65 8c3e 0f62 0cbe
000001a0: 0346 b53e 35c9 cb3c e333 9fbe eda7 ddbe
000001b0: 81a1 9d3e 743a 77be c189 87be 7bd6 c93d
000001c0: b417 05be fa26 39bf c011 8abe d11b 9d3c
000001d0: d8e4 433f 9fda 94be cbe2 4f3e 7140 263f
000001e0: a17e f33e fa9b c8be 3532 67bd 2088 953d
000001f0: 16d5 00bf 002a 1fbd 1956 85be 4339 11be
00000200: b121 afbe df18 f1bd 142a 4fbe 9055 b5be
00000210: 2140 0f3e 43e3 633b b87e d2be 4be2 d3be
00000220: 1a3d c6be b38a 0dbc 2288 d7be c994 97be
00000230: a273 45bd e113 6ebe 5006 183e 8fc8 ae3e
00000240: 3490 b2bc f9b6 983d f5ff 16bf 5b2a c1bd
00000250: 5101 e0be 5d7b 66bf 50d2 8a3e cb59 a13e
00000260: bdb6 b3be 23c7 9cbe c296 3f3e 43fa 0cbd
00000270: 8e64 87be 724d 3dbe a08b 87bf 53c6 6bbd
00000280: ed76 8bbf b91c 26be 30e6 a43d 6fdf 163f
00000290: 9a23 72bb 40e8 32bd 18c4 7dbe 4f95 023e
000002a0: b2f7 f7be 581a 9d3e 6f1f 823e c4f3 39be
000002b0: c46f c33e b9f5 01bf 2f23 22be bc37 ef3e
000002c0: bec5 8b3e 6eea 8f3e cdca b9be d111 62bd
000002d0: cbfe 2b3e 11f1 343f 672c eabe 8f20 c2be
000002e0: 4b8f d13e f260 e53d 222d b83e a180 c23d
000002f0: bc72 c2be 9dec d1be 2e8a a03d 1905 6fbe
00000300: 3bec db3e 93e8 1ebe 4984 54bf 9d12 6b3e
00000310: a3d5 b9bd ff90 ee3e 020f ccbe 6702 eb3d
00000320: 3c55 0cbe 86b7 c6bd b851 35bf 00d0 9f3c
00000330: 4dcf 8e3e 89f7 f5be 4e74 63be 550b 113f
00000340: 5b0d 4abe 1814 f33d 1274 9cbe 2ad9 a23d
00000350: 1f0d 383f 512b 3abe c6bd 08bf 8c94 2dbf
00000360: f0da d7be 2d8d a2be d180 6bbe 2c70 4cbe
00000370: 6507 82be a3a2 b93c 3336 da3d 4d23 383e
00000380: 7bad 68be 5380 a3be 754a 0ebe 607f 803c
00000390: 5923 81bd c4c2 07bf 1f2e 643d 7a3f 32bd
000003a0: c386 ca3e 3bf6 aabe ad38 09bd 6cbc b13e
000003b0: 62f1 75be 112e d53d 6adf 95be 2456 d43d
000003c0: 9537 e23e 346f 91be ef9e e03e b1f7 963d
000003d0: f213 013e 97e6 15bf ce8b 823f 99fd 30bf
000003e0: 8a7f 52be b32b 0ebe f6ed 8bbe 697c 87bd
000003f0: 7bda 143d b5dd 24be 6c8a 08be 569e 70bf
-0.8043833 0.082392946 -0.7425049 -0.4175952 0.09087768 -0.22176827 0.5602841 0.0058084317
-0.019355908 -0.15132369 -0.8490481 0.20018023 0.083361045 -0.5151092 -0.20401977 -0.2549572
0.24794121 -0.50303435 -0.5223138 -0.0047257566 0.24311619 -0.46124876 -0.30875725 0.5349358
0.20565341 -0.5658918 0.2595614 0.22563177 -0.23878685 0.68123287 -0.35698995 -0.32366702
-0.15388714 0.49542144 -0.045928925 -0.23243417 -0.20354348 -0.06708864 -0.07107514 -0.4729672
0.13549598 -0.18287407 0.03047606 0.17001994 -0.24359807 -0.014685866 0.08475776 -0.31189302
-0.10609383 0.18118344 -0.06992731 -0.011544818 -0.32258472 -0.03596154 -0.44647464 -0.3799792
-0.35987955 0.040422443 -0.058889147 -0.4829809 -0.115749195 0.27950805 -0.15536757 0.33328712
-0.14297487 -0.38543007 -0.5817819 0.5226006 -0.60803825 0.03089008 -0.20998877 -0.5076793
-0.28780144 0.16768202 0.031288657 0.52514285 -0.30087435 0.09851519 -0.012218275 -0.3982992
-0.035975225 -0.51868606 0.058876712 -0.073332824 -0.33005214 0.46713284 -0.75107276 -0.34521687
-0.17966522 -0.5472115 -0.44357184 -0.5221773 0.9559552 0.671548 -0.5475116 -0.2763645
0.45255482 0.02839084 0.5726562 0.32203132 -0.5309324 0.87834024 0.2742117 -0.13709281
0.35404977 0.024876216 -0.31094274 -0.4329218 0.3078728 -0.24143392 -0.26472285 0.09855362
-0.12997323 -0.723251 -0.26966667 0.019178303 0.7652106 -0.29073045 0.20301358 0.6494208
0.47557548 -0.391815 -0.056444366 0.073013544 -0.50325143 -0.038858414 -0.2604225 -0.14182
-0.34205392 -0.11772322 -0.20230895 -0.35416842 0.13989307 0.003477291 -0.41112304 -0.41383585
-0.38718492 -0.0086390255 -0.4209605 -0.29605702 -0.04820598 -0.2324977 0.14846158 0.3413739
-0.021797277 0.07456774 -0.5898431 -0.09431907 -0.43751004 -0.9003199 0.2711358 0.3151382
-0.35100356 -0.3062068 0.18709853 -0.034418356 -0.26443905 -0.18486574 -1.0589485 -0.057562184
-1.0895668 -0.16221894 0.08051717 0.5893468 -0.003694749 -0.043678522 -0.24781835 0.12752269
-0.48431164 0.3068416 0.25414607 -0.18159395 0.38171208 -0.5076557 -0.15833734 0.4672221
0.27299303 0.28108543 -0.36287537 -0.055192772 0.16796415 0.7068034 -0.45737 -0.37915465
0.40929636 0.112001315 0.35971934 0.0949719 -0.3797816 -0.41000834 0.07838856 -0.23341788
0.42953667 -0.15518408 -0.8301435 0.22956319 -0.09073951 0.46594998 -0.398552 0.114750676
-0.1370439 -0.09702973 -0.7082782 0.019508362 0.27892533 -0.48040417 -0.22212335 0.56657916
-0.19731657 0.11869067 -0.30557305 0.07951577 0.7189502 -0.18180586 -0.5341457 -0.6780479
-0.42159224 -0.31748334 -0.22998358 -0.19964665 -0.25396267 0.022660559 0.10654869 0.17982216
-0.22722428 -0.3193384 -0.1389559 0.015685737 -0.0630557 -0.53031564 0.055708047 -0.043517567
0.3955594 -0.33390984 -0.033501316 0.34714067 -0.24017861 0.10409177 -0.29272014 0.103679925
0.4418303 -0.28405154 0.43871257 0.07371462 0.12605265 -0.5855498 1.0198915 -0.6913696
-0.20556465 -0.13883857 -0.27329987 -0.06615526 0.03634117 -0.161002 -0.13334054 -0.939916

network_body._body_endoder.seq_layers.0.bias f4 [128]
00000000: 25a5 ddbc 242b 03bd 119c 333d 8c36 d83c
00000010: 91be 30bd fe82 3a3d ad18 433d b7cf f1bc
00000020: bece ac3c 1036 33bd 79b9 343d 7f75 d4bc
00000030: 32e3 363d 2ee6 353d 6e1f 2cbd e4ad 373d
00000040: 82d7 26bd 518b 30bd 815d 37bd 0bb5 1e3c
00000050: 761c 2ebd ad22 2bbd 4641 3f3d 55fc 353d
00000060: 8f71 383d 04d7 b9bc 0ec0 32bd 09f6 e6bc
00000070: f81c 3ebc a585 373d 4f96 86bc ac16 03bd
00000080: fa71 3b3d 1343 fabc 1926 e43b 61f3 333d
00000090: 9a50 2b3d 5ec5 34bd f926 30bd c27d 003c
000000a0: 2add 0fbd 341c 2b3d 485b 383d 6ecd f53c
000000b0: ce23 30bd fb72 e93c 538d 3c3d 8811 2ebd
000000c0: 81d2 1b3d 1746 15bd f41c 21bd c7fe 343d
000000d0: 865f 053d a3b5 2dbd 613b 3b3d 4e73 253d
000000e0: 4e85 383d e767 32bd 848a 2bbd 3aa4 393d
000000f0: b8df 163c 9413 0cbd 2aa9 09bd 8841 313d
00000100: 2a50 3cbd f108 7e3c 25b8 363d 58d4 1f3d
00000110: 608f 493c f441 393d 2b00 34bd 561a 323d
00000120: af7b 39bd 7d2a 343d a775 2e3d 0d32 34bd
00000130: 27b2 973c 1d9d 323d 2cd4 3abd 3a5d 3dbd
00000140: 9251 3b3d 9b7f 24bd a656 223d 3ef8 3b3d
00000150: 2b3b 323d df2e 143d bcaf 353d b567 37bd
00000160: cbea 28bd f4f6 00bd 6294 2bbd 0a7b 31bd
00000170: 9f75 d43c 5bb1 163d b2c1 36bd 4a10 793c
00000180: 95ed 1bbd 8ec7 373d f0e5 2dbd 8409 1bbd
00000190: 8aaa 18bd e749 f63c 94c5 33bd 8021 43bd
000001a0: 6643 343d 5a90 00bd 9745 353d 2f03 103d
000001b0: cf49 3bbd e82f ac3c e5d5 30bd f393 1dbd
000001c0: 05dc 373d 4c23 33bd 7c24 353d b96c 35bd
000001d0: 9b2c 2ebd 1a85 2fbd 1b31 20bd 91ad 1bbd
000001e0: ee99 353d 47d1 2dbd 7751 343d 43bd d0bc
000001f0: 2e5d 0dbd 9080 383d 4c81 3c3d 1d4b 36bd
-0.027056286 -0.032023564 0.04385001 0.026393197 -0.04315049 0.04553508 0.047630955 -0.029517991
0.021094676 -0.04375273 0.044122193 -0.025934933 0.044650264 0.04440897 -0.04202216 0.04484357
-0.040732868 -0.043101612 -0.044766907 0.009686719 -0.04250761 -0.041781116 0.04669311 0.044430096
0.045030173 -0.022685535 -0.04364019 -0.02819349 -0.011603586 0.044805188 -0.016429095 -0.032004043
0.045762993 -0.030549562 0.0069625494 0.043933276 0.041824915 -0.044133537 -0.043005917 0.007842483
-0.035123028 0.041774943 0.045008928 0.030005183 -0.043002896 0.02849721 0.046033215 -0.042497188
0.03804255 -0.036443796 -0.039334252 0.044188287 0.0325618 -0.04240955 0.045710925 0.040393166
0.045049004 -0.04355612 -0.041880146 0.045322634 0.009208612 -0.03419836 -0.033608593 0.043275386
-0.045974888 0.0155050615 0.044609208 0.039020866 0.01230225 0.045228913 -0.043945473 0.043482147
-0.04528397 0.043985832 0.04259267 -0.043993045 0.018517567 0.043606866 -0.0456125 -0.046231486
0.04573209 -0.040160757 0.039633416 0.04589104 0.04351346 0.036177512 0.044357046 -0.044776637
-0.04123954 -0.031485513 -0.041889556 -0.04333023 0.025934992 0.036790233 -0.044618316 0.0152016375
-0.038068373 0.044868045 -0.042455614 -0.03785087 -0.037272014 0.030064536 -0.043889597 -0.04763937
0.04400959 -0.031387664 0.04425582 0.035159286 -0.045724686 0.021018937 -0.043172736 -0.038471173
0.04488756 -0.043734834 0.044224247 -0.04429314 -0.042523008 -0.042851545 -0.03910933 -0.038007323
0.044336252 -0.04243591 0.044023003 -0.025480872 -0.03451269 0.04504448 0.046021745 -0.044505227

network_body._body_endoder.seq_layers.2.weight f4 [128, 128]
00000000: 8c9b f8bc 3534 c0bd 0960 1c3d 4fcf b9bd
00000010: 4ba8 f13a 1adc 0dbc 0284 6f3d b4af 79bd
00000020: 358b cf3c b0b6 803c 693e 503d 7ab8 9d3c
00000030: babe ac3b 9020 033e ac38 963b 5d87 1d3e
00000040: 92aa 39be df7c 0abd 7325 8cbe a072 703e
00000050: 7b09 9dbd eaee d93c 7cfd 023c b4ca 4f3e
00000060: 1c93 023d f46e 29be 98ae 22bd bf27 4dbe
00000070: 1358 0dbe 9374 99bd bfaf 74bd ff1a da3b
00000080: 5ea2 dc3b e0d4 06be 590d 943c 5292 023d
00000090: 377c 293d 55fa 16be d9ad 80be 3d8d 213c
000000a0: 1d2f 94bc b1eb b33d f076 013e 5797 d6bb
000000b0: eaf6 d8bd 057e ba3d 9f41 3d3c f7b9 e8bd
000000c0: e75d dc3c c13f dc3d 3908 50bd 688b 9b3c
000000d0: 2d3c 5dbd 6ef4 86bd ca76 edbb 3f36 213e
000000e0: 2921 a23c 3e24 5c3d 3c41 e83d 9724 bc3c
000000f0: ffdf 43bc bf1a 2a3d a419 393d 51cb 163d
00000100: bc3a 23be 66a1 aa3b dcf0 023e 6dd2 603d
00000110: 4fc2 12be 969b 823d afa6 b33d 39b6 f93c
00000120: d496 3ebc edd9 aa3d 9c8e 113e a4e5 c3bd
00000130: 76e7 f43d 7a77 463d 29a6 7e3d fb71 d1bd
00000140: 9b1d 32bd ff41 92bd 3896 f33c 6f5c 8b3c
00000150: c24a 033e ff2f 26bd a25d d9bc 3b2b adbc
00000160: 4fcb 9e3b 1725 a4bd e652 2bbe 8b2b 3f3c
00000170: c60f 07be 6273 01be 1849 46be 389c 163e
00000180: 1ed1 dcbd 51e2 983c 51ec 953d a010 c7bd
00000190: 15e6 a8bd 5906 1c3e 89a4 3b3d 1520 f5bd
000001a0: 2f34 6dbd d9ad 23be d1e2 003e 7b8c a53d
000001b0: ec01 0cbe 34ec 4f3e b4b4 0cbe 2f6c 6cbd
000001c0: 538e b03a f424 7ebc 5287 9d3d 0eef b3bd
000001d0: f3aa 6c3c 9aa4 26be bdc7 00be 9bdf 24be
000001e0: a8ce d93d 85a8 03be 8512 443e 4798 c8bb
000001f0: 8c30 1d3d f20c bc3d 6131 183d 225a 01be
00000200: 11ed f73d 1d8d aabc 02d8 823d 9c10 393e
00000210: a5fe 35be e89d 7c3c 1cc5 26bc a525 5bbd
00000220: 3ff6 1f3e 027b 093d c0af 7fbd 92bf 0dbe
00000230: 9379 4f3d 7a60 edbd e8b9 4abd bdd9 4e3e
00000240: 1985 a5bd 6f22 98bd 6a28 8a3d 9bbf 973d
00000250: 96e8 8dbd 64d1 27be 8fa2 c63d 7cfe bcbc
00000260: af62 5dbd a350 253c 205c 65bd 2411 b9bc
00000270: ef17 81bc f218 433e c186 df3c 4062 3fbe
00000280: a4f6 063e 8452 80bd 5439 3bbc 2335 23be
00000290: 4341 c0bc 2199 423e e1e1 533c 3069 4d3b
000002a0: 61f2 99bc 3686 ac3d 6e4c f7bd 8c69 883d
000002b0: 039e a53d a830 693d 09dc 9fbc 3d78 d5bd
000002c0: 2d18 243e 58f7 c8bc cadb 793d 0bda dc3d
000002d0: e511 69bd a828 8bbd 79a7 9d3d 8e66 4d3e
000002e0: 7486 ea3d cda6 893c 6f00 e5bb c242 3bbd
000002f0: ebde e13d 33f3 1d3e 9b01 2c3d 3ae1 c53c
00000300: 9849 75bc ffbe 46be 7701 113d 51c5 91bc
00000310: c3cb c53c fb41 ae3d 7991 d8bb de9e 103e
00000320: 0e2b 06bd 569b 5a3d ad26 023e 1ea6 5dbd
00000330: b24d 233e efae 363d e042 8a3c 8045 2bbe
00000340: 0a9d 653d f6ab 94bd c809 873c f5e1 ff3d
00000350: 02f5 eb3c 6a20 e13d 58f4 693e ea42 c7bd
00000360: 78d7 5dbc 5062 c93c 3995 963d cf1b 2e3d
00000370: 82c5 b6bb df81 2f3e 76be 0bbc b386 96bd
00000380: c297 e43b f623 95bd 268f 87bd 81f1 75bd
00000390: 707c 423e 1421 17be 532f b2bc 4c12 97be
000003a0: 8672 79bd 0edf 4fbe 1d25 203e a1e7 2f3e
000003b0: 4753 a3bd 404b 0dbd 7b82 c93d a75e 3cbe
000003c0: c5a1 d53d 58b2 45be 18d3 153d 3d7f 1abe
000003d0: 20bd bf3d effb b8bd 92a5 ecbd db21 4abe
000003e0: b900 99bc a555 1ebd 716b c13d 44b0 433c
000003f0: 7634 4bbd d1f1 7bbd a282 1b3d beb3 87bd
-0.030347608 -0.09384958 0.038177524 -0.09072744 0.0018436996 -0.008658433 0.0584755 -0.06095858
0.025334934 0.015712112 0.05084077 0.019253004 0.00527176 0.1280539 0.0045843925 0.15383668
-0.18131474 -0.033810493 -0.2737232 0.23481226 -0.07667824 0.02660318 0.007995006 0.20292169
0.031878576 -0.16546232 -0.039717287 -0.20034693 -0.13803129 -0.07492938 -0.059737917 0.00665605
0.006733223 -0.13167143 0.01807277 0.031877823 0.041378226 -0.14743932 -0.25132635 0.009860334
-0.018088872 0.08785189 0.12643027 -0.006548803 -0.1059397 0.091060676 0.01155129 -0.11363595
0.026900245 0.107543476 -0.05078909 0.018987373 -0.054012466 -0.0658959 -0.007246827 0.1574335
0.019791203 0.0537455 0.113405675 0.022966666 -0.01195526 0.041529413 0.04519047 0.03681499
-0.15940374 0.0052072285 0.12787193 0.054888178 -0.14331935 0.06377332 0.08772027 0.030482398
-0.01163264 0.08342347 0.14214557 -0.09565285 0.1195821 0.048453785 0.06217018 -0.10226818
-0.043485265 -0.07141494 0.029734716 0.01701185 0.12821487 -0.040573116 -0.026533905 -0.021138778
0.0048460136 -0.08014887 -0.16730842 0.011668096 -0.13189611 -0.12641671 -0.1936382 0.1470803
-0.107820734 0.018662604 0.073204644 -0.09719968 -0.0824701 0.15236796 0.04581121 -0.1196901
-0.057911094 -0.15984286 0.12586524 0.08083435 -0.13672608 0.20304948 -0.13740808 -0.05772036
0.001347015 -0.01551174 0.07691826 -0.087858304 0.014445054 -0.16273728 -0.12576194 -0.16100924
0.1063512 -0.12857254 0.1914769 -0.0061216685 0.038376376 0.091821566 0.037156466 -0.12632039
0.12105764 -0.020819241 0.063888565 0.18072742 -0.1777292 0.015418507 -0.0101788305 -0.053502697
0.15621279 0.033564575 -0.062423468 -0.1384261 0.05065305 -0.11590667 -0.0494937 0.20200248
-0.08082027 -0.07428443 0.067459896 0.07409593 -0.06929128 -0.1638847 0.09698974 -0.023070566
-0.05404919 0.010090026 -0.05599606 -0.022591181 -0.015758483 0.19052485 0.027285935 -0.18689823
0.13180023 -0.062657386 -0.011427242 -0.15938239 -0.02346862 0.19003727 0.012932272 0.0031343214
-0.018792333 0.08424036 -0.12075125 0.066607565 0.08086779 0.056931168 -0.0195141 -0.10423324
0.16024847 -0.024532005 0.061000623 0.10783776 -0.05690183 -0.06794864 0.076979585 0.20058653
0.11451426 0.01680317 -0.006988577 -0.045717962 0.11028846 0.15424804 0.04199372 0.024155248
-0.014971159 -0.19408797 0.035401788 -0.017794283 0.024145013 0.085086785 -0.0066091386 0.14123103
-0.032755904 0.053370796 0.12710066 -0.0541135 0.15947607 0.044600423 0.016877592 -0.16725731
0.056057967 -0.072593614 0.016484156 0.1249427 0.028803352 0.109925106 0.22847116 -0.0972956
-0.013540141 0.024583012 0.07352681 0.04250699 -0.005577744 0.17139386 -0.008529296 -0.073499106
0.0069760988 -0.0728225 -0.066191 -0.06004477 0.18992782 -0.14758712 -0.021751082 -0.29506147
-0.060900234 -0.20299932 0.15639158 0.17178203 -0.07974868 -0.034495592 0.0983934 -0.18395482
0.10431246 -0.19306314 0.036578268 -0.150876 0.093622446 -0.090324275 -0.115550175 -0.19739477
-0.018677102 -0.038655896 0.09444321 0.0119438805 -0.049610578 -0.06150991 0.037966378 -0.0662608

network_body._body_endoder.seq_layers.2.bias f4 [128]
00000000: bc11 323d d9dd 2a3d b60a 253d 2bbd bfba
00000010: 18ad 01bd 51fd eebc 53cc 13bd 8ab3 0abd
00000020: db6c 0dbd 0a45 0c3d 05c0 d5bc 1e24 c4bc
00000030: 7c31 243d 8b48 2c3d 1d48 16bd 2178 283d
00000040: b3d4 13bd affe 14bd 32d7 2f3d 58d5 10bd
00000050: 49d7 0abd bd3c 003d 9f77 0dbd a4fe 273d
00000060: 2f9a 2b3d 5306 77bc 96f2 303d aa66 2b3d
00000070: cbc2 313d c739 16bd 73b6 113d 694d 14bd
00000080: fe36 0ebd 427a 0abd afd7 0dbd a56f 133d
00000090: 7ad6 273d 43a9 aabc 86d2 09bd cb8f 303d
000000a0: 4888 f73c 6a0d 13bd 1506 2c3d b5bd 1a3d
000000b0: 9d37 0dbd 7fce 8bbc 21be 04bd 49f0 c8bc
000000c0: 6688 0bbd 7c64 2b3d 4aa0 a5bc 4bf3 1abd
000000d0: 8eb9 2b3d 9807 eabc e741 09bd a308 19bd
000000e0: 2633 0a3d 18e2 2b3d 2a0d 0dbd 193c 313d
000000f0: 8796 283d 06dc 263d 04ff 09bd 498a 07bd
00000100: 7c9d 13bd 223c 293d 8dd0 0ebd efe4 0abd
00000110: 6d62 d73c 09e8 12bd 562f f3bc 4eca 233d
00000120: 039b 1e3d 0ba6 303d cbb0 183d 7682 13bd
00000130: db7d 0bbd 8c2d 1e3d 02fb 06bd 0526 2e3d
00000140: 5484 243d 9ffc 283d 205d 233d 5289 0bbd
00000150: 159b 11bd 2c91 313d 698c f4bc 3381 113d
00000160: ea10 313d 5f19 17bd 0e03 84bc 55fa 0fbd
00000170: 14b8 13bd 4e02 05bd 4cd1 2a3d 41a9 10bd
00000180: 00c1 14bd 62fb 183d 1d26 0bbd dcc6 1c3d
00000190: 0a64 313d 4915 313d 41d1 303d 8411 293d
000001a0: 1cbe 2a3d d7fc 253d 9420 16bd 7ac2 2f3d
000001b0: fdfe 0fbd e2b8 073d 72bb 113d b5c0 2d3d
000001c0: 23f8 293d 6499 a23c 6c99 2e3d 90dc f8bc
000001d0: d770 14bd 3a09 2f3d db4c c4bc 31f6 1e3d
000001e0: 2bf6 2b3d e8c7 cdbc 8541 303d c354 15bd
000001f0: b32e 273d 9696 e83c cd17 213d d542 2b3d
0.043473944 0.041715477 0.040293418 -0.001462852 -0.031659216 -0.029173525 -0.03608353 -0.033862628
-0.03452764 0.03424553 -0.026092539 -0.023943003 0.040086254 0.04206137 -0.036689866 0.04113019
-0.036091518 -0.036375698 0.042929836 -0.03535971 -0.03389672 0.031307925 -0.034537908 0.04101433
0.041895088 -0.015077191 0.043200098 0.041845955 0.04339866 -0.036676195 0.035574388 -0.036206637
-0.034720413 -0.033808 -0.03462952 0.035995144 0.040976025 -0.020832663 -0.033648036 0.04310588
0.030216351 -0.035901465 0.041997988 0.037778575 -0.034476865 -0.017066238 -0.032407884 -0.02452864
-0.034065627 0.041843876 -0.020218033 -0.03782968 0.041925006 -0.028568074 -0.033510115 -0.037361752
0.033740185 0.041963667 -0.034436382 0.043270204 0.04115918 0.040737174 -0.033690467 -0.033090863
-0.03603886 0.041317113 -0.03486686 -0.033909734 0.02629205 -0.035865817 -0.029685657 0.039987855
0.03872205 0.0431271 0.037277978 -0.03601309 -0.034055572 0.038617656 -0.032954223 0.042516727
0.04016526 0.041256543 0.039883733 -0.034066506 -0.03554829 0.043351337 -0.029852109 0.035523605
0.04322902 -0.03688943 -0.016114738 -0.035150845 -0.036064222 -0.0324729 0.041703507 -0.035317663
-0.03631687 0.037349112 -0.033971895 0.038275585 0.043308295 0.04323319 0.04316831 0.04127647
0.04168521 0.04052433 -0.036652163 0.042910077 -0.035155285 0.033135302 0.035579152 0.042420108
0.041496407 0.019848533 0.042626783 -0.03037861 -0.036240425 0.04273341 -0.023962429 0.038809005
0.04198281 -0.025119737 0.043031234 -0.03645779 0.04081602 0.028392117 0.03932934 0.041811783

action_model._discrete_distribution.branches.0.weight f4 [2, 128]
00000000: 67be 473d d9ef 5c3d 0040 3e3d 493f 6abc
00000010: 35f6 16bd aafa 25bd e5ac 14bd aebe 4fbd
00000020: 24de 1dbd 4afc e13c e756 1cbd 9664 e0bc
00000030: 9216 443d bd14 343d f3d7 21bd ef83 1c3d
00000040: 9bf1 1abd 6bb0 09bd c30a 2b3d ce33 18bd
00000050: cd39 3cbd 2ff9 1d3d 6260 00bd fcac 1f3d
00000060: a47d 273d 4cfc 4cbc 3442 1a3d 7329 2f3d
00000070: 5999 2a3d eb3a 2ebd febd 163d 7e5b 4cbd
00000080: feee 38bd 096e 50bd 2ad0 1fbd c8c7 183d
00000090: 7a60 553d 2a28 01bd 97c4 33bd 47c9 383d
000000a0: 9971 233d a359 57bd 63f5 423d d27b 313d
000000b0: 68ed 13bd d5f2 73bb c224 eabc 3c58 d9bc
000000c0: ff9d 35bd a7d0 033d c82c 0dbd cb6a 41bd
000000d0: c27e 3d3d 63fc 46bd 6f64 06bd 4a43 09bd
000000e0: f9c1 3d3d 4885 353d 090a 5cbd 0a3a 243d
000000f0: 4006 513d 7928 543d 70aa 01bd c528 3dbd
00000100: 5a34 13bd 7d28 343d 28a0 11bd 51c2 59bd
00000110: cd8f ff3c e066 4fbd 7380 03bd 1bdf 6a3d
00000120: da64 f63c 8a7b 343d ada1 113d f626 24bd
00000130: 4302 53bd ba01 353d d103 43bd ada2 443d
00000140: 0162 ee3c 5251 4c3d c40d 053d 3182 59bd
00000150: 3e2f 16bd 0111 0c3d 9f08 26bd 4403 183d
00000160: 7c2c 1b3d e22d 2dbd efe9 e3bc 05db 38bd
00000170: b7dd 35bd b3e3 f1bc 0cbf 3e3d 08fb eabc
00000180: 2a3d 1cbd 74d7 303d 38b3 4dbd dfd3 ff3c
00000190: 4f01 353d e643 143d e24f 0b3d 560e 6e3d
000001a0: c363 253d 8a2b 6d3d 11e4 06bd d49e 083d
000001b0: 803d 10bd 6f6d e23c 9878 143d 9e16 313d
000001c0: 27af 733d 5515 cb3b fa0c 5c3d 8f6e aabc
000001d0: 7827 0fbd a357 293d 3e20 fbbc b256 2c3d
000001e0: b05d 643d bc23 bcbc e510 1f3d 1757 4fbd
000001f0: 6008 423d 1c65 b03c e484 893d 1585 533d
00000200: 84c3 1abd 8507 26bd 35b1 84bd 65c7 303b
00000210: 2e1d 663d 0d08 413d aacf 2e3d 32ce 663d
00000220: 95c9 303d 2b62 f8bc 6d04 d33c a5c8 123d
00000230: a5b3 18bd 14d5 43bd 2b52 093d 2313 79bd
00000240: 43c4 3f3d 26dc 2c3d 033c 30bd 666f 203d
00000250: 7806 ec3c 6b2d 00bd 38a5 383d ce57 21bd
00000260: d51f 5ebd bf4c 973c 931c 44bd fdde 3bbd
00000270: fb2b 38bd cc43 223d 33c5 17bd fdfc de3c
00000280: ca90 2f3d 7150 203d 1318 413d deb5 1ebd
00000290: 4d17 48bd d0db c73c 3fca 453d 4639 0ebd
000002a0: 91d3 ebbc 280f 1b3d 2ef6 45bd 6840 11bd
000002b0: 0f23 c43c 5a1f 013c 82cc 2c3d e574 f03c
000002c0: bbed 0a3d b8bc 59bd ecfa ae3c ed35 173d
000002d0: d05d 38bd 2bad 3a3d 24a3 343d 568a 413d
000002e0: 4876 e4bc 08e8 1ebd 8180 2d3d 9e4a 38bd
000002f0: c878 6dbd 5bf3 1cbd 3ec3 2b3d 911e 603d
00000300: fb86 2f3d 8dc8 03bd 3c8d 523d 8ff4 3c3d
00000310: 1d45 08bd 26f1 ef3c 60db 0d3d 7943 4abd
00000320: 050a 22bd 4f83 26bd 17b2 27bd 169f 513d
00000330: e351 073d d970 18bd 3cb3 023d acaf 3abd
00000340: 5410 45bd 7624 45bd 30cd 3fbd 02a7 4f3d
00000350: 5880 3f3d 5f51 5bbd 311e ea3c 52bc 1ebd
00000360: d92c 3bbd 3275 293d e32e b43c 9f35 453d
00000370: 12e9 0b3d 4586 2d3d 0096 46bd 4f31 4a3d
00000380: d7f2 173d 8840 0ebd 48b9 343d d370 3dbd
00000390: 48c5 31bd 76b6 3cbd 1b93 5abd 6b22 1fbd
000003a0: f807 4abd 6a93 46bd 3948 3b3d 20c5 43bd
000003b0: 3ff2 803d 2a57 30bd d9da 1fbd 65b2 46bd
000003c0: 323c 2bbd f50e 35bc 1d53 01bd b4da 2b3d
000003d0: 90ae 223d 147a 3abd fb80 fb3c 288d 0dbd
000003e0: 00f0 1abd 24b7 2a3d 1766 38bd 2f28 2d3d
000003f0: 7724 40bd 9b5f 2bbd e6f3 4cbd f0fc 35bd
0.048765566 0.053939674 0.046447754 -0.014297315 -0.036855895 -0.040522255 -0.036297698 -0.050718956
-0.038541928 0.027586121 -0.038168814 -0.027391713 0.047873087 0.04396509 -0.039512586 0.03821176
-0.03782807 -0.03361551 0.04175831 -0.03715878 -0.04595356 0.038567718 -0.031341918 0.03898333
0.040891305 -0.012511324 0.037660792 0.04276414 0.04165015 -0.042536657 0.036802284 -0.04989194
-0.045149796 -0.050886188 -0.03901688 0.0372999 0.05209396 -0.031532444 -0.043888655 0.045113828
0.039903257 -0.05257572 0.0475973 0.043330975 -0.03611508 -0.0037223597 -0.02858198 -0.026531331
-0.04434013 0.03218141 -0.034466535 -0.047220986 0.046263464 -0.04858054 -0.032810625 -0.033511437
0.046327565 0.04431656 -0.053720508 0.040094413 0.05103135 0.05179641 -0.031656682 -0.04618146
-0.0359386 0.043983925 -0.035553128 -0.05316383 0.0311965 -0.05063522 -0.03210492 0.057341676
0.030077387 0.04406313 0.035554577 -0.04007622 -0.05151583 0.0441911 -0.04761106 0.048006702
0.029099466 0.04988224 0.03248383 -0.053102676 -0.036666147 0.034195904 -0.040535565 0.03711249
0.03788422 -0.042280085 -0.02782151 -0.04513075 -0.044400897 -0.02952752 0.046568915 -0.028684154
-0.038144268 0.043174222 -0.050219744 0.031228958 0.0441907 0.036197565 0.03401173 0.05811914
0.040378343 0.05790285 -0.032932345 0.033354595 -0.0352149 0.027640073 0.03624782 0.04323446
0.05949321 0.0061976113 0.053723313 -0.020804672 -0.03494975 0.041343343 -0.030655023 0.042074867
0.05575341 -0.022966258 0.03883447 -0.050620165 0.04737127 0.021532588 0.067148 0.05164059
-0.037784114 -0.040534515 -0.06479112 0.0026974317 0.05618017 0.04712682 0.042678513 0.056348987
0.043160994 -0.030320248 0.025758946 0.03583588 -0.037280697 -0.04781063 0.033525627 -0.060809266
0.04681803 0.042202137 -0.04302598 0.039168738 0.028811678 -0.031293314 0.04507944 -0.039390378
-0.054229576 0.018469213 -0.047878813 -0.045866955 -0.044963818 0.039615437 -0.0370533 0.027220244
0.04286269 0.039139215 0.0471421 -0.03874766 -0.048850346 0.024396807 0.04828858 -0.03472259
-0.028787406 0.03785625 -0.04833048 -0.035461813 0.023942498 0.00788101 0.04218722 0.029352615
0.033918124 -0.05315849 0.021359883 0.036916662 -0.04501134 0.045575302 0.044100896 0.047251068
-0.027888432 -0.0387955 0.04235888 -0.044993035 -0.057976514 -0.03831802 0.041934244 0.05471665
0.042853337 -0.032173682 0.051404223 0.046131667 -0.033269037 0.029289793 0.03463304 -0.049380753
-0.039560337 -0.04065257 -0.040941324 0.051177107 0.033037078 -0.037216995 0.031909212 -0.04557769
-0.048111275 -0.048130475 -0.04682654 0.05069638 0.046753258 -0.0535444 0.02857885 -0.038753815
-0.045697067 0.04137153 0.021995014 0.04814684 0.03415782 0.042364378 -0.048482895 0.04936343
0.037096824 -0.03472951 0.04412201 -0.046250176 -0.043401033 -0.046072446 -0.053362947 -0.038851183
-0.049324006 -0.04848043 0.045723174 -0.047795415 0.06296205 -0.043051876 -0.03902707 -0.048509974
-0.041805454 -0.011050929 -0.031573404 0.04195662 0.039717257 -0.04552658 0.030701151 -0.034558445
-0.037826538 0.041678563 -0.045019235 0.04227465 -0.046909776 -0.041839223 -0.050037287 -0.044430673

action_model._discrete_distribution.branches.0.bias f4 [2]
00000000: 2f85 0d3d 2f85 0dbd
0.034550842 -0.034550842

exp_avg f4 [128, 8]
00000000: 2d2f 7a34 5b86 17b8 0000 0000 2686 00b7
00000010: 49e0 7037 37a8 34b7 2c8c 9637 0000 0000
00000020: 8a24 cc34 9872 d5b7 0000 0000 29d3 c6b6
00000030: d134 2837 3f4f fcb6 0742 5237 0000 0000
00000040: be79 95b5 9e41 3c37 0000 0000 13eb 3e36
00000050: 4da8 87b6 767c 4b36 6392 a9b6 0000 0000
00000060: ad5a 8bb5 edf1 eb37 0000 0000 a196 e036
00000070: d0c9 35b7 5a57 0837 403c 63b7 0000 0000
00000080: 7254 7935 4f91 d2b7 0000 0000 9782 b9b6
00000090: 8a38 2237 d054 f3b6 aac6 4a37 0000 0000
000000a0: 8343 92b5 e786 2338 0000 0000 b82f 1737
000000b0: 7654 7eb7 55bf 3e37 caf4 9eb7 0000 0000
000000c0: da2a 68b5 d8c5 7b38 0000 0000 b769 6337
000000d0: 2684 c6b7 1be3 9437 2c25 f8b7 0000 0000
000000e0: d62f 3335 8865 d0b7 0000 0000 8544 b8b6
000000f0: d23c 2237 3d5b f3b6 06cc 4a37 0000 0000
00000100: 3a5e 09b5 ee65 0938 0000 0000 d106 ff36
00000110: 1f67 58b7 594d 2237 7440 87b7 0000 0000
00000120: 863f 2b35 e857 a0b7 0000 0000 b676 92b6
00000130: affc f736 85fd b9b6 effd 1a37 0000 0000
00000140: 3a2b 1fb6 adaa 9038 0000 0000 c5c3 8637
00000150: 2282 dfb7 9aa1 a737 52b1 0bb8 0000 0000
00000160: 5199 6535 059c 8db7 0000 0000 0a2c 86b6
00000170: 5a18 d736 4452 a1b6 376f 0637 0000 0000
00000180: 9682 16b6 37ee ab38 0000 0000 e716 9f37
00000190: 1cc8 05b8 2aac c837 223a 27b8 0000 0000
000001a0: b2e9 d7b5 8235 1f38 0000 0000 061c 1337
000001b0: 59f0 73b7 43f4 3637 3976 98b7 0000 0000
000001c0: 85c8 de34 3317 efb4 0000 0000 4032 c0b4
000001d0: 90b7 5032 008c 1cb2 6875 8232 0000 0000
000001e0: b1c4 0fb6 9d2f 4e38 0000 0000 d297 4437
000001f0: a5c2 9db7 fca3 6c37 5433 c5b7 0000 0000
00000200: e802 8035 4cb2 1bb8 0000 0000 dfe0 0ab7
00000210: beb6 7237 0d09 36b7 35b2 9737 0000 0000
00000220: b369 3435 6ecf 09b8 0000 0000 e3a1 f2b6
00000230: 74fc 5737 57fd 21b7 c6fd 8637 0000 0000
00000240: 8447 4635 9a99 06b8 0000 0000 fa6c f2b6
00000250: 3067 5237 62cd 1db7 7e80 8337 0000 0000
00000260: ceac afb4 0a4a 1138 0000 0000 d20b 0337
00000270: 4e44 66b7 3cb3 2c37 b4ea 8fb7 0000 0000
00000280: ecb0 70b3 d2b3 5eb8 0000 0000 9d45 42b7
00000290: 9c59 b237 33c3 85b7 00f0 de37 0000 0000
000002a0: 6b95 b034 5b2a 13b8 0000 0000 040e ffb6
000002b0: e641 6937 6ef1 2eb7 33c9 9137 0000 0000
000002c0: 0bf5 e7b5 dca7 9f38 0000 0000 8798 9137
000002d0: 72a6 f9b7 d63c bb37 0a08 1cb8 0000 0000
000002e0: b89d f8b5 a2b6 9038 0000 0000 1d1a 8537
000002f0: 7a53 e1b7 98fe a837 2fd4 0cb8 0000 0000
00000300: d12a 0cb6 4e38 8338 0000 0000 5924 7637
00000310: 8af1 cab7 2b35 9837 eead fdb7 0000 0000
00000320: 8af7 db34 32ec b5b7 0000 0000 b9c0 a5b6
00000330: dbc9 0e37 cd2e d6b6 507c 3237 0000 0000
00000340: 797b 1835 58fa 16b8 0000 0000 9e09 07b7
00000350: a8c0 6d37 8250 32b7 6a98 9437 0000 0000
00000360: 2e52 0135 2c3c b7b7 0000 0000 87c5 a3b6
00000370: e55a 0f37 5508 d7b6 9e31 3337 0000 0000
00000380: 81dc 8d34 fc2f 3fb7 0000 0000 8812 32b6
00000390: 4667 9536 e81a 60b6 17c1 ba36 0000 0000
000003a0: 8a38 d2b5 1055 2f38 0000 0000 209b 2637
000003b0: a302 87b7 f983 4a37 49c3 a8b7 0000 0000
000003c0: f2d3 cd34 3951 8bb6 0000 0000 3d50 a9b5
000003d0: 2a53 ca35 58be 97b5 ece7 fc35 0000 0000
000003e0: 23aa 1735 d14e e6b7 0000 0000 d059 d0b6
000003f0: 6a74 3437 4e57 07b7 8191 6137 0000 0000
2.3300227e-07 -3.6126334e-05 0.0 -7.660628e-06 1.4357335e-05 -1.0768002e-05 1.7946666e-05 0.0
3.8024547e-07 -2.544494e-05 0.0 -5.925442e-06 1.0025878e-05 -7.5194107e-06 1.2532349e-05 0.0
-1.1136797e-06 1.1220951e-05 0.0 2.8449037e-06 -4.0429063e-06 3.0321803e-06 -5.053634e-06 0.0
-1.0382697e-06 2.8126839e-05 0.0 6.6932557e-06 -1.0835429e-05 8.12657e-06 -1.3544282e-05 0.0
9.288261e-07 -2.5101615e-05 0.0 -5.5286323e-06 9.6691165e-06 -7.251838e-06 1.2086393e-05 0.0
-1.0897496e-06 3.8987866e-05 0.0 9.011412e-06 -1.5159245e-05 1.13694305e-05 -1.8949057e-05 0.0
-8.648909e-07 6.002732e-05 0.0 1.3554868e-05 -2.3664976e-05 1.7748729e-05 -2.9581213e-05 0.0
6.6752307e-07 -2.4842811e-05 0.0 -5.491604e-06 9.670113e-06 -7.252586e-06 1.2087641e-05 0.0
-5.1173595e-07 3.2758275e-05 0.0 7.6003857e-06 -1.2898613e-05 9.673961e-06 -1.6123267e-05 0.0
6.3794903e-07 -1.911442e-05 0.0 -4.364959e-06 7.39059e-06 -5.542943e-06 9.238239e-06 0.0
-2.3718007e-06 6.898246e-05 0.0 1.6065207e-05 -2.664427e-05 1.9983203e-05 -3.3305325e-05 0.0
8.553225e-07 -1.6881162e-05 0.0 -3.998638e-06 6.410334e-06 -4.807751e-06 8.012917e-06 0.0
-2.2427753e-06 8.1982864e-05 0.0 1.8964942e-05 -3.1896037e-05 2.3922028e-05 -3.9870043e-05 0.0
-1.6086763e-06 3.7958387e-05 0.0 8.7684075e-06 -1.4539889e-05 1.0904917e-05 -1.8174864e-05 0.0
4.149662e-07 -4.45341e-07 0.0 -3.5799349e-07 1.2148931e-08 -9.112227e-09 1.5187382e-08 0.0
-2.142315e-06 4.915857e-05 0.0 1.1717859e-05 -1.8806497e-05 1.4104877e-05 -2.3508132e-05 0.0
9.537589e-07 -3.712093e-05 0.0 -8.277798e-06 1.4466872e-05 -1.0850153e-05 1.8083587e-05 0.0
6.720904e-07 -3.285653e-05 0.0 -7.231008e-06 1.2873777e-05 -9.655333e-06 1.6092217e-05 0.0
7.3864817e-07 -3.2091142e-05 0.0 -7.2248486e-06 1.2541001e-05 -9.405749e-06 1.567625e-05 0.0
-3.2722022e-07 3.463965e-05 0.0 7.810961e-06 -1.3724972e-05 1.029373e-05 -1.715622e-05 0.0
-5.6040264e-08 -5.3096395e-05 0.0 -1.1579509e-05 2.1260981e-05 -1.5945732e-05 2.6576221e-05 0.0
3.289127e-07 -3.5086978e-05 0.0 -7.601224e-06 1.3903225e-05 -1.042742e-05 1.7379038e-05 0.0
-1.7282158e-06 7.612977e-05 0.0 1.7356373e-05 -2.976062e-05 2.2320466e-05 -3.7200785e-05 0.0
-1.8523342e-06 6.900473e-05 0.0 1.5866995e-05 -2.6860962e-05 2.0145715e-05 -3.3576212e-05 0.0
-2.0886548e-06 6.257054e-05 0.0 1.46712055e-05 -2.4192752e-05 1.814457e-05 -3.0240943e-05 0.0
4.0972037e-07 -2.1686868e-05 0.0 -4.939819e-06 8.510858e-06 -6.3831453e-06 1.06385705e-05 0.0
5.680409e-07 -3.5995938e-05 0.0 -8.048866e-06 1.4171157e-05 -1.06283715e-05 1.7713948e-05 0.0
4.817583e-07 -2.184332e-05 0.0 -4.8807738e-06 8.544627e-06 -6.4084693e-06 1.0680784e-05 0.0
2.6423734e-07 -1.1395659e-05 0.0 -2.6534854e-06 4.4525686e-06 -3.3394263e-06 5.5657106e-06 0.0
-1.5662674e-06 4.1802472e-05 0.0 9.930489e-06 -1.6094482e-05 1.20708655e-05 -2.0118097e-05 0.0
3.8338436e-07 -4.1519784e-06 0.0 -1.2614834e-06 1.5074377e-06 -1.1305774e-06 1.8842961e-06 0.0
5.6499465e-07 -2.7454838e-05 0.0 -6.2093386e-06 1.0755941e-05 -8.066954e-06 1.3444923e-05 0.0

exp_avg_sq f4 [128, 8]
00000000: 475b 572f b22d be31 0000 0000 30a8 972f
00000010: 7b5d 8130 2c89 1130 0f22 ca30 0000 0000
00000020: 3bb0 8f32 5fd4 0131 0000 0000 0fff 872f
00000030: 9dd3 5d31 0d8e f930 4e4d ad31 0000 0000
00000040: 9a58 2a33 70cd 1030 0000 0000 1b34 bb2f
00000050: f152 e331 32bd 7f31 c798 3132 0000 0000
00000060: ca1d 7933 12f9 4731 0000 0000 9877 2f30
00000070: 17e2 3032 60fe c631 9d30 8a32 0000 0000
00000080: 05ee c432 f8b0 9731 0000 0000 9aef ec2f
00000090: caca a231 2e24 3731 f15c fe31 0000 0000
000000a0: a93a af33 f437 d731 0000 0000 9cd5 8b30
000000b0: 7c29 8032 ae2e 1032 d640 c832 0000 0000
000000c0: 5505 8533 4b51 4d32 0000 0000 5232 a230
000000d0: c404 5e32 5ac5 f931 ae73 ad32 0000 0000
000000e0: f8c9 2232 f4d1 3031 0000 0000 4721 732f
000000f0: 3ab8 1231 440f a530 ce3f 6531 0000 0000
00000100: 4de4 ef32 dec8 7531 0000 0000 13ce f02f
00000110: 9c74 bc31 2203 5431 183b 1332 0000 0000
00000120: dc5e 8732 60a8 0e31 0000 0000 c20e 892f
00000130: de65 5431 acf2 ee30 a2ef a531 0000 0000
00000140: 11f1 cd34 285f a232 0000 0000 7539 8e31
00000150: 3fe6 9033 0903 2333 c767 e233 0000 0000
00000160: 84af d332 f64c 7930 0000 0000 bca4 882f
00000170: cf46 9331 9aaf 2531 a41e e631 0000 0000
00000180: 65cc da34 3a0b e332 0000 0000 e729 a431
00000190: 933c 9d33 1ee4 3033 9fae f533 0000 0000
000001a0: bcc7 e433 39b1 c831 0000 0000 74cb a230
000001b0: 1f88 a232 17d9 3632 a1f4 fd32 0000 0000
000001c0: 1f6f 8532 021c 212c 0000 0000 95f0 fe2e
000001d0: cc4f 2b31 bbb9 c030 62d6 8531 0000 0000
000001e0: 8bd3 ac34 bd19 2932 0000 0000 55ea 5531
000001f0: 16ba 6c33 b428 0533 71f1 b833 0000 0000
00000200: 654e 0e33 e7fd bb31 0000 0000 09c2 1d30
00000210: 62bf e531 ac3b 8131 8a7d 3332 0000 0000
00000220: 206a 9932 3c2d 9c31 0000 0000 6912 d82f
00000230: 5315 8631 efd7 1631 4981 d131 0000 0000
00000240: a38d 1133 4b85 9131 0000 0000 5d6e 0c30
00000250: 2263 e031 846f 7c31 744d 2f32 0000 0000
00000260: b75c 0432 239f 7f31 0000 0000 481a 972f
00000270: 2df8 1031 3317 a330 bc83 6231 0000 0000
00000280: f9ca b131 452e 5432 0000 0000 6ef7 3b30
00000290: dfb5 5231 a60c ed30 1a9e a431 0000 0000
000002a0: f26e 8731 746f b831 0000 0000 10b1 ac2f
000002b0: e5fc e330 3e3e 8030 971d 3231 0000 0000
000002c0: e772 5a34 e512 b532 0000 0000 8059 4331
000002d0: 6eff 2433 6d9f b932 8fe7 8033 0000 0000
000002e0: c01f 8934 c748 a532 0000 0000 5d3c 5831
000002f0: 22b6 4733 f3ac e032 5306 9c33 0000 0000
00000300: 796a b334 6d88 8132 0000 0000 73a3 7231
00000310: 1322 7b33 2f43 0d33 a232 c433 0000 0000
00000320: be6d 3332 26c1 dc30 0000 0000 f459 432f
00000330: 6183 1031 c993 a230 39cd 6131 0000 0000
00000340: 0c86 ae32 fcb0 b131 0000 0000 962f fa2f
00000350: 0f1c 9a31 935f 2d31 d5cb f031 0000 0000
00000360: 28fb 2632 d388 0531 0000 0000 ffcc 4e2f
00000370: e027 0c31 eeac 9d30 54fe 5a31 0000 0000
00000380: 013e 8731 887a d02f 0000 0000 6389 6f2e
00000390: a4e9 4c30 db86 e62f 8616 a030 0000 0000
000003a0: bc94 3b34 09e8 e831 0000 0000 b458 f530
000003b0: dd4e 0233 be98 9232 3b9b 4b33 0000 0000
000003c0: f676 6732 1c73 7a2e 0000 0000 d80a eb2e
000003d0: 6961 1731 8c4d aa30 2488 6c31 0000 0000
000003e0: 5881 9532 3979 3e31 0000 0000 ac9a a42f
000003f0: 9454 7131 94bf 0731 158a bc31 0000 0000
1.9586564e-10 5.5349227e-09 0.0 2.7586244e-10 9.412554e-10 5.2945626e-10 1.4707114e-09 0.0
1.6727531e-08 1.889269e-09 0.0 2.4737587e-10 3.228002e-09 1.8157508e-09 5.043751e-09 0.0
3.9661792e-08 5.267884e-10 0.0 3.4052125e-10 6.615999e-09 3.721493e-09 1.03374935e-08 0.0
5.8001923e-08 2.9099891e-09 0.0 6.383458e-10 1.0295955e-08 5.7914775e-09 1.6087421e-08 0.0
2.2925642e-08 4.4147974e-09 0.0 4.3098397e-10 4.737875e-09 2.665057e-09 7.402939e-09 0.0
8.159743e-08 6.2636847e-09 0.0 1.0174293e-09 1.4920026e-08 8.392517e-09 2.3312548e-08 0.0
6.194265e-08 1.1951054e-08 0.0 1.1801353e-09 1.2923184e-08 7.26929e-09 2.0192456e-08 0.0
9.4755634e-09 2.5730715e-09 0.0 2.2112544e-10 2.1350517e-09 1.2009669e-09 3.3360155e-09 0.0
2.7927081e-08 3.5766372e-09 0.0 4.380217e-10 5.484777e-09 3.085184e-09 8.5699625e-09 0.0
1.5759205e-08 2.075943e-09 0.0 2.493064e-10 3.0907965e-09 1.7385751e-09 4.829375e-09 0.0
3.8359624e-07 1.8902554e-08 0.0 4.139276e-09 6.747404e-08 3.7954155e-08 1.0542822e-07 0.0
2.4643448e-08 9.069504e-10 0.0 2.4855307e-10 4.286313e-09 2.4110478e-09 6.6973644e-09 0.0
4.075438e-07 2.6431383e-08 0.0 4.777792e-09 7.3219006e-08 4.1185665e-08 1.1440465e-07 0.0
1.0653409e-07 5.840914e-09 0.0 1.1844876e-09 1.8921183e-08 1.0643155e-08 2.956432e-08 0.0
1.553377e-08 2.2895024e-12 0.0 1.1593319e-10 2.4929134e-09 1.4022626e-09 3.895182e-09 0.0
3.2191414e-07 9.842947e-09 0.0 3.1128782e-09 5.5117276e-08 3.1003495e-08 8.6120856e-08 0.0
3.313325e-08 5.4712816e-09 0.0 5.739201e-10 6.686535e-09 3.761178e-09 1.0447716e-08 0.0
1.7859804e-08 4.54534e-09 0.0 3.9303252e-10 3.9023376e-09 2.1950617e-09 6.0973986e-09 0.0
3.388926e-08 4.235209e-09 0.0 5.108854e-10 6.530528e-09 3.6734216e-09 1.02039515e-08 0.0
7.704492e-09 3.7197843e-09 0.0 2.7485414e-10 2.109583e-09 1.1866405e-09 3.296221e-09 0.0
5.1744533e-09 1.2350545e-08 0.0 6.838182e-10 3.0662404e-09 1.7247614e-09 4.7910023e-09 0.0
3.94163e-09 5.3677756e-09 0.0 3.1412428e-10 1.6588301e-09 9.330916e-10 2.591923e-09 0.0
2.0344633e-07 2.1079765e-08 0.0 2.842711e-09 3.8416538e-08 2.1609333e-08 6.002585e-08 0.0
2.554134e-07 1.9241623e-08 0.0 3.146645e-09 4.6498947e-08 2.615568e-08 7.2654665e-08 0.0
3.3418817e-07 1.5079616e-08 0.0 3.5308545e-09 5.8471482e-08 3.2890224e-08 9.136171e-08 0.0
1.0444124e-08 1.6062003e-09 0.0 1.7767104e-10 2.1029438e-09 1.1829054e-09 3.2858465e-09 0.0
2.0317223e-08 5.171499e-09 0.0 4.5508547e-10 4.48518e-09 2.522914e-09 7.0080923e-09 0.0
9.719578e-09 1.9431823e-09 0.0 1.880842e-10 2.0395348e-09 1.1472403e-09 3.1867744e-09 0.0
3.936066e-09 3.7922043e-10 0.0 5.4464332e-11 7.454679e-10 4.1932577e-10 1.1647934e-09 0.0
1.7469841e-07 6.778468e-09 0.0 1.7851307e-09 3.033971e-08 1.7066096e-08 4.7405802e-08 0.0
1.3473018e-08 5.6945657e-11 0.0 1.0688489e-10 2.2028763e-09 1.2391168e-09 3.4419907e-09 0.0
1.7404702e-08 2.7717546e-09 0.0 2.9941327e-10 3.5118193e-09 1.9753985e-09 5.4872182e-09 0.0

exp_avg f4 [128]
00000000: 2c8c 16b8 0842 d2b7 5a92 2937 3e3c e337
00000010: abc6 cab7 c9f4 1e38 2c25 7838 03cc cab7
00000020: 7440 0738 effd 9ab7 54b1 8b38 3a6f 86b7
00000030: 223a a738 3676 1838 a075 02b3 5433 4538
00000040: 37b2 17b8 c7fd 06b8 7f80 03b8 b0ea 0f38
00000050: ffef 5eb8 32c9 11b8 0708 9c38 2cd4 8c38
00000060: edad 7d38 527c b2b7 6b98 14b8 9d31 b3b7
00000070: 18c1 3ab7 49c3 2838 e8e7 7cb6 7f91 e1b7
00000080: cb3e 9138 c7e3 02b8 ed89 d937 325f 3538
00000090: 29e9 d937 9f21 2fb8 ca48 64b8 036b ef37
000000a0: 82b2 a8b7 8191 5538 aa97 5b38 2054 6038
000000b0: 7c65 ccb7 cf62 0837 2bf6 1438 3fea 69b8
000000c0: eb75 b138 f7e8 a6b7 e038 6ab5 623e 8538
000000d0: 7e06 9238 9a45 2ab8 342c 3038 6172 2238
000000e0: 0a3d 7038 9f02 47b7 8359 dfb7 128e 1438
000000f0: 3c90 ea37 96da c0b7 60e7 ceb7 f204 8538
00000100: 024c 95b7 3ce3 f4b6 191e 2b38 a00e cd37
00000110: 06cb 6137 2284 b237 d43e d0b7 2a61 0938
00000120: 29ce 07b8 4fcc 3a38 883d 9738 bd49 0ab8
00000130: 2d33 f037 b5d0 3238 9a66 46b8 6132 ecb7
00000140: ca43 3d38 a6bb 72b8 2393 9138 f538 2038
00000150: e9b4 6537 36e3 7838 0af5 8438 2b61 04b8
00000160: 484b 0db8 b4bc 87b7 dbfb 0fb8 d903 4bb8
00000170: cc7e 5b38 f801 4f38 bafc e7b7 3207 f537
00000180: 65c2 20b8 12d3 8e38 84ae 28b8 31cc b0b7
00000190: 5a22 f7b7 7a85 2237 18a0 00b8 c2ba 0bb8
000001a0: 84ee 8438 b56b 0ab8 bac9 4e38 881f ff37
000001b0: 6092 85b7 20e5 b837 0c8e 36b8 0049 02b8
000001c0: 57d4 5238 fef7 29b8 449f c837 b42d 1ab8
000001d0: 9441 aab7 dd82 b7b7 0904 1eb8 4b0f 67b8
000001e0: a3ab 5638 8aaf 31b8 76a6 7638 d1a3 f0b7
000001f0: 05ae a3b7 6d18 aa38 1433 4138 2761 12b8
-3.5893332e-05 -2.5064699e-05 1.010726e-05 2.7088561e-05 -2.4172788e-05 3.789811e-05 5.9162427e-05 -2.4175277e-05
3.2246535e-05 -1.8476478e-05 6.6610664e-05 -1.6025839e-05 7.9740086e-05 3.6349717e-05 -3.0374963e-08 4.7016263e-05
-3.616718e-05 -3.2184438e-05 -3.1352505e-05 3.4312427e-05 -5.315244e-05 -3.475807e-05 7.440155e-05 6.71524e-05
6.048188e-05 -2.1277145e-05 -3.54279e-05 -2.1361566e-05 -1.1131422e-05 4.0236195e-05 -3.7685913e-06 -2.6889842e-05
6.925835e-05 -3.120655e-05 2.5932643e-05 4.324242e-05 2.597699e-05 -4.1754563e-05 -5.4427226e-05 2.8540851e-05
-2.0110285e-05 5.091867e-05 5.2354917e-05 5.348411e-05 -2.4365952e-05 8.129237e-06 3.551521e-05 -5.5769688e-05
8.4619816e-05 -1.9897225e-05 -8.7254557e-07 6.353554e-05 6.963032e-05 -4.059598e-05 4.2002837e-05 3.8730333e-05
5.7277306e-05 -1.1861935e-05 -2.6625354e-05 3.5418263e-05 2.7962138e-05 -2.298997e-05 -2.4664856e-05 6.342855e-05
-1.7797578e-05 -7.29822e-06 4.0797608e-05 2.4444715e-05 1.3458315e-05 2.1280783e-05 -2.4824789e-05 3.2753836e-05
-3.237851e-05 4.4536133e-05 7.211702e-05 -3.2970438e-05 2.863406e-05 4.263288e-05 -4.7302434e-05 -2.8156852e-05
4.5124245e-05 -5.7872057e-05 6.941545e-05 3.8200018e-05 1.3691585e-05 5.9339414e-05 6.3398926e-05 -3.1561747e-05
-3.368713e-05 -1.6181126e-05 -3.4328415e-05 -4.8402555e-05 5.2331758e-05 4.935448e-05 -2.765503e-05 2.9209627e-05
-3.8328017e-05 6.8104026e-05 -4.021685e-05 -2.1075919e-05 -2.946069e-05 9.68703e-06 -3.0666677e-05 -3.3314114e-05
6.3386775e-05 -3.3002074e-05 4.93021e-05 3.0413052e-05 -1.5922997e-05 2.2041204e-05 -4.3524473e-05 -3.1062402e-05
5.026566e-05 -4.05237e-05 2.3916022e-05 -3.6759026e-05 -2.0296116e-05 -2.1876238e-05 -3.7673894e-05 -5.5088934e-05
5.1181425e-05 -4.2363572e-05 5.8806e-05 -2.8686512e-05 -1.9512148e-05 8.110781e-05 4.6062356e-05 -3.4899593e-05

exp_avg_sq f4 [128]
00000000: 1022 ca31 4f4d ad32 c798 3133 9e30 8a33
00000010: f15c fe32 d740 c833 ae73 ad33 ce3f 6532
00000020: 183b 1333 a1ef a532 c567 e234 a41e e632
00000030: 9dae f534 a1f4 fd33 63d6 8532 70f1 b834
00000040: 877d 3333 4a81 d132 744d 2f33 bb83 6232
00000050: 1a9e a432 961d 3232 90e7 8034 5206 9c34
00000060: a432 c434 3ecd 6132 d4cb f032 55fe 5a32
00000070: 8616 a031 3b9b 4b34 2588 6c32 148a bc32
00000080: 5d09 5834 702a 8b32 8da7 8131 f0cc 1634
00000090: 237d 5c33 a25f 3c33 4729 6f33 2192 8931
000000a0: 8467 4232 7501 0334 32c8 7f34 9bb0 ca33
000000b0: 09c1 6932 5eb7 7832 1aa2 4133 a9f1 6733
000000c0: 8a30 2134 beb4 fe30 44c0 2632 0db3 2434
000000d0: a76b 0034 0427 4733 3fc1 5334 3455 ce33
000000e0: a796 8434 188e 8131 366c 3333 ddc5 7b33
000000f0: cee5 9e31 5e9a 8332 e345 7b32 b88b c434
00000100: 4d60 3632 5f6f 2430 c4c1 5d34 2c47 a633
00000110: ddb0 8032 29c5 8633 234a 9d32 a9eb 7434
00000120: 9a56 9733 fc31 6534 dfc7 a334 5644 0b33
00000130: d713 f232 3b77 0635 44e2 9533 e080 2c32
00000140: 9cbc 7e33 987c 0033 fcf8 a334 c4b4 bf33
00000150: 6593 3d34 de91 9433 15c6 8d34 5aeb e732
00000160: 692c 7d32 a1be 0932 d027 2532 dd07 8233
00000170: 3ce2 b432 d226 5934 c4f6 4833 87e1 c732
00000180: dc69 4c33 1413 6c34 b494 2433 ce0b 5232
00000190: db40 5232 0cf7 6e32 08dd 1933 9fec a032
000001a0: b623 1f34 3bc4 9d32 ab71 8834 9a6a e233
000001b0: 4838 1f33 b901 eb32 fce3 c133 bc81 ec32
000001c0: 99b0 3534 2011 5333 158a 9533 e559 0933
000001d0: ce5f 0732 de93 9032 ca88 7f33 ab9c 0e33
000001e0: a32b 2a35 a1ff b332 96d6 8f34 af3c ae32
000001f0: dbe0 3e32 8fe6 8e34 5d95 ba33 6ac0 0c33
5.882846e-09 2.0175007e-08 4.1349974e-08 6.434969e-08 2.9611757e-08 9.32502e-08 8.076982e-08 1.3344062e-08
3.427985e-08 1.9317499e-08 4.2171283e-07 2.6789458e-08 4.5761854e-07 1.1825728e-07 1.558073e-08 3.444834e-07
4.179085e-08 2.4389596e-08 4.0815806e-08 1.3184883e-08 1.9164009e-08 1.0367691e-08 2.4010342e-07 2.9061863e-07
3.654469e-07 1.314339e-08 2.8032368e-08 1.27470985e-08 4.6591735e-09 1.8962321e-07 1.3767964e-08 2.1948871e-08
2.0119974e-07 1.6201028e-08 3.7734424e-09 1.4044394e-07 5.1336553e-08 4.385914e-08 5.5684065e-08 4.0038377e-09
1.1315823e-08 1.2200856e-07 2.3821556e-07 9.438482e-08 1.3606276e-08 1.4477193e-08 4.5083745e-08 5.4003667e-08
1.5011952e-07 1.8532302e-09 9.706188e-09 1.5338829e-07 1.1960093e-07 4.6368783e-08 1.9721209e-07 9.608121e-08
2.469653e-07 3.7705483e-09 4.1775102e-08 5.8620447e-08 4.624531e-09 1.5320605e-08 1.4626013e-08 3.6609504e-07
1.06156905e-08 5.982112e-10 2.065272e-07 7.7429235e-08 1.498159e-08 6.2757245e-08 1.8310919e-08 2.2810003e-07
7.047238e-08 2.1345471e-07 3.050654e-07 3.242561e-08 2.818153e-08 5.0092393e-07 6.979511e-08 1.00410205e-08
5.9310523e-08 2.991564e-08 3.0542276e-07 8.927012e-08 1.7655618e-07 6.91832e-08 2.640742e-07 2.6998965e-08
1.4736636e-08 8.0177935e-09 9.613316e-09 6.055027e-08 2.1057637e-08 2.0223823e-07 4.679056e-08 2.3269207e-08
4.759373e-08 2.1986153e-07 3.831947e-08 1.2226293e-08 1.2238355e-08 1.3909595e-08 3.5824115e-08 1.8734054e-08
1.482102e-07 1.836644e-08 2.5414678e-07 1.0543336e-07 3.707126e-08 2.7358384e-08 9.028733e-08 2.7533012e-08
1.6921184e-07 4.914284e-08 6.96347e-08 3.1979557e-08 7.879818e-09 1.6831049e-08 5.9496223e-08 3.320444e-08
6.3393435e-07 2.095459e-08 2.6791957e-07 2.0283862e-08 1.1110582e-08 2.6617315e-07 8.688469e-08 3.277129e-08
