results/phase1_only_shoting_with_player_movement/NPCAgent/NPCAgent-34136.onnx (onnx, 71591 bytes, 6 tensors)

action_model._discrete_distribution.branches.0.bias f4 [2]
-0.0010849084 0.0010849049
00000000: 7c33 8eba 5e33 8e3a

action_model._discrete_distribution.branches.0.weight f4 [2, 128]
-0.0026907763 0.004895022 0.004590914 -0.0023166293 -0.015732061 -0.007180373 -0.01248381 -0.005078954
-0.0031653468 -0.011359597 -0.011604779 -0.01053481 0.009522812 0.0019900433 0.004816553 -0.02349639
0.0001205943 0.0051243766 0.010503041 0.0030139089 0.00352089 -0.0264266 -0.00071141566 0.0036446634
0.0045719696 -0.0077913953 0.003427215 0.005814053 -0.0010763028 0.0014730766 -0.004299418 0.0011781033
-0.007240969 -0.0026702813 -0.023144303 0.009825238 0.0055068075 0.0069395476 -0.004167689 0.0056199003
-0.0010725318 -0.0057669915 -0.0056130467 0.000557839 -0.006708459 0.008520168 0.004728811 0.0143963285
-0.0023611786 -0.0017947403 -0.0069813738 -0.010002905 0.003813546 -0.0062707867 -0.008576242 0.006316226
0.017331125 -0.011350676 0.0025353024 -0.0067674587 0.0024289358 -0.013577035 0.005208669 -0.010669789
0.0037926657 0.0012460537 0.0061838944 0.0060673505 0.0036659157 0.011339997 -0.016605439 -0.005964802
0.0008559263 -0.0005768331 -0.00044066628 -0.0005677386 -0.01822809 0.0013533726 0.00569327 0.004652757
0.0118666105 -0.004423125 0.014494427 -0.009485085 -0.0029705812 0.013507627 -0.011221915 -0.002412195
-0.0025811805 -0.008850512 -0.0046702023 0.012366638 -0.00237011 -0.008781712 0.011287731 0.0024673708
0.005952857 -0.008378793 -0.0034871188 -0.007880216 -0.0064762263 0.013247392 0.0005778312 -0.011728973
-0.0017177801 0.004391263 -0.00057766057 0.0022927101 0.0053628366 0.004351437 -0.011488818 -0.007349841
-0.00067442394 -0.01644193 0.0062195538 0.0069247135 0.012743989 0.019849326 -0.00017655604 -0.008046348
-0.014214639 0.0017776992 -0.003864269 -0.024601106 -0.031900946 -0.0020833595 -0.0052788244 -9.630248e-05
0.004258959 0.0010995151 0.005398776 0.0018681125 -0.0026928713 0.006185165 -0.0021988398 0.0076955194
-0.012133062 0.01038625 -0.018165193 -0.017829493 -0.014237808 -0.011060027 0.0010896592 0.00016044032
-0.019897135 -0.022523815 -0.004572081 0.0067372606 -0.0068110162 -0.011440921 0.0153186945 0.0018053323
0.009264887 -0.0062744906 -0.013834522 0.00036947726 0.0006202464 0.0007875638 0.002291157 0.000972765
0.0059946077 0.008683995 0.0042739245 0.010250446 -0.009891726 0.0061249365 0.013962294 -0.0004024891
-0.0027802582 0.0019626066 0.0096706655 -0.013990666 0.0016784773 -0.011323202 0.006573702 -0.015099216
0.004056525 -0.00065557886 -0.0058543365 0.010441863 0.0023231958 -0.00068916223 -0.00037063673 -0.024774117
0.0016413343 0.003244583 -0.01187399 -0.008386992 0.011707718 0.018014181 0.01381357 -0.0014903654
-0.0075714933 0.0054558236 -0.0019367154 -0.0070036994 -0.0054448876 -0.0054390947 0.012994983 0.00985603
-0.0032725984 -0.009942893 -0.017177567 0.01555098 -0.010613542 0.0033548851 0.0017681541 0.00052945607
-0.010323606 0.008880454 -0.0042913286 0.0009559923 0.003948709 -0.008097454 0.0024515465 -0.017529046
-0.0033450876 -0.01329951 -0.0145978285 -0.0005102621 0.0049644285 -0.0017741276 -0.012747116 0.013393189
-0.009609449 0.006437368 0.008623946 0.010537461 0.005795192 0.005599677 -0.011323265 5.1019306e-05
-0.004174637 0.0044485363 -0.0057738004 0.006968801 -0.010127736 0.006194675 -0.013181917 -0.0010881174
-0.004642641 0.016232044 0.006253434 0.0040036067 -0.012499223 -0.006000486 -0.0016694578 0.0045876694
0.0058760913 0.0056716627 0.018148297 0.006470082 -0.0024316928 -0.007803861 -0.011331912 -0.020818705
00000000: bc57 30bb 6c66 a03b 616f 963b 97d2 17bb
00000010: 86e0 80bc 5649 ebbb e588 4cbc 5b6d a6bb
00000020: b571 4fbb 9a1d 3abc f921 3ebc 329a 2cbc
00000030: 9205 1c3c 636b 023b 2dd4 9d3b 807b c0bc
00000040: 92e7 fc38 63ea a73b f214 2c3c 0085 453b
00000050: bbbe 663b 997c d8bc 4c7e 3aba 4edb 6e3b
00000060: 76d0 953b f64e ffbb 209b 603b d083 be3b
00000070: bb12 8dba 4014 c13a 22e2 8cbb 966a 9a3a
00000080: a745 edbb e3ff 2ebb 1f99 bdbc 09fa 203c
00000090: 7372 b43b 2565 e33b 1c91 88bb 2427 b83b
000000a0: 3294 8cba 08f9 bcbb a6ed b7bb f13b 123a
000000b0: a2d2 dbbb 2d98 0b3c 24f4 9a3b 94de 6b3c
000000c0: 01be 1abb 7e3d ebba 02c4 e4bb 39e3 23bc
000000d0: afec 793b 2c7b cdbb 5e83 0cbc 58f8 ce3b
000000e0: 01fa 8d3c 30f8 39bc 5127 263b 8fc1 ddbb
000000f0: c82e 1f3b 3672 5ebc 7cad aa3b 57d0 2ebc
00000100: 5f8e 783b a052 a33a 44a2 ca3b a0d0 c63b
00000110: dc3f 703b 65cb 393c 2108 88bc 6374 c3bb
00000120: 3e60 603a 9d36 17ba 3a09 e7b9 4bd4 14ba
00000130: 1353 95bc a663 b13a 9c8e ba3b 2876 983b
00000140: 2c6c 423c ddef 90bb 087a 6d3c 5467 1bbc
00000150: 15ae 42bb 184f 5d3c 1fdc 37bc eb15 1ebb
00000160: 0629 29bb bd01 11bc 7f08 99bb 709d 4a3c
00000170: d953 1bbb 2be1 0fbc 2df0 383c 9db3 213b
00000180: 2f10 c33b 3447 09bc 2588 64bb 061c 01bc
00000190: 8636 d4bb 970b 593c 9879 173a e12a 40bc
000001a0: 2327 e1ba 95e4 8f3b 256e 17ba 4b41 163b
000001b0: bcba af3b 8096 8e3b 983b 3cbc efd6 f0bb
000001c0: d3cb 30ba 3ab1 86bc 66cd cb3b b5e8 e23b
000001d0: 2acc 503c 0e9b a23c e721 39b9 d4d4 03bc
000001e0: 84e4 68bc b001 e93a ad3f 7dbb 4288 c9bc
000001f0: 91aa 02bd f988 08bb fdf9 acbb 00f6 c9b8
00000200: bd8e 8b3b 9b1d 903a 37e8 b03b 74db f43a
00000210: e27a 30bb edac ca3b 691a 10bb b22a fc3b
00000220: c0c9 46bc 172b 2a3c 2ccf 94bc 280f 92bc
00000230: b245 69bc 1e35 35bc e5d2 8e3a df3b 2839
00000240: 51ff a2bc dd83 b8bc 65d1 95bb 3dc4 dc3b
00000250: f22e dfbb b372 3bbc 43fb 7a3c e6a0 ec3a
00000260: c1cb 173c 3e9a cdbb 31aa 62bc 66b6 c139
00000270: 0898 223a 8374 4e3a 3c27 163b 2701 7f3a
00000280: 6a6e c43b 5147 0e3c 470c 8c3b 7df1 273c
00000290: e810 22bc b1b3 c83b 1bc2 643c 2c05 d3b9
000002a0: fe34 36bb 139f 003b b671 1e3c 1b39 65bc
000002b0: 5a00 dc3a f484 39bc 3668 d73b b462 77bc
000002c0: 99ec 843b 27db 2bba bcd5 bfbb 5914 2b3c
000002d0: c240 183b e5a8 34ba 0552 c2b9 17f3 cabc
000002e0: 0a22 d73a 12a3 543b 208b 42bc 9869 09bc
000002f0: bad1 3f3c 7a92 933c 5052 623c 5d58 c3ba
00000300: 4a1a f8bb c4c6 b23b 63d9 fdba 4a7f e5bb
00000310: 076b b2bb 6f3a b2bb e9e8 543c 307b 213c
00000320: 1779 56bb 84e7 22bc f8b7 8cbc 8ac9 7e3c
00000330: 6ce4 2dbc a2dd 5b3b 68c1 e73a 32cb 0a3a
00000340: 5824 29bc 537f 113c 469e 8cbb 8f9b 7a3a
00000350: 2c64 813b 2fab 04bc 20aa 203b 1399 8fbc
00000360: 4239 5bbb 30e6 59bc bb2b 6fbc 1cc3 05ba
00000370: a5ac a23b d889 e8ba 48d9 50bc 1b6f 5b3c
00000380: f370 1dbc 8ff0 d23b 744b 0d3c 51a5 2c3c
00000390: 98e5 bd3b 7f7d b73b 3785 39bc 90fd 5538
000003a0: 65cb 88bb 07c5 913b 2632 bdbb 8a5a e43b
000003b0: ceee 25bc b3fc ca3b f8f8 57bc 299f 8eba
000003c0: 4c21 98bb 10f9 843c 9be9 cc3b b030 833b
000003d0: 8bc9 4cbc ba9f c4bb b5d1 daba 2954 963b
000003e0: 3a8c c03b 5bd9 b93b bdab 943c fb02 d43b
000003f0: 095d 1fbb 88b7 ffbb 7ca9 39bc fd8b aabc

network_body._body_endoder.seq_layers.0.bias f4 [128]
0.0013861438 -0.0008787777 0.00095169037 0.0014019009 -0.001502866 0.002196315 -0.0009970543 -6.3474945e-05
-0.004858984 -0.00023729136 -0.004103286 -0.0005642116 -0.0010637506 -0.0009468884 0.0006358671 -0.005891296
0.00046223635 0.0021928074 -0.0011883907 -0.00085432234 -0.0035193237 0.0020352097 -0.0011115309 -0.0045586936
-9.299736e-05 0.000655244 -0.0026197622 -0.00064963877 -0.0030592573 0.00074220466 -0.0007904351 0.0015813819
0.0003363994 0.0027430432 0.00021241145 -3.2854907e-05 -0.00031869026 0.0041436455 -0.00035351547 -0.00080498477
0.0032104328 0.00027942346 -0.0039281696 0.00030631054 -0.0009643454 -0.0015530752 0.004965656 -0.0025404894
-0.001267154 -0.0013514587 -0.0017195167 -0.0012654386 -0.0015777738 -0.00032887602 -0.0009926992 -0.0040690685
0.0009946887 -0.0017160613 -0.00083626976 0.0021854849 -0.0013072791 -0.0062266365 -0.0011408831 -0.0011268749
0.00036036677 0.0017639952 -0.0011100539 0.00048028558 -0.0017874961 0.00065085996 0.0025946395 0.00032310304
0.0018711258 -0.0013985581 -0.0016939172 0.0067159757 0.002410391 -0.0041632447 0.00072192535 0.0032548239
0.0043075527 -0.0014195384 6.5132e-05 0.0015449 0.0015662366 -0.0011083581 -0.0009742602 0.0008399363
0.0013871739 -0.001007694 0.0023624923 0.003062498 0.006197677 0.0041662743 -0.0051198346 -0.0013691053
0.001230068 -0.0012040373 -0.0012167732 0.0019630373 0.0018747947 0.0041744825 -0.0004301348 -0.00036871797
-0.0052268887 0.001746072 0.0040273718 0.0046027587 0.00070806703 0.0013518746 -0.0035552552 -0.001264759
0.00045519564 0.0038990802 0.00075088954 -0.0019311534 0.0002472869 0.0018137353 -0.001984454 0.002427995
-0.00028070848 0.004570681 0.00068420015 0.0029607925 0.0021189323 0.0026103093 0.0028782755 -0.0016754066
00000000: 45af b53a c65d 66ba dc7a 793a fdbf b73a
00000010: d1fb c4ba 0df0 0f3b 97af 82ba da1d 85b8
00000020: 1d38 9fbb 6ad1 78b9 dc74 86bb 99e7 13ba
00000030: 8c6d 8bba 9b38 78ba 52b0 263a c60b c1bb
00000040: 5058 f239 34b5 0f3b c6c3 9bba 9af4 5fba
00000050: 74a4 66bb 2761 053b cab0 91ba 1861 95bb
00000060: 9407 c3b8 aec4 2b3a 51b0 2bbb 854c 2aba
00000070: d27d 48bb 8390 423a 3435 4fba 5f46 cf3a
00000080: c35e b039 a1c4 333b c4ba 5e39 b0cd 09b8
00000090: e215 a7b9 6bc7 873b 0b58 b9b9 9d05 53ba
000000a0: 2066 523b 957f 9239 e0b7 80bb 4e98 a039
000000b0: 20cc 7cba 8e90 cbba f1b6 a23b 577e 26bb
000000c0: a216 a6ba 6e23 b1ba 6861 e1ba 13dd a5ba
000000d0: 4ecd ceba fe6c acb9 751d 82ba d255 85bb
000000e0: 3760 823a 76ed e0ba 1d39 5bba 5a3a 0f3b
000000f0: 0259 abba d008 ccbb af89 95ba a6b3 93ba
00000100: 9cef bc39 db35 e73a 3a7f 91ba d7ce fb39
00000110: 6b4a eaba 799e 2a3a d40a 2a3b 2866 a939
00000120: 9040 f53a d34f b7ba 6e06 deba b011 dc3b
00000130: a7f7 1d3b d46b 88bb 973f 3d3a e24e 553b
00000140: 5f26 8d3b ce0f baba 7a97 8838 3e7e ca3a
00000150: 2e4a cd3a 5446 91ba 7f65 7fba 2c2f 5c3a
00000160: d5d1 b53a 9a14 84ba 0bd4 1a3b 31b4 483b
00000170: e215 cb3b 3e85 883b 49c4 a7bb 8d73 b3ba
00000180: 3c3a a13a cad0 9dba 227c 9fba 4da6 003b
00000190: acbb f53a 19ca 883b b783 e1b9 7d50 c1b9
000001a0: 5246 abbb 74dc e43a 0bf8 833b bdd2 963b
000001b0: 939d 393a 6231 b13a 49ff 68bb 45c6 a5ba
000001c0: 53a7 ee39 b687 7f3b 58d7 443a c11e fdba
000001d0: 49a6 8139 dcba ed3a 9d0d 02bb ff1e 1f3b
000001e0: 0e2c 93b9 a7c5 953b e55b 333a db09 423b
000001f0: c9dd 0a3b b911 2b3b 73a1 3c3b 5199 dbba

network_body._body_endoder.seq_layers.0.weight f4 [128, 4]
0.57398796 0.498609 -0.3210547 0.0450586 -0.1813955 0.42800346 -0.6176952 0.21118255
-0.07972361 -0.09907762 0.39690024 -0.7415812 0.50066376 -0.72518843 -0.37106267 -0.12968183
-0.103228725 -0.35704705 -0.5544729 -0.23367198 0.5135584 -0.33852014 0.8156319 0.74969196
0.124369085 -0.21711753 0.25092807 0.5859312 0.3272093 -0.7309264 0.31415015 -0.0529089
0.57452655 -0.030924102 -0.023145765 0.405951 0.34893304 -0.45737275 1.0713004 -0.7030033
-0.49180683 0.4493079 -0.4250154 -0.57541215 -1.0294814 0.0012633478 0.6477324 -0.57944757
-0.103163 0.13566232 -0.9389673 -0.17680784 -1.1952345 -0.4510686 -0.047403686 -0.28922278
0.6960193 0.32834303 -0.50157017 -0.3356624 1.1943005 -0.039219785 -0.98975784 -0.4321246
0.09109904 0.30720076 0.31660047 -0.50849354 -0.23759769 -0.14363562 0.001133843 0.4021131
-0.4258067 1.0835829 -0.5716075 -0.99980694 -0.6893262 0.29194206 0.09773528 -0.27990705
-0.061575167 0.23874988 0.16390564 -0.21782775 0.5263689 0.174496 -0.16492796 0.44489598
-0.6608225 0.67758554 -0.2586411 -0.1592649 -0.0042633135 0.8911771 -0.26134712 0.0030633525
0.97432566 0.012861198 0.14667575 -1.055692 0.1359727 1.4028295 0.3040875 0.11195355
-0.083439164 -0.2777963 -1.1940608 0.4606431 -0.07360699 0.20477605 0.34792197 -0.54097205
-0.45798233 0.56781274 0.77228576 -0.13552763 -0.24664348 0.7525178 -1.3461745 0.013878853
-0.15910733 1.3174325 -0.65690845 0.8028578 0.53890795 -0.3823899 -0.6135108 0.1275812
-0.36668488 -0.48161328 0.6800783 1.2832508 0.57685494 -0.97127205 -0.14957303 1.0693072
0.86417145 -0.13032906 -0.21767178 -0.416864 -0.0332745 -0.5570473 0.320975 -0.51894987
0.35093364 -0.13690597 -0.034125507 -0.7812429 -0.1856272 -0.5353911 0.20326327 0.939752
-0.113086924 -0.37883645 0.9050128 -0.8749479 0.10428018 0.42366382 -0.7442209 0.5924073
0.15779757 -0.88161314 -0.48157847 0.57448184 -0.7030704 0.40143865 -0.28882396 0.23926106
0.24699114 -0.028001538 -0.8798476 -0.52504677 -0.4605481 0.5795157 -0.6858396 -0.22969621
-0.7774054 -0.48060086 -0.7928934 -0.9868337 0.42965248 -0.24009652 -0.24803771 0.1564846
0.2000249 -0.68260586 -0.21217991 1.082322 0.7103565 -1.3941665 0.1936063 0.2944837
0.24417026 0.320736 -0.43531397 -0.3236633 -0.39323562 -0.07454434 -0.7055891 0.79424626
0.3419027 0.29984242 -0.3378553 -0.19190373 -0.13767157 -0.08238219 -0.78108096 -1.4543046
-0.4759389 -0.06281354 -1.05873 -0.54721427 0.69900715 0.5826817 0.5020043 0.31052962
-0.2711028 0.052692674 0.7185603 -0.4969624 0.17215855 -0.35671738 0.24977505 0.9419921
0.50838244 0.04238695 0.7369212 0.025784863 -0.093285754 -0.115334414 -0.12960292 0.75303876
0.82302725 -0.06518811 0.4839123 -0.8893458 0.742296 -0.26870137 0.2873213 0.65568215
-0.6019717 -0.5636886 -0.82259065 -0.8237579 -0.31774488 0.41816324 0.15461312 -0.023840616
-0.4925168 0.35036924 -0.0072812587 -0.74927276 -0.06416969 0.25440067 -0.6420009 0.61659956
00000000: e0f0 123f ae49 ff3e 4861 a4be 5e8f 383d
00000010: bebf 39be 4523 db3e 4621 1ebf 3d40 583e
00000020: 2246 a3bd 35e9 cabd 8236 cb3e 44d8 3dbf
00000030: 802b 003f f3a5 39bf edfb bdbe 50cb 04be
00000040: 9569 d3bd dfce b6be f0f1 0dbf b547 6fbe
00000050: 9078 033f 8352 adbe 41cd 503f d0eb 3f3f
00000060: 38b5 fe3d 0f54 5ebe a579 803e 96ff 153f
00000070: fa87 a73e fe1d 3bbf 4ad8 a03e 01b7 58bd
00000080: 2c14 133f 8b54 fdbc 309c bdbc cfd8 cf3e
00000090: 5aa7 b23e c32c eabe 5f20 893f 06f8 33bf
000000a0: 1bce fbbe af0b e63e 9e9b d9be 364e 13bf
000000b0: 0cc6 83bf eb96 a53a cad1 253f ad56 14bf
000000c0: 1f47 d3bd 10eb 0a3e 2960 70bf 1d0d 35be
000000d0: 72fd 98bf 77f2 e6be 5e2a 42bd 0215 94be
000000e0: 522e 323f 941c a83e e766 00bf f1db abbe
000000f0: d7de 983f eda4 20bd c560 7dbf 703f ddbe
00000100: 2292 ba3d 6b49 9d3e 7519 a23e a22c 02bf
00000110: cf4c 73be 3715 13be 759d 943a c5e1 cd3e
00000120: 5603 dabe d8b2 8a3f de54 12bf 59f3 7fbf
00000130: af77 30bf 6e79 953e 6f29 c83d fa4f 8fbe
00000140: 3e36 7cbd d97a 743e e1d6 273e 3d0e 5fbe
00000150: 1dc0 063f 14af 323e e0e2 28be 68c9 e33e
00000160: aa2b 29bf 3f76 2d3f 9b6c 84be 5716 23be
00000170: 44b3 8bbb 2f24 643f 4acf 85be 87c2 483b
00000180: 686d 793f c6b7 523c 2b32 163e ea20 87bf
00000190: 6d3c 0b3e eb8f b33f 5bb1 9b3e e747 e53d
000001a0: 27e2 aabd 513b 8ebe fcd6 98bf 6ad9 eb3e
000001b0: 43bf 96bd d0b0 513e d422 b23e 257d 0abf
000001c0: a97c eabe 2d5c 113f 85b4 453f c1c7 0abe
000001d0: 1c90 7cbe 02a5 403f 724f acbf 2164 633c
000001e0: 08ed 22be a1a1 a83f 272b 28bf 1788 4d3f
000001f0: dff5 093f 9cc8 c3be 0b0f 1dbf a5a4 023e
00000200: 1fbe bbbe 0496 f6be 9d19 2e3f 9041 a43f
00000210: c4ac 133f 49a5 78bf ac29 19be 0fdf 883f
00000220: 573a 5d3f fb74 05be 5ae5 5ebe 336f d5be
00000230: d84a 08bd a79a 0ebf d656 a43e e6d9 04bf
00000240: 93ad b33e 1431 0cbe 30c7 0bbd 89ff 47bf
00000250: 0f15 3ebe 640f 09bf 3f24 503e 9693 703f
00000260: 1e9a e7bd daf6 c1be ebae 673f 96fc 5fbf
00000270: d990 d53d 77ea d83e 4385 3ebf 01a8 173f
00000280: b095 213e 66b1 61bf 7491 f6be 3e11 133f
00000290: 6cfc 33bf 5e89 cd3e bce0 93be da00 753e
000002a0: 3feb 7c3e 7b63 e5bc b13d 61bf 7769 06bf
000002b0: f6cc ebbe 245b 143f 2f93 2fbf 7c35 6bbe
000002c0: 0a04 47bf 5111 f6be 10fb 4abf 22a1 7cbf
000002d0: 69fb db3e dddb 75be 99fd 7dbe 803d 203e
000002e0: 54d3 4c3e 42bf 2ebf b145 59be 8789 8a3f
000002f0: ecd9 353f 0c74 b2bf bb40 463e 91c6 963e
00000300: c507 7a3e 8237 a43e 79e1 debe 32b7 a5be
00000310: 2e56 c9be b4aa 98bd 7da1 34bf b953 4b3f
00000320: df0d af3e f284 993e 5ffb acbe 6982 44be
00000330: c7f9 0cbe feb7 a8bd ecf4 47bf a726 babf
00000340: 43ae f3be 63a4 80bd 7784 87bf 3c16 0cbf
00000350: 22f2 323f a12a 153f 5b83 003f bdfd 9e3e
00000360: fccd 8abe 46d4 573d 91f3 373f db71 febe
00000370: 554a 303e a9a3 b6be 08c5 7f3e 6526 713f
00000380: 5a25 023f f09d 2d3d dea6 3c3f c73a d33c
00000390: 9a0c bfbd 7334 ecbd a1b6 04be 26c7 403f
000003a0: eab1 523f 5881 85bd 5ac3 f73e 2bac 63bf
000003b0: 1c07 3e3f 3a93 89be c71b 933e c9da 273f
000003c0: d11a 1abf e54d 10bf 4d95 52bf cce1 52bf
000003d0: 75af a2be 7e19 d63e e752 1e3e 654d c3bc
000003e0: 292b fcbe 9963 b33e a097 eebb 57d0 3fbf
000003f0: 666b 83bd ce40 823e 2c5a 24bf 78d9 1d3f

network_body._body_endoder.seq_layers.2.bias f4 [128]
0.0043015457 -0.0018845532 -0.0003931099 0.0007633656 0.0004359968 0.001869103 0.0014453754 0.0012419991
-0.0011187693 0.001747695 -0.0010347599 -0.00090905355 -0.0003225288 -0.0013450152 0.0021953492 0.001796477
-0.0010579316 -0.001025082 -0.0009586171 -0.0017060195 -0.0017104264 0.001152412 0.0018222313 -0.0015094678
0.00064968923 -0.004565295 -0.0011091379 5.877798e-05 -0.004957142 -0.0007714195 0.0014923324 -0.00042321716
0.001888347 0.00030727114 0.0018877276 0.0019514487 -0.0011635933 -0.0015594707 0.0016564009 -0.004833449
-0.0012903843 0.0008619915 0.0006838067 -0.0010038948 0.00013389827 -0.00078782556 -7.614744e-05 -0.0011677509
-6.855538e-05 0.0013961582 0.0002680199 0.0018377586 -0.0007286233 0.0006662395 0.0040711625 -0.00048250187
-0.0011282327 0.00082065235 -0.0012934774 -0.00027826423 0.0013034682 0.0013224669 -0.00013299898 0.0021596986
-0.0012662559 0.0005568292 -0.0010736852 -0.0009923024 -0.00083759223 -0.0011940757 0.0027932448 0.0017328174
-0.0012566483 -0.0006338972 -0.0011966425 0.0019492981 0.0013485594 -0.0034468742 -0.00064215995 -0.0021670195
-0.0010670443 0.0016194053 -0.0012381151 0.0022096639 0.0036377406 -0.00070616696 0.002524515 -0.0011207797
0.0020511928 -0.0010263004 -0.0011738365 -0.00086135074 0.004841851 0.0035008243 -0.00103321 0.0018831054
-0.0012682473 0.0009478321 0.0015210859 0.0008861435 0.0009667636 -0.0006078316 -0.0010279095 0.0013085695
0.0031107524 0.005032986 -0.0011901219 0.0016956655 -0.0007589708 -0.00024152776 -0.004171293 -0.00036324034
0.0008010977 0.002064904 0.0009922376 -0.004169775 -0.0007502465 -0.00050352927 -0.0005796361 0.0012449845
0.0016799549 0.002330428 0.0010174597 0.0009150658 0.0013521705 -0.00068346696 -0.00042783478 -0.0012594492
00000000: fbf3 8c3b 1d03 f7ba 511a ceb9 991c 483a
00000010: 8096 e439 b1fc f43a c072 bd3a 93ca a23a
00000020: aba3 92ba ea12 e53a c8a0 87ba 8d4d 6eba
00000030: 1519 a9b9 394b b0ba d9df 0f3b c477 eb3a
00000040: 4baa 8aba 0b5c 86ba b44b 7bba 849c dfba
00000050: 6330 e0ba 880c 973a f0d7 ee3a 56d9 c5ba
00000060: e84f 2a3a 7898 95bb 7e60 91ba 6088 7638
00000070: 856f a2bb 1639 4aba 5e9a c33a 3fe3 ddb9
00000080: 6982 f73a 3c19 a139 a16d f73a c1c7 ff3a
00000090: b683 98ba 2767 ccba 971b d93a e961 9ebb
000000a0: 1d22 a9ba 45f7 613a 7e41 333a 1f95 83ba
000000b0: 0b67 0c39 1486 4eba 58b1 9fb8 380f 99ba
000000c0: 64c5 8fb8 4cff b63a 0685 8c39 f2e0 f03a
000000d0: 1501 3fba 93a6 2e3a 6367 853b 4ef8 fcb9
000000e0: 35e1 93ba 0c21 573a e689 a9ba fee3 91b9
000000f0: 23d9 aa3a a056 ad3a a475 0bb9 bb89 0d3b
00000100: 7ff8 a5ba 2df8 113a e6ba 8cba 2510 82ba
00000110: dd91 5bba 8882 9cba df0e 373b b41f e33a
00000120: 1fb6 a4ba 1f2c 26ba a9d8 9cba 977f ff3a
00000130: 25c2 b03a f4e4 61bb a056 28ba 8e04 0ebb
00000140: 11dc 8bba 3a42 d43a 4048 a2ba 02d0 103b
00000150: 2967 6e3b 101e 39ba 5572 253b 20e7 92ba
00000160: 4e6d 063b ed84 86ba 6bdb 99ba 45cc 61ba
00000170: 64a8 9e3b 166e 653b c66c 87ba 88d2 f63a
00000180: 513b a6ba ef77 783a 2c5f c73a 154c 683a
00000190: 686e 7d3a e356 1fba ebba 86ba 4e84 ab3a
000001a0: c4dd 4b3b bfeb a43b ddfd 9bba 1841 de3a
000001b0: abf5 46ba 9d42 7db9 58af 88bb 4b71 beb9
000001c0: c200 523a 5753 073b f80d 823a 9ca2 88bb
000001d0: 31ac 44ba 47ff 03ba b8f2 17ba bf2e a33a
000001e0: ef31 dc3a 18ba 183b 485c 853a 07e1 6f3a
000001f0: 503b b13a b12a 33ba 034f e0b9 1a14 a5ba

network_body._body_endoder.seq_layers.2.weight f4 [128, 128]
0.0556973 0.04204677 0.14776431 -0.06483118 -0.013823314 -0.03114787 -0.2510653 0.07674699
0.06586158 0.03030589 -0.2453466 0.012023226 -0.033805672 0.05419351 0.0003259923 -0.044995986
-0.10217341 -0.06853077 -0.041554864 0.07652194 -0.08436391 -0.048026156 0.016644737 0.042741574
0.13686669 -0.15145768 0.04633899 -0.05284472 -0.086669035 0.073028475 -0.07132275 0.13430391
-0.09064051 0.051347326 -0.0028879142 0.15564477 -0.01673833 -0.0278098 0.12699522 -0.03798846
0.074067436 -0.080576845 -0.07796629 0.13399564 -0.059199713 -0.08174899 0.094580285 0.07692831
-0.11038063 0.15744898 0.033135712 -0.016465105 -0.030873792 0.008640886 0.15620367 0.1707619
0.10100764 -0.05277676 0.0062239845 0.02530912 0.0040479177 0.073954575 0.0063561983 0.020689104
-0.04479382 0.010910889 -0.04580675 -0.04380215 -0.002164645 0.04110182 0.081652746 -0.12064816
0.054464594 0.07408636 0.07891321 -0.030756447 0.16932245 0.22805788 -0.046713423 -0.14589305
-0.033399 0.014528624 -0.024243146 -0.16366051 0.034142677 -0.22153875 -0.02918007 -0.07896789
0.01379658 -0.06360168 -0.09849043 0.14036918 0.12707809 -0.15727599 -0.119315095 0.13354619
0.18775938 -0.024460558 0.078271426 0.012401792 -0.011182454 -0.0031322609 0.037919525 -0.035482716
0.0049410523 0.075947635 -0.037906528 0.021293022 0.01789309 -0.14275081 0.099663794 0.019270293
0.10235006 0.08824734 -0.09951857 -0.05434038 0.0631341 -0.011780322 0.00874313 0.06163943
-0.012732236 -0.06161977 0.08741659 0.05378955 0.20339845 -0.0047888253 0.18521498 -0.10375028
0.13801776 -0.19381648 0.08870418 -0.12910149 -0.07616201 0.05632534 0.049671076 0.114174865
0.096461214 0.017818142 0.0077157393 0.056448113 0.062864296 0.07470731 0.03032968 -0.089474216
0.057342306 -0.027147532 -0.07415467 0.018856864 -0.19780613 -0.04812876 -0.13817078 -0.053432923
0.10039516 -0.027487969 -0.17518976 0.072086416 0.027854098 -0.08594096 0.06706242 0.021861158
0.0909463 -0.19563867 -0.028781021 -0.04040193 0.09863682 -0.14623562 0.013851134 0.032016963
-0.052012183 -0.013740707 0.038240317 -0.065932505 -0.083455555 0.13916957 -0.100950986 -0.07400237
-0.025549622 -0.032110255 0.00901943 -0.033461478 0.06799089 0.14793134 -0.15003517 0.015858106
-0.038752522 0.027934512 -0.15329531 0.04259941 -0.049311485 0.25522986 0.013778545 -0.05425893
-0.030194221 0.0957853 -0.0969382 -0.06693063 0.16662526 -0.02636677 -0.035918977 0.12292025
-0.09369743 -0.18823077 0.08031875 -0.014890114 0.12127104 -0.06522849 0.030694282 0.010218192
-0.12346963 -0.048774008 0.1459123 0.026664166 -0.0071066557 -0.13912216 -0.01706733 0.0913912
-0.034362197 -0.049246825 -0.04586661 -0.19331785 0.05493008 -0.026814064 0.017438386 0.1684617
-0.21691975 0.0782083 0.10727369 -0.17288937 -0.01734777 0.16494834 0.05707817 0.058040224
0.0054142782 -0.0937907 -0.04271444 0.030777557 -0.0024085552 -0.05492817 -0.056401704 -0.0073368163
-0.15819806 0.036055394 -0.07268291 -0.06327917 0.07661112 0.06299719 0.061849993 0.10268249
0.15349604 0.016281575 0.17052321 -0.019695565 -0.014266947 -0.061462905 -0.0610926 -0.012600357
00000000: da22 643d 3c39 2c3d 874f 173e 36c6 84bd
00000010: 2e7b 62bc d129 ffbc a28b 80be 872d 9d3d
00000020: 70e2 863d 0f44 f83c 243c 7bbe 11fd 443c
00000030: d177 0abd 04fa 5d3d f2e9 aa39 b64d 38bd
00000040: 4b40 d1bd dc59 8cbd 6f35 2abd 89b7 9c3d
00000050: fcc6 acbd 13b7 44bd 8b5a 883c ca11 2f3d
00000060: c826 0c3e b917 1bbe f4cd 3d3d b573 58bd
00000070: 897f b1bd f48f 953d a911 92bd f786 093e
00000080: bba1 b9bd 9351 523d 2943 3dbb 5861 1f3e
00000090: d21e 89bc 61d1 e3bc 090b 023e ca99 1bbd
000000a0: abb0 973d 7905 a5bd caac 9fbd 2736 093e
000000b0: 667b 72bd 046c a7bd 4fb3 c13d 978c 9d3d
000000c0: 3d0f e2bd 4e3a 213e 50b9 073d d4e1 86bc
000000d0: 09eb fcbc 8192 0d3c dbf3 1f3e 35dc 2e3e
000000e0: 18dd ce3d 722c 58bd 91f2 cb3b 1255 cf3c
000000f0: 65a4 843b 7f75 973d a847 d03b 327c a93c
00000100: b979 37bd 96c3 323c dc9f 3bbd e269 33bd
00000110: b7dc 0dbb 625a 283d 8e39 a73d 6216 f7bd
00000120: 4416 5f3d 97ba 973d 409d a13d f2f4 fbbc
00000130: dd62 2d3e 0188 693e 9356 3fbd fd64 15be
00000140: 64cd 08bd 7709 6e3c 9099 c6bc 9f96 27be
00000150: 31d9 0b3d 0edb 62be 0b0b efbc ebb9 a1bd
00000160: 0d0b 623c 9941 82bd 5ab5 c9bd f0bc 0f3e
00000170: c220 023e f50c 21be 795b f4bd 55c0 083e
00000180: ff43 403e 8261 c8bc c54c a03d e330 4b3c
00000190: 9d36 37bc 9e46 4dbb 8151 1b3d 5356 11bd
000001a0: 8de8 a13b 6f8a 9b3d e043 1bbd b46e ae3c
000001b0: 8894 923c 452d 12be 881c cc3d bcdc 9d3c
000001c0: e99c d13d 05bb b43d 64d0 cbbd 0594 5ebd
000001d0: 734c 813d 4002 41bc 583f 0f3c a079 7c3d
000001e0: de9a 50bc 0365 7cbd 7807 b33d 6e52 5c3d
000001f0: af47 503e 94eb 9cbb ffa8 3d3e 077b d4bd
00000200: 8754 0d3e d477 46be 8aaa b53d 2e33 04be
00000210: d4fa 9bbd 66b5 663d e673 4b3d 83d4 e93d
00000220: 758d c53d 5af7 913c 50d4 fc3b 2336 673d
00000230: ffbe 803d 2500 993d f375 f83c 423e b7bd
00000240: c4df 6a3d 8064 debc 67de 97bd b679 9a3c
00000250: b18d 4abe aa22 45bd a47c 0dbe 7bdc 5abd
00000260: fa9b cd3d 732e e1bc f264 33be 0ba2 933d
00000270: 472e e43c d001 b0bd 0658 893d 2c16 b33c
00000280: 0e42 ba3d 8155 48be 2dc6 ebbc 7f7c 25bd
00000290: 1a02 ca3d cabe 15be deef 623c 3824 033d
000002a0: ba0a 55bd b420 61bc e1a1 1c3d 9f07 87bd
000002b0: bfea aabd 7882 0e3e 64bf cebd 8e8e 97bd
000002c0: 714d d1bc 0b86 03bd 3bc6 133c e70e 09bd
000002d0: cf3e 8b3d 507b 173e d2a2 19be dce8 813c
000002e0: f7ba 1ebd ebd6 e43c 72f9 1cbe b87c 2e3d
000002f0: d7fa 49bd 7dad 823e 68bf 613c 9d3e 5ebd
00000300: df59 f7bc 152b c43d 8987 c6bd ed12 89bd
00000310: d09f 2a3e 20ff d7bc c71f 13bd 9dbd fb3d
00000320: 70e4 bfbd 91bf 40be 287e a43d aaf5 73bc
00000330: f35c f83d 8496 85bd 9372 fb3c 346a 273c
00000340: a5dd fcbd 41c7 47bd 096a 153e cf6e da3c
00000350: f3de e8bb 0a76 0ebe c9d0 8bbc 4f2b bb3d
00000360: 60bf 0cbd 0ab7 49bd a0de 3bbd 1df5 45be
00000370: 5dfe 603d 2ba9 dbbc f2da 8e3c 3981 2c3e
00000380: 3620 5ebe ac2b a03d 4fb2 db3d e909 31be
00000390: e91c 8ebc 38e8 283e cdca 693d 96bb 6d3d
000003a0: 426a b13b 5715 c0bd 56f5 2ebd 3721 fc3c
000003b0: dad8 1dbb 5cfc 60bd 7905 67bd ad69 f0bb
000003c0: acfe 21be d2ae 133d c7da 94bd 8298 81bd
000003d0: 4ae6 9c3d ac04 813d 6b56 7d3d 334b d23d
000003e0: 112e 1d3e f060 853c a39d 2e3e 9858 a1bc
000003f0: eabf 69bc 87c0 7bbd 3c3c 7abd ba71 4ebc
