results/ppo/NPCAgent.onnx (onnx, 71591 bytes, 6 tensors)

action_model._discrete_distribution.branches.0.bias f4 [2]
0	0x3d0cf059	0.0344089
1	0xbd0cf05a	-0.034408905

action_model._discrete_distribution.branches.0.weight f4 [2, 128]
0	0x3d4670d4	0.048447445
1	0x3d0740a6	0.033020638
2	0x3d678596	0.05652388
3	0xbd516117	-0.051117983
4	0xbd1e88f5	-0.03870483
5	0x3d3b9fe1	0.04580677
6	0x3d74c317	0.059756365
7	0x3d672b03	0.056437504
8	0x3d42790b	0.047478717
9	0xbd74133c	-0.059588656
10	0x3d4bee7e	0.04978799
11	0x3d367d15	0.04455288
12	0x3d42bba2	0.04754222
13	0x3d0dfc49	0.034664426
14	0xbd02f307	-0.03197005
15	0xbd812821	-0.06306482
16	0xbcd19d92	-0.02558783
17	0x3d1a1e94	0.037626818
18	0x3d7cf708	0.061759025
19	0x3d21f725	0.039542336
20	0x3d2e8781	0.042609695
21	0x3d1792ae	0.03700512
22	0xbd70162d	-0.0586149
23	0x3d3aa8a6	0.045570992
24	0x3d6b16b1	0.057394687
25	0x3d5cd000	0.0539093
26	0xbd5fd7fc	-0.054649338
27	0x3d02e0a5	0.03195252
28	0x3cde9db1	0.027174802
29	0x3d81f212	0.063449994
30	0x3d4fcbb2	0.05073137
31	0x3d552452	0.05203659
32	0x3d53af03	0.051680576
33	0x3d4d2516	0.050084196
34	0x3d18a942	0.03727079
35	0x3d2840f8	0.041077584
36	0x3cffd38d	0.031228805
37	0xbd16ad39	-0.03678629
38	0x3d5ee23b	0.05441497
39	0x3d33bcf9	0.04388139
40	0x3d3576da	0.0443028
41	0x3d86b92a	0.06578286
42	0xbd5dfc9d	-0.05419599
43	0xbd38ba2c	-0.045099422
44	0x3d1c0906	0.038094543
45	0xbd49c042	-0.049255617
46	0x3d382ceb	0.044964712
47	0x3d53a322	0.051669247
48	0xbd2fe511	-0.042943064
49	0x3d055c76	0.03255888
50	0xbd5653f9	-0.052326176
51	0x3d5a2fad	0.053268123
52	0xbd07a671	-0.033117715
53	0x3d51fdfd	0.051267613
54	0xbd430e4b	-0.047621053
55	0x3d1fce75	0.039015252
56	0x3d220cb3	0.039562892
57	0x3d567cec	0.05236523
58	0xbd6fbd60	-0.05853021
59	0x3d71f879	0.059074853
60	0xbd592855	-0.05301698
61	0x3d1fc46f	0.039005693
62	0xbd41ee03	-0.047346126
63	0x3d037d4c	0.032101914
64	0x3d141fe5	0.03616323
65	0x3d0f0616	0.034917913
66	0x3cfd814a	0.030945439
67	0x3d57b503	0.05266286
68	0xbd4c5f42	-0.049895532
69	0x3d3a5dfe	0.045499794
70	0x3d47826b	0.04870836
71	0x3d2b41d0	0.04181081
72	0x3d03b401	0.032154087
73	0x3d09809e	0.033569925
74	0xbcfc4017	-0.03079228
75	0x3d38771d	0.04503547
76	0xbd3a8535	-0.045537192
77	0x3d364e37	0.044508185
78	0x3d3135cb	0.04326419
79	0xbd1e87a5	-0.03870358
80	0x3d2ef974	0.042718366
81	0x3d22f84a	0.03978757
82	0xbd0c719f	-0.034288045
83	0xbd19edf4	-0.037580445
84	0x3d49b594	0.049245432
85	0x3d5eda0a	0.054407157
86	0x3d4cacea	0.04996959
87	0xbd3c3ecf	-0.045958336
88	0xbd0db433	-0.03459568
89	0x3d2264dd	0.039646972
90	0x3d209bac	0.03921096
91	0xbd448df8	-0.047986954
92	0xbd0995a7	-0.033589985
93	0x3d27ad02	0.040936477
94	0xbd4051ad	-0.046952892
95	0xbd6bb9d6	-0.057550274
96	0x3d014e12	0.031568594
97	0xbcbb3a5b	-0.022854974
98	0x3d33060c	0.04370694
99	0x3d3461e6	0.044038676
100	0x3d1f6fdc	0.038925037
101	0xbd35df68	-0.04440251
102	0xbd2ce840	-0.04221368
103	0x3d0caf0c	0.034346625
104	0xbd19f38b	-0.037585776
105	0x3d5e9d4a	0.05434922
106	0x3d3432bf	0.043993708
107	0x3cc29c9c	0.023756318
108	0x3d38779d	0.045035947
109	0xbd35a20b	-0.04434399
110	0x3d63cff4	0.05561824
111	0xbd451284	-0.04811336
112	0x3d576c0d	0.05259328
113	0xbd4bd62a	-0.04976479
114	0x3d44c193	0.04803617
115	0x3d46c0db	0.048523765
116	0x3cfc3600	0.030787468
117	0xbd121046	-0.03566005
118	0xbcf83551	-0.03029886
119	0x3d40ac94	0.047039583
120	0xbd081cc6	-0.033230565
121	0xbd02be6a	-0.031919874
122	0x3cf495d2	0.029856596
123	0xbd3cdff3	-0.046112012
124	0x3d31ee0d	0.043439914
125	0x3d235be2	0.03988255
126	0xbd0cb19e	-0.034349076
127	0x3d32a03f	0.043609854
128	0xbd251524	-0.040303364
129	0xbd2c3ae6	-0.042048357
130	0xbd7bab09	-0.06144241
131	0x3d3c5f0d	0.045989085
132	0x3d1256f2	0.03572745
133	0xbd1ea65f	-0.038732883
134	0xbd006b17	-0.03135213
135	0xbd5ddc2b	-0.054165047
136	0xbd314c1e	-0.04328548
137	0x3d0876b8	0.033316344
138	0xbd329362	-0.043597586
139	0xbd5db9eb	-0.054132383
140	0xbd3ea431	-0.046543304
141	0xbd3a43fe	-0.045475
142	0x3d352381	0.044223312
143	0x3d114cff	0.03547382
144	0x3d46f572	0.04857392
145	0xbd49cdd6	-0.049268566
146	0xbd418a3f	-0.047250982
147	0xbd51329e	-0.051073663
148	0xbd42d131	-0.04756278
149	0xbccc4ded	-0.024939502
150	0x3d36fbbf	0.044673678
151	0xbcf9492e	-0.030430403
152	0xbd187d3c	-0.037228808
153	0xbd336311	-0.04379565
154	0x3d2dac92	0.042400904
155	0xbd4bafcd	-0.049728204
156	0xbd66d3eb	-0.056354444
157	0xbd0f20c0	-0.034943342
158	0xbd4a645f	-0.049412128
159	0xbd268bcf	-0.040660676
160	0xbd32f4e7	-0.04369059
161	0xbd14e907	-0.036355045
162	0xbd43f5ac	-0.047841713
163	0xbd209b85	-0.039210815
164	0xbcf0cac5	-0.029393563
165	0x3d48312c	0.04887502
166	0xbd0a1216	-0.033708654
167	0xbd3d4f54	-0.04621823
168	0xbd2bf1b3	-0.04197855
169	0xbd3b9183	-0.045793068
170	0x3d826724	0.06367329
171	0x3d362dc3	0.044477236
172	0xbd23a268	-0.039949805
173	0x3d27821d	0.04089557
174	0xbd3372c9	-0.04381064
175	0xbd501184	-0.050797954
176	0x3d273fca	0.04083232
177	0xbd81b3ed	-0.06333146
178	0x3d26ce0e	0.040723853
179	0xbd33b89e	-0.043877237
180	0x3cd46828	0.025928572
181	0xbd64b4d0	-0.0558365
182	0x3d1d4bd6	0.0384024
183	0xbd64a84e	-0.05582457
184	0xbca34cab	-0.01993402
185	0xbd088974	-0.03333421
186	0x3d19f5aa	0.0375878
187	0xbd1004e1	-0.035160903
188	0x3d2c66ae	0.04209011
189	0xbd608532	-0.054814525
190	0x3d4c2f00	0.04984951
191	0xbd1c0a39	-0.038095687
192	0xbcf76950	-0.030201584
193	0xbd2a7a5f	-0.04162061
194	0xbd5f5322	-0.05452264
195	0xbd26283e	-0.04056572
196	0x3d52aa09	0.05143169
197	0xbd47473b	-0.048651915
198	0xbd29e3c8	-0.041476995
199	0xbcfd618e	-0.030930307
200	0xbd2656f5	-0.040610272
201	0xbd394882	-0.045235164
202	0x3cb7b115	0.022423306
203	0xbd60d6a0	-0.054892182
204	0x3d523208	0.051317245
205	0xbd7a2836	-0.061073504
206	0xbd866d3b	-0.06563803
207	0x3d27c703	0.040961277
208	0xbd08ebf3	-0.033428144
209	0xbd23fad1	-0.04003412
210	0x3d0a08bd	0.03369974
211	0x3d5dbae2	0.054133303
212	0xbd5986b2	-0.05310697
213	0xbd78d1f5	-0.060747106
214	0xbd4ed3f2	-0.050495096
215	0x3d171595	0.036885817
216	0x3cb4e3ec	0.022081338
217	0xbd19a774	-0.03751321
218	0xbc8f4b0e	-0.017491844
219	0x3d3fbcfa	0.04681108
220	0x3d2655d2	0.04060919
221	0xbd2915d1	-0.04128057
222	0x3d650d04	0.055920616
223	0x3c911d3f	0.017714141
224	0xbd280fb8	-0.041030616
225	0x3d3c8311	0.046023432
226	0xbd306a77	-0.043070283
227	0xbd3fba2d	-0.04680841
228	0xbd177090	-0.036972582
229	0x3d1cd3d0	0.038287938
230	0x3d43d447	0.047809865
231	0xbd5d0940	-0.0539639
232	0x3d357ffa	0.0443115
233	0xbd4bb4fc	-0.049733147
234	0xbd43a125	-0.0477611
235	0xbd12ef51	-0.03587276
236	0xbd45eaff	-0.048319813
237	0x3d3cd9c4	0.046106115
238	0xbd3f8a50	-0.046762764
239	0x3d28f936	0.04125329
240	0xbd48544e	-0.048908524
241	0x3d1ce1ee	0.0383014
242	0xbd39ff6e	-0.045409612
243	0xbd560188	-0.052247554
244	0xbd53e7f7	-0.05173489
245	0x3d4f45ba	0.050603606
246	0x3cc0801c	0.023498587
247	0xbd29581a	-0.041343786
248	0x3d3d2af9	0.04618356
249	0x3d52ed59	0.051495884
250	0xbd0b68cd	-0.034035493
251	0x3d3c0455	0.04590257
252	0xbce2ea03	-0.027699476
253	0xbd1e073f	-0.03858113
254	0x3d4c0158	0.04980597
255	0xbd185e76	-0.03719946

network_body._body_endoder.seq_layers.0.bias f4 [128]
0	0x3d259b20	0.04043114
1	0x3d2cd8bd	0.042198885
2	0xbce297bc	-0.027660243
3	0xbca72d6e	-0.020407405
4	0xbc32e4b4	-0.010918785
5	0x3d3b5e12	0.04574401
6	0xbd303a35	-0.04302426
7	0x3d18f4df	0.037342902
8	0x3c15a8f7	0.009134523
9	0xbcf932d7	-0.03041975
10	0x3cb83d44	0.022490151
11	0x3d0a2794	0.03372915
12	0x3d0fa891	0.035072867
13	0x3cd2fd7b	0.025755635
14	0x3d31d3a9	0.043414745
15	0x3d5b4037	0.053528037
16	0xbd1347ca	-0.035957135
17	0xbd15bc88	-0.03655675
18	0xbd2929f3	-0.04129977
19	0x3d31c8fe	0.04340457
20	0x3d29ade5	0.041425604
21	0x3cddac38	0.02705966
22	0x3d3922c1	0.04519916
23	0x3d54d88e	0.051964335
24	0x3d0bfce8	0.034176737
25	0x3c95cf72	0.018287394
26	0x3d2d6deb	0.042341154
27	0xbd1ee26f	-0.038790163
28	0xbd4f3fb6	-0.05059787
29	0x3cf693f9	0.030099856
30	0x3d4bf2f9	0.049792264
31	0xbd50d4f3	-0.050984334
32	0x3d1a6d2e	0.037701778
33	0xbd48d02b	-0.04902665
34	0xbd0e3f9e	-0.03472864
35	0x3cd608c1	0.026127221
36	0xbd26014f	-0.04052859
37	0xbd1fbc4e	-0.03899794
38	0x3c8d346d	0.017236913
39	0x3d340b90	0.04395634
40	0x3d232d8b	0.039838355
41	0x3cfda659	0.03096311
42	0x3d1afffe	0.03784179
43	0x3cc11337	0.023568733
44	0xbd217a4e	-0.03942328
45	0xbd0147a1	-0.03156245
46	0xbd1e4e3b	-0.038648825
47	0x3d2e1b3e	0.04250645
48	0xbd47eedb	-0.048811775
49	0xbd3180c1	-0.04333568
50	0x3c851292	0.016244207
51	0x3d3a72d3	0.04551966
52	0xbaa08cf9	-0.0012249044
53	0x3cce78ca	0.025204081
54	0xbcafe7c4	-0.02147282
55	0xbbf82e71	-0.0075738956
56	0xbd1c727c	-0.03819512
57	0xbd2a64b8	-0.04159996
58	0x3d1cc471	0.03827328
59	0x3d15e245	0.03659274
60	0xbd34ae27	-0.044111397
61	0xbd16f147	-0.036851194
62	0xbd04d23a	-0.03242705
63	0xbcf3e5b0	-0.02977261
64	0x3cb0c656	0.021578949
65	0xbd144901	-0.036202434
66	0x3d27e0c2	0.04098583
67	0xbabdcb99	-0.0014480232
68	0xbbe294cc	-0.0069147106
69	0xbd23abfb	-0.039958935
70	0x3d3a3ab7	0.04546615
71	0x3d345f0a	0.04403595
72	0x3d305943	0.043053877
73	0x3d0ea65a	0.034826614
74	0x3cec944b	0.028879305
75	0xbd4526cc	-0.048132703
76	0x3d292048	0.04129055
77	0x3d399909	0.04531196
78	0x3d239afd	0.03994273
79	0xbd43bb39	-0.04778597
80	0x3d45e248	0.0483115
81	0x3d3dfb3d	0.046382178
82	0xbd5720b8	-0.052521437
83	0xbd1c4e54	-0.038160637
84	0xbd4c6860	-0.049904227
85	0xbd29b84c	-0.041435525
86	0xbc0e80a2	-0.008697661
87	0xbccba4d6	-0.024858873
88	0x3d20eeec	0.039290354
89	0x3d39adf0	0.045331895
90	0x3d44318b	0.04789881
91	0xbcf97420	-0.03045088
92	0xbd2a8488	-0.041630298
93	0x3d2b8c2e	0.041881733
94	0xbc6ff2b8	-0.014645271
95	0x3d065ec1	0.032805208
96	0x3c85dd4c	0.016340874
97	0x3cff060c	0.031130813
98	0x3caa1ccf	0.02076569
99	0xbd23d1d6	-0.039995037
100	0xbd123bc4	-0.03570153
101	0xbd254626	-0.040350102
102	0x3d2ae3d6	0.041721188
103	0xbd30c4bc	-0.04315637
104	0xbcec76fb	-0.028865328
105	0xbd3a717e	-0.04551839
106	0xbd09809d	-0.03356992
107	0xbcb8fee2	-0.022582475
108	0x3d0630ad	0.032761265
109	0x3d34c21a	0.044130422
110	0xbc2a2cde	-0.010386674
111	0x3d3ac9d2	0.045602627
112	0x3d638b04	0.055552498
113	0xbd3e9918	-0.04653272
114	0x3d320731	0.04346389
115	0x3d284de0	0.041089892
116	0xbd19a780	-0.037513256
117	0x3d27ab52	0.04093487
118	0x3d611c26	0.054958485
119	0xbd1caee1	-0.038252715
120	0xbc9c1849	-0.019054549
121	0xbbaf6f51	-0.005353846
122	0xbd1c0f29	-0.038100395
123	0xbd1832a7	-0.03715768
124	0xbd44d278	-0.04805228
125	0x3d2f9074	0.04286237
126	0xbd076c6b	-0.03306238
127	0xbd2b1347	-0.04176643

network_body._body_endoder.seq_layers.0.weight f4 [128, 4]
0	0xbf390923	-0.72279567
1	0x3e1749d8	0.14774263
2	0xbdeef068	-0.116669476
3	0xbcca8e3f	-0.024726031
4	0xbf3d6397	-0.7398009
5	0x3f040789	0.51574
6	0xbe757401	-0.23970033
7	0x3f05940a	0.52179015
8	0xbea7e9f4	-0.3279568
9	0xbf15f0bb	-0.5857045
10	0x3e21d0d6	0.15802321
11	0x3df8ba4a	0.12144907
12	0x3d3833d5	0.044971306
13	0x3e8cac9f	0.2747545
14	0x3f9df56c	1.2340522
15	0x3f9a1168	1.2036562
16	0x3f271e2a	0.652804
17	0x3eb8c20f	0.36085555
18	0x3ee8c4b3	0.4546257
19	0x3edb72b3	0.42860946
20	0x3d8e8052	0.06958069
21	0x3f1c08ca	0.6095091
22	0xbef36dd9	-0.47544745
23	0xbe0756c8	-0.13216698
24	0xbe4f1938	-0.20224464
25	0xbf0ed1ec	-0.55789065
26	0x3e7bdda8	0.24596274
27	0x3dbbd92d	0.09172282
28	0xbf6c038d	-0.9219292
29	0x3f4085af	0.75203985
30	0x3f2abcff	0.66694635
31	0x3f386869	0.7203432
32	0xbf4d68b5	-0.80237895
33	0xbead83ee	-0.33889717
34	0x3d961d99	0.07329864
35	0xbed6e90a	-0.4197467
36	0xbe9dc670	-0.30815458
37	0xbf081035	-0.5314973
38	0x3f1999c1	0.60000235
39	0xbebdc08e	-0.3706097
40	0x3df5ce31	0.120022185
41	0x3f0f1b16	0.55900705
42	0xbca2dfef	-0.01988217
43	0x3f271bd5	0.65276843
44	0x3eec2fa8	0.4613011
45	0x3ece4d01	0.40293124
46	0xbec36929	-0.38166168
47	0x3f651708	0.8948827
48	0xbf255878	-0.6458812
49	0xbe96e29e	-0.2946977
50	0x3dc2d24b	0.095127665
51	0x3f1eb936	0.6200136
52	0xbf177e8c	-0.5917747
53	0xbe53e469	-0.206926
54	0xbf54d7a2	-0.8314153
55	0x3d2b23d4	0.041782215
56	0x3e1421e7	0.14466058
57	0x3f0a89ec	0.541167
58	0xbf21757d	-0.630699
59	0xbfb5713d	-1.4175183
60	0xbf05448e	-0.5205773
61	0xbe83fd60	-0.25779247
62	0xbdf213bd	-0.11820171
63	0xbf8db5ac	-1.1071067
64	0xbd904860	-0.070450544
65	0xbea8f699	-0.3300064
66	0x3f14f766	0.5819
67	0x3f23b561	0.6394864
68	0x3d75970d	0.059958506
69	0xbe048472	-0.12941149
70	0x3dc9779d	0.098372675
71	0x3e8e2a14	0.27766478
72	0x3f70f961	0.9413052
73	0x3f10efdb	0.5661599
74	0xbd257b73	-0.040400933
75	0x3e2eb4ec	0.17061204
76	0xbed7eda3	-0.4217349
77	0x3f0d7533	0.55256957
78	0xbe805f80	-0.2507286
79	0x3e05085b	0.12991469
80	0x3e81420e	0.25245708
81	0xbf17e0e0	-0.59327507
82	0xbf896ab3	-1.0735687
83	0x3e84fb83	0.25973138
84	0xbebd801f	-0.3701181
85	0x3d30e6b8	0.04318878
86	0x3de0534b	0.10953387
87	0xbe733d2e	-0.23753807
88	0x3d1c9d24	0.0382358
89	0xbd9973dc	-0.074928015
90	0xbe9fac89	-0.3118632
91	0xbdfef11b	-0.12448331
92	0x3f0eec9d	0.55829793
93	0x3f618cbe	0.8810538
94	0xbd8247f3	-0.063613795
95	0xbed9a449	-0.42508152
96	0xbf3f8846	-0.7481731
97	0xbe35b16f	-0.17743467
98	0xbebd97ed	-0.37029973
99	0xbd8d9425	-0.06913022
100	0xbea2e5b6	-0.3181588
101	0x3f339c01	0.7015992
102	0x3f024f2f	0.50902075
103	0x3f51108e	0.81665885
104	0xbf809f70	-1.0048656
105	0x3f9b3360	1.2125053
106	0xbe65e3ff	-0.22450255
107	0xbf70018f	-0.9375238
108	0xbefb5da6	-0.49094886
109	0xbf796a18	-0.9742751
110	0x3f3dfa76	0.742103
111	0xbedc1f72	-0.4299274
112	0x3eb07280	0.34462357
113	0xbea17153	-0.31531772
114	0x3f23d8c7	0.6400265
115	0xbf4a701c	-0.79077315
116	0xbe925f6c	-0.28588426
117	0xbe6c42d5	-0.2307237
118	0xbea2a242	-0.31764418
119	0x3d9a5632	0.07535972
120	0xbf085d1e	-0.53267086
121	0xbf72f004	-0.94897485
122	0xbf1b18f9	-0.6058498
123	0xbfd2e2db	-1.6475481
124	0x3f09c41b	0.5381486
125	0xbf8a914a	-1.0825589
126	0x3a850bc4	0.0010150601
127	0xbf04262a	-0.51620734
128	0xbe6eaa64	-0.23307186
129	0x3faa4439	1.330207
130	0xbee9317c	-0.45545566
131	0x3d3d09cc	0.04615192
132	0xbf5b1ee9	-0.8559404
133	0xbf55d1ee	-0.8352345
134	0x3f4d66fb	0.8023526
135	0xbef53fe1	-0.47900298
136	0xbe2ff69c	-0.17183918
137	0xbe4576fe	-0.19283673
138	0x3f164b6f	0.5870885
139	0xbf10157e	-0.56282794
140	0x3e4f4ce8	0.20244181
141	0xbf3b00de	-0.730482
142	0xbfc5abf4	-1.5443101
143	0xbe332990	-0.17496324
144	0x3f0421a3	0.51613826
145	0xbed4c9fc	-0.41560352
146	0xbe35e6c5	-0.17763813
147	0x3e769d18	0.24083364
148	0x3e2f456d	0.17116328
149	0xbf272719	-0.65294033
150	0xbd02724f	-0.031847294
151	0x3f0cbe3b	0.5497777
152	0x3f03da41	0.51504904
153	0xbe8e2c49	-0.27768162
154	0xbf2578ee	-0.6463765
155	0x3ef21602	0.47282416
156	0xbdd574d3	-0.10422673
157	0x3f7926af	0.9732465
158	0xbf6d9ec6	-0.92820394
159	0xbe1dedc3	-0.1542273
160	0xbe929b6a	-0.28634197
161	0x3f53c501	0.8272248
162	0xbf6fdd38	-0.9369693
163	0x3fa4c267	1.2871827
164	0xbe6a7b38	-0.22898567
165	0x3f3b4daf	0.7316541
166	0xbf1213bd	-0.5706137
167	0x3f29cf23	0.6633169
168	0xbf401b52	-0.7504169
169	0x3f430575	0.761802
170	0x3e9ad261	0.3023863
171	0xbf41b0c1	-0.7566033
172	0xbd880f39	-0.066435285
173	0x3e0f5702	0.13998035
174	0xbe003ef1	-0.1252401
175	0xbf3eddcd	-0.7455719
176	0x3ea9fec2	0.33202177
177	0xbec723f1	-0.3889461
178	0xbea784cd	-0.32718506
179	0x3f24e606	0.6441349
180	0x3f350003	0.7070314
181	0x3f1e2373	0.6177284
182	0x3f833308	1.0249949
183	0x3f136768	0.5757966
184	0x3e6f20c8	0.23352349
185	0x3f254690	0.64560795
186	0x3f17be8b	0.5927512
187	0xbdfd4cc0	-0.123681545
188	0x3f01c68a	0.5069357
189	0xbede630f	-0.4343495
190	0xbf6caf45	-0.9245494
191	0xbf2523e9	-0.6450792
192	0xbdcaeb76	-0.09908192
193	0x3d6eacc3	0.058270227
194	0x3f0c1dba	0.5473286
195	0xbf194b21	-0.5988026
196	0x3f3001ed	0.6875294
197	0x3f1026c1	0.56309134
198	0x3e8861a6	0.26637
199	0x3d306a64	0.043070212
200	0x3ef7e9fb	0.484207
201	0x3eec5baa	0.46163684
202	0xbef2f249	-0.47450474
203	0xbeeae489	-0.45877483
204	0x3d25d177	0.040482964
205	0xbe6db909	-0.23215117
206	0xbec890f9	-0.39173105
207	0xbed6ef7e	-0.41979593
208	0x3f44e671	0.76914126
209	0xbeb730c3	-0.3577939
210	0x3ef2b9f7	0.47407505
211	0x3f8c197e	1.094528
212	0xbf14e552	-0.58162415
213	0xbe2114e7	-0.1573063
214	0xbeb0416a	-0.34424907
215	0xbeeed805	-0.46649185
216	0x3f82a674	1.0207047
217	0x3e08bf39	0.13354196
218	0xbec42196	-0.38306874
219	0x3edef716	0.43547887
220	0x3de94dc4	0.11391786
221	0x3f1074c9	0.564282
222	0x3e8729ab	0.26398978
223	0xbf2e3906	-0.6805576
224	0x3f947e3f	1.1601027
225	0x3ec106cf	0.37700507
226	0x3eb97fe2	0.3623038
227	0x3ea91c3b	0.3302935
228	0x3f816288	1.0108194
229	0x3e1d5fb6	0.15368542
230	0x3f2bfb7e	0.6718062
231	0xbe3f9abc	-0.1871137
232	0x3d467ab3	0.04845686
233	0x3ef40088	0.47656655
234	0xbecd2a13	-0.40071163
235	0x3f36ee72	0.7145759
236	0xbeb435c9	-0.35197285
237	0x3e07e1f9	0.13269795
238	0xbf2d3024	-0.6765158
239	0x3c45193a	0.01202994
240	0x3ed925dd	0.424117
241	0xbeeaac43	-0.4583455
242	0x3e9fc744	0.31206715
243	0xbd8cee61	-0.06881405
244	0x3f1ed223	0.62039393
245	0xbd6af194	-0.057359293
246	0xbdb409d5	-0.08790938
247	0xbe5f7334	-0.2182129
248	0x3ea256c5	0.31706825
249	0x3dba3c03	0.090934776
250	0x3eb6536b	0.35610518
251	0x3f4b4324	0.79399323
252	0x3f407a47	0.7518658
253	0xbeb35217	-0.35023567
254	0x3f1c4307	0.61039776
255	0x3ec9f99b	0.39448246

network_body._body_endoder.seq_layers.2.bias f4 [128]
0	0x3d2c6842	0.042091615
1	0x3d224682	0.039618023
2	0x3d20ed1d	0.03928863
3	0xbcf6a5d7	-0.030108375
4	0xbae55f06	-0.0017499633
5	0x3d30a3b7	0.04312488
6	0x3d2b95ac	0.041890785
7	0x3d2b9594	0.041890696
8	0x3d22418e	0.0396133
9	0xbce874c5	-0.028375993
10	0x3d29c845	0.041450758
11	0x3d35ab26	0.044352673
12	0x3d2b72a5	0.04185738
13	0x3d221bb9	0.03957722
14	0xbd101f17	-0.0351859
15	0xbd1a6fab	-0.03770415
16	0xbcd89516	-0.026438277
17	0x3d2cca50	0.042185128
18	0x3d2f94e9	0.04286662
19	0x3d2e98df	0.042626258
20	0x3d2a223c	0.041536555
21	0x3cdf8428	0.027284697
22	0xbcf4e35f	-0.029893575
23	0x3cd50b49	0.026006358
24	0x3d306bf6	0.04307171
25	0x3d27fe83	0.041014206
26	0xbd001c9e	-0.03127729
27	0x3d17ee70	0.037092626
28	0x3d03d990	0.032189906
29	0x3d36819f	0.04455721
30	0x3d2ee075	0.042694528
31	0x3ced2d5e	0.028952297
32	0x3d359b4e	0.044337563
33	0x3d2b180b	0.041770976
34	0x3d109dfc	0.035306916
35	0x3d26b1ce	0.04069691
36	0x3d24b79d	0.04021417
37	0xbd1f3c28	-0.03887573
38	0x3d2e1624	0.042501584
39	0x3d1ddce2	0.03854073
40	0x3d2d4fd9	0.042312477
41	0x3d1f8f3d	0.038954962
42	0xbcbddae2	-0.02317566
43	0xbd1bd7de	-0.038047664
44	0x3d131a6f	0.03591388
45	0xbcc65cc9	-0.024214165
46	0x3d33b2c1	0.043871645
47	0x3d279e1f	0.04092228
48	0xbceaf312	-0.028680358
49	0x3d264f94	0.040603235
50	0xbc8b3a80	-0.016995668
51	0x3d326807	0.04355624
52	0xbcacdfcf	-0.021102814
53	0x3d31df1c	0.043425664
54	0xbcf587c4	-0.029971965
55	0x3d31513a	0.043290354
56	0x3cb38ef2	0.021918748
57	0x3d2bb485	0.041920204
58	0xbc6ad09f	-0.014331966
59	0x3d3010c4	0.04298474
60	0xbd0ca971	-0.03434128
61	0x3d3770c8	0.04478529
62	0xbc16e728	-0.009210385
63	0x3cd0824e	0.02545276
64	0x3cbfe774	0.023425795
65	0x3d21a981	0.039468292
66	0x3d2ac59f	0.041692372
67	0x3d2ae4cd	0.041722108
68	0xbc869f5a	-0.016433407
69	0x3d29af2e	0.04142683
70	0x3d3e9faa	0.046538986
71	0x3cdd56ca	0.027018923
72	0x3ccc2d63	0.024923986
73	0x3d210bac	0.03931777
74	0xbc9d01c5	-0.019165883
75	0x3d2d5eb3	0.04232664
76	0xbc98894f	-0.018620161
77	0x3d2fbd11	0.042904917
78	0x3d24f140	0.040269136
79	0xbcf0f962	-0.02941579
80	0x3cd72779	0.02626394
81	0x3d2749ca	0.040841855
82	0xbd00513b	-0.031327467
83	0xbc2fd1b3	-0.0107311485
84	0x3ce3aed2	0.027793322
85	0x3d2a7ae8	0.04162112
86	0x3d32ce8e	0.043654017
87	0xbcf5ac29	-0.029989319
88	0xbce97910	-0.02850011
89	0x3d09f186	0.0336776
90	0x3d1ad4bf	0.037800547
91	0xbcc663b1	-0.024217458
92	0xbd26f820	-0.040763974
93	0x3d290c84	0.0412717
94	0xbca81995	-0.020520011
95	0xbd071baf	-0.032985386
96	0x3cd2d8c3	0.025738126
97	0xbbb9a7d1	-0.005665757
98	0x3d2c240f	0.042026576
99	0x3d2c0cca	0.042004384
100	0x3cf3c89c	0.029758744
101	0xbd1386cb	-0.03601722
102	0xbce55ecc	-0.027999304
103	0x3d2b958f	0.041890677
104	0xbc2ae1d0	-0.010429814
105	0x3d3985ee	0.04529374
106	0x3d283931	0.041070167
107	0x3c8628f5	0.016376952
108	0x3d397974	0.045281842
109	0xbcda0453	-0.02661339
110	0x3d315545	0.04329421
111	0xbc8c3e08	-0.017119423
112	0x3d2d4485	0.042301673
113	0xbc50ae11	-0.012736813
114	0x3d3668fb	0.04453371
115	0x3d2d2d08	0.042279273
116	0x3d238f40	0.039931536
117	0xbd17c6b0	-0.037054718
118	0xbcf5122e	-0.029915895
119	0x3d2bb268	0.04191819
120	0xbce83359	-0.028344797
121	0xbd0743fc	-0.03302382
122	0x3cdd5f27	0.027022911
123	0xbd17e814	-0.03708656
124	0x3d02b801	0.03191376
125	0x3d05a1fd	0.032625187
126	0xbcd0d920	-0.025494158
127	0x3ce7d395	0.028299132

network_body._body_endoder.seq_layers.2.weight f4 [128, 128]
0	0x3e990f19	0.2989433
1	0x3dda6642	0.106640354
2	0x3db21aa2	0.08696486
3	0x3d646721	0.055762414
4	0xbd3d58d8	-0.046227306
5	0x3cb80ebe	0.022467967
6	0xbe44e4e1	-0.19227935
7	0x3af45b0a	0.0018642854
8	0x3cc17f5a	0.023620296
9	0xbe25854d	-0.16164131
10	0xbd2ff44f	-0.0429576
11	0x3df93d1f	0.12169861
12	0x3c6ed27e	0.014576552
13	0x3d01ec2e	0.03171938
14	0x3d8dc72d	0.069227554
15	0x3e3b974d	0.18319435
16	0xbe742b00	-0.23844528
17	0x3d92e584	0.07172683
18	0xbde9e03d	-0.11419723
19	0x3e116beb	0.14201324
20	0xbc5eee40	-0.013606608
21	0xbd83d238	-0.064365804
22	0x3d85d0e1	0.06533981
23	0xbcf5cc42	-0.030004624
24	0x3cc46549	0.023974078
25	0xbd44daf8	-0.048060387
26	0xbcd1c7fb	-0.025608053
27	0xbb13793a	-0.0022502677
28	0xbdd79871	-0.10527123
29	0x3e7ae44f	0.24501155
30	0x3e0f51fc	0.13996118
31	0xbdff740f	-0.12473308
32	0x3d72eae3	0.059306037
33	0xbd101666	-0.03517761
34	0xbe19c1ac	-0.15015286
35	0x3dd25a67	0.10271149
36	0xbe319af3	-0.17344265
37	0x3d85be76	0.06530468
38	0x3e00d98d	0.12582989
39	0x3e68d206	0.22736368
40	0x3d98fde2	0.07470299
41	0xbd32dd1a	-0.04366789
42	0x3c8db637	0.0172988
43	0x3c2a7415	0.010403653
44	0xbdabaf79	-0.08383078
45	0xbccbce24	-0.024878569
46	0xbda70539	-0.08155293
47	0xbd82f25e	-0.06393884
48	0xbe8db228	-0.27674985
49	0xbd0a9534	-0.033833697
50	0x3e1ba8d9	0.15201129
51	0x3dd74fe2	0.10513283
52	0xbdfdf6ac	-0.124005646
53	0x3e75048a	0.23927513
54	0x3c576978	0.013147704
55	0x3d8d4b5a	0.06899138
56	0xbd7416d0	-0.05959207
57	0xbdd01b68	-0.10161477
58	0xbd91636b	-0.070990406
59	0x3dd89e61	0.105770834
60	0xbc985d41	-0.018599154
61	0xbdfb235e	-0.12262605
62	0x3d070507	0.03296378
63	0xbdaa7249	-0.083225794
64	0xbbdb0316	-0.0066837175
65	0x3c258a0f	0.0101037165
66	0x3c17436f	0.009232386
67	0x3cc6e88d	0.02428081
68	0xbc5c6804	-0.013452534
69	0xbdd448fe	-0.10365485
70	0x3c00f61d	0.007871178
71	0x3bb98540	0.0056616366
72	0xbb3d7d08	-0.0028913636
73	0xbd271ea3	-0.0408007
74	0x3d333967	0.043755915
75	0xbe30dd42	-0.17271903
76	0x3e2aba74	0.16672689
77	0xbe1cd6a8	-0.1531626
78	0x3df94c9a	0.12172814
79	0x3c21bfa9	0.0098723555
80	0x3d91efb6	0.07125799
81	0x3de29ab9	0.11064667
82	0xbd12a309	-0.035800014
83	0x3cd987bf	0.026553987
84	0x3e263822	0.1623235
85	0xbe202e7b	-0.15642731
86	0xbba2bb72	-0.004966193
87	0xbe1a3d2c	-0.15062398
88	0xbdf4fffd	-0.119628884
89	0xbd7c87d6	-0.06165298
90	0x3cceea0e	0.02525809
91	0xbdac07c3	-0.08399918
92	0xbcc37057	-0.023857279
93	0xbe47adce	-0.19499895
94	0xbe222f27	-0.158383
95	0xbcf1768a	-0.02947547
96	0x3d08e542	0.033421762
97	0x3e0f23c9	0.13978495
98	0x3dbdf9c9	0.09276158
99	0xbcac8cd0	-0.021063238
100	0xbdc9a366	-0.09845619
101	0x3cd498c2	0.025951747
102	0x3cf6d948	0.030132905
103	0x3e165544	0.14680964
104	0xbe274006	-0.16333017
105	0xbcadf564	-0.021235175
106	0xbdea57cb	-0.114425264
107	0xbe459328	-0.19294417
108	0xbdbeb104	-0.09311107
109	0xbbdd639f	-0.0067562605
110	0xbd5fea15	-0.054666597
111	0xbdc85756	-0.09782283
112	0xbd7136d2	-0.05889017
113	0xbe28cdb4	-0.1648472
114	0x3ce24ff8	0.027626023
115	0x3d942afc	0.07234761
116	0xbd69f56b	-0.057118814
117	0x3e09c82f	0.1345527
118	0x3e35c813	0.17752104
119	0xbe0b5810	-0.13607812
120	0xbe731871	-0.23739792
121	0xbdb321ac	-0.08746657
122	0xbdffdcf2	-0.12493314
123	0x3e0c93a4	0.13728195
124	0x3c3cfd70	0.011535034
125	0x3e2bcbf5	0.16777022
126	0xbded972d	-0.116011
127	0xbc97270e	-0.01845124
128	0xbd5152df	-0.051104423
129	0x3da175f2	0.078838244
130	0x3ce23995	0.027615348
131	0xbdb19272	-0.0867051
132	0x3d65ca24	0.05610098
133	0x3cbc7784	0.023006208
134	0x3c3b00a0	0.011413723
135	0x3df9ce64	0.12197569
136	0xbdb07f56	-0.086180374
137	0x3ca1c571	0.019747468
138	0xbde510e3	-0.111848615
139	0x3d8cdae3	0.06877687
140	0x3dd86786	0.105666205
141	0xbdf04817	-0.117325
142	0xbe05fdae	-0.13085052
143	0x3de33028	0.110931695
144	0xbcce3cdd	-0.025175506
145	0x3c6f4230	0.014603183
146	0xbc525ca3	-0.012839469
147	0x3daa9cd0	0.08330691
148	0xbd92fc75	-0.071770586
149	0x3da10e41	0.07864047
150	0x3c040a55	0.008059104
151	0x3e3f1964	0.1866203
152	0x3dac0850	0.08400023
153	0xbd7d0166	-0.06176891
154	0x3e2472d2	0.16059425
155	0x3d96e56d	0.07367978
156	0xbc3a9a19	-0.011389279
157	0x3d9d2337	0.07672732
158	0xbd861e26	-0.06548719
159	0xbd8532c0	-0.065038204
160	0xbd1a69e5	-0.037698645
161	0xbe383801	-0.17990114
162	0xbe328f50	-0.17437482
163	0x3db83d97	0.08996122
164	0xbdf68015	-0.120361485
165	0x3c8c242c	0.017107092
166	0xbd096d2c	-0.03355138
167	0x3d05232b	0.032504242
168	0xbe3d4c07	-0.18486033
169	0xbda44ff9	-0.08023066
170	0x3c02762b	0.007962744
171	0x3d980455	0.07422701
172	0xbe65e2cf	-0.22449802
173	0xbd59bb36	-0.053157054
174	0x3dd29474	0.102822214
175	0x3e4ad116	0.19806322
176	0xbdf215ef	-0.1182059
177	0xbccf5860	-0.025310695
178	0x3da4ecc7	0.08052974
179	0x3db33469	0.08750231
180	0xbde7f1e7	-0.11325436
181	0xbc2ad398	-0.010426424
182	0x3c44f95e	0.012022344
183	0x3db0b024	0.08627346
184	0xbdc6eed3	-0.09713521
185	0xbde69cf9	-0.11260409
186	0xbccee988	-0.02525784
187	0xbd8eddc2	-0.06975891
188	0x3bae066c	0.005310824
189	0xbc58f3ce	-0.013241721
190	0x3d897c11	0.06713117
191	0xbceb9e9d	-0.028762156
192	0xbd0fdff6	-0.035125695
193	0xbd270c67	-0.040783312
194	0xbc9c447d	-0.019075627
195	0xbd93087b	-0.07179352
196	0xbe235b46	-0.15952787
197	0xbbe4fe20	-0.006988302
198	0xbd32edc6	-0.04368379
199	0x3e50cbf8	0.20390308
200	0x3dca7596	0.09885709
201	0x3c47d32d	0.012196344
202	0xbdb45d86	-0.08806901
203	0xbdc36bc8	-0.09542042
204	0x3ccbc4a2	0.024874035
205	0xbc29cbef	-0.010363563
206	0x3e14d8bf	0.14535807
207	0xbd4de37c	-0.050265774
208	0x3d35915c	0.04432808
209	0x3d2426b8	0.040075988
210	0xbe03ba8a	-0.12864128
211	0xbe11cbef	-0.1423795
212	0xbdede5ec	-0.1161612
213	0x3dc11820	0.094284296
214	0x3d4ffa08	0.050775558
215	0xbe090c3b	-0.13383572
216	0x3dbe94d0	0.093057275
217	0x3cb718c6	0.02235068
218	0x3e197994	0.14987785
219	0xbd1393d1	-0.03602964
220	0xbdbe439c	-0.09290239
221	0x3df49223	0.11941936
222	0x3ded7671	0.115948565
223	0xbcd46d8c	-0.025931142
224	0x3da38c07	0.079856925
225	0xbd9d9f4d	-0.076964
226	0x3c80ef5b	0.015739134
227	0x3d6e77c1	0.058219675
228	0x3cfdc663	0.030978387
229	0xbe8bf076	-0.27331895
230	0xbd80a82c	-0.06282076
231	0xbe1942e9	-0.1496693
232	0x3bae4837	0.0053186673
233	0xbe30c832	-0.17263868
234	0xbe22e2c9	-0.15906824
235	0x3d1189a3	0.03553165
236	0x3e1bac36	0.15202412
237	0x3ddd3c1c	0.108024806
238	0xbc81d678	-0.015849337
239	0x3daf48dc	0.08558819
240	0x3dde2b00	0.10848045
241	0xbdd3014b	-0.10302981
242	0xbdb3c8dd	-0.08778546
243	0x3de5e468	0.11225206
244	0xbe0846ee	-0.13308308
245	0x3e0791bb	0.13239186
246	0x3da0b49d	0.07846949
247	0x3c8d5c49	0.017255919
248	0x3ddf8c40	0.109154224
249	0xbcc80bd1	-0.024419697
250	0x3dd9a810	0.106277585
251	0xbdaba2c0	-0.083806515
252	0xbc30414c	-0.0107577555
253	0xbd0974b5	-0.033558566
254	0xbe5f5ee6	-0.21813545
255	0xbe07013f	-0.13184069
