results/phase4_t2_final/PlayerAgent/PlayerAgent-3499973.onnx (onnx, 99143 bytes, 7 tensors)

action_model._continuous_distribution.mu.weight f4 [1, 128]
0	0x3cbe0d6f	0.023199765
1	0xbc6cdf2e	-0.014457507
2	0xbcf1786f	-0.029476373
3	0x3bc14780	0.005898416
4	0xbc106eb2	-0.008815454
5	0x3c7aac94	0.015299935
6	0x3c733c2e	0.014845891
7	0xbcd25db8	-0.025679454
8	0xbb0f6908	-0.0021882672
9	0x3c6e278f	0.014535799
10	0x3b9b05ab	0.0047309003
11	0xbb9a2575	-0.0047041723
12	0xbbf99c3c	-0.0076175015
13	0xbc554dd8	-0.013019048
14	0xbc73ef17	-0.014888546
15	0x3ba08c95	0.004899571
16	0xbc3a0343	-0.011353317
17	0xbc12c9c9	-0.008959242
18	0xba230e30	-0.00062200706
19	0x3d49a57e	0.04923009
20	0x3d015205	0.03157236
21	0xbc3110c9	-0.010807225
22	0x3c0bda9c	0.008536007
23	0x3aaa12fa	0.0012975626
24	0x3ca0e531	0.019640537
25	0x3cb4a86e	0.02205297
26	0x388199a7	6.179819e-05
27	0x3b81bbe3	0.0039591654
28	0x3bd4f295	0.0064986446
29	0x3c46ac9f	0.012126117
30	0xbc8ce209	-0.017197626
31	0x3ba98c65	0.005174207
32	0x3c9985e6	0.018740606
33	0x3c3a164b	0.011357854
34	0xbc4be928	-0.0124457255
35	0xbbe7792d	-0.007064006
36	0xbbdce97b	-0.0067417
37	0xba621b8c	-0.00086253206
38	0xbc2c8ea9	-0.01053206
39	0x3c88053e	0.016604062
40	0x3aa10f98	0.0012287972
41	0xbcc417fc	-0.023937218
42	0x3d2fde07	0.04293635
43	0x3d04bf6e	0.032409124
44	0xbcffe2b7	-0.031236036
45	0x3cff2c19	0.031148957
46	0xbba3716c	-0.004987886
47	0x3c8baf52	0.017051373
48	0xbb95da2b	-0.004573127
49	0x3c9667aa	0.018359978
50	0xbcf9b95f	-0.0304839
51	0x3cd4750d	0.02593472
52	0x3ab90673	0.0014116302
53	0x39ea46be	0.00044684665
54	0x3b1b3ad5	0.002368619
55	0xbd0dea9d	-0.034647573
56	0xbb9327d1	-0.0044908305
57	0x3c562b80	0.013071895
58	0x3c38a9a4	0.011270914
59	0x3ac9c172	0.0015392734
60	0x3cc199f1	0.023632975
61	0xbc992c0c	-0.018697761
62	0x3ca76a28	0.020436361
63	0x3c8ef5d8	0.017451212
64	0xbcce9146	-0.025215756
65	0xbc2fbf22	-0.010726722
66	0x3ce65f57	0.028121633
67	0x3cd3ef98	0.025871083
68	0x3bb23c0b	0.0054392866
69	0xbd2d103e	-0.042251818
70	0xbb60393b	-0.00342138
71	0xba0eb0ed	-0.0005443234
72	0x3bf3db35	0.007441903
73	0x3cb66b8f	0.022268085
74	0x3bc6599a	0.006053162
75	0x3bda9db5	0.006671632
76	0xbc6c507a	-0.014423484
77	0x3b82253f	0.0039717252
78	0x3c0ce7dd	0.008600202
79	0xbca2e96f	-0.0198867
80	0xbc4a4dcb	-0.012347649
81	0x38837675	6.268631e-05
82	0x3c9fa32c	0.019486986
83	0x3a27bd7e	0.0006398781
84	0xbc43d4a2	-0.011952551
85	0xbc8afe41	-0.01696694
86	0xbc56c28a	-0.013107905
87	0x3c03f14c	0.008053135
88	0xbca313c7	-0.019906892
89	0x3b94c69b	0.004540277
90	0x3c137eba	0.009002382
91	0x3c718be7	0.014742828
92	0xbcb4ab14	-0.022054233
93	0x3c5eab6f	0.013590678
94	0xbc2c7662	-0.010526272
95	0x3bb1825d	0.005417152
96	0xbcb6aa2d	-0.022297943
97	0xbc0915a9	-0.008366981
98	0x3c114c41	0.008868278
99	0x3d25e661	0.04050291
100	0xbbffee10	-0.0078103617
101	0xbb9bd211	-0.0047552665
102	0xbc6ce485	-0.01445878
103	0xbc88c746	-0.016696583
104	0x3cb579e2	0.022152845
105	0x3c1a533b	0.009419258
106	0x3c1e4de9	0.00966213
107	0x3d0906a5	0.033453602
108	0xbba46553	-0.0050169616
109	0x3ab75a57	0.0013988715
110	0x3cedb255	0.0290157
111	0x3ba6fe10	0.0050962046
112	0xbc264e7f	-0.010150551
113	0xbbed53cf	-0.007242657
114	0xbb2e43ef	-0.0026590785
115	0xbd4b6dd5	-0.04966529
116	0xbcd2918b	-0.025704166
117	0x3cb39fb1	0.021926733
118	0xbcec59a5	-0.02885134
119	0xbca03379	-0.019555794
120	0x3c5843e4	0.01319978
121	0x3c8d4fc6	0.017249953
122	0xbc0da983	-0.008646372
123	0xbbba131a	-0.0056785466
124	0x3c7fa9a9	0.015604415
125	0x3c3f2fc9	0.011669108
126	0x3cfa366d	0.03054353
127	0xbc0b171e	-0.008489398

action_model._discrete_distribution.branches.0.bias f4 [2]
0	0xbc84a68b	-0.016192695
1	0x3c84a6a5	0.016192744

action_model._discrete_distribution.branches.0.weight f4 [2, 128]
0	0x3cea36f0	0.02859065
1	0xbd1a8923	-0.03772844
2	0xbddc37f3	-0.10752859
3	0x3d3f67ab	0.046729725
4	0xbddb1637	-0.106975965
5	0x3dc8a969	0.097979374
6	0xbde97125	-0.11398534
7	0x3d801d32	0.062555686
8	0x3c8e0d6e	0.017340388
9	0xbde18952	-0.1101252
10	0xbccb15f1	-0.024790736
11	0x3daaf4db	0.08347484
12	0xbd223380	-0.039599895
13	0x3d4d6db6	0.050153457
14	0xbda9b62a	-0.08286698
15	0xbe0cef12	-0.13763073
16	0x3d34b379	0.04411647
17	0xbdfc4c29	-0.12319214
18	0x3df6eeb6	0.12057249
19	0x3d9583ba	0.073005155
20	0x3d533360	0.051562667
21	0x3c6f813f	0.014618217
22	0x3db0a06b	0.08624347
23	0x3d6dde8d	0.05807357
24	0x3d639127	0.05555835
25	0x3d84cf1c	0.064848155
26	0x3d9b3843	0.075790904
27	0x3d49e2aa	0.04928843
28	0x3d60e337	0.05490419
29	0xbd697187	-0.056993034
30	0xbd937904	-0.07200816
31	0x3d085ff8	0.033294648
32	0xbda499c5	-0.08037142
33	0xbe0c1c0c	-0.13682574
34	0x3de4a009	0.11163337
35	0x3d3314b1	0.043720905
36	0xbce4edd2	-0.027945433
37	0xbddfc03d	-0.109253384
38	0x3d407ec5	0.046995897
39	0x3dbc922c	0.092075676
40	0x3d048374	0.032351926
41	0x3d3d356d	0.04619353
42	0xbc907f51	-0.017638834
43	0xbcee43a3	-0.029084986
44	0xbe01e706	-0.12685785
45	0xbd2d1b11	-0.04226214
46	0x3d49e4a1	0.049290303
47	0x3d51be7f	0.05120706
48	0xbdf51c6a	-0.1196831
49	0xbdc096b3	-0.094037436
50	0xbd6c987d	-0.05776261
51	0x3d8a3db1	0.06750048
52	0x3d397449	0.045276914
53	0x3c2a656e	0.010400159
54	0x3dab05be	0.083507046
55	0x3c1153fe	0.008870123
56	0x3bc75318	0.0060829036
57	0x3d0b1bed	0.03396218
58	0x3d8b1d3c	0.067926854
59	0x3d8c3d54	0.06847635
60	0x3d8b2cd3	0.06795659
61	0x3d8f0ce4	0.069848806
62	0xbda931bc	-0.08261439
63	0x3dc1d4b9	0.09464402
64	0x3c400785	0.011720543
65	0x3d30926e	0.043108396
66	0x3d891dc0	0.066951275
67	0xbdb779a2	-0.089587465
68	0x3c05ee45	0.008174484
69	0xbdafb3ad	-0.08579192
70	0x3d9acb7c	0.07558343
71	0x3d78ab3c	0.060710177
72	0x3d98a77d	0.07453821
73	0x3d845845	0.064621486
74	0x3d9e7802	0.077377334
75	0xbc58df5f	-0.01323685
76	0xbdfca445	-0.123360194
77	0x3d5a1500	0.053242683
78	0x3d9e3c67	0.077263646
79	0xbdc736cb	-0.09727248
80	0x3dc0ae13	0.09408202
81	0x3ddde791	0.108351834
82	0x3c96945c	0.01838129
83	0x3d681639	0.05666182
84	0xbe17442e	-0.14772102
85	0x3d80c53b	0.06287619
86	0xbdf1f571	-0.11814392
87	0xbe00d363	-0.12580638
88	0xbd84c946	-0.06483702
89	0x3d548349	0.051883016
90	0xbdc6933b	-0.09696051
91	0xbd4833f2	-0.048877664
92	0x3c123a4c	0.008925032
93	0x3c176c18	0.00924208
94	0x3d44087f	0.047859665
95	0x3d99e48d	0.07514296
96	0xbdb8ee84	-0.09029868
97	0x3c145ad4	0.009054858
98	0xbe213d78	-0.15746105
99	0x3cc27980	0.023739576
100	0x3d165310	0.03670031
101	0x3d705dd0	0.058683217
102	0xbe0f886a	-0.14016882
103	0x3d524f9d	0.051345456
104	0x3c39885b	0.011324014
105	0x3d9ce5de	0.07661031
106	0xbe14ff31	-0.14550473
107	0x3c15c4b7	0.009141139
108	0xbe0f41b5	-0.13989909
109	0x3c1939a1	0.009352119
110	0x3d12327b	0.035692673
111	0xbe104e82	-0.14092448
112	0x3ca74a50	0.020421177
113	0xbe0ed116	-0.13946947
114	0xbdfa5ef0	-0.12225139
115	0x3d05f8be	0.032707922
116	0xbe226d89	-0.15862097
117	0xbd0d657c	-0.03452061
118	0xbde2b11f	-0.110689394
119	0xbdcb53e4	-0.0992811
120	0xbd54485a	-0.051826812
121	0xbd9ba5d4	-0.075999886
122	0x3ce56f90	0.028007299
123	0x3da8f095	0.082490124
124	0xba56d0b6	-0.00081945525
125	0xbdf9462c	-0.12171587
126	0x38ec1f62	0.000112592024
127	0xbdb819f8	-0.08989328
128	0xbd346b6a	-0.04404775
129	0x3d9544a0	0.0728848
130	0x3df349fd	0.118793465
131	0xbd4ffd5b	-0.050778728
132	0x3de7fc39	0.113274045
133	0xbdd641db	-0.1046178
134	0x3dfa0672	0.122082606
135	0xbda6770a	-0.08128174
136	0xbcc89745	-0.024486193
137	0x3e0d415e	0.13794467
138	0x3c7b6c79	0.015345686
139	0xbdc2d01b	-0.09512349
140	0x3d3033d1	0.043018166
141	0xbd61dae6	-0.0551404
142	0x3db13175	0.08652011
143	0x3e04200f	0.12902854
144	0xbd0af74b	-0.033927243
145	0x3e09780d	0.13424702
146	0xbde2a479	-0.11066527
147	0xbda38551	-0.079844125
148	0xbd4ca0bf	-0.049957987
149	0xbd2bd64c	-0.041952416
150	0xbd9c0cb4	-0.076196104
151	0xbd660a43	-0.05616213
152	0xbdb0134a	-0.08597429
153	0xbd9478a4	-0.07249573
154	0xbd7882da	-0.060671665
155	0xbd76f705	-0.06029417
156	0xbd6c6359	-0.057711933
157	0x3d91eb5e	0.07124971
158	0x3da2d0f9	0.079500146
159	0xbd352351	-0.044223133
160	0x3da5222d	0.08063159
161	0x3e1eef5d	0.15520997
162	0xbde44cca	-0.11147459
163	0xbcaf316f	-0.021385876
164	0x3c267674	0.010160077
165	0x3de5c7e2	0.11219765
166	0xbd9c0efd	-0.07620046
167	0xbdc9203d	-0.09820602
168	0xbd593f14	-0.05303867
169	0xbd0ea81b	-0.034828287
170	0x3c6b70a1	0.014370115
171	0x3cb80b03	0.022466188
172	0x3e169dc8	0.14708626
173	0x3d3bab7e	0.045817845
174	0xbd36575f	-0.044516917
175	0xbd86e08b	-0.06585797
176	0x3e06ea53	0.13175325
177	0x3de6a5cb	0.11262091
178	0x3d8ae195	0.067813076
179	0xbd4fd7c6	-0.050742887
180	0xbd1b40e1	-0.03790367
181	0xbd19b2b6	-0.037523948
182	0xbdaf87ac	-0.08570799
183	0xbc4e76ce	-0.012601567
184	0x398ba29f	0.00026633308
185	0xbcd2d2fc	-0.02573537
186	0xbda04f38	-0.0782761
187	0xbd911fcc	-0.07086143
188	0xbd9e6d7b	-0.077357255
189	0xbd7bf72b	-0.061515015
190	0x3d994f72	0.07485856
191	0xbda9a66f	-0.08283698
192	0xbc57bb64	-0.013167236
193	0xbd2e8d64	-0.04261531
194	0xbd3edbf7	-0.046596494
195	0x3dac73ac	0.084205
196	0xbd269b2d	-0.04067533
197	0x3d9edaa2	0.07756545
198	0xbd980db3	-0.07424488
199	0xbd887a51	-0.06663955
200	0xbd8dea38	-0.06929439
201	0xbd6d9dc8	-0.0580118
202	0xbdb616b8	-0.08891052
203	0x3cdf3e4f	0.02725139
204	0x3def2d02	0.116785064
205	0xbd2c7271	-0.042101327
206	0xbdb7e3d1	-0.089789994
207	0x3dec1a87	0.11528497
208	0xbdc3e1d7	-0.0956456
209	0xbdced542	-0.100992694
210	0xbc8f91ae	-0.01752552
211	0xbd2249d0	-0.039621174
212	0x3e1c77ff	0.1528015
213	0xbd56a10f	-0.05239969
214	0x3de46889	0.11152751
215	0x3de6d9e4	0.11272028
216	0x3d92dc9c	0.07170984
217	0xbd407bf4	-0.04699321
218	0x3dcf51e5	0.10123042
219	0x3d2f2f87	0.042769935
220	0xbb99aac5	-0.004689547
221	0x3b463ecb	0.003024983
222	0xbd82632a	-0.0636657
223	0xbd9189f9	-0.07106394
224	0x3d889e3a	0.06670804
225	0xbc20776f	-0.0097941
226	0x3e112e43	0.14177804
227	0xbcf4def3	-0.029891467
228	0xbccf0756	-0.025272053
229	0xbd2a64f0	-0.041600168
230	0x3e2782f4	0.16358548
231	0xbd3b0a75	-0.04566427
232	0xbccf408f	-0.025299339
233	0xbd86d179	-0.065829225
234	0x3e0fc46d	0.14039774
235	0xbbea696e	-0.0071536815
236	0x3e1236ed	0.14278765
237	0x3bcf68b4	0.0063296203
238	0xbd10722d	-0.035265137
239	0x3e1e27b0	0.15444827
240	0xbc4b57e3	-0.012411091
241	0x3e1a8281	0.15088846
242	0x3dff93e9	0.124793835
243	0xbcd9c6a4	-0.026583977
244	0x3e234127	0.15942822
245	0xbaa94f2e	-0.0012917274
246	0x3db81ee5	0.08990268
247	0x3d8a3ece	0.0675026
248	0x3d10d4b1	0.03535909
249	0x3d94a453	0.07257905
250	0xbd3b0998	-0.045663446
251	0xbdd61a60	-0.104542494
252	0xbb98f077	-0.0046673375
253	0x3dea28fe	0.114336
254	0xbc629a62	-0.013830753
255	0x3d7e510c	0.06208901

network_body._body_endoder.seq_layers.0.bias f4 [128]
0	0xbcd341e7	-0.02578826
1	0x3d5abf45	0.053405065
2	0x3bb0e492	0.0053983415
3	0xbcfbf5fe	-0.030756947
4	0x3c85cc8f	0.016332893
5	0xbc9a0585	-0.01880146
6	0x3d56efc6	0.05247476
7	0x3c179218	0.00925114
8	0x3d505dcd	0.050870705
9	0x3b8ca7b8	0.0042924546
10	0xbc428a42	-0.011873784
11	0x3c8d3d48	0.017241135
12	0xbd96b891	-0.07359422
13	0xbcc84076	-0.0244448
14	0x3c50ca13	0.012743491
15	0x3d14ae4a	0.036299028
16	0xbd595402	-0.05305863
17	0xbb6b627d	-0.0035916858
18	0xbd53b717	-0.05168828
19	0x3afde890	0.0019371677
20	0x3b97d3de	0.004633411
21	0x3cff8ee2	0.031196062
22	0xbd45a276	-0.048250638
23	0x3bcf9d71	0.006335907
24	0x3a3adf8b	0.00071286474
25	0xbce95ed6	-0.028487604
26	0x3c6f204a	0.014595101
27	0x3d0ea04d	0.034820843
28	0x3bf30824	0.007416742
29	0x3d94ceb3	0.07265987
30	0xbd483251	-0.04887611
31	0xbcc93ed9	-0.0245661
32	0xbc159b26	-0.009131229
33	0x3da78126	0.0817893
34	0xba4ec793	-0.0007888015
35	0x3b8e6b1b	0.004346264
36	0x3bf1e55f	0.0073820795
37	0x3ca061cc	0.019577883
38	0x3cc5a2e4	0.024125524
39	0x3d2851dc	0.041093692
40	0xbc40c43c	-0.011765536
41	0xbbce7df6	-0.006301637
42	0x3d7b31c8	0.061326772
43	0x3c5610f0	0.013065562
44	0xbcaa4ed8	-0.020789549
45	0xbd129c04	-0.03579332
46	0xbd8d0831	-0.06886328
47	0xbd066a1f	-0.03281605
48	0x3cb9af1a	0.022666503
49	0x3cf2033d	0.02954256
50	0xbcd15cbc	-0.025556915
51	0x3acad171	0.0015473795
52	0x3bdb96cc	0.006701326
53	0xbd90eed5	-0.070768036
54	0xbcb56aff	-0.022145746
55	0x3b05e770	0.0020432137
56	0x3cf11d9d	0.029433066
57	0x3d2cf948	0.04222992
58	0xbd702b4b	-0.058635037
59	0xbd274a01	-0.04084206
60	0x3bf04219	0.007332098
61	0x3c6cd12b	0.014454166
62	0x3d4cb555	0.04997762
63	0x3af86c51	0.0018953179
64	0x3d2ebbed	0.04265969
65	0x3d78fd58	0.060788482
66	0x3d3ccddc	0.04609476
67	0xbbeb7fa2	-0.007186846
68	0x3b996c9b	0.0046821362
69	0x3d4f119e	0.05055391
70	0xbcfdf991	-0.031002792
71	0x3d4ba876	0.049721204
72	0xbd484b9e	-0.04890024
73	0x3d1b2520	0.037877202
74	0xbd4cff78	-0.05004832
75	0x3d17c8b9	0.03705666
76	0xbbf8df9d	-0.007595016
77	0xbb0268aa	-0.001989881
78	0x3d1c0f94	0.038100794
79	0x3b33b186	0.0027419045
80	0xbc1b7999	-0.00948944
81	0x3d24bdde	0.040220134
82	0x3d630eb6	0.05543395
83	0x3c9170e3	0.017754024
84	0x3c628bf7	0.0138273155
85	0xbc81047a	-0.015749205
86	0xbca08f58	-0.019599602
87	0xbc8f09ce	-0.01746073
88	0x3d869557	0.06571453
89	0x3c823c51	0.015897902
90	0xbb27c2a2	-0.0025598188
91	0x3cd6fba5	0.02624304
92	0x3c2c06b6	0.010499647
93	0xbba657b3	-0.0050763725
94	0x3d295ba5	0.041347165
95	0xbc4cb128	-0.012493409
96	0x3c2eb3ff	0.010663032
97	0x3d6a20da	0.057160236
98	0xbcaecb88	-0.021337286
99	0xbbde97c2	-0.0067929933
100	0x3dc91c70	0.09819877
101	0xbcac8f8d	-0.021064544
102	0xbc599d12	-0.013282077
103	0x3d32c9a2	0.043649323
104	0x3d3c20b4	0.045929626
105	0xbd21bf16	-0.039488874
106	0x3cbbf20a	0.022942562
107	0x3ca0ee56	0.019644897
108	0xbd823b60	-0.06358981
109	0x3d5e8656	0.05432733
110	0xbb94abab	-0.004537066
111	0xbd57e7ec	-0.052711412
112	0x3d09b300	0.033617973
113	0x3d552719	0.05203924
114	0xbd52f68f	-0.051504668
115	0xbd2ea173	-0.04263444
116	0x3c582490	0.013192311
117	0x3cc1c28a	0.023652334
118	0x3d85892a	0.065203026
119	0x3d2b725d	0.041857112
120	0xbcb20673	-0.02173159
121	0x3a470cd1	0.00075931574
122	0xbc7adb2e	-0.015311046
123	0xbcb5d074	-0.022194125
124	0xbc9874fd	-0.018610472
125	0x3d41a2f8	0.04727456
126	0x3db79cf3	0.089654826
127	0xbaa27063	-0.0012393113

network_body._body_endoder.seq_layers.0.weight f4 [128, 55]
0	0xbe3aea27	-0.18253385
1	0xbd893ffb	-0.067016564
2	0xbe51f667	-0.20504151
3	0xbec88d22	-0.39170176
4	0x3db61123	0.08889987
5	0xbcefb206	-0.029259693
6	0x3e3cafc6	0.18426427
7	0x3cfd334b	0.030908247
8	0xbe9a7dca	-0.30174094
9	0xbe92ded8	-0.2868564
10	0xbe707946	-0.23483762
11	0xbe319f70	-0.17345977
12	0xbe176de6	-0.14788017
13	0xbe1b36b2	-0.15157583
14	0x3d45971d	0.048239816
15	0xbe21f7f0	-0.15817237
16	0xbe628694	-0.2212165
17	0xbda62bc7	-0.081138186
18	0x3deb3996	0.11485593
19	0x3de10c38	0.10988659
20	0x3d7185b3	0.058965396
21	0xbe17cd03	-0.148243
22	0xbd8532f1	-0.06503857
23	0xbe397ff0	-0.1811521
24	0x3e9bf53f	0.30460545
25	0xbe0e6e71	-0.13909318
26	0xbe36bbc3	-0.17845063
27	0x3e983150	0.29725122
28	0xbc803ef9	-0.015655028
29	0x3e12ff2c	0.14355153
30	0x3e38115c	0.17975372
31	0x3dce4cfb	0.100732766
32	0xbe5a626a	-0.21326604
33	0xbe0bdd10	-0.13658547
34	0xbcc79b29	-0.024365978
35	0x3e512a33	0.20426254
36	0xbdef0a77	-0.11671918
37	0xbeb48d5b	-0.35264096
38	0x3e072885	0.1319905
39	0xbd861f40	-0.06548929
40	0x3e50d4a2	0.20393613
41	0xbe576aaf	-0.2103679
42	0x3ddcf88a	0.107895926
43	0x3dfda63f	0.123852246
44	0xbe1abbb1	-0.15110661
45	0xbe8327c8	-0.25616288
46	0xbe0f2474	-0.1397875
47	0x3dce0067	0.100586705
48	0x3dab57b2	0.08366336
49	0x3ce324b3	0.02772746
50	0xbe7451ab	-0.23859279
51	0x3dcccf71	0.10000504
52	0xbe7c7c88	-0.2465688
53	0x3e69e27c	0.22840303
54	0xbce42e39	-0.027854072
55	0x3e3024c7	0.1720153
56	0xbdb8b29d	-0.09018443
57	0xbcf8980d	-0.030345941
58	0x3dcd1b0e	0.10014926
59	0x3d4039ff	0.04693031
60	0xbd590844	-0.0529864
61	0xbd28ee3a	-0.041242816
62	0xbd904a54	-0.07045427
63	0x3da93b97	0.08263319
64	0x3e5af014	0.21380645
65	0x3d9ff330	0.07810056
66	0x3dc3f9fd	0.09569166
67	0x3e237422	0.1596227
68	0xbe12b8de	-0.14328334
69	0x3e2aa55e	0.16664645
70	0xbdfdfbf0	-0.12401569
71	0xbd66806c	-0.056274816
72	0xbd66041d	-0.056156266
73	0xbd54d30a	-0.051959075
74	0xbd40c52e	-0.047063045
75	0xbdd135dc	-0.10215351
76	0x3ee208ad	0.44147244
77	0x3e80496a	0.2505601
78	0x3e867c43	0.2626668
79	0x3e51abc2	0.20475677
80	0xbd12ecb6	-0.035870276
81	0x3e8905cd	0.26762238
82	0x3e0a90e4	0.13531834
83	0xbd0468d0	-0.03232652
84	0xbbc71853	-0.0060758977
85	0xbdc00fd6	-0.093780205
86	0x3e3fe106	0.18738183
87	0x3d6581a3	0.056031834
88	0x3e2c8688	0.16848195
89	0xbdcf3408	-0.10117346
90	0x3df3eb6e	0.11910139
91	0x3de3bcf5	0.11120025
92	0x3dbcac72	0.09212579
93	0xbde36cff	-0.11104774
94	0x3de44d04	0.11147502
95	0x3e2f460a	0.17116562
96	0xbd24c075	-0.040222604
97	0xbd05b1f5	-0.032640416
98	0xbe32b49e	-0.17451712
99	0x3d9e8c89	0.07741649
100	0x3db98721	0.09058977
101	0xbddb8e1a	-0.10720463
102	0x3e8b887f	0.27252576
103	0x3d8f74a7	0.070046715
104	0x3e02d9d7	0.12778412
105	0x3de2a910	0.11067402
106	0x3de07e44	0.10961583
107	0x3dbe8534	0.0930275
108	0xbce1bbb5	-0.027555326
109	0x3e5009d4	0.20316249
110	0xbd893dcc	-0.0670124
111	0xbe5114ab	-0.2041804
112	0xbd345117	-0.044022646
113	0xbd65bbc1	-0.05608726
114	0xbdd966a4	-0.1061528
115	0xbcf658ba	-0.030071605
116	0xbe531769	-0.20614399
117	0x3eca33ae	0.39492553
118	0x3cfc84ca	0.030825038
119	0xbea028e1	-0.31281188
120	0x3daf6ac3	0.08565285
121	0xbe600ba5	-0.21879442
122	0x3e043f91	0.12914874
123	0x3d552682	0.052038677
124	0x3c0d769b	0.008634235
125	0x3e554f4b	0.20831029
126	0x3d88da2d	0.06682239
127	0x3e69808e	0.22802946
128	0xbd475f42	-0.04867483
129	0xbe385136	-0.1799973
130	0x3e26c663	0.16286616
131	0xbd73c006	-0.0595093
132	0x3d11d6d2	0.03560526
133	0x3e6772eb	0.22602431
134	0xbea20413	-0.31643733
135	0x3bd0cdbc	0.0063721817
136	0x3d151b04	0.036402717
137	0xbe4570f1	-0.19281365
138	0xbe4efabf	-0.2021284
139	0x3cab7c2e	0.020933237
140	0xbc66f58b	-0.014096628
141	0x3d0a9002	0.033828743
142	0x3d9257da	0.071456626
143	0xbc2ca592	-0.010537522
144	0x3e828c7d	0.2549781
145	0xbe122c02	-0.142746
146	0xbc5ebf54	-0.013595421
147	0x3dccd56a	0.10001643
148	0xbe335f9d	-0.17516942
149	0x3daa7472	0.083229914
150	0xbe9c59f3	-0.30537376
151	0x3e94d2e1	0.29067138
152	0x3deb38cf	0.11485445
153	0xbdef4109	-0.11682326
154	0xbcca829d	-0.024720484
155	0x3e50790c	0.20358676
156	0xbbd49d1f	-0.006488457
157	0x3e7310a8	0.23736823
158	0xbea44729	-0.3208554
159	0xbc2947fd	-0.010332105
160	0xbd9ce453	-0.07660737
161	0xbc9285b1	-0.017886015
162	0x3e57b6bc	0.21065801
163	0x3e9a2c3f	0.30111882
164	0x3e868b38	0.2627809
165	0x3d91ad9b	0.07113191
166	0xbd9848aa	-0.074357346
167	0x3e82fdb2	0.2558418
168	0x3dc3cc75	0.095604815
169	0xbde2a595	-0.110667385
170	0xbc9ccac1	-0.01913965
171	0x3cf77592	0.03020743
172	0x3d921d2c	0.0713447
173	0x3cfe62d2	0.03105298
174	0x3d86d1cc	0.06582984
175	0xbd102229	-0.035188828
176	0x3df42db4	0.1192278
177	0xbd7fde56	-0.062467895
178	0x3d08545d	0.03328358
179	0xbd4bf133	-0.049790572
180	0x3e4888c5	0.19583423
181	0x3db5834e	0.08862935
182	0xbd4fea76	-0.05076071
183	0x3d81166a	0.06303103
184	0xbcbc9c30	-0.023023695
185	0x3d42a778	0.047522992
186	0x3dbe2d80	0.09286022
187	0xbe758e4c	-0.23980063
188	0xbe90d2a1	-0.28285697
189	0xbdc42048	-0.0957647
190	0x3e80d50a	0.25162536
191	0xbd0e1408	-0.034687072
192	0xbe300cb0	-0.1719234
193	0xbc95a17c	-0.018265478
194	0xbcb50c25	-0.022100518
195	0x3daa722b	0.08322557
196	0xbd5da04f	-0.05410796
197	0xbe2c9204	-0.16852576
198	0xbc9f676c	-0.019458495
199	0x3da99ceb	0.08281883
200	0xbc15baac	-0.009138744
201	0xbd0c3734	-0.034232333
202	0xbe7e0785	-0.24807556
203	0xbda5fd04	-0.081048995
204	0xbd696c43	-0.056988012
205	0x3d1d920a	0.03846935
206	0xbd403723	-0.046927582
207	0xbc43eb10	-0.011957899
208	0x3d3d8b5b	0.046275478
209	0xbdea6146	-0.11444335
210	0x3cc01a75	0.023450116
211	0xbe1345d9	-0.14382114
212	0x3cd7f0d9	0.026359962
213	0x3dd8b06c	0.10580525
214	0x3d8b1d12	0.06792654
215	0x3d30de05	0.043180484
216	0x3daa0e6d	0.08303533
217	0x3decfece	0.11572038
218	0x3e2dd67c	0.1697635
219	0xbcbca598	-0.02302818
220	0xbdd950ff	-0.10611152
221	0x3c732763	0.0148409335
222	0xbeb21e30	-0.34788656
223	0x3dff4dac	0.124659866
224	0x3cde5718	0.027141139
225	0x3dd0b6f9	0.10191149
226	0xbd8f66a2	-0.070019975
227	0xbdde4080	-0.10852146
228	0x3d698ccc	0.05701904
229	0x3d95de8b	0.07317837
230	0x3cf58cea	0.02997442
231	0x3e7a3308	0.2443353
232	0x3de68500	0.112558365
233	0x3c523a43	0.0128312735
234	0x3d53d288	0.05171445
235	0xbd1cf1f9	-0.0383167
236	0x3e36b45c	0.17842239
237	0x3db99ef6	0.090635225
238	0x3e17ce8f	0.1482489
239	0xbd8db24b	-0.06918772
240	0x3da87372	0.082251444
241	0xbe4fd70c	-0.20296878
242	0xbe00e2d9	-0.12586536
243	0xbdcc39e7	-0.099719815
244	0xbe9c28c2	-0.30499846
245	0x3dbaf47a	0.091286615
246	0x3d9d3cd7	0.0767762
247	0x3d6817ef	0.05666345
248	0xbb4a1543	-0.0030835427
249	0xbe68ab68	-0.22721636
250	0x3c816fca	0.015800375
251	0xbda900b4	-0.08252087
252	0x3e09bc53	0.13450746
253	0x3dfc5d85	0.12322525
254	0x3dcf6e79	0.10128493
255	0xbcb16998	-0.021656796

network_body._body_endoder.seq_layers.2.bias f4 [128]
0	0xbc69a6ea	-0.014260987
1	0x3bf9c4fa	0.0076223584
2	0x3ce3289b	0.027729323
3	0xbcfe3efe	-0.031035896
4	0x3d3fac69	0.046795283
5	0x3c22cf7e	0.009937165
6	0x3cd66bee	0.026174512
7	0x3bec63ee	0.007214061
8	0xbbcdc47e	-0.006279527
9	0x3d0af93c	0.033929095
10	0x3cbd05bb	0.023074022
11	0x3cc6c2d6	0.024262827
12	0x3c6bb883	0.014387253
13	0xbd12a8ef	-0.03580564
14	0x3c9e97d8	0.019359514
15	0x3d5a552b	0.05330388
16	0x3a723f2e	0.0009240982
17	0x3d17ad31	0.037030403
18	0x3c0865a2	0.008325012
19	0xbb064e41	-0.002049342
20	0x3b70e118	0.003675526
21	0xbc2969e4	-0.010340188
22	0x3c2574ac	0.0100986175
23	0xbba753f8	-0.0051064454
24	0x3b69b794	0.00356624
25	0xbc4152da	-0.0117995385
26	0x3c001f6d	0.0078199925
27	0xbcc63d61	-0.02419919
28	0x3b7162ca	0.0036832565
29	0x3be6b21c	0.0070402753
30	0x3cb45f65	0.022018144
31	0xbc32c2d7	-0.010910711
32	0x3d1fa3b4	0.03897448
33	0x3d71bb8b	0.059016746
34	0x3c4e665e	0.012597648
35	0xbc3611b3	-0.011112618
36	0x3c86e2c4	0.016465552
37	0x3d2785e1	0.04089916
38	0x3aa7f674	0.0012814538
39	0x3b94b31e	0.004537954
40	0xbbb30a6d	-0.0054638893
41	0x3b769e9f	0.0037631167
42	0x3c3953e8	0.011311509
43	0x3d13c84b	0.036079686
44	0x3d298f27	0.041396286
45	0x3cc3c658	0.023898289
46	0xbbda1b83	-0.0066561117
47	0x39aee8a2	0.0003336119
48	0x3d5abeb7	0.053404536
49	0x3cc543c1	0.02408016
50	0x3ce6f1d6	0.028191488
51	0xbc20dfc3	-0.009818974
52	0x3c362bab	0.01111881
53	0xbd41b9f7	-0.04729649
54	0x3aa6d427	0.0012728021
55	0x3bd7d096	0.0065861447
56	0xbd2b79c7	-0.041864183
57	0xbba7734c	-0.00511018
58	0xbb8723c3	-0.004124136
59	0x3b5569ec	0.0032564355
60	0xbc28a95c	-0.010294285
61	0x3c022f8c	0.007945906
62	0x3c82df9b	0.015975764
63	0x3a449ce0	0.0007500183
64	0xbd1c4475	-0.038151223
65	0xbd20f746	-0.03929832
66	0xbc32ba6a	-0.010908702
67	0x3c8f76de	0.017512735
68	0xbc84beca	-0.016204257
69	0x3c929741	0.01789439
70	0x3bed59f1	0.007243388
71	0x3bd15b3b	0.0063890493
72	0x3beb5661	0.007181928
73	0xba9989ac	-0.0011714003
74	0x3d0885bd	0.033330668
75	0x3b4a0d3d	0.0030830645
76	0x3d443cb6	0.04790946
77	0x3b0c1817	0.0021376663
78	0x3c7c26ae	0.015390081
79	0x3d18d034	0.037307933
80	0x3adba8ca	0.0016758677
81	0x3a24ee7c	0.00062916405
82	0xbc2e9dd0	-0.010657743
83	0xbd216a2c	-0.039407894
84	0x3d05d3f1	0.032672826
85	0x3b306100	0.0026913285
86	0x3d14668d	0.036230613
87	0x3cb9874f	0.022647528
88	0x3ce9c677	0.028537018
89	0x3a15fec7	0.00057218637
90	0x3ce6ee03	0.028189665
91	0x3ca50cc7	0.020147694
92	0x3b98a0fc	0.0046578627
93	0x3bf30420	0.007416263
94	0xbd05fbc8	-0.03271082
95	0xbbef890c	-0.0073100384
96	0x3d438b41	0.047740225
97	0xba80fd84	-0.0009841179
98	0x3d47d1cb	0.04878406
99	0xbb6c6def	-0.0036076268
100	0xbd1ef826	-0.03881087
101	0x3ab83582	0.0014054033
102	0x3d48dc46	0.049038194
103	0x3b7d19cd	0.0038620115
104	0x3b9c2d3c	0.0047661345
105	0xbc51369e	-0.012769369
106	0x3d27675e	0.040870063
107	0xbb09f774	-0.0021052035
108	0x3d4365ab	0.04770438
109	0xbc9f8262	-0.019471351
110	0xbc08ccdc	-0.0083496235
111	0x3d3bd16e	0.045854025
112	0xbcea48ae	-0.02859911
113	0x3d95e9f3	0.07320013
114	0x3d38e979	0.045144532
115	0x3ae842f6	0.0017720151
116	0x3d314a4b	0.043283742
117	0x3bf092ca	0.0073417174
118	0x3d0fac8b	0.03507666
119	0x3d099162	0.033585913
120	0x3c4ed75c	0.012624588
121	0x3cdb7755	0.0267903
122	0xbd01a2f0	-0.03164953
123	0x3c5c56df	0.013448446
124	0xbc53517b	-0.012897844
125	0x3d047a7a	0.032343365
126	0xbbdf9180	-0.006822765
127	0x3d08e435	0.03342076

network_body._body_endoder.seq_layers.2.weight f4 [128, 128]
0	0x3da93102	0.082613006
1	0xbcd4bcca	-0.025968928
2	0xbd533eca	-0.051573552
3	0xbe096ad7	-0.13419662
4	0x3bb18b07	0.0054181847
5	0x3e41efbb	0.18939106
6	0xbcabd86f	-0.020977227
7	0xbda4595b	-0.08024856
8	0xbc9942c3	-0.018708592
9	0xbc0e04bc	-0.008668121
10	0x3bcbee63	0.0062234863
11	0xbdd391a7	-0.10330515
12	0x3c7b3259	0.015331828
13	0x3c3565ff	0.011071681
14	0xbd3b5013	-0.04573066
15	0xbdf0ebdf	-0.11763739
16	0x3b98ecf2	0.004666918
17	0x3b768c3a	0.0037620203
18	0xbd2edca7	-0.0426909
19	0xbc4cb984	-0.012495402
20	0xbe106e6d	-0.14104624
21	0xbe000576	-0.12502083
22	0x3dc2b846	0.095078036
23	0xbe02da10	-0.12778497
24	0xbe39e2c4	-0.1815291
25	0x3da18ea3	0.07888534
26	0xbe0b4516	-0.13600573
27	0x3e0e6e10	0.13909173
28	0xbd4a13e6	-0.049335383
29	0x3e8b6f7b	0.2723349
30	0xbd45a592	-0.048253603
31	0x3c559dad	0.013038081
32	0xbcba2610	-0.022723228
33	0x3b202574	0.0024436386
34	0xbd0d06b2	-0.034430213
35	0x3df61955	0.120165505
36	0xbe2ce4b4	-0.16884118
37	0x3c6ec7eb	0.014574031
38	0x3dcf2739	0.10114903
39	0xbda9fc5f	-0.08300089
40	0x3db10eae	0.08645378
41	0x3d6d0b8e	0.057872348
42	0xbc534502	-0.012894871
43	0xbd0d7011	-0.034530703
44	0x3e8ac96f	0.27106807
45	0x3d163a4d	0.036676694
46	0x3d964998	0.07338256
47	0xbda43a60	-0.08018947
48	0x3b36d947	0.0027900503
49	0x3e376104	0.17908102
50	0x3e155b01	0.14585496
51	0xbe646dae	-0.22307464
52	0xbcfc2ce6	-0.030783128
53	0xbe3c1ad8	-0.18369615
54	0x3c412add	0.011790005
55	0xbc6ed9be	-0.014578281
56	0xbe278648	-0.16359818
57	0xba8cc4fc	-0.0010739858
58	0x3d344201	0.04400826
59	0x3dd5533e	0.10416268
60	0x3e036c08	0.1283418
61	0xbc8edf09	-0.017440336
62	0x3da0effc	0.078582734
63	0xbe085f35	-0.13317569
64	0x3d159280	0.036516666
65	0x3e813eaf	0.25243136
66	0xbdabec6a	-0.08394702
67	0x3c7112b5	0.014713933
68	0xbd4389a1	-0.047738675
69	0xbd1cb072	-0.03825421
70	0x3d819a9c	0.063283175
71	0xbd5395a9	-0.0516564
72	0xbd763df3	-0.060117673
73	0x3db04830	0.08607519
74	0x3c041b1f	0.008063107
75	0x3ca740d9	0.020416664
76	0xbcc73b20	-0.024320185
77	0xbaf9de3f	-0.0019063427
78	0x3e163ee0	0.14672422
79	0xbd9cedc7	-0.0766254
80	0xbe4b3a39	-0.19846429
81	0xbb543085	-0.0032377553
82	0x3d897900	0.06712532
83	0xbe16b990	-0.14719224
84	0x3d269773	0.040671777
85	0x3dac6493	0.084176205
86	0xbe385cb7	-0.18004118
87	0xbd07f6e8	-0.033194453
88	0xbe99bd73	-0.3002735
89	0xbd7cc8e4	-0.06171502
90	0x3d96513e	0.073397145
91	0x3dca11dd	0.098666884
92	0x3d84f339	0.064917035
93	0xbd6a8f55	-0.0572656
94	0x3d3b2039	0.045685027
95	0xbdf3d466	-0.11905746
96	0x3e05ad1c	0.13054317
97	0x3e2e912c	0.17047566
98	0xbde2bc6c	-0.11071095
99	0xbe964289	-0.29347637
100	0x3d29b472	0.04143185
101	0xbd170370	-0.036868513
102	0xbd730bd4	-0.059337452
103	0x3d58b8d5	0.052910645
104	0x3df186b3	0.1179327
105	0x3d7aedc5	0.06126191
106	0xbc3f25fd	-0.011666772
107	0xbe1ff811	-0.15621974
108	0x3c330c63	0.010928246
109	0x3c8a74a9	0.016901331
110	0xbda88ea0	-0.082303286
111	0x3e09349c	0.13398975
112	0xbcda80a7	-0.026672674
113	0x3dd52f6e	0.10409437
114	0xbc90543b	-0.01761829
115	0x3ca1780d	0.019710565
116	0xbe09adbd	-0.13445182
117	0x3c6286d3	0.01382609
118	0x3d849a08	0.06474692
119	0x3d7fd3d2	0.062457867
120	0xbe2d4957	-0.16922508
121	0xbdae0d8e	-0.08498679
122	0x3dbc6728	0.09199363
123	0xbe662c4c	-0.22477835
124	0xbd484b3b	-0.04889987
125	0x3da1e052	0.07904114
126	0x3e0298fe	0.12753674
127	0xbdeb4544	-0.11487821
128	0xbe0cc375	-0.13746436
129	0x3cbff875	0.023433903
130	0x3c24dbc3	0.010062161
131	0xbcdc6126	-0.026901793
132	0xbd709b01	-0.058741573
133	0xbd96c8fc	-0.073625535
134	0x3d39fcac	0.045406982
135	0xbddd42e0	-0.10803771
136	0xbd4549d3	-0.048166107
137	0xbdab670a	-0.083692625
138	0xbdd475c2	-0.10374023
139	0xbc692518	-0.014230035
140	0x3ca3ef6c	0.020011626
141	0x3d3711d7	0.044694748
142	0x3cb5c59b	0.022188952
143	0xbded551b	-0.11588498
144	0xbda6c869	-0.08143694
145	0xbcb7687a	-0.022388685
146	0xbddb6914	-0.107134014
147	0x3d243410	0.040088713
148	0x3d8c2412	0.06842817
149	0x3d9decc5	0.07711176
150	0xbd68b3d1	-0.05681211
151	0xbe40d3af	-0.18830751
152	0x3d26fc37	0.040767875
153	0x3d692c29	0.05692688
154	0xbdad68c7	-0.0846725
155	0x3d1c6c4d	0.03818922
156	0x3b94b137	0.004537727
157	0x3e0f57fb	0.13998406
158	0xbbc352f9	-0.005960819
159	0x3c9200e5	0.017822692
160	0xbe0362a0	-0.12830591
161	0x3e00348c	0.12520045
162	0x3d9c8f41	0.07644511
163	0x3cb95b25	0.022626469
164	0x3b4c6226	0.003118643
165	0x3c89e6f8	0.016833767
166	0x3de05190	0.10953057
167	0x3e17317b	0.14764969
168	0xbd8afa09	-0.06785972
169	0xbe1d0194	-0.15332633
170	0xbe3a49ad	-0.18192168
171	0xbd3983ab	-0.045291584
172	0x3c942223	0.018082684
173	0xbe11579c	-0.14193577
174	0xbda7ef9e	-0.082
175	0xbccb1578	-0.02479051
176	0x3c81d9a9	0.015850859
177	0xbd3ae10a	-0.04562477
178	0xbd4d2328	-0.050082356
179	0xbd842fa4	-0.06454399
180	0x3d981c03	0.07427218
181	0xbe1f859d	-0.15578313
182	0x3c11d040	0.008899748
183	0x3e27e5e7	0.16396295
184	0xbd703e6d	-0.058653284
185	0x3cbb11c8	0.022835627
186	0xbddaafb7	-0.10678046
187	0x3cdf4cf7	0.02725838
188	0x3bcb5825	0.006205576
189	0xbd6e111d	-0.05812179
190	0xbd1a6760	-0.037696242
191	0x3dd9d41a	0.10636158
192	0xbd6404c5	-0.05566861
193	0x3da237ac	0.07920775
194	0xbd5c1a0d	-0.05373578
195	0x3d855951	0.065111764
196	0x3d66ed71	0.056378786
197	0xbcc06339	-0.023484813
198	0xbdb167fe	-0.08662413
199	0x3d046edd	0.03233229
200	0x3d47fc9c	0.04882489
201	0x3d72ae07	0.059247997
202	0xbdabe418	-0.08393115
203	0x3e1535cc	0.14571303
204	0x3c2f27c8	0.010690637
205	0x3e56d75a	0.20980588
206	0xbdd280a7	-0.10278445
207	0x3e09ab09	0.13444151
208	0x3dc2fd28	0.09520942
209	0x3e848ce7	0.2588875
210	0xbdd98788	-0.10621554
211	0xbe3eb920	-0.18625307
212	0x3d83de7f	0.06438922
213	0xbe1d69a3	-0.15372328
214	0x3da91b3b	0.08257147
215	0x3d534fcd	0.051589776
216	0x3dc96b35	0.09834901
217	0xbd9f65c1	-0.0778308
218	0xbd152fe6	-0.036422633
219	0xbd89171c	-0.06693861
220	0x3dfce857	0.12349003
221	0x3d0b75bd	0.03404783
222	0x3e785169	0.24249806
223	0xbe05c459	-0.13063182
224	0xbd0b3795	-0.033988554
225	0xbce20888	-0.027591959
226	0xbd6cd0c8	-0.057816297
227	0xbc7d4177	-0.015457503
228	0x3dbdb14d	0.09262333
229	0x3d56ac10	0.052410185
230	0xbb44772a	-0.0029978254
231	0xbd9ef88c	-0.0776225
232	0xbca50212	-0.020142589
233	0xbdffabda	-0.1248395
234	0xbdc83d12	-0.09777273
235	0xbd9ab516	-0.07554071
236	0xbcf4223d	-0.029801482
237	0xbe69be64	-0.22826535
238	0x3d586e1e	0.05283939
239	0x3b98f2f8	0.004667636
240	0x3c285a13	0.010275382
241	0xbd760963	-0.060067546
242	0x3e104ce3	0.1409183
243	0xbde7dd86	-0.11321549
244	0x3d075293	0.033037733
245	0x3d311627	0.043234017
246	0x3ccf8c11	0.025335344
247	0x3dfa954d	0.12235508
248	0xbe38865f	-0.18020009
249	0xbd9e651b	-0.07734128
250	0xbe3a80db	-0.18213217
251	0x3db0ff04	0.0864239
252	0x3e9fa21b	0.31178364
253	0xbd85166b	-0.064984165
254	0x3dd1df7b	0.10247704
255	0x3cb98fbd	0.022651548
