results/Only_shoting_with_movement/NPCAgent/NPCAgent-0.pt (torch, 147015 bytes, 11 tensors)

network_body._body_endoder.seq_layers.0.weight f4 [128, 4]
00000000: 18b4 5c3b 343f b2bd 5c28 1cbf f1b4 5b3e
00000010: 5fda 253e 8f40 1cbf bb8f 4abe dd76 153f
00000020: e1f7 ac3e 5c0d f33d 061a b6be 6674 633e
00000030: 34e0 913f cb06 383e 9d3d 4dbe f6e8 843e
00000040: 65bc 13bf de68 28bf 866e 29bf ef54 0fbf
00000050: bad8 31bf 97b4 25bf d1ce 5bbe 610d 393f
00000060: 7dc1 f738 8b2b 813f be21 873e 7d3e 563c
00000070: 4eb5 e7bd 9fe6 663f c12e 26bf fd28 a2be
00000080: 61c7 cbbe 95cb f3be 2076 f73e 7c5a c83d
00000090: c178 bebe 3e63 e93e bbdc cf3e 9405 07bf
000000a0: 8f97 adbe fa94 2a3f f4eb f9be e3ab 8b3e
000000b0: 0d4f 1bbf 3035 e4be d5e0 b83d 9d6b 18bf
000000c0: 3488 3f3f a7d4 0bbf b650 d6be 959c 943f
000000d0: a209 f6be 249e cebe ecb4 c5bd eff5 6f3e
000000e0: 5244 b9be 6a8e ec3d 2675 e03e 359e cebd
000000f0: 4cfc 0d3f dd68 8e3e f3e1 d23d 8dfd 063f
00000100: b95a 443f 819b 0b3f 8e44 8ebd f00e c33e
00000110: 00a1 0abe 3922 9bbd fe65 443f 7c83 b93e
00000120: af2f 253f 098c e33d f702 cb3e c9af 213f
00000130: f3b9 3fbe 4d5a 15bd 545a 29bf b09d 543e
00000140: e1d8 12bd 5e5f 173f 3899 48bf 1df2 2d3f
00000150: fd74 143c 9111 02be f6c1 c3bf a6c1 ee3e
00000160: 9ab9 5fbf 2345 b33f 70eb 2d3e 91a1 99be
00000170: 7f5b 0d3f c868 7b3e 86aa 76be 91ed abbd
00000180: 3c7a 0fbf efa0 b9be 30ff 393e 39f5 a03e
00000190: 9ff2 0a3e 4ea9 5b3e 210f 31bf 8e8c d43d
000001a0: a526 da3d 8eb7 b33e 61a4 9ebe 53f2 91bf
000001b0: 9b11 f63e ec0e 813f ddc4 0bbf 0624 b8be
000001c0: 06a9 99bf 09bf fe3e 8d7a 0ebf 8421 5e3e
000001d0: c857 20bf fb98 3d3e 9a46 343f 166e bbbf
000001e0: f163 25bf 2417 c53e 4f01 82bf 7410 833f
000001f0: a36e 4abf 15b8 f53e e08b 913d 8f89 5d3f
00000200: 4923 fe3e c89b 9ebf 36a4 26bf 2528 893f
00000210: 871c 3abf 64a6 08bf f355 e13d 7a38 4cbd
00000220: 5e76 d1be 1eea 3e3f 5ca1 713e 7cee 22be
00000230: 0671 d73e 41e4 4abe 525e 0cbe 59e2 0cbf
00000240: fc3f 0bbf d019 5cbf d9bc 813e c91f babe
00000250: c894 e1be 8b35 22be 50c7 033f d85c 293f
00000260: cbfd 11be 1895 203f bea5 b43d 6722 2e3e
00000270: 485d e4bd f0ff 083f 5352 1b3f 5cf7 cebe
00000280: 5e1a 7c3d 076e 3a3e fc35 5d3f b0be b03e
00000290: 51bf 543f 89a9 333f 1e8d df3e bcd6 c43d
000002a0: 06f3 0b3f 2c4d 333e 432b 4cbf abc2 663d
000002b0: 0023 1dbe 7985 983c fa94 983f fd17 d93e
000002c0: 2c77 eabe 4333 b6be a980 6abe 91c9 01bf
000002d0: 69ce 1a3f 746e 513e 01c9 bdbe 706e 87bf
000002e0: 09d5 ba3f 151e 87bd 9b75 e73d b9cc 0abe
000002f0: c0fe 03bf e3ac 093d 9cf5 eebe 3662 233d
00000300: b7d4 5cbe 3f64 35be ac74 4a3f 3480 073f
00000310: 706c e9be 7438 ee3e 7dcd 27bf b31c 84be
00000320: 665d a6be a0de e5be 6ca5 983d de01 96be
00000330: db8e 2bbd 81bd 22bf 6c37 0fbf 87b6 0fbf
00000340: a195 a03e b10b 003d 4592 423c 516d 273e
00000350: 8b19 d1bd 94c8 853d 551d b3bd dd40 a53e
00000360: 2ef9 94be 690c d13e b0b2 043e b076 5fbe
00000370: 8ebd 703e 0be4 04bf 7cfc 3d3d 72df 1d3f
00000380: 240c 34be c81b dabe bbb5 a2be 823d af3d
00000390: c6c2 e33c 2191 eebe be39 91bf a30f abbd
000003a0: 596e f7be 0dae b4ba c976 853e db5a acbe
000003b0: f639 b6be 9e53 2f3f 788a 1dbe b162 b33d
000003c0: 70b9 723e 26eb 8f3e aa51 903e 9bda 3dbf
000003d0: ae14 c63c 59b1 953e c3e3 0b3f 0ae1 b4be
000003e0: 3f49 6ebe 1bea 6abe bc95 fd3d c9aa 193f
000003f0: 2306 a4bf ec92 2e3e 5615 ab3d 0e5f 59be
0.003367668 -0.08703461 -0.60999084 0.21455742 0.16196583 -0.6103601 -0.19781391 0.58384496
0.33782867 0.118677825 -0.3556673 0.22212371 1.1396546 0.17971341 -0.20043035 0.25958985
-0.5770934 -0.65785015 -0.6618427 -0.55988973 -0.69471323 -0.64728683 -0.21465613 0.7228604
0.00011813918 1.0091413 0.2639293 0.013076422 -0.11313878 0.9019565 -0.6491509 -0.31671897
-0.39800552 -0.47616258 0.4833231 0.097828835 -0.37201503 0.45583528 0.4059809 -0.52742887
-0.33904693 0.6663357 -0.4881283 0.27279577 -0.60667497 -0.4457183 0.09027258 -0.59539205
0.74817204 -0.54621357 -0.41858453 1.1610285 -0.48054224 -0.40355027 -0.09653649 0.2343366
-0.36184937 0.11550601 0.43839377 -0.10088769 0.554631 0.2781438 0.10297003 0.5273064
0.7670093 0.54534155 -0.069466695 0.38097334 -0.13537979 -0.07574887 0.7671813 0.36233127
0.64525884 0.11110694 0.396507 0.6315885 -0.18723278 -0.03646307 -0.66153455 0.20763278
-0.035851363 0.59129894 -0.78358793 0.6794756 0.009061095 -0.12702014 -1.5293567 0.46632117
-0.8739258 1.4005474 0.16984344 -0.30006078 0.55217737 0.2455169 -0.24088487 -0.083949216
-0.5604589 -0.36255595 0.18163753 0.3143709 0.13569115 0.21451303 -0.6916371 0.10378371
0.10651902 0.3510098 -0.30984786 -1.1402076 0.48060307 1.0082679 -0.54597265 -0.35964984
-1.2004707 0.49755123 -0.5565575 0.21692473 -0.62633944 0.18515389 0.7042023 -1.464297
-0.64605623 0.38494217 -1.0156649 1.0239396 -0.7907507 0.47992006 0.07106757 0.8653802
0.49636295 -1.2391291 -0.65094316 1.0715376 -0.7269978 -0.5337889 0.11002722 -0.049858548
-0.4091062 0.74575984 0.2359671 -0.15911287 0.42078418 -0.19813634 -0.13707855 -0.5503288
-0.5439451 -0.85976887 0.25339392 -0.36352375 -0.44058824 -0.15840738 0.51476 0.66157293
-0.1425697 0.627275 0.08820675 0.17005311 -0.111506045 0.5351553 0.6067249 -0.40423095
0.061548583 0.18206035 0.864105 0.34520483 0.83104426 0.70180565 0.4366235 0.0961127
0.546677 0.17509907 -0.7975351 0.056337994 -0.15345383 0.018618332 1.1920464 0.42401114
-0.45794046 -0.35585985 -0.22900642 -0.5069819 0.60471207 0.20452291 -0.37067416 -1.0580578
1.4596263 -0.065975346 0.11301728 -0.13554658 -0.5156059 0.033612143 -0.4667176 0.039888583
-0.2156552 -0.17714022 0.7908428 0.5293 -0.45590544 0.46527445 -0.65547925 -0.25803146
-0.32493132 -0.44896412 0.07453427 -0.292983 -0.041884284 -0.6357041 -0.5594394 -0.5613789
0.31364158 0.03126115 0.011875694 0.16350295 -0.1020995 0.06532398 -0.08745829 0.3227605
-0.2909636 0.4082978 0.12958789 -0.2182262 0.2350981 -0.51910466 0.046383366 0.61669075
-0.17582756 -0.4259932 -0.31779274 0.085566536 0.027802836 -0.465951 -1.1345747 -0.08352592
-0.48326376 -0.0013784781 0.26067188 -0.33663067 -0.35591096 0.68486965 -0.15384853 0.08759058
0.23703551 0.28109092 0.28187305 -0.7416169 0.024179783 0.29236868 0.5464441 -0.3532794
-0.23270129 -0.22940867 0.12382075 0.6002622 -1.2814373 0.17048234 0.08353679 -0.21227667

network_body._body_endoder.seq_layers.0.bias f4 [128]
00000000: 0000 0000 0000 0000 0000 0000 0000 0000
00000010: 0000 0000 0000 0000 0000 0000 0000 0000
00000020: 0000 0000 0000 0000 0000 0000 0000 0000
00000030: 0000 0000 0000 0000 0000 0000 0000 0000
00000040: 0000 0000 0000 0000 0000 0000 0000 0000
00000050: 0000 0000 0000 0000 0000 0000 0000 0000
00000060: 0000 0000 0000 0000 0000 0000 0000 0000
00000070: 0000 0000 0000 0000 0000 0000 0000 0000
00000080: 0000 0000 0000 0000 0000 0000 0000 0000
00000090: 0000 0000 0000 0000 0000 0000 0000 0000
000000a0: 0000 0000 0000 0000 0000 0000 0000 0000
000000b0: 0000 0000 0000 0000 0000 0000 0000 0000
000000c0: 0000 0000 0000 0000 0000 0000 0000 0000
000000d0: 0000 0000 0000 0000 0000 0000 0000 0000
000000e0: 0000 0000 0000 0000 0000 0000 0000 0000
000000f0: 0000 0000 0000 0000 0000 0000 0000 0000
00000100: 0000 0000 0000 0000 0000 0000 0000 0000
00000110: 0000 0000 0000 0000 0000 0000 0000 0000
00000120: 0000 0000 0000 0000 0000 0000 0000 0000
00000130: 0000 0000 0000 0000 0000 0000 0000 0000
00000140: 0000 0000 0000 0000 0000 0000 0000 0000
00000150: 0000 0000 0000 0000 0000 0000 0000 0000
00000160: 0000 0000 0000 0000 0000 0000 0000 0000
00000170: 0000 0000 0000 0000 0000 0000 0000 0000
00000180: 0000 0000 0000 0000 0000 0000 0000 0000
00000190: 0000 0000 0000 0000 0000 0000 0000 0000
000001a0: 0000 0000 0000 0000 0000 0000 0000 0000
000001b0: 0000 0000 0000 0000 0000 0000 0000 0000
000001c0: 0000 0000 0000 0000 0000 0000 0000 0000
000001d0: 0000 0000 0000 0000 0000 0000 0000 0000
000001e0: 0000 0000 0000 0000 0000 0000 0000 0000
000001f0: 0000 0000 0000 0000 0000 0000 0000 0000
0.0 0.0 0.0 0.0 0.0 0.0 0.0 0.0
0.0 0.0 0.0 0.0 0.0 0.0 0.0 0.0
0.0 0.0 0.0 0.0 0.0 0.0 0.0 0.0
0.0 0.0 0.0 0.0 0.0 0.0 0.0 0.0
0.0 0.0 0.0 0.0 0.0 0.0 0.0 0.0
0.0 0.0 0.0 0.0 0.0 0.0 0.0 0.0
0.0 0.0 0.0 0.0 0.0 0.0 0.0 0.0
0.0 0.0 0.0 0.0 0.0 0.0 0.0 0.0
0.0 0.0 0.0 0.0 0.0 0.0 0.0 0.0
0.0 0.0 0.0 0.0 0.0 0.0 0.0 0.0
0.0 0.0 0.0 0.0 0.0 0.0 0.0 0.0
0.0 0.0 0.0 0.0 0.0 0.0 0.0 0.0
0.0 0.0 0.0 0.0 0.0 0.0 0.0 0.0
0.0 0.0 0.0 0.0 0.0 0.0 0.0 0.0
0.0 0.0 0.0 0.0 0.0 0.0 0.0 0.0
0.0 0.0 0.0 0.0 0.0 0.0 0.0 0.0

network_body._body_endoder.seq_layers.2.weight f4 [128, 128]
00000000: 2060 16bd db3d 2a3e 3073 55bc 4a78 bdbd
00000010: b362 9b3d b644 50ba fb99 cfbd 6f1a 4b3d
00000020: 58a9 bfbd 0620 ec3d f944 be3b c735 0c3b
00000030: de33 4abd 3296 afbd 9b19 9db9 ed83 c93d
00000040: c08c 903d ff49 36be 0435 243e 358e 7e3d
00000050: 4abe d0bd 1387 ee3b 3b73 83bd c26f b83c
00000060: 0f36 c43d ad91 0abe 1bf3 cebd 3d19 2bbc
00000070: 1826 f23d 8e4c f5bc afc1 abbc 09b5 8c3d
00000080: f512 e83c 6440 0b3d 1f32 163c b9f6 ebbc
00000090: f074 d1bd 0ca9 19be 1b75 75bd a697 afbd
000000a0: 2e3e 543d e6ef de3d ca05 633d d755 ef3c
000000b0: 012b c43d 250d febc b85d 10bd 6301 bc3c
000000c0: 2eb1 cc3c b35d 60bd a063 e5bd d859 afbd
000000d0: b171 1e3d 1af4 7bbe 2c8f dfbc d161 eabc
000000e0: 51b0 c1bd 1f70 96bd 03b5 24be 19bb 11bc
000000f0: 1a6b 3bbd 4e3c 873d 2508 f9bd 3d89 60bc
00000100: 5005 01be 546e 48bd 1724 d93c 5390 d53d
00000110: 0a6e 3ebd c8f0 8bbc 6e83 263d 770b edbc
00000120: ba19 abbc ad31 56bd 97a3 f9bc 9a5f 90bd
00000130: 1037 053d 2cbb 69bd dcb3 783d 9741 75bd
00000140: 54bd 113d 03f0 f23c 05b1 5a3d d588 d7bc
00000150: 9ab5 0fbd 1ddd 9a3c fa37 db3d a421 8dbd
00000160: 0da8 41bc 5b84 1dbe ba0d 183d c653 273d
00000170: 008b aab9 ddb2 c63d 09e0 8fbd 8270 1ebe
00000180: 1ac0 15bc ad47 853d e60b a4bd 5f56 ca3d
00000190: c2fd 5bbc 64ce ccbc 2b41 033e 7217 20be
000001a0: 4d87 b5bc b9df 853a 34d6 48bd 3b09 c23d
000001b0: f1f0 90bb 33ec 23bd 3403 fe3b c4a3 5fbd
000001c0: 95f1 803d b345 d93d 56ef 0d3e 1e23 62bd
000001d0: 5674 0abe 6f9d fe3d 8151 19bc 2838 40bb
000001e0: 456d 323d a68c 2abb ea91 89bd c6fe df3d
000001f0: 6a0a 32bd 23d2 0f3e 5410 21be b0fe 453c
00000200: 7d2f dfbc c03e 35bd 6ae4 8bbd e95e d63d
00000210: 56c7 013d 398b 1fbe 59ff 90bc d2d8 813d
00000220: 8f04 01bd 7514 9cbc d5df d7bd 272e 073e
00000230: a972 a13c fd2b 613d 4437 66bb c774 2dbe
00000240: 3d3c e2bd fefc 08be 5ded 6cbd a0da 97bd
00000250: bb68 bbbd c176 6dbc 3af7 723d dce5 89bd
00000260: 3d7b 293d 846d db3d c47d 03bd 8952 56bc
00000270: fa8c 423c eb6b 02be d0f4 5cbd 3ec9 98bd
00000280: 5ba9 c63d e83f 6cbd 1cf6 19bd 6aae bf3c
00000290: d3df 9d3d 8438 f83d 2f21 9e3b d505 2ebd
000002a0: 4706 a0bd a44d a83d c0b0 2cbd f4d3 2b3c
000002b0: 00a2 b0bc 2c78 25bd ec1a f7bd ed46 31bd
000002c0: b2ac 353d 8f2c 81bd 36b5 cbbd cd0b b4bd
000002d0: 2734 5a3d ea61 e1bb 28a6 9ebb f6c0 cb3d
000002e0: 29ad d43b 158b 7f3c 61ab d83c 0ab7 2abd
000002f0: 950f d5bd 8245 e03b ddd4 44bb b6ab 783d
00000300: 7bb9 c9bd 8c9d 9f3a f5fe 213e cf0c 15bd
00000310: 17e0 ef3d 88e5 9cbc 3c96 8c3d 6334 1b3e
00000320: 5c17 633c 5563 a33d 866a 28bd 8706 d83d
00000330: 149a 9a3d 68e3 b03d 97f2 67bd db4c 7a3d
00000340: 4e7b c03d 2977 3bbe 76c3 a43d da24 c73d
00000350: 4503 83bd a2cb 3dbb afe1 84bc 27f3 0abd
00000360: b45b 9abb bddd 06be 38a0 433d 211e 8cbd
00000370: 9a31 ccbd dfe4 f0bc bfa5 063e 0247 c23c
00000380: b136 fcbc 36e9 2d3e 5e4e 443e f4c0 90bc
00000390: 2adf d2bd 5533 09be 389b 29bd f199 77bd
000003a0: c46d cc3d 7875 f9bd eb10 d3bd 00a0 15be
000003b0: b889 0cbe 9a28 173e 13ab 72bd a075 9ebd
000003c0: f89f bd3d cfae 8fbd 9ee8 c1bc f2b8 463d
000003d0: c51c e3bd 2346 333d cbbc c8bd a7a3 523e
000003e0: ab2b 9dbd 6a19 14bc ca2b fc3d 8a91 3b3e
000003f0: d5a3 493d 4073 63bd 48aa 4ebd 36f0 10bd
-0.036712766 0.16625158 -0.013027951 -0.09251459 0.07587185 -0.0007944809 -0.10136791 0.049585756
-0.09358472 0.115295455 0.005806562 0.0021394358 -0.04936587 -0.08573569 -0.0002996445 0.09839616
0.07058096 -0.17801665 0.16035849 0.062147338 -0.10192545 0.0072792857 -0.06418463 0.022514228
0.09580623 -0.13532133 -0.101049624 -0.010443029 0.11823672 -0.02994373 -0.020966379 0.06870467
0.028329352 0.033996955 0.009167223 -0.02880417 -0.10227382 -0.15005893 -0.059926134 -0.085738465
0.05181711 0.10885601 0.055425443 0.029215736 0.09578515 -0.031012127 -0.035245627 0.02294988
0.02498683 -0.05477686 -0.112006426 -0.08562058 0.038682643 -0.24604836 -0.02728995 -0.028611096
-0.09457458 -0.07345604 -0.16084675 -0.008894705 -0.045756437 0.06603299 -0.121597566 -0.013704595
-0.12599683 -0.048933342 0.026506467 0.10427918 -0.04649166 -0.017082587 0.040652685 -0.02893613
-0.02088629 -0.05229347 -0.030473514 -0.070494846 0.032523215 -0.057063267 0.060718402 -0.059877004
0.035580948 0.029655462 0.053391475 -0.026310364 -0.035085298 0.018904263 0.10704036 -0.06891182
-0.011819852 -0.15382521 0.037122466 0.040851377 -0.0003252849 0.09702084 -0.07025153 -0.15472606
-0.009140039 0.06507812 -0.08010082 0.09879755 -0.0134272 -0.025000758 0.12817828 -0.15633944
-0.022159243 0.0010213769 -0.049032405 0.09474417 -0.0044232537 -0.04002018 0.0077518467 -0.05459954
0.06296078 0.10608997 0.1386083 -0.05520927 -0.13520941 0.12432372 -0.009357811 -0.0029330347
0.04356124 -0.0026023774 -0.06717284 0.10937266 -0.043466963 0.14045005 -0.15728885 0.012084648
-0.027244324 -0.044249296 -0.06830676 0.104673214 0.031684242 -0.15580453 -0.017699884 0.06340183
-0.031498488 -0.019052723 -0.105407394 0.132012 0.019707995 0.05497359 -0.0035128156 -0.16939078
-0.11046646 -0.13377759 -0.057843555 -0.07414746 -0.09150835 -0.014493645 0.059317805 -0.06733295
0.041377295 0.10714248 -0.03210236 -0.013081201 0.011874432 -0.1273648 -0.05394441 -0.07460259
0.09700271 -0.057678133 -0.037588224 0.023398597 0.07708707 0.121201545 0.004825733 -0.04248603
-0.07813697 0.08217934 -0.04216075 0.010487545 -0.021561623 -0.040397808 -0.12065682 -0.04328053
0.04435415 -0.06307327 -0.099466726 -0.08791313 0.053272393 -0.0068781273 -0.0048415847 0.09948914
0.006490369 0.015597125 0.026448907 -0.041678466 -0.10403363 0.0068442235 -0.0030034103 0.06071063
-0.09849831 0.001217769 0.15819915 -0.03638917 0.117126636 -0.019152418 0.068645924 0.15156703
0.01386055 0.079779305 -0.041117214 0.1054812 0.07548919 0.08637124 -0.056627836 0.06110845
0.093985185 -0.18307175 0.08045094 0.09723826 -0.06397108 -0.0028960486 -0.016220896 -0.033923294
-0.004710639 -0.13170524 0.04776022 -0.06841684 -0.09970398 -0.02940601 0.13149165 0.0237155
-0.030787798 0.16983494 0.1917052 -0.017670132 -0.102964714 -0.13398488 -0.041407794 -0.060449544
0.09981874 -0.121806085 -0.10305961 -0.14611816 -0.1372441 0.14761582 -0.05924518 -0.07737279
0.09259027 -0.07015764 -0.02367049 0.04851622 -0.11089472 0.04376806 -0.098016344 0.20570241
-0.07674345 -0.009039262 0.123130396 0.18317237 0.049228508 -0.055529833 -0.05045536 -0.035385333

network_body._body_endoder.seq_layers.2.bias f4 [128]
00000000: 0000 0000 0000 0000 0000 0000 0000 0000
00000010: 0000 0000 0000 0000 0000 0000 0000 0000
00000020: 0000 0000 0000 0000 0000 0000 0000 0000
00000030: 0000 0000 0000 0000 0000 0000 0000 0000
00000040: 0000 0000 0000 0000 0000 0000 0000 0000
00000050: 0000 0000 0000 0000 0000 0000 0000 0000
00000060: 0000 0000 0000 0000 0000 0000 0000 0000
00000070: 0000 0000 0000 0000 0000 0000 0000 0000
00000080: 0000 0000 0000 0000 0000 0000 0000 0000
00000090: 0000 0000 0000 0000 0000 0000 0000 0000
000000a0: 0000 0000 0000 0000 0000 0000 0000 0000
000000b0: 0000 0000 0000 0000 0000 0000 0000 0000
000000c0: 0000 0000 0000 0000 0000 0000 0000 0000
000000d0: 0000 0000 0000 0000 0000 0000 0000 0000
000000e0: 0000 0000 0000 0000 0000 0000 0000 0000
000000f0: 0000 0000 0000 0000 0000 0000 0000 0000
00000100: 0000 0000 0000 0000 0000 0000 0000 0000
00000110: 0000 0000 0000 0000 0000 0000 0000 0000
00000120: 0000 0000 0000 0000 0000 0000 0000 0000
00000130: 0000 0000 0000 0000 0000 0000 0000 0000
00000140: 0000 0000 0000 0000 0000 0000 0000 0000
00000150: 0000 0000 0000 0000 0000 0000 0000 0000
00000160: 0000 0000 0000 0000 0000 0000 0000 0000
00000170: 0000 0000 0000 0000 0000 0000 0000 0000
00000180: 0000 0000 0000 0000 0000 0000 0000 0000
00000190: 0000 0000 0000 0000 0000 0000 0000 0000
000001a0: 0000 0000 0000 0000 0000 0000 0000 0000
000001b0: 0000 0000 0000 0000 0000 0000 0000 0000
000001c0: 0000 0000 0000 0000 0000 0000 0000 0000
000001d0: 0000 0000 0000 0000 0000 0000 0000 0000
000001e0: 0000 0000 0000 0000 0000 0000 0000 0000
000001f0: 0000 0000 0000 0000 0000 0000 0000 0000
0.0 0.0 0.0 0.0 0.0 0.0 0.0 0.0
0.0 0.0 0.0 0.0 0.0 0.0 0.0 0.0
0.0 0.0 0.0 0.0 0.0 0.0 0.0 0.0
0.0 0.0 0.0 0.0 0.0 0.0 0.0 0.0
0.0 0.0 0.0 0.0 0.0 0.0 0.0 0.0
0.0 0.0 0.0 0.0 0.0 0.0 0.0 0.0
0.0 0.0 0.0 0.0 0.0 0.0 0.0 0.0
0.0 0.0 0.0 0.0 0.0 0.0 0.0 0.0
0.0 0.0 0.0 0.0 0.0 0.0 0.0 0.0
0.0 0.0 0.0 0.0 0.0 0.0 0.0 0.0
0.0 0.0 0.0 0.0 0.0 0.0 0.0 0.0
0.0 0.0 0.0 0.0 0.0 0.0 0.0 0.0
0.0 0.0 0.0 0.0 0.0 0.0 0.0 0.0
0.0 0.0 0.0 0.0 0.0 0.0 0.0 0.0
0.0 0.0 0.0 0.0 0.0 0.0 0.0 0.0
0.0 0.0 0.0 0.0 0.0 0.0 0.0 0.0

action_model._discrete_distribution.branches.0.weight f4 [2, 128]
00000000: c2ee 0f3c 502f cebb 8ac0 f8bb 18fe ac3b
00000010: 2fbd 263c ff9c 16bc 27b9 943b 00c8 453a
00000020: 6d86 5abb 2492 1f3c 0bf3 103c e6e5 b2bb
00000030: 69a0 3e3a 0b9c d43b 9f04 ef3b 4157 cabb
00000040: 8791 2fbc 3a20 003c 1ad9 5bbb e63b c8ba
00000050: 4b3c 78ba dab9 c53a cc03 3ebb f7d1 253c
00000060: 276d e23b d482 1b3c a7d4 fbbb 2088 8d3b
00000070: 644b 363c e46d bd3c 0314 2cba 8fe8 ceba
00000080: e7d9 153c 05db 50bb a138 13bc 5295 0f3c
00000090: 4a14 dabb 45f2 15bb 058b e538 8a74 78bc
000000a0: 0f63 233b abaa 1ebc 5eec 2338 1d2d 253c
000000b0: 3ea4 023c 6366 693c 2bf4 5b3c 0d56 b0bb
000000c0: 5d9c 57bb 4665 0a3c c94b b0bc cf1b 21bc
000000d0: 0c50 22bc 67d8 44bc fb34 0cbc 9bdf 053c
000000e0: 90d3 d83c 2b72 8cbb a72a aabb 4b88 09bc
000000f0: 83a0 2fbc 51cb ca3b 553a 78bb 8ab0 d8bc
00000100: e2e6 deba 3762 21bc 668d 3cbc fb97 aebc
00000110: e53a 053c 9ad6 4ebb 73e3 e23b a474 1cbc
00000120: 23ab c43b 1252 e1ba 0716 84bb 6fe0 cdbb
00000130: 716a 253a 12d6 ebbb 0b57 06bc 7a55 acbb
00000140: 95cd c23a 730f d53a 866b b7bc 6893 6dbc
00000150: 5d3d 3fbc 7a01 e23a 8431 c43b 556f 55bc
00000160: 77fd a83c d3c2 88bb e429 b6bb 4c66 923b
00000170: fb5d 193b 235a 5dbc fc4e 1a3c 45ee efbb
00000180: dd0f 12bc 1292 a339 2036 3a3c 75ec 573b
00000190: 33ae 95bb 7bbc 973b 4898 5b3a f9b3 133b
000001a0: c015 e4bb 96ee 19bc 9e02 14bc daf1 fa3b
000001b0: 5ca9 08bc 38f4 50bc bba7 933b 58c6 19bc
000001c0: 821f 2fb9 f3e6 25bc 7c5a 27bc 6c2f 17bc
000001d0: 048f 0f3c ce8f 31bc 45b5 903b 17ea 1bbb
000001e0: c3d1 b6bc 7829 5e3a 1efb 803b 90d3 54bb
000001f0: 6a48 0e3b 78e2 013c c973 91bc 0a3b efbb
00000200: 6b2e b23b 5dcf 7ebc 4ba4 dd3a 514d b3b9
00000210: 23cc 22bc dd8c 52bc 684f 31bb dbaa 9d3b
00000220: f4c9 41bc 30b8 41bb 7f28 48bb 58ba 923b
00000230: 128a 0abc ef29 8dba 820a 8aba e065 1d3b
00000240: 31e5 2f3b fd48 e93b 351f 103c b893 e8bb
00000250: 0126 b9bb 970f c13b 17bc 433c c652 853c
00000260: 3b0f c23a 50bb 57bc c351 543b 2fe4 883b
00000270: 4fb7 93bc a834 ba3b dddc 603b 07c9 cbbc
00000280: e5de 90bc ebdb 0bbc ebe4 353c b23f ce3b
00000290: c3f2 013c 5ab2 5aba 8672 00bc 475b 953b
000002a0: 7a3b ecbb ed78 383a 0f3a 36bb 57d5 50bc
000002b0: f498 383b 7766 41bc ad4b 2e3c bad2 8cbb
000002c0: b343 903b 8a1c f4bb 0c21 313b df68 a5bc
000002d0: a0d6 d9ba c0f0 86bc 0fca 4b3b e5a3 6a3c
000002e0: a508 09bc 2a8c bebb aa1b efbb 8a0e b23b
000002f0: eb44 31bc 741f 35bc 8216 33bc e4e4 263b
00000300: 172f ec3b f235 8c3a fd97 023c 8759 86bc
00000310: 7fef 9a3b 92e4 a3bc 067e a23b e772 9e3b
00000320: 1229 fb38 8d24 b3ba 5fdd f33b 2dec 693c
00000330: 6f81 e8bb c5d4 f73b adf4 fd3b 7477 283c
00000340: 4b28 ccbb 3b16 9eba 0ca6 2eba 2203 debb
00000350: 3504 d43b ed05 dd3b afaf e73a 47b8 b8bb
00000360: 2f68 0b3b 4bb2 9c3b aba1 013b 9582 bd3b
00000370: dbcc e93a 423a 5239 0fa1 163b dfb1 b53c
00000380: a7dd 2e3c 2021 613c 6dce 743b 5ab7 133c
00000390: 93f2 4abc 0c82 22bc 0b33 9f3b 20f2 54bc
000003a0: 0678 34ba d735 203c 580a 933b 7729 fb3a
000003b0: 71ff 10bb 7b11 94bb 9403 93bb 7d59 173c
000003c0: 3e7a aabb 8cce 483c a382 6cbc 4f60 04bc
000003d0: 9a25 d7bb 0c72 153c be08 0e3c b0b9 143c
000003e0: 80af 38bc 9264 043b 9461 01bc c6d8 993b
000003f0: 4fb0 8c3b 8398 a0bb eaf7 f93b 1a09 70bc
0.008784952 -0.006292261 -0.007591312 0.005279314 0.010176941 -0.009192704 0.0045386734 0.0007544756
-0.0033344284 0.0097394325 0.008847008 -0.005459535 0.0007271828 0.0064883283 0.007294252 -0.0061749523
-0.010715849 0.007820183 -0.003354615 -0.001527664 -0.00094694336 0.0015085295 -0.0028993962 0.01012086
0.0069099846 0.009491641 -0.0076852622 0.004319206 0.011126373 0.023123689 -0.0006564261 -0.0015785861
0.00914619 -0.0031868827 -0.008985669 0.008763628 -0.0066552507 -0.002288 0.00010945465 -0.015164504
0.002493087 -0.009684245 3.9082362e-05 0.010081557 0.007973729 0.014245602 0.013424913 -0.005381352
-0.0032899596 0.008446997 -0.021520512 -0.00983329 -0.00990678 -0.012014485 -0.008557553 0.0081709875
0.026468068 -0.004286071 -0.005193073 -0.008394311 -0.010719421 0.006188788 -0.0037876565 -0.026451368
-0.0017006064 -0.009850076 -0.011508321 -0.021312704 0.008131717 -0.0031561018 0.0069240867 -0.009549294
0.0060018464 -0.0017190597 -0.004030946 -0.006282858 0.00063101115 -0.00719715 -0.008199464 -0.005259213
0.0014862294 0.0016255215 -0.022390138 -0.014500476 -0.011672345 0.0017242872 0.005987348 -0.013027032
0.020628674 -0.0041736155 -0.005559193 0.004467761 0.0023401964 -0.01351026 0.009418245 -0.007322105
-0.008914915 0.00031198614 0.0113654435 0.0032947336 -0.0045678853 0.004630623 0.00083768787 0.0022537692
-0.0069606006 -0.009395262 -0.009033827 0.0076582255 -0.00834116 -0.012753539 0.004506079 -0.009385668
-0.00016701038 -0.010125863 -0.010214444 -0.009227615 0.008762125 -0.010837508 0.0044161403 -0.0023790651
-0.022316819 0.0008474807 0.0039361855 -0.0032474734 0.0021710643 0.0079275295 -0.017755406 -0.007300739
0.0054376624 -0.015552369 0.0016909925 -0.00034199146 -0.009936365 -0.012850967 -0.0027055386 0.0048116273
-0.0118279345 -0.0029559247 -0.0030541716 0.0044777803 -0.00845577 -0.0010769943 -0.0010531696 0.002401702
0.002683949 0.0071192966 0.008796503 -0.0070976876 -0.0056502824 0.005891751 0.0119467 0.016274821
0.0014805564 -0.013167217 0.0032397367 0.004177592 -0.018031744 0.0056825466 0.0034311332 -0.02487613
-0.01768441 -0.008536319 0.011101942 0.006294214 0.007931414 -0.00083426165 -0.0078398045 0.0045580002
-0.0072092386 0.00070370623 -0.0027805602 -0.012746177 0.002816734 -0.011804215 0.01063816 -0.0042975815
0.0044026016 -0.007449691 0.0027027754 -0.020191608 -0.0016619749 -0.01647222 0.0031095778 0.014321302
-0.008363877 -0.0058150487 -0.007296999 0.005433862 -0.010819654 -0.011054862 -0.010930659 0.002546602
0.007207762 0.0010697229 0.007970807 -0.016400112 0.004728257 -0.020006452 0.004958871 0.004835475
0.000119762626 -0.0013667509 0.007442161 0.0142775 -0.007095508 0.007563206 0.007750115 0.010282386
-0.0062303892 -0.0012061069 -0.0006662316 -0.006775276 0.006470228 0.006745091 0.0017676259 -0.005637202
0.0021271815 0.0047819964 0.00197802 0.005783389 0.0017837541 0.00020048863 0.0022984182 0.022179542
0.010672963 0.013740808 0.0037354485 0.009015882 -0.012386936 -0.009918701 0.0048583797 -0.01299718
-0.000688434 0.009778461 0.004487317 0.0019162138 -0.0022124911 -0.0045186854 -0.0044865105 0.009237644
-0.0052025607 0.012256276 -0.014435443 -0.008079602 -0.0065657618 0.009121429 0.0086690765 0.0090774745
-0.011272311 0.0020201546 -0.0078968 0.004695031 0.0042934786 -0.0049009933 0.0076284306 -0.0146506075

action_model._discrete_distribution.branches.0.bias f4 [2]
00000000: 0000 0000 0000 0000
0.0 0.0

network_body._body_endoder.seq_layers.0.weight f4 [128, 4]
00000000: 211c 283f cab3 babd fd20 cc3e b678 88bf
00000010: 06aa f6bd ce95 da3e e711 c9be 31fd fe3e
00000020: fdf0 87bf b0f0 2c3f c830 753e ad8a 2f3d
00000030: d2cd ed3e 47d1 f0be 74f6 313f 4f13 303d
00000040: 5606 53bf 36d4 dcbc 550c 053e 1d27 a33e
00000050: 1c3e 023f d40d de3e 98e3 8c3e 5ad8 9f3e
00000060: c2bc 1abf f502 26bf b28b c43e 99a8 82be
00000070: 6508 41be 0bf7 5abe dff3 5abe 8fc0 8c3d
00000080: 7244 acbe 41a3 1b3f 79bb e2be ce28 26bf
00000090: 6c52 213e 1921 a13e 7e38 f43d 3ee2 d53e
000000a0: 70cf 443f 6b6d ae3e 18f7 c53e 1a7b b13e
000000b0: 24f2 2cbe 7b9e 93be 4ad8 bc3e e8cc 2abe
000000c0: 0609 123f 3e11 7bbe 9409 833d 1abc 99be
000000d0: dbf7 043f 300c 533f 0925 ca3e 285e 603c
000000e0: 01a9 ae3e bcfe 873f 61c5 3fbe e076 0fbf
000000f0: 477c 1f3c 3a76 13bd 490c 16bf f012 bebc
00000100: fd94 8b3d 578b ccbe ed28 11be 6769 afbd
00000110: 46a9 73be f492 b33e 770f 323f 785a 183f
00000120: f3ae 0f3d b889 f43e a99e 1c3f 3007 20bf
00000130: 62c6 02bf dc0f 053d c99d c0be 497d b23e
00000140: 3400 603e 3444 453e 0845 9dbd 17c1 31bf
00000150: db25 63bf efe8 f53e b57d 6b3f 85f6 223c
00000160: 4ae2 8dbe eb1a 0bbf 4c3b 703e ffc7 8d3f
00000170: 2b4c 303f 7649 6d3f 37dd 653e ba66 413e
00000180: 4106 b7bd cd26 8ebe ffe9 52bd 66bc e3be
00000190: aaa2 cabe 96ef ebbe 42a2 71bf 105e df3e
000001a0: e196 0a3e d2e5 f7be 301a 9d3e e488 cdbe
000001b0: eebd 843e c413 ae3e 707c 08be f29d 103e
000001c0: 48e1 443d 7bb8 28be 4320 9fbe be2c fc3e
000001d0: 902a b8be 1265 43bf 3772 863e 3591 023f
000001e0: 0e6f 033f 26f4 2dbf f54b 12be 2ebf 26bf
000001f0: 7029 f23e 312b ffbe 5e97 963e 13d4 0abf
00000200: 0062 8b3e f7fc 14bf 94d8 e3be 04d1 43be
00000210: ae0c 153f d29d a63e 48ee 3b3f 8310 3cbe
00000220: 4ddb 95bf c9c0 a53e 39a2 21bf 147d e6be
00000230: 542c 93be cf45 5a3d 7f7e 68bd 66f0 ca3e
00000240: 8244 013f a504 783d 837b 15bf d080 3b3f
00000250: 06f0 afbd 7d50 663f dca2 2f3f 40c5 763e
00000260: 05f4 173f fe75 383e 19e9 0e3f 6f3d 7bbd
00000270: 2965 edbe 6d9f fc3e 80dd 25be 7a00 46be
00000280: 46cf ce3e 633b 253f 844a 8bbf 6969 773e
00000290: 38f1 b33e 1c0e afbe 7d88 81be a1a6 05be
000002a0: 4952 97bd 7c75 8c3e 21c9 45bf 1810 a73e
000002b0: b2c1 96be 1450 4c3d 7888 b93d 0112 fabe
000002c0: 1396 4bbe cf30 b53e 92ce 143f 770e b8be
000002d0: e61e 02bf 94f6 a23d c55c 15bf 2ae7 1b3d
000002e0: 1231 9cbe e4bf c53f 53c1 b13e ac05 dbbe
000002f0: ccff a8bc b748 073f 32b5 e93e 9469 d1be
00000300: 7b44 3cbe d3ad 03bc fced 1f3f 7203 66bf
00000310: 3f54 03bf 3e78 debd 7a62 4c3d 7f17 b23e
00000320: c6de 56be f38e 31bf c658 343f f4b7 15bf
00000330: 9db4 f2be d309 27bf 98a7 8ebe 0494 c2bd
00000340: 7cc9 b8bc de6d 13be 8edc 1f3e 9abb ca3e
00000350: 7719 aabc 4c71 df3e a801 acbe 381e 7d3e
00000360: 867d b13e 2834 433b b7d8 8f3e 20aa a6be
00000370: 7434 ba3e b736 01be 5072 7dbe 3f2e 3c3f
00000380: c395 97be 41ae dc3d dcf4 88be bcce 203f
00000390: 33ef 303f d276 353f 6822 f2bd f9c6 443f
000003a0: 5816 26bf c5b7 bd3e e65d 5d3f 5af5 9e3e
000003b0: fec4 28be 836e 3a3f 6d4a 41bd 83d1 bf3e
000003c0: 79dc 8c3d 74e9 1c3e c324 93be 4c0a 383f
000003d0: f714 513d c684 a83e ccbf 0c3f 4f9c 1a3f
000003e0: d3f7 33be c4e6 2cbe e927 1ebf e5a1 0cbe
000003f0: db1b 23bc 4b2a 293f 483d 78be 72e2 1d3f
0.6566792 -0.09116323 0.39868918 -1.0661838 -0.12044148 0.42692417 -0.3927147 0.49802545
-1.0620419 0.6755476 0.2394439 0.04285686 0.4644609 -0.47034666 0.6951668 0.042987164
-0.8243154 -0.026956659 0.12992986 0.3186578 0.5087602 0.43369925 0.2751739 0.3121975
-0.6044427 -0.6484826 0.3838783 -0.25519255 -0.18850859 -0.21383302 -0.21382092 0.06872665
-0.3364597 0.6079598 -0.44283655 -0.64906013 0.15754098 0.31470564 0.119248375 0.41774172
0.76879025 0.34067854 0.3866508 0.34664232 -0.16889244 -0.28831849 0.36883765 -0.16679728
0.5704502 -0.24518296 0.06398311 -0.30026323 0.519407 0.8244047 0.3948138 0.013694324
0.34113315 1.0624614 -0.18727638 -0.56040764 0.00973422 -0.03600142 -0.58612496 -0.02320239
0.06815527 -0.39950058 -0.14175768 -0.08565026 -0.23795041 0.35073054 0.6955485 0.59513044
0.035078954 0.4776132 0.61179596 -0.6251097 -0.5108396 0.032485828 -0.3762038 0.3486121
0.21875077 0.19264299 -0.07679182 -0.69435257 -0.8872964 0.48029277 0.9198869 0.00994647
-0.27711707 -0.5433795 0.2346012 1.1076659 0.68866223 0.9269022 0.22447668 0.18886843
-0.0893674 -0.27763978 -0.051492687 -0.44479674 -0.39577228 -0.46081227 -0.9438821 0.43626451
0.13534118 -0.48417526 0.30684042 -0.40143502 0.25926155 0.33999455 -0.13328719 0.14122751
0.048066407 -0.16476624 -0.310793 0.49252886 -0.35969973 -0.76326096 0.26259014 0.5100282
0.5134133 -0.67950666 -0.14286788 -0.6513547 0.4729724 -0.4983764 0.2941236 -0.5422985
0.27223206 -0.58198494 -0.44501173 -0.19122702 0.5822247 0.32542282 0.73410463 -0.18365674
-1.170755 0.32373646 -0.6313816 -0.45017302 -0.28744757 0.05328923 -0.05676126 0.39636534
0.5049516 0.060551304 -0.5839159 0.7324343 -0.08590703 0.89966565 0.6860788 0.24098682
0.5935672 0.1801376 0.5582443 -0.061337885 -0.46366242 0.49340382 -0.16197777 -0.1933612
0.40392512 0.6454374 -1.0882115 0.24161305 0.35144973 -0.34190452 -0.25299445 -0.13051845
-0.073887415 0.27433383 -0.77260023 0.32629466 -0.29444653 0.049881056 0.090592325 -0.4884186
-0.19881468 0.353888 0.581277 -0.35948536 -0.508284 0.07957187 -0.5834468 0.038062252
-0.30506188 1.5449185 0.34717807 -0.42777765 -0.020629786 0.5284533 0.45646054 -0.40900862
-0.18385498 -0.008037048 0.6247251 -0.8984901 -0.51300424 -0.10862778 0.049898602 0.3478355
-0.20983419 -0.6935875 0.7044796 -0.58483815 -0.47403422 -0.65249366 -0.2786224 -0.09500888
-0.022557013 -0.1439738 0.15611479 0.39596254 -0.020764096 0.43641126 -0.33595014 0.24718559
0.3466608 0.0029785726 0.28095028 -0.3255167 0.36368144 -0.12618528 -0.24750638 0.73508066
-0.29606447 0.10775424 -0.26749313 0.6281545 0.6911499 0.7088443 -0.11822969 0.7686611
-0.64877844 0.37054268 0.864714 0.31046563 -0.16481397 0.7282488 -0.04719012 0.37464532
0.06877989 0.1532343 -0.28738984 0.7189071 0.051045384 0.32913798 0.5498016 0.6039476
-0.17575006 -0.16884905 -0.6177965 -0.13733633 -0.009955372 0.6608016 -0.24242127 0.61673653

network_body._body_endoder.seq_layers.0.bias f4 [128]
00000000: 0000 0000 0000 0000 0000 0000 0000 0000
00000010: 0000 0000 0000 0000 0000 0000 0000 0000
00000020: 0000 0000 0000 0000 0000 0000 0000 0000
00000030: 0000 0000 0000 0000 0000 0000 0000 0000
00000040: 0000 0000 0000 0000 0000 0000 0000 0000
00000050: 0000 0000 0000 0000 0000 0000 0000 0000
00000060: 0000 0000 0000 0000 0000 0000 0000 0000
00000070: 0000 0000 0000 0000 0000 0000 0000 0000
00000080: 0000 0000 0000 0000 0000 0000 0000 0000
00000090: 0000 0000 0000 0000 0000 0000 0000 0000
000000a0: 0000 0000 0000 0000 0000 0000 0000 0000
000000b0: 0000 0000 0000 0000 0000 0000 0000 0000
000000c0: 0000 0000 0000 0000 0000 0000 0000 0000
000000d0: 0000 0000 0000 0000 0000 0000 0000 0000
000000e0: 0000 0000 0000 0000 0000 0000 0000 0000
000000f0: 0000 0000 0000 0000 0000 0000 0000 0000
00000100: 0000 0000 0000 0000 0000 0000 0000 0000
00000110: 0000 0000 0000 0000 0000 0000 0000 0000
00000120: 0000 0000 0000 0000 0000 0000 0000 0000
00000130: 0000 0000 0000 0000 0000 0000 0000 0000
00000140: 0000 0000 0000 0000 0000 0000 0000 0000
00000150: 0000 0000 0000 0000 0000 0000 0000 0000
00000160: 0000 0000 0000 0000 0000 0000 0000 0000
00000170: 0000 0000 0000 0000 0000 0000 0000 0000
00000180: 0000 0000 0000 0000 0000 0000 0000 0000
00000190: 0000 0000 0000 0000 0000 0000 0000 0000
000001a0: 0000 0000 0000 0000 0000 0000 0000 0000
000001b0: 0000 0000 0000 0000 0000 0000 0000 0000
000001c0: 0000 0000 0000 0000 0000 0000 0000 0000
000001d0: 0000 0000 0000 0000 0000 0000 0000 0000
000001e0: 0000 0000 0000 0000 0000 0000 0000 0000
000001f0: 0000 0000 0000 0000 0000 0000 0000 0000
0.0 0.0 0.0 0.0 0.0 0.0 0.0 0.0
0.0 0.0 0.0 0.0 0.0 0.0 0.0 0.0
0.0 0.0 0.0 0.0 0.0 0.0 0.0 0.0
0.0 0.0 0.0 0.0 0.0 0.0 0.0 0.0
0.0 0.0 0.0 0.0 0.0 0.0 0.0 0.0
0.0 0.0 0.0 0.0 0.0 0.0 0.0 0.0
0.0 0.0 0.0 0.0 0.0 0.0 0.0 0.0
0.0 0.0 0.0 0.0 0.0 0.0 0.0 0.0
0.0 0.0 0.0 0.0 0.0 0.0 0.0 0.0
0.0 0.0 0.0 0.0 0.0 0.0 0.0 0.0
0.0 0.0 0.0 0.0 0.0 0.0 0.0 0.0
0.0 0.0 0.0 0.0 0.0 0.0 0.0 0.0
0.0 0.0 0.0 0.0 0.0 0.0 0.0 0.0
0.0 0.0 0.0 0.0 0.0 0.0 0.0 0.0
0.0 0.0 0.0 0.0 0.0 0.0 0.0 0.0
0.0 0.0 0.0 0.0 0.0 0.0 0.0 0.0

network_body._body_endoder.seq_layers.2.weight f4 [128, 128]
00000000: 8b7d c2bd 35ea 9c3d b57a 583d 7217 99bd
00000010: e721 a3bd 1630 00be 9e2a e7bb 2e98 1cbd
00000020: f0b5 39bc 5115 ffbc 5842 4fbe 751f bc3d
00000030: c652 433d 88f7 15bd f46e c8bc 40e7 f13d
00000040: c94d a2bd acea 523d 6f84 49be c2f7 153e
00000050: 6cb9 a3bd 3fd1 d43d 301e ef3d ee3a bdbd
00000060: 5019 0dbd 4d24 ddbd feed 86bd 2ec8 96bd
00000070: 849f 3ebe c3d7 313d 757e acbd afbf aa3d
00000080: ada9 03be c9c5 bc3d 7938 4abe c846 973d
00000090: 05ac 0ebe 9b87 543d cd0b 833d 8668 223e
000000a0: 64db df3d 952e 4ebc 3e87 393d 2eb4 1d3d
000000b0: 0b81 3e3e ee7f 7c3d 6b40 113e f731 8bbd
000000c0: 0e0d 0b3e 25a0 003d 31b6 ab3d 316b 0e3d
000000d0: e754 6dbe 7251 203d 31d6 22bd 5fa2 883d
000000e0: 23a8 733d 9d04 143d a8fb f33d 3759 5c3d
000000f0: c73a 1f3c 2015 743c 9089 8fbc b089 c9bc
00000100: b86e 1abd 068b b23d 29be 163e 0deb 903d
00000110: 8d77 e53c 1e34 bf3d 9f68 c0bd 650a acbd
00000120: 46e8 2ebd 4545 24bd a99e 843d 834a 183d
00000130: dd25 143d 4257 68bc 2898 cd3d 7a09 62bc
00000140: 7862 ee3c 65f4 dd3d db9a b63d 8a27 3b3d
00000150: 544a c7bd 2b88 09bc 5bea ac3d 9b21 033e
00000160: bf2c 473c 0329 f23c 269c a0bd 7c7d 0f3e
00000170: dbeb febc 98d8 833c c1c9 80ba e924 3cbd
00000180: c346 20be ceb7 1dbe e983 2e3e 8e74 98bd
00000190: a419 c6bd d8c1 bbbd c040 0e3e 47f5 873d
000001a0: 40eb 2d3e f6c9 063e 0a78 4d3c debd eabc
000001b0: 91f2 5ebb 00e1 0b3d c3ba ed3c 3521 8bbc
000001c0: 5d78 9cbd f9d7 ff3c 6772 e43d 3b99 19be
000001d0: 7649 ec3d 1a8f 823d ed5e 593d 1d09 7fbc
000001e0: 5c70 203d 5f35 523e dbd8 ca3c 0662 b33d
000001f0: de67 f8bd ad97 aebd 510d 1d3d 206d a3bc
00000200: f0dc 373d de0b 07bc 31b7 633d 8d62 6abd
00000210: 154b 0a3d 8d44 843d aadd 92bc 951e 29be
00000220: cca0 febd 115e 74bd 9096 a43d bb11 013c
00000230: 8049 583d 4396 4e3b 0a53 583d e693 ce3d
00000240: 611c 40be ed36 c73d fa9f c83d 92a6 533e
00000250: 10b0 eabd fe23 eb3d 7c5a 9bbd 6dde 27be
00000260: 9454 b03c f0c2 9b3c ed88 30be dfd8 133e
00000270: b8a8 413e 9775 b73d f5fd f0b9 2ec0 c03c
00000280: 0476 0f3d 5cef bfbc d97d 10be 1ac0 37bd
00000290: f0b9 36bd 18d7 4f3c c099 f2bc aeb2 26bd
000002a0: 62d0 06be 11a5 6abd 1b75 e4bd a6d9 6b3d
000002b0: b5dc 04bd 082f 29bd ce3e f2bc e06f 89bd
000002c0: 6431 0e3d 0291 553e 7f02 85bd 0bf5 da3c
000002d0: 284f 0d3e a1ed 3b3d bb20 c93b c505 fdbd
000002e0: 5c24 d73d b933 5bbc 3d25 1f3e 0254 b4bd
000002f0: e2e8 ebbd d200 b0bd a7a9 683d d7c1 433d
00000300: c4aa dabb 8b5a a8bb 56b0 043d 3e5b 2fbd
00000310: 37bb 16bd 8627 12bd 33da 40be 36d1 41bd
00000320: 1495 123c d0b0 69be 88d4 b23c acd8 0b3d
00000330: 154e 073e 6262 debc 5fd2 6a3d 04a7 9fbd
00000340: c961 013d 339d 803d 96f9 f53d 6ee6 7fbc
00000350: 50db 143d 10a6 68bd a21a a7bd 4866 30bd
00000360: e25a 09be d8b2 f9bd 8ca1 083e c228 4a3d
00000370: 5a8f d83b 89ed e6bc 4f96 41bb 973f 943e
00000380: 30a7 bd3d f663 923d dcba 5f3d 666a c83d
00000390: dea6 083e 5c2f 1fbb 7d54 383d 8b4f 00be
000003a0: 4223 173e 96c6 5e3d c80f c93c b65a f7bc
000003b0: f202 e43c 6987 39bd 524f d83c ff72 f8bd
000003c0: 4d63 a23d a7ea fcbc 9761 733d 8e7b f0bb
000003d0: 125a 453d a4f0 823e ef19 68bd 41f0 203c
000003e0: 6dfd aebd 083a 2abd bea2 e6bd c08b 463d
000003f0: 3649 93bd cc3a f7bc 140d 963d 8bd7 d1bd
-0.09496602 0.07661859 0.052851398 -0.07475175 -0.07965451 -0.12518343 -0.007054641 -0.038231067
-0.011334881 -0.031138094 -0.20240152 0.091856875 0.04768636 -0.036613017 -0.02446697 0.118116856
-0.079249926 0.05149333 -0.19679426 0.14645293 -0.07994351 0.10391473 0.1167568 -0.092397556
-0.034447968 -0.107979394 -0.06588362 -0.073624 -0.18615538 0.043418657 -0.08422557 0.08337342
-0.12857695 0.09217412 -0.19748105 0.07386547 -0.13932808 0.051887136 0.06398735 0.15860185
0.10930517 -0.012584348 0.045294993 0.03850191 0.18603913 0.06164544 0.1418473 -0.067966394
0.13579199 0.031402726 0.0838436 0.034770194 -0.23176919 0.039140172 -0.03975505 0.06671595
0.05948652 0.036137212 0.11913234 0.05379602 0.009718603 0.014897615 -0.01752165 -0.024601787
-0.037703246 0.08717923 0.14720978 0.070760824 0.028011108 0.093361124 -0.09394955 -0.0840042
-0.042701982 -0.040105123 0.064755745 0.037180435 0.03616892 -0.01418096 0.10038787 -0.013796205
0.029099688 0.1083763 0.08916255 0.045692004 -0.09730974 -0.008394281 0.08443137 0.12805788
0.012156664 0.029560572 -0.07842283 0.14012712 -0.031118324 0.01609449 -0.0009825752 -0.045933638
-0.15651993 -0.15402147 0.17042507 -0.07444106 -0.09672859 -0.09167832 0.13891888 0.0663858
0.16984272 0.1316298 0.012540827 -0.028654989 -0.0034019093 0.034150124 0.029019719 -0.016983608
-0.07640145 0.031230913 0.11154633 -0.14999859 0.11537449 0.06374951 0.053069044 -0.015566138
0.039169654 0.20528172 0.024761608 0.08758931 -0.12129186 -0.085250236 0.038342778 -0.019949496
0.044888437 -0.008242575 0.055594627 -0.05722289 0.03376301 0.064583875 -0.017927963 -0.16515572
-0.12433013 -0.05966002 0.0803653 0.007877762 0.05280447 0.0031522668 0.052813567 0.10086803
-0.18760826 0.09727273 0.09796138 0.2066901 -0.114593625 0.11481474 -0.07585618 -0.16393442
0.021524705 0.019013852 -0.17239733 0.14438199 0.18912017 0.08957975 -0.0004596558 0.023529138
0.035024658 -0.023429565 -0.14110507 -0.044860937 -0.044610918 0.01268556 -0.02961433 -0.040697746
-0.13165429 -0.057286326 -0.111551486 0.057580613 -0.032437045 -0.041304618 -0.029570963 -0.067107916
0.03471507 0.20856097 -0.06494617 0.026728174 0.13799727 0.045880917 0.006137935 -0.12354616
0.10504982 -0.013379031 0.15541549 -0.08805086 -0.11519028 -0.085939065 0.056802418 0.047792282
-0.006673189 -0.0051377467 0.03239473 -0.042811625 -0.036799636 -0.035682224 -0.18833236 -0.04731866
0.008946676 -0.22821355 0.021829858 0.03414218 0.1321338 -0.027146522 0.05732953 -0.077955276
0.031587396 0.06279983 0.12010495 -0.015618904 0.036341965 -0.056798995 -0.08159377 -0.043066293
-0.13413575 -0.12192315 0.13342875 0.049355276 0.0066088857 -0.028189437 -0.0029539054 0.28954765
0.09260404 0.07147972 0.054621562 0.09785919 0.13344905 -0.0024289703 0.04500245 -0.12530343
0.14759544 0.054388605 0.024543658 -0.030194622 0.027833436 -0.045295153 0.02640501 -0.12131309
0.07929096 -0.03087361 0.05941924 -0.0073389476 0.0481816 0.2557422 -0.056665357 0.009822906
-0.08544431 -0.04155925 -0.11261509 0.04847312 -0.07191698 -0.030179404 0.07326713 -0.1024619

network_body._body_endoder.seq_layers.2.bias f4 [128]
00000000: 0000 0000 0000 0000 0000 0000 0000 0000
00000010: 0000 0000 0000 0000 0000 0000 0000 0000
00000020: 0000 0000 0000 0000 0000 0000 0000 0000
00000030: 0000 0000 0000 0000 0000 0000 0000 0000
00000040: 0000 0000 0000 0000 0000 0000 0000 0000
00000050: 0000 0000 0000 0000 0000 0000 0000 0000
00000060: 0000 0000 0000 0000 0000 0000 0000 0000
00000070: 0000 0000 0000 0000 0000 0000 0000 0000
00000080: 0000 0000 0000 0000 0000 0000 0000 0000
00000090: 0000 0000 0000 0000 0000 0000 0000 0000
000000a0: 0000 0000 0000 0000 0000 0000 0000 0000
000000b0: 0000 0000 0000 0000 0000 0000 0000 0000
000000c0: 0000 0000 0000 0000 0000 0000 0000 0000
000000d0: 0000 0000 0000 0000 0000 0000 0000 0000
000000e0: 0000 0000 0000 0000 0000 0000 0000 0000
000000f0: 0000 0000 0000 0000 0000 0000 0000 0000
00000100: 0000 0000 0000 0000 0000 0000 0000 0000
00000110: 0000 0000 0000 0000 0000 0000 0000 0000
00000120: 0000 0000 0000 0000 0000 0000 0000 0000
00000130: 0000 0000 0000 0000 0000 0000 0000 0000
00000140: 0000 0000 0000 0000 0000 0000 0000 0000
00000150: 0000 0000 0000 0000 0000 0000 0000 0000
00000160: 0000 0000 0000 0000 0000 0000 0000 0000
00000170: 0000 0000 0000 0000 0000 0000 0000 0000
00000180: 0000 0000 0000 0000 0000 0000 0000 0000
00000190: 0000 0000 0000 0000 0000 0000 0000 0000
000001a0: 0000 0000 0000 0000 0000 0000 0000 0000
000001b0: 0000 0000 0000 0000 0000 0000 0000 0000
000001c0: 0000 0000 0000 0000 0000 0000 0000 0000
000001d0: 0000 0000 0000 0000 0000 0000 0000 0000
000001e0: 0000 0000 0000 0000 0000 0000 0000 0000
000001f0: 0000 0000 0000 0000 0000 0000 0000 0000
0.0 0.0 0.0 0.0 0.0 0.0 0.0 0.0
0.0 0.0 0.0 0.0 0.0 0.0 0.0 0.0
0.0 0.0 0.0 0.0 0.0 0.0 0.0 0.0
0.0 0.0 0.0 0.0 0.0 0.0 0.0 0.0
0.0 0.0 0.0 0.0 0.0 0.0 0.0 0.0
0.0 0.0 0.0 0.0 0.0 0.0 0.0 0.0
0.0 0.0 0.0 0.0 0.0 0.0 0.0 0.0
0.0 0.0 0.0 0.0 0.0 0.0 0.0 0.0
0.0 0.0 0.0 0.0 0.0 0.0 0.0 0.0
0.0 0.0 0.0 0.0 0.0 0.0 0.0 0.0
0.0 0.0 0.0 0.0 0.0 0.0 0.0 0.0
0.0 0.0 0.0 0.0 0.0 0.0 0.0 0.0
0.0 0.0 0.0 0.0 0.0 0.0 0.0 0.0
0.0 0.0 0.0 0.0 0.0 0.0 0.0 0.0
0.0 0.0 0.0 0.0 0.0 0.0 0.0 0.0
0.0 0.0 0.0 0.0 0.0 0.0 0.0 0.0

value_heads.value_heads.extrinsic.weight f4 [1, 128]
00000000: 6066 e4bb 1023 cc3d 940b 433e e579 24be
00000010: 04d7 af3d 68db 6c3d a649 3dbe 3ed8 d6bd
00000020: ac53 1ebd 9609 4fbe 10a7 11be a676 afbd
00000030: 303c 853d 373e 23be 2472 d13d 0a6e 3e3e
00000040: 3090 103c 3075 e63c 5c05 ff3d 6088 dfbd
00000050: ee03 4cbe 3cec a8bd b804 0cbd e815 403d
00000060: 5cbf 18be aece 0b3e 04bf 523e 0061 b53d
00000070: d89d cfbc 92db 353e cc1c 91bd 382c 37bd
00000080: 4bd2 d7bd 0af2 16be 292f bbbd 03cb 2bbe
00000090: 604f ccbc 2a9a b1bd c31f e2bd 34c8 923d
000000a0: 62f5 2f3e 9efd 8dbd 04ee 20be 042d e43d
000000b0: 642e 2a3e 96a2 503e b548 45be f897 703d
000000c0: 760c 593e 9cc0 48bd 5009 003c 844d 493e
000000d0: a0ea d43b c134 34be 2cc8 3e3e 7ab8 403e
000000e0: 6818 133d aabf 0b3e 0c1b 0e3e 4eec a9bd
000000f0: 7b1a 3ebe 7401 52be 98b8 04bd 1015 93bd
00000100: 5090 34be c2fa 3cbe c0b9 183d 4a04 33be
00000110: e4d8 6abd 481e 21bd 74bf 443e 8e65 9cbd
00000120: 0040 5f3d e4e9 943d cef7 3a3e 601b 0c3e
00000130: 4c39 063e e074 9c3d 1d41 bbbd 1ef3 1d3e
00000140: fc25 36bd 3064 2a3e 40f1 4dbd 4021 323e
00000150: ae24 e5bd b023 a3bc f04e bfbd c0af 56bb
00000160: 70cc 44bc 76c6 aebd b771 21be c095 98bb
00000170: d077 9dbd cebe 193e 568b 3cbe c013 59bb
00000180: d898 8d3c 347a 78bd 7083 b13d 9c25 58bd
00000190: 7a4a 323e e441 0c3e 5000 32bc 00a3 4ebe
000001a0: ce1e 81bd 3c9a 0b3d c895 22be c84a 3f3d
000001b0: 18dc d63c 5990 48be 8201 3a3e 7d9e 04be
000001c0: c6b9 263e 4767 ddbd 3047 4fbd e07a ebbc
000001d0: bcf1 303e ac8e a3bd 72c0 44be dea3 4c3e
000001e0: 403b bf3d 28eb 69bd c479 953d edaa 56be
000001f0: b09a 33be 5ef5 2a3e c920 e7bd 58eb 013e
-0.006970212 0.09967625 0.19047385 -0.16062124 0.08585933 0.05782643 -0.18485126 -0.10490464
-0.038654014 -0.202185 -0.14223886 -0.08567552 0.065056205 -0.15941702 0.10226849 0.18596664
0.0088234395 0.028132051 0.12452194 -0.10914683 -0.19923374 -0.08248183 -0.034184188 0.04689589
-0.14916748 0.13653061 0.20580679 0.08856392 -0.02534382 0.1775954 -0.07085571 -0.044719905
-0.10538157 -0.14740768 -0.091398545 -0.16776662 -0.024940193 -0.086719826 -0.11041214 0.07167092
0.1718345 -0.06933139 -0.15715796 0.111413985 0.16619259 0.20374522 -0.19266017 0.05873868
0.2119616 -0.04901181 0.00781472 0.19658476 0.006497696 -0.17598249 0.18631047 0.18820372
0.035911947 0.13647333 0.13877505 -0.08297025 -0.18564789 -0.20508367 -0.032402605 -0.07181752
-0.17633176 -0.18455032 0.03728652 -0.17482105 -0.05733575 -0.03933552 0.19213659 -0.076365575
0.054504395 0.072711736 0.18258592 0.13682318 0.13107795 0.0763948 -0.09143279 0.15424773
-0.04446982 0.16639781 -0.050278902 0.17395496 -0.11188637 -0.019914478 -0.09341228 -0.0032758564
-0.012011632 -0.08533947 -0.15766035 -0.0046565235 -0.07688868 0.15014192 -0.18412527 -0.0033123344
0.017284796 -0.060663417 0.08667648 -0.052770242 0.17411223 0.1369701 -0.010864332 -0.20179367
-0.06304704 0.034082636 -0.1587745 0.046702176 0.026227996 -0.19586314 0.18164638 -0.12951083
0.16281804 -0.10810714 -0.050605 -0.028745115 0.17279714 -0.07986197 -0.19214037 0.19984385
0.09337473 -0.057109028 0.072986156 -0.2096364 -0.17539477 0.16695163 -0.1128555 0.12687433
