results/phase2_t6_with_config_4_final/NPCAgent/NPCAgent-499958.onnx (onnx, 106831 bytes, 9 tensors)

action_model._continuous_distribution.log_sigma f4 [1, 2]
0	0xbc5de8e7	-0.013544298
1	0xba3b5bcb	-0.0007147162

action_model._continuous_distribution.mu.bias f4 [2]
0	0xbbf021a1	-0.0073282276
1	0x3ad2409e	0.0016040986

action_model._continuous_distribution.mu.weight f4 [2, 128]
0	0xbc11be04	-0.008895401
1	0x3d5892eb	0.052874487
2	0x3b395d5f	0.0028284413
3	0xbc79d162	-0.015247675
4	0x3d977273	0.07394876
5	0xbcdd1353	-0.026986754
6	0xbcf07856	-0.029354256
7	0xbc29bec0	-0.01036042
8	0xbd990947	-0.07472473
9	0x3d85ad8e	0.065272436
10	0x3d3fe410	0.046848357
11	0xbd0418e0	-0.032250285
12	0xbcf451a2	-0.029824082
13	0xbb17bcde	-0.0023153345
14	0xbd8e5317	-0.06949442
15	0xbd778958	-0.060433716
16	0x3b5e97f4	0.0033965083
17	0xbbadcd3e	-0.005304008
18	0xbd61c96b	-0.055123728
19	0x3cf3cb83	0.029760128
20	0xbd92ffe9	-0.07177717
21	0xbc4d815a	-0.012543047
22	0x3b78843d	0.0037920617
23	0x3c935c9b	0.017988494
24	0xbd8116e6	-0.06303196
25	0x3d5da4fc	0.05411242
26	0xbd63dbc6	-0.055629514
27	0x3c99f2dc	0.018792562
28	0x3d66ed76	0.056378804
29	0xbd08a953	-0.033364605
30	0x3d8e5c6d	0.069512226
31	0x3d18fdfe	0.0373516
32	0xbd1c390b	-0.038140338
33	0x3d305eaf	0.043059047
34	0xbb8b4357	-0.004249971
35	0x3d2c1c0b	0.04201893
36	0x3d1b809a	0.03796444
37	0xbd62788c	-0.055290744
38	0xbd720a24	-0.059091702
39	0xbda4e577	-0.080515794
40	0x3d85508d	0.065095045
41	0x3c95d4e6	0.018289994
42	0xbd8e0335	-0.069342054
43	0x3d71fdd9	0.05907998
44	0x3d831041	0.063995846
45	0x3d14119a	0.0361496
46	0x3d64fea9	0.055906925
47	0xbd978bb9	-0.07399697
48	0x3cfc22f3	0.030778384
49	0x3d7637c8	0.06011179
50	0x3d75876b	0.059943598
51	0xbc82ef10	-0.015983135
52	0xbd26cd66	-0.040723227
53	0x3d0228e0	0.031777263
54	0x3d23b374	0.03996606
55	0x3cee8084	0.029114015
56	0x3c64b9ce	0.013960315
57	0xbd2118fa	-0.03933046
58	0xbda0c34a	-0.078497484
59	0xbd4de1b7	-0.050264087
60	0x3d7dc8b6	0.06195899
61	0x3cda2835	0.0266305
62	0x3d55d30c	0.052203223
63	0xbd8aa27f	-0.06769275
64	0x3d717c13	0.058956217
65	0xbd09b0d4	-0.033615902
66	0xbd5f9d2b	-0.054593246
67	0x3d5489cd	0.05188923
68	0xbd26e649	-0.04074696
69	0xbd3b4a35	-0.045725066
70	0xbc7f8373	-0.015595305
71	0x3d705ad6	0.058680378
72	0x3d619878	0.055077046
73	0xbce5cb26	-0.02805097
74	0xbbf67da8	-0.0075223036
75	0xbd83f1cf	-0.06442606
76	0xbd52b193	-0.05143888
77	0x3d66f2be	0.05638384
78	0xbd142b6b	-0.03617422
79	0xbc597d00	-0.013274431
80	0x3caa5e53	0.02079693
81	0xbd7b0f44	-0.061293855
82	0x3cce510a	0.025185127
83	0x3cf5894a	0.029972691
84	0xbbe0f904	-0.0068656225
85	0x3c849ec0	0.01618898
86	0xbd628b8a	-0.055308856
87	0x3d4a95d5	0.049459297
88	0xbc9fb3c9	-0.019494908
89	0x3bc83358	0.0061096363
90	0xbd2b4a77	-0.041819062
91	0x3ce7e203	0.028306013
92	0xba2e8958	-0.0006658039
93	0xbd330fcc	-0.043716237
94	0x3d7b805e	0.061401717
95	0xbd91dc56	-0.07122104
96	0x3d86386e	0.06553732
97	0x3c2dc31d	0.010605601
98	0xbd8355a7	-0.06412821
99	0xbd5801f3	-0.052736234
100	0x3c4f0dd4	0.012637574
101	0x3c5e1654	0.013555128
102	0x3da239a9	0.07921154
103	0xbb480540	-0.0030520707
104	0x3c6f4668	0.0146041885
105	0xbd8097ac	-0.06278929
106	0x3d6823d7	0.056674805
107	0x3cc0c36b	0.023530683
108	0x3cbf873a	0.02337991
109	0x3d7fecb4	0.062481597
110	0x3cf8b946	0.030361783
111	0x3d17a028	0.03701797
112	0xbc8b3886	-0.016994726
113	0xbd0d6b7e	-0.03452634
114	0x3c71ae9c	0.014751103
115	0x3cf3889d	0.029728228
116	0x3db37d4a	0.08764131
117	0xbd3cc80c	-0.046089217
118	0x3cc96afa	0.024587143
119	0xbc7c4e93	-0.015399593
120	0x3c747485	0.014920359
121	0xbccd6787	-0.02507378
122	0xbbaaa521	-0.005207673
123	0xbdb2a4db	-0.0872285
124	0xbd7860bf	-0.06063914
125	0xbca25805	-0.019817362
126	0x3d49ba25	0.049249787
127	0xbbc9c2ee	-0.0061572706
128	0xbbdfcb5e	-0.006829663
129	0xbd9bf295	-0.07614628
130	0x3cb485bb	0.022036424
131	0x3d62938b	0.05531649
132	0x3d31a665	0.043371577
133	0x3dbe421f	0.09289955
134	0xbc8eb1c8	-0.017418757
135	0x3d7b53b2	0.061359115
136	0xbd205327	-0.0391418
137	0xbc988799	-0.018619346
138	0x3cdc3f6b	0.026885709
139	0x3d067835	0.032829482
140	0x3ce628e9	0.02809568
141	0xbd1308ea	-0.035897173
142	0x3c8544e0	0.016268194
143	0x3cf7ebfb	0.030263891
144	0xbd460d7f	-0.048352715
145	0xbd40c3d9	-0.047061775
146	0xbd10a30a	-0.035311736
147	0xbc45acd7	-0.012065134
148	0xbd47b850	-0.04875976
149	0x3d2b3939	0.04180262
150	0x3d9f57eb	0.07780441
151	0x3da2319b	0.07919618
152	0x3dd7ea5e	0.10542749
153	0xbd5fd6eb	-0.05464832
154	0x3c86350b	0.016382715
155	0x3cbb0aef	0.022832362
156	0x3d7ac19f	0.061219808
157	0x3dbccfe6	0.09219341
158	0xbd20b208	-0.039232284
159	0x3a376fdd	0.0006997565
160	0xbd41fce3	-0.047360312
161	0xbc6f9397	-0.0146225905
162	0x3da45462	0.08023907
163	0xbc86ff3b	-0.016479125
164	0x3d3ce179	0.046113465
165	0x3d30cfd5	0.043166954
166	0xbc4083f2	-0.011750208
167	0x3c164f16	0.009174129
168	0x3d2f205d	0.042755473
169	0x3ae5c624	0.0017530364
170	0xbcf52833	-0.029926395
171	0x3d370f7a	0.044692494
172	0xbcc458b1	-0.023968073
173	0x3ce79a43	0.0282718
174	0xbcfbfb50	-0.030759484
175	0x3c5c5bda	0.0134496335
176	0x3d339387	0.043841865
177	0x3c51aa64	0.012796972
178	0x3d114e61	0.03547514
179	0x3ca525ba	0.020159591
180	0x3d988cd2	0.07448734
181	0x3cdfd43e	0.027322885
182	0x3d2ca6f2	0.0421514
183	0x3c9cfb78	0.019162878
184	0x3d3d2e11	0.04618651
185	0x3cefb4c3	0.029260999
186	0x3d64cb26	0.0558578
187	0xbc8a05f0	-0.016848534
188	0x3ddf6299	0.10907478
189	0x3c97dd8d	0.01853826
190	0xbcbc1771	-0.022960396
191	0xbab898ad	-0.0014083587
192	0x3d0db479	0.03459594
193	0xbdb22b7b	-0.086996995
194	0x3d8ad804	0.06779483
195	0x3cd8b86e	0.02645513
196	0x3dddf7f2	0.108383074
197	0xbd16ceb4	-0.03681822
198	0xbcfc8c7d	-0.030828709
199	0x3c3a1961	0.01135859
200	0x3c522d53	0.012828189
201	0xbd580eb2	-0.05274839
202	0xbd214402	-0.039371498
203	0xbc91bbd5	-0.01778976
204	0x3da56674	0.08076182
205	0x3b877d53	0.004134813
206	0x3cd5341a	0.02602582
207	0x3adb3b11	0.0016725977
208	0x3d47b380	0.04875517
209	0xbb389814	-0.0028166818
210	0x3db9befd	0.09069631
211	0x3cfabd36	0.0306078
212	0x3d6ef8b4	0.05834265
213	0xbd24cd49	-0.040234838
214	0xbcc40b3e	-0.023931142
215	0x3b9338a6	0.004492837
216	0xbd502793	-0.05081899
217	0x3dcef127	0.1010459
218	0xbdcd2025	-0.10015897
219	0x3d1a861a	0.037725545
220	0x3e02438e	0.12721083
221	0xbbbaaba6	-0.0056967316
222	0x3c7867cb	0.015161465
223	0x3c9aeca7	0.018911673
224	0x3c467548	0.012112923
225	0x3dc1e42e	0.0946735
226	0x3d6af14b	0.05735902
227	0xbc03070c	-0.007997286
228	0xbc50e0d6	-0.012748918
229	0xbd3c5b2a	-0.04598538
230	0xbd12ba79	-0.035822365
231	0x3ca2115e	0.019783672
232	0xbd9e1f9a	-0.07720871
233	0xbd1b5a96	-0.037928186
234	0xbcdbff3c	-0.026855104
235	0xbd0ae381	-0.03390837
236	0xbccd5bd2	-0.025068197
237	0xbd0ce03d	-0.034393538
238	0x3d9a2481	0.07526494
239	0xbd57ec2d	-0.05271547
240	0xbd20872e	-0.039191417
241	0xbca1b7f1	-0.01974103
242	0xbd2033b2	-0.0391118
243	0x3c89841a	0.016786624
244	0xbb5e82d6	-0.0033952496
245	0xbd89dd16	-0.06731622
246	0x3bbf2617	0.005833398
247	0xbd889fbe	-0.066710934
248	0x3d3a6f8b	0.045516532
249	0x3ce56da7	0.028006388
250	0xbd28be16	-0.041196905
251	0xbc6e5248	-0.014545985
252	0xbcec182c	-0.02882012
253	0x3ddcc384	0.10779479
254	0x3c9842cb	0.018586537
255	0xbd95fb37	-0.07323306

action_model._discrete_distribution.branches.0.bias f4 [2]
0	0xbc632c05	-0.013865476
1	0x3c632c02	0.013865473

action_model._discrete_distribution.branches.0.weight f4 [2, 128]
0	0xbc1ef7fb	-0.009702678
1	0xbc729c79	-0.014807814
2	0x3c6bb00f	0.014385237
3	0xbb606ef8	-0.003424583
4	0x3c2ee41c	0.010674503
5	0xbd9aebef	-0.07564532
6	0xbcc0df9e	-0.023544129
7	0xb9bd6819	-0.00036126448
8	0xbd2509fb	-0.04029272
9	0x3ca6dce5	0.020369003
10	0xbc3efe69	-0.011657336
11	0x3be6a5ea	0.0070388215
12	0xbc1df71a	-0.009641433
13	0x3cdf3c1d	0.027250344
14	0xbd00db90	-0.03145939
15	0xbc351787	-0.011052973
16	0x3be2eefc	0.006925462
17	0x3b3f0540	0.0029147416
18	0xbae99928	-0.0017822133
19	0x3d403afa	0.046931244
20	0xbcd2a614	-0.025713958
21	0x3b5947cf	0.0033154374
22	0xbc7378e0	-0.014860362
23	0x3c2f3140	0.010692894
24	0xbd56715f	-0.052354213
25	0xbba9a5a6	-0.0051772175
26	0x3c5a0a81	0.013308168
27	0x3c58fad1	0.013243393
28	0x3c8d4952	0.017246876
29	0xbd1c75cc	-0.038198277
30	0x3d0efddc	0.034910068
31	0x3d20e654	0.039282158
32	0xbb971692	-0.004610845
33	0x3d2a4cbe	0.041577093
34	0xbd725304	-0.0591612
35	0xbccc63f9	-0.024950014
36	0xbc743368	-0.014904834
37	0xbc8d5195	-0.017250815
38	0xbc583df1	-0.013198362
39	0xbd88df29	-0.066831894
40	0x3c2652f3	0.010151613
41	0x399429ed	0.00028259997
42	0xbcf9bda9	-0.030485945
43	0xbd0646f5	-0.032782514
44	0xbc0fc029	-0.008773842
45	0xba484bed	-0.00076407084
46	0xbcc1436c	-0.02359172
47	0xbc0760fb	-0.008262868
48	0xbb8a676e	-0.0042237556
49	0x3d1b3dc5	0.037900705
50	0xbbe5e357	-0.0070156264
51	0x3cb09ac2	0.02155817
52	0xbd56439e	-0.05231058
53	0x3c86dc88	0.01646258
54	0x3c977072	0.018486235
55	0x3cb03dee	0.021513905
56	0xbbd35a8c	-0.006450003
57	0x3c3c875f	0.011506884
58	0xbd753c58	-0.059872
59	0x3cb42e11	0.021994622
60	0xbce77e50	-0.028258473
61	0x3c3d8e68	0.011569597
62	0x3d0e3bdd	0.03472506
63	0xbcc80bf5	-0.024419764
64	0x3c9ecbed	0.019384349
65	0xbd1d1377	-0.03834864
66	0xbd250038	-0.04028341
67	0x3c7a243d	0.015267429
68	0xbd5e5e5a	-0.0542892
69	0xbd0b00ac	-0.033936188
70	0xbc23600c	-0.00997163
71	0xbcaa5f26	-0.020797323
72	0xbb4bff2c	-0.0031127436
73	0xbc2427a7	-0.0100192195
74	0xbc36ed9e	-0.011165051
75	0xbc1cb84e	-0.009565426
76	0xbce61f1a	-0.028091002
77	0x3d916a9d	0.07100413
78	0xbc3dcaac	-0.011583965
79	0xbce110a6	-0.027473759
80	0xbc86552e	-0.016398039
81	0xbcc231d4	-0.0237054
82	0xbc771bc4	-0.015082303
83	0x3c8f8966	0.017521571
84	0xbc6350e7	-0.013874269
85	0x3cc1ab59	0.023641275
86	0xbd08e54b	-0.033421796
87	0xbc09325d	-0.008373824
88	0xbc7233bb	-0.014782841
89	0xbd69b798	-0.057059854
90	0xbd3b7e85	-0.045774955
91	0x3cb68388	0.022279516
92	0xbcf7f27a	-0.030266989
93	0x3ab0e071	0.0013494623
94	0xbb6901f9	-0.0035554154
95	0xbc8f8321	-0.017518582
96	0x3d4405da	0.047857143
97	0x3cba222f	0.022721378
98	0xbd3f7b7e	-0.04674863
99	0xbc2c4999	-0.010515594
100	0x3caec47d	0.021333927
101	0x3ba8a271	0.0051463176
102	0xbcb35993	-0.021893298
103	0xbc16367a	-0.009168262
104	0xbcfeff4c	-0.031127594
105	0xbd5aab5c	-0.053386077
106	0x3cfa4f81	0.030555489
107	0xbcfe39cc	-0.03103342
108	0x3b88c370	0.0041736886
109	0x3cd046d8	0.025424406
110	0xbcf8cae0	-0.030370176
111	0xbb9dcb0d	-0.0048154653
112	0x3d135564	0.035970107
113	0xbbc237e5	-0.0059270733
114	0xb8e80a66	-0.00011064559
115	0x3cca1af3	0.024671054
116	0xbc4b7a1b	-0.012419249
117	0xbc7d7107	-0.015468842
118	0x3c29783b	0.010343607
119	0xbc2b0099	-0.010437154
120	0x3d082743	0.033240568
121	0x3ca2b87f	0.019863365
122	0x3c320146	0.010864561
123	0xbd0de558	-0.034642547
124	0xbc9d43dc	-0.019197397
125	0xbd410411	-0.04712302
126	0x3c508b57	0.012728534
127	0x3b70f986	0.0036769821
128	0xbbad9da4	-0.0052983332
129	0x3d0b93b1	0.034076396
130	0xbcf73743	-0.030177718
131	0x3ca3106a	0.019905288
132	0xbc39e385	-0.011345749
133	0x3d607330	0.05479735
134	0x3ca0cb6b	0.019628247
135	0xbc2dec3a	-0.010615403
136	0x3d4f29a0	0.050576806
137	0xbaa57cba	-0.0012625672
138	0xbaa38f2d	-0.0012478583
139	0x3a122dc5	0.0005576278
140	0xbc8bed41	-0.017080905
141	0xbb9daaf0	-0.004811637
142	0x3d2f66cf	0.042822655
143	0x3d0a2001	0.033721928
144	0xbc038add	-0.008028713
145	0xbbafdae6	-0.005366671
146	0x3c0886b5	0.008332898
147	0xbcdf0ea0	-0.027228653
148	0x3ca19a80	0.019726992
149	0x3c2b18b5	0.010442902
150	0x3ceb9bb8	0.028760776
151	0xbb863cf1	-0.0040966203
152	0x3ca5e81f	0.020252286
153	0xbaf3a364	-0.0018588123
154	0x3cfd8faf	0.030952303
155	0xbcbe4550	-0.02322641
156	0xbca41c60	-0.020033062
157	0x3d456ffe	0.048202507
158	0xbd142cca	-0.036175527
159	0xbd37eeb1	-0.04490537
160	0x3ba514b0	0.0050378665
161	0xbd292aab	-0.041300457
162	0x3d6fe21b	0.05856524
163	0x3caa90ca	0.020820994
164	0xbc1b7b2e	-0.009489818
165	0x3d114ddb	0.03547464
166	0x3bb398bd	0.0054808543
167	0x3d48d49c	0.049030885
168	0xbc469655	-0.012120803
169	0xbc1e70c1	-0.009670437
170	0x3ce7690e	0.028248336
171	0x3c8457be	0.01615512
172	0x3aa85b08	0.0012844512
173	0x3c83b6cd	0.016078377
174	0x3cf938c5	0.030422578
175	0x3d03d3d2	0.03218443
176	0x3c4f7c9d	0.012663987
177	0xbd2fce83	-0.042921554
178	0x3b6b69d0	0.0035921223
179	0xbc9ffdaf	-0.019530145
180	0x3d1f1265	0.0388359
181	0xbc7965e5	-0.015222047
182	0xbccfc22c	-0.025361143
183	0xbc2ee503	-0.010674718
184	0xbb8c1bd9	-0.0042757806
185	0xbc94b67e	-0.018153425
186	0x3d4c0eec	0.049818918
187	0xbbdb350c	-0.0066896733
188	0x3ce01cfd	0.027357573
189	0x3bcaab44	0.0061849672
190	0xbc53ce13	-0.01292755
191	0x3d0f4bb8	0.03498432
192	0xbcd6ee11	-0.026236566
193	0x3ceaed04	0.028677471
194	0x3d38dc27	0.04513183
195	0xbd194c0a	-0.037426032
196	0x3d6b5aee	0.057459764
197	0x3d3368ef	0.043801244
198	0xb96f3b05	-0.00022814803
199	0x3b5a0ebd	0.0033272945
200	0x3b80d7cf	0.0039319764
201	0x3c7c9229	0.015415707
202	0x39255f4b	0.00015771126
203	0x3d065674	0.032797292
204	0x3cbd73ac	0.023126446
205	0xbd4c74fd	-0.049916256
206	0x3c2abc76	0.010420909
207	0x3c4427ea	0.011972407
208	0x3cde336a	0.027124126
209	0x3c9a3f8e	0.018829133
210	0x3cfce3ed	0.030870402
211	0xbc0d3e02	-0.008620741
212	0xbbdac34a	-0.0066761123
213	0xbce3d975	-0.027813653
214	0x3c9823d8	0.01857178
215	0xbbd0e90a	-0.0063754367
216	0x3c0101e5	0.007873987
217	0x3d0d365d	0.034475673
218	0x3d0c8515	0.034306604
219	0xbce704ae	-0.028200474
220	0x3cc83d75	0.024443367
221	0xbc5f0259	-0.0136114
222	0xbbcb0306	-0.006195429
223	0x3cdb8c0c	0.026800178
224	0xbd547dae	-0.05187767
225	0xbc8dfbda	-0.017332006
226	0x3caabd57	0.020842237
227	0x3ba496ab	0.005022844
228	0xbc7add6b	-0.015311579
229	0x3c44a14d	0.012001348
230	0x3c33b415	0.010968228
231	0xbc07e908	-0.008295305
232	0x3c8a551d	0.016886288
233	0x3d783bc8	0.060603887
234	0xbce78dc0	-0.028265834
235	0x3d1e4a7c	0.038645253
236	0xbc8f6adb	-0.017507007
237	0xbc55fb01	-0.013060332
238	0x3c6f3053	0.014598924
239	0xbb7b4cf1	-0.0038345421
240	0xbc3e869e	-0.011628775
241	0xb934c324	-0.00017238833
242	0x3b9aa708	0.0047196187
243	0x3bb79dc1	0.0056035225
244	0xbcf66a71	-0.030080052
245	0x3d245c6a	0.040127195
246	0xbc89a1ec	-0.016800843
247	0x3cfef1dd	0.031121189
248	0xbcee36dd	-0.029078895
249	0xbd0ab6fc	-0.033865914
250	0xbc9e9a20	-0.019360602
251	0x3d237dee	0.039915018
252	0x3c835702	0.0160327
253	0x3d48992a	0.048974194
254	0xbc9ddd36	-0.01927052
255	0xbc83dd69	-0.016096788

network_body._body_endoder.seq_layers.0.bias f4 [128]
0	0x3c1b7ddd	0.009490457
1	0x3d0de121	0.034638528
2	0x3d2a0127	0.041505005
3	0x3b16bdd0	0.002300132
4	0x3cc277d6	0.023738783
5	0xbae0167f	-0.0017096548
6	0x3cc8971d	0.024486119
7	0x3cda6170	0.02665779
8	0xbc4f3ae7	-0.012648321
9	0x3c05676f	0.008142336
10	0x3a9a3ff1	0.0011768324
11	0x3cfd517c	0.030922644
12	0x3c80a09c	0.015701585
13	0xbcd2b932	-0.025723074
14	0xbd4d9d74	-0.050198987
15	0x3b053116	0.0020323447
16	0x3c86d744	0.016460069
17	0xbc42b294	-0.011883397
18	0x3c56f387	0.013119585
19	0xbb999843	-0.0046873405
20	0x3d273a10	0.040826857
21	0xbc799d4b	-0.0152352555
22	0x3d0b6e81	0.03404093
23	0x3d1bb32b	0.038012665
24	0x3c806fd0	0.015678316
25	0x3be0e744	0.0068635065
26	0x3be9fcb0	0.0071407184
27	0x3c0056e5	0.007833217
28	0x3c7384cd	0.014863205
29	0x3c8327c0	0.016010165
30	0xbc82fb21	-0.015988888
31	0x3bdc6c86	0.006726804
32	0x3c04b64a	0.008100102
33	0x3bd0dffc	0.0063743573
34	0x3c3048ec	0.010759573
35	0x3c0fed5f	0.008784621
36	0xbbe72dff	-0.0070550437
37	0x3caa6c42	0.020803574
38	0x3d283e55	0.04107507
39	0x3d42eb25	0.047587533
40	0x3c711e31	0.014716671
41	0x3cbb6f9b	0.022880366
42	0x3c88e4b9	0.016710626
43	0x3c5c239c	0.013436224
44	0xbcfbcaf8	-0.030736431
45	0x3bd16108	0.006389741
46	0x3cec593b	0.028851142
47	0x3d36edc7	0.044660356
48	0x3cdbbeb4	0.026824333
49	0xbccc15f6	-0.024912816
50	0x3be6b60b	0.007040744
51	0x3cca3197	0.02468185
52	0x3c831fa4	0.016006298
53	0x3d195ff9	0.037445042
54	0x3d2fe145	0.042939443
55	0x3bb00b05	0.0053724074
56	0x3d329147	0.04359558
57	0x3cb85cd6	0.022505205
58	0x3ce40d1e	0.027838286
59	0x3ce9dc3c	0.028547399
60	0xbbf93cea	-0.0076061385
61	0xbca807da	-0.020511556
62	0x3d28afd1	0.041183297
63	0x3c51a8d3	0.0127965985
64	0x3b2db4d1	0.002650548
65	0x3cfc78d7	0.03081934
66	0xbcf91e73	-0.030410027
67	0x3ce4669d	0.027880961
68	0x3cff3ca8	0.031156853
69	0xbb2f109f	-0.0026712788
70	0x3afca0ae	0.001927396
71	0x3c5e9737	0.013585857
72	0xbd45446e	-0.048160963
73	0x3c867b71	0.016416283
74	0x3cf810c7	0.030281438
75	0x3ccfb2a0	0.02535373
76	0xbc5dd2b2	-0.013539003
77	0x3ca383ea	0.019960362
78	0x3d191807	0.03737643
79	0xbcfa9a1b	-0.030591061
80	0x3c0f070f	0.00872971
81	0x3b5d1487	0.003373416
82	0xbaa2160c	-0.001236619
83	0x3c90c650	0.017672688
84	0xbd049397	-0.032367315
85	0x3caf6aa7	0.02141316
86	0x3cbe5578	0.023234114
87	0x3d0277fa	0.0318527
88	0x3cbf9a28	0.023388937
89	0x3d531012	0.051528998
90	0x3cf2ac0f	0.02962306
91	0xbd21600f	-0.03939825
92	0xbbea70f5	-0.007154579
93	0x3d2e7ce9	0.042599592
94	0xbc838ab5	-0.016057352
95	0x3d2e3135	0.042527396
96	0x3bb682ad	0.005569777
97	0x3c9abccd	0.018888855
98	0x3cf6705e	0.030082878
99	0x3c8e7feb	0.01739498
100	0xbc10fc51	-0.008849219
101	0xbd007f23	-0.031371247
102	0x3cd822b9	0.026383745
103	0x3c810f2b	0.015754303
104	0x3ca8aaa5	0.020589182
105	0x3ca46d89	0.020071762
106	0x3c34a45c	0.011025514
107	0x3cb90152	0.022583637
108	0xbcc0b4fb	-0.023523798
109	0x3c9e5fab	0.019332727
110	0x3bad9c05	0.00529814
111	0x3c9b3c90	0.018949777
112	0x3cc6a7ab	0.024249872
113	0x3cd5b1de	0.02608579
114	0x3b32f0de	0.0027304213
115	0x3c14ea1b	0.009089018
116	0x3a67ada5	0.0008837826
117	0x3bd394ef	0.0064569633
118	0x3b260910	0.0025334992
119	0x3b532a92	0.0032221419
120	0x3cb754f7	0.022379382
121	0xbcafca6e	-0.02145883
122	0xbd573a49	-0.05254582
123	0x3c82441f	0.015901623
124	0x3c6b4cd0	0.014361575
125	0x3c2e051f	0.010621338
126	0x3ccd29e4	0.02504439
127	0x3c7919b4	0.015203882

network_body._body_endoder.seq_layers.0.weight f4 [128, 69]
0	0x3e0bfe3c	0.13671201
1	0x3e22d443	0.15901284
2	0x3e06cefa	0.13164893
3	0xbcf4f5be	-0.029902335
4	0x3e509af5	0.20371611
5	0xbb13bb13	-0.0022541925
6	0xbbd9b30b	-0.006643658
7	0xbda09428	-0.078407586
8	0x3e2f7bfa	0.17137137
9	0x3dadb799	0.08482284
10	0xbd9a30f7	-0.075288706
11	0xbd2dde54	-0.042448357
12	0xbe1b3569	-0.15157093
13	0x3d11f595	0.035634596
14	0x3e385570	0.18001342
15	0x3c51c089	0.012802252
16	0xbd8c55f1	-0.068523295
17	0xbadc1e67	-0.0016793729
18	0xbcb90190	-0.022583753
19	0x3e235066	0.15948638
20	0xbddb461c	-0.10706732
21	0xbd29c48c	-0.041447207
22	0x3cff6d00	0.031179905
23	0xbd2bac31	-0.04191226
24	0x3c9e0ac6	0.019292247
25	0xbd9e9052	-0.07742371
26	0xbe465daa	-0.19371668
27	0x3d4fddd6	0.05074867
28	0x3c42df4b	0.0118940575
29	0xbd011d49	-0.03152207
30	0x3e0e9f5f	0.13927983
31	0x3db6f1b0	0.08932817
32	0x3daf3690	0.08555329
33	0xbc93661d	-0.017993027
34	0x3d3f09e1	0.04664028
35	0x3d05abb1	0.03263444
36	0x3d8f2d53	0.06991067
37	0x3e886cd1	0.2664552
38	0x3c7bb61e	0.015363244
39	0xbe243948	-0.16037476
40	0xbde7603f	-0.11297654
41	0x3d861b6a	0.065481976
42	0x3cfde202	0.030991558
43	0x3e1b3d79	0.15160169
44	0x3df282c2	0.11841346
45	0xbe419896	-0.18905863
46	0x3df73294	0.12070194
47	0x3e66a741	0.2252474
48	0x3e85579d	0.26043406
49	0xbc97ea6d	-0.0185444
50	0x3dbe66ae	0.09296928
51	0x3e436e4a	0.1908504
52	0x3dd2c651	0.10291732
53	0xbdcb717d	-0.099337555
54	0x3d8682f1	0.06567944
55	0xbd22f93f	-0.03978848
56	0xbe47dd78	-0.19518077
57	0x3dc90fdd	0.09817479
58	0x3dfd5409	0.12369544
59	0xbe06723e	-0.13129517
60	0x3c93ca52	0.01804081
61	0x3e3bef02	0.18352893
62	0x3dfadc90	0.122491
63	0x3e31bc11	0.17356898
64	0x3d04f6b8	0.03246185
65	0x3dc63a44	0.09679082
66	0xbdfb9701	-0.12284661
67	0xbe000e37	-0.12505423
68	0x3e33073e	0.17483231
69	0x3c95011f	0.018189011
70	0xbe699e63	-0.22814326
71	0xbe3e3b84	-0.18577391
72	0xbb60d101	-0.0034304264
73	0x3d896bf2	0.06710042
74	0x3d93dcc5	0.07219843
75	0x3d6a31de	0.057176463
76	0x3e848f61	0.2589064
77	0x3d4a607d	0.049408425
78	0x3e3ffcf7	0.18748842
79	0x3d8dcf1d	0.06924269
80	0xbbbccce0	-0.0057617277
81	0x3cedde74	0.029036738
82	0x3dc71c62	0.097222105
83	0xbdbc265c	-0.09187004
84	0xbd8c5e70	-0.0685395
85	0x3daf2190	0.085513234
86	0xbdd72783	-0.10505583
87	0xbdcc4466	-0.099739835
88	0x3e01ad37	0.12663732
89	0x3b1c77cf	0.0023875122
90	0x3e037a0b	0.12839524
91	0xbda66cf8	-0.08126253
92	0x3cf839df	0.030301033
93	0x3c48e082	0.012260558
94	0xbd94ec64	-0.072716504
95	0xbde2c628	-0.110729516
96	0x3b20635b	0.0024473283
97	0x3e96e7b9	0.29473665
98	0xbde583d8	-0.11206788
99	0x3e375318	0.17902792
100	0x3d0d0d58	0.034436554
101	0xbcc7d81d	-0.024395043
102	0x3da2c4e0	0.07947707
103	0xbd0bc59b	-0.034123998
104	0x3d90994b	0.07060488
105	0x38419363	4.615205e-05
106	0x3d950cc7	0.07277828
107	0xbdd16395	-0.10224072
108	0x3c43fc19	0.01196196
109	0x3d1701f8	0.036867112
110	0x3e575d08	0.21031582
111	0xbe69dd0d	-0.2283823
112	0xbd9d50ae	-0.07681404
113	0xbd95ae7d	-0.073086716
114	0x3d1403b5	0.036136348
115	0xbcaf26eb	-0.021380862
116	0xbe47141f	-0.1944127
117	0x3e1e211b	0.15442316
118	0x3d36f1d2	0.04466421
119	0x3e06aab2	0.13151053
120	0x3e243269	0.16034855
121	0x3d38bc2f	0.04510134
122	0xbd6be021	-0.057586793
123	0xbdd89cb1	-0.105767615
124	0xbc5b9c71	-0.013403998
125	0x3e04d028	0.1297003
126	0x3e5ed813	0.21762113
127	0x3b179180	0.0023127496
128	0xbe02f234	-0.12787706
129	0x3e7329e3	0.23746447
130	0x3da385ba	0.07984491
131	0x3d3c0f67	0.045913126
132	0xbdc4187c	-0.095749825
133	0x3e678fb6	0.22613415
134	0x3cadb607	0.021204961
135	0x3d592c18	0.053020567
136	0xbdbb8a53	-0.091572426
137	0xbe698037	-0.22802816
138	0x3c087175	0.0083278315
139	0xbd4c696a	-0.04990522
140	0xbbe3ef20	-0.006955996
141	0x3e3390c3	0.17535691
142	0xbc2755e2	-0.010213347
143	0x3c34c03b	0.011032159
144	0xbdbf0772	-0.09327592
145	0x3d43d88e	0.047813945
146	0xbb043f9c	-0.0020179516
147	0xbd18c766	-0.037299536
148	0x3c82b1c8	0.015953913
149	0xbd1f195d	-0.038842548
150	0xbde6a435	-0.11261789
151	0x3e5f17cf	0.21786426
152	0x3e6968d6	0.22793898
153	0x3e80b5c3	0.25138673
154	0xbd3c739e	-0.0460087
155	0x3cbb4218	0.022858664
156	0x3db445d9	0.08802385
157	0x3d470759	0.04859099
158	0x3d8461c0	0.06463957
159	0x3e29bb00	0.16575241
160	0xbd8e7484	-0.06955817
161	0xbe2092ec	-0.15681046
162	0x3de2ad47	0.11068206
163	0x3d4405c0	0.047857046
164	0x3e067713	0.1313136
165	0x3d30ae69	0.04313508
166	0x3e27bd90	0.16380906
167	0x3c183618	0.009290241
168	0x3d7540d8	0.059876293
169	0xbd96ce9f	-0.073636286
170	0x3e325165	0.17413862
171	0x3ddd84f8	0.108163774
172	0xbdea6591	-0.114451535
173	0x3ddd76eb	0.108136974
174	0xbd53bbbb	-0.051692706
175	0x3d0cae26	0.03434577
176	0xbe1275a0	-0.14302683
177	0x3d1c9386	0.038226627
178	0xbe9d01f4	-0.30665553
179	0x3d4407cf	0.04785901
180	0x3dd3b77f	0.103377335
181	0x3de1775c	0.11009094
182	0xbda56b6c	-0.0807713
183	0x3d8d09f9	0.06886668
184	0xbdb9c161	-0.09070087
185	0xbcbcdccb	-0.023054501
186	0x3e1b8ab8	0.15189636
187	0x3da78984	0.08180526
188	0x3e1eb529	0.15498795
189	0x3e201bc8	0.15635598
190	0xbd34083d	-0.04395317
191	0x3e5b20dc	0.21399254
192	0x3cc15651	0.02360073
193	0xbdf7bd5f	-0.120966665
194	0x3e494f2e	0.19659111
195	0xb9b5d2b2	-0.0003467999
196	0xbdfc93c5	-0.12332872
197	0xbe22d177	-0.15900217
198	0xbe052764	-0.13003308
199	0xbd1e8e91	-0.03871018
200	0xbd440a02	-0.047861107
201	0x3a07bea9	0.0005178252
202	0x3dcb51b2	0.099276915
203	0xbda6ab74	-0.08138171
204	0x3dfab0f6	0.12240784
205	0xbcc74820	-0.024326384
206	0xbdc21880	-0.09477329
207	0x3cbd0961	0.023075761
208	0x3e1d66e9	0.15371288
209	0x3ddc6dac	0.10763106
210	0x3e826e05	0.25474563
211	0xbdebbdbf	-0.115108006
212	0x3d208376	0.03918787
213	0x3c847278	0.016167864
214	0x3ccd96d9	0.025096344
215	0x3da87fa0	0.082274675
216	0x3cfd3bbc	0.030912273
217	0x3e242891	0.160311
218	0xbd128af6	-0.035777055
219	0x3d858dc7	0.065211825
220	0x3db88c56	0.09011142
221	0xbd068953	-0.032845806
222	0xbe37eb1e	-0.17960784
223	0xbca13b6e	-0.019681659
224	0xbd1b05f3	-0.03784747
225	0x3b9d80a3	0.0048065945
226	0x3e138d9b	0.14409487
227	0x3cb275cf	0.021784691
228	0x3e87815e	0.26465887
229	0xbe1e4718	-0.15456808
230	0x3e10e6fa	0.1415061
231	0xbdebf24d	-0.115208246
232	0xbdcac61b	-0.09901067
233	0x3e03e5ee	0.1288068
234	0x3e309405	0.17243965
235	0x3e7b8ec0	0.24566174
236	0x3ce134b8	0.027490959
237	0x3e1ba23a	0.15198603
238	0xbdcd1297	-0.10013311
239	0xbd4b6526	-0.04965701
240	0xbd760123	-0.060059678
241	0xbe1699f3	-0.14707164
242	0xbde17f99	-0.110106654
243	0xb92cdd2a	-0.00016485588
244	0xbd70eee4	-0.058821574
245	0xbdd6e3b2	-0.10492648
246	0xbd5ce3ff	-0.05392837
247	0xbcdeca5f	-0.027196107
248	0x3e82cf57	0.25548813
249	0xbe65ad41	-0.22429372
250	0x3cc462c0	0.023972869
251	0x3dfea48f	0.12433731
252	0xbd8d91d8	-0.06912583
253	0xbe0e84e1	-0.13917877
254	0xbd87bb22	-0.066274896
255	0x3d9d6751	0.07685722

network_body._body_endoder.seq_layers.2.bias f4 [128]
0	0xbc08eec3	-0.0083577065
1	0x3c0c42bc	0.008560833
2	0xba30146c	-0.000671691
3	0x3c300d67	0.010745383
4	0x3c68bf6b	0.014205794
5	0x3cb83eb8	0.022490844
6	0x3c01a6f1	0.007913337
7	0x3b2840ab	0.002567331
8	0x3c99f8d7	0.018795414
9	0x3caa60e6	0.020798158
10	0x3ca9f0aa	0.02074464
11	0x3b72f8a6	0.0037074476
12	0x3cb501d0	0.02209559
13	0x3aba6ff8	0.0014224043
14	0x3cf91f4d	0.030410433
15	0x3bd09d54	0.006366411
16	0x3c87c9e9	0.01657577
17	0x3bc9681f	0.0061464454
18	0x3c209b3a	0.009802634
19	0x3c5ef955	0.01360925
20	0x3c76561b	0.015035178
21	0x3cb4977a	0.022044886
22	0x3c659dd3	0.014014679
23	0x3d038296	0.03210696
24	0x3cba6224	0.022751875
25	0x3c384310	0.011246458
26	0x3be3f5af	0.006956778
27	0x3ab217b2	0.0013587384
28	0x3cd57371	0.026056023
29	0x3cc2d0a0	0.02378112
30	0x3cb78f5b	0.022407224
31	0xbbfbf0da	-0.007688624
32	0x3bdfe66a	0.0068328874
33	0x3ba53294	0.00504143
34	0x3cd4f5a1	0.025996031
35	0x3b2b0ca0	0.0026100054
36	0x3c1d00ed	0.00958274
37	0x3ce85689	0.028361576
38	0x3c863d95	0.016386786
39	0x3ccb04aa	0.024782497
40	0x3c856705	0.016284475
41	0xbc1e4f37	-0.009662441
42	0x3ca26e78	0.019828066
43	0x3c9e5268	0.019326404
44	0xb9b530f8	-0.00034559495
45	0x3b8c9400	0.004290104
46	0x3c496271	0.012291537
47	0x3c950ed8	0.018195555
48	0x3ace5852	0.0015742874
49	0x3be95144	0.0071202833
50	0x3d2e991d	0.04262649
51	0x3b9167bc	0.004437415
52	0x3ce27fa4	0.027648754
53	0xb6ded714	-6.641154e-06
54	0x3c0d489c	0.008623268
55	0x39bde659	0.00036220512
56	0x3d26f7e8	0.040763766
57	0x3c2c7e9d	0.010528234
58	0x3cd0d7ab	0.025493464
59	0x3c3dc4ba	0.011582548
60	0x3cbd3bb8	0.023099765
61	0x3cf8a8bf	0.030353902
62	0x3c6258fc	0.013815161
63	0x3c453d4b	0.012038539
64	0x3c5efd0d	0.013610137
65	0x3cd1eee5	0.02562661
66	0x3c8fc20f	0.017548589
67	0x3d344a79	0.044016335
68	0x3c892e5c	0.016745739
69	0x3cb5cc0f	0.02219203
70	0x391f45a2	0.00015189362
71	0x3b3886a0	0.0028156415
72	0x3bd63fdf	0.0065383757
73	0x3c9563cf	0.018236069
74	0xbab8d721	-0.0014102199
75	0x3c7b4a75	0.015337576
76	0x3d22e986	0.039773487
77	0x3c24c9df	0.010057895
78	0x3c6d9dfe	0.014503
79	0x39d18990	0.00039966078
80	0x3cca5fbd	0.024703855
81	0x3caf9abd	0.02143609
82	0x3d76868a	0.0601869
83	0x3bf87c25	0.0075831586
84	0x3cb0f0af	0.021599142
85	0x3ca3a8d6	0.019977968
86	0x3c67b003	0.014141086
87	0x3ca2c5a4	0.019869633
88	0x3bd762d1	0.006573059
89	0x3d0edf6e	0.034881048
90	0x3cc17cbd	0.02361905
91	0x3c139e0e	0.009009851
92	0x3cd9464d	0.02652278
93	0x3c23005f	0.009948819
94	0x3d09aa68	0.033609778
95	0x3cbfd8fb	0.023418894
96	0x3c8830cb	0.016624829
97	0x3c9d75fd	0.0192213
98	0x3c8380b4	0.016052581
99	0x3c1b3aea	0.009474495
100	0xbcdef650	-0.02721706
101	0x3c28f8e3	0.0103132455
102	0x3c55a41a	0.013039613
103	0xbb1a6e6e	-0.0023564356
104	0x3ba3a8fd	0.00499451
105	0x3ca96dcc	0.020682238
106	0x3bf9c31b	0.0076221353
107	0x3b29ad6c	0.002589072
108	0xbaa384af	-0.0012475456
109	0x3c3f8793	0.011690038
110	0x3c758dd7	0.014987431
111	0x3c366ac3	0.011133852
112	0x3bfdda6f	0.0077469866
113	0x3bf6a3c1	0.007526845
114	0xbb16e93e	-0.0023027207
115	0x3cbf4502	0.023348335
116	0x3cec3813	0.028835332
117	0x3ca93160	0.020653427
118	0x3cb0d1cc	0.021584414
119	0x3c123eb5	0.008926083
120	0x3c2a36f9	0.010389083
121	0x39a04b5a	0.0003057372
122	0x3bc361fe	0.0059626093
123	0x3cff7052	0.031181488
124	0x3c56c24c	0.013107847
125	0x3cd1f93f	0.025631545
126	0x3b0223f8	0.0019857865
127	0x3c86199e	0.016369637

network_body._body_endoder.seq_layers.2.weight f4 [128, 128]
0	0x3be78e7e	0.007066547
1	0xbc45e3cd	-0.012078238
2	0x3d7c3d13	0.061581682
3	0x3dc4fac8	0.09618145
4	0x3e3aa18c	0.18225688
5	0x3dd3202f	0.10308873
6	0x3e29865c	0.1655516
7	0x3ced5eb3	0.02897582
8	0x3c96def5	0.018416861
9	0xbdaa9082	-0.08328344
10	0xbb419191	-0.0029536227
11	0xbd7dc5b2	-0.061956115
12	0xbe405123	-0.18780951
13	0xbd8eb51d	-0.06968138
14	0x3d9b0ad9	0.075704284
15	0x3d643ff9	0.05572507
16	0x3d98253f	0.07428979
17	0x3e0d58f6	0.13803467
18	0x3cab7de9	0.020934062
19	0x3d9455b4	0.07242909
20	0xbd81e120	-0.06341767
21	0xbc83e34f	-0.0160996
22	0xbe21dcea	-0.15806928
23	0x3ca10141	0.019653918
24	0x3cff88d3	0.031193173
25	0xbc8ee5a7	-0.017443491
26	0xbb8b2d3c	-0.0042473357
27	0x3d32fcad	0.043698
28	0xbbcb07ef	-0.006196014
29	0x3d238490	0.039921343
30	0x3e0a028a	0.13477531
31	0x3d949a30	0.072559714
32	0xbdca859e	-0.09888767
33	0xbcc0bb1d	-0.023526723
34	0x3db61e3d	0.08892486
35	0x3d204c8b	0.039135497
36	0x3de278f9	0.1105823
37	0x3ccf6fb0	0.025321811
38	0x3dc8fa27	0.09813338
39	0xbc8cf05c	-0.017204456
40	0xbe226c51	-0.15861632
41	0xbcfc3f05	-0.030791769
42	0x3db6bdc1	0.089229114
43	0xbd9cf83a	-0.07664533
44	0xbdd360a9	-0.10321171
45	0xbd122756	-0.035682045
46	0xbe3f6394	-0.1869033
47	0x3c7a613f	0.015281974
48	0x3d73ba21	0.05950368
49	0x3bf7e155	0.0075647035
50	0x3e32ec61	0.17472984
51	0xbdc08f2b	-0.09402307
52	0xbdea7b5e	-0.11449312
53	0xbd93c230	-0.07214773
54	0xbd22fd25	-0.0397922
55	0xbe49cf8c	-0.19708079
56	0x3d5bab37	0.05363008
57	0xbe25a85e	-0.16177508
58	0xbd1daa08	-0.038492233
59	0x3d01b3ca	0.0316656
60	0x3ccce552	0.025011692
61	0x3ded022c	0.1157268
62	0xbda0f751	-0.07859672
63	0x3e5b2c6e	0.21403667
64	0x3e09a517	0.13441883
65	0x3b5404e5	0.003235155
66	0xbd96fd45	-0.07372526
67	0xbdc012cf	-0.093785875
68	0x3d9bfae0	0.0761621
69	0xbc77c6ee	-0.015123112
70	0x3d5b626c	0.05356066
71	0x3dc0094c	0.09376773
72	0xbe3ece7d	-0.18633457
73	0xbc0fac25	-0.00876907
74	0x3cb9e242	0.022690896
75	0xbe4591d2	-0.19293907
76	0xbe8417d8	-0.2579944
77	0x3da4deda	0.08050318
78	0xbdd2b78b	-0.10288914
79	0xbd39636f	-0.045260843
80	0xbd86e917	-0.06587427
81	0x3dc725d3	0.09724011
82	0x3d084fb5	0.03327914
83	0x3d9edb59	0.07756681
84	0xbd217f01	-0.03942776
85	0xbdca5c7d	-0.09880922
86	0xbdccc9c2	-0.0999942
87	0x3ca1289b	0.019672683
88	0x3e0d047c	0.13771242
89	0x3c17658f	0.009240522
90	0x3d4676f0	0.04845327
91	0x3d8d8b33	0.06911316
92	0xbdf4f584	-0.11960891
93	0x3dc91fab	0.09820493
94	0x3e17577c	0.14779466
95	0xbc78e929	-0.015192308
96	0x3c0fac28	0.008769073
97	0xbd2c5b5b	-0.04207931
98	0xbd2c85c3	-0.042119753
99	0x3dcf9658	0.10136098
100	0x3ddb1012	0.106964245
101	0xbd351422	-0.044208653
102	0x3c684f9c	0.014179137
103	0xbc0dded3	-0.008659082
104	0xbda9616f	-0.08270537
105	0x3c9f5707	0.019450678
106	0xbe3a2ce5	-0.18181188
107	0x3db068d9	0.08613748
108	0xbdba140b	-0.09085854
109	0xb9315263	-0.00016910727
110	0xbd0113f6	-0.031513177
111	0x3daa74f2	0.08323087
112	0x3deabcff	0.114618294
113	0xbd9652bf	-0.07340001
114	0xbdcca17b	-0.099917375
115	0x3bada998	0.005299758
116	0xbe858af7	-0.26082584
117	0xbb504b1c	-0.003178305
118	0xbd78caf3	-0.060740422
119	0xbcd541be	-0.026032325
120	0x3dee0735	0.116224684
121	0xbc08a82f	-0.008340879
122	0xbdf0cbf5	-0.11757652
123	0x3c20b4d6	0.00980874
124	0x3daca079	0.08429045
125	0x3bf30611	0.0074164947
126	0xbd9d52b0	-0.07681787
127	0x3e3989e0	0.18119001
128	0x3d44bf74	0.048034146
129	0xbc1eeb68	-0.00969968
130	0xbdd51094	-0.10403553
131	0xbc0d6d10	-0.00863196
132	0xbd0d0e3d	-0.034437407
133	0xbd4ddbbf	-0.050258394
134	0x3d03d9be	0.032190077
135	0xbc9a1876	-0.018810492
136	0x3dd2144e	0.10257779
137	0x3c665559	0.014058434
138	0xbe83fcb1	-0.25778726
139	0x3c5a7e89	0.013335832
140	0xbaf37c90	-0.0018576551
141	0xbc079633	-0.008275556
142	0x3e291f2d	0.16515799
143	0x3ddf609a	0.10907097
144	0x3dcdb93f	0.100450985
145	0x3d755185	0.059892196
146	0x3c113781	0.008863331
147	0xbaeb2d54	-0.0017942586
148	0x3e2fe2e2	0.17176393
149	0xbda2f246	-0.07956366
150	0xbd4bbe73	-0.049742173
151	0x3d11150e	0.03542047
152	0xbd512e2d	-0.051069427
153	0xbbf4067f	-0.0074470635
154	0xbdc4f216	-0.09616487
155	0x3ccf069c	0.025271706
156	0x3d8540df	0.06506514
157	0xbdfe8581	-0.124278076
158	0xbd821509	-0.063516684
159	0xbc0e8e8e	-0.00870098
160	0x3d3df1b8	0.0463731
161	0x3c925809	0.017864244
162	0x3bccff13	0.006255993
163	0xbd518f7a	-0.05116222
164	0xbd60f838	-0.05492422
165	0xbd703631	-0.05864543
166	0xbdc285a3	-0.094981454
167	0xbdfe408a	-0.124146536
168	0xbe03f609	-0.12886824
169	0xbda96059	-0.0827033
170	0x3d040ce4	0.032238856
171	0x3c2f0d43	0.010684314
172	0xbe264b02	-0.1623955
173	0xbb68d394	-0.00355265
174	0xbcc8cb9c	-0.024511151
175	0x3dda003a	0.106445745
176	0x3da596b9	0.08085389
177	0x3c992be2	0.018697683
178	0x3d92432a	0.07141717
179	0xbe780230	-0.24219584
180	0x3e19fcfe	0.15037915
181	0xbcbdba90	-0.023160249
182	0x3e4e3f27	0.20141278
183	0x3ddba186	0.107241675
184	0xbd54e199	-0.05197296
185	0xbc4fff94	-0.012695212
186	0xbd6945dd	-0.056951392
187	0x3d885b61	0.06658054
188	0xbcc27b9d	-0.023740584
189	0x3e77e45a	0.24208203
190	0xbe256651	-0.16152312
191	0x3c20dac5	0.009817784
192	0xbde77cf4	-0.1130313
193	0xbcf42d7d	-0.029806847
194	0xbdef6a69	-0.11690218
195	0xbd67f564	-0.056630507
196	0x3dd21ac8	0.10259014
197	0x3e34c230	0.17652202
198	0x3c3baf96	0.011455437
199	0xbd85e807	-0.06538396
200	0x3cc94dfc	0.024573319
201	0x3bd3965b	0.0064571328
202	0xbd97b143	-0.07406857
203	0xbd138235	-0.036012847
204	0x3cc95df6	0.024580937
205	0x3e063a1c	0.13108104
206	0xbdc3f5bf	-0.09568357
207	0xbd72af48	-0.059249192
208	0x3d1c3626	0.038137577
209	0xbe178257	-0.14795814
210	0xbd869bc5	-0.065726794
211	0xbd2d825c	-0.04236065
212	0x3de5a28a	0.112126425
213	0xbb4593db	-0.0030147943
214	0x3c651a6e	0.013983352
215	0xbcbd24e1	-0.023088874
216	0x3d979ae6	0.074025914
217	0x3d89065d	0.06690667
218	0x3e66942b	0.22517459
219	0xbe315586	-0.17317781
220	0xbc9b4d8c	-0.018957876
221	0x3d4c2499	0.04983959
222	0xbc9e3df6	-0.019316655
223	0xbc7522bc	-0.014961895
224	0x3ca2db9e	0.019880112
225	0x3d8218d3	0.06352391
226	0x3c9ae8ff	0.01890993
227	0xbda0e743	-0.0785661
228	0x3dacae22	0.08431651
229	0xbdb892c3	-0.090123676
230	0x3d84932e	0.06473385
231	0x3e1879c2	0.14890197
232	0xbd8cd98b	-0.068774305
233	0xbd291f2d	-0.041289497
234	0x3d227b8a	0.039668597
235	0x3cd417a8	0.025890186
236	0xbc113a6e	-0.008864028
237	0x3c6ca329	0.014443197
238	0x3c5fbacd	0.013655377
239	0x3dd4f661	0.103985555
240	0xbca6231c	-0.020280413
241	0x3e0d8233	0.13819198
242	0xbced51e5	-0.028969714
243	0xbd995b2d	-0.074880935
244	0x3bdcce53	0.006738463
245	0xbd37e58e	-0.044896655
246	0xbdf70456	-0.12061374
247	0xbde19def	-0.110164516
248	0xbde25a32	-0.1105236
249	0x3dea0b86	0.11427979
250	0xbd02e12c	-0.031953022
251	0xbd446543	-0.047948133
252	0x3d3f4561	0.046697024
253	0xbdd1f6e7	-0.10252171
254	0x3d63f7f6	0.055656396
255	0xbe2b052e	-0.16701195
