results/phase4_t1/PlayerAgent/PlayerAgent-999996.onnx (onnx, 90951 bytes, 7 tensors)

action_model._continuous_distribution.mu.weight f4 [1, 128]
000000 92 71 04 bd 61 0e 91 3c ce f3 ab bc ad 8f 98 3b
       -0.03233487 0.017707052 -0.020990279 0.0046557994
000010 38 35 7b bc 7b 32 25 3c 40 6c e0 bc 00 ba bf bb
       -0.015332513 0.010082836 -0.027395368 -0.0058510303
000020 a3 b4 23 bc 22 32 34 ba b0 b9 7a bc 93 ca 0e 3c
       -0.009991798 -0.00068739254 -0.01530306 0.00871529
000030 99 f5 dc bb fe 13 0d bd 78 92 0e bb 07 a2 11 bd
       -0.0067431447 -0.034442894 -0.0021754783 -0.035554912
000040 c7 22 24 3b 11 08 83 bc 34 f1 a5 bc e8 4e b5 bc
       0.0025045143 -0.015995057 -0.020256616 -0.022132352
000050 07 10 4e bc aa 42 29 3c cd a9 6c 3c 49 2b 5f bc
       -0.012577063 0.010330835 0.014444781 -0.01362116
000060 73 e7 a5 ba 5a ba ff bc 11 3c 55 ba 94 18 22 bc
       -0.0012657478 -0.031216789 -0.0008134256 -0.009893555
000070 f8 b8 eb 3c 90 35 33 bc f5 42 01 bd 81 87 48 bc
       0.028774723 -0.010938063 -0.031557996 -0.012239338
000080 31 3f b6 bc 12 64 1b 3d b2 77 60 bb f7 20 28 3d
       -0.022246929 0.03793723 -0.0034251031 0.041047063
000090 c1 98 7d bb 95 91 66 3d e2 20 16 3c 2c 5b 2d bc
       -0.0038695785 0.05629118 0.009163113 -0.010580819
0000a0 84 40 0f bb 90 fc 27 bd 05 08 c4 bc b2 48 08 b8
       -0.0021858523 -0.041012347 -0.023929605 -3.249263e-05
0000b0 2a f0 ef 3b a6 58 00 3d cc 06 16 bc 0e 68 1e 3a
       0.007322331 0.03133454 -0.009156894 0.0006042727
0000c0 74 67 bc bc 1d c1 66 bc 91 73 cf bb 9f c5 1d bd
       -0.022998549 -0.014084128 -0.0063309153 -0.038518544
0000d0 08 94 c0 3c 97 d9 f3 bc c7 fe 14 bc 75 e3 c4 bc
       0.023508087 -0.02976684 -0.009093947 -0.024034241
0000e0 e7 15 b5 3b 8e 5e d0 3c 8d 91 54 bc e0 4a 1c bd
       0.0055262926 0.025435712 -0.012974155 -0.038157344
0000f0 35 ac a1 b9 eb e5 ab 3c 66 72 a4 3b ec a4 38 ba
       -0.00030836617 0.020983657 0.00501852 -0.0007043618
000100 5b ce 4d 3a d4 66 45 bc 7d 23 97 39 12 aa 49 3b
       0.0007850879 -0.012048442 0.00028827405 0.0030771536
000110 17 c4 11 bc cf 74 19 bd bc 0b 0f bb 58 79 3b bb
       -0.008896849 -0.037464913 -0.0021827063 -0.0028606262
000120 19 9e f2 3a fb 28 06 bb 34 c5 dc 3b e9 09 fa 3b
       0.0018510252 -0.0020471204 0.0067373756 0.007630576
000130 99 1e 02 bc 26 1e a9 bb b7 fb 32 3c 05 b1 20 bd
       -0.007941865 -0.0051610647 0.010924271 -0.03923132
000140 db 07 d4 bb 09 4e e4 ba 77 ac 94 3c b6 ef 0f 3d
       -0.006470663 -0.0017418276 0.018148644 0.035140716
000150 d8 2b ca bb 0a b8 b2 3c b4 e3 ec 3a 65 af 6b bb
       -0.0061697774 0.021816272 0.0018073232 -0.0035962698
000160 63 3e 1b bc 1e 9a 68 bc b6 63 0a 3d d9 a0 0d bc
       -0.009475323 -0.014196901 0.033786498 -0.008644306
000170 4d 8b 9c bb 3a 74 1f 3d 8a de cb 3c 4a e5 ac 3c
       -0.004777348 0.0389292 0.024886388 0.021105427
000180 1d e9 0c 3c 6e d6 0c bc d4 79 02 bc 5f 9a 29 3d
       0.0086005 -0.008596046 -0.007963616 0.041406985
000190 66 ae 0b 3c 9a e2 e9 3c be 04 7a bc b3 44 e0 3b
       0.008525467 0.028550435 -0.01525992 0.006844127
0001a0 7c 9a 5c bc 03 8e af 3c d4 b0 d6 bc 96 81 97 3c
       -0.013464566 0.021430021 -0.026207365 0.018494409
0001b0 9a 5b 05 bd fd 81 0c bd 6e 53 43 bc bd 12 aa 3c
       -0.03255806 -0.034303654 -0.011921747 0.020760888
0001c0 f5 72 b3 bb c0 3b 8d 3a a7 43 4b bd 8a fb c3 bb
       -0.0054763504 0.0010775253 -0.049625065 -0.0059809135
0001d0 17 1a 5f 3c 1d 91 02 bd 7a fe 5c bc 87 99 ae bc
       0.01361706 -0.031876672 -0.013488406 -0.021313442
0001e0 be fb 88 3c 24 64 32 bc d5 1d 7b bc 02 6f b7 bb
       0.016721603 -0.010888133 -0.015326937 -0.00559795
0001f0 b7 b6 d2 3c e5 e2 9a bc f8 28 dc bc f8 57 83 3b
       0.02572189 -0.01890702 -0.026875004 0.0040082894

action_model._discrete_distribution.branches.0.bias f4 [2]
000000 25 d9 31 3c 22 d9 31 bc
       0.010854994 -0.010854991

action_model._discrete_distribution.branches.0.weight f4 [2, 128]
000000 0e ee b0 3c a6 47 34 bd ca 4e c6 bc 13 db 9a bc
       0.021597888 -0.04401364 -0.024207491 -0.01890329
000010 e5 48 2b 3d 03 af 86 3d 7a 26 28 3d 78 5f 90 bd
       0.041817565 0.065763496 0.04105232 -0.07049459
000020 31 0c 0d 3d 27 23 8c bd fd 11 1a bd 08 19 7d bd
       0.034435455 -0.06842642 -0.03761481 -0.06179145
000030 d3 62 26 3d 97 6c 15 3d 76 fa 23 3d 0a ed 22 3c
       0.04062159 0.036480512 0.04003378 0.00994421
000040 17 53 92 bc e7 28 32 bd 45 df 21 bb f8 11 bf 3b
       -0.017861886 -0.04349604 -0.002469973 0.0058309995
000050 88 ca 88 3d 94 70 13 3c 0f 79 21 3c ce 56 4d 3d
       0.06679255 0.008999009 0.009855523 0.05013161
000060 4a 67 59 bd 1d 50 10 3d c9 d7 f8 bc ff 7e ec 3c
       -0.05307702 0.035232652 -0.030376332 0.02886915
000070 35 9b ef 3b bc 07 4f 3d c4 95 6c bc 48 8c d3 bc
       0.0073122033 0.050544485 -0.014440004 -0.025823727
000080 d8 95 15 bd 9f e3 36 bd 66 87 f5 bc 14 b8 e6 3b
       -0.036519855 -0.04465067 -0.02997179 0.007040987
000090 1b 0c d7 bc 8e 23 89 3c e8 82 8b 3c 53 8a 88 3d
       -0.02625089 0.016740587 0.017030194 0.06667008
0000a0 f2 7e 1e bc dd c7 6d 3c cf d2 1a 3c 87 95 c9 bb
       -0.009673821 0.014512983 0.009449675 -0.0061518583
0000b0 fb 04 b6 3d 51 c6 5f bb 59 ed d0 bc 04 41 07 bc
       0.08887669 -0.0034145305 -0.025503801 -0.008255247
0000c0 ed bd 65 bd ad de 65 bd ae ab cd 3d 11 18 72 bb
       -0.05608933 -0.056120563 0.10042511 -0.0036940614
0000d0 03 c9 42 3c 5a b6 7e 38 ba dc 7d bd ab 30 af bd
       0.011888745 6.0728147e-05 -0.06197808 -0.085542046
0000e0 1a 35 3c 3d 80 64 b7 3c 53 85 3a 3d 91 f0 63 3c
       0.04594908 0.02238679 0.045537304 0.013912336
0000f0 86 0f 30 3d d6 de ca bc 5b c5 6c 3d 09 ed 3f 3d
       0.042983554 -0.02476446 0.0578054 0.046856914
000100 d6 89 87 3c d4 cd b5 bd b5 0b fc bc b3 4d a5 bd
       0.016545217 -0.08877149 -0.030767301 -0.080714606
000110 25 b3 6e 3c a2 87 01 bd 49 89 c0 bc 00 a6 4f 3c
       0.014569079 -0.03162349 -0.023502963 0.012673855
000120 51 7f a8 3d 83 08 12 bc 9c 09 8a bd 89 f8 38 bb
       0.08227409 -0.008913162 -0.06740114 -0.002822431
000130 45 31 34 3d 28 53 9c bc 6c 4a 2c bd 1e 4c 75 3b
       0.0439923 -0.01908262 -0.04206316 0.0037429403
000140 36 8f cc bc d9 a8 fb bc 67 c6 11 bd 64 46 6e bc
       -0.024970632 -0.030720161 -0.0355896 -0.01454315
000150 0d 3d e6 3c 8a 21 d9 bb cb 0e a9 3d a3 58 ae 3c
       0.028105283 -0.0066263126 0.08254775 0.0212825
000160 cd b4 98 3c c5 0b 2e 3c 98 a2 98 bc f7 bc f2 bc
       0.0186409 0.010622923 -0.018632218 -0.029631121
000170 2c 19 f0 bc 6d 32 89 bc 92 34 2d 3c cb 22 16 bd
       -0.029308878 -0.016747678 0.010571616 -0.036654275
000180 8e 83 3d 3c 4d e7 99 bc dc bd 8e bd d9 9c 4a bd
       0.01156701 -0.01878705 -0.069698066 -0.049465988
000190 ca 81 1f 3d bd 50 60 bc a8 f0 66 bd 93 ea 61 bd
       0.038942136 -0.0136911245 -0.05638185 -0.055155348
0001a0 4c 60 61 3d 24 33 99 3d b3 67 b0 bd 2d c5 4b 3d
       0.055023476 0.074804574 -0.08613529 0.04974859
0001b0 8b 8f 9b bc 69 8a b4 3c d4 6d 2f 3d ed 9c 9b bc
       -0.018989345 0.022038655 0.04282935 -0.018995726
0001c0 8a 01 44 3d 97 30 0f bc 27 c2 15 3d f1 b9 c3 3c
       0.04785303 -0.008739612 0.03656211 0.023892375
0001d0 50 87 8f 3c 43 ff 66 bc 44 66 57 bd 4e 98 f9 bc
       0.017520577 -0.014098945 -0.052587762 -0.030468132
0001e0 7c 63 9c bc 18 64 9e 3c a6 8c c8 bd a5 c6 8f 3c
       -0.019090407 0.019334838 -0.097924516 0.017550776
0001f0 40 fd e5 ba 0d 8f 88 bd 08 24 2f 3d 92 44 0b bd
       -0.0017546788 -0.0666791 0.04275897 -0.03400094
000200 45 41 ba bc 92 95 eb 3c 1c 1b 41 3c 64 95 bc 3c
       -0.022736201 0.028757844 0.011786249 0.023020454
000210 ee de 4a bd ea 05 ad bd a9 71 eb bc 26 e3 84 3d
       -0.04952901 -0.08448394 -0.02874072 0.064886376
000220 a7 96 41 bd e0 8e 24 3d 3b a4 4c 3d 2d 83 34 3d
       -0.047262814 0.04017532 0.04996131 0.04407041
000230 96 16 19 bd a9 fb 23 bd 0a 89 3f bd c0 56 d0 bc
       -0.037375055 -0.040034924 -0.04676155 -0.02543199
000240 df 54 82 3b aa 00 34 3d 1f 94 25 3c d1 cc 3b 3c
       0.0039774026 0.043945946 0.010106116 0.011462406
000250 75 39 92 bd b6 fe a6 bc d3 44 a2 bc d7 eb 33 bd
       -0.07139865 -0.020385128 -0.019808209 -0.043926086
000260 b7 49 3b 3d 5d d6 1c bd 90 88 00 3d 32 cf 2f bd
       0.045724597 -0.03829037 0.031380236 -0.042922206
000270 fc f9 47 bc 2c 06 2f bd 15 c2 11 3c 5d 6a fe 3c
       -0.012205597 -0.042730495 0.00889637 0.031056577
000280 ee 5f 0c 3d 6a a5 14 3d b4 77 34 3d 9d 5e f4 3b
       0.034271173 0.036290564 0.04405947 0.007457568
000290 c8 f4 10 3d 87 c7 8c bb a5 89 dc bc 86 5a 8c bd
       0.03538969 -0.0042962465 -0.026921103 -0.068532035
0002a0 b0 c2 b0 3c bf 7a fb bc 4c 2b c2 bb 7f f0 8d 3c
       0.02157721 -0.030698178 -0.0059255715 0.017326592
0002b0 23 04 97 bd b6 39 41 3c 27 25 93 3c c2 b4 9b 3c
       -0.07373836 0.0117935445 0.017962052 0.01900709
0002c0 6e da a8 3c 95 75 7e 3d c9 f6 c3 bd 81 89 e6 3b
       0.020611968 0.062123854 -0.09568555 0.0070354347
0002d0 67 fd 04 3c 90 6c 1f 3a 84 8d 96 3d 87 5a c8 3d
       0.008117056 0.0006081546 0.07351211 0.09782892
0002e0 ac 9b 2f bd e3 e0 4e b8 ad 58 40 bd 50 5a d4 bc
       -0.04287307 -4.932367e-05 -0.046959568 -0.02592197
0002f0 0a bb 30 bd 6d 1d 0f 3d 1e 4d 3c bd 2b 3f 3f bd
       -0.043147124 0.034940172 -0.045971982 -0.0466911
000300 c2 a0 d7 bc c1 35 b7 3d fb 85 c0 3c dd ab 9b 3d
       -0.026321772 0.089457996 0.023501387 0.0760114
000310 08 e2 a1 b9 c9 aa 0b 3d c0 ad 21 3d 39 8e 4c bc
       -0.0003087672 0.03409842 0.03947234 -0.01248508
000320 b0 2b 98 bd 9e f2 81 bc 53 9a 93 3d 8c 4b 46 b6
       -0.07430208 -0.01586276 0.072071694 -2.9548273e-06
000330 bf f9 5f bd 6f 68 b3 3c ba a5 14 3d 07 12 06 3c
       -0.054681536 0.021900384 0.03629086 0.008183009
000340 12 21 a3 3c eb ea 3c 3d fb 17 0b 3d b0 d8 f7 3c
       0.01991323 0.046122473 0.033958416 0.030254692
000350 ed 73 12 bd 77 10 80 3c f1 8c ad bd 8a 09 a3 bc
       -0.035755087 0.015632851 -0.08474148 -0.01990201
000360 9f 0f 17 bd 05 2f 1d bb b2 ca c2 3c f4 c9 f0 3c
       -0.03688013 -0.0023984325 0.023778293 0.029393174
000370 12 99 20 3d 0c 1b ae 3c c4 d3 f7 ba 1e 20 f9 3c
       0.03920848 0.021253131 -0.0018907716 0.030410822
000380 e5 34 9c bb f4 3e 4a 3c 2b 6c 56 3d de 85 cd 3c
       -0.0047670477 0.012344111 0.05234925 0.025088247
000390 c5 04 0b bd fd 3f f5 3b 8b 36 47 3d d0 3e 41 3d
       -0.033940095 0.0074844346 0.048636 0.047179043
0003a0 ee 62 c4 bd 92 fd a2 bd 84 be 93 3d e7 76 a2 bd
       -0.09589182 -0.07958521 0.07214072 -0.07932835
0003b0 e3 d5 66 3c 26 36 06 bd 1d cf 80 bc cd ca 0a 3d
       0.0140890805 -0.032766484 -0.01572376 0.033884812
0003c0 55 e0 46 bd 04 46 15 3b 78 d7 4c bd 79 ee 29 bd
       -0.048553783 0.0022777328 -0.050010175 -0.04148719
0003d0 92 4a 82 bb b8 a8 a9 3c cc 96 4b 3d 04 cf c7 3c
       -0.0039761746 0.020710334 0.049704358 0.024390705
0003e0 cd 84 f1 3c 4c a8 18 bd 7d 55 c2 3d 22 88 69 bc
       0.02948227 -0.037269875 0.09488962 -0.014253648
0003f0 05 06 af 3c cd fe 3a 3d 18 ed d9 bc 24 90 2f 3d
       0.021365175 0.045653153 -0.026602313 0.042862073

network_body._body_endoder.seq_layers.0.bias f4 [128]
000000 6d c9 34 ba 52 37 bf bb 92 74 75 bc 2d 87 df bc
       -0.000689647 -0.005835452 -0.014981406 -0.027286137
000010 88 fb 0d bc 93 02 3d 3d 6b c3 95 3c e7 ba c0 3c
       -0.008665927 0.046145033 0.01828166 0.023526622
000020 9c 8e 87 3c 44 33 d0 3c b5 76 0b 3d 6a b0 65 3c
       0.016547494 0.02541507 0.034048755 0.014019111
000030 3d 4e a3 bb 7f cf b1 3c fe 8a ca 3c 48 43 09 3c
       -0.004983692 0.021705387 0.02472448 0.0083778575
000040 e1 86 ec 3b c1 78 49 3c 2f b6 4b 3d f6 98 5a bd
       0.0072182273 0.012296856 0.04973429 -0.05336853
000050 10 a9 6b 3c 52 9a dd 3b 90 bf 4c bc 6f e3 b6 ba
       0.014383569 0.006762781 -0.012496844 -0.0013953279
000060 bf c9 d5 3b 3e 78 1d bc 87 3f 05 3d 1d 2b 30 3d
       0.006524294 -0.0096111875 0.032531288 0.043009866
000070 32 ab f3 3b 89 9e 45 bc 68 92 9c 3b 6f e7 48 3d
       0.0074361796 -0.0120617235 0.004778195 0.049048837
000080 29 a8 32 3d f4 ae a9 bb b5 bb 64 3d 5e 18 05 3b
       0.0436174 -0.0051783267 0.055843074 0.0020308713
000090 5d bd 56 3c 73 cd 3f bc 0d cc 04 3d d3 c0 d8 3c
       0.013106671 -0.011706698 0.03242116 0.026459133
0000a0 b1 5a b1 3c b7 e5 02 3c af 88 e7 bc a1 fc 4b bd
       0.02164969 0.007989339 -0.028263418 -0.049801473
0000b0 65 12 03 bc 64 11 16 3d 03 a9 b4 3c c0 b0 16 bc
       -0.007999991 0.03663768 0.022053247 -0.009197414
0000c0 6b e1 3e 3c 48 82 5d b9 a1 d0 fe 3c 43 8f 20 3d
       0.0116504235 -0.00021124736 0.031105341 0.039199125
0000d0 40 ac e0 b9 39 49 96 3c cf 60 12 3d f0 a1 03 bd
       -0.00042852946 0.018345462 0.035736855 -0.032136858
0000e0 3d 1a 21 3c cc 20 90 bc df 57 09 3c f3 a8 4f bd
       0.009832916 -0.017593764 0.0083827665 -0.050698232
0000f0 8e 47 47 3c 67 37 74 bd 50 2a f9 ba 38 f0 0d 3c
       0.012163056 -0.05962315 -0.0019009802 0.00866323
000100 48 48 a4 3c 7e be 34 3b 80 f1 bd 3c 32 f7 27 bb
       0.020053998 0.0027579363 0.023186445 -0.0025629518
000110 27 e4 20 3b 77 97 c0 3c 02 42 02 bd 55 17 09 3c
       0.0024550052 0.023509724 -0.03180123 0.008367379
000120 a8 7c ce 3b 3f c1 bd 3b a5 e0 9e 3c 49 02 8d 3c
       0.0063014813 0.005790859 0.019394228 0.017213004
000130 94 ce 2d 3d 0d 40 ef bb ba f2 92 3c 4c 1c 9f bc
       0.042433336 -0.0073013366 0.017938007 -0.019422673
000140 c2 5e 03 ba 6c b1 04 3d c6 f1 ea 3b 9e 30 67 3c
       -0.00050113734 0.032395765 0.007169935 0.014110712
000150 c9 42 3d bc 16 4e 03 3d 42 62 90 b9 09 89 c1 3c
       -0.011551567 0.03205689 -0.00027539028 0.023624914
000160 9b 83 03 bb af a1 2b 3b 3e 66 88 3c 4b c1 db bb
       -0.0020067457 0.00261889 0.016650315 -0.006706392
000170 8b 5a 86 3a 63 49 bf 3c a0 70 07 3c a1 d0 a2 3c
       0.0010250373 0.023350423 0.008266598 0.019874873
000180 2a 3b fc 3b 92 33 61 3d 0e 44 0a 3d 0c 48 ab bc
       0.0076974826 0.054980822 0.03375631 -0.020908378
000190 06 18 83 3d 55 a3 ed 3c ec 43 76 3c 0f f8 a0 bc
       0.064010665 0.029008547 0.015030842 -0.019649534
0001a0 43 33 32 3d 13 37 d3 3c a4 99 a4 3c 46 97 7b bb
       0.04350592 0.025783097 0.020092793 -0.0038389727
0001b0 d2 e2 5a 3c 4c 30 ae 3c 04 92 c7 bc 45 fb 3d bd
       0.013359742 0.021263264 -0.024361618 -0.046382207
0001c0 49 78 27 3c ce 13 46 3a bd a5 82 3c 54 d7 56 3d
       0.010221549 0.0007556052 0.01594817 0.052451447
0001d0 79 ff e6 3b ef 00 df 3c 24 8d 33 3d 88 60 12 3d
       0.0070494977 0.027222125 0.043835774 0.03573659
0001e0 11 d6 74 3c 07 25 52 bd 72 b9 87 3c a8 a0 b0 3c
       0.0149436155 -0.051304843 0.01656792 0.021560982
0001f0 65 c5 58 bc 42 3b ad 3b 01 36 ad 3c 18 30 05 3c
       -0.013230656 0.005286605 0.021143915 0.008129142

network_body._body_endoder.seq_layers.0.weight f4 [128, 39]
000000 fc f1 62 3e 57 d5 c0 3d 5e 5d 7e 3d 0f 14 a6 bd
       0.22162622 0.09415691 0.06210076 -0.081092946
000010 b5 5c 95 3e 20 bb 55 be c9 ce 42 bc 9c a6 1a be
       0.29172292 -0.20872164 -0.011890122 -0.15102619
000020 59 7f 8c bd ba 86 b9 3d 2f 5d 71 be ce 71 96 3e
       -0.06860227 0.090589 -0.23570703 0.293837
000030 76 f2 3b 3e 13 ad 08 bd 69 11 88 bc 44 22 79 3e
       0.1835421 -0.03336818 -0.016609864 0.24329478
000040 b2 34 56 3e 9e ea 2d bd c4 0e d5 bd e8 6a 25 3e
       0.20918539 -0.042460077 -0.10403207 0.16154063
000050 7b 0c 3a bd 97 69 19 be 00 83 9d bb 61 45 a7 3d
       -0.04542206 -0.14981686 -0.004806876 0.0816753
000060 9c ac 9e 3d da 98 4d 3e d2 d3 c4 bd d1 7d f4 bd
       0.077477664 0.2007784 -0.09610714 -0.1193806
000070 a0 1d 78 3e 17 12 b4 bc f7 10 8c ba 47 25 27 3e
       0.24230051 -0.021981282 -0.0010686208 0.16322814
000080 78 77 ab 3b 8b 84 52 3e 64 b9 51 bd 1f 05 ff bd
       0.0052327476 0.20558374 -0.051202193 -0.12452149
000090 78 b3 82 3d 86 5c 83 3d 0c 07 31 bc 88 e3 9b 3d
       0.06381887 0.06414132 -0.010804903 0.076117575
0000a0 af 7f 11 3e ca ea 53 bd 74 81 b0 bd d6 4f bb be
       0.14208864 -0.051737584 -0.08618441 -0.36584347
0000b0 ca a6 ce 3d f6 6f 98 bd dd 05 0a be e8 43 a2 3e
       0.10090406 -0.0744323 -0.13478799 0.31692433
0000c0 e9 60 7c 3e 7a b1 60 3e db e2 9f 3d 28 8c 0f 3e
       0.24646343 0.21942702 0.07806941 0.14018309
0000d0 9a 47 3e 3d dc e2 30 be 31 3d ce bd b3 91 2a bc
       0.046455003 -0.1727404 -0.10070265 -0.010410714
0000e0 36 75 89 bd ac c3 e1 3e 21 99 79 be 55 c4 96 3e
       -0.06711809 0.44094598 -0.2437482 0.29446664
0000f0 a1 26 30 3d aa 85 0d be e8 24 c3 3d 18 52 07 3e
       0.04300559 -0.1382052 0.09528524 0.1321491
000100 cb 6f 46 3d 34 3b ec 3c 60 b3 8a bb ad a5 02 3e
       0.048446458 0.028836824 -0.004232809 0.12758513
000110 61 b3 58 bc 70 c3 3a 3e 22 39 17 bd 79 f0 ea 3d
       -0.013226361 0.18238616 -0.03691972 0.11471648
000120 10 cf 5c bd 25 18 e2 3d 9c a4 66 bc d1 ea 58 3d
       -0.053908408 0.110397615 -0.014077332 0.052958313
000130 ad 9e 80 be 34 ba 33 bd a3 34 c6 3d 7b 62 27 3d
       -0.2512106 -0.04387875 0.096780084 0.040865403
000140 36 bc 85 3e 15 3e fc bd a0 14 b8 be 39 3b 0e be
       0.26120156 -0.12316529 -0.35953236 -0.13889779
000150 95 7c 49 3e bd eb 6f 3d 11 35 46 be 70 ec b1 bd
       0.1967643 0.058574427 -0.1935618 -0.08687675
000160 2b 37 99 bd b7 3a 18 be 34 f6 07 3d 99 f5 4b 3d
       -0.074812256 -0.14866148 0.033193782 0.049794767
000170 85 68 88 be c7 f9 03 be 7e 44 99 3d 0b 56 ce 3d
       -0.26642242 -0.12888251 0.07483767 0.10075005
000180 b1 45 43 be 3c 9e 2b 3d 2c 8f 4b 3e 4f 91 ac 3c
       -0.19069554 0.04189895 0.19878834 0.021065382
000190 ba 7e 3c bd 62 b7 85 bd 9c 4e cc 3d c0 27 9d bb
       -0.046019293 -0.06529118 0.09975931 -0.0047959983
0001a0 39 15 38 3e 95 8d 15 be 53 7c 33 bc 50 10 b1 bd
       0.17976846 -0.1460479 -0.010954934 -0.086456895
0001b0 99 f9 35 3e c2 f4 08 be 65 bf 97 be b7 0f 36 3e
       0.17770995 -0.13374618 -0.2963821 0.17779432
0001c0 45 d6 08 3d 44 42 c4 be a7 30 3d 3e 1b c0 45 3d
       0.03340747 -0.38331807 0.1847559 0.04827891
0001d0 da f8 37 be dd 0c e2 3c cf 69 5a bd b0 6e 95 3d
       -0.17966023 0.027594024 -0.053323563 0.072965026
0001e0 c9 42 d6 bc 7b b1 01 3c d0 68 7a be 80 d9 d5 bc
       -0.026154893 0.00791585 -0.24454045 -0.026104689
0001f0 36 bd df bd 0d fb ab 3d ef a8 55 3e 49 9a a6 be
       -0.10924761 0.083974935 0.20865224 -0.32539585
000200 d0 32 c0 3d f4 7c e0 3c 94 13 bc bd 7c fa 26 3e
       0.09384692 0.027403332 -0.09183422 0.1630649
000210 42 c8 e1 bd 65 4d 5c 3e d9 96 2d be bd 76 15 be
       -0.11024524 0.21513899 -0.16952075 -0.14596076
000220 88 8a 45 bd d1 44 8d 3e fa 2b 62 bd 80 ac 58 bc
       -0.048227817 0.27591565 -0.05521772 -0.013224721
000230 75 47 63 be 04 37 22 be 0d 05 2b 3d 03 3f 0b 3e
       -0.22195227 -0.158413 0.041752864 0.13598256
000240 51 0d d7 bc 6c 1a 42 3e 3e 25 9f bb 58 8e 20 be
       -0.026251467 0.18955392 -0.0048567345 -0.156793
000250 33 a4 99 bd 71 55 ec 3d 03 e3 20 bc cd 6d a8 be
       -0.07502022 0.11539734 -0.009819749 -0.3289627
000260 02 c3 a7 be 69 50 31 be ee 3f 64 3d ab 48 cf bd
       -0.32765967 -0.1731583 0.05572503 -0.10121282
000270 ee 49 50 3e e9 f8 ec bd b6 d9 b4 3b b6 f6 6c 3e
       0.20340702 -0.11570913 0.005519117 0.23140988
000280 5b 15 5c be b7 fe fe 3d 23 25 51 3d 0c b3 fc bd
       -0.21492521 0.12450927 0.051060807 -0.12338838
000290 db ed d6 3e 35 f6 ad be a6 f6 fa bd 12 b6 0d bd
       0.41978344 -0.33976904 -0.12254076 -0.034597464
0002a0 ca 87 3d 3b 52 dc ac 3e be 8a 54 3d fc 10 8c bd
       0.0028920048 0.3376184 0.051890127 -0.06839177
0002b0 81 e2 54 bd 8c db 71 3e 42 e5 aa bd 47 64 19 be
       -0.051973823 0.23618907 -0.08344509 -0.14979659
0002c0 da 7b 46 bd 13 dc ce bd b2 0d 17 3e 44 7c ba 3d
       -0.048457958 -0.101005696 0.14751318 0.09105733
0002d0 21 65 49 be b9 95 39 3e 87 c0 85 be bf 2e 07 bc
       -0.19667484 0.18123521 -0.2612345 -0.008250891
0002e0 a4 dd 06 be f5 5f 1d 3d 1e 65 51 3d 3b 2c cb bd
       -0.13170487 0.03842159 0.051121823 -0.09920546
0002f0 d0 f9 9b be 57 ea 55 be 47 d1 03 bc 76 51 4d 3c
       -0.3046403 -0.20890175 -0.008045501 0.012531629
000300 d0 93 e2 bd 11 75 8a 3d ab 75 2e 3e ab c4 8d 3e
       -0.11063349 0.0676061 0.17037074 0.27689108
000310 eb 48 83 be a0 65 75 3e a8 e6 3b 3e 29 cb 57 3e
       -0.2564157 0.23964548 0.18349707 0.21073593
000320 d4 25 5f ba fc c2 4e bc b9 54 80 3e c9 01 17 3e
       -0.0008512412 -0.01261973 0.25064638 0.14746775
000330 79 ee 8c bd d7 a1 ee bd c7 54 1b 3e 5f 0d 50 be
       -0.068814225 -0.11651962 0.15169059 -0.203176
000340 18 41 92 3d 1e dd 3c bd 42 aa 80 3e a5 ab 5c 3e
       0.07141322 -0.04610931 0.25129896 0.21549852
000350 ec df 3d 3e 5f f2 0f 3e f7 cb 22 3e d4 24 11 be
       0.1854245 0.14057301 0.15898119 -0.14174205
000360 0c be 76 bd 3f 05 38 3e 13 b6 68 3e eb e4 ce bd
       -0.060239837 0.17970751 0.22725706 -0.101022564
000370 34 18 ce 3e 8c 07 80 be 12 28 a1 3e b1 bf c8 3c
       0.4025284 -0.25005758 0.31475884 0.024505468
000380 55 d2 c4 bd e5 0d 58 be ec 55 20 3d ba 76 10 3b
       -0.0961043 -0.2109905 0.03914444 0.0022043423
000390 bc 85 09 3e ad ee 16 3e b4 e8 a5 3d d7 85 1b bc
       0.13429922 0.14739485 0.08101025 -0.009492359
0003a0 c8 24 3a 3e 26 32 7f b9 7d ce ae 3d 6b 7c 67 be
       0.18178093 -0.00024337377 0.08535478 -0.22606055
0003b0 32 61 62 be e6 c9 f5 3d fd 2e 50 bb ad 37 8a 3e
       -0.2210739 0.120014 -0.0031766288 0.26995602
0003c0 ee b8 8d 3e 52 59 8b bd b6 d0 8a be cf 9b 3f be
       0.27680153 -0.06804146 -0.2711236 -0.1871178
0003d0 09 31 86 bd 76 a5 6a be b7 60 4e be 16 66 3f 3e
       -0.065523215 -0.22914681 -0.20154081 0.18691286
0003e0 ba 1b 49 3d 90 a0 b8 3d 63 01 a1 3e e9 62 ad 3c
       0.049098708 0.09015 0.3144637 0.021165328
0003f0 15 0d 94 be 96 55 69 3e 6a 7c 33 bb 84 23 06 be
       -0.2891623 0.22786555 -0.002738739 -0.13099486

network_body._body_endoder.seq_layers.2.bias f4 [128]
000000 2a 9f 03 3c 78 b5 9c 3c 3b 5f c5 3c 7a c1 33 3c
       0.008033553 0.0191295 0.024093261 0.010971421
000010 72 da 59 3c 36 0e 76 3c 72 cf f2 3b 2f 1d 08 3d
       0.01329671 0.015018037 0.0074099833 0.033230957
000020 d4 08 70 3c 94 fa 71 3c 0d 2c f8 3c 3e e1 40 3c
       0.014650542 0.014769215 0.030294443 0.011772452
000030 39 16 94 3c a8 70 1e 3c 5f 85 92 3c c1 08 39 3c
       0.018077003 0.009670414 0.017885862 0.011293591
000040 20 11 9d bb ba 20 b8 3c e4 86 3b 3c bb 0d 1e 3c
       -0.004793301 0.022476543 0.011445735 0.009646828
000050 d1 68 d9 3c 12 2a 22 bc 84 07 89 bc 8e 42 06 3c
       0.026539238 -0.009897726 -0.016727217 0.008194579
000060 9d 4b 33 3d 76 3d 7f 3c ee a7 d8 3c 51 04 a3 3c
       0.043773282 0.015578618 0.026447263 0.01989952
000070 b7 35 79 bc f9 af a7 3c 31 b4 de 3c 64 89 e6 3c
       -0.0152105605 0.020469652 0.027185531 0.028141685
000080 37 c8 a6 3c ef 91 c2 3b 3e 08 9f 3c 74 61 ad bc
       0.020359142 0.005937807 0.01941311 -0.021164633
000090 17 24 97 3c 35 9e 0a bc fc fc 9a bb 15 e2 c9 3a
       0.018449826 -0.008460571 -0.004729865 0.0015402461
0000a0 7d 8a fc 3b 56 22 24 3c 62 ca 51 3c 0f 38 81 3c
       0.007706939 0.010017952 0.0128045995 0.015773801
0000b0 e3 b8 8b 3c c3 8e 86 3b 42 c7 00 3b 0c 6e b9 3c
       0.017055934 0.004106374 0.0019650017 0.022635482
0000c0 47 8a 02 3d 61 7f 87 3c 1b f6 11 3c a6 9d 57 3c
       0.031870153 0.016540231 0.008908774 0.013160145
0000d0 36 af 01 bd 16 4a e6 3b 10 70 1e 3d 00 24 36 3d
       -0.031661235 0.0070278747 0.03868109 0.044467926
0000e0 f4 54 c9 3b c9 bb 80 bc 1f 7c b6 3c d1 65 92 3c
       0.0061441604 -0.015714543 0.022275982 0.017870815
0000f0 9d ab 21 3c 02 e3 27 3a 22 af 0c 3b 87 55 85 3c
       0.009867576 0.0006404371 0.0021466692 0.016276134
000100 af 1d 3a bb 40 82 d6 3c df a3 63 3c c7 cf f6 3c
       -0.002839904 0.026185155 0.01389405 0.030128373
000110 56 1a 9a 3c 0e 8a 8c 3c 17 8f c4 3c 67 a4 4b bc
       0.018811386 0.017155673 0.023994012 -0.012429333
000120 76 8d ae 3c 1a 07 1c 3b eb cf 18 3d c8 67 69 bc
       0.021307688 0.0023807944 0.03730766 -0.014245935
000130 7f ff 9d 3c 96 7b 03 3c a3 8d 72 3c 14 b7 3c 3c
       0.01928687 0.008025071 0.014804277 0.011518259
000140 36 33 e3 3b 98 c1 d6 3c 6d 35 d1 3c 6d be 2e bc
       0.006933595 0.02621536 0.02553817 -0.010665518
000150 a6 41 34 bb dd 83 c8 bc 56 5b 36 3c 07 63 85 bb
       -0.002750495 -0.02447694 0.011130175 -0.004070643
000160 99 5c a7 3c e9 ed c8 3b eb f9 07 bc fb 04 18 3d
       0.020429896 0.0061318767 -0.008299331 0.037114125
000170 9c 57 b2 3c 0c 74 57 bc 3a f8 54 bc 01 43 57 3c
       0.021770291 -0.013150226 -0.012998635 0.013138534
000180 8b 50 e6 bc f9 dc 1c 3c 19 04 4a 3d 82 e8 ce 3b
       -0.028114578 0.009574168 0.049320314 0.006314338
000190 d1 ce 4a bb e1 4a a7 bb 6a e9 b2 3c fc 37 9c 3c
       -0.0030946026 -0.005105362 0.021839816 0.019069664
0001a0 29 b9 9b 3c 92 6b 01 3c f7 2c 0c 3d ec fe 15 3b
       0.01900919 0.007899182 0.03422257 0.002288754
0001b0 a2 68 ed 3b 48 1a c5 ba a2 54 a4 3c 65 94 6b 3b
       0.007245139 -0.001503774 0.020059887 0.0035946604
0001c0 2d d1 b1 3c 05 9c 20 bb 41 33 4c 3c 10 50 10 bc
       0.021706188 -0.0024507057 0.012463392 -0.008808151
0001d0 16 e9 08 bc 8b d4 69 3c 8d df 60 3c 43 93 81 3c
       -0.008356353 0.014271866 0.013725174 0.01581729
0001e0 f5 9e 0f bd d3 b8 8b 3c 73 71 12 3d 22 b8 1b 3c
       -0.035063703 0.017055904 0.035752725 0.00950435
0001f0 e0 75 5c bc 8a e6 05 3d c6 e2 c1 3b 11 a2 e3 3c
       -0.013455838 0.032690562 0.005916926 0.02778724

network_body._body_endoder.seq_layers.2.weight f4 [128, 128]
000000 3d 59 57 bd 8f 24 77 3d c3 28 78 bd c3 bf 68 bd
       -0.05257534 0.0603376 -0.06058575 -0.056823503
000010 d3 13 c1 bc 94 9e 52 be 29 6b 0b 3d 3e 30 41 3e
       -0.023569023 -0.20568305 0.034037743 0.18866059
000020 30 ca e6 3d 00 c1 dd bc d9 a3 5e 3d 35 45 9c bd
       0.11269033 -0.027069569 0.054355476 -0.07630388
000030 5a 60 9e 3d dd 7d 8e bd 4a 87 94 3c 6e fe ad 3d
       0.07733221 -0.069576 0.018130917 0.08495794
000040 d1 df e6 3d b6 ce bf 3c b4 6d 3e be 17 5d 95 bc
       0.11273158 0.023413997 -0.18596536 -0.018232865
000050 bd ac 86 3c d7 86 e7 bd 1c 51 33 bc ac d2 fc 3d
       0.01643979 -0.113050155 -0.010944631 0.1234487
000060 ed 2c 5d 3d 1e b2 89 3c 99 2e af bd 8c 43 e9 3d
       0.053997923 0.016808566 -0.0855381 0.11389837
000070 46 7b 44 bd 35 2e 87 3d 2f ea b9 bc d9 33 9f bd
       -0.047969125 0.0660061 -0.022694675 -0.07773561
000080 18 a6 12 3d ab 57 df 3c 3f b8 e1 bd ae 5d e4 3d
       0.03580293 0.027263483 -0.1102147 0.111506805
000090 2f 1f 8d 3d 20 22 52 bd c1 4e c5 bd 1b 0e 36 3d
       0.068907134 -0.051302075 -0.09634162 0.044447046
0000a0 eb 0f 6c 3c fc d7 9a 3c 11 73 3b be 98 e4 87 bd
       0.014408092 0.018901818 -0.18305613 -0.06635398
0000b0 c0 a5 ed 3d bd cc 83 3e 9c cc b4 bd 37 a1 a4 3d
       0.1160388 0.2574214 -0.08828089 0.08038562
0000c0 f8 c9 05 3e d9 f0 e5 3b 0c 02 96 b9 81 d3 88 3c
       0.13065326 0.0070172367 -0.00028611755 0.016702415
0000d0 79 3c a3 3d c4 5e 4b bd 7b 6f 46 3d c3 5c bb 3d
       0.079705186 -0.049650922 0.04844616 0.09148552
0000e0 9f bb 5c 3c 0e 04 d6 bc b6 b7 88 3e 81 97 16 bd
       0.013472467 -0.02612498 0.2670266 -0.03676558
0000f0 78 79 ed bd 18 9a 9c 3d 74 10 a7 3d 09 67 e3 3d
       -0.11595434 0.076465786 0.08157435 0.11103637
000100 e4 2a 62 3d c9 9d 05 bc 69 1b 87 3d fb 12 92 3d
       0.055216685 -0.008155295 0.06597025 0.071325265
000110 af be 61 3d 6b 13 81 bd 51 a4 bf bd d2 ea 21 3e
       0.05511349 -0.06302532 -0.09357513 0.15812233
000120 f6 41 b3 bc 46 0a 00 3d 9a 01 01 be 53 31 12 bd
       -0.021882039 0.031259798 -0.12598267 -0.03569157
000130 a0 97 5f be 70 69 da bd 86 ba 83 bd 79 74 97 3d
       -0.21835184 -0.10664642 -0.06432061 0.07395262
000140 ec f1 f6 3c 62 69 6f 3e 8a 23 a1 3d 06 b4 50 be
       0.030144654 0.23380044 0.07868107 -0.20381173
000150 f2 f1 03 be ec e2 b5 3d 22 40 c5 3d bd 5b 35 3c
       -0.12885264 0.088811725 0.09631373 0.011069235
000160 d6 2f af 3b a0 10 4b 3d 06 10 60 bd 44 9b c5 bd
       0.0053462787 0.0495764 -0.05470278 -0.09648755
000170 35 6f 71 be e9 d5 eb bd 05 07 b3 bd 08 0d 70 3d
       -0.23577578 -0.115154095 -0.08741573 0.058606178
000180 66 40 10 bc e4 bb 45 3d 77 a2 5e be 13 b2 f0 3d
       -0.008804416 0.04827489 -0.21741663 0.11752715
000190 34 a4 24 3d 63 5c c4 bd b0 e9 4f 3b c2 d8 13 bd
       0.04019566 -0.09587934 0.0031724982 -0.03609539
0001a0 94 25 0d be bf ce 98 3c e3 73 01 3b 59 8b 81 3c
       -0.13783866 0.018653272 0.0019752912 0.015813516
0001b0 43 df 7c 3d bc 01 24 bb c2 76 0c 3e ea 4f a4 bd
       0.061736356 -0.0025025448 0.13717178 -0.08023055
0001c0 97 77 4e 3d fe 93 9c bd 29 fa 9b 3d d6 d5 62 bd
       0.05040702 -0.07645415 0.07616074 -0.05537971
0001d0 3d 29 b6 3c 67 b2 33 be 93 2c b5 bd 4b 75 9a bd
       0.02223646 -0.17548524 -0.088463925 -0.07541903
0001e0 7e 90 c8 bb 9e f7 e6 bd 1e e8 31 be c8 69 10 3e
       -0.0061207404 -0.11277698 -0.17373702 0.14102852
0001f0 fb 51 15 be 32 b6 df 3d e8 ad a2 bd 07 20 7b bb
       -0.14582054 0.10923423 -0.07943326 -0.003831865
000200 52 dd 1f bc 43 0a 91 3e d3 7c 1e be 83 0d 18 3e
       -0.009757357 0.28328142 -0.15477304 0.14848904
000210 52 f8 b9 ba b9 54 1c be 6d 98 21 be 18 06 98 bd
       -0.0014188385 -0.15266694 -0.15780802 -0.07423037
000220 20 69 85 bd e4 2b d6 3d d8 d9 11 3e 8d a4 67 be
       -0.06514192 0.1045759 0.14243257 -0.22621365
000230 8f 49 16 bd b4 20 d2 3d ec 9a ee 3d e9 b0 8d 3d
       -0.036691245 0.10260144 0.11650643 0.069185086
000240 aa 9a 5c 3e df 91 0c bd 53 b7 a2 3e a2 28 88 bd
       0.21543375 -0.0343188 0.3178049 -0.06648375
000250 d9 d8 e1 bd 09 df 31 3b 5c df ab bd e5 43 fe 3d
       -0.110276885 0.0027140996 -0.08392212 0.124152936
000260 48 f4 7b 3d f2 c5 03 bd f4 a4 65 3c 64 9f 75 bd
       0.06151226 -0.032171197 0.014016379 -0.05996646
000270 d8 46 56 3d 96 7d 8f 3c 65 c8 34 3e 1b ea ab bc
       0.052313656 0.017515939 0.1765457 -0.020985654
000280 7a 6c d1 3d 16 b4 36 3d 6e 24 ee 3d b3 7b 11 be
       0.102257684 0.044605337 0.11628042 -0.14207344
000290 51 18 ce bd 46 a9 c5 3c fe 26 2b 3e e2 95 a5 3d
       -0.10063232 0.024128567 0.16714093 0.080852285
0002a0 a8 85 92 bd 15 f3 95 bd a5 e6 2a 3e 8f e4 1b bd
       -0.07154399 -0.07321755 0.16689546 -0.038059767
0002b0 ee 8f 9b bd 2e 39 f1 bc 8d 23 cd bc 4c a1 04 be
       -0.07595812 -0.02944621 -0.025041366 -0.12952155
0002c0 86 50 31 bd 13 04 32 bd 81 88 2c 3d 1d 32 44 3d
       -0.043289684 -0.043460917 0.042122368 0.047899354
0002d0 72 88 24 3e 82 eb cb bc 3b c3 29 3e 23 5f 94 bd
       0.16067675 -0.024892572 0.16578381 -0.072447084
0002e0 b6 be 5d bc f0 fa 39 3e 53 82 74 3d 4b 69 f2 bd
       -0.013534239 0.18162131 0.0596946 -0.11836489
0002f0 86 09 84 3d a0 b8 76 3d 54 b7 96 bc 49 f0 6d be
       0.06447129 0.060234666 -0.018397965 -0.23236193
000300 ab 89 6b 3c 25 05 c3 3d b6 cb 33 3d c5 b1 8e 3c
       0.014376084 0.095224656 0.043895446 0.017418751
000310 b6 ea 51 bd 94 f2 c3 bd 8e eb f1 bd 89 b7 9a 3c
       -0.05124923 -0.095677525 -0.118125066 0.018886345
000320 a5 11 cf 3c f3 48 26 bd c9 68 48 bd c2 15 48 3d
       0.025276968 -0.040596914 -0.048928056 0.048848875
000330 d7 e2 25 3e 0b 1f b2 bd 1c c4 fd 3c 5d 33 95 bd
       0.16199814 -0.08697327 0.030977301 -0.072851874
000340 d9 7a a6 3c 9b c1 85 3c f0 06 3b bd e4 62 be bd
       0.02032225 0.01632767 -0.045660913 -0.09296206
000350 1d 71 f4 bc b3 dc 04 bd 50 a6 61 3d cb 3d 56 bc
       -0.029839093 -0.032437038 0.05509025 -0.013076256
000360 96 e3 09 3e 63 f5 54 3d b2 45 33 3e 1e 45 ca bd
       0.13465723 0.05199183 0.17507055 -0.09876464
000370 45 08 56 bd 66 8d 8d 3c b8 8a 5f bd 34 0e 44 be
       -0.05225398 0.017279338 -0.054575652 -0.19146043
000380 68 f6 13 3d de cc a3 3d 17 74 7d 3d 58 cc 87 bc
       0.036123663 0.0799806 0.06187829 -0.01657693
000390 46 11 3e 3d ef 50 a6 3d b8 c7 ef bd 78 c1 92 bd
       0.046403192 0.081209056 -0.11708015 -0.071658075
0003a0 bf 59 01 3e 72 78 23 3d a7 6c 40 ba 4f cd e5 bd
       0.12631892 0.039909787 -0.0007340409 -0.112208
0003b0 30 b5 62 bd 5d ce b4 3d b3 0e 45 3d 07 cb 81 bd
       -0.055348575 0.08828423 0.04810972 -0.063375525
0003c0 17 58 d5 3b c2 fd eb 3c 00 64 6a 3d 9a c5 81 bd
       0.0065107453 0.028807525 0.057224274 -0.06336518
0003d0 18 17 e7 3d 46 f2 84 bd 18 a4 ae 3d 99 71 32 3e
       0.11283702 -0.064915225 0.08527392 0.17426147
0003e0 bd b8 e5 bd d0 bc 2c 3c 63 af 44 bd db 12 af 3d
       -0.11216877 0.010543063 -0.048018824 0.08548518
0003f0 73 87 60 3d b4 e9 58 3d 5c 87 ec bc 5f 8b 66 bd
       0.054816674 0.05295725 -0.028873138 -0.05628526
