results/phase4_t1/PlayerAgent/PlayerAgent-1499979.onnx (onnx, 90951 bytes, 7 tensors)

action_model._continuous_distribution.mu.weight f4 [1, 128]
0	0xbd1141c7	-0.03546312
1	0x3c2f1e48	0.010688372
2	0xbcf31419	-0.02967267
3	0xbc1abbcb	-0.009444187
4	0xbc953844	-0.018215306
5	0x3c3a0fca	0.0113563035
6	0xbcaeb8ce	-0.021328356
7	0xbc27ddaa	-0.01024572
8	0xbc58edc7	-0.013240284
9	0x3a76c03b	0.00094128
10	0xbc440ad9	-0.011965477
11	0x3c86551b	0.016398003
12	0xbbf390c3	-0.0074330284
13	0xbd1981a8	-0.037477165
14	0xbb5a5759	-0.0033316223
15	0xbd187025	-0.037216324
16	0x3c17c57e	0.009263394
17	0xbc5b8221	-0.013397724
18	0xbc9fb3f6	-0.019494992
19	0xbc5a5856	-0.013326725
20	0xbc6506ef	-0.013978704
21	0x3c2df8fe	0.010618446
22	0x3c882733	0.016620254
23	0xbc42707f	-0.0118676415
24	0xbc3efabc	-0.011656459
25	0xbcf7c61a	-0.03024583
26	0x3b79e07a	0.0038128183
27	0xbc5224c4	-0.012826148
28	0x3cf9d1c9	0.030495541
29	0xbc0a34df	-0.008435457
30	0xbcf6aae8	-0.030110791
31	0xbc81896d	-0.0158126
32	0xbc9bcdba	-0.019018997
33	0x3d11769e	0.035513513
34	0x3b443a8a	0.0029942119
35	0x3d1f3106	0.03886511
36	0x3b7231a2	0.0036955853
37	0x3d593478	0.053028554
38	0x3bffbc75	0.0078044483
39	0xbbc85ad9	-0.0061143455
40	0xbbc1bccd	-0.0059123994
41	0xbd189c69	-0.03725854
42	0xbcbcb7d1	-0.02303687
43	0xbb245a5b	-0.002507827
44	0x3c1bf8dd	0.009519783
45	0x3cd69a90	0.026196748
46	0x3abdf3dc	0.0014492231
47	0xbc0ad34f	-0.008473231
48	0xbbca931e	-0.0061820885
49	0xbc2edf6c	-0.010673385
50	0x3b46380c	0.003024581
51	0xbd09206e	-0.033478193
52	0x3ccdbe01	0.025115015
53	0xbd068d9a	-0.032849886
54	0xbba45bd0	-0.0050158277
55	0xbccfb5f9	-0.025355326
56	0x3be8aa46	0.0071003763
57	0x3cdf2b96	0.027242463
58	0xbc2b709d	-0.010463861
59	0xbd0c2733	-0.03421707
60	0x3ba5bd25	0.005057948
61	0x3c25c1b3	0.010116982
62	0x3b89e0bf	0.0042077
63	0x3ade9d28	0.0016984092
64	0xb740046c	-1.1445121e-05
65	0xbc6ee29e	-0.014580397
66	0x37a97ca0	2.0204403e-05
67	0x3bf5e4ba	0.007504073
68	0xbc28126a	-0.0102582965
69	0xbcff816c	-0.031189643
70	0xba21dcca	-0.0006174563
71	0x398279d2	0.00024886295
72	0x3b560820	0.0032658651
73	0x3b8b8f4e	0.0042590266
74	0x3ba45f0f	0.0050162147
75	0x3c06b1a4	0.008221064
76	0xbbad8eca	-0.005296563
77	0xbc5beb50	-0.013422802
78	0xbb7745dc	-0.0037730848
79	0xbd1a8bda	-0.03773103
80	0xbb5d2121	-0.003374167
81	0xb9ed44b1	-0.00045255342
82	0xbab1d9a2	-0.0013568888
83	0x3d10ba3b	0.035333853
84	0xbb4aeb23	-0.0030962906
85	0x3cc5a88e	0.024128225
86	0x3b030fb2	0.0019998369
87	0xbba0cb03	-0.0049070134
88	0xbc26080f	-0.010133757
89	0xbc91eafc	-0.017812245
90	0x3d04b915	0.03240307
91	0xbc4a4ddc	-0.012347665
92	0x3c875e7e	0.01652455
93	0x3d234fd2	0.039871044
94	0x3cd0c923	0.025486534
95	0x3cb84fae	0.022498932
96	0x3c00508c	0.007831704
97	0x3b9180d4	0.0044404063
98	0x3c4b52d8	0.012409888
99	0x3cecc083	0.02890039
100	0x3b0363ff	0.0020048616
101	0x3cfa5a2b	0.030560574
102	0xbc25daba	-0.010122949
103	0x3bfa47a5	0.007637935
104	0xbc38c895	-0.011278291
105	0x3cb0524c	0.021523617
106	0xbcd2e4aa	-0.025743801
107	0x3c9a38fd	0.018826002
108	0xbcf62b5f	-0.030049978
109	0xbd0bf38d	-0.034167815
110	0xbc4a6ce7	-0.012355066
111	0x3c86feb8	0.016478881
112	0xbb2be1cd	-0.0026227117
113	0xbcb38cec	-0.021917783
114	0xbd564694	-0.052313402
115	0xbc91a649	-0.017779486
116	0x3c47fdea	0.012206534
117	0xbcbfadaf	-0.023398248
118	0xbbc3e964	-0.00597875
119	0xbc7ed093	-0.015552658
120	0x3c9c6d86	0.019095194
121	0xbc261d72	-0.010138856
122	0xbc1399f3	-0.009008872
123	0xbc2c2c00	-0.010508537
124	0x3c958de7	0.01825614
125	0xbc97c9eb	-0.0185289
126	0xbcd49636	-0.025950532
127	0x3a95e31a	0.0011435479

action_model._discrete_distribution.branches.0.bias f4 [2]
0	0x3bf3e1d1	0.007442691
1	0xbbf3e1cc	-0.0074426886

action_model._discrete_distribution.branches.0.weight f4 [2, 128]
0	0x3cb3c801	0.021945955
1	0xbd50ae41	-0.05094743
2	0xbd0f4bfd	-0.034984577
3	0xbd59fd12	-0.053219862
4	0x3d61caf4	0.05512519
5	0x3d9fd536	0.07804339
6	0x3d81cba5	0.0633767
7	0xbda71e00	-0.08160019
8	0x3d6c9bc8	0.057765752
9	0xbdcf0948	-0.10109192
10	0xbd8c85fc	-0.06861493
11	0xbd9b1d27	-0.0757392
12	0x3d5d1cdd	0.053982604
13	0x3d567c32	0.052364536
14	0x3d5dab65	0.054118533
15	0x3c790041	0.015197814
16	0xbcf90ee0	-0.0304026
17	0xbd980ee0	-0.07424712
18	0x3b6f829f	0.0036546362
19	0x3baf846c	0.005356362
20	0x3d99a69d	0.07502482
21	0x3c0a4b8a	0.0084408615
22	0x3c8c2679	0.017108189
23	0x3d832c76	0.064049646
24	0xbda520a4	-0.08062866
25	0x3d2cb65b	0.042166095
26	0xbd859163	-0.06521871
27	0x3d310894	0.04322107
28	0x3c1b65b7	0.0094847
29	0x3d754e87	0.059889343
30	0xbcc19362	-0.023629848
31	0xbd59c0d8	-0.053162426
32	0xbd41a958	-0.04728064
33	0xbdaee795	-0.085402645
34	0xbd233668	-0.039846808
35	0xbba4672c	-0.005017182
36	0xbcf68cc3	-0.030096417
37	0x3c0a6923	0.008447918
38	0x3cc90af3	0.024541354
39	0x3df6bc4a	0.12047632
40	0xbcd30b20	-0.02576214
41	0x3bb45831	0.0055036773
42	0x3c5cf20d	0.013485444
43	0xbc596cbe	-0.013270555
44	0x3dce08b6	0.10060255
45	0xbbaa94c5	-0.005205723
46	0xbcfc9360	-0.030831993
47	0xbd37b5cc	-0.04485111
48	0xbdb1d235	-0.08682672
49	0xbd859638	-0.065227926
50	0x3e039127	0.1284834
51	0xbca372a7	-0.019952131
52	0x3c7750f5	0.015094985
53	0x3a72ec41	0.0009266772
54	0xbda34560	-0.079722166
55	0xbdd3c4da	-0.10340281
56	0x3d6e9582	0.05824805
57	0x3cec667e	0.028857466
58	0x3d779a0a	0.060449637
59	0x3ca230ef	0.019798724
60	0x3d6692eb	0.056292456
61	0xbd397a24	-0.045282498
62	0x3d99ac41	0.07503558
63	0x3d6162f8	0.055026025
64	0x3d1193c7	0.035541322
65	0xbdecd560	-0.115641356
66	0xbd79ac92	-0.06095559
67	0xbdce005a	-0.10058661
68	0x3c88d21d	0.016701752
69	0xbd7d59c0	-0.06185317
70	0xbd6e894a	-0.058236398
71	0x3cf6a4ec	0.030107938
72	0x3dcc9845	0.099899806
73	0xbbc83729	-0.006110091
74	0xbd95c1cc	-0.073123544
75	0x3a56f8dc	0.0008200535
76	0x3d6c9190	0.057756007
77	0xbd305b3f	-0.04305577
78	0xbda17b4d	-0.07884846
79	0xbbbfa5ea	-0.005848636
80	0xbd7c5505	-0.06160452
81	0xbd38550d	-0.045002986
82	0xbd7be203	-0.06149484
83	0xbc5febf2	-0.013667094
84	0x3d966ea3	0.07345321
85	0xbb837de4	-0.00401281
86	0x3dfd6060	0.12371898
87	0x3d0c15cd	0.03420048
88	0x3cd2ad18	0.025717303
89	0x3c959bf6	0.018262845
90	0xbcd912ce	-0.026498225
91	0xbd7f23ec	-0.062290117
92	0xbd859f1c	-0.06524488
93	0xbcb97838	-0.022640333
94	0x3c1f32c5	0.009716694
95	0xbd9df674	-0.07713023
96	0x3c99e4e2	0.018785898
97	0xbcf15625	-0.029460022
98	0xbdb6e5db	-0.0893056
99	0xbd8285e8	-0.06373197
100	0x3d58a93c	0.05289577
101	0xbca7e33f	-0.020494102
102	0xbd7a3f10	-0.061095297
103	0xbda85ee6	-0.082212254
104	0x3d9fdb28	0.078054726
105	0x3dcce362	0.10004307
106	0xbdcee65e	-0.10102533
107	0x3d80650e	0.06269275
108	0xbcccd84c	-0.025005482
109	0x3cd3387a	0.025783766
110	0x3d467749	0.048453603
111	0xbcc5141e	-0.024057444
112	0x3d837da8	0.064204514
113	0xbb23a7fa	-0.0024971948
114	0x3d3b45fe	0.045721047
115	0x3d579015	0.05262764
116	0x3cd4a7ea	0.025958974
117	0xbc88b326	-0.016686987
118	0xbd93055a	-0.07178755
119	0xbd6ae7b0	-0.05734986
120	0xbc7a9269	-0.015293696
121	0x3cf135e0	0.029444635
122	0xbdee2865	-0.116287984
123	0x3c68994f	0.014196708
124	0xbc8d4c48	-0.017248288
125	0xbd996abe	-0.074910626
126	0x3d6d6298	0.057955354
127	0xbd849367	-0.06473427
128	0xbcbd1b3a	-0.023084272
129	0x3d12317f	0.035691734
130	0x3cb8d6be	0.022563335
131	0x3d6ada31	0.05733699
132	0xbd80b080	-0.06283665
133	0xbdc62c1d	-0.09676383
134	0xbd5129b5	-0.051065166
135	0x3d9ba1ae	0.07599197
136	0xbd90930d	-0.07059298
137	0x3d952d92	0.072840825
138	0x3da5cf27	0.08096152
139	0x3d6da493	0.05801828
140	0xbd4fd0a4	-0.050736085
141	0xbd650b43	-0.055918943
142	0xbd7939f9	-0.060846303
143	0xbcfb603c	-0.030685537
144	0x3c8750ef	0.016518084
145	0x3d98fac5	0.074697055
146	0x3b82776e	0.0039815223
147	0x3c43939c	0.011937048
148	0xbda3158a	-0.079630926
149	0xbca26c43	-0.019827014
150	0xbcddaecf	-0.027060894
151	0xbd6cedef	-0.0578441
152	0x3d9611db	0.073276244
153	0xbd393c9b	-0.045223814
154	0x3d879fbd	0.066222645
155	0xbd6a9856	-0.057274185
156	0xbc6b9218	-0.014378093
157	0xbd554cfb	-0.052075367
158	0x3c94298d	0.01808622
159	0x3d6f2fe3	0.058395278
160	0x3d38736f	0.04503196
161	0x3d9dc87c	0.07704255
162	0x3d5cea66	0.053934477
163	0x3c9fdf70	0.019515723
164	0x3d20b519	0.03923521
165	0x3b82f45d	0.0039964155
166	0xbd0d08de	-0.034432285
167	0xbdfa8c7b	-0.12233826
168	0x3d1a4734	0.03766556
169	0xbcb1acdc	-0.021688871
170	0xbc2334e5	-0.0099613415
171	0x3cc8417a	0.024445284
172	0xbdaf07df	-0.08546423
173	0x3c5e92a4	0.013584767
174	0x3cbecb36	0.023290258
175	0x3d63bff1	0.05560297
176	0x3d52538f	0.05134922
177	0x3d91e1a2	0.07123114
178	0xbdfd6d7e	-0.123743996
179	0x3cbed203	0.0232935
180	0x3ba0eaf7	0.0049108225
181	0xb98728ca	-0.00025779597
182	0x3dbae486	0.09125619
183	0x3deceeb6	0.11568968
184	0xbd61fc18	-0.055172056
185	0xbbd5a5cc	-0.0065200087
186	0xbd7d6d64	-0.0618719
187	0xbd02497c	-0.03180836
188	0xbd673e6e	-0.056456022
189	0x3d632826	0.05545821
190	0xbd817014	-0.06320205
191	0xbd60b51b	-0.054860216
192	0xbd399f2e	-0.04531782
193	0x3dee3d4d	0.11632786
194	0x3d5be9a5	0.053689618
195	0x3dc45e84	0.0958834
196	0xbb200096	-0.0024414412
197	0x3d83be6d	0.06432805
198	0x3d97f940	0.074205875
199	0xbcf51904	-0.029919155
200	0xbdbc44a3	-0.09192779
201	0xbc98e917	-0.018665833
202	0x3d9f5282	0.07779409
203	0xbb6ee866	-0.0036454438
204	0xbd8c2cfe	-0.06844519
205	0x3d3be5e6	0.045873545
206	0x3d95a8f5	0.073076166
207	0x3c919c04	0.01777459
208	0x3d679df9	0.05654714
209	0x3d776b8d	0.060405303
210	0x3d753394	0.05986364
211	0x3cf0ab74	0.02937863
212	0xbda61959	-0.081103034
213	0x3c554f1e	0.013019351
214	0xbe00ef47	-0.12591277
215	0xbd066e3b	-0.032819968
216	0xbd340bb8	-0.04395649
217	0xbc2477ee	-0.010038359
218	0x3d019d79	0.03164432
219	0x3d7e2a6d	0.06205218
220	0x3d99e552	0.075144425
221	0x3cde60d7	0.027145786
222	0xba87c543	-0.0010358471
223	0x3d912d19	0.0708868
224	0xbc44607f	-0.011985897
225	0x3cbc8e4c	0.023017071
226	0x3d935e11	0.07195676
227	0x3d2131f8	0.039354295
228	0xbd442c38	-0.047893733
229	0x3c6a15a5	0.014287387
230	0x3d5a84f3	0.053349447
231	0x3d9808f7	0.07423585
232	0xbdf38de0	-0.11892295
233	0xbdd6adcd	-0.104823686
234	0x3db23d32	0.08703078
235	0xbdbcf957	-0.09227245
236	0x3ca4b3b5	0.020105222
237	0xbd158d2a	-0.036511578
238	0xbcaee1c4	-0.021347888
239	0x3d1f866f	0.038946565
240	0xbd84ed06	-0.06490521
241	0xbb81ea2a	-0.003964682
242	0xbd725b52	-0.05916912
243	0xbd8fd0d6	-0.07022254
244	0xbc4b6687	-0.012414581
245	0x3cbedc33	0.023298359
246	0x3d8d1d9d	0.06890414
247	0x3d520310	0.051272452
248	0x3cd26a96	0.02568559
249	0xbd421137	-0.0473797
250	0x3de7f13c	0.11325309
251	0xbc32944a	-0.010899613
252	0x3d16f937	0.036858764
253	0x3d5cb5f2	0.053884454
254	0xbd2b3513	-0.041798662
255	0x3d96b92c	0.073595375

network_body._body_endoder.seq_layers.0.bias f4 [128]
0	0x3a7bfe76	0.0009612808
1	0xbbb188df	-0.0054179276
2	0xbc8a36ba	-0.016871799
3	0xbd817f03	-0.06323054
4	0xbc310309	-0.010803946
5	0x3d42ab21	0.047526482
6	0x3cc97fc1	0.02459705
7	0x3c95ec5d	0.018301183
8	0x3c8c17c0	0.017101169
9	0x3cfd9144	0.030953057
10	0x3d085916	0.033288084
11	0x3cbcbe6e	0.023040023
12	0xbb0e7e39	-0.0021742715
13	0x3d2e838b	0.042605918
14	0x3d11c61e	0.03558933
15	0x3c831b91	0.016004356
16	0x3baf111f	0.005342617
17	0x3c39c9b4	0.011339594
18	0x3d5396c5	0.051657457
19	0xbd764b5e	-0.06013047
20	0x3ccea5a6	0.025225472
21	0x3b392856	0.0028252802
22	0xbcbb98a0	-0.022899926
23	0x3b56ecfd	0.0032795065
24	0x3c55fb3d	0.013060388
25	0xbadbb159	-0.0016761228
26	0x3d1e8500	0.038701057
27	0x3d51a4ab	0.05118243
28	0x3a099efc	0.0005249826
29	0xbae46d6c	-0.001742763
30	0xbcc25945	-0.023724208
31	0x3d571373	0.052508783
32	0x3d528cd8	0.05140385
33	0xbc6906b5	-0.0142227905
34	0x3d9c9e87	0.07647424
35	0x3b0a2934	0.0021081688
36	0x3c14b6b6	0.009076765
37	0xbc1c1d22	-0.00952843
38	0x3d2b199c	0.04177247
39	0x3d0aaa2b	0.03385369
40	0x3cd904f1	0.026491614
41	0x3c76ea54	0.015070517
42	0xbd6924a7	-0.05691972
43	0xbd9a54d8	-0.07535714
44	0xbc9461a3	-0.018112963
45	0x3d390884	0.045174137
46	0x3d033f2e	0.032042675
47	0xbc59f852	-0.013303833
48	0x3ce37d73	0.02776978
49	0xbc060466	-0.00817976
50	0x3d0da2e3	0.03457917
51	0x3d20f771	0.03929848
52	0x3bec52b8	0.0072120093
53	0x3c1d0680	0.009584069
54	0x3d4eacc1	0.05045772
55	0xbcd38363	-0.025819486
56	0x3c126ab3	0.008936572
57	0xbd09bfae	-0.033630066
58	0x3cb8f98b	0.022579929
59	0xbd99422e	-0.07483326
60	0x3c321244	0.010868613
61	0xbdb81d6e	-0.08989988
62	0xbb7d5b09	-0.0038658998
63	0x3ca2934c	0.019845627
64	0x3c8f44c0	0.017488837
65	0x3c39e076	0.01134502
66	0x3c91ee07	0.017813696
67	0xbc649843	-0.013952318
68	0x3cd8af1e	0.02645069
69	0x3cd2f417	0.025751157
70	0xbd5ae89e	-0.053444497
71	0x3c3ad696	0.0114037
72	0x3cb52f21	0.0221172
73	0xba6d6a73	-0.00090566947
74	0x3c8f8640	0.01752007
75	0x3caa98e7	0.020824863
76	0x3d44bd81	0.048032288
77	0xbc383bce	-0.011244727
78	0x3cd53a07	0.026028646
79	0xbc7222d9	-0.014778816
80	0x3bc797c0	0.006091088
81	0x3d280678	0.041021794
82	0xbbb54caa	-0.0055328207
83	0x3ca56c1c	0.020193152
84	0x3c7db7d4	0.015485723
85	0x3d0124f2	0.031529374
86	0xbbbeb501	-0.005819917
87	0x3d130636	0.035894595
88	0x3acdb7d6	0.0015695046
89	0xbc8d9715	-0.017283956
90	0x3c521872	0.012823211
91	0xbc49a4bb	-0.012307341
92	0x3c0db2a4	0.008648548
93	0x3d1df013	0.03855903
94	0x3b49a877	0.003077058
95	0x3cb7fba6	0.022458863
96	0x3bb727c9	0.0055894596
97	0x3d8a3ad2	0.067495
98	0x3d590ab8	0.052988738
99	0xbcaa03a7	-0.020753695
100	0x3d948108	0.07251173
101	0x3d22415d	0.039613117
102	0x3c73ddc5	0.014884417
103	0xbb8c7c6f	-0.0042872946
104	0x3d56a4b0	0.052403152
105	0x3ce4f52c	0.027948938
106	0x3c8b4de0	0.017004907
107	0x3b82dc37	0.003993537
108	0x3c80a33f	0.015702842
109	0x3c9e3d69	0.019316392
110	0xbd001cb0	-0.03127736
111	0xbda4e104	-0.08050731
112	0x3c5dfe34	0.013549376
113	0x3b696da5	0.0035618332
114	0x3cc9bd85	0.024626503
115	0x3d6d8129	0.057984505
116	0x3ca10cae	0.019659366
117	0x3c9a9b37	0.01887284
118	0x3d51942a	0.05116669
119	0x3d41d079	0.047317956
120	0x3c41757c	0.011807796
121	0xbd54a46d	-0.05191462
122	0x3ca0f641	0.019648673
123	0x3cb40f2b	0.021979889
124	0xbc962666	-0.018328857
125	0x3c07a49d	0.008278993
126	0x3d5665be	0.052343123
127	0x3b424eb9	0.0029648973

network_body._body_endoder.seq_layers.0.weight f4 [128, 39]
0	0x3e6957e3	0.22787432
1	0x3db5b92d	0.0887321
2	0x3d7e5d5e	0.06210076
3	0xbd824942	-0.06361629
4	0x3e8fb631	0.2806869
5	0xbe550f91	-0.2080672
6	0xbc42cec9	-0.011890122
7	0xbe0ff81d	-0.14059491
8	0xbd4805ca	-0.048833646
9	0x3dbe84e6	0.09302692
10	0xbe715d2f	-0.23570703
11	0x3e99770b	0.29973635
12	0x3e665dea	0.22496763
13	0xbd44b3fc	-0.04802321
14	0xbc881169	-0.016609864
15	0x3e6a4911	0.22879435
16	0x3e5a6ec7	0.2133132
17	0xbd1b0e60	-0.037855506
18	0xbdd50ec4	-0.10403207
19	0x3e1e1b95	0.15440209
20	0xbd32aa5e	-0.043619506
21	0xbe17e238	-0.1483239
22	0xbb9d8300	-0.004806876
23	0x3da9c030	0.0828861
24	0x3d757560	0.05992639
25	0x3e55b9b8	0.20871627
26	0xbdc4d3d2	-0.09610714
27	0xbdf5e990	-0.12007439
28	0x3e688091	0.22705294
29	0xbc7b279f	-0.015329271
30	0xba8c10f7	-0.0010686208
31	0x3e217aa3	0.15769438
32	0xbd108d37	-0.035290923
33	0x3e5b2de9	0.21404232
34	0xbd51b964	-0.051202193
35	0xbe05ced1	-0.13067175
36	0x3da4db45	0.08049635
37	0x3db4a9f8	0.088214815
38	0x3b47c955	0.0030484993
39	0x3d71c270	0.05902332
40	0x3e18bde0	0.14916182
41	0xbd53eaca	-0.051737584
42	0xbdd2891b	-0.10280057
43	0xbeb5c5b7	-0.35502407
44	0x3dd1248a	0.102120474
45	0xbd986ff6	-0.0744323
46	0xbe0d81cc	-0.13819045
47	0x3e93547f	0.28775403
48	0x3e7f04af	0.2490413
49	0x3e60b17a	0.21942702
50	0x3d9a2f43	0.07528546
51	0x3ddb3360	0.107031584
52	0x3d6b3b15	0.057429392
53	0xbe30e2dc	-0.1727404
54	0xbdaf07ed	-0.085464336
55	0xbc655728	-0.01399783
56	0xbd90e13d	-0.07074211
57	0x3ee1c3ac	0.44094598
58	0xbe728d8e	-0.23686811
59	0x3e96e158	0.294688
60	0x3d340060	0.04394567
61	0xbe0d85aa	-0.1382052
62	0x3dce9692	0.10087313
63	0x3e1ac785	0.15115173
64	0x3d2f49fc	0.042795166
65	0x3cec3b34	0.028836824
66	0xba9ab235	-0.0011802377
67	0x3e158283	0.14600568
68	0xbc918883	-0.01776529
69	0x3e3ac370	0.18238616
70	0xbceb070b	-0.028689882
71	0x3e139598	0.14412534
72	0xbd80a285	-0.06280998
73	0x3de21825	0.110397615
74	0xbc645b26	-0.013937747
75	0x3d1f7c75	0.03893705
76	0xbe90bd2a	-0.2826932
77	0xbd42ceee	-0.047560625
78	0x3e005329	0.12531723
79	0x3ceac492	0.028658185
80	0x3e85bc36	0.26120156
81	0xbde4a8e7	-0.11165028
82	0xbec0726a	-0.3758729
83	0xbe10ce07	-0.14141093
84	0x3e497c95	0.1967643
85	0x3d65f7a8	0.056144387
86	0xbe250d73	-0.16118412
87	0xbdb943ea	-0.09046157
88	0xbd99372b	-0.074812256
89	0xbe12825f	-0.14307545
90	0x3d644c99	0.05573711
91	0x3d322957	0.043496456
92	0xbe886885	-0.26642242
93	0xbe12910e	-0.14313146
94	0x3d8f0884	0.06984046
95	0x3dda7cc4	0.106683284
96	0xbe4345b1	-0.19069554
97	0x3d441022	0.047866948
98	0x3e3607df	0.1777644
99	0x3cd608c1	0.026127221
100	0xbd3c7eba	-0.046019293
101	0xbd820fab	-0.06350645
102	0x3dc231ca	0.09482153
103	0xbaadbee2	-0.001325574
104	0x3e381539	0.17976846
105	0xbe15d93c	-0.1463365
106	0xbd09dae1	-0.033656005
107	0xbda5f633	-0.081035994
108	0x3e35f999	0.17770995
109	0xbe12b8d2	-0.14328316
110	0xbea24668	-0.3169434
111	0x3e39ef46	0.18157682
112	0x3d08d645	0.03340747
113	0xbec56805	-0.38555923
114	0x3e4aba9e	0.19797751
115	0x3d897d42	0.06713344
116	0xbe2f645c	-0.17128128
117	0x3cfab651	0.030604513
118	0xbdbc6d2f	-0.092005126
119	0x3d956eb0	0.072965026
120	0xbd86ebbd	-0.06587932
121	0xbc96bcbd	-0.018400544
122	0xbe8e9dc8	-0.27854753
123	0xbcd5d980	-0.026104689
124	0xbe16f711	-0.14742686
125	0x3d3365b1	0.043798152
126	0x3e3ac0ff	0.18237685
127	0xbea69a49	-0.32539585
128	0x3d93b222	0.072117105
129	0x3b91cf2d	0.004449746
130	0xbdf8ddcf	-0.12151682
131	0x3e26fa7c	0.1630649
132	0xbe09b422	-0.13447621
133	0x3e4ad65b	0.19808333
134	0xbe48a239	-0.19593133
135	0xbe1576bd	-0.14596076
136	0xbd805cb9	-0.062676854
137	0x3e7ca21f	0.2467122
138	0xbd9eb68c	-0.07749662
139	0xbc58ac80	-0.013224721
140	0xbe73984f	-0.2378857
141	0xbe1f7ce8	-0.15574992
142	0x3c0a25a2	0.008431824
143	0x3e0b3f03	0.13598256
144	0xbd3d8343	-0.04626776
145	0x3e3422b6	0.17591366
146	0xbd1eaabf	-0.038737055
147	0xbe208e58	-0.156793
148	0xbddea7e3	-0.108718656
149	0x3de3c31a	0.11121197
150	0xbd3492f4	-0.044085458
151	0xbea86dcd	-0.3289627
152	0xbeb0fb92	-0.34566933
153	0xbe46fe38	-0.19432914
154	0x3c371e39	0.011176639
155	0xbe0d4103	-0.13794331
156	0x3e624e43	0.22100167
157	0xbe024df5	-0.12725051
158	0x3bb4d9b6	0.005519117
159	0x3e7d7756	0.24752554
160	0xbe7049ec	-0.23465699
161	0x3dfa0453	0.12207856
162	0x3d512523	0.051060807
163	0xbdfa6f45	-0.12228254
164	0x3ee939f9	0.45552042
165	0xbeb27e89	-0.34862164
166	0xbdfaf6a6	-0.12254076
167	0xbcf4f48c	-0.029901765
168	0x3d1c06ef	0.03809255
169	0x3ea6be5a	0.32567102
170	0x3d548abe	0.051890127
171	0xbdb41d74	-0.0879468
172	0xbd70d184	-0.05879356
173	0x3e778b5c	0.24174255
174	0xbdaae542	-0.08344509
175	0xbe19a990	-0.15006089
176	0xbd6558f9	-0.055993054
177	0xbdcfda02	-0.101490036
178	0x3e170db2	0.14751318
179	0x3daa3bba	0.08312173
180	0xbe58df9b	-0.21179049
181	0x3e3cdea2	0.18444303
182	0xbe85c087	-0.2612345
183	0xbb15d8b2	-0.0022864756
184	0xbe1eb35c	-0.15498108
185	0x3d2c8a45	0.04212405
186	0x3d51651e	0.051121823
187	0xbdf7a44a	-0.120918825
188	0xbeaeb077	-0.34119007
189	0xbe4de15f	-0.20105503
190	0xbc03d147	-0.008045501
191	0x3c914d2b	0.017736992
192	0xbda73dda	-0.08166094
193	0x3dc134e1	0.09433914
194	0x3e2f9977	0.17148386
195	0x3e92a4b0	0.28641272
196	0xbe86633b	-0.26247582
197	0x3e7565a0	0.23964548
198	0x3e4ab3e2	0.19795182
199	0x3e496fd4	0.19671565
200	0x3a191b68	0.00058405707
201	0xbc4ec2fc	-0.01261973
202	0x3e83862b	0.256883
203	0x3e31bd4d	0.17357369
204	0xbd8c4285	-0.06848625
205	0xbdeea1d7	-0.11651962
206	0x3e1e4793	0.15456991
207	0xbe2752fb	-0.16340248
208	0x3d7a4edd	0.061110366
209	0xbd3cdd1e	-0.04610931
210	0x3e71c8a8	0.236117
211	0x3e5ac4d3	0.21364145
212	0x3e44a5ae	0.19203827
213	0x3e0ff25f	0.14057301
214	0x3e1d336a	0.15351644
215	0xbe12a80a	-0.14321914
216	0xbd6f449f	-0.05841505
217	0x3e38053f	0.17970751
218	0x3e65d872	0.22445849
219	0xbdf02049	-0.11724908
220	0x3ed0fef9	0.4081953
221	0xbe80078c	-0.25005758
222	0x3ea18cc1	0.315527
223	0x3c31912a	0.0108378325
224	0xbdb8ea59	-0.09029073
225	0xbe580de5	-0.2109905
226	0x3cf4b46a	0.029871184
227	0xbcdf5f39	-0.027267085
228	0x3e118f4e	0.14214823
229	0x3e16eead	0.14739485
230	0x3da23acf	0.07921373
231	0x3baaa590	0.005207725
232	0x3e51f256	0.205026
233	0x3c35c2f9	0.011093848
234	0x3d9b02fc	0.075689286
235	0xbe6800ff	-0.2265663
236	0xbe626132	-0.2210739
237	0x3e17eb90	0.14835954
238	0xbc7579aa	-0.01498262
239	0x3e8da12c	0.27662027
240	0x3e8db8ee	0.27680153
241	0xbd30187e	-0.042992108
242	0xbe71baf5	-0.23606475
243	0xbe3d5b21	-0.18491794
244	0xbd863109	-0.065523215
245	0xbe6407a2	-0.22268537
246	0xbe11c07f	-0.14233588
247	0x3e320ca0	0.17387629
248	0x3d491bba	0.049098708
249	0x3da103ab	0.07862028
250	0x3ea91ecb	0.33031306
251	0x3cd0c6a0	0.025485337
252	0xbe940d15	-0.2891623
253	0x3e5edb4e	0.21763346
254	0x3c9d297c	0.01918482
255	0xbe055c09	-0.1302339

network_body._body_endoder.seq_layers.2.bias f4 [128]
0	0x3bf69f31	0.0075263013
1	0x3cbae275	0.022813061
2	0x3cf64a21	0.030064644
3	0x3d066fd5	0.032821495
4	0x3c8354ca	0.016031642
5	0x3c6e409b	0.01454177
6	0x3c05c1da	0.008163894
7	0x3d25a90b	0.040444415
8	0x3c9ff661	0.019526662
9	0x3cdc62fb	0.026902666
10	0x3d2cb1ca	0.04216174
11	0x3c8ac483	0.016939407
12	0x3c9e53b6	0.019327026
13	0x3c561244	0.013065878
14	0x3c972518	0.018450305
15	0x3c512639	0.012765461
16	0x3c8e69bf	0.017384408
17	0x3d03745d	0.032093395
18	0x3c7329dd	0.014841524
19	0x3c19bf99	0.009384059
20	0x3cd6cf01	0.026221754
21	0xbc694d95	-0.014239688
22	0xbc78cd04	-0.015185598
23	0x3c0b885b	0.008516396
24	0x3d643cd8	0.055722088
25	0x3c8957c6	0.016765486
26	0x3d2d9c0f	0.042385157
27	0x3cba64ee	0.022753205
28	0xbced0a96	-0.028935712
29	0x3c9a2346	0.018815648
30	0x3cec2c60	0.028829753
31	0x3d2285a5	0.039678235
32	0x3cd3f5b3	0.025873994
33	0x3c942aeb	0.018086871
34	0x3cd7a1db	0.026322296
35	0xbcc1e572	-0.023668978
36	0x3caf02a8	0.021363571
37	0xbc901f53	-0.017593062
38	0xbbcb4438	-0.0062032007
39	0x3c171a90	0.009222642
40	0x3ca77af8	0.020444378
41	0x3c03c43f	0.008042394
42	0x3c4dc93f	0.012560188
43	0x3d061588	0.032735378
44	0x3c868702	0.016421799
45	0xbc0293de	-0.007969825
46	0x3be900f7	0.0071107107
47	0x3d23a0b1	0.03994817
48	0x3d38b93e	0.045098536
49	0x3cb6b56f	0.022303311
50	0x3c3c6026	0.011497533
51	0x3c87ceb0	0.016578048
52	0xbd1d2a77	-0.038370576
53	0x3c274c41	0.010211051
54	0x3d41d60e	0.04732328
55	0x3d59da77	0.05318686
56	0x3bc97f62	0.0061492184
57	0xbc8d5d34	-0.017256357
58	0x3cc2f933	0.023800468
59	0x3c85d1cf	0.016335396
60	0x3c1cebc0	0.009577692
61	0x3c878f04	0.016547687
62	0x3b55fddc	0.0032652533
63	0x3c8352bc	0.016030662
64	0xbb3fc5f2	-0.0029262272
65	0x3d1b4aff	0.03791332
66	0x3ce175c9	0.027521985
67	0x3d1d14e1	0.03834999
68	0x3c92a29c	0.017899804
69	0x3cc89fac	0.0244902
70	0x3d23f119	0.04002485
71	0xbc69536b	-0.01424108
72	0x3cbd86c7	0.023135556
73	0xbacdbbc8	-0.0015696222
74	0x3d275f03	0.040862095
75	0xbc813a42	-0.01577485
76	0x3ca078cf	0.019588856
77	0x3cd55d25	0.026045391
78	0x3d0b61e8	0.034028918
79	0x3c65b229	0.0140195275
80	0x3cb5b71d	0.022182042
81	0x3d1212a6	0.035662316
82	0x3d24e361	0.040255908
83	0xbc50b0dc	-0.012737479
84	0xba09cb8b	-0.00052564655
85	0xbc940fe9	-0.018073993
86	0x3c84bd45	0.016203532
87	0xbb64393b	-0.003482415
88	0x3ca65797	0.020305438
89	0x3c10c168	0.008835174
90	0xbbcdac99	-0.0062766788
91	0x3d53cf41	0.051711325
92	0x3d17a210	0.03701979
93	0xbbc4faf9	-0.0060113636
94	0xbc7e6296	-0.015526434
95	0x3cf996af	0.03046736
96	0xbcb59589	-0.02216603
97	0x3c5e7833	0.013578462
98	0x3d6b8379	0.05749843
99	0x3c369da8	0.011145987
100	0x39ab882c	0.00032717118
101	0xb9633750	-0.00021669012
102	0x3cd9b879	0.026577221
103	0x3cf8c4a9	0.030367212
104	0x3cb78fa3	0.022407359
105	0x3c25b6f7	0.010114423
106	0x3d305595	0.043050367
107	0x3aac1687	0.0013129272
108	0x3c210a97	0.009829185
109	0xba8a1628	-0.0010535168
110	0x3cad48d5	0.021152893
111	0x3bcba5cb	0.0062148324
112	0x3cb7e4d2	0.022447977
113	0x3accd997	0.0015628812
114	0x3c74b440	0.014935553
115	0xbbac2a6b	-0.00525408
116	0xbc07bf72	-0.00828539
117	0x3c74dbe4	0.014945004
118	0x3cafe63d	0.02147209
119	0x3cc84a64	0.024449535
120	0xbd33c7dc	-0.043891773
121	0x3c8c5903	0.017132288
122	0x3d368e70	0.044569433
123	0x3c0b391d	0.008497504
124	0xbbff6716	-0.007794271
125	0x3d1f9e10	0.0389691
126	0x3bdb33a4	0.0066895057
127	0x3d29b3cf	0.041431244

network_body._body_endoder.seq_layers.2.weight f4 [128, 128]
0	0xbd219082	-0.039444454
1	0x3d6b3b1e	0.057429425
2	0xbd54844d	-0.051883984
3	0xbd582ed4	-0.052779034
4	0xbd189e50	-0.037260354
5	0xbe523d82	-0.20531276
6	0x3d06995c	0.0328611
7	0x3e3aebf0	0.18254066
8	0x3de452d7	0.11148613
9	0xbcbb2b1f	-0.02284771
10	0x3d78c4b3	0.060734462
11	0xbdb34f1b	-0.087553225
12	0x3da21f0b	0.07916077
13	0xbddd703d	-0.108124234
14	0x3c1dfdbe	0.009643016
15	0x3dd238f6	0.10264771
16	0x3de0e323	0.10980823
17	0x3cce2492	0.025163922
18	0xbe2a2701	-0.16616441
19	0xbc72bf14	-0.014816064
20	0x3c072be6	0.008250212
21	0xbde9e342	-0.11420299
22	0xbbe8883f	-0.00709632
23	0x3e009a78	0.12558925
24	0x3d536864	0.051613227
25	0x3badaca4	0.0053001214
26	0xbda63873	-0.081162356
27	0x3dca2040	0.098694324
28	0xbd6cc9a9	-0.057809506
29	0x3d44c8c2	0.04804302
30	0xbc5e5f46	-0.01357252
31	0xbd9e74ce	-0.077371225
32	0x3caf29d6	0.021382254
33	0x3d120b30	0.0356552
34	0xbdf33886	-0.11876015
35	0x3dd173af	0.10227143
36	0x3d7ff5f8	0.062490433
37	0xbd85a0a4	-0.065247804
38	0xbdd00b3d	-0.101583935
39	0x3d311f41	0.043242697
40	0xbaa665ed	-0.0012695171
41	0x3bad683a	0.005291966
42	0xbe38e7a8	-0.1805712
43	0xbd800864	-0.062516004
44	0x3df0a1af	0.11749589
45	0x3e90ee7b	0.28306946
46	0xbde48a45	-0.11159185
47	0x3d928d36	0.0715584
48	0x3e0320e2	0.12805513
49	0xbcc65d2d	-0.024214352
50	0xbcc28e0e	-0.023749378
51	0x3a728a5b	0.0009252184
52	0x3da0094a	0.07814272
53	0xbd3efc5b	-0.046627384
54	0x3d2f213a	0.042756297
55	0x3dbed48e	0.09317885
56	0x3c356cd0	0.011073306
57	0xbcd335a2	-0.02578241
58	0x3e82e6d7	0.25566742
59	0xbd0e90c2	-0.03480602
60	0xbdee12db	-0.1162469
61	0x3dac9edb	0.08428737
62	0x3d948377	0.072516374
63	0x3dca58ce	0.098802194
64	0x3d8093bd	0.06278179
65	0x3c11fef3	0.008910882
66	0x3d812e7e	0.06307696
67	0x3db9aa94	0.09065738
68	0x3d35fe83	0.044432174
69	0xbd81439a	-0.06311722
70	0xbdc68000	-0.09692383
71	0x3e1cfa9c	0.15329975
72	0xbcb4e3e2	-0.02208132
73	0x3d259189	0.040421996
74	0xbe09e04a	-0.13464466
75	0xbcb77f4f	-0.022399573
76	0xbe6150e6	-0.22003517
77	0xbdbc3d67	-0.09191399
78	0xbd8f9fa0	-0.07012868
79	0x3d96f146	0.07370238
80	0x3d48624d	0.048921872
81	0x3e8178fa	0.2528761
82	0x3d8e0238	0.06934017
83	0xbe548a5f	-0.2075591
84	0xbe1575ad	-0.14595671
85	0x3dcadddb	0.09905597
86	0x3de0dc45	0.10979513
87	0x3cd407f7	0.025882704
88	0x3c5cde34	0.013480712
89	0x3d4a7429	0.049427185
90	0xbd4ecc4d	-0.050487805
91	0xbdc17429	-0.09445984
92	0xbe71fa4d	-0.23630638
93	0xbdf4c0a4	-0.11950806
94	0xbd9932fc	-0.074804276
95	0x3d5aef72	0.05345101
96	0xbbdf2eee	-0.0068110144
97	0x3cc588ab	0.02411302
98	0xbe6b0d1e	-0.22954223
99	0x3e0292f6	0.12751374
100	0x3d20020a	0.039064445
101	0xbd9dcc07	-0.07704931
102	0x3b8674c6	0.004103276
103	0xbd1168ea	-0.035500444
104	0xbe0b4516	-0.13600573
105	0x3d210b23	0.03931726
106	0x3bc2bb13	0.005942711
107	0x3cac0286	0.020997297
108	0x3d747f65	0.059691805
109	0xbbcdf1fb	-0.00628495
110	0x3e0b0d71	0.13579346
111	0xbda00a20	-0.07814431
112	0x3d62e7da	0.055396892
113	0xbd8d43b5	-0.0689768
114	0x3dc4c594	0.096079975
115	0xbd7491b4	-0.059709266
116	0x3c8f1c68	0.0174696
117	0xbe33c7fa	-0.17556754
118	0xbde886d4	-0.113538414
119	0xbda073f0	-0.07834613
120	0xbbc2254c	-0.0059248563
121	0xbde27cd9	-0.11058969
122	0xbe29a025	-0.16564997
123	0x3e0d661a	0.1380848
124	0xbe12c5f3	-0.14333324
125	0x3dea22bc	0.11432406
126	0xbddc9cc8	-0.10772091
127	0x3c48bf49	0.012252637
128	0xbcf00c49	-0.029302733
129	0x3e949b56	0.29024762
130	0xbe3f7ac7	-0.1869918
131	0x3e12c8c5	0.143344
132	0x3bf169ff	0.007367372
133	0xbe222eae	-0.1583812
134	0xbe2cb788	-0.16866887
135	0xbd9f04ed	-0.077646114
136	0xbd8dfa38	-0.06932491
137	0x3dd75abd	0.10515354
138	0x3e01e90e	0.1268656
139	0xbe572098	-0.21008527
140	0xbcfd3f5f	-0.030914007
141	0x3e2481ab	0.1606509
142	0x3e0ee122	0.13953069
143	0x3d58f928	0.05297199
144	0x3e4f3c2a	0.20237795
145	0xbd01a81a	-0.031654455
146	0x3e9bf9d7	0.3046405
147	0xbd978578	-0.07398504
148	0xbdbf08e2	-0.09327866
149	0xbbbd7ab9	-0.005782452
150	0xbda21471	-0.07914055
151	0x3df13e13	0.11779418
152	0x3d93853d	0.072031476
153	0xbca54cd7	-0.020178242
154	0xbca557d1	-0.020183476
155	0xbd22a404	-0.0397072
156	0x3d1b52ea	0.03792087
157	0x3d356e83	0.044294845
158	0x3e29566c	0.16536874
159	0xbd014acb	-0.03156547
160	0x3df8d7b9	0.12150521
161	0x3d0ee71e	0.03488838
162	0x3e199c51	0.15001036
163	0xbe11cafb	-0.14237587
164	0xbdc1ebcb	-0.09468802
165	0x3cbe97fe	0.023265835
166	0x3e420e24	0.18950707
167	0x3db3a42d	0.087715484
168	0xbd5d97b4	-0.054099753
169	0xbd38a659	-0.045080516
170	0x3e22ba7a	0.15891448
171	0xbd271ef4	-0.040801004
172	0xbd5cf0c4	-0.05394055
173	0xbd8923d0	-0.06696284
174	0x3aa5aa14	0.0012639188
175	0xbe031d40	-0.12804127
176	0xbccb72d4	-0.024835028
177	0xbc7290e5	-0.014805053
178	0x3d97a648	0.074047625
179	0x3d784fbd	0.06062292
180	0x3e234894	0.15945655
181	0xbd0c3e60	-0.034239173
182	0x3e317242	0.17328742
183	0xbd9a14ab	-0.07523473
184	0xbc86d49d	-0.016458804
185	0x3e36a11d	0.17834897
186	0x3db472d7	0.088109665
187	0xbdfadbaa	-0.12248929
188	0x3d834f49	0.06411607
189	0x3d4b3a8c	0.04961638
190	0xbcb52ba2	-0.022115532
191	0xbe57151e	-0.2100415
192	0xbbeb3148	-0.0071775056
193	0x3da9e86e	0.082962856
194	0x3d20b9a4	0.03923954
195	0x3b3a74cb	0.0028450962
196	0xbcc9218b	-0.024552127
197	0xbdc5bc2f	-0.09655034
198	0xbdf05087	-0.11734109
199	0x3cb6b8cb	0.022304913
200	0x3d4e674c	0.05039148
201	0xbd79a529	-0.060948525
202	0xbd462700	-0.048377037
203	0x3ce3f2ea	0.027825791
204	0x3e26ab63	0.16276316
205	0xbdf6f983	-0.12059309
206	0x3d30516c	0.0430464
207	0xbd9a7a72	-0.07542886
208	0xbc5fda69	-0.013662913
209	0x3c3a5b60	0.011374325
210	0xbcf2c1f9	-0.029633509
211	0xbdb487a0	-0.08814931
212	0x38c76d95	9.509471e-05
213	0xbd17533f	-0.036944624
214	0x3d21e61a	0.039526083
215	0xbc0071f0	-0.007839665
216	0x3e026fcb	0.12737958
217	0x3d46ce1e	0.048536412
218	0x3e28d105	0.16485985
219	0xbdda5b28	-0.10661918
220	0xbd554567	-0.05206814
221	0x3d09e62a	0.033666767
222	0xbdbcb99b	-0.09215089
223	0xbe3aba4a	-0.18235126
224	0x3cbfcdea	0.023413617
225	0x3dde1285	0.10843376
226	0x3dc8d6a1	0.09806562
227	0xbd2b7449	-0.041858945
228	0x3d62fa8e	0.05541473
229	0x3d7225d6	0.059118114
230	0xbdf4a31e	-0.11945175
231	0xbdb799b4	-0.089648634
232	0x3e0b0130	0.13574672
233	0x3cd0d23c	0.025490873
234	0xbc34392a	-0.010999957
235	0xbe05f2aa	-0.1308085
236	0xbd6a7775	-0.05724283
237	0x3da71352	0.08157982
238	0x3d3c7437	0.04600927
239	0xbd862a31	-0.06551016
240	0xbbd5f2ba	-0.0065291794
241	0x3c8251a5	0.015908072
242	0x3d2925f2	0.041295953
243	0xbd6c4d68	-0.057691008
244	0x3e1296e2	0.1431537
245	0xbda6b9c0	-0.08140898
246	0x3ddb8778	0.10719198
247	0x3e41a5ca	0.189109
248	0xbe002658	-0.12514627
249	0x3b1971a3	0.002341368
250	0xbd3fe4f8	-0.04684922
251	0x3dbc659d	0.09199069
252	0x3d4d30cb	0.05009536
253	0x3d33ed82	0.043927677
254	0x3c8a3eee	0.01687571
255	0xbdba2017	-0.09088152
