results/phase4_t1/PlayerAgent/PlayerAgent-6336.onnx (onnx, 90951 bytes, 7 tensors)

action_model._continuous_distribution.mu.weight f4 [1, 128]
000000 dd 30 01 3c 99 9f 31 3d 65 82 ca bc f7 47 14 bc
       0.007885185 0.043365095 -0.02472038 -0.009050361
000010 2a 99 d8 3a 35 b2 df bb 96 0f 44 bc 1b a6 fa bc
       0.0016525139 -0.006826664 -0.011966607 -0.030596783
000020 fe b7 41 3c a7 f5 8f 3c 0f 8d 47 3c 33 1b ed bc
       0.011823652 0.01757319 0.012179627 -0.028943634
000030 1d 06 e4 3c a3 f7 92 bb 9d 0f 59 3b 8d 99 ff 3c
       0.027834946 -0.004485087 0.0033120879 0.031201148
000040 18 67 31 3b 2f d3 d8 bb fb 1b c9 3a 97 68 24 3b
       0.0027069505 -0.006616972 0.0015343422 0.0025086754
000050 ef 38 06 3d 03 3e c4 bb b7 3a e0 3b 8a ce fd 3c
       0.03276914 -0.0059888377 0.006842937 0.030982275
000060 8f 7d 33 bc f9 08 29 ba ad 29 8d 3c ce 8b 17 3d
       -0.0109552285 -0.00064481754 0.017231787 0.036998563
000070 02 bd ea 3c 53 e5 2b 3c 2e 5c bc 3c 0c e2 32 bc
       0.02865458 0.010491687 0.022993173 -0.010918152
000080 ec 73 09 bc ff e3 0f 3c 57 52 86 bc ec 0e 8c 3c
       -0.008389454 0.008782386 -0.016396685 0.017096959
000090 3d 2b d1 3b 78 3c 0f 3c b3 7b 8a bc d6 5a 12 bc
       0.0063833282 0.008742444 -0.016904688 -0.00893279
0000a0 c2 ff 19 3a f5 c7 b5 bb 4f b0 13 3d 06 c6 ae bb
       0.00058745977 -0.0055475184 0.036056813 -0.005333665
0000b0 be d5 3b 3b 2b fe 90 3c 01 f5 b0 bb 07 69 e6 bc
       0.0028661336 0.017699322 -0.0054003005 -0.028126253
0000c0 61 7f b7 3b 04 34 b0 3c db b9 06 bd 42 2e c5 3b
       0.0055999015 0.021509178 -0.03289209 0.0060174773
0000d0 d3 01 b5 bb f9 34 c2 3b 85 0b 62 3c 32 9b dd bb
       -0.005523899 0.005926725 0.013796692 -0.0067628855
0000e0 78 06 b6 3a c0 63 4d bc 07 7a 43 bc ab fa 99 bb
       0.0013887426 -0.012535989 -0.011930949 -0.0046990714
0000f0 6a c7 02 bc d6 12 0f bc fb d9 67 3c 46 59 ac 3c
       -0.007982114 -0.008732518 0.014151092 0.021038663
000100 73 67 2d 3c 0d 27 23 bc d8 73 d4 3b cb 0d 10 bd
       0.010583746 -0.009958041 0.006483536 -0.035169404
000110 61 0c 01 bc e1 a8 a2 3b ab 83 02 bd ba 02 d4 bc
       -0.0078764865 0.0049639796 -0.03186385 -0.025880206
000120 b1 1a bd bc 17 fb 7e bc 82 ef d6 bc 0b 1c ae bc
       -0.023084017 -0.015562794 -0.026237253 -0.021253606
000130 3e 8f 1a bd 2b 0e 8e 3c 5d b1 93 bb 48 a8 e8 3c
       -0.037734263 0.01734074 -0.0045072273 0.028400555
000140 37 f6 a2 3b 6f 04 c2 3c e5 76 0a bb ab e8 29 3d
       0.0049731988 0.023683755 -0.0021127996 0.041481655
000150 d3 53 f9 3c be 5f 98 3c cb f6 d6 3a 77 b6 27 3b
       0.030435478 0.018600341 0.0016400454 0.0025590935
000160 33 ee 6b bd 15 50 0f 3b 4f b1 25 3c 81 14 9e 3a
       -0.05760021 0.00218678 0.010113074 0.0012060554
000170 5b d3 b0 bc 13 f9 22 bc 19 50 15 3c 45 cd 8b 3c
       -0.021585157 -0.009947079 0.009113335 0.017065654
000180 c8 74 10 bd 33 cd 09 bc e3 45 90 bc d7 5e 8f 3c
       -0.03526762 -0.00841074 -0.01761145 0.017501278
000190 cc 45 35 3b 7b a0 18 3d 6f 67 8e 3b 8e c0 a5 3b
       0.002766001 0.03726242 0.0043458263 0.0050583547
0001a0 ed f4 61 3c ca c0 89 3c 7f da 64 3c 6e 77 a2 3c
       0.013791305 0.016815562 0.013968109 0.01983234
0001b0 5a 40 0c bc 80 a4 d4 3b b8 df 5c 39 54 b4 90 bc
       -0.0085602645 0.0064893365 0.00021064177 -0.017664112
0001c0 74 49 8a 3c fd a5 f4 3b d7 12 64 bc 23 33 39 ba
       0.016880728 0.0074660764 -0.013920507 -0.000706481
0001d0 9f 4c dd bc 0d 18 94 3a f0 d1 89 3c d6 d5 19 b9
       -0.027014075 0.0011298672 0.016823739 -0.00014670877
0001e0 9d 24 da 3b 6a 19 ca ba 97 98 3c bc 3f 12 5f bc
       0.0066571967 -0.0015418951 -0.01151099 -0.01361519
0001f0 45 ac a3 bc fb e8 e7 bc e2 7d 1f bd e3 c0 b8 bc
       -0.019979605 -0.028309336 -0.03893841 -0.022552913

action_model._discrete_distribution.branches.0.bias f4 [2]
000000 00 00 00 00 00 00 00 00
       0.0 0.0

action_model._discrete_distribution.branches.0.weight f4 [2, 128]
000000 b5 66 58 3a 4f bb 4b bc 2f 60 1c 3b cb 19 81 bc
       0.00082550506 -0.012434795 0.002386104 -0.01575937
000010 4e a1 03 3b d4 f5 38 3b 1c b0 93 bc 08 7c af 3a
       0.0020085159 0.0028222697 -0.018028311 0.0013388405
000020 55 ca ae bb ca 5b 0a 3c ec cb 04 3b 43 c7 a3 bc
       -0.0053341785 0.008444736 0.0020263148 -0.019992476
000030 0d f6 47 bb 02 da 58 bb 96 5b 04 bb 97 bd 82 3b
       -0.0030511648 -0.0033088927 -0.002019619 0.003989886
000040 87 89 99 3b 09 5d 12 3c 5f a1 8e 3b e0 10 85 3a
       0.004685584 0.008933314 0.004352733 0.0010152124
000050 c9 3e 23 3c 0a d6 8e 3b 1f cd d2 3b 09 7b ac bc
       0.0099637 0.0043590115 0.0064331437 -0.021054761
000060 eb 44 90 3a 57 6c ec bb c0 e4 d0 ba 24 16 39 3c
       0.0011006867 -0.0072150636 -0.0015937313 0.011296783
000070 ef 8a 7c 3b 6a 45 50 bc a0 7f e1 3b c8 a4 24 3c
       0.003853496 -0.012711862 0.006881669 0.010049053
000080 13 29 90 3b 32 d6 b1 3a c4 49 81 bc 8d 5c 68 bc
       0.0043994277 0.0013567863 -0.015782245 -0.014182222
000090 32 fd 51 bb 3b 0f 02 3c 47 02 32 3b e8 13 2e 3c
       -0.0032041785 0.007938202 0.0027162002 0.010624863
0000a0 db ba 7e 3c 2b 58 00 bc a0 66 0e bc db 05 1e 3c
       0.0155474795 -0.007833521 -0.00869146 0.009644951
0000b0 22 90 ad 39 80 6e ea ba da c0 c4 3b 77 85 1a 3b
       0.0003310452 -0.0017885715 0.006004435 0.0023578086
0000c0 5c 83 15 3b 55 6c 80 3b a2 24 5b 3b 65 e0 11 3b
       0.0022813892 0.003919164 0.0033438583 0.0022258994
0000d0 22 d7 e0 3b 8b 50 1a bb 21 92 85 3b 1e e2 9e bb
       0.0068615833 -0.0023546543 0.004076258 -0.0048487326
0000e0 83 dd 4a ba 42 1b df bb 93 fc af 3c 2f c4 8c 3b
       -0.00077386963 -0.0068086693 0.021482741 0.004295848
0000f0 c7 f6 f9 3b 8b a6 16 3c 6e 96 03 3c 1b 06 13 bc
       0.007628295 0.00919498 0.008031471 -0.008973624
000100 22 18 c1 bb a0 14 7c bb f3 d9 83 bb c6 cb a2 bb
       -0.0058927694 -0.0038464442 -0.0040237843 -0.0049681393
000110 cf c1 ef 3b e7 d9 67 bc 88 e3 18 3c 8d d9 5b bc
       0.007316805 -0.014151073 0.009331591 -0.013418567
000120 84 99 c1 3a b6 36 81 bb 08 ac ad bb d2 53 51 3a
       0.0014770483 -0.0039432896 -0.0053000487 0.00079852075
000130 72 42 83 3b 47 53 b4 ba 3b 44 37 bc 4a 6b 6a 3b
       0.0040057236 -0.0013757729 -0.011185701 0.0035769516
000140 56 c0 bc 3a a9 2d 2c bc 84 3f b9 bb 08 d0 00 3c
       0.0014400582 -0.010508933 -0.0056533236 0.0078620985
000150 02 6c 43 ba 6c d5 3b 3c fd c3 f5 3b 39 6f 83 3a
       -0.0007454754 0.011464458 0.0075001703 0.0010027654
000160 f7 6b a2 39 d5 e5 97 3a de fe 83 3b d4 a6 8b bb
       0.00030979488 0.0011588881 0.0040281853 -0.004261831
000170 e3 8b 63 3c 8f ee 7c 3a 1d e1 47 3a 6b eb 85 3b
       0.013888332 0.0009648585 0.0007624792 0.004086902
000180 47 f3 5c 3b b3 51 73 3c 35 00 8d bb 9f 9e 2d bc
       0.003371434 0.014851022 -0.004303003 -0.0105969
000190 5f 9b 4d 3c 73 cd 2b 3c f8 78 2f 3b a1 6e c2 bb
       0.01254925 0.010485995 0.0026774984 -0.005933598
0001a0 06 fa 28 bc 93 61 1c 3a e3 92 11 3b 69 bc 22 3c
       -0.0103135165 0.00059654674 0.0022212795 0.009932616
0001b0 ce b8 80 bc 65 f0 4d 3c bd a6 7f bc 48 c1 9e 38
       -0.015713122 0.012569522 -0.015603718 7.5700285e-05
0001c0 7f 4f 26 bc 70 eb 79 bb df 78 93 3b 5b 66 65 3a
       -0.010150789 -0.0038134716 0.004500493 0.0008750909
0001d0 f7 05 d1 3a ad 5e 9c bc 83 6b 6d 3c 82 e6 21 3b
       0.0015947212 -0.019088114 0.014490965 0.0024704044
0001e0 d2 b1 c9 3c 47 eb db 3a 28 e2 78 bb 63 8f 2a 3c
       0.024620924 0.0016778492 -0.0037976597 0.010410163
0001f0 91 f5 33 ba fa ec 9c bc 1b 80 c7 3a 1c 0b 21 3c
       -0.00068649004 -0.019155968 0.0015220674 0.009829309
000200 51 48 35 3c dd ea c4 3b 4b 4d a0 39 df bd 87 bb
       0.011064605 0.006009443 0.00030575166 -0.0041425074
000210 3c 91 1f bc f2 22 c6 3a 92 0c d7 bb ef 6a 4a 3b
       -0.009739216 0.0015116616 -0.006562778 0.0030886491
000220 af f4 03 3c b5 7a d5 39 77 1d 9c 3c b2 95 56 bb
       0.008053943 0.0004071795 0.019057019 -0.0032743034
000230 3f 50 68 bb 4a 1b d8 bb 86 cd b2 bb 12 0d 1e 3c
       -0.003544822 -0.00659505 -0.005456629 0.009646671
000240 5b 38 2e 3c dd f9 3b 3c 41 6f bb bb 0d dc 63 3b
       0.010633553 0.011473146 -0.0057200496 0.0034768612
000250 a4 19 40 3c f1 10 0f bc 97 ed 40 bc fd 5f 2b 3c
       0.011724863 -0.0087320665 -0.011775396 0.010459897
000260 e1 96 1c 3c e7 31 d5 3a fb 2e fd 3b 0d 38 22 3c
       0.009557457 0.0016265482 0.007726548 0.009901059
000270 bd 95 57 bc ad ce e6 b9 82 e6 d3 3b a8 9b 51 3c
       -0.013158259 -0.00044023004 0.0064666877 0.012793459
000280 24 67 80 3c 8d 10 53 bc 7b 64 56 bb e9 41 96 3c
       0.015674181 -0.012882364 -0.00327137 0.018341975
000290 2c 7e 11 3c 6a ba 50 3c 98 55 d7 3a f7 53 f1 3a
       0.008880179 0.012739757 0.0016428707 0.0018411864
0002a0 ea 89 99 39 04 db 0b bc 47 88 44 3b aa 4b 4c 3a
       0.00029285188 -0.008536104 0.0029988454 0.0007793257
0002b0 d6 93 9f bc 44 58 0f bc f0 80 b9 3a 14 b8 9b 3a
       -0.019479673 -0.0087490715 0.0014152806 0.0011880421
0002c0 5f c7 d6 bb 89 e2 8d bb 29 98 85 3c 77 46 f6 3b
       -0.0065545286 -0.0043299836 0.016307907 0.0075157243
0002d0 9d 97 9a 3c fc 0e 40 bb c2 a0 36 bb 91 2d b8 bb
       0.018871123 -0.0029305806 -0.0027866815 -0.0056206663
0002e0 a0 03 22 3c d2 87 b3 3b b9 b4 16 b8 4f df 39 bc
       0.00988856 0.0054788375 -3.5931098e-05 -0.011344745
0002f0 97 38 00 3c 58 eb 5a bb db 38 db ba e6 a2 02 bc
       0.007825992 -0.0033404436 -0.0016725318 -0.007973408
000300 35 5c 03 3c 36 e6 8b 3b 37 e0 28 bc 40 38 1b 3b
       0.008017589 0.0042693866 -0.010307363 0.002368465
000310 5d 35 c3 3b 07 9e 53 3c b3 21 91 ba 47 45 b8 3c
       0.005957289 0.012916095 -0.0011072665 0.022493972
000320 6f 4c cc bb 85 df a7 36 00 58 6b 3c 05 e3 c7 ba
       -0.0062346975 5.003009e-06 0.014364243 -0.0015250152
000330 c0 18 d7 bb 5c a7 bf b9 f8 ab 8d bb f8 50 88 3a
       -0.0065642297 -0.0003655505 -0.004323479 0.0010400107
000340 23 4b 1e bc e3 21 23 bc df 25 17 3b 66 8e c7 bb
       -0.009661469 -0.00995681 0.0023063344 -0.0060899733
000350 57 5c 39 bc 28 fb d7 3b dd 19 dc 3c 1c 9e a4 3b
       -0.011313519 0.0065912195 0.026867801 0.005023731
000360 76 24 c4 bb 70 65 bd 3b f9 72 20 3c da 8b bd 3b
       -0.005985792 0.0057799146 0.009793037 0.005784494
000370 7b e8 a4 bb 4f d7 f0 3b 3d 86 a1 bb 68 88 6b 3b
       -0.0050325966 0.0073498855 -0.0049293325 0.0035939459
000380 5c 97 87 bc 42 72 24 3c 7a b3 68 ba 04 75 38 bc
       -0.016551666 0.010037007 -0.0008876842 -0.011258367
000390 38 bc 40 3b e2 6c 09 bc ee 80 b3 3b 5b a5 ea 3b
       0.0029409062 -0.008387776 0.005478016 0.007160825
0003a0 7d 16 23 bb 6b 8b 9e bb a7 ea 05 bc d3 fc 17 3c
       -0.002488523 -0.0048383973 -0.008173621 0.009276587
0003b0 f1 6d 10 bc 12 d7 51 bb 57 4c 35 3c 0d e0 e0 bb
       -0.008815275 -0.003201906 0.011065564 -0.0068626464
0003c0 f1 9d 1a bc 6f f4 be bb 2f e8 d3 3b af 0b 50 3c
       -0.00943707 -0.0058274786 0.0064668874 0.012698098
0003d0 25 db 69 3b e1 53 2b 3c ed 60 f1 bb 32 e2 47 bb
       0.0035683599 0.01045701 -0.007366291 -0.0030499813
0003e0 d2 21 08 b9 8b 6e ae 3b fc d3 06 3a ff d4 a5 3c
       -0.0001298257 0.0053232363 0.00051432825 0.020243166
0003f0 23 cd 8d ba 63 8e 01 bc 6e 0e 07 bc ad dd 33 3b
       -0.0010818582 -0.007907483 -0.008243186 0.0027445361

network_body._body_endoder.seq_layers.0.bias f4 [128]
000000 00 00 00 00 00 00 00 00 00 00 00 00 00 00 00 00
       0.0 0.0 0.0 0.0
000010 00 00 00 00 00 00 00 00 00 00 00 00 00 00 00 00
       0.0 0.0 0.0 0.0
000020 00 00 00 00 00 00 00 00 00 00 00 00 00 00 00 00
       0.0 0.0 0.0 0.0
000030 00 00 00 00 00 00 00 00 00 00 00 00 00 00 00 00
       0.0 0.0 0.0 0.0
000040 00 00 00 00 00 00 00 00 00 00 00 00 00 00 00 00
       0.0 0.0 0.0 0.0
000050 00 00 00 00 00 00 00 00 00 00 00 00 00 00 00 00
       0.0 0.0 0.0 0.0
000060 00 00 00 00 00 00 00 00 00 00 00 00 00 00 00 00
       0.0 0.0 0.0 0.0
000070 00 00 00 00 00 00 00 00 00 00 00 00 00 00 00 00
       0.0 0.0 0.0 0.0
000080 00 00 00 00 00 00 00 00 00 00 00 00 00 00 00 00
       0.0 0.0 0.0 0.0
000090 00 00 00 00 00 00 00 00 00 00 00 00 00 00 00 00
       0.0 0.0 0.0 0.0
0000a0 00 00 00 00 00 00 00 00 00 00 00 00 00 00 00 00
       0.0 0.0 0.0 0.0
0000b0 00 00 00 00 00 00 00 00 00 00 00 00 00 00 00 00
       0.0 0.0 0.0 0.0
0000c0 00 00 00 00 00 00 00 00 00 00 00 00 00 00 00 00
       0.0 0.0 0.0 0.0
0000d0 00 00 00 00 00 00 00 00 00 00 00 00 00 00 00 00
       0.0 0.0 0.0 0.0
0000e0 00 00 00 00 00 00 00 00 00 00 00 00 00 00 00 00
       0.0 0.0 0.0 0.0
0000f0 00 00 00 00 00 00 00 00 00 00 00 00 00 00 00 00
       0.0 0.0 0.0 0.0
000100 00 00 00 00 00 00 00 00 00 00 00 00 00 00 00 00
       0.0 0.0 0.0 0.0
000110 00 00 00 00 00 00 00 00 00 00 00 00 00 00 00 00
       0.0 0.0 0.0 0.0
000120 00 00 00 00 00 00 00 00 00 00 00 00 00 00 00 00
       0.0 0.0 0.0 0.0
000130 00 00 00 00 00 00 00 00 00 00 00 00 00 00 00 00
       0.0 0.0 0.0 0.0
000140 00 00 00 00 00 00 00 00 00 00 00 00 00 00 00 00
       0.0 0.0 0.0 0.0
000150 00 00 00 00 00 00 00 00 00 00 00 00 00 00 00 00
       0.0 0.0 0.0 0.0
000160 00 00 00 00 00 00 00 00 00 00 00 00 00 00 00 00
       0.0 0.0 0.0 0.0
000170 00 00 00 00 00 00 00 00 00 00 00 00 00 00 00 00
       0.0 0.0 0.0 0.0
000180 00 00 00 00 00 00 00 00 00 00 00 00 00 00 00 00
       0.0 0.0 0.0 0.0
000190 00 00 00 00 00 00 00 00 00 00 00 00 00 00 00 00
       0.0 0.0 0.0 0.0
0001a0 00 00 00 00 00 00 00 00 00 00 00 00 00 00 00 00
       0.0 0.0 0.0 0.0
0001b0 00 00 00 00 00 00 00 00 00 00 00 00 00 00 00 00
       0.0 0.0 0.0 0.0
0001c0 00 00 00 00 00 00 00 00 00 00 00 00 00 00 00 00
       0.0 0.0 0.0 0.0
0001d0 00 00 00 00 00 00 00 00 00 00 00 00 00 00 00 00
       0.0 0.0 0.0 0.0
0001e0 00 00 00 00 00 00 00 00 00 00 00 00 00 00 00 00
       0.0 0.0 0.0 0.0
0001f0 00 00 00 00 00 00 00 00 00 00 00 00 00 00 00 00
       0.0 0.0 0.0 0.0

network_body._body_endoder.seq_layers.0.weight f4 [128, 39]
000000 24 76 e5 3c f1 19 9d 3e fd dd 47 bd 62 59 d2 be
       0.028010435 0.30683854 -0.04879569 -0.4108382
000010 db 57 22 be a9 de 36 be 72 65 25 bd ec ae da be
       -0.15853827 -0.17858376 -0.04037995 -0.4271158
000020 26 09 61 be 8e bf a0 3d b4 70 6b 3a dc 72 16 be
       -0.21976146 0.07849036 0.00089813326 -0.14692253
000030 03 96 01 3e a1 79 2c 3a 32 d7 8c bd b6 12 97 be
       0.12654881 0.00065794034 -0.06876983 -0.29506463
000040 bb 4b c2 bd f5 81 c6 bc 07 8d aa be 54 95 75 3d
       -0.09487101 -0.02423189 -0.3331072 0.059956864
000050 ba 82 81 3c f5 f4 dc bc 4a ca d1 3c 67 7e f9 bb
       0.015809406 -0.026972273 0.025609154 -0.0076139453
000060 13 f0 db bd 67 20 03 3e 25 9a ed 3d b3 86 b2 bd
       -0.1073915 0.1280533 0.11601666 -0.08717098
000070 d5 a1 f7 3d 3f c2 43 be 2d db 45 be 06 22 ab bd
       0.12091414 -0.19117068 -0.1932189 -0.08356099
000080 8e 80 83 bd f9 65 b9 be 76 c5 ad be c5 4b 2e 3c
       -0.06421004 -0.3621061 -0.33939713 0.010638182
000090 d2 d8 36 3e cd 20 90 3e bb 92 1e 3b 0d 29 d8 3d
       0.17856148 0.28150025 0.0024196345 0.10554705
0000a0 36 bf a8 be 62 9c 6d bd 25 a7 40 be b8 32 40 3d
       -0.32958382 -0.058010466 -0.1881376 0.04692337
0000b0 5d 15 1f 3d a9 dc b2 3e 0f f0 7a 3e 35 18 6f be
       0.038838733 0.34933975 0.24505638 -0.23349078
0000c0 f7 ad 2d 3c 3b b8 24 3e d7 5c 9e 3d 19 c1 f1 bc
       0.0106005585 0.16085903 0.077325515 -0.029511021
0000d0 a2 fa 85 be 8a c4 09 3c c3 17 f7 3c 70 7e bd bd
       -0.2616778 0.008408675 0.030162698 -0.09252632
0000e0 55 4d 87 bc 5d 67 90 3e f1 59 6a 3d 9c e1 1d 3d
       -0.016516367 0.2820386 0.05721468 0.038545236
0000f0 a9 44 5f 3e 15 93 a7 bd 19 e8 d1 bd df fe 8e 39
       0.21803536 -0.081823505 -0.10249347 0.00027274244
000100 ef f7 cc bd 2e b9 86 3d 2e 1a 98 bd 17 21 da 3d
       -0.10008227 0.06578289 -0.074268684 0.10650843
000110 e9 b2 24 bd e0 79 14 3e cb c4 9c 3e ef 9d 63 bd
       -0.040209685 0.14499617 0.3061889 -0.05557054
000120 f6 00 7e bd a8 83 7d 3d 41 1b a0 be 88 7a b5 bd
       -0.062012635 0.061893135 -0.31270793 -0.088612616
000130 59 e0 1b be cd c0 94 3e 48 48 54 3e a0 81 0a bd
       -0.152223 0.29053345 0.20730698 -0.033815026
000140 9a 47 f6 3d 3c 64 c9 bb ee 45 8d bb 2f 02 ab 3d
       0.12025376 -0.006145982 -0.004311315 0.08350026
000150 46 df 20 be 76 ff 5b 3e f3 e2 ed 3c 02 0a 03 3e
       -0.15710172 0.2148417 0.029038882 0.12796786
000160 89 52 29 3e 79 f9 07 bd a3 78 cc bd 09 1c ce bc
       0.16535391 -0.0331969 -0.09983947 -0.025159853
000170 88 77 e4 bb 48 dd 46 bd 32 e4 90 3d b5 6f aa bd
       -0.006972257 -0.048550874 0.07074775 -0.08322088
000180 ee fc 2d be a2 9c 12 3e 26 ac 5d be 67 cb 69 3c
       -0.16991016 0.14317563 -0.216477 0.014269686
000190 ae 69 c1 bd b2 5b 5c 3e 17 ec 0a bd 3e 81 d3 bd
       -0.09443985 0.21519354 -0.03391656 -0.10327385
0001a0 6b b5 a1 3e 92 06 f0 3e 66 2f 9e 3d 20 fe e4 bd
       0.31583723 0.46880013 0.07723884 -0.11181283
0001b0 04 28 cc 3d c5 54 09 3e 29 29 93 bc 9d 64 0f 3d
       0.0996857 0.13411243 -0.017963963 0.03500806
0001c0 cd a9 8d be 44 0d 8d be bf 52 61 bd 86 8b b4 bd
       -0.2766861 -0.27549183 -0.055010553 -0.088156745
0001d0 e3 9f 25 3d 82 ad 49 bd ce 48 f5 3d be 4c 1d be
       0.040435683 -0.049237736 0.11976777 -0.15361306
0001e0 66 f8 84 bd d8 cc c0 bd 06 cf 90 3d 0a d6 20 3d
       -0.06492691 -0.09414071 0.070707366 0.039266624
0001f0 a3 6f bd bd bc 19 4c be 7c c6 ba 3c 0e 1e 84 bd
       -0.09249809 -0.19931692 0.022799723 -0.06451045
000200 f6 a8 bc bc 8c 4b 36 bd 41 51 9d bd a6 ca 3e be
       -0.023029786 -0.04450564 -0.076815136 -0.18631992
000210 55 b4 b7 3e f6 60 9d 3e 32 cb ba 3d e1 38 27 3d
       0.3587977 0.30738038 0.09120788 0.04082573
000220 75 68 6b 3e a7 d5 e5 3d 53 94 25 3e 7a 47 4a 3e
       0.22989066 0.112223916 0.16169862 0.19753829
000230 95 07 0b 3e 00 87 93 bb 86 58 82 be bb a7 df 3d
       0.13577111 -0.0045021772 -0.25458163 0.10920664
000240 75 94 4b bd 20 8b ab 3d f4 44 8a 3c 98 61 ca bd
       -0.049702127 0.08376145 0.016878583 -0.09881896
000250 bf 03 0f bd 70 98 af 3c 2c 97 1c bd 49 5a 71 3e
       -0.034915682 0.021434993 -0.038230106 0.23569597
000260 c9 7e 26 bd f3 64 c9 bd 8b 57 0c 3d 62 bb ad bd
       -0.040648255 -0.09833708 0.034263175 -0.08483006
000270 66 05 12 3e 8b 32 98 3c 2e c3 10 3e 4c 1e 13 3d
       0.14259872 0.018578788 0.14136955 0.035917565
000280 b0 37 35 be ab e5 f5 bd ef 90 7d bd e4 57 b5 bd
       -0.17697024 -0.12006696 -0.061905798 -0.088546544
000290 30 a5 c4 3d f3 85 54 3e 73 f9 22 be 7a 5d f9 bd
       0.096018195 0.20754223 -0.1591547 -0.12176032
0002a0 38 ba 37 3e 29 b0 9a bd 97 e3 14 be 2e 3f 12 3e
       0.1794213 -0.07553131 -0.14539944 0.14281914
0002b0 5c a5 99 3d f1 fd d2 bd 2f 91 ef bd 7a 81 43 3e
       0.07502243 -0.10302342 -0.116976134 0.1909236
0002c0 37 db 5e be 1f ca 3e 3d 62 88 20 3d a2 f4 37 3e
       -0.21763311 0.046579476 0.039192565 0.17964414
0002d0 d9 d8 2b 3e 57 d1 26 be 9a 9c fa 3d 21 e0 a2 3e
       0.1678194 -0.16290794 0.12236901 0.31811622
0002e0 88 07 e3 bc 19 74 96 3e c5 b7 2f be a2 86 db bd
       -0.027713552 0.2938545 -0.17159946 -0.107190385
0002f0 59 6e 6e 3e 3f 05 b5 bc f8 74 d8 bd b6 69 db 3e
       0.23284282 -0.022097228 -0.10569185 0.4285409
000300 84 34 cc 3c 76 15 78 3c 0b f5 33 be 26 53 32 bd
       0.024927385 0.015141835 -0.17573945 -0.043536328
000310 8a 26 9a be ea 18 94 bb 28 3b c6 bd 60 8d 74 bd
       -0.30107528 -0.0045195716 -0.09679252 -0.05970514
000320 cb ba 8b bd ed e0 22 ba fc 32 42 be 7b 36 11 bd
       -0.06822737 -0.0006213326 -0.18964761 -0.035452347
000330 4b ac c0 bd df 32 9f 3d f2 d4 0b 3e e2 1a e5 3c
       -0.09407862 0.07773375 0.13655451 0.02796692
000340 55 a0 0e be 6f a9 01 3e a6 3d 39 3e d3 dd 81 bd
       -0.1392835 0.1266229 0.18089923 -0.06341138
000350 5b 23 89 3e 96 01 8b bd 30 ca 3c 3c df 62 d8 bc
       0.26784787 -0.06787412 0.011522815 -0.026414333
000360 c1 a2 2e 3e f9 78 09 3d 4d 05 ba 3d 73 1f 8a bb
       0.17054273 0.033562634 0.09083042 -0.004215175
000370 e2 b8 42 bd 37 38 0f bc c2 24 94 be e9 35 37 3e
       -0.0475396 -0.00874143 -0.28934294 0.17891659
000380 63 af b5 3c 46 4e e5 bd 29 08 7b 3e a8 d9 de 3e
       0.022178357 -0.1119657 0.24514832 0.43525434
000390 16 5e 67 be 33 f8 b3 bb 10 08 83 3d a1 54 42 be
       -0.22594485 -0.005492234 0.06398022 -0.18977596
0003a0 e2 cc 30 bd f8 74 48 3d ed 4e 03 3d 7e 38 d7 be
       -0.04316414 0.048939675 0.03205769 -0.42035288
0003b0 ce 0f 18 be ee b0 9e 3d 42 3d d7 bd 3e b1 24 3e
       -0.14849779 0.077485904 -0.10509731 0.16083238
0003c0 6b 5b 81 bd b2 6c 7c bd 1c f4 93 be c9 e2 ab 3c
       -0.06316265 -0.061627097 -0.28897178 0.020982163
0003d0 d0 9a b1 bd 81 8b 55 3e 76 14 9a be ed 2d 06 3e
       -0.08672106 0.20853998 -0.30093735 0.13103457
0003e0 3a e2 89 be 3b 33 98 bb de f6 07 be d5 6f b3 3d
       -0.2693041 -0.004644779 -0.13277766 0.08761565
0003f0 b5 9e 3a 3e 13 4d 0b bd a1 ea 19 be 01 1b 20 be
       0.18224604 -0.03400905 -0.1503091 -0.15635301

network_body._body_endoder.seq_layers.2.bias f4 [128]
000000 00 00 00 00 00 00 00 00 00 00 00 00 00 00 00 00
       0.0 0.0 0.0 0.0
000010 00 00 00 00 00 00 00 00 00 00 00 00 00 00 00 00
       0.0 0.0 0.0 0.0
000020 00 00 00 00 00 00 00 00 00 00 00 00 00 00 00 00
       0.0 0.0 0.0 0.0
000030 00 00 00 00 00 00 00 00 00 00 00 00 00 00 00 00
       0.0 0.0 0.0 0.0
000040 00 00 00 00 00 00 00 00 00 00 00 00 00 00 00 00
       0.0 0.0 0.0 0.0
000050 00 00 00 00 00 00 00 00 00 00 00 00 00 00 00 00
       0.0 0.0 0.0 0.0
000060 00 00 00 00 00 00 00 00 00 00 00 00 00 00 00 00
       0.0 0.0 0.0 0.0
000070 00 00 00 00 00 00 00 00 00 00 00 00 00 00 00 00
       0.0 0.0 0.0 0.0
000080 00 00 00 00 00 00 00 00 00 00 00 00 00 00 00 00
       0.0 0.0 0.0 0.0
000090 00 00 00 00 00 00 00 00 00 00 00 00 00 00 00 00
       0.0 0.0 0.0 0.0
0000a0 00 00 00 00 00 00 00 00 00 00 00 00 00 00 00 00
       0.0 0.0 0.0 0.0
0000b0 00 00 00 00 00 00 00 00 00 00 00 00 00 00 00 00
       0.0 0.0 0.0 0.0
0000c0 00 00 00 00 00 00 00 00 00 00 00 00 00 00 00 00
       0.0 0.0 0.0 0.0
0000d0 00 00 00 00 00 00 00 00 00 00 00 00 00 00 00 00
       0.0 0.0 0.0 0.0
0000e0 00 00 00 00 00 00 00 00 00 00 00 00 00 00 00 00
       0.0 0.0 0.0 0.0
0000f0 00 00 00 00 00 00 00 00 00 00 00 00 00 00 00 00
       0.0 0.0 0.0 0.0
000100 00 00 00 00 00 00 00 00 00 00 00 00 00 00 00 00
       0.0 0.0 0.0 0.0
000110 00 00 00 00 00 00 00 00 00 00 00 00 00 00 00 00
       0.0 0.0 0.0 0.0
000120 00 00 00 00 00 00 00 00 00 00 00 00 00 00 00 00
       0.0 0.0 0.0 0.0
000130 00 00 00 00 00 00 00 00 00 00 00 00 00 00 00 00
       0.0 0.0 0.0 0.0
000140 00 00 00 00 00 00 00 00 00 00 00 00 00 00 00 00
       0.0 0.0 0.0 0.0
000150 00 00 00 00 00 00 00 00 00 00 00 00 00 00 00 00
       0.0 0.0 0.0 0.0
000160 00 00 00 00 00 00 00 00 00 00 00 00 00 00 00 00
       0.0 0.0 0.0 0.0
000170 00 00 00 00 00 00 00 00 00 00 00 00 00 00 00 00
       0.0 0.0 0.0 0.0
000180 00 00 00 00 00 00 00 00 00 00 00 00 00 00 00 00
       0.0 0.0 0.0 0.0
000190 00 00 00 00 00 00 00 00 00 00 00 00 00 00 00 00
       0.0 0.0 0.0 0.0
0001a0 00 00 00 00 00 00 00 00 00 00 00 00 00 00 00 00
       0.0 0.0 0.0 0.0
0001b0 00 00 00 00 00 00 00 00 00 00 00 00 00 00 00 00
       0.0 0.0 0.0 0.0
0001c0 00 00 00 00 00 00 00 00 00 00 00 00 00 00 00 00
       0.0 0.0 0.0 0.0
0001d0 00 00 00 00 00 00 00 00 00 00 00 00 00 00 00 00
       0.0 0.0 0.0 0.0
0001e0 00 00 00 00 00 00 00 00 00 00 00 00 00 00 00 00
       0.0 0.0 0.0 0.0
0001f0 00 00 00 00 00 00 00 00 00 00 00 00 00 00 00 00
       0.0 0.0 0.0 0.0

network_body._body_endoder.seq_layers.2.weight f4 [128, 128]
000000 03 ba c7 3d a0 1e 53 3d 2c 07 57 3c 20 a6 c5 3d
       0.09752276 0.05154288 0.0131242685 0.096508265
000010 cf 60 c9 bd 92 5c f5 bd d7 e5 ea bd 1b fb b2 3c
       -0.09832918 -0.11980547 -0.1146962 0.021848252
000020 17 02 a2 bd bc bd c1 3d 37 89 03 bd b4 a0 cc bd
       -0.07910555 0.09460017 -0.03211328 -0.09991589
000030 6d e4 3a 3d 35 47 1b 3d 66 68 70 bd 93 d4 f4 bc
       0.045628 0.037909705 -0.058693312 -0.02988652
000040 96 d1 c7 bd cc 87 1c 3d b9 0c 83 bd dd 28 b9 b8
       -0.09756772 0.038215443 -0.06398911 -8.829099e-05
000050 4c 64 b2 3c 6a 2b 75 bd cd fe e3 bc d4 6c 5c bd
       0.02177634 -0.059855856 -0.02783146 -0.053814724
000060 a4 83 0d bd c0 7c b6 bd 34 20 76 bd e2 75 df bd
       -0.03454937 -0.08910513 -0.060089305 -0.10911156
000070 c5 9f 6a 3d ac 0c d7 bb c1 0d 7f 3c fb 87 cf bd
       0.057281274 -0.00656279 0.015567244 -0.10133358
000080 a9 d1 82 3b 3c c6 e6 38 24 87 0d 3d 67 d0 f7 bb
       0.0039922786 0.00011004179 0.03455271 -0.0075626853
000090 52 64 e1 3c 0f f5 34 3d 80 a9 8f 3e d3 64 f0 bc
       0.027513657 0.04417902 0.28059006 -0.029344952
0000a0 02 0e 03 3e b7 30 cb bd 89 9b 12 3e c2 59 88 3d
       0.12798312 -0.09921401 0.14317144 0.06657745
0000b0 0f 04 9c 3d d8 b7 75 3d 40 f9 87 3d 8d 0a 9c 3d
       0.076179616 0.05998978 0.066393375 0.076192
0000c0 e2 9c db bd 19 c1 2e bd d7 68 c9 bd a0 09 69 bc
       -0.107232824 -0.04266462 -0.0983445 -0.014223486
0000d0 47 68 83 bd e3 b5 e1 3d 3b ee bf 3c 0e 82 bd 3d
       -0.06416374 0.1102102 0.023429027 0.092533216
0000e0 57 38 aa bc ed 86 95 bd 61 51 98 3d 50 7c 91 3d
       -0.020778818 -0.07301126 0.07437397 0.07103789
0000f0 bf fa 4d 3d 01 9d a2 bd 71 c5 2a 3e 85 2c 90 bd
       0.05028796 -0.07940102 0.1667688 -0.070397414
000100 75 16 02 3e 98 0d b7 3d ec b5 65 3e f7 95 95 3d
       0.12703879 0.0893814 0.22432679 0.07303994
000110 b6 a4 c9 bd 6d 43 d3 bd ff 4d f5 3d 82 b3 31 be
       -0.09845869 -0.10315595 0.11977767 -0.17353633
000120 f6 6f cb 3d 1b 55 0c 3d 8f 98 7a 3c 98 e8 0e be
       0.09933464 0.03426085 0.015295162 -0.13955915
000130 21 93 a8 bc 27 78 ba bd 25 ff 35 bd 31 02 42 3d
       -0.020577969 -0.091049485 -0.044432778 0.04736537
000140 2e 10 72 3d d1 10 b5 bd d5 cc 17 bd cc b9 9c bd
       0.05909746 -0.08841098 -0.037060577 -0.076526254
000150 98 1e fc 3d 2e be 1b 3c 23 ea 42 3d 6e 19 19 3d
       0.12310523 0.009505792 0.04758657 0.037377767
000160 3f 8d 31 3d db 6b f2 3c 29 97 c4 3d 85 0f 74 bd
       0.043347593 0.029592445 0.09599144 -0.059585113
000170 d9 e9 b8 3d 36 8c 92 3d 1f 5b f1 bd 34 35 1f 3d
       0.09028978 0.07155649 -0.11784958 0.038869098
000180 e2 39 20 3e aa 3a bc bd 18 7c 4c 3e e9 96 54 3c
       0.1564708 -0.09190877 0.19969213 0.012975433
000190 a0 38 37 3d 34 d5 8e bd 7b 48 b0 bc b7 a5 db bd
       0.044731736 -0.06974259 -0.021518936 -0.10724967
0001a0 12 e9 86 3e a7 d3 0c bd 67 6a c5 bc 98 1b d0 bd
       0.26349694 -0.034381535 -0.024098588 -0.10161513
0001b0 6d 94 e2 3c 64 4f ce bd 66 08 88 bd 26 5e 96 bd
       0.027658666 -0.10073736 -0.06642227 -0.07342176
0001c0 13 b2 2c 3e 35 df b4 3d 43 5c 05 ba dc 63 41 bd
       0.16864805 0.08831636 -0.00050872954 -0.047214374
0001d0 2a 5b d9 3d ed 63 14 3e 1c fb 8a bc cd 00 02 3d
       0.10613091 0.14491244 -0.016965441 0.031739045
0001e0 25 85 c4 bc 70 71 fa 3d 99 67 64 bd b0 44 b9 bd
       -0.02398927 0.12228668 -0.05576286 -0.09046304
0001f0 91 f0 68 bd 51 c7 0f 3d 47 99 21 be ec e0 a6 bc
       -0.056870047 0.035102192 -0.15781127 -0.020370923
000200 1f 05 49 bd 7d 34 3c bd c2 38 87 3d 77 6c 40 3e
       -0.04907715 -0.045948494 0.066026226 0.18791376
000210 32 43 72 3d 9f 9c 40 bb 5c c2 08 3e 8b ba dd 3d
       0.059146114 -0.0029390228 0.13355392 0.10826596
000220 1c bf 67 bd 8d 95 09 bd af f8 d4 3d 2a 60 d0 3b
       -0.05657874 -0.03358989 0.10398995 0.00635912
000230 21 99 22 bd c6 0c 22 bd fe fd d1 bc 6c be 00 be
       -0.039696816 -0.039562963 -0.025633808 -0.1257264
000240 1e 3d 7b 3d 44 a4 38 bd f9 08 e7 bd a9 56 4a bd
       0.061337583 -0.04507853 -0.11281008 -0.04939905
000250 db 28 d1 bc 30 6d 3d 3d 0a 6e 2b bd e6 b1 9c bd
       -0.025532177 0.046246707 -0.04185299 -0.07651119
000260 fd 9f 16 bd c8 fb 8e bd c7 e6 d1 bd b5 bb c1 3d
       -0.03677367 -0.06981617 -0.102490954 0.094596304
000270 76 55 c7 3c 04 0f 97 bd 4e fe 3f 3e 11 76 3c 3b
       0.024332743 -0.07375911 0.18749353 0.0028756896
000280 25 f8 f4 bc 66 26 ff 3d d4 fa bf 3b a3 3f 0b be
       -0.02990348 0.12458496 0.0058587585 -0.13598494
000290 e2 26 58 3d 83 61 07 3d c7 d8 59 be e3 c2 a8 bc
       0.052771457 0.03305198 -0.212741 -0.020600742
0002a0 07 10 0e bd 43 5e fe 3d 1b 3d f8 bd a0 c6 28 bd
       -0.034683254 0.12420323 -0.1212103 -0.04120505
0002b0 13 c7 0e 3d 3c 71 09 3d 9d 60 d8 bd ad e7 d5 3c
       0.03485782 0.033555254 -0.105653025 0.026111448
0002c0 65 77 a2 bd b9 d4 4c 3e 3d b6 83 bd ca 2c 25 3e
       -0.07932929 0.20003022 -0.064312436 0.16130367
0002d0 6d 11 58 bc 88 4d 5d 3d 20 77 c5 bc bb 5d f6 3d
       -0.013187748 0.054029018 -0.024104655 0.120295964
0002e0 41 0a 20 3d 67 40 33 bd 7c d8 eb 3c 4d 7b 63 3d
       0.03907228 -0.04376259 0.028789751 0.05553751
0002f0 67 58 e7 3d 59 4b 3d bc 30 51 50 bc 07 9d a6 bd
       0.11296158 -0.011553609 -0.012714669 -0.08135419
000300 39 73 48 3c 8f 59 a3 3d 09 03 cd bd 8e 59 0b 3d
       0.0122345025 0.07976066 -0.100103445 0.034020953
000310 be c8 85 bc 84 f5 0e 3e d0 38 f5 3c 49 21 96 3d
       -0.016331073 0.13960844 0.029934317 0.073305674
000320 85 cd e6 3b af ae f2 bc 27 45 86 bb 11 fb b8 3d
       0.007043543 -0.029624311 -0.004097599 0.09032262
000330 f2 1a 7f bc 26 d5 30 bd cd 6b c6 3d e4 12 01 3e
       -0.015570389 -0.043172024 0.0968853 0.12604862
000340 8a 7f f3 bd b0 8a 96 bd b3 66 81 bd 01 e0 cf ba
       -0.118895605 -0.07350671 -0.063184164 -0.0015859605
000350 ca c1 03 3b f4 38 73 3d 43 ba 22 be 5c c6 f2 bd
       0.002010452 0.059380487 -0.15891366 -0.1185424
000360 93 29 e9 3c 31 4c fa bc f4 f2 e3 3c 25 8b db 3c
       0.028462207 -0.030553909 0.02782581 0.026799748
000370 1e ef 5d 3d 64 4d 10 3c 55 6e ca 3d cc 0b 57 3d
       0.054183118 0.008807514 0.098843254 0.052501485
000380 f4 8c 17 bc f6 1a 3d bd 58 15 93 3d aa e6 c0 3d
       -0.009249914 -0.04616829 0.07181805 0.09418996
000390 06 00 bc bd 6f 93 7a 3c 50 75 37 bd a2 e0 e4 bc
       -0.09179692 0.01529394 -0.044789612 -0.027939145
0003a0 9f 8d f3 bc cf 24 8b bd 53 4e a4 3d 6f b2 11 bc
       -0.029730616 -0.0679413 0.08022752 -0.00889264
0003b0 b1 b8 8c 3a 2d 85 44 3d 6e 62 37 bd 87 e0 95 bd
       0.0010736195 0.04797857 -0.044771604 -0.07318216
0003c0 eb ed b8 3d cf 3e a8 bd 83 02 ec 3d 34 45 a0 bd
       0.09029754 -0.08215105 0.115239166 -0.078256994
0003d0 79 05 43 bd d8 c3 b3 bb f4 34 da 3d 14 59 15 3e
       -0.04761264 -0.005485993 0.10654631 0.14584762
0003e0 a8 6c 91 3c 76 5f d0 bc 08 95 23 bd e2 38 64 bd
       0.017752007 -0.025436144 -0.03993705 -0.05571831
0003f0 9c 5e 3b be aa c9 f5 3c 9a 93 ed 3d 13 6f da 3d
       -0.1829781 0.030003387 0.116004184 0.10665717
