results/phase2_but_with_config_3/NPCAgent/NPCAgent-76637.onnx (onnx, 109940 bytes, 9 tensors)

action_model._continuous_distribution.log_sigma f4 [1, 2]
-0.019183682 -0.009148337
00000000: 1927 9dbc e8e2 15bc

action_model._continuous_distribution.mu.bias f4 [2]
0.00955073 0.005415085
00000000: aa7a 1c3c 0671 b13b

action_model._continuous_distribution.mu.weight f4 [2, 128]
-0.0147551 0.026658174 0.032857236 -7.754176e-05 0.046962604 0.010129063 0.030383207 -0.017057601
0.0042937826 0.024833543 0.013978733 -0.0054622744 -0.008955771 0.008616391 -0.025641093 -0.014867689
-0.011307561 2.3222223e-05 0.010623714 0.04092766 -0.041288022 0.0016228423 -0.012297742 0.00039137498
0.03817886 -0.007836102 0.01022875 -0.030608663 -0.006964326 -0.024697294 0.0058796625 0.020865645
0.0035631345 0.022339407 0.0053828317 0.021852043 -0.01377703 -0.010371024 -0.00831881 0.017270673
-0.004740103 0.008296352 -0.013763349 0.00029288587 -0.011325743 0.012775843 -0.022760203 0.04270916
0.023073243 -0.0033901383 -0.02899782 -0.015098333 -0.032503963 -0.0020258822 -0.0076467413 0.015609558
0.0031654888 -0.013977172 -0.018336974 0.005518836 -0.05154122 -0.0002757384 -0.035153978 0.012157948
0.003151786 -0.0070883594 0.015820706 0.006514869 0.018802613 -0.04476114 0.013159389 0.004572121
0.01202202 0.03267464 -0.014887001 -0.016193278 0.017091926 -0.00031248928 -0.008819627 0.005750913
-0.036715265 0.0122595215 0.000900371 0.01839949 -0.011321061 -0.019375782 0.020890914 0.0034671177
-0.0038510605 -0.009310407 -0.029687101 -0.012580044 0.019177744 -0.022421384 -0.015450485 -0.0060655763
-0.027573196 0.015428914 0.036267094 -0.0069615147 -0.006964394 -0.0051088883 0.024104578 -0.012745886
-0.0024579954 0.005711559 0.036156856 0.03585818 -0.0046642437 0.0038244019 -0.018574715 0.012867938
0.018264435 -0.00058305793 -0.027980266 -0.05096311 0.0055341762 -0.02193327 -0.041953273 0.00084841036
0.0021100899 -0.025342653 0.03246068 -0.0023257912 0.022412427 0.028019477 -0.014926767 -0.016235983
0.018233472 -0.015860287 0.018811664 0.015680358 -0.01515403 0.020523677 -0.00014889943 0.018858753
-0.009055219 0.0025376503 0.023079878 -0.013418948 0.0071916166 0.022997059 0.005901962 0.017467594
-0.030471375 -0.022536512 -0.0057714195 0.0033949441 -0.013262281 0.020356905 0.013151495 -0.005223115
0.009720011 0.00080345693 0.012671274 -0.0084038405 -0.0438323 0.014925709 -0.02894358 0.025422664
0.0055870246 -7.871174e-05 -0.00056453736 -0.022303334 -0.013776265 -0.009348859 -0.00043228397 -0.025412163
0.0018249894 -0.018849408 0.024862718 -0.0061227516 -0.0033131996 0.026877137 0.011778447 -0.008638215
-0.0064274776 0.029120859 -0.03210731 -0.01023396 0.00053661544 0.023645213 0.0054293387 0.0027394085
-0.0051923804 0.0028073306 -0.03021346 0.027645094 -0.0023556896 -0.019483894 0.0077277427 -0.0010114755
-0.02191406 -0.0032584183 -0.0055993283 -0.00048455206 0.022860851 0.03516417 0.029787134 0.038651574
0.029844388 0.010987185 0.01825568 -0.012289878 -0.021170048 0.015041049 0.012386232 0.009865027
-0.008178384 0.025759023 -0.008361283 -0.04055066 0.0054387823 0.005125737 -0.0036718445 -0.02695619
-0.010589397 -0.029258264 0.02627758 -0.016886367 0.013246256 0.020302206 0.010438298 0.0027409487
-0.019928748 0.027690068 0.03986993 0.00017208209 -0.010698345 0.011397755 -0.019349774 0.0022128045
0.0059833196 0.02106402 -0.02987516 -0.0047352253 0.02790643 0.01413867 -0.026879571 0.010731347
-0.011552057 -0.0020807358 0.010435122 -0.017108526 -0.01715697 0.0102623375 -0.005729386 0.0049230917
0.02825449 -0.009534213 -0.0052385717 -0.005762339 -0.0050057047 0.014196915 -0.011126732 -0.00046515485
00000000: 60bf 71bc 3e62 da3c 4f95 063d ea9d a2b8
00000010: dc5b 403d 5ff4 253c 34e6 f83c 62bc 8bbc
00000020: dcb2 8c3b b76f cb3c 0e07 653c e1fc b2bb
00000030: 3abb 12bc c32b 0d3c 450d d2bc 9c97 73bc
00000040: 5943 39bc 58cd c237 160f 2e3c c3a3 273d
00000050: a11d 29bd 8db5 d43a 787c 49bc 7631 cd39
00000060: 7061 1c3d fe62 00bc 7d96 273c 05bf fabc
00000070: 0035 e4bb fb51 cabc 2faa c03b 6eee aa3c
00000080: 7a83 693b 2201 b73c 7762 b03b 0e03 b33c
00000090: 0db9 61bc 3aeb 29bc 9e4b 08bc 3a7b 8d3c
000000a0: de52 9bbb 6ced 073c ab7f 61bc 7a8e 9939
000000b0: 9c8f 39bc c551 513c 9b73 babc cdef 2e3d
000000c0: 1904 bd3c 152d 5ebb d68c edbc 005f 77bc
000000d0: e022 05bd aac4 04bb 8491 fabb 3bbf 7f3c
000000e0: 1774 4f3b 8200 65bc 6c37 96bc 5ad7 b43b
000000f0: e31c 53bd fb90 90b9 9efd 0fbd 2132 473c
00000100: 328e 4e3b 7845 e8bb 6d9a 813c af7a d53b
00000110: f007 9a3c 7557 37bd 7a9a 573c bbd1 953b
00000120: 02f8 443c d8d5 053d 9ce8 73bc c4a7 84bc
00000130: 5e04 8c3c 9ad5 a3b9 3280 10bc 2872 bc3b
00000140: bf62 16bd 29dc 483c e006 6c3a 87ba 963c
00000150: f97b 39bc f6b9 9ebc 6c23 ab3c 9538 633b
00000160: 1362 7cbb ad8a 18bc 5d32 f3bc 871c 4ebc
00000170: a51a 9d3c 0dad b7bc 0824 7dbc bec1 c6bb
00000180: 2fe1 e1bc 8ec9 7c3c ce8c 143d 6b1d e4bb
00000190: 9235 e4bb 7668 a7bb f776 c53c 1fd4 50bc
000001a0: 5216 21bb 0828 bb3b 3619 143d 07e0 123d
000001b0: 83d6 98bb d1a2 7a3b 002a 98bc 0bd4 523c
000001c0: 4c9f 953c 5bd8 18ba df36 e5bc b2be 50bd
000001d0: 0958 b53b 67ad b3bc 32d7 2bbd db67 5e3a
000001e0: 6f49 0a3b 659b cfbc 7df5 043d 4d6c 18bb
000001f0: 449a b73c 1a89 e53c 668f 74bc 5301 85bc
00000200: 5d5e 953c 6fed 81bc eb1a 9a3c 1874 803c
00000210: 9c48 78bc 4521 a83c e321 1cb9 ac7d 9a3c
00000220: 575c 14bc b54e 263b 0312 bd3c 26db 5bbc
00000230: a7a7 eb3b 5464 bc3c 3f65 c13b 3318 8f3c
00000240: 1b9f f9bc 7e9e b8bc 2d1e bdbb b67d 5e3b
00000250: 0a4a 59bc 86c3 a63c 5e79 573c aa26 abbb
00000260: ae40 1f3c 159f 523a 2d9b 4f3c 43b0 09bc
00000270: 7f89 33bd f68a 743c 161b edbc 3143 d03c
00000280: 5c13 b73b 0b12 a5b8 76fd 13ba 7bb5 b6bc
00000290: d8b5 61bc f52b 19bc 2ca4 e2b9 2b2d d0bc
000002a0: 7c34 ef3a 136a 9abc e6ac cb3c 5da1 c8bb
000002b0: 4422 59bb 712d dc3c 63fa 403c 4d87 0dbc
000002c0: 979d d2bb de8e ee3c f482 03bd 57ac 27bc
000002d0: a7ab 0c3a 9bb3 c13c 98e8 b13b a687 333b
000002e0: d824 aabb 31fb 373b 3882 f7bc f777 e23c
000002f0: ea61 1abb b09c 9fbc 0139 fd3b 7c93 84ba
00000300: 1d85 b3bc 308b 55bb 927a b7bb 7a0b feb9
00000310: ae46 bb3c 4e08 103d 2604 f43c 1d51 1e3d
00000320: 387c f43c 9803 343c f08c 953c 7c5b 49bc
00000330: cf6c adbc bb6e 763c 9fef 4a3c eca0 213c
00000340: a1fe 05bc 9604 d33c c3fd 08bc 7318 26bd
00000350: d037 b23b ccf5 a73b 54a3 70bb 3ad3 dcbc
00000360: 267f 2dbc 07af efbc 1444 d73c 4755 8abc
00000370: d306 593c d050 a63c 6505 2b3c 7da1 333b
00000380: 9d41 a3bc 48d6 e23c a74e 233d ef70 3439
00000390: 1c48 2fbc a6bd 3a3c 6b83 9ebc b304 113b
000003a0: b90f c43b 748e ac3c c0bc f4bc f329 9bbb
000003b0: 079c e43c e1a5 673c 8c32 dcbc 88d2 2f3c
000003c0: d744 3dbc f45c 08bb 13f8 2a3c 2e27 8cbc
000003d0: c68c 8cbc 5d23 283c 93bd bbbb e351 a13b
000003e0: f675 e73c 6335 1cbc 53a8 abbb 01d2 bcbb
000003f0: e506 a4bb 2d9a 683c e64c 36bc 07e0 f3b9

action_model._discrete_distribution.branches.0.bias f4 [2]
0.004090106 -0.0040901043
00000000: 4c06 863b 4806 86bb

action_model._discrete_distribution.branches.0.weight f4 [2, 128]
-0.0001570716 0.012250048 0.012444229 0.0015698666 0.014030417 0.015600326 0.009499085 0.0068013784
-0.015956514 -0.0046850983 -0.01245825 0.00080672494 0.008206564 0.014464869 0.0035866273 -6.953634e-05
-0.001395538 -0.0032711707 0.009730635 -0.0026866575 -0.008973022 0.0025357911 0.0053646285 -0.012354007
0.007104594 -0.017909648 0.0078419475 -0.0014446747 -0.0007496149 -0.0038916287 0.0047883256 -0.0014657401
-0.009862633 0.016286986 0.00042645267 0.0003745063 0.009032502 -0.0100378385 0.0028212236 -0.0007048417
0.002124036 -0.0012172156 0.00057851203 -0.010172553 0.006592629 -0.007232684 -0.0034529476 -0.0028632914
-0.0018676515 0.014513692 0.005751893 0.011399129 -0.023285305 0.006099172 0.004668539 -0.005879402
0.00341408 0.0028050202 -0.003155333 -0.008850119 -0.022016712 -0.008218931 -0.00832336 0.0058956905
0.0038131946 -0.002184875 -0.0035499008 -0.0055492213 0.012655613 0.0037180334 0.0012012259 0.012159679
0.014098579 0.0026207082 -0.006563674 -0.026444716 0.0009644016 0.015984604 0.017270727 -0.011046491
-0.0116251055 0.021087304 -0.0022789733 -0.006629503 0.011614219 -0.0015461816 0.0049100183 -0.0072040614
-0.025300086 0.0052209776 -0.0010390629 0.0028148876 0.007881524 -0.00010890479 -0.006116475 0.0029080226
-0.005465901 0.015430416 0.012024882 0.017449588 -0.008612419 0.002807128 0.004918854 -0.009176355
-0.0018365643 0.008159814 0.0009409672 -0.0027027116 0.024173114 0.011333274 -0.0060245395 0.00020432839
-0.0026868794 0.0011343568 0.0017016021 -0.025221162 -0.0076782047 -0.00587216 -0.0058370763 0.0062375995
-0.0006675728 -0.0060149063 0.02655029 -0.0071141464 -0.0026265478 0.0072508506 -0.003669335 -0.018390937
-0.0063431836 2.5063786e-05 -0.01111038 0.018577382 -0.0037896894 -0.0006518877 0.003497146 0.002648712
-0.00096382666 0.002658164 0.015040008 0.0027395678 0.010718065 -0.00980802 0.00969572 -0.011022399
-0.0036133828 0.017497977 -0.006722592 0.01503726 0.006463507 -0.013703711 0.0067714765 -0.003326259
-0.010131531 0.009859963 -0.016595783 0.012142333 -0.0069867214 -0.0017385938 -0.0054661385 0.015202383
0.011712259 -0.01454545 0.0038830016 0.00977303 -0.0107231615 -0.006388156 0.0006544193 -0.015265414
-0.00035863114 -0.012526097 0.014470897 0.0003424942 -0.000898525 0.009331375 0.0076851267 -0.016017798
-0.008189311 -0.009773476 -0.00025706418 0.0144034 0.0148170525 -0.0073103514 -0.008371112 0.0013555473
-0.007884503 0.0043338654 -0.0037291762 0.0008295064 -0.006239265 -0.00320267 -0.0042709713 0.011586877
-0.005819148 0.0140465135 0.012074796 0.0008897655 -0.007710044 -0.002064206 0.010151491 -0.014209311
-0.008011225 -0.012596278 0.006496406 -0.004243865 0.0005068168 -0.0051086866 -0.005606752 0.0012555491
0.02211769 -0.008131571 -0.009960541 0.0062432224 0.0085203005 -0.00017125605 -0.0060780393 0.003478744
0.005935565 -0.008421016 0.014487171 0.0077164234 -0.031595435 0.00716694 -0.003104579 -0.00015426606
-0.013694799 -0.017444562 -0.0035748305 0.007192031 0.0024632588 0.0032570565 -0.010382076 -0.0006325536
0.005456606 -0.00969354 -0.007901751 -0.00964196 -0.013408231 0.0007186086 0.005216547 -0.0013149139
-0.0010449731 -0.004655483 0.00020201289 -0.0023334888 -0.008856703 0.0024102156 0.0058726924 -0.005829564
0.0014873301 -0.0070390394 -0.010710286 0.00081180333 0.009175964 -0.009968795 0.0027892708 -0.0016937666
00000000: 96b3 24b9 6db4 483c e1e2 4b3c fbc3 cd3a
00000010: d6df 653c 8298 7f3c 0da2 1b3c 19de de3b
00000020: 3cb7 82bc 7485 99bb b01d 4cbc 657a 533a
00000030: d374 063c 0ffe 6c3c 9f0d 6b3b 0ad4 91b8
00000040: 7cea b6ba 2361 56bb 3e6d 1f3c a212 30bb
00000050: 9503 13bc 842f 263b c4c9 af3b 7668 4abc
00000060: a7cd e83b 41b7 92bc 837b 003c 3d5b bdba
00000070: ce81 44ba b20a 7fbb 63e7 9c3b 141e c0ba
00000080: e296 21bc 496c 853c 8295 df39 6259 c439
00000090: 0ffd 133c bf75 24bc 47e4 383b 20c5 38ba
000000a0: 6933 0b3b fa8a 9fba 49a7 173a c8aa 26bc
000000b0: fb06 d83b 2700 edbb d94a 62bb 0fa6 3bbb
000000c0: fccb f4ba d6ca 6d3c 607a bc3b 6ac3 3a3c
000000d0: d3c0 bebc 90db c73b 8bfa 983b 00a8 c0bb
000000e0: c2be 5f3b 6ed4 373b b4c9 4ebb 1700 11bc
000000f0: 645c b4bc b2a8 06bc b45e 08bc a330 c13b
00000100: cae6 793b 1f30 0fbb 74a5 68bb 3ed6 b5bb
00000110: 7d59 4f3c 40aa 733b 7472 9d3a 6439 473c
00000120: bafd 663c 30c0 2b3b 1714 d7bb 97a2 d8bc
00000130: e5cf 7c3a 25f2 823c 577b 8d3c 57fc 34bc
00000140: 3a77 3ebc 48bf ac3c d45a 15bb 4d3c d9bb
00000150: 9149 3e3c 3fa9 caba 38e4 a03b 0c10 ecbb
00000160: 2042 cfbc bc14 ab3b 2a31 88ba fa79 383b
00000170: 8221 013c d063 e4b8 b66c c8bb 8694 3e3b
00000180: 4d1b b3bb dbcf 7c3c 0304 453c 70f2 8e3c
00000190: 1a1b 0dbc cbf7 373b 572e a13b 6c58 16bc
000001a0: dfb8 f0ba beb0 053c 3dab 763a fa1f 31bb
000001b0: b206 c63c 32af 393c 8069 c5bb fc40 5639
000001c0: 5b16 30bb b3ae 943a 4b08 df3a 9c9c cebc
000001d0: 7399 fbbb 406b c0bb f244 bfbb c764 cc3b
000001e0: 0d00 2fba b118 c5bb fe7f d93c c91d e9bb
000001f0: 2922 2cbb 8b98 ed3b 3a79 70bb 97a8 96bc
00000200: 7bda cfbb 1240 d237 5008 36bc 982f 983c
00000210: 705c 78bb 71e3 2aba 6030 653b 0396 2d3b
00000220: 50a9 7cba 9734 2e3b 5e6a 763c 528a 333b
00000230: d39a 2f3c d1b1 20bc ccda 1e3c 4b97 34bc
00000240: 81ce 6cbb eb57 8f3c 3049 dcbb d75e 763c
00000250: d4cb d33b 8885 60bc 43e3 dd3b 5efd 59bb
00000260: b9fe 25bc af8b 213c e1f3 87bc a3f0 463c
00000270: def0 e4bb 87e1 e3ba 4b1d b3bb 6a13 793c
00000280: c6e4 3f3c 0a50 6ebc f579 7e3b 0f1f 203c
00000290: 33b0 2fbc bd53 d1bb 568d 2b3a c91b 7abc
000002a0: a806 bcb9 423a 4dbc 5717 6d3c cb90 b339
000002b0: fe8a 6bba a0e2 183c 84d3 fb3b c237 83bc
000002c0: 762c 06bc ee20 20bc 92c6 86b9 3dfc 6b3c
000002d0: 39c3 723c ac8b efbb fd26 09bc 9fac b13a
000002e0: 012e 01bc 1903 8e3b 3265 74bb 3b73 593a
000002f0: c072 ccbb e3e3 51bb 81f3 8bbb e2d6 3d3c
00000300: 8dae bebb 5923 663c 5dd5 453c 273f 693a
00000310: 89a4 fcbb a147 07bb 7052 263c 2cce 68bc
00000320: 8341 03bc 9f60 4ebc cedf d43b 1f10 8bbb
00000330: e6db 043a c566 a7bb d8b8 b7bb 3d91 a43a
00000340: 2830 b53c 483a 05bc 8931 23bc f293 cc3b
00000350: bb98 0b3c 3293 33b9 4a2a c7bb a4fb 633b
00000360: 217f c23b 4df8 09bc 995b 6d3c 0dda fc3b
00000370: 376a 01bd a6d8 ea3b 3176 4bbb 7bc2 21b9
00000380: 2660 60bc e6e7 8ebc b447 6abb 21ab eb3b
00000390: a06e 213b 5774 553b 9519 2abc f4d1 25ba
000003a0: 54cd b23b a7d1 1ebc 5976 01bc 50f9 1dbc
000003b0: 32ae 5bbc 0261 3c3a 91ef aa3b 3059 acba
000003c0: 7bf7 88ba 068d 98bb 6cd3 5339 72ed 18bb
000003d0: b41b 11bc b5f4 1d3b b76f c03b ed05 bfbb
000003e0: 84f2 c23a bea7 e6bb 327a 2fbc 33cf 543a
000003f0: c856 163c 2854 23bc 33cc 363b 6001 deba

network_body._body_endoder.seq_layers.0.bias f4 [128]
0.0010111694 0.00096515025 0.0015049793 -0.0075927028 0.0023570014 0.0029148161 -0.0057440856 0.0062196925
0.0070284195 0.006333441 0.007964326 0.006485339 0.0068470673 -0.0072447895 -0.0032662754 0.006416521
-0.004733673 -0.00587275 0.006689124 -0.012766035 0.006882893 -0.0055904384 0.0048357965 -0.0068531972
-0.004484741 0.0064860904 0.007544656 0.0022852877 0.0011930484 -0.0042163203 0.0075808074 0.0068251393
-0.0029823899 -0.00028457664 -0.004501645 0.0025820832 0.0069575347 -0.0063845636 -0.005769308 0.005804361
0.0077004237 0.01104018 -0.0042666583 0.006460581 0.002118609 0.0048053483 0.010614546 -0.009598874
-0.0041407594 0.008771846 -0.0043475563 -0.0059385938 0.000425678 -0.005485307 0.004255454 -0.007993529
-0.008899813 -0.0094451485 -0.00811828 0.0068880594 -0.0012875029 0.002975808 0.0055716196 -0.004433218
0.009207247 -0.004394821 -0.007549083 0.006491066 0.0069118524 0.008055459 0.0055877524 -0.013708559
0.008302313 0.00023699325 0.004124108 -0.0063741566 -0.0050301496 -0.006514511 -0.008502477 0.0063037337
-0.002249854 0.0045689046 0.0022382967 0.010125832 -0.011448949 0.008053887 -0.0071346676 -0.008137834
-0.009882003 0.0032321252 -0.009499223 -0.008219901 0.013054205 -0.005304588 0.00435881 0.0076905126
0.0020529553 -0.0056554647 0.0037544738 0.0072622593 -0.013062426 -0.005232158 -0.006165198 0.00821588
0.002905514 -0.0058940765 0.0015241279 -0.0051638554 -0.0021593391 -0.00050344365 -9.9246114e-05 -0.005691458
-0.008702307 0.002117512 -0.011884075 0.007835767 -0.0057696817 -0.0104580335 -0.0023080374 0.0072420663
0.0043539396 -0.008032251 -0.0053683575 0.0073727146 0.00526148 -0.0005814971 0.002789 0.0071506705
00000000: 3789 843a 2302 7d3a ba42 c53a 35cc f8bb
00000010: ec77 1a3b 8006 3f3b e238 bcbb 90ce cb3b
00000020: a84e e63b c188 cf3b ce7c 023c f782 d43b
00000030: 5d5d e03b b365 edbb 020f 56bb ae41 d23b
00000040: ed1c 9bbb 3370 c0bb 7030 db3b a228 51bc
00000050: e489 e13b ff2f b7bb 9a75 9e3b c990 e0bb
00000060: bcf4 92bb 4589 d43b 2939 f73b c4c4 153b
00000070: 1060 9c3a 0f29 8abb 6c68 f83b 6ba5 df3b
00000080: 3374 43bb 3b33 95b9 8982 93bb 2b38 293b
00000090: 08fc e33b 9a35 d1bb 770c bdbb 8232 be3b
000000a0: d653 fc3b dfe1 343c 53cf 8bbb 48b3 d33b
000000b0: 5cd8 0a3b 2f76 9d3b a2e8 2d3c 9844 1dbc
000000c0: 35af 87bb cab7 0f3c f275 8ebb 8998 c2bb
000000d0: 892d df39 17be b3bb 5671 8b3b 4af7 02bc
000000e0: 85d0 11bc d3bf 1abc 8902 05bc 3bb5 e13b
000000f0: 6ec1 a8ba c605 433b 2292 b63b 8744 91bb
00000100: fed9 163c 6e02 90bb 4c5e f7bb 02b3 d43b
00000110: d27c e23b 0bfb 033c 7719 b73b dd99 60bc
00000120: 6d06 083c 6481 7839 8623 873b 4dde d0bb
00000130: f4d3 a4bb ae77 d5bb f94d 0bbc 8d8f ce3b
00000140: 4972 13bb c0b6 953b 63b0 123b d1e6 253c
00000150: 5f94 3bbc 73f4 033c eec9 e9bb 8d54 05bc
00000160: 20e8 21bc 10d2 533b a1a2 1bbc c3ac 06bc
00000170: 4ee1 553c 1cd2 adbb 59d4 8e3b b200 fc3b
00000180: e08a 063b 7a51 b9bb 9e0d 763b 3ff8 ed3b
00000190: c903 56bc 8672 abbb 6e05 cabb e69b 063c
000001a0: 706a 3e3b 1923 c1bb 3fc5 c73a 8f35 a9bb
000001b0: b383 0dbb 88f9 03ba 5a22 d0b8 697f babb
000001c0: 1f94 0ebc f5c5 0a3b 6cb5 42bc 9761 003c
000001d0: 990f bdbb 2c58 2bbc 7142 17bb db4e ed3b
000001e0: 7eab 8e3b b499 03bc 0ce9 afbb d096 f13b
000001f0: 7e68 ac3b 9c6f 18ba a8c7 363b 2c50 ea3b

network_body._body_endoder.seq_layers.0.weight f4 [128, 75]
-0.06926275 0.0019916839 0.10481946 -0.02099804 -0.17980744 0.10568882 0.08595943 0.041089904
-0.113798 -0.044313215 0.025491718 0.07128492 -0.114021145 0.0034223173 0.08702091 0.09307707
0.13079354 -0.02489077 -0.016445426 -0.15903507 0.2793553 0.01564362 0.026742976 -0.05713505
0.07168594 0.07092318 0.051199798 0.07260768 -0.22466443 0.06447267 -0.20067288 -0.22262304
0.022162858 0.10270291 -0.110418044 0.08120662 0.00092275656 0.06180305 0.060790986 -0.12086941
-0.17366295 -0.0690785 0.20180397 0.020784961 -0.0655148 -0.14149615 0.05672535 -0.15326929
0.07717956 0.09071758 0.013791369 -0.011462179 0.17307754 0.2480524 -0.052188132 -0.15652546
-0.07714887 -0.03403247 0.16698806 -0.22306378 0.06693931 -0.0025698694 -0.2478357 -0.032663718
0.0359297 -0.052260708 0.050292812 0.031689797 0.013309802 -0.10241957 -0.0068486 0.10075609
0.03208936 0.08343821 0.027028976 -0.031720057 0.08275756 0.06508103 -0.20954293 -0.018394617
-0.05300962 -0.12535897 -0.05528064 -0.07608111 0.2131835 0.008894825 0.14540938 0.100006
-0.0061826766 -0.11052759 -0.11619403 0.08594669 0.006711065 0.029346883 -0.008232829 -0.012019441
-0.0745257 0.022980655 0.10071128 0.11717314 0.011699475 0.08980702 0.031577453 -0.14352347
-0.0056879995 -0.091635175 0.20838562 0.10053139 -0.07826304 -0.13622466 0.09357433 0.20516995
0.051871955 0.030221492 -0.03545553 -0.11249603 -0.19393663 -0.032042477 -0.014549311 0.12004999
0.011600363 0.003899251 0.037796304 0.091306485 0.006799752 -0.017556014 0.026408503 -0.19299665
0.07527786 0.072649635 -0.04043444 -0.10911763 -0.044440318 -0.0036860344 0.0042524547 -0.13427955
0.018552216 -0.00343637 0.05967243 0.077202626 -0.08122997 0.055757254 0.081175305 -0.20627493
0.1668925 0.041278936 0.13898072 0.031023411 0.18329003 -0.10298282 0.13508908 -0.2670784
-0.17321496 -0.22066471 0.075973764 4.07493e-05 -0.061927807 -0.25767455 -0.0057565332 0.025075864
-0.0689119 0.035207376 0.059409503 -0.12546243 0.03807405 0.009297307 0.17996794 -0.18430194
0.23483868 0.104989134 0.06672321 0.005771056 -0.0155686345 0.11955628 0.09182812 -0.15695316
-0.0707139 0.034137912 0.08466076 0.018811993 -0.10240608 0.16290587 -0.052846473 -0.2620094
-0.020978365 -0.040008947 -0.14796992 -0.18666042 -0.041358277 0.08117695 0.024607252 -0.15366907
-0.10813647 -0.06959166 -0.27161843 0.25478554 0.084346995 -0.04923929 0.004071668 -0.07710926
0.119411096 0.21972348 0.27939472 0.110402785 -0.14827906 0.13847011 -0.006749965 -0.065804206
-0.09052097 -0.0791852 0.10144345 -0.17444423 0.099019386 -0.25124133 -0.012873971 0.12523079
0.16543506 -0.031808697 -0.20254119 -0.03945775 -0.013533877 0.06607795 -0.08681392 0.024130763
0.011925138 0.18703164 -0.13080983 -0.15194696 0.091789685 -0.06774581 -0.13543142 -0.008003041
0.005803056 0.11415451 0.07832237 -0.035107423 0.0028389962 0.020701053 -0.027998466 -0.05694434
-0.107587226 -0.022065392 0.06308467 -0.02350132 0.053392995 -0.049079783 0.078844756 0.05555272
0.006331831 0.09796014 0.07917862 -0.0853231 -0.044251926 -0.03254902 0.13878742 -0.074052535
00000000: a1d9 8dbd e986 023b 96ab d63d 1504 acbc
00000010: 711f 38be 6173 d83d 7f0b b03d e34d 283d
00000020: ed0e e9bd c681 35bd 02d4 d03c d4fd 913d
00000030: eb83 e9bd f548 603b 0538 b23d 319f be3d
00000040: beee 053e bae7 cbbc 8fb8 86bc 17da 22be
00000050: a807 8f3e 0d27 803c 1614 db3c 7106 6abd
00000060: 14d0 923d 2c40 913d e1b6 513d 56b3 943d
00000070: 6f0e 66be 3f0a 843d 317d 4dbe 4bf7 63be
00000080: e28e b53c e755 d23d db22 e2bd a84f a63d
00000090: 25e5 713a 3225 7d3d f8ff 783d 628a f7bd
000000a0: b3d4 31be 0779 8dbd b3a5 4e3e 3945 aa3c
000000b0: a02c 86bd 5ee4 10be d758 683d a0f2 1cbe
000000c0: 5110 9e3d 23ca b93d 32f5 613c ddcb 3bbc
000000d0: 3d3b 313e 7301 7e3e 39c3 55bd 3648 20be
000000e0: 3a00 9ebd a265 0bbd ebfe 2a3e d56a 64be
000000f0: 7a17 893d 416b 28bb a4c8 7dbe 64ca 05bd
00000100: 052b 133d 530f 56bd d6ff 4d3d 29cd 013d
00000110: 5b11 5a3c 5ac1 d1bd 396a e0bb 3559 ce3d
00000120: 2270 033d a7e1 aa3d df6b dd3c e4ec 01bd
00000130: cc7c a93d 3449 853d 6c92 56be 4fb0 96bc
00000140: 9e20 59bd 1a5e 00be f46d 62bd 6ad0 9bbd
00000150: c74c 5a3e 9abb 113c 32e6 143e f2cf cc3d
00000160: 0d98 cabb 4a5c e2bd 23f7 edbd d104 b03d
00000170: 7ee8 db3b e068 f03c fde2 06bc 31ed 44bc
00000180: eea0 98bd ed41 bc3c b741 ce3d 79f8 ef3d
00000190: 28af 3f3c beec b73d 5c57 013d d1f7 12be
000001a0: 6662 babb 39ab bbbd 0a63 553e 67e3 cd3d
000001b0: 5f48 a0bd 7a7e 0bbe e6a3 bf3d 1218 523e
000001c0: b077 543d 1093 f73c d139 11bd 5264 e6bd
000001d0: 5397 46be f93e 03bd 3c60 6ebc c5dc f53d
000001e0: 730f 3e3c 948a 7f3b 4cd0 1a3d e5fe ba3d
000001f0: 74d0 de3b a1d1 8fbc a556 d83c eaa0 45be
00000200: 472b 9a3d 55c9 943d 959e 25bd 1079 dfbd
00000210: 0d07 36bd 6591 71bb 2d58 8b3b 9480 09be
00000220: d1fa 973c b934 61bb 146b 743d 691c 9e3d
00000230: e65b a6bd b861 643d 3d3f a63d bc39 53be
00000240: dee5 2a3e 1a14 293d f650 0e3e cf24 fe3c
00000250: 62b0 3b3e a8e8 d2bd cb54 0a3e 80be 88be
00000260: 435f 31be eef5 61be 2298 9b3d 3aea 2a38
00000270: 03a8 7dbd ebed 83be 4da1 bcbb e66b cd3c
00000280: af21 8dbd 9c35 103d 6157 733d 3979 00be
00000290: 89f3 1b3d bb53 183c 8449 383e a6b9 3cbe
000002a0: 8d79 703e 8b04 d73d 2ea6 883d 201b bd3b
000002b0: 9613 7fbc ecd9 f43d 6210 bc3d 54b8 20be
000002c0: 73d2 90bd 32d4 0b3d 9f62 ad3d 9c1b 9a3c
000002d0: 47ba d1bd ccd0 263e 8b75 58bd 1926 86be
000002e0: d2da abbc 6ce0 23bd 6d85 17be e923 3fbe
000002f0: 4c67 29bd 1a40 a63d 2695 c93c 6d5b 1dbe
00000300: a776 ddbd 1286 8ebd 9211 8bbe 4073 823e
00000310: 1ebe ac3d 23af 49bd a06b 853b 76eb 9dbd
00000320: ce8d f43d 31ff 603e d30c 8f3e db1a e23d
00000330: 77d6 17be 1ccb 0d3e cf2e ddbb 5bc4 86bd
00000340: 0f63 b9bd da2b a2bd 95c1 cf3d 82a1 32be
00000350: adca ca3d b4a2 80be 59ed 52bc 803c 003e
00000360: cf67 293e d649 02bd f566 4fbe 739e 21bd
00000370: 32bd 5dbc e053 873d 7fcb b1bd e1ad c53c
00000380: a761 433c 3985 3f3e 03f3 05be fc97 1bbe
00000390: 3bfc bb3d 51be 8abd 89ae 0abe 301f 03bc
000003a0: 9027 be3b d7c9 e93d 7b67 a03d cdcc 0fbd
000003b0: 740e 3a3b 4195 a93c 0a5d e5bc 783e 69bd
000003c0: b156 dcbd 7bc2 b4bc 8932 813d d785 c0bc
000003d0: 9db2 5a3d e207 49bd 5c79 a13d 408b 633d
000003e0: 407b cf3b 539f c83d 6628 a23d e1bd aebd
000003f0: 8241 35bd 1f52 05bd 4a1e 0e3e dba8 97bd

network_body._body_endoder.seq_layers.2.bias f4 [128]
-0.0066441908 0.0059300265 0.009383883 -0.0036813666 0.006168833 0.010649799 0.0093547935 -0.0009146232
1.3655954e-06 0.009900658 0.008401214 -0.0077509214 -0.0016869575 0.004865941 -0.006340886 -0.008263089
-0.00611743 -0.003394477 0.0017740522 0.00845581 -0.010389661 0.002705632 -0.00068225776 0.004950966
0.009317887 -0.007983634 0.0075198356 -0.012199849 -0.005970815 -0.0090239 0.0024652025 0.006201286
0.0081880465 0.0074659935 0.00038387 0.0029018384 -0.010184309 -0.008809538 -0.0076771947 0.0042693205
-0.009199817 -6.9286514e-05 0.0005846923 0.00023955046 -0.010061305 0.0075749713 -0.003471581 0.0076446678
0.0050648456 -0.00019909529 -0.009881046 -0.010676274 -0.005427288 1.2423145e-05 -0.0070272516 0.009180328
-0.004669362 -0.0051301527 -0.0088366475 0.0026097812 -0.006722152 -0.0042232918 -0.009835725 0.002902411
-0.0029991083 -0.009234738 0.00915351 -0.003190139 0.00893362 0.0009549301 0.008396788 0.0043375837
0.0067123375 0.008709715 -0.003315352 -0.0076591037 -5.0813076e-05 0.009790514 -0.004817977 0.00060819316
-0.009562474 0.007386719 0.0063656657 0.00012621151 -0.01001124 -0.0063876044 0.0068037137 -0.0014178653
-0.0010894799 -0.009404238 0.0049814708 -0.007973331 0.008542863 -0.003328044 -0.008063218 -0.005439906
-0.006973019 0.008455995 0.0098751085 -0.009172546 -0.005707296 0.005454002 0.0031086316 -0.009078491
-0.0057235896 0.0063177114 0.0035085569 0.00929779 -0.0019292234 0.0038087321 -0.006810637 0.007809686
0.0019661183 0.005798187 -0.009333464 -0.010436837 -0.004873712 -0.0091066705 -0.0038149713 -0.0017405708
0.0044229287 -0.008303956 0.006544104 0.0031088647 0.006762519 0.008465706 -0.010614622 -0.00947605
00000000: 83b7 d9bb ab50 c23b dcbe 193c 1543 71bb
00000010: ec23 ca3b 7f7c 2e3c d944 193c 53c3 6fba
00000020: 8049 b735 5f36 223c 3fa5 093c 71fb fdbb
00000030: e71c ddba 7972 9f3b 35c7 cfbb e861 07bc
00000040: b974 c8bb e075 5ebb 5087 e83a 3d8a 0a3c
00000050: 6639 2abc f950 313b 8bd9 32ba b73b a23b
00000060: 0daa 183c cacd 02bc f468 f63b e0e1 47bc
00000070: d4a6 c3bb fbd8 13bc 3c8f 213b 2834 cb3b
00000080: 2827 063c 4ba5 f43b 2942 c939 c52c 3e3b
00000090: 17dc 26bc e155 10bc fa90 fbbb a8e5 8b3b
000000a0: d4ba 16bc ea4d 91b8 0946 193a d62f 7b39
000000b0: 2cd8 24bc 7737 f83b 7783 63bb 1f80 fa3b
000000c0: 01f7 a53b 3cc4 50b9 1ce4 21bc 8aeb 2ebc
000000d0: 64d7 b1bb 006d 5037 dc44 e6bb 1669 163c
000000e0: 7301 99bb d71a a8bb 96c7 10bc dd08 2b3b
000000f0: 7f45 dcbb 8a63 8abb 0526 21bc 6036 3e3b
00000100: b08c 44bb 4c4d 17bc 9bf8 153c a711 51bb
00000110: 515e 123c 4654 7a3a ae92 093c 4a22 8e3b
00000120: 2bf3 db3b 31b3 0e3c 6046 59bb 38f9 fabb
00000130: 2020 55b8 6468 203c 1fe0 9dbb 276f 1f3a
00000140: ecab 1cbc 4a0c f23b 1397 d03b a557 0439
00000150: 2f06 24bc 1c4f d1bb b0f1 de3b aad7 b9ba
00000160: e1cc 8eba 3c14 1abc 9b3b a33b 93a2 02bc
00000170: 5df7 0b3c 501b 5abb 961b 04bc 3d41 b2bb
00000180: ec7d e4bb 038b 0a3c 35cb 213c 7248 16bc
00000190: 4504 bbbb 7cb7 b23b 2fba 4b3b f3bd 14bc
000001a0: f38c bbbb ce04 cf3b d1ef 653b c255 183c
000001b0: ffdd fcba ec9b 793b c42b dfbb 65e8 ff3b
000001c0: fed9 003b b8fe bd3b 63eb 18bc 44ff 2abc
000001d0: a9b3 9fbb 2534 15bc 9904 7abb dd23 e4ba
000001e0: 37ee 903b 510d 08bc ec6f d63b 18be 4b3b
000001f0: 1f98 dd3b bfb3 0a3c f4e8 2dbc 6f41 1bbc

network_body._body_endoder.seq_layers.2.weight f4 [128, 128]
0.06200645 0.11311724 0.026525222 0.059598476 0.060111865 0.050455242 0.10091611 0.13827574
0.20518042 -0.18555528 -0.042618915 0.0077515426 -0.13814543 0.017377216 -0.09035687 -0.025791459
0.12822367 0.09001752 -0.06562437 -0.018625405 -0.22987245 -0.016576903 0.0039711776 -0.0697661
-0.13192596 0.09623009 0.112641595 0.10317211 0.017892562 -0.11013906 0.07601745 0.045121197
0.05242838 -0.140033 0.12973723 0.060155395 -0.0389462 -0.0710075 -0.016977096 -0.04716375
-0.02043028 0.08585573 -0.10605387 -0.029529145 -0.051702473 -0.02611475 0.06584108 0.060731422
0.05397634 -0.021931173 0.023158861 -0.08224041 -0.062163096 -0.050808687 -0.03688129 0.065729916
-0.04316531 0.04244238 0.13798152 -0.07229842 0.05252493 0.16300982 -0.014997291 0.1707263
-0.06572052 0.1597007 0.075044334 0.08034245 0.10578339 -0.13813989 -0.05966626 0.005716061
-0.05269294 -0.022138707 -0.035812363 0.0016604967 0.13816866 0.08174445 0.09316576 -0.06022295
-0.038770664 0.06274645 0.03737451 -0.03788573 0.2529477 0.009879806 -0.029431451 0.0610811
0.09934564 -0.09376886 0.062803924 -0.12238695 0.07336927 0.07041378 -0.1220472 0.11396194
0.1504625 -0.014483883 -0.104349196 0.0665967 0.075340874 -0.07509436 -0.014550629 0.016295442
0.15062076 0.12342753 -0.030505272 -0.009385492 -0.052670248 0.034237962 0.11269783 -0.038252927
0.054365862 0.026867382 -0.06005146 0.07249087 0.006785476 0.07703479 0.018320503 -0.19149353
-0.010961072 0.062527895 -0.1285597 0.0063697025 0.055650007 -0.07526512 0.09166235 -0.08669582
-0.04848902 0.043998096 0.0900834 -0.11987143 -0.13014787 -0.03616437 0.15950413 0.016019871
0.043631937 -0.004879435 0.04050121 0.18530099 0.19685139 0.19418618 -0.011286881 0.12437773
0.101771556 0.094177134 -0.011355635 0.02355141 0.06922558 0.0027233884 -0.14493617 -0.0993428
-0.1662554 -0.2238497 -0.09608664 -0.10627162 -0.048461176 0.16865212 0.10430414 0.011416672
0.19318831 0.063633606 0.022915369 0.11894347 -0.039963212 -0.06586989 -0.031360235 0.10779129
-0.002559676 0.087632656 0.048812058 0.00036848822 0.06515249 0.13017063 0.010532365 -0.026526777
-0.0687044 0.04551348 0.049947634 -0.13720864 0.013667991 -0.07447453 -0.15529472 0.059800677
0.07517731 -0.04132392 -0.07732537 -0.058789913 -0.021089397 -0.11145237 -0.18678896 -0.105026774
-0.015592936 -0.10920559 -0.2340296 -0.010950755 0.03710545 -0.082119025 0.037963785 0.056730136
-0.0012771103 -0.09386429 0.14153872 0.09827771 -0.0046143127 0.0109795015 0.041386936 0.13834406
0.08666115 -0.020420711 -0.05671439 -0.04565431 -0.077651866 -0.019429645 -0.053944968 -0.017761238
0.06272101 -0.1088861 0.11436488 0.13947016 -0.14392246 0.016670575 -0.18980223 -0.056182534
0.07573274 0.02161752 -0.07477262 -0.05316243 0.044526592 0.008305816 0.10693893 0.03124879
0.0752306 -0.068712644 -0.13871792 -0.10281766 0.015013561 -0.13690709 0.15432608 0.06503817
-0.121450774 0.09852754 0.036038056 0.24090391 -0.031016441 0.05862863 -0.03571682 0.23802082
-0.2182587 0.013468666 0.10887191 0.012892912 0.16159014 -0.01493629 0.10085504 0.033509217
00000000: 7afa 7d3d 03aa e73d 6c4b d93c 881d 743d
00000010: dc37 763d 28aa 4e3d 1bad ce3d 2898 0d3e
00000020: d11a 523e 3402 3ebe 2c91 2ebd a700 fe3b
00000030: ff75 0dbe aa5a 8e3c 060d b9bd 9c48 d3bc
00000040: 114d 033e 1b5b b83d 1266 86bd 4e94 98bc
00000050: af63 6bbe 49cc 87bc a720 823b 87e1 8ebd
00000060: 9917 07be 4814 c53d a3b0 e63d e64b d33d
00000070: 6c93 923c 9690 e1bd 09af 9b3d 01d1 383d
00000080: 24bf 563d d064 0fbe d6d9 043e 8165 763d
00000090: 0d86 1fbd 616c 91bd 8d13 8bbc c72e 41bd
000000a0: 675d a7bc 21d5 af3d c532 d9bd 1be7 f1bc
000000b0: f9c5 53bd 9aee d5bc b0d7 863d 83c1 783d
000000c0: 4b16 5d3d 01a9 b3bc a7b7 bd3c a96d a8bd
000000d0: bb9e 7ebd c51c 50bd d610 17bd 689d 863d
000000e0: 1cce 30bd 10d8 2d3d 074b 0d3e 3211 94bd
000000f0: 6224 573d 0cec 263e 33b7 75bc e0d2 2e3e
00000100: 7b98 86bd 9588 233e d8b0 993d 958a a43d
00000110: f6a4 d83d 8b74 0dbe 9c64 74bd cc4d bb3b
00000120: 8dd4 57bd 3c5c b5bc fcaf 12bd 06a5 d93a
00000130: 167c 0d3e a269 a73d b1cd be3d 57ac 76bd
00000140: fdcd 1ebd 3681 803d 0416 193d 112e 1bbd
00000150: 5c82 813e e9de 213c 3a1a f1bc 2d30 7a3d
00000160: ba75 cb3d e309 c0bd 589f 803d 02a6 fabd
00000170: a142 963d 1a35 903d e2f3 f9bd e164 e93d
00000180: d712 1a3e cf4d 6dbc 08b5 d5bd da63 883d
00000190: 514c 9a3d 12cb 99bd c365 6ebc 057e 853c
000001a0: 543c 1a3e 93c7 fc3d 31e6 f9bc 9bc5 19bc
000001b0: c2bc 57bd 1b3d 0c3d 1fce e63d 1aaf 1cbd
000001c0: bdae 5e3d fc18 dc3c 85f8 75bd 1876 943d
000001d0: b358 de3b 6ac4 9d3d e114 963c e116 44be
000001e0: 1196 33bc a00e 803d 27a5 03be f0b8 d03b
000001f0: 43f1 633d 9924 9abd 78b9 bb3d 948d b1bd
00000200: 6c9c 46bd 5937 343d a57d b83d 277f f5bd
00000210: 7c45 05be 1721 14bd 0d55 233e 1b3c 833c
00000220: 67b7 323d abe3 9fbb 99e4 253d 8bbf 3d3e
00000230: 6993 493e bed8 463e 9cec 38bc c0b9 fe3d
00000240: 9b6d d03d f1df c03d fc0c 3abc e3ee c03c
00000250: 24c6 8d3d e07a 323b 266a 14be 3d74 cbbd
00000260: db3e 2abe db38 65be 13c9 c4bd efa4 d9bd
00000270: 3a7f 46bd 24b3 2c3e 699d d53d fe0c 3b3c
00000280: 28d3 453e 5652 823d 03b9 bb3c a298 f33d
00000290: 77b0 23bd cbe6 86bd 9773 00bd aec1 dc3d
000002a0: 3dc0 27bb c078 b33d 27ef 473d a731 c139
000002b0: ab6e 853d 734b 053e f18f 2c3c af4e d9bc
000002c0: e4b4 8cbd 586c 3a3d e495 4c3d 6c80 0cbe
000002d0: b6ef 5f3c 1a86 98bd 9405 1fbe 8ef1 743d
000002e0: 90f6 993d 4543 29bd c35c 9ebd b1cd 70bd
000002f0: acc3 acbc 2441 e4bd 9b45 3fbe 4718 d7bd
00000300: 8479 7fbc 2ea7 dfbd 75a5 6fbe cc6a 33bc
00000310: e2fb 173d 052e a8bd ea7f 1b3d dc5d 683d
00000320: b664 a7ba ec3b c0bd 87ef 103e d345 c93d
00000330: a933 97bb 5ee3 333c 5985 293d 11aa 0d3e
00000340: 677b b13d 5649 a7bc 594d 68bd 0400 3bbd
00000350: f107 9fbd eb2a 9fbc 66f5 5cbd 0480 91bc
00000360: df73 803d adff debd 2238 ea3d 44d1 0e3e
00000370: 6960 13be bb90 883c 845b 42be a81f 66bd
00000380: c419 9b3d 3a17 b13c 6322 99bd d9c0 59bd
00000390: 8461 363d 1e15 083c cc02 db3d 76fd ff3c
000003a0: 8012 9a3d 37b9 8cbd 120c 0ebe 1192 d2bd
000003b0: 70fb 753c 5f31 0cbe a807 1e3e bb32 853d
000003c0: 2fbb f8bd cfc8 c93d a49c 133d 84af 763e
000003d0: 3116 febc 9324 703d cd4b 12bd bbbb 733e
000003e0: 357f 5fbe aeab 5c3c 3cf8 de3d cb3c 533c
000003f0: e377 253e 57b7 74bc 168d ce3d f640 093d
