results/phase2_but_with_config_3/NPCAgent/NPCAgent-1499990.onnx (onnx, 109940 bytes, 9 tensors)

action_model._continuous_distribution.log_sigma f4 [1, 2]
0	0x3dc17743	0.094465755
1	0xbdaeaf7f	-0.08529567

action_model._continuous_distribution.mu.bias f4 [2]
0	0x3b1f9b30	0.0024353974
1	0x3b25fded	0.0025328354

action_model._continuous_distribution.mu.weight f4 [2, 128]
0	0x3d875233	0.06607475
1	0xbd3bf301	-0.045886043
2	0x3d152a04	0.036417022
3	0xbd03932e	-0.032122783
4	0xbdbbd686	-0.091717765
5	0x3dee9a76	0.11650555
6	0x3d082b94	0.033244684
7	0x3cd33046	0.025779855
8	0x3bc43f24	0.0059889723
9	0x3c458fbd	0.012058196
10	0x3d77685d	0.060402263
11	0x3d964d97	0.07339018
12	0xbbffb717	-0.0078038084
13	0x3d339163	0.043839823
14	0x3d947b44	0.072500736
15	0x3cbcb872	0.02303717
16	0x3d756de1	0.05991924
17	0xbdb65880	-0.08903599
18	0x3cc701e2	0.02429289
19	0xbe0cc3d5	-0.13746579
20	0x3c8786f3	0.016543841
21	0x3dd705d3	0.10499158
22	0xbd7d5e99	-0.061857793
23	0x3db8bece	0.09020768
24	0x3d47beea	0.048766054
25	0xbd6f094c	-0.058358476
26	0xbdba1586	-0.090861365
27	0xbb0cd504	-0.0021489272
28	0xbd61376f	-0.054984506
29	0x3dd8b992	0.1058227
30	0x3d32aca4	0.043621674
31	0x3b70efb4	0.0036763968
32	0x3d76b0b0	0.060227096
33	0x3d00dd1c	0.031460866
34	0xbc4cc088	-0.012497075
35	0x3d4f082b	0.0505449
36	0x3d20b2ac	0.039232895
37	0x3d6b64e5	0.057469267
38	0x3d87c7da	0.066299155
39	0x3d524f95	0.051345427
40	0xbc81c852	-0.01584259
41	0x3d6bc1cd	0.05755787
42	0x3d498992	0.049203463
43	0xba5f3b81	-0.00085156417
44	0xbcf41873	-0.029796815
45	0xbda1e7ab	-0.07905515
46	0x3ca05674	0.019572474
47	0x3b9683bf	0.004593342
48	0x3db1d3ef	0.08683001
49	0xbd88ba2d	-0.06676135
50	0x3d757e25	0.059934754
51	0xbd2e8164	-0.042603865
52	0x3d0050cc	0.031327054
53	0xbc9cc041	-0.019134643
54	0xbd5c2361	-0.053744677
55	0x3c819246	0.015816819
56	0x3d5c6ffc	0.053817734
57	0x3c99405c	0.018707447
58	0xbd72b080	-0.059250355
59	0x3ccb9054	0.024849094
60	0xbc510454	-0.01275738
61	0xbc3b9028	-0.011447944
62	0xbd82a0d6	-0.06378333
63	0xbcac4e13	-0.021033322
64	0xbd805a3f	-0.06267213
65	0xbd5f0dac	-0.054456398
66	0xbdaa18b7	-0.08305495
67	0x3d3e11dc	0.04640375
68	0x3b0f1db4	0.0021837773
69	0x3cfb33ee	0.03066441
70	0xbd7c67cb	-0.061622422
71	0xbd4297ad	-0.04750793
72	0xbd2c5d3f	-0.042081114
73	0xbdc06c5a	-0.093956664
74	0xbda4302d	-0.08017001
75	0xbc4c73ac	-0.01247875
76	0x3db2ae43	0.08724644
77	0x3d56736d	0.052356172
78	0x3c68da49	0.0142121995
79	0xbd05be8c	-0.032652423
80	0x3df94262	0.12170865
81	0x3cba26ac	0.022723518
82	0x3dbb7bf0	0.091544986
83	0xbb8a34d5	-0.004217724
84	0x3d45df5c	0.048308715
85	0xbd4193b2	-0.047259994
86	0x3d9cd02e	0.076568946
87	0xbda8eb1e	-0.0824797
88	0x3cf92da9	0.03041728
89	0x3d9f118c	0.07767019
90	0x3d8824b2	0.06647624
91	0x3ccf902a	0.025337297
92	0x3d45644f	0.048191365
93	0xbc574b7b	-0.013140555
94	0x3cd74094	0.02627591
95	0x3d6cac3c	0.057781443
96	0x3d26b46e	0.040699415
97	0x3beb3a06	0.007178548
98	0xbcbd9b23	-0.023145264
99	0xbcbb46f5	-0.022860983
100	0xbdd5ab11	-0.10433019
101	0x3cb35de1	0.02189535
102	0xbd8a7450	-0.06760466
103	0x3dd4173e	0.103559956
104	0xbdd12a3b	-0.10213133
105	0x3d0d34d8	0.034474224
106	0x3d1e3e56	0.038633667
107	0xbdda1820	-0.10649133
108	0xbc2f821c	-0.010712173
109	0x3dd3fb69	0.10350687
110	0x3d040ffc	0.032241806
111	0x3da85eea	0.082212284
112	0x3c54149f	0.01294437
113	0xbdbeb654	-0.0931212
114	0x3dafbbbe	0.08580731
115	0x3cedf21a	0.029046107
116	0xbda1a6f4	-0.07893172
117	0xbde53bf5	-0.111930765
118	0x3d841707	0.064497046
119	0xbc609e64	-0.013709638
120	0xbc746234	-0.014915992
121	0xbd9aa119	-0.07550258
122	0x3b444b3c	0.002995207
123	0x3da4323b	0.08017393
124	0x3ba3acf3	0.0049949824
125	0xbd895a82	-0.06706716
126	0x3da16f9a	0.078826144
127	0x3d20f808	0.03929904
128	0xbd039a7a	-0.032129742
129	0xbd097639	-0.03356001
130	0x3d8688d7	0.06569069
131	0xbdbef3d5	-0.09323851
132	0xbd4a732d	-0.049426246
133	0xbc87a37f	-0.016557453
134	0x3e010fca	0.1260368
135	0x3dcb465d	0.0992553
136	0x3d9eeb30	0.07759702
137	0xbcb8cb3b	-0.022557845
138	0x3d1371ff	0.035997387
139	0xbd3ed3f6	-0.04658886
140	0x3d978470	0.07398307
141	0x3db4e5ba	0.08832879
142	0x3b2bdb83	0.0026223368
143	0xbd6deca3	-0.058087002
144	0xbd806d16	-0.062708065
145	0xbc88472b	-0.016635498
146	0x3df501d3	0.119632386
147	0x3c95fd71	0.018309327
148	0xbcdcfa36	-0.026974779
149	0xbd61c0f8	-0.05511567
150	0xbc35e8fb	-0.01110291
151	0x3d9fac51	0.077965386
152	0xbd9522c9	-0.07282025
153	0xbdac2ba9	-0.08406765
154	0xbb82ef50	-0.0039958134
155	0xbc2cd8f4	-0.0105497725
156	0x3cf888a1	0.030338587
157	0x3bc03023	0.0058651133
158	0x3b1ded82	0.0024097865
159	0xbc4b40fd	-0.012405631
160	0x3bd58cbd	0.0065170215
161	0x3d176f2c	0.036971256
162	0xbd630e05	-0.055433292
163	0x3d9394e6	0.072061345
164	0x3c7261fe	0.014793871
165	0xbd2eb1f5	-0.04265018
166	0xbd2aab8c	-0.041667506
167	0x3df4ecb0	0.11959207
168	0xbcca5802	-0.024700169
169	0xbcf62b8a	-0.030050058
170	0x3c0b409c	0.008499291
171	0x3c68a04f	0.014198377
172	0xbd8ed6f0	-0.0697459
173	0xbd4ce6df	-0.050024863
174	0x3da9b5c2	0.08286621
175	0x3d8005e7	0.06251126
176	0x3db30ec1	0.087430485
177	0x3d143e1a	0.036192037
178	0x3c8ec410	0.017427474
179	0xbd1f24ba	-0.038853385
180	0x3cdc40dc	0.026886396
181	0x3dcf238f	0.10114204
182	0xbcf570f8	-0.029961094
183	0xbdd2ed26	-0.10299139
184	0xbb7ea81d	-0.0038857528
185	0x3d12bcad	0.035824466
186	0xbcb36f4d	-0.021903658
187	0x3c18349c	0.009289887
188	0x3c6cbacf	0.0144488355
189	0x3db902f0	0.090337634
190	0x3c35f8f0	0.011106715
191	0x3d532d6b	0.051556986
192	0xbd6ff200	-0.0585804
193	0xbc404936	-0.011736205
194	0xbbac9d22	-0.005267755
195	0xbdafef77	-0.08590596
196	0x3d82340d	0.06357584
197	0x3d434b4a	0.047679223
198	0xbd1cbd17	-0.038266268
199	0xbd3c23f7	-0.045932736
200	0xbd6bbcf4	-0.057553247
201	0xbce613b4	-0.028085567
202	0x3d5565f2	0.052099176
203	0x3d364d6b	0.044507425
204	0x3c8176b4	0.015803672
205	0xbd3d5c38	-0.046230525
206	0x3cfb6c99	0.030691432
207	0xbd89bf34	-0.06725922
208	0x3cffd626	0.031230044
209	0xbb972a10	-0.0046131685
210	0x3d9cb488	0.07651621
211	0x3da2fc3b	0.079582654
212	0x3db5da4a	0.08879526
213	0x3d2b39dc	0.041803226
214	0xbcdbbed5	-0.026824394
215	0x3d134079	0.035950158
216	0xbccdf770	-0.025142401
217	0xbd4efad7	-0.05053219
218	0x3d598928	0.053109318
219	0xbd25ccb7	-0.040478434
220	0x3d9e7ff4	0.07739249
221	0x3d8f792e	0.07005535
222	0x3ac933a8	0.0015350478
223	0xbcb41769	-0.02198382
224	0x3dab55e3	0.08365991
225	0x3dae2fc7	0.085052066
226	0xbd849447	-0.06473594
227	0x3dcc0386	0.099616095
228	0xbd0d08a1	-0.034432057
229	0x3cf5fd16	0.030027907
230	0xbcb8a903	-0.022541529
231	0xbd779a9f	-0.060450193
232	0xbadb9101	-0.0016751589
233	0x3dd9095e	0.1059749
234	0x3c892135	0.016739467
235	0x3c63d4d4	0.013905723
236	0xbbf91d6d	-0.007602385
237	0x3db3ad0f	0.08773243
238	0xbc423c71	-0.011855231
239	0xbb23463c	-0.002491369
240	0xbbc5fbcd	-0.00604198
241	0xbd7136b7	-0.05889007
242	0x3babe96e	0.005246333
243	0x3d5bfe02	0.053709038
244	0xbc8f461d	-0.017489487
245	0xbd3dfc52	-0.04638321
246	0xbbb02fb7	-0.005376782
247	0x3d820953	0.06349435
248	0xbd33d732	-0.043906398
249	0xbca63932	-0.020290945
250	0xbc97d5c8	-0.018534556
251	0x3d6e11d7	0.058122482
252	0xbdb1dcd6	-0.08684699
253	0xbd360c0e	-0.04444509
254	0x3d6855e2	0.05672253
255	0x3cdd77de	0.027034696

action_model._discrete_distribution.branches.0.bias f4 [2]
0	0xbcc45513	-0.023966348
1	0x3cc45512	0.023966346

action_model._discrete_distribution.branches.0.weight f4 [2, 128]
0	0x3ceb9c0e	0.028760936
1	0x3ba5240b	0.005039697
2	0xbbe9d513	-0.007135996
3	0x3c6cf8b3	0.014463591
4	0x3bf42887	0.0074511203
5	0xbca2af96	-0.019859117
6	0xbdaf1643	-0.08549168
7	0xbd3f1cac	-0.046658203
8	0xbd17c23e	-0.03705048
9	0xba5c2e3f	-0.0008399225
10	0xbd505eaf	-0.050871547
11	0x3c5e21f6	0.013557902
12	0xbd3d4a8f	-0.046213683
13	0xbd906423	-0.070503496
14	0xbcfbfe80	-0.030761003
15	0x3c8703d9	0.016481327
16	0xbb91d793	-0.0044507473
17	0x3c59fe15	0.013305207
18	0xbd900bfe	-0.07033537
19	0xbbfac6d7	-0.007653098
20	0x3cedf367	0.029046727
21	0xbc7d70c4	-0.01546878
22	0xbb68820b	-0.0035477902
23	0xbd6334b1	-0.055470172
24	0xbbcf594f	-0.006327785
25	0x3ba5f642	0.0050647566
26	0xbc34b42d	-0.011029285
27	0xb98af557	-0.00026504204
28	0xbc44317b	-0.011974688
29	0xbca14bad	-0.019689405
30	0x3bc458af	0.005992017
31	0x3b424323	0.0029642067
32	0xbd768f41	-0.06019521
33	0x3b9a6cda	0.004712683
34	0xbb9d24bc	-0.004795639
35	0xbc71ab06	-0.014750248
36	0x3c8a02d6	0.016847055
37	0xbc03198d	-0.008001697
38	0x3b8fa93f	0.0043841894
39	0xbdd3efb0	-0.10348451
40	0x3ca66bad	0.020315016
41	0xbbe507d5	-0.006989459
42	0x3baa02d0	0.0051883236
43	0x3ca17292	0.019707952
44	0x3c0ee76b	0.0087221665
45	0xbc0d4f35	-0.008624841
46	0xbd36a7eb	-0.044593733
47	0xbd206cea	-0.03916637
48	0xbd81c5ae	-0.063365325
49	0xbca8c358	-0.02060096
50	0xbd4a585a	-0.049400665
51	0x3caa3701	0.020778181
52	0xbc783f4d	-0.015151811
53	0xbdc0d070	-0.09414756
54	0x3c1cbb8f	0.009566202
55	0x3c9ef52f	0.019404022
56	0x3cd26978	0.025685057
57	0xb9aa37aa	-0.000324664
58	0x3d32ca0a	0.04364971
59	0x3cf8a29f	0.030350981
60	0x3cd6bfdf	0.026214538
61	0xbd81789a	-0.06321831
62	0x3bf9946f	0.0076165716
63	0x3d193e09	0.037412677
64	0x3b326076	0.002721814
65	0x3d6aba77	0.057306733
66	0x3c946b88	0.018117681
67	0x3b9addf1	0.0047261645
68	0xbc9711c8	-0.018441096
69	0xbcbd675f	-0.02312058
70	0xbba492cd	-0.005022383
71	0x3ba42fe5	0.0050105923
72	0x3b4024ea	0.0029318877
73	0xbb99a644	-0.00468901
74	0xbcce5c74	-0.02519057
75	0xbd07acc1	-0.033123735
76	0xbd26559d	-0.04060899
77	0x3b1ab4fb	0.0023606408
78	0xbd22955c	-0.03969322
79	0xbc4f159d	-0.01263943
80	0xbd8ec84a	-0.06971796
81	0x3c6ef7a7	0.014585412
82	0xbd589d58	-0.05288443
83	0xbd31456a	-0.04327909
84	0xbd9b5b70	-0.075858
85	0xbd610416	-0.054935537
86	0xbcfead28	-0.031088427
87	0xbcfe6d83	-0.031058079
88	0x3c99437a	0.018708933
89	0xbd0600ee	-0.03271573
90	0xbd1a0018	-0.037597746
91	0x3ccbc281	0.02487302
92	0xbd453b75	-0.048152406
93	0xbcc2a59e	-0.023760613
94	0x3c44d702	0.0120141525
95	0xbb83ebe6	-0.004025924
96	0xbd3b5afe	-0.045741074
97	0xbd8e4cd4	-0.069482476
98	0x3d534646	0.05158069
99	0xbd157b81	-0.036494736
100	0x3bb6caff	0.0055783982
101	0xbcb3ab86	-0.021932375
102	0xbc461388	-0.012089618
103	0xbbf393d1	-0.0074333926
104	0xbbca7818	-0.006178867
105	0xbd041bc7	-0.032253053
106	0xbb217230	-0.0024634711
107	0x3d4c35e0	0.049856067
108	0x3d1d40e9	0.03839198
109	0xbd6cf507	-0.057850864
110	0x3cc34e08	0.02384092
111	0xbc119e78	-0.00888788
112	0x3c58e4fe	0.01323819
113	0xbc739800	-0.014867783
114	0xbcb75c39	-0.022382842
115	0xbbe29a05	-0.006915333
116	0xbc8b0e35	-0.016974548
117	0x39dd59da	0.0004221935
118	0xbc7ae09d	-0.015312341
119	0xbd2046f3	-0.039130162
120	0x3b77debc	0.003782197
121	0x3d14ac83	0.036297332
122	0x3c95f5d3	0.018305695
123	0xbd403a74	-0.046930745
124	0x3a0c2c5d	0.0005347187
125	0x3c09b088	0.008403905
126	0xbd9e9fa5	-0.077452935
127	0x3be0a6b4	0.00685581
128	0xbc8efc6d	-0.01745435
129	0xbbd5465b	-0.006508631
130	0x3c82a4e0	0.01594776
131	0xbb6c0243	-0.003601209
132	0xbc5dc111	-0.0135348
133	0x3d163398	0.036670297
134	0x3d933f11	0.07189763
135	0x3d334b71	0.04377312
136	0x3d273b2f	0.040827926
137	0x3cff2ad9	0.031148361
138	0x3d15d6d0	0.036581814
139	0xbc7a9958	-0.015295349
140	0x3d222090	0.039581835
141	0x3d85bf4a	0.06530626
142	0x3cd68d62	0.026190463
143	0xbcdc2bb3	-0.026876306
144	0x3c06eaf0	0.008234724
145	0xbba5ffcf	-0.005065895
146	0x3d7aa7a5	0.061195035
147	0x3bbaf56d	0.0057055266
148	0xbd12a87a	-0.035805203
149	0x3c68ee69	0.014216998
150	0xbb9137e0	-0.0044317096
151	0x3d519aac	0.051172897
152	0x3c864574	0.01639054
153	0xbc716abc	-0.01473492
154	0x3b408a83	0.0029379434
155	0xbcf68ac1	-0.03009546
156	0x3cffe76e	0.031238284
157	0x3cb9e72c	0.02269324
158	0xbcc5bc03	-0.024137503
159	0xbb600c7e	-0.0034187133
160	0x3d57e09c	0.05270444
161	0x38e71340	0.00011018524
162	0x3b4fd632	0.0031713364
163	0x3d24ee05	0.040266056
164	0xbc1ec45a	-0.009690369
165	0x38cd2c48	9.78341e-05
166	0x3bcab72d	0.006186387
167	0x3dc145fc	0.094371766
168	0xbd393831	-0.045219604
169	0xbc20b0da	-0.00980779
170	0xbce7199e	-0.028210457
171	0xbc63ed65	-0.01391158
172	0x3ab30324	0.0013657552
173	0x3c641c20	0.013922721
174	0x3d4084d5	0.04700168
175	0x3cdb978b	0.02680566
176	0x3d8c1e22	0.06841685
177	0x3ce0e233	0.02745161
178	0x3d6d936e	0.058001928
179	0xbc047120	-0.008083612
180	0xb9601a96	-0.00021372209
181	0x3dcd4e02	0.100246444
182	0x3c249777	0.010045878
183	0xbc9e707d	-0.019340748
184	0xbc854a17	-0.01627068
185	0xbc1054c4	-0.008809272
186	0xbd00abaf	-0.03141373
187	0xbb59300f	-0.0033140217
188	0xbcaa58da	-0.02079432
189	0x3d4d8176	0.05017229
190	0x3c3f2625	0.011666809
191	0xbc593614	-0.013257522
192	0xbcb21691	-0.021739276
193	0xbd549fd8	-0.05191025
194	0xbd5947ac	-0.053046867
195	0xbc4cd117	-0.012501023
196	0x3c91b8d4	0.017788328
197	0x3ca63bd3	0.020292198
198	0x3c924b29	0.017858105
199	0xbc2b8700	-0.010469198
200	0xbbd3584b	-0.0064497343
201	0x3c42d1bc	0.011890825
202	0x3cf1d905	0.029522428
203	0x3c90fe5d	0.017699415
204	0x3d8b2a36	0.067951605
205	0xbcd69430	-0.026193708
206	0x3d391b11	0.04519183
207	0x3ae75543	0.0017649311
208	0x3d877d71	0.06615723
209	0xbc832303	-0.016007906
210	0x3d05c985	0.032662887
211	0x3cf8455c	0.03030651
212	0x3dd07d01	0.101800926
213	0x3d2a45ae	0.041570358
214	0x3cdc71de	0.026909765
215	0x3d6cd964	0.057824507
216	0xbcbeee95	-0.023307124
217	0x3ca32cdc	0.019918852
218	0x3cfe7c19	0.031065034
219	0xbcb9e28d	-0.022691036
220	0x3d36967c	0.044577107
221	0x3d0cbce3	0.034359824
222	0xbc458eba	-0.012057954
223	0xbb6a8949	-0.0035787395
224	0x3d544a0b	0.051828425
225	0x3d9a3962	0.07530476
226	0xbcdb19ee	-0.026745763
227	0x3cd5c796	0.026096147
228	0xbbed5e35	-0.0072438964
229	0x3c4085b4	0.011750627
230	0x3c7b7212	0.015347021
231	0xbc466be4	-0.012110684
232	0x3c38c15e	0.011276571
233	0x3d5e029c	0.054201707
234	0x3c136bf8	0.00899791
235	0xbcddd56d	-0.027079308
236	0xbd00c273	-0.03143544
237	0x3d39544f	0.04524642
238	0xbc3081ea	-0.010773161
239	0x3c2c7293	0.0105253635
240	0xbc12dae5	-0.008963321
241	0x3bc61884	0.006045403
242	0x3cb4abbe	0.02205455
243	0x3c34faf9	0.011046165
244	0x3bc87460	0.0061173886
245	0xbba2db65	-0.0049700015
246	0x3d0cb788	0.034354717
247	0x3d04df72	0.032439657
248	0xbbd7e9b3	-0.0065891384
249	0xbd04a8c7	-0.03238752
250	0xbcff6835	-0.03117762
251	0x3d4f0f13	0.050551485
252	0x3bad6a39	0.0052922037
253	0x3b2bef98	0.0026235338
254	0x3dac14d2	0.08402409
255	0xbbc7be45	-0.00609568

network_body._body_endoder.seq_layers.0.bias f4 [128]
0	0xbc18e709	-0.009332427
1	0x3cd16ee8	0.02556558
2	0x3accb754	0.0015618601
3	0x3c40704b	0.011745523
4	0x3cde7d2a	0.027159292
5	0x3c9e0d6b	0.019293508
6	0x3d0af287	0.0339227
7	0x3b1426ed	0.002260621
8	0xbc301eab	-0.010749499
9	0xbc96f76d	-0.018428529
10	0x3d0d0758	0.03443083
11	0x3cc90c7f	0.024542091
12	0x3cff20ed	0.03114363
13	0x3c5ba3f2	0.013405787
14	0x3d0f850f	0.035039004
15	0xbb5aa03e	-0.0033359672
16	0x3c54bde1	0.012984724
17	0x3c88e70c	0.016711734
18	0x3d95539a	0.07291336
19	0xbbf094a8	-0.00734194
20	0x3bfc8d86	0.0077073006
21	0x3c83f1bc	0.016106479
22	0x3d1d45ee	0.03839677
23	0xbcb255b7	-0.021769388
24	0x3cdb07bc	0.026737086
25	0xb8deed59	-0.00010629994
26	0x3bb8ca46	0.0056393472
27	0x3cb57402	0.022150043
28	0x3cdcb113	0.026939904
29	0x3d3f8173	0.04675431
30	0x3d188a27	0.037241127
31	0x3c08db77	0.008353106
32	0x3bbf16c0	0.0058315694
33	0x3ba4fd43	0.005035074
34	0x3d2e9fcb	0.04263286
35	0x3d09322e	0.03349512
36	0x3ca1be08	0.019743934
37	0xbc816da0	-0.015799344
38	0x3a8863b4	0.001040569
39	0xbc5673b1	-0.013089106
40	0x3d057d28	0.03259006
41	0x3d14e12d	0.036347557
42	0x3ce12804	0.027484901
43	0x3d1202f3	0.035647344
44	0x3bc078da	0.0058737816
45	0x3d2ff28a	0.042955913
46	0x3d4990c5	0.04921033
47	0xbc4c1eac	-0.012458485
48	0x3ccd93ba	0.025094856
49	0x3c331b99	0.010931873
50	0x3ae61da6	0.0017556443
51	0xbc7a449d	-0.015275148
52	0xbb3ec2eb	-0.002910788
53	0x3d0f3182	0.034959324
54	0x3c9f3b4f	0.01943746
55	0x3c59d151	0.013294534
56	0x3be2a7b3	0.006916964
57	0x3c8b05cf	0.016970543
58	0x3c3b477b	0.0114306165
59	0x3bff9d30	0.0078007206
60	0xbc13795f	-0.009001105
61	0x3ca67bbf	0.020322679
62	0xbba12191	-0.0049173315
63	0x3cfcf7be	0.030879851
64	0x3b78ff59	0.0037993996
65	0x3c792878	0.015207402
66	0x3c7669bd	0.015039858
67	0x3c6c7c1f	0.01443389
68	0x3bf1ae92	0.0073755467
69	0x3c75ee68	0.015010454
70	0x3d303547	0.04301956
71	0x3c83f486	0.016107809
72	0x3d0bdb91	0.03414494
73	0x3c90f6db	0.017695835
74	0x3a6b0192	0.00089647726
75	0x3cd1dc6c	0.0256178
76	0xbab58779	-0.0013849578
77	0x3cc569a5	0.024098227
78	0x3d1155a2	0.035482056
79	0x3c37a8fa	0.011209721
80	0x3c7fad4b	0.015605281
81	0x3cc48b5c	0.023992233
82	0xbb3ac4c4	-0.002849863
83	0x3d23d3ca	0.0399969
84	0x3cc8676d	0.02446338
85	0x3cb8a9bf	0.022541879
86	0x3cb84010	0.022491485
87	0x3cc1f679	0.023677098
88	0x3cfe91c3	0.031075364
89	0x3d158f0e	0.03651338
90	0x3cf297bb	0.029613366
91	0xbc212406	-0.009835249
92	0x3ccacd71	0.024756165
93	0xba204869	-0.00061143056
94	0x3bcf9380	0.006334722
95	0xbc23bbbe	-0.009993492
96	0xbbbeba8c	-0.005820578
97	0xbb8b5e5e	-0.004253193
98	0x3d410a08	0.047128707
99	0x3d1a29e7	0.037637617
100	0x3ca37ebd	0.019957894
101	0x3c7e6ee9	0.015529373
102	0x3c95b962	0.018276874
103	0x3c51c40a	0.012803087
104	0x3be35100	0.006937146
105	0x3c9670fd	0.018364424
106	0x3d073af1	0.033015195
107	0xbc1b7f87	-0.009490854
108	0x3d500df0	0.05079454
109	0x3c441f5f	0.01197037
110	0xb9d177b5	-0.00039952775
111	0xbacc9f71	-0.0015611482
112	0x3d10a354	0.03531201
113	0x3c5bc748	0.013414212
114	0x3ccb4186	0.024811517
115	0xbcf8d7d2	-0.030376349
116	0x3d057077	0.032577958
117	0x3d30228d	0.0430017
118	0x3cc61232	0.024178598
119	0x3cabc094	0.020965852
120	0x3d1f4e2c	0.03889291
121	0x3d35ef77	0.044417825
122	0x3c293d9a	0.010329628
123	0x3c99f992	0.018795762
124	0x3ccf6ef7	0.025321467
125	0x3d1d03b7	0.03833362
126	0x3d25aa1a	0.040445425
127	0x3baa3b3f	0.005195051

network_body._body_endoder.seq_layers.0.weight f4 [128, 75]
0	0xbd8be9d7	-0.06831711
1	0x3d24c617	0.040227976
2	0xbe1bb3c3	-0.15205292
3	0xbd2fec8a	-0.04295019
4	0xbe34d53b	-0.17659466
5	0x3d36389d	0.044487584
6	0x3dbd668d	0.09248076
7	0xbd31bed7	-0.04339489
8	0xbcf06590	-0.029345304
9	0xbe62a672	-0.22133806
10	0x3d1703d6	0.036868893
11	0xbe23775e	-0.15963504
12	0xbd2626da	-0.040564395
13	0x3d640cd0	0.05567628
14	0xbe521638	-0.20516288
15	0xbe27f6c6	-0.1640273
16	0xbdcf8a11	-0.10133756
17	0xbda9cd4b	-0.0829111
18	0xbe5929e4	-0.21207386
19	0xbd836942	-0.06416561
20	0x3c847381	0.016168358
21	0xbdd5d6ac	-0.10441336
22	0x3d439730	0.047751606
23	0xbd983119	-0.0743124
24	0xbe39da2f	-0.18149637
25	0xbdf8b2b2	-0.121434584
26	0x3e9ccfcf	0.30627295
27	0xbdc54e75	-0.09634105
28	0x3dda9736	0.106733724
29	0xbdce6538	-0.100779
30	0x3d55f21e	0.052232854
31	0xbd610524	-0.054936543
32	0x3e0a2f7b	0.13494675
33	0x3cdc1f89	0.026870506
34	0x3b451a67	0.0030075551
35	0x3d2297a1	0.039695386
36	0x3e1592c9	0.14606775
37	0x3b2eda2f	0.002668034
38	0xbdaccf67	-0.08437996
39	0x3ca0ef88	0.019645467
40	0x3d9950e6	0.07486133
41	0xbddbe17e	-0.107363686
42	0xbdde8507	-0.10865217
43	0xbe7139b4	-0.23557168
44	0xbb02f0ed	-0.0019980029
45	0x3cfc53b7	0.030801637
46	0x3d8e0ec3	0.06936409
47	0x3d2afcae	0.04174488
48	0x3dc3b531	0.09556044
49	0x3dd67fe0	0.10473609
50	0x3db93a0a	0.09044273
51	0xbe3f1e96	-0.18664011
52	0x3de4ac6d	0.111657
53	0x3d3f3b49	0.046687398
54	0x3e1d3cc8	0.15355217
55	0x3e2e7b8d	0.17039318
56	0xbd823f3a	-0.06359716
57	0xbd5bfc25	-0.05370726
58	0xbc8f90f2	-0.01752517
59	0xbe0c949a	-0.13728562
60	0x3e574b54	0.21024829
61	0xbd7055a4	-0.058675423
62	0xbd0debf2	-0.034648843
63	0xbe0e66af	-0.13906358
64	0xbdd09877	-0.1018533
65	0x3d0f2d12	0.03495509
66	0xbe154180	-0.14575768
67	0x3d9209a4	0.07130745
68	0xbdb25b17	-0.0870878
69	0xbe224036	-0.15844807
70	0xbb8eaa78	-0.0043538176
71	0xbd19e6e7	-0.03757372
72	0x3de42368	0.11139566
73	0x3c7bd530	0.015370652
74	0xbca36774	-0.019946791
75	0x3d9b5d4b	0.075861536
76	0xbd95e19a	-0.07318421
77	0x3de44377	0.111456804
78	0xbd7ad33c	-0.061236605
79	0x3ea416ce	0.3204865
80	0x3e043964	0.12912518
81	0x3e0bb99b	0.13645022
82	0x3dfa5ba0	0.12224507
83	0x3e560921	0.2090192
84	0xbdba191f	-0.09086823
85	0xbcb31b28	-0.021863535
86	0x3cf9e4d4	0.030504622
87	0x3d421b45	0.047389288
88	0xbc012b7b	-0.007883902
89	0xbe01287e	-0.12613103
90	0x3d7a8e2c	0.061170742
91	0x3d939f7a	0.07208152
92	0xbda7a42b	-0.081856094
93	0x3da162a3	0.078801416
94	0x3d738de9	0.059461508
95	0x3dace3e1	0.08441902
96	0xbd817410	-0.06320965
97	0x3d40c431	0.047062103
98	0xbdaf0b60	-0.085470915
99	0xbe120ef1	-0.14263512
100	0x3d5b5f3d	0.053557623
101	0x3d9394a7	0.072060876
102	0x3e8b911e	0.27259153
103	0xbd1dd24b	-0.03853063
104	0x3e9d7b23	0.30758008
105	0x3d4f84af	0.050663646
106	0xbe002a06	-0.1251603
107	0x3e39306b	0.18084876
108	0x3d711e76	0.05886694
109	0xbe43b0c6	-0.19110402
110	0x3dd3ad73	0.10335817
111	0xbe2ff402	-0.17182925
112	0x3cff0107	0.03112842
113	0xbd8fd544	-0.07023099
114	0x3d54b6fd	0.051932324
115	0xbdedb371	-0.11606491
116	0x3d6522d2	0.05594141
117	0xbe388304	-0.18018728
118	0x3a5f94a8	0.00085289264
119	0x3e23a848	0.15982163
120	0xb9aa6d90	-0.00032506557
121	0x3e39ae55	0.18132909
122	0x3d202609	0.039098773
123	0xbd40a6de	-0.047034137
124	0x3d0a0c6e	0.03370326
125	0xbde24dd2	-0.11049999
126	0xbd3316b0	-0.04372281
127	0x3e89b941	0.2689915
128	0x3d8d57ff	0.069015495
129	0x3c6e2b08	0.014536627
130	0xbd219c6c	-0.039455816
131	0x3c09b9eb	0.008406143
132	0x3e3209bf	0.1738653
133	0xbdd95571	-0.10612
134	0xbc6d88c8	-0.014497943
135	0x3e8f2acf	0.27962348
136	0xbdce910d	-0.1008626
137	0xbdbc8242	-0.09204532
138	0x3d57c92a	0.05268208
139	0x3e43d241	0.19123174
140	0xbc863d91	-0.016386779
141	0x3d4f427f	0.050600525
142	0xbe142ad2	-0.1446946
143	0x3c98920a	0.018624324
144	0xbddc980b	-0.107711874
145	0x3e0e6e41	0.13909246
146	0x3e400c29	0.18754639
147	0xbd063c63	-0.032772433
148	0xbe42ce66	-0.19024047
149	0xbe3849e0	-0.17996931
150	0x3d80d433	0.06290474
151	0xbc88f7ea	-0.016719777
152	0xbd8621d2	-0.065494195
153	0xbd4ac4e5	-0.04950418
154	0xbc830243	-0.01599229
155	0xbd789d2f	-0.060696777
156	0xbd0145fe	-0.03156089
157	0x3e589377	0.21150003
158	0x3dae989d	0.085252024
159	0x3daaae33	0.08334007
160	0xbdadb201	-0.08481217
161	0x3e5a2352	0.21302536
162	0xbda9960b	-0.082805716
163	0x3d2c96f8	0.042136163
164	0xbe2735fb	-0.16329186
165	0x3cbf1536	0.023325544
166	0x3d409134	0.047013476
167	0xbde23df5	-0.110469736
168	0x3dc014c5	0.093789615
169	0x3d5a3143	0.053269636
170	0x3e13df5a	0.1444067
171	0xbd2b5b73	-0.04183526
172	0xbdee6ea9	-0.116422005
173	0xbe1f5d1a	-0.15562859
174	0x3dfcf10f	0.12350666
175	0x3e430e61	0.19048454
176	0x3c33aa61	0.010965914
177	0x3ea7448f	0.32669494
178	0xbe4177e3	-0.1889339
179	0xbcc54873	-0.024082398
180	0x3d541cbb	0.051785212
181	0x3d98365c	0.07432243
182	0xbbd1323e	-0.006384163
183	0xbdc09fca	-0.09405477
184	0x3e1da8d1	0.1539643
185	0xbdf50237	-0.11963313
186	0x3d3a9a4e	0.045557313
187	0xbbb3d202	-0.0054876814
188	0xbde13568	-0.109965146
189	0x3bdc2864	0.006718682
190	0x3daa871d	0.08326552
191	0x3df67958	0.12034863
192	0xbd2d2cef	-0.04227918
193	0xbdec543c	-0.11539504
194	0x3e774455	0.2414716
195	0x3c9bf78c	0.019038938
196	0x3cd80644	0.026370175
197	0xbddffb1b	-0.109365664
198	0x3d6cce0a	0.05781368
199	0xbd685f12	-0.05673129
200	0xbd57562a	-0.052572407
201	0x3d75be1d	0.05999576
202	0x3e1affc1	0.15136625
203	0xbe4fd422	-0.20295766
204	0x3cd67a4b	0.02618136
205	0xbd619c4d	-0.0550807
206	0x3e12ad1e	0.14323851
207	0xbe27065e	-0.16311023
208	0x3b8a370e	0.004217989
209	0xbd5859cc	-0.052820012
210	0x3e1a3c79	0.15062131
211	0xbd4bef86	-0.049788974
212	0xbd64bbbf	-0.05584311
213	0x3dc0e7f9	0.09419245
214	0xbc4ee80a	-0.012628565
215	0x3e21f00b	0.15814225
216	0xbe63d4c6	-0.22249135
217	0xbd4341ff	-0.04767036
218	0x3e33d38b	0.17561166
219	0x3da59b63	0.08086278
220	0xbe1b24c6	-0.15150747
221	0xbd591244	-0.052995935
222	0xbc149112	-0.009067791
223	0xbdfe4b74	-0.12416735
224	0x3e015943	0.12631707
225	0x3e622c5f	0.22087239
226	0x3df47b73	0.119376086
227	0x3cd8efed	0.026481593
228	0x3ec51bf6	0.38497895
229	0xbd6a1137	-0.057145324
230	0xbd567f5e	-0.05236756
231	0x3a06e2ca	0.00051454885
232	0xbc9c4bd8	-0.019079134
233	0x3c6581c7	0.014007992
234	0xbc07107c	-0.008243676
235	0xbd205b2f	-0.03914946
236	0xbce4f11b	-0.027947
237	0xbd495def	-0.049161848
238	0xbe083c57	-0.13304268
239	0x3e0ab23b	0.13544552
240	0xbd2ed0ee	-0.04267972
241	0x3e9a5db4	0.30149615
242	0x3d9c15c8	0.07621342
243	0xbcf47955	-0.029843012
244	0xbe1a1e39	-0.15050592
245	0xbea09e58	-0.31370807
246	0x3e157dfb	0.14598839
247	0x3da48c8e	0.08034621
248	0x3b169036	0.002297414
249	0x3e6ef924	0.23337227
250	0xbdbe8928	-0.09303504
251	0x3d61c2d9	0.05511746
252	0x3dcba587	0.09943681
253	0xbe39790a	-0.18112579
254	0xbdbea549	-0.093088694
255	0xbe1d9e7f	-0.15392493

network_body._body_endoder.seq_layers.2.bias f4 [128]
0	0x3cc0df10	0.023543864
1	0x3b634552	0.003467877
2	0x3d2633a6	0.0405766
3	0x3ce141ef	0.02749726
4	0x3ce9caa5	0.028539011
5	0x3d05d79b	0.03267632
6	0x3d111871	0.0354237
7	0x3ccc2242	0.02491868
8	0x3c1bddf9	0.009513372
9	0x3b73f40f	0.0037224328
10	0x3c4d9a44	0.012548987
11	0x3d14a056	0.03628572
12	0x3c50b129	0.012737551
13	0x3cbde235	0.023179153
14	0x3c9c9b49	0.019117014
15	0x3c90eefb	0.01769208
16	0x3c85bd6e	0.016325679
17	0x3cc9039d	0.024537856
18	0x3cbbeac2	0.02293909
19	0x3cd72239	0.026261436
20	0xbc98f1c0	-0.018669963
21	0x3d181940	0.037133455
22	0x3c1f3d66	0.009719228
23	0x3c899ef7	0.016799433
24	0x3c89bb2d	0.016812885
25	0x3cbac45e	0.022798713
26	0x3bf671f0	0.0075209066
27	0xbd18eec4	-0.03733708
28	0x3bc90929	0.006135125
29	0x3c9f3330	0.019433588
30	0xbcab7bf7	-0.020933134
31	0xbc2a7cd5	-0.010405739
32	0x3cb5fb51	0.022214564
33	0x39992b7f	0.0002921484
34	0x3cb098fe	0.021557327
35	0x3c9f7ae3	0.019467777
36	0x3bd5e459	0.0065274653
37	0x3ca6ac1a	0.020345736
38	0x3cd6fd2f	0.026243774
39	0x3cd03d02	0.025419716
40	0x3ce5f2fc	0.028069966
41	0x3cbf7835	0.023372749
42	0xbcc65476	-0.024210196
43	0xbc4f2431	-0.012642906
44	0x3c112e6c	0.0088611655
45	0x3ce39299	0.027779864
46	0x3c356673	0.011071789
47	0x3c2c7eaf	0.010528251
48	0x3d29eb39	0.04148409
49	0x3bd6b649	0.006552492
50	0x395479f2	0.00020263324
51	0x3c36be8c	0.011153828
52	0x3b9a239d	0.0047039525
53	0x3c7da6bb	0.015481646
54	0x3c6fdbe5	0.014639829
55	0x3c99ac26	0.018758845
56	0xbc8fc33c	-0.01754915
57	0xbb64f293	-0.0034934625
58	0x3c64fdf8	0.0139765665
59	0xbc1c41c4	-0.009537164
60	0x3b1ce808	0.0023942012
61	0x3c730913	0.014833706
62	0x3b2a5dd1	0.002599586
63	0xbacf536d	-0.001581771
64	0x3cd50679	0.026004063
65	0x3b2d0c94	0.0026405202
66	0x3c585c01	0.013205529
67	0x3c92a1ae	0.01789936
68	0x3c54b846	0.012983387
69	0x3bae15ff	0.0053126807
70	0x3b30a4cc	0.0026953695
71	0x3ccf88fd	0.025333876
72	0x3d007f5b	0.031371456
73	0x3c6df21b	0.0145230545
74	0x3c9de7ef	0.019275634
75	0xbaeb1f9a	-0.0017938495
76	0x3c9cf5c3	0.019160157
77	0x3ce3832f	0.027772514
78	0xbb64694f	-0.0034852808
79	0x3c2a965b	0.010411824
80	0x3cd5b055	0.026085058
81	0xbbbbbf52	-0.0057295943
82	0x3ca7e2d0	0.020493895
83	0x3c6c9e7c	0.0144420825
84	0x3d01ef5c	0.03172241
85	0x3bc41275	0.0059836456
86	0x3cdf3adc	0.027249746
87	0x3c95750b	0.018244287
88	0xbd24c45f	-0.040226337
89	0x3c4c27a8	0.012460627
90	0x3c80077d	0.01562857
91	0x3bab492d	0.005227229
92	0x3cda919e	0.026680764
93	0x3bf14eda	0.007364136
94	0xbcb96675	-0.022631863
95	0x3cadb14b	0.021202704
96	0x3c33c22c	0.010971587
97	0x3c18e7eb	0.009332637
98	0x3c9cc978	0.019139037
99	0x3c7b5a30	0.015341327
100	0x3ccad762	0.024760906
101	0x3b1938b5	0.0023379747
102	0x3c5296f8	0.012853377
103	0x3cae540f	0.021280317
104	0x3c25f87f	0.010130047
105	0x3cf20f91	0.029548438
106	0x3bf3a8e6	0.0074359057
107	0x3d13d64f	0.036093052
108	0xbd280c33	-0.04102726
109	0x3cee0db2	0.029059265
110	0xbcddf57d	-0.027094597
111	0x3c8f0e8d	0.017462993
112	0xbcf21954	-0.029553093
113	0x3c5b5aec	0.013388377
114	0x3ccb99e6	0.024853658
115	0x3d09e094	0.03366144
116	0x3ccc94a8	0.024973229
117	0x3cd913e4	0.026498742
118	0x3c7e704a	0.0155297015
119	0x3c519072	0.012790786
120	0x3c5e1dd2	0.013556914
121	0x3c2dbfa7	0.0106047755
122	0xbd274b02	-0.040843017
123	0x3cecef61	0.028922739
124	0x3ca6a1d2	0.020340834
125	0x3c9a885d	0.018863851
126	0x3c75eb47	0.015009708
127	0xb97937ae	-0.00023767233

network_body._body_endoder.seq_layers.2.weight f4 [128, 128]
0	0xbe7e97e5	-0.2486263
1	0x3d0d8acb	0.03455619
2	0xbd4bb4d5	-0.049733
3	0xbc1ae5dc	-0.009454217
4	0x3dbed5b1	0.09318102
5	0xbd8dca50	-0.06923354
6	0x3ccd7139	0.025078403
7	0x3dc5fe1e	0.0966761
8	0xbdba21d3	-0.09088483
9	0xbe2bfef2	-0.16796473
10	0x3e41e067	0.18933259
11	0x3d5d295a	0.053994514
12	0x3c13e22c	0.009026092
13	0xbe09a46c	-0.13441628
14	0x3e0baf9d	0.1364121
15	0xbd1b2c25	-0.037883896
16	0x3d0df13d	0.03465389
17	0xbca4fbfa	-0.020139683
18	0xbc3c335e	-0.011486856
19	0xbd95fc8e	-0.073235616
20	0xbe000fb2	-0.12505987
21	0xbd9fb8c5	-0.07798914
22	0x3e189513	0.14900617
23	0xbc6ce092	-0.014457839
24	0xbc15cf81	-0.009143711
25	0x3ce4edab	0.02794536
26	0xbd9977f9	-0.07493586
27	0xbc234263	-0.009964558
28	0xbcfd25e1	-0.030901851
29	0x3d2e4b9b	0.04255257
30	0x3ca6a724	0.02034337
31	0xbd2d158c	-0.042256877
32	0x3b15803e	0.0022812034
33	0x3c9395df	0.0180158
34	0xbc713c56	-0.014723858
35	0x3ca188ab	0.019718489
36	0xbdbe7aa6	-0.09300737
37	0x3d412d08	0.047162086
38	0xbd6b71c8	-0.057481557
39	0x3d6cae1e	0.05778324
40	0xbe00dc96	-0.12584147
41	0x3ca32268	0.019913867
42	0x3e224ace	0.15848848
43	0x3de855bb	0.11344477
44	0xbe2fc7ea	-0.17166105
45	0xbd828b63	-0.06374242
46	0xbd8364c3	-0.06415703
47	0xbdb3e507	-0.08783918
48	0xbd885e86	-0.06658654
49	0x3e12d179	0.1433772
50	0x3de35eba	0.11102052
51	0x3dfd1067	0.12356644
52	0xbe224abe	-0.15848824
53	0xbddf29dc	-0.10896656
54	0xbdd4a696	-0.10383336
55	0xbd21b60c	-0.039480254
56	0xbd74c8ac	-0.059761688
57	0x3d865e61	0.0656097
58	0xbd149f45	-0.036284704
59	0xbe5bf321	-0.21479465
60	0x3e20e9e3	0.1571422
61	0xbdbb289d	-0.09138606
62	0x3d8c3fa5	0.06848077
63	0xbd2636db	-0.040579658
64	0xbd6ea8d9	-0.058266494
65	0xbcfeb95c	-0.031094246
66	0xbdc80ad0	-0.09767687
67	0x3d86acd8	0.06575936
68	0xbe00451e	-0.12526366
69	0x3d68f49f	0.056873914
70	0xbd94553d	-0.072428204
71	0xbd8b903f	-0.06814622
72	0x3d8a5f65	0.06756476
73	0xbc19a28d	-0.009377134
74	0x3de1c4ca	0.11023863
75	0x3d921f33	0.07134857
76	0xbdde6f8c	-0.1086112
77	0xbe34f1a0	-0.17670298
78	0xbd5dfee1	-0.05419815
79	0xbdfdb9e2	-0.1238897
80	0xbda0aa74	-0.07845011
81	0xba52f995	-0.0008048055
82	0xbde2eb34	-0.11080018
83	0x3e79e7d5	0.24404843
84	0xbe6964d9	-0.22792377
85	0x3c0fae40	0.008769572
86	0x3c303b0d	0.010756266
87	0x3d86d6ea	0.0658396
88	0x3cef338d	0.029199386
89	0x3dd2b61b	0.1028864
90	0xbd5a0c53	-0.05323441
91	0xbdc961ce	-0.09833108
92	0x3e5db035	0.21649249
93	0xbca99798	-0.020702168
94	0xbe0d7f5a	-0.13818112
95	0x3ccccca4	0.024999924
96	0x3d744575	0.059636552
97	0xbdbaf63f	-0.09128999
98	0x3e24eb0d	0.1610529
99	0x3e3f16e4	0.18661076
100	0xbcecb340	-0.028894067
101	0x3c8a83b0	0.016908497
102	0xbdd25e6c	-0.10271916
103	0xbb890bd3	-0.0041823178
104	0xbe38c976	-0.18045601
105	0xbc5c4ab7	-0.013445548
106	0xbe0b2871	-0.13589646
107	0xbc2e74e8	-0.01064799
108	0x3e02045f	0.1269698
109	0x3e02a02a	0.1275641
110	0x3de4a72a	0.111646965
111	0x3d27fe77	0.04101416
112	0x3e0eaafc	0.13932413
113	0x3ce008b1	0.027347894
114	0xbd5a0e03	-0.05323602
115	0xbe41f815	-0.18942292
116	0x3cf60b93	0.030034816
117	0xbbb7d53e	-0.0056101372
118	0x3e0dac03	0.13835149
119	0x3da8cd99	0.0824234
120	0xbdddea91	-0.108357556
121	0xbc9ec9f9	-0.019383417
122	0xbe10156a	-0.14070669
123	0x3dad9dec	0.08477387
124	0x3d53fca7	0.05175462
125	0xbe1b3deb	-0.15160339
126	0x3d14e4b0	0.036350906
127	0x3b8e25f2	0.0043380195
128	0xbdd58e3f	-0.10427522
129	0xbd06d876	-0.032921277
130	0xbe4a1929	-0.1973616
131	0xbcd944ea	-0.026522119
132	0xbd232fab	-0.03984038
133	0x3de08d9e	0.10964511
134	0xbd1670ce	-0.036728673
135	0x3c543b00	0.01295352
136	0x3d0deb0f	0.034647997
137	0x3cc166a0	0.023608506
138	0xbd3514a3	-0.044209134
139	0x3d160a10	0.03663069
140	0x3e4fe14b	0.20300786
141	0xbd7f381f	-0.06230938
142	0x3df4f69a	0.11961098
143	0xbcd49730	-0.025950998
144	0x3d67c6a1	0.05658591
145	0x3d9cf23d	0.07663391
146	0xbded87ba	-0.115981534
147	0x3cb60deb	0.022223433
148	0xbdd88bb6	-0.10573523
149	0x3da1c97b	0.078997575
150	0xbd62895a	-0.05530677
151	0xbd2f3ef7	-0.042784657
152	0xbbce94fe	-0.0063043823
153	0xbdc5360d	-0.0962945
154	0xbd7f6695	-0.06235369
155	0x3db63fbf	0.08898877
156	0xbd960cec	-0.073266834
157	0xbdfb4eaa	-0.12270863
158	0xbca49a79	-0.02009319
159	0xbd67ab19	-0.056559656
160	0x3dcf34c1	0.10117484
161	0x3d51badb	0.05120359
162	0x3d9fb8d2	0.077989236
163	0x3b7c4d07	0.003849806
164	0x3ab1d9cd	0.0013568938
165	0xbddfaa34	-0.109211355
166	0x3ccbdaa2	0.024884526
167	0x3de14929	0.11000282
168	0x3d35a434	0.04434605
169	0x3caee3ff	0.021348951
170	0x3df482b4	0.11938992
171	0xbd20a6a7	-0.039221432
172	0xbe1a8466	-0.15089568
173	0xbe66907d	-0.22516055
174	0x3d077da8	0.03307882
175	0xbd6ea8bc	-0.058266386
176	0xbca016ff	-0.019542215
177	0xbdf37283	-0.11887076
178	0x3d1b3fbe	0.037902586
179	0x3df04011	0.1173097
180	0x3e132b84	0.14372069
181	0x3cfd89e7	0.030949546
182	0x3db8fcf3	0.09032621
183	0x3c5996d8	0.013280593
184	0x3dc9cecb	0.09853896
185	0x3d98f6e9	0.074689694
186	0xbbdd7dec	-0.006759396
187	0x3e4ced4d	0.20012398
188	0xbce708c8	-0.02820243
189	0x3d8e28c6	0.06941371
190	0xbdf7f07c	-0.12106416
191	0x3e1b1b87	0.1514722
192	0xbd52da7c	-0.051477894
193	0x3d845725	0.06461934
194	0x3d881266	0.06644134
195	0x3d07e6a9	0.03317896
196	0x3d98536e	0.07437788
197	0x3db2c5e8	0.08729154
198	0x3d255edb	0.040373664
199	0xbce08bb3	-0.027410364
200	0x3dc7fa22	0.09764506
201	0x3c881459	0.016611265
202	0x3dbd7a72	0.0925187
203	0xbe96a323	-0.29421338
204	0x3c9f666f	0.019458024
205	0xbcd5c49d	-0.02609473
206	0xbdb0da56	-0.08635394
207	0xbd9382b7	-0.07202666
208	0x3d72aa47	0.05924442
209	0x3dc0bdf1	0.094112284
210	0xbc3e7999	-0.011625671
211	0x3e03217c	0.12805742
212	0x3ca00624	0.019534178
213	0xbd5f63f1	-0.05453867
214	0xbcc73bcc	-0.024320506
215	0x3d9484d3	0.07251897
216	0x3d3dd352	0.04634411
217	0xbb2f947f	-0.0026791391
218	0x3c1ce5fd	0.009576318
219	0xbdafb80d	-0.08580027
220	0x3d914b85	0.07094482
221	0xbc91725b	-0.017754724
222	0xbdb4a188	-0.08819872
223	0x3df98c15	0.12184922
224	0x3c925676	0.017863493
225	0xbcb24def	-0.021765677
226	0xbca5a6e1	-0.020221176
227	0x3d23cf8f	0.039992865
228	0xbc898871	-0.016788693
229	0xbca11e61	-0.019667806
230	0xbe0a4ea7	-0.13506566
231	0x3da0ec7e	0.07857607
232	0xbcd237b3	-0.025661325
233	0x3b6984ab	0.0035632055
234	0x3d9d3475	0.07676021
235	0x3d3575da	0.044301845
236	0xbce338b2	-0.027736995
237	0xbdb363ec	-0.08759293
238	0xbda82fde	-0.08212255
239	0x3d36a0af	0.044586834
240	0x3d088739	0.033332083
241	0x3cadc873	0.021213746
242	0x3d1bf56b	0.038075846
243	0x3d118cb6	0.035534583
244	0xbc1050a2	-0.008808287
245	0x3d2cbe0e	0.042173438
246	0xbc4c2f5c	-0.012462463
247	0x3e119134	0.14215547
248	0x3d8df503	0.06931498
249	0xbd5f1d45	-0.054471273
250	0x3cf56af7	0.029958231
251	0xbe5c7bbf	-0.2153158
252	0x3d4852e2	0.04890717
253	0x3dc070d8	0.09396523
254	0x3d9bf69d	0.07615397
255	0xbd784206	-0.06060984
