results/phase4_t2_final/PlayerAgent.onnx (onnx, 99143 bytes, 7 tensors)

action_model._continuous_distribution.mu.weight f4 [1, 128]
000000 b6 86 bb 3c b5 4c c2 bc 5b a6 12 bd 7e 2e 7b 3c
       0.022891384 -0.023718217 -0.03580318 0.015330909
000010 b7 e9 87 bc 1e 7c 8e 3c 2d d0 04 3c 25 a7 cd bc
       -0.016590936 0.017393168 0.008106274 -0.025104115
000020 ae 60 17 bb de ae d3 3b e0 97 2e 3a a8 af 60 bb
       -0.0023098397 0.006460055 0.00066602044 -0.0034284387
000030 8c b7 55 bc e7 75 69 bb ed 61 cb bc e4 2a cf ba
       -0.013044249 -0.0035623254 -0.024826968 -0.0015805629
000040 01 e6 33 bc 94 65 76 bc 33 51 ed 3a 63 e3 31 3d
       -0.01098013 -0.015038867 0.0018105864 0.043429743
000050 fb d0 05 3d 6f c2 2f bc 4a d0 20 3c f5 a1 49 3b
       0.032670002 -0.010727509 0.009815285 0.00307667
000060 8d 17 d6 3c 64 c4 b8 3c 8c 6b d7 3a 45 73 41 3c
       0.026134277 0.022554584 0.001643525 0.011807268
000070 a7 18 08 3c b4 50 af 3b 2c ab de bc 7c 1c f2 3b
       0.008306659 0.0053501967 -0.02718123 0.0073886495
000080 6f 6e 37 3c a6 a2 9c 3b b9 eb 34 bc 1b 08 a9 bb
       0.011195763 0.0047801314 -0.011042529 -0.005158437
000090 49 16 aa bc 71 99 df bb 90 56 0f bc a5 21 94 3c
       -0.02076258 -0.0068237116 -0.008748665 0.01808245
0000a0 43 89 68 3b f8 60 c5 bc 7a f0 1c 3d 88 c9 ca 3c
       0.0035482205 -0.02409409 0.038315274 0.0247543
0000b0 8b 1e 18 bd 72 e2 bb 3c 2b fd 4b bb 82 9b 9c 3c
       -0.037138503 0.022935126 -0.0031126242 0.01911712
0000c0 39 df 35 bc 83 5e 42 3c 2d 36 17 bd 80 4c d9 3c
       -0.011100584 0.011863354 -0.0369169 0.026525736
0000d0 5c 6a d9 3a d2 44 28 3c 92 25 85 3b 0a fd 0f bd
       0.0016587484 0.010270314 0.0040633166 -0.035153426
0000e0 bc fb 28 3b 9b 40 84 3c 86 06 62 3c 8f 6f 6b 3b
       0.002578481 0.016144088 0.013795501 0.0035924648
0000f0 48 b5 d8 3c be c1 8d bc 0b 7d 67 3c 42 81 9a 3c
       0.02645363 -0.017304298 0.014128934 0.018860463
000100 62 9e 93 bc d8 ce a2 ba cc d6 f1 3c 6f 35 a9 3c
       -0.018019859 -0.0012421263 0.029521368 0.020655362
000110 ae 26 ac 3b 89 09 4c bd 62 ab e2 ba e4 eb 57 3a
       0.0052536344 -0.04981378 -0.0017293508 0.00082367496
000120 5a 3e 1e 3c 76 7c bd 3c af bc 06 3c c6 a6 c8 b8
       0.00965842 0.023130637 0.008223697 -9.567807e-05
000130 b8 7f a6 bc 55 72 94 3b b5 93 32 3c 4c fd d9 bc
       -0.020324573 0.004530231 0.010899474 -0.02661004
000140 15 51 1f bc 8d 67 01 3b 70 d6 bb 3c 01 03 17 3c
       -0.009723921 0.001974556 0.0229294 0.009217025
000150 cc 60 90 bc 7d 48 78 bc 4a 1d af bc 12 aa a2 39
       -0.017624281 -0.015154001 -0.02137627 0.0003102576
000160 d3 99 0b bd 00 d7 93 3b 95 7e b2 b9 d7 e1 8b 3b
       -0.034082245 0.004511714 -0.00034045117 0.0042688656
000170 4c 54 01 bd a7 6a fa 3b 06 79 8b ba b1 0d f3 3b
       -0.031574532 0.0076421085 -0.0010640926 0.0074174036
000180 09 d1 02 bd 37 22 08 bc d9 01 18 3b 16 24 29 3d
       -0.031937633 -0.008308939 0.002319446 0.04129418
000190 4b 9d 0c 3b 09 95 2f bb 94 5a a1 bc c3 cb 90 bc
       0.0021456059 -0.0026791713 -0.019696511 -0.017675286
0001a0 c4 2f c7 3c bf bb 50 3c f9 f3 48 3b 96 cd 06 3d
       0.024314769 0.012740075 0.0030662997 0.032910906
0001b0 10 58 34 bc 10 c5 b4 3b 3a ae f9 3c aa 1c f4 b9
       -0.011007324 0.0055166557 0.030478586 -0.00046560663
0001c0 c1 f4 26 bb 22 a7 4c bc 3a ba 0a bc 30 8b 4e bd
       -0.0025475475 -0.012491019 -0.008467251 -0.05042571
0001d0 8b 0f 03 bd 34 b5 db 3c e9 fd 0d bd e4 2e d6 bc
       -0.031997245 0.026819803 -0.034665976 -0.026145406
0001e0 15 fb ed 3b 4c aa e7 3b 8e e7 96 3a a8 b6 5c bb
       0.0072625973 0.0070698615 0.00115131 -0.0033678208
0001f0 5f 71 a6 3c 98 19 7f 3b 53 9c 04 3d 19 ba 5e bc
       0.020317731 0.0038925167 0.032375645 -0.013594174

action_model._discrete_distribution.branches.0.bias f4 [2]
000000 c9 0a 66 bc 19 0b 66 3c
       -0.014040657 0.014040732

action_model._discrete_distribution.branches.0.weight f4 [2, 128]
000000 bc e4 df 3c 9b 36 18 bd d5 3f da bd ac 1d 3c 3d
       0.027330749 -0.03716145 -0.10656706 0.045926735
000010 f2 d8 db bd 55 51 d2 3d 40 25 f3 bd 5e 3b 87 3d
       -0.107347384 0.10269419 -0.11872339 0.0660312
000020 66 02 a7 3c 44 d4 e4 bd 95 1e ec bc 8c 95 b3 3d
       0.020386886 -0.11173299 -0.028823176 0.08768758
000030 2b 7f 1a bd 9f 8c 46 3d 9b ef a9 bd ed f6 0e be
       -0.037718933 0.04847395 -0.08297654 -0.13961382
000040 32 d6 43 3d e5 98 fc bd 8d 49 00 3e 33 a3 92 3d
       0.047811694 -0.1233385 0.12528057 0.07160034
000050 54 95 51 3d d8 f6 8f 3c 84 46 ba 3d 32 51 7d 3d
       0.0511678 0.017573759 0.09095481 0.061845012
000060 0e 07 62 3d 05 f6 83 3d 16 d0 a4 3d 5a 0c 46 3d
       0.05518251 0.06443409 0.08047502 0.048351623
000070 5f f0 72 3d e2 94 73 bd 8b 2b 95 bd ab c8 1a 3d
       0.059311267 -0.059468158 -0.07283696 0.03778903
000080 07 1f af bd cf 78 0d be 34 da ed 3d 1c db 3f 3d
       -0.0855084 -0.13815616 0.116138846 0.04683982
000090 68 f1 e9 bc 7a 04 e3 bd eb f3 52 3d 02 04 c8 3d
       -0.028557494 -0.11084838 0.05150215 0.097663894
0000a0 26 20 16 3d ea 6e 48 3d 35 90 a8 bc 1d 8f 10 bd
       0.036651753 0.0489339 -0.020576576 -0.035292733
0000b0 ec 34 03 be 3a b7 34 bd d1 ad 5e 3d 2a 73 69 3d
       -0.12813157 -0.04412005 0.054364983 0.056994595
0000c0 cb 74 f4 bd 62 88 c0 bd ef 95 7b bd 74 30 89 3d
       -0.11936339 -0.09401013 -0.061422285 0.06698695
0000d0 5d 9f 4b 3d e7 bb 12 3c 13 9f b4 3d a9 56 df 3b
       0.049712528 0.008955932 0.088194035 0.0068157506
0000e0 68 02 82 3b d4 19 2a 3d 2f 8f 96 3d 3a 81 96 3d
       0.003967572 0.041528538 0.07351529 0.07348867
0000f0 a2 74 a2 3d 40 b6 98 3d c1 0f b1 bd 50 69 cb 3d
       0.07932402 0.074566364 -0.08645583 0.09932196
000100 bd 43 26 3c e8 87 2c 3d 1e 3a 88 3d 8e 08 c1 bd
       0.010147986 0.042121798 0.0665171 -0.0942546
000110 ed 71 48 3c 10 51 b1 bd e2 54 a3 3d 50 21 86 3d
       0.012234193 -0.086580396 0.079751745 0.065493226
000120 39 fa a1 3d 7c 5c 8d 3d 63 a4 a8 3d 0c e9 73 bc
       0.07909054 0.069024056 0.08234479 -0.014887106
000130 73 68 fc bd cf 11 6a 3d 09 23 a9 3d 93 a6 c9 bd
       -0.123246096 0.05714589 0.082586356 -0.09846225
000140 b9 19 c9 3d 08 3b e7 3d 43 34 c1 3c 88 e8 64 3d
       0.09819359 0.11290556 0.02358449 0.05588582
000150 d7 fd 17 be 68 23 89 3d cd 87 f3 bd 2a 9b 01 be
       -0.14842926 0.06696206 -0.11891136 -0.12656847
000160 fa 40 83 bd 21 c9 66 3d e9 8b cd bd 7b 84 4e bd
       -0.06408878 0.056344155 -0.10036451 -0.050419312
000170 a0 5e 1c 3c a3 1c 2d 3c 35 a8 42 3d 32 ba a2 3d
       0.009544045 0.01056591 0.047523696 0.0794567
000180 a9 01 bb bd c2 9a 1e 3c be 01 21 be 5a 37 05 3d
       -0.09131176 0.009680452 -0.15723321 0.03252349
000190 c7 a2 11 3d 25 87 80 3d 0c 50 10 be 29 69 60 3d
       0.035555627 0.06275777 -0.14093035 0.05478779
0001a0 da eb 73 3c 2d f2 a6 3d 2f e9 17 be ad ad d4 3b
       0.014887774 0.0815166 -0.14835046 0.0064904303
0001b0 30 00 10 be 8f 62 05 3c 4e 34 2d 3d 12 c9 10 be
       -0.14062572 0.008141174 0.04228621 -0.14139202
0001c0 19 b4 97 3c d0 11 10 be 4b 50 fc bd 90 3d 0b 3d
       0.018518494 -0.14069295 -0.12320002 0.033994257
0001d0 5b 6e 22 be 05 71 19 bd 65 de e7 bd b4 24 cc bd
       -0.1586241 -0.0374613 -0.11321715 -0.09967938
0001e0 76 2d 69 bd 62 52 9d bd 03 62 dc 3c 5c 14 b2 3d
       -0.05692812 -0.07681729 0.026902204 0.086952895
0001f0 3b d8 24 bb 74 77 fc bd f3 23 04 bb 3a c6 b8 bd
       -0.0025153297 -0.123274714 -0.002016303 -0.09022184
000200 26 42 2f bd 2e 1b 94 3d e3 51 f1 3d 64 b3 4c bd
       -0.042787693 0.072317466 0.11783197 -0.049975768
000210 f7 be e8 3d c2 e9 df bd 69 dd 01 3e 35 95 ad bd
       0.11364549 -0.10933258 0.12682118 -0.084757246
000220 2b 8c e1 bc 0e e7 0e 3e d7 be 9e 3c c7 70 cb bd
       -0.027532658 0.13955328 0.019378109 -0.0993362
000230 83 7f 28 3d d5 f9 5a bd ed 6a b1 3d ea 27 06 3e
       0.04113723 -0.053460915 0.086629726 0.13101164
000240 fd 19 1a bd 5b 9e 09 3e bc 48 ec bd c8 a4 a0 bd
       -0.03762244 0.13439314 -0.115373105 -0.078439295
000250 b4 02 4b bd 34 f1 37 bd cb b2 a5 bd df 7c 75 bd
       -0.049563125 -0.044907764 -0.08090743 -0.05993354
000260 2f 4e af bd 8f 9f 93 bd 30 d9 85 bd ba 20 73 bd
       -0.08559834 -0.07208168 -0.06535566 -0.059357382
000270 7d 70 7e bd 34 fd 96 3d 89 83 a4 3d f8 8b 47 bd
       -0.062118996 0.073725134 0.08032901 -0.04871747
000280 74 a7 af 3d 24 4c 20 3e f2 86 ed bd 2e be c8 bc
       0.08576861 0.15654045 -0.115980044 -0.024504747
000290 a0 7d 30 3c 23 0c e9 3d a3 49 a5 bd 12 92 d4 bd
       0.010772139 0.11379268 -0.08070686 -0.10379423
0002a0 c0 db 6a bd 91 e1 19 bd 33 c9 8d 3c cd e5 ea 3c
       -0.057338476 -0.037568633 0.017307853 0.02867403
0002b0 b1 eb 17 3e b3 47 43 3d 8c 20 4b bd ef ba 92 bd
       0.14836003 0.0476758 -0.049591586 -0.07164561
0002c0 7e 96 06 3e 81 97 e6 3d 54 60 92 3d 1f bd 4d bd
       0.13143346 0.11259366 0.071472794 -0.050229188
0002d0 f1 6b 2d bd 48 c8 13 bd fd 20 b9 bd 19 ce 2c bc
       -0.04233927 -0.036079675 -0.09039495 -0.010547184
0002e0 45 15 1c 3b 79 67 08 bd 28 c1 ab bd b0 63 9b bd
       0.0023816389 -0.033301804 -0.08386451 -0.07587373
0002f0 43 b5 b5 bd f3 a4 87 bd 7c 2d a1 3d 00 3b b3 bd
       -0.088724636 -0.066232584 0.078700036 -0.08751488
000300 b5 f7 3d bc ee 82 2a bd c3 14 3d bd 9b 02 b6 3d
       -0.0115947025 -0.04162877 -0.046162378 0.08887216
000310 fc 3b 37 bd 06 78 a0 3d 13 97 a0 bd f4 45 92 bd
       -0.04473494 0.07835393 -0.07841315 -0.07142249
000320 f3 3c 97 bd fd a5 7f bd 17 43 c0 bd 16 c3 ec 3c
       -0.07384672 -0.062414158 -0.09387796 0.028901618
000330 33 f1 ee 3d 3e 6f 3c bd 71 ca c2 bd 54 8a ee 3d
       0.11667099 -0.046004526 -0.09511269 0.11647478
000340 7a 4d cc bd b7 28 d8 bd 89 31 ba bc 2b 1c 1f bd
       -0.09975715 -0.10554641 -0.022728698 -0.038845222
000350 a8 31 1d 3e 8f 5d 67 bd ea fa e5 3d 92 69 e8 3d
       0.15350974 -0.05648571 0.11229499 0.11348261
000360 58 54 91 3d c5 c1 52 bd 98 4a d6 3d 0f 80 35 3d
       0.070961654 -0.051454324 0.104634464 0.04431158
000370 72 f3 ad bb a5 fa de 3a eb b2 81 bd 9c 5f 9a bd
       -0.005308562 0.0017011954 -0.06332954 -0.07537767
000380 68 b1 8a 3d 46 b7 2a bc 8a f2 10 3e 02 6a 1e bd
       0.06772119 -0.010419672 0.14155021 -0.038675316
000390 de a6 c5 bc 78 15 3b bd 99 4a 28 3e fa 23 49 bd
       -0.02412742 -0.04567477 0.16434707 -0.049106576
0003a0 4a 72 ec bc c4 dd 90 bd 6e ae 12 3e d1 8d 93 bb
       -0.028863091 -0.070735484 0.14324352 -0.00450299
0003b0 6a f5 12 3e 4e 16 f7 3b fd 73 2b bd 42 a2 1e 3e
       0.1435143 0.0075405007 -0.041858662 0.15491584
0003c0 c3 2b 2c bc 3c c3 1b 3e b1 c2 00 3e 80 50 e4 bc
       -0.0105084805 0.15211195 0.12574269 -0.027870417
0003d0 fa 41 23 3e 77 20 d8 3a 35 4c bd 3d a6 0f 8b 3d
       0.15943137 0.0016489167 0.09243051 0.06790094
0003e0 cf b9 25 3d ee 50 96 3d d7 82 36 bd 24 3e df bd
       0.040460404 0.07339655 -0.044558372 -0.10900524
0003f0 6f bd 42 bb 49 5a ed 3d 21 b9 3f bc 41 a9 7f 3d
       -0.0029714962 0.11589486 -0.011701853 0.062417272

network_body._body_endoder.seq_layers.0.bias f4 [128]
000000 bc d9 e6 bc 9c ed 77 3d 18 6c ff 3b 10 7e e2 bc
       -0.028179996 0.060529336 0.007794868 -0.027648002
000010 ed ac 94 3c 2d 23 c8 bc ea 7b 58 3d de ae 34 3c
       0.018148864 -0.024430836 0.05285255 0.01102802
000020 98 72 50 3d bf 57 da 3b 12 70 1d bc 53 b1 a5 3c
       0.050890535 0.006663292 -0.009609239 0.020226156
000030 94 4d 9c bd 57 87 bd bc 73 cf 0d 3c 25 d3 15 3d
       -0.07631984 -0.023135824 0.008655417 0.036578316
000040 40 6c 6d bd e3 16 8d b9 b5 13 6b bd 31 24 91 3b
       -0.057964563 -0.00026910668 -0.05739184 0.004429363
000050 d6 5a b8 3b bc 1c f4 3c 13 e2 4f bd c4 86 07 3c
       0.005626063 0.029798858 -0.05075271 0.008271877
000060 6a 3e 4b 3b ef 68 06 bd 40 30 89 3c 8d 10 02 3d
       0.0031012543 -0.032814916 0.01674664 0.031754065
000070 db b7 0c 3c eb 92 92 3d f3 cc 57 bd 22 7d b7 bc
       0.008588756 0.07156929 -0.05268569 -0.022398535
000080 49 19 c5 bb 20 5f a7 3d d6 0f e4 3a 11 f2 88 3a
       -0.006014977 0.081724405 0.0017399739 0.0010448118
000090 9a f4 37 3c d3 81 99 3c 18 79 da 3c 4d 1e 24 3d
       0.011227751 0.018738663 0.02666907 0.04006796
0000a0 40 f7 fe bb 21 6b 9d bb 5c 85 77 3d e5 03 6d 3c
       -0.0077809393 -0.0048040305 0.060429916 0.014466261
0000b0 ed d8 ad bc 7a 14 14 bd ef 59 91 bd be 1c 13 bd
       -0.021221602 -0.03615234 -0.070972316 -0.035916083
0000c0 ec 9f cd 3c 96 9a da 3c 16 c7 db bc 80 d0 72 3b
       0.02510067 0.02668504 -0.02682833 0.0037050545
0000d0 96 7b 1b 3c 4e 8d 93 bd f8 b8 96 bc 48 92 b5 3b
       0.009489914 -0.07204686 -0.018398747 0.0055411197
0000e0 48 83 06 3d 6a e2 41 3d 67 12 7a bd 0f 80 52 bd
       0.032840043 0.047335066 -0.061052706 -0.051391657
0000f0 63 d8 ee 3b 94 af 8f 3c b0 71 45 3d be 52 9c 3b
       0.007288979 0.017539777 0.048204124 0.004770606
000100 f4 8e 35 3d 0a 05 6a 3d 28 e5 59 3d 97 19 0d bc
       0.044325784 0.057133712 0.053197056 -0.008612058
000110 6e fd df 3b a2 ec 5b 3d 5a 07 01 bd ee 3e 4d 3d
       0.006835631 0.053692468 -0.03150115 0.050108843
000120 7c 53 5f bd 13 bb f0 3c 8d aa 59 bd 61 e1 06 3d
       -0.054522976 0.029386079 -0.053141166 0.03292978
000130 13 94 24 bc 79 d0 3a 3a 60 df 17 3d 22 75 cd 3b
       -0.010045069 0.0007126402 0.03707826 0.006270067
000140 d7 2a cf bb b0 7f 1e 3d 16 0d 73 3d b7 ea a4 3c
       -0.0063222456 0.03869599 0.05933865 0.020131452
000150 b0 2a 8e 3c 28 52 40 bc ce 28 93 bc fe dd a2 bc
       0.01735434 -0.011738338 -0.017963793 -0.019881245
000160 9a 80 92 3d 74 79 6f 3c cf ca 3b bc e8 88 c9 3c
       0.07153435 0.014616359 -0.011461928 0.024601415
000170 73 91 f0 3b f1 68 2d bb e1 c0 26 3d 4e 54 89 bc
       0.0073415576 -0.0026460255 0.040711287 -0.016763832
000180 8b d7 c6 3b 78 ab 63 3d e9 18 a2 bc a8 7f cd bb
       0.006068175 0.055583447 -0.019787269 -0.0062713213
000190 28 53 c7 3d 8f 35 e7 bc 22 e8 43 bc fb e2 2b 3d
       0.09732658 -0.02822378 -0.0119572 0.041964512
0001a0 49 c8 2e 3d 10 dd 32 bd 15 e5 af 3c 3b 7d aa 3c
       0.042671476 -0.043667853 0.02147154 0.020811668
0001b0 d8 ba 8b bd 6a 6c 60 3d a5 03 94 ba 2e 85 83 bd
       -0.06822747 0.05479089 -0.001129259 -0.064218864
0001c0 f2 de 15 3d 31 a8 54 3d 60 1a 62 bd 36 b8 32 bd
       0.03658957 0.051918212 -0.055200934 -0.04363271
0001d0 c2 33 4e 3c 66 5f b7 3c 48 68 88 3d ef d1 34 3d
       0.012585582 0.022384357 0.06660515 0.04414552
0001e0 d3 73 af bc 67 bc 3e 3b 2d 2a 74 bc fa ca 9f bc
       -0.021417534 0.0029103996 -0.014902634 -0.019505966
0001f0 11 a4 b0 bc 23 c8 55 3d 03 d3 b4 3d 43 16 e2 3a
       -0.021562608 0.05219282 0.0882931 0.0017249066

network_body._body_endoder.seq_layers.0.weight f4 [128, 55]
000000 0f 77 3e be 99 80 8a bd 67 f6 51 be 38 57 cb be
       -0.18600105 -0.06762809 -0.20504151 -0.3971498
000010 1c 46 c5 3d 7f 88 09 bd c6 af 3c 3e 9a 48 d2 3c
       0.09632513 -0.03357744 0.18426427 0.025669385
000020 d4 81 9b be e2 93 94 be 46 79 70 be ae 98 38 be
       -0.30372488 -0.29019076 -0.23483762 -0.18026993
000030 be df 1b be c4 6a 1c be 1d 97 45 3d a0 ed 27 be
       -0.1522207 -0.15275103 0.048239816 -0.1639924
000040 82 23 66 be 49 9f a8 bd 96 39 eb 3d 83 e6 e1 3d
       -0.22474483 -0.08233506 0.11485593 0.11030295
000050 c7 d8 5a 3d bf 1c 19 be f1 32 85 bd bf 26 3c be
       0.05342939 -0.14952372 -0.06503857 -0.18374155
000060 b4 09 9f 3e df 08 11 be c3 bb 36 be bd 50 97 3e
       0.3106209 -0.1416354 -0.17845063 0.29553786
000070 a3 9b 63 bc b6 60 10 3e 5c 11 38 3e f9 97 c5 3d
       -0.013892087 0.14099392 0.17975372 0.09648127
000080 1c 11 5b be b7 5c 0e be 29 9b c7 bc 3b 13 51 3e
       -0.21393245 -0.13902555 -0.024365978 0.20417492
000090 f3 ec eb bd dc cf b5 be 85 28 07 3e 1b 48 8c bd
       -0.11519804 -0.35510147 0.1319905 -0.068496905
0000a0 6b 98 51 3e 5f fc 5a be 8a f8 dc 3d e1 48 f3 3d
       0.20468299 -0.21385334 0.107895926 0.11879135
0000b0 70 ca 15 be 1a b8 84 be 74 24 0f be fd 11 cd 3d
       -0.14628005 -0.25921708 -0.1397875 0.100131966
0000c0 4f 8b c4 3d 92 18 bf 3c ab 51 74 be 5b 88 c6 3d
       0.095968835 0.023327146 -0.23859279 0.096939765
0000d0 e5 a6 7f be 40 4f 65 3e 1e 2c 01 bd 2a 7e 2c 3e
       -0.24966009 0.22393513 -0.031536214 0.16845003
0000e0 e8 f9 a7 bd 0d 98 f8 bc da 60 d7 3d 28 5e 5c 3d
       -0.08201963 -0.030345941 0.1051652 0.053800732
0000f0 64 f5 40 bd 3a ee 28 bd c1 ca 8e bd a4 ee a5 3d
       -0.047109023 -0.041242816 -0.06972266 0.08102158
000100 db 25 62 3e 30 f3 9f 3d e7 be cf 3d dd bd 21 3e
       0.22084753 0.07810056 0.101438336 0.15795083
000110 75 7c 0a be 5e a5 2a 3e 7c 26 02 be 70 f7 4f bd
       -0.13524039 0.16664645 -0.12709993 -0.050773084
000120 31 da 4e bd 0a d3 54 bd 44 e8 10 bd c9 e6 cb bd
       -0.050501052 -0.051959075 -0.035377756 -0.09956128
000130 46 99 e5 3e 6a 49 80 3e a8 22 85 3e e6 09 53 3e
       0.448435 0.2505601 0.26003003 0.20609245
000140 20 2a ea bc cd 05 89 3e 59 cb 14 3e b2 4e fd bc
       -0.02858454 0.26762238 0.14530696 -0.030921314
000150 bf b6 7f 3a d6 0f c0 bd ea 83 3e 3e af 3c 85 3d
       0.00097547093 -0.093780205 0.18605009 0.06505715
000160 57 ba 30 3e 08 34 cf bd bc 9d 01 3e e3 35 df 3d
       0.17258583 -0.10117346 0.12657827 0.1089895
000170 20 a7 cc 3d ff 6c e3 bd 61 5e e4 3d 6b 46 38 3e
       0.09992814 -0.11104774 0.11150814 0.17995612
000180 d0 7d 19 bd f5 b1 05 bd da 43 31 be eb 71 a3 3d
       -0.0374735 -0.032640416 -0.1731104 0.079807125
000190 30 68 c7 3d 1a 8e db bd 0d 7b 8a 3e 10 51 a6 3d
       0.09736669 -0.10720463 0.27047005 0.0812093
0001a0 48 99 04 3e 10 a9 e2 3d e0 b5 de 3d 07 10 c7 3d
       0.12949097 0.11067402 0.10874534 0.09719854
0001b0 55 33 e6 bc 42 75 53 3e e2 df 82 bd 1e 78 50 be
       -0.028100649 0.20650199 -0.063903585 -0.20358321
0001c0 17 51 34 bd c0 e2 4f bd e3 ee e8 bd 25 65 d2 bc
       -0.044022646 -0.050753355 -0.11373689 -0.025682995
0001d0 69 17 53 be bb f6 cc 3e 98 2b 04 3d d7 df 9d be
       -0.20614399 0.4003199 0.032268137 -0.3083484
0001e0 c3 6a af 3d 85 b4 58 be a1 aa 08 3e 8f bb 59 3d
       0.08565285 -0.21162613 0.1334634 0.053157385
0001f0 9b 76 0d 3c da 4b 5b 3e 68 00 8f 3d de 0a 6b 3e
       0.008634235 0.21415654 0.06982499 0.22953364
000200 42 5f 47 bd a7 55 39 be 22 4a 2b 3e 47 84 6d bd
       -0.04867483 -0.1809908 0.16727498 -0.057987478
000210 d2 d6 11 3d 08 80 6a 3e 9d e2 a4 be f0 e7 11 3c
       0.03560526 0.22900403 -0.32204142 0.008905396
000220 04 1b 15 3d b1 dc 44 be 14 8b 52 be 72 68 c2 3c
       0.036402717 -0.19224812 -0.20560867 0.023731444
000230 8b f5 66 bc 3d f4 1e 3d 0b f2 97 3d 17 24 08 bc
       -0.014096628 0.038807143 0.07419213 -0.008309386
000240 7d 8c 82 3e b6 54 13 be a7 3a 8d bc fe 0e d2 3d
       0.2549781 -0.14387783 -0.017239882 0.10256766
000250 9d 5f 33 be 40 d8 b0 3d 34 24 9e be 31 a2 96 3e
       -0.17516942 0.086349964 -0.30886996 0.29420617
000260 cf 38 eb 3d c4 6f e5 bd 0c 84 f5 bc 3d 81 53 3e
       0.11485445 -0.11202958 -0.029970191 0.20654769
000270 1f 9d d4 bb b7 5b 73 3e bc 35 aa be a1 c2 d0 bb
       -0.006488457 0.23765455 -0.3324412 -0.006370858
000280 53 e4 9c bd 0b de 70 bc df fb 5a 3e 2b fa 9b 3e
       -0.07660737 -0.014701377 0.21385144 0.304643
000290 34 e9 88 3e fd 22 97 3d c1 a9 95 bd b2 fd 82 3e
       0.2674042 0.0737972 -0.073077686 0.2558418
0002a0 af f0 cf 3d e3 2e f2 bd b4 52 66 bc 92 75 f7 3c
       0.101533286 -0.11825349 -0.014057804 0.03020743
0002b0 69 c7 9c 3d ff d5 05 3d 3b 6d 91 3d 29 22 10 bd
       0.07655222 0.032674786 0.07100912 -0.035188828
0002c0 cd 0d 02 3e 93 8b 6d bd 54 71 10 3d 33 f1 4b bd
       0.12700577 -0.057994436 0.035264328 -0.049790572
0002d0 74 d6 4e 3e d3 93 be 3d b6 19 4a bd 6a 16 81 3d
       0.20198995 0.09305539 -0.049340926 0.06303103
0002e0 72 00 c3 bc f0 c5 54 3d 36 bd c2 3d 4c 8e 75 be
       -0.023803923 0.05194658 0.09508745 -0.23980063
0002f0 5a 47 8f be c1 a5 d0 bd 35 8a 82 3e 08 14 0e bd
       -0.27984124 -0.10187865 0.2549607 -0.034687072
000300 8c 37 2e be 63 bd b0 bc 9d 59 98 bc 2b 72 aa 3d
       -0.17013377 -0.021574682 -0.018597418 0.08322557
000310 49 8f 48 bd b8 02 27 be fb 90 88 bc eb 9c a9 3d
       -0.048964772 -0.16309631 -0.016670695 0.08281883
000320 3e 62 19 bc b7 de 1a bd 13 ac 7a be 04 fd a5 bd
       -0.009361802 -0.037810054 -0.24479704 -0.081048995
000330 a7 bd 5d bd e7 04 23 3d f3 b3 2e bd 10 eb 43 bc
       -0.054135945 0.039799597 -0.04265208 -0.011957899
000340 2f f6 56 3d 02 f3 f2 bd c0 22 dd 3c d9 45 13 be
       0.052480873 -0.11862756 0.02699411 -0.14382114
000350 9c 89 d4 3c 0e 47 c2 3d d5 e4 94 3d 05 de 30 3d
       0.025944524 0.09486209 0.07270209 0.043180484
000360 c2 34 b1 3d a3 f9 f4 3d b6 5b 32 3e ed f2 92 bc
       0.08652641 0.11961677 0.17417797 -0.017938102
000370 95 5a d2 bd 35 cb 74 3c 30 1e b2 be a3 e6 04 3e
       -0.102711834 0.014941026 -0.34788656 0.12978606
000380 ab ab 95 3c 6a 0e d9 3d a2 66 8f bd 5b 90 d5 bd
       0.018270334 0.105984524 -0.070019975 -0.10427924
000390 5e 3e 72 3d 2f 51 9c 3d ea 8c f5 3c 00 64 80 3e
       0.05914151 0.07632672 0.02997442 0.25076294
0003a0 6b 19 eb 3d 62 11 67 3c 88 d2 53 3d 8a e2 06 bd
       0.114794575 0.0141032655 0.05171445 -0.03293089
0003b0 fb 4f 3b 3e 8e c0 b9 3d 8f ce 17 3e 56 9f 91 bd
       0.18292229 0.0906993 0.1482489 -0.07110469
0003c0 1c af ae 3d 00 a0 4e be d9 e2 00 be d6 bc c6 bd
       0.08529493 -0.20178223 -0.12586536 -0.09703986
0003d0 8d 4d 9f be 24 db be 3d d7 3c 9d 3d 7e ae 6a 3d
       -0.31113854 0.093191415 0.0767762 0.057295315
0003e0 ff a4 d5 bb 98 5b 66 be ca 6f 81 3c 8c 4a 9f bd
       -0.006519913 -0.22495878 0.015800375 -0.077778906
0003f0 8a f4 0a 3e a1 02 00 3e 79 6e cf 3d 63 45 bd bc
       0.13569847 0.12501003 0.10128493 -0.023104375

network_body._body_endoder.seq_layers.2.bias f4 [128]
000000 df 8b d7 bc d9 55 3a 3c 52 55 f7 3c 00 be 06 bd
       -0.026311813 0.011373007 0.030192051 -0.032896042
000010 a6 d7 3f 3d 8e dc 35 3c 32 e0 c2 3c b4 9b 40 3c
       0.046836518 0.011099948 0.023788545 0.0117558725
000020 73 73 5b bb a7 74 00 3d 4c ac 9d 3c a7 9f db 3c
       -0.003348556 0.03136125 0.019247197 0.026809527
000030 5c 5b 80 3c c7 22 1b bd c2 b1 b5 3c 5e d4 54 3d
       0.015668564 -0.037874963 0.022179488 0.05196034
000040 5c 92 ab 3b f5 3e 16 3d 39 9d 2a 3c 0e ee 56 bc
       0.0052359533 0.036681134 0.010413461 -0.01311828
000050 b6 51 00 bc 0f e2 bb bb 9b 8b 3c 3c 99 8e 52 bb
       -0.007831981 -0.0057337354 0.011507894 -0.0032128452
000060 b2 e8 ec bb f5 32 b8 bc 43 57 20 3c 0c 0e f0 bc
       -0.007229888 -0.022485236 0.00978643 -0.029303573
000070 aa 65 a7 3b 89 f5 79 3b 12 02 d1 3c 19 3c 20 bc
       0.005108555 0.0038140735 0.025513683 -0.009779953
000080 e1 9c 0c 3d d6 2e 68 3d 27 83 7d 3c f5 e0 02 bc
       0.0343293 0.05668529 0.015473164 -0.007988204
000090 6b e2 d0 3c 5f 3b 24 3d 24 65 9c 3b 48 f0 c3 3b
       0.02549859 0.040095683 0.004772799 0.0059795715
0000a0 ce 75 76 bb e8 8d 13 3c 1e cf 78 3b ac 28 e6 3c
       -0.0037606838 0.009006001 0.0037965248 0.028095566
0000b0 f5 c1 31 3d c0 d8 8b 3c a7 e7 5e bb 5b e9 a2 3a
       0.043397862 0.017071128 -0.0034012587 0.0012429164
0000c0 91 8a 57 3d c1 7d a6 3c ae b1 08 3d fd b0 a9 bc
       0.05262238 0.020323636 0.033372574 -0.020714277
0000d0 d9 c3 59 3c 0e 2a 45 bd 36 13 60 3b f7 29 4a 3c
       0.013291323 -0.04813581 0.0034191138 0.012339107
0000e0 db 20 37 bd 5f d6 a3 bb 02 c4 22 bb 4e 0d b5 3b
       -0.044709068 -0.0049999203 -0.0024836068 0.0055252677
0000f0 7c f3 06 bc 4b 3b 45 3c 27 6b 39 3c 65 ca c6 3a
       -0.008236762 0.012038062 0.011317051 0.001516652
000100 af 68 2e bd a2 7f 2c bd 1a da ba bc e1 72 5a 3c
       -0.042580303 -0.042113908 -0.022809077 0.013333053
000110 57 4d 84 bc e2 6a bd 3c e2 b8 1e 3c c4 ee 10 3c
       -0.01615016 0.023122255 0.009687634 0.008845989
000120 f8 ac 0f 3c 4a 01 03 bb 58 58 10 3d 2f d3 21 b9
       0.008769266 -0.0019989782 0.0352405 -0.00015432829
000130 f4 d7 45 3d 06 53 72 3b 20 39 8d 3c 74 8f 20 3d
       0.048301652 0.0036975755 0.017239153 0.039199308
000140 10 d1 9d 3b 05 55 2c 3b 04 72 54 bc 00 e6 2d bd
       0.004816182 0.0026295793 -0.012966637 -0.042455673
000150 21 7e 05 3d 4a 48 db 3b ee 92 18 3d 67 a6 a8 3c
       0.03259099 0.006691967 0.037249498 0.02058716
000160 79 a8 0d 3d e4 3e 0e 3b d7 8c d8 3c d6 f8 70 3c
       0.034584496 0.0021704966 0.026434345 0.014707765
000170 93 36 5a 3c 63 b3 32 3b 5c 7d 0a bd 36 e5 af bb
       0.013318676 0.0027267567 -0.03381096 -0.0053679002
000180 9e 78 55 3d b5 c3 7c 3b 2f 47 3d 3d c6 0e fd bb
       0.052116983 0.00385688 0.046210464 -0.0077227084
000190 d9 33 2c bd 50 a9 87 3b e8 2f 4a 3d 55 f9 10 3c
       -0.042041633 0.0041400567 0.049362093 0.008848508
0001a0 0a ea 9f 3a 7c 6e 30 bc 03 1f 20 3d 6f 3a 53 bc
       0.0012200486 -0.010768529 0.039092075 -0.01289235
0001b0 0b 87 40 3d 77 e4 bf bc bc 81 40 bc 91 bf 34 3d
       0.047003787 -0.02342437 -0.011749681 0.044128004
0001c0 e1 dc f4 bc a3 8d 94 3d 1d 2f 35 3d e3 7d dd 3b
       -0.02989048 0.072535776 0.044234384 0.0067593916
0001d0 9e ff 34 3d 20 40 c1 b9 e2 26 1e 3d ac 00 15 3d
       0.044189088 -0.00036859605 0.0386113 0.036377594
0001e0 a5 7b 12 3c 88 4c b1 3c cf 24 0f bd 92 c7 84 3c
       0.008940612 0.021642938 -0.034947213 0.016208444
0001f0 0b 00 c7 bc 6c a0 f4 3c 5f 96 44 bc 97 f9 0a 3d
       -0.024292013 0.029861651 -0.011998742 0.033929434

network_body._body_endoder.seq_layers.2.weight f4 [128, 128]
000000 c0 89 c0 3d c6 37 15 bd 1f 2f 6c bd 9a d6 12 be
       0.09401274 -0.036430143 -0.057662126 -0.14339676
000010 23 a1 d7 bb 81 40 4d 3e ae 7f 01 bd 2b e3 b7 bd
       -0.0065804883 0.20044138 -0.031615905 -0.08978876
000020 64 48 fd bc 0e 38 48 bc 80 21 71 bb d0 a1 de bd
       -0.030918308 -0.012220396 -0.003679365 -0.10870707
000030 fc 16 df 3c 38 58 9c 3a 92 30 6e bd e9 ea 01 be
       0.02723264 0.0011928147 -0.05815179 -0.12687267
000040 ee b7 72 3c da ba 19 bc cb f4 fa bc a2 8a b5 bc
       0.01481436 -0.009382928 -0.030634305 -0.022160832
000050 7d d8 1c be a3 15 05 be 4d d8 d9 3d 3e e7 10 be
       -0.15316959 -0.12996535 0.10636959 -0.14150712
000060 95 7a 39 be 89 f4 b9 3d b5 0e 15 be e8 e5 05 3e
       -0.18113168 0.090798445 -0.14556392 0.13075984
000070 f7 44 68 bd 60 70 85 3e 86 d1 14 bd 32 cb d0 3b
       -0.056706395 0.26062298 -0.03633263 0.006371879
000080 40 4d 0c bd 70 e7 f4 bb ec 02 0c bd 10 00 e2 3d
       -0.03425336 -0.0074738786 -0.034182474 0.11035168
000090 ac c7 3b be 79 47 af 3b 44 e4 bf 3d 1c 85 c3 bd
       -0.18337888 0.0053490964 0.0936971 -0.09546873
0000a0 85 dc 98 3d ee 95 83 3d 3a 9c a5 bc 2b b7 1f bd
       0.07463936 0.06425081 -0.020216096 -0.038993042
0000b0 a5 b3 90 3e ad 39 48 3d 0d 34 ae 3d 74 b3 8b bd
       0.28262058 0.04888313 0.08506022 -0.06821337
0000c0 8d b6 02 3c ff 88 2d 3e 1e 71 21 3e f8 04 6b be
       0.007978094 0.16946791 0.15765807 -0.22951114
0000d0 3f 9b 2b bd f7 eb 2f be e3 c8 b7 3c fa fe d2 bc
       -0.0418961 -0.17179857 0.022434657 -0.025756348
0000e0 d2 4e 34 be cf 90 2d bc 66 03 64 3d 7d d8 ec 3d
       -0.17608193 -0.010593607 0.055667304 0.11564729
0000f0 b0 43 e9 3d 6c 0f fa bc 71 23 89 3d 68 ef 06 be
       0.113898635 -0.030524932 0.06696213 -0.13177264
000100 6a 03 d8 3c e0 d8 78 3e a9 c2 b9 bd 48 da 9f 3c
       0.026368815 0.24301481 -0.090703316 0.019513264
000110 eb ea 74 bd 5d 5d 32 bd 16 cd 7c 3d 13 f2 80 bd
       -0.059794348 -0.04354607 0.061719023 -0.06296172
000120 9d 6c 45 bd 7a cd 98 3d e2 39 a2 3c 60 b0 ed 3c
       -0.048199285 0.074610665 0.019802991 0.029014766
000130 6a 0d 15 bd 50 cb 3b bc 9a 0f 0d 3e dd b3 b5 bd
       -0.036389746 -0.011462048 0.13775483 -0.08872197
000140 66 75 4f be 54 46 5e bc b4 a6 68 3d 1a 86 1f be
       -0.20259628 -0.013566572 0.056799605 -0.155785
000150 c2 42 e0 3c 19 2c 97 3d 6d fd 32 be e1 f0 e5 bc
       0.027375583 0.07381458 -0.17479487 -0.028068962
000160 70 46 9f be e3 a0 69 bd a4 bd b0 3d f8 de b7 3d
       -0.31108427 -0.0570382 0.08629921 0.08978075
000170 03 dc 78 3d 6e 1c 8c bd 79 da 14 3d 00 a1 dc bd
       0.060756695 -0.0684136 0.036341164 -0.10772896
000180 e7 44 13 3e 49 dc 25 3e 15 4b ee bd 6f 34 90 be
       0.14381753 0.16197313 -0.116354145 -0.28165004
000190 3f 2d fa 3c 04 6c d0 bc 4b 16 91 bd d8 0b 3e 3d
       0.030539153 -0.02544213 -0.0708433 0.046398014
0001a0 00 d8 dc 3d 33 3b 95 3d f6 e9 b2 bc c3 4e 0f be
       0.10783386 0.07286682 -0.021840077 -0.13994889
0001b0 a8 13 b9 3c 7f 76 18 3b 7b 18 c7 bd 85 56 15 3e
       0.02259238 0.0023263989 -0.09721466 0.14583786
0001c0 a6 3b 18 bd 66 cf c0 3d 4a 1f c1 bb 9a 00 01 3d
       -0.03716626 0.09414558 -0.0058936225 0.031494714
0001d0 58 05 13 be f4 ce 3e 3b e9 2c 5e 3d 78 e0 54 3d
       -0.14357507 0.0029115053 0.05424205 0.051971883
0001e0 c1 50 22 be 24 54 b9 bd 77 37 c5 3d 7d 92 72 be
       -0.15851118 -0.09049252 0.0962972 -0.23688693
0001f0 74 ff 1d bd b8 b1 88 3d ab ed f7 3d d1 cf fb bd
       -0.038573697 0.06674522 0.121058784 -0.12295497
000200 0b 39 12 be a1 6a c7 3c 51 92 bf 3b eb 9f f1 bc
       -0.14279573 0.024342837 0.0058462997 -0.0294952
000210 7f 5c 68 bd 79 3d 97 bd 91 bd 3e 3d 4b a7 dc bd
       -0.056728836 -0.07384772 0.046567503 -0.10774096
000220 59 53 36 bd 00 b8 af bd 11 aa d4 bd 67 6b a1 bc
       -0.04451308 -0.08580017 -0.10384 -0.019704534
000230 49 19 80 3c b2 21 35 3d 19 bb cb 3c 13 c8 ea bd
       0.015637057 0.044221587 0.024869489 -0.114639424
000240 2d 4c ae bd bc 59 ae bc 93 e4 e4 bd 03 9e 23 3d
       -0.08510623 -0.021283023 -0.111764096 0.039945614
000250 1c 00 90 3d 7d 4f a2 3d 7d e9 7c bd 94 23 43 be
       0.07031271 0.079253174 -0.06174611 -0.1905654
000260 20 dc 06 3d e6 0c 56 3d 74 39 af bd 53 ba 2c 3d
       0.03292477 0.052258395 -0.0855588 0.04216988
000270 e0 93 43 3b 52 04 16 3e 13 88 33 bc be 96 6e 3c
       0.002984278 0.14650086 -0.010957736 0.014562307
000280 96 28 fd bd e8 44 08 3e 92 d1 8c 3d 34 f3 ee 3c
       -0.12361257 0.13307536 0.0687591 0.029168703
000290 57 df 4b 3b 25 d2 ad 3c 69 6b d6 3d 7c 86 1d 3e
       0.0031108463 0.021218369 0.104697056 0.15383333
0002a0 08 35 8b bd 4a 47 24 be e5 ec 36 be 62 ef 46 bd
       -0.06797224 -0.1604282 -0.17863806 -0.048568137
0002b0 15 03 60 3c 10 e4 15 be b1 12 b1 bd 62 9e f1 bc
       0.01367261 -0.1463778 -0.08646143 -0.029494468
0002c0 73 05 05 3c 97 82 26 bd 8b b5 5d bd 18 44 88 bd
       0.008118975 -0.040651884 -0.05412821 -0.06653613
0002d0 74 28 97 3d 38 e5 23 be d5 ba e3 3b 1e 44 29 3e
       0.07380763 -0.16005409 0.0069497623 0.16529891
0002e0 97 b1 71 bd 3f 8a b1 3c c6 21 e6 bd 1a eb c5 3c
       -0.059007253 0.021672366 -0.112369105 0.024159957
0002f0 d5 51 07 3c e2 91 72 bd 97 44 0f bd 60 f4 d6 3d
       0.008259256 -0.059221156 -0.03497752 0.104958296
000300 60 32 51 bd 5c 21 b4 3d 4d b1 64 bd e9 63 81 3d
       -0.051073432 0.08795425 -0.05583315 0.063178845
000310 d6 e1 6b 3d fc a4 c4 bc 8c 4e a7 bd 2e cb 16 3d
       0.05758842 -0.024004452 -0.081692785 0.03681486
000320 b7 33 35 3d 73 e2 85 3d 69 0a b5 bd 9e b3 13 3e
       0.044238772 0.065373324 -0.08839876 0.14423987
000330 58 b7 64 3c 10 7b 5b 3e e7 1e c7 bd e6 ef 0a 3e
       0.013959728 0.21433663 -0.09722691 0.13568076
000340 35 c2 bc 3d 6e 36 86 3e ff f3 da bd d4 c2 3c be
       0.092167296 0.26213402 -0.1069107 -0.18433696
000350 6a f8 81 3d fe d4 1c be 53 1a 97 3d f7 01 64 3d
       0.06346209 -0.15315625 0.07378068 0.055665936
000360 aa 09 c7 3d 47 35 98 bd c4 e0 20 bd ff fb 73 bd
       0.0971864 -0.07432037 -0.039276853 -0.059566494
000370 c6 85 f4 3d 9a c1 07 3d 0a 45 7d 3e a7 ab 08 be
       0.11939578 0.033143617 0.24733368 -0.1334673
000380 ce 98 1b bd 17 d8 b1 bc 73 95 7c bd 97 a8 9c bc
       -0.037987523 -0.021709485 -0.061665963 -0.019123359
000390 5c 6e c2 3d dc c3 4b 3d 14 9d c4 39 c0 23 8d bd
       0.09493706 0.049747333 0.00037501066 -0.068915844
0003a0 5b b2 0e bc b0 df 03 be 6e 75 bf bd cc 7b a6 bd
       -0.008709515 -0.12878299 -0.0934857 -0.08129081
0003b0 a5 ab 0d bd 8b a9 63 be a1 da 58 3d 33 ba 0c 3b
       -0.03458752 -0.22232644 0.052942876 0.0021473288
0003c0 a1 e8 3f 3c c5 ca 5a bd 42 9c 0b 3e 12 e0 f0 bd
       0.011713178 -0.053416032 0.13633826 -0.11761488
0003d0 a4 02 1b 3d 78 ce 46 3d e3 a8 d3 3c bc e1 fe 3d
       0.037844315 0.048536748 0.025837367 0.12445399
0003e0 b5 10 3d be 69 0c a8 bd bb b0 3b be 97 57 b1 3d
       -0.18463404 -0.08205492 -0.18329136 0.086592846
0003f0 4f af 9f 3e 3a 0f 82 bd 00 96 d1 3d ff 23 b5 3c
       0.31188437 -0.063505605 0.10233688 0.02211189
