results/phase2_t5_with_config_3/NPCAgent/NPCAgent-130665.onnx (onnx, 109940 bytes, 9 tensors)

action_model._continuous_distribution.log_sigma f4 [1, 2]
000000 46 cd d0 3b 46 e0 c3 3b
       0.0063721268 0.005977663

action_model._continuous_distribution.mu.bias f4 [2]
000000 ee f6 b8 3a b4 c7 d7 3b
       0.0014111677 0.0065850858

action_model._continuous_distribution.mu.weight f4 [2, 128]
000000 d2 ff dc 3c 33 48 1e bb ad 0f 41 3c 3d 19 8d 3c
       0.026977453 -0.002415192 0.011783523 0.017223949
000010 bb d4 2d bc f6 1b e2 3a 91 49 94 3c ca bc df b9
       -0.010609801 0.0017250765 0.018101485 -0.00042674533
000020 39 b8 34 3c e6 2f f4 3b 73 0e 78 bc dc a1 e0 3b
       0.01103025 0.007451999 -0.015140164 0.0068552326
000030 a6 dc d9 3b a0 4f 93 3a 22 62 9c bc 7d ad 9b 3c
       0.006648618 0.001123894 -0.019089762 0.019003624
000040 e5 24 20 bc f2 e4 d3 bc 1e 9d 64 3c 85 e1 08 3c
       -0.009774421 -0.025866006 0.013953475 0.008354549
000050 14 61 1b 3c 58 97 92 bc 79 a8 2f 3b 44 26 e6 3b
       0.009483594 -0.017894432 0.0026803298 0.0070236046
000060 2b bb 56 bc de 3a fa 38 24 f0 2f ba e8 cd e5 3b
       -0.013106148 0.00011931894 -0.0006711504 0.0070130713
000070 73 b6 88 3b cb bd bc bc 67 89 a5 3b d0 77 57 3c
       0.0041721403 -0.02303972 0.00505178 0.013151124
000080 d4 79 0b bd 7c f5 0b bc 9b a9 ed bb 4a 2e c8 bb
       -0.03405173 -0.008542415 -0.0072528846 -0.0061090337
000090 db dd 52 bc 1c 5c c7 3c 02 ee b0 3b 0b 30 c7 bc
       -0.012870277 0.024335913 0.0053994665 -0.0243149
0000a0 8a e8 08 bc 5d 72 ae 3c 99 83 7b bd 32 28 63 3b
       -0.008356223 0.021294767 -0.0614048 0.003466141
0000b0 55 8f 20 bd 1f 47 bd bc de da 0b bd 6f b6 f1 bc
       -0.039199192 -0.023105202 -0.034144275 -0.029505936
0000c0 cf fe b4 3b d7 c5 a5 3b b2 98 8f 3c dd 31 65 3c
       0.0055235396 0.0050589847 0.017528865 0.013988939
0000d0 1b 70 c3 3c 3f d6 5c bc 38 99 e1 3b 96 db c6 bb
       0.023857167 -0.013478815 0.00688472 -0.006068657
0000e0 47 9c e1 3b cf 04 a1 3c 7c 66 1c 3c 6a ce 88 bc
       0.006885085 0.019655613 0.009545919 -0.016699988
0000f0 a4 14 89 3c 02 2f 87 3b 81 b8 8b 3c d8 cd 8e bc
       0.016733475 0.004125477 0.017055752 -0.017432138
000100 1b c3 84 ba 79 0e 12 3d 45 da c6 bc fe b6 17 bd
       -0.0010128947 0.035658333 -0.024274 -0.03703975
000110 b1 a1 1f bd d1 7a 8c bc 54 85 79 3c 12 da 32 3b
       -0.03897256 -0.017148407 0.015229542 0.0027290625
000120 b1 ba 0b bc 2a 14 8c 3c 9e f7 ef 3b bb 39 84 bc
       -0.008528397 0.017099459 0.0073232194 -0.01614081
000130 5c 8f 5e 3c 12 6f 8c 3b 44 5f f5 3b 8d 00 4a 3d
       0.013583984 0.0042857016 0.007488163 0.04931693
000140 40 40 35 bc e3 2d 86 3c f7 92 f6 bb bf 75 01 bd
       -0.011062682 0.016379302 -0.007524844 -0.031606432
000150 6d 77 63 3b c2 9d 0a 3d b2 4a 2d 3c b5 e5 36 bc
       0.0034708634 0.033841856 0.010576891 -0.011163165
000160 07 fa 4c 3b 0d 38 31 3d 24 27 49 bc e6 cb 29 ba
       0.0031276958 0.043266345 -0.012277398 -0.00064772216
000170 08 11 53 bc b8 c5 a2 bc af a6 ec 3c de e3 01 bd
       -0.012882479 -0.01986967 0.028888075 -0.03171145
000180 39 d8 51 3b f4 62 07 3d e7 9f 3e 3d 50 4b be bc
       0.0032019748 0.033053353 0.046539214 -0.023229271
000190 2d fa 4e bc 51 93 4d bb ee 8f ec 3b 1e 88 32 bd
       -0.012632889 -0.0031368325 0.007219306 -0.043586843
0001a0 01 e4 b0 bc 91 13 9b 3b 2c c4 28 3d 1c b6 b3 3c
       -0.021593096 0.004732557 0.04120271 0.021937422
0001b0 19 09 18 3d 58 ca 55 bc 52 1f 83 bc 04 dd 19 3d
       0.03711805 -0.013048731 -0.016006146 0.037564293
0001c0 c4 89 57 bc cb f7 1c bc ce 07 a9 bc 7e 88 1c bd
       -0.0131554045 -0.009580563 -0.020633604 -0.038216107
0001d0 d2 b2 7e bc e4 7e 1c 3c 97 a3 00 3d 1d 76 b9 bb
       -0.015545564 0.009551737 0.03140601 -0.005659832
0001e0 e4 02 5c 3d a9 95 c9 3c fc 3c 15 bc 2d c2 88 bc
       0.053713694 0.024607496 -0.009108778 -0.016694153
0001f0 e8 69 79 bc 3a 8e 60 bc ec cb a1 bc 66 c6 c4 bc
       -0.015223004 -0.013705784 -0.019750558 -0.024020385
000200 d0 a2 45 3b 12 2f ff 3a 36 d8 42 bd e0 40 4d bd
       0.0030156858 0.0019468984 -0.047569476 -0.050110698
000210 94 f9 55 bc 81 ac 1f 3c dc fd 42 bd ea 2e e0 bb
       -0.013059992 0.009745718 -0.04760538 -0.00684153
000220 f9 e4 07 bc 95 a8 64 3c 9b 9d 7d bc e9 77 90 bc
       -0.008294337 0.013956209 -0.015479471 -0.017635303
000230 e6 4f 4f bd 4c 86 c7 3b fe 89 a0 bb ec 5b 70 ba
       -0.050613306 0.0060890075 -0.0048992625 -0.0009168971
000240 1b f9 ad ba 74 e2 c3 ba b9 7e 75 bc 00 07 c3 bb
       -0.0013273092 -0.0014944808 -0.014983826 -0.005951762
000250 0f 3a ed bb 77 29 44 3c af 71 36 bc c1 c2 35 bc
       -0.007239587 0.011972777 -0.011135503 -0.011093796
000260 f5 e2 4e 3c 98 df 60 bc 3c 4c 8c bb 68 ff d5 ba
       0.012627353 -0.013725184 -0.004281549 -0.0016326727
000270 f2 22 ba 3b 25 51 e7 bc fe 8a b7 bc 79 c1 42 bc
       0.0056804353 -0.028236935 -0.022405144 -0.011886948
000280 a8 9b ae bc 35 11 97 bb 10 bb 2b bc 39 69 fd bc
       -0.021314457 -0.0046102055 -0.010481611 -0.030933963
000290 d9 90 a8 3c db cd 39 bc 6a 4f 0a 3b 1e 96 18 bc
       0.020576881 -0.011340584 0.0021104463 -0.0093131345
0002a0 ad e9 e0 bc 39 a0 09 bc 39 f1 b5 3c 35 2d 73 3c
       -0.027455175 -0.008400016 0.02220975 0.014842321
0002b0 2a 5e 9b 3b 10 58 f4 3b ef 60 1c 3b 7e 73 a9 3c
       0.00474145 0.007456787 0.0023861488 0.020684954
0002c0 88 60 45 3c 21 1d 6a 3c 68 6f 3a 3c 2b 8c 31 bc
       0.012046941 0.014289171 0.0113791 -0.010836641
0002d0 79 50 53 bc fb ab f5 3b 9e 40 73 bc b2 a8 0a 3d
       -0.012897604 0.0074973083 -0.014846949 0.033852287
0002e0 f5 9d b9 ba 3a 57 80 3c 44 89 94 bc 46 8a 5d 3c
       -0.0014161455 0.015666593 -0.01813186 0.0135217365
0002f0 fe b6 b8 b9 b9 23 63 3d f1 e8 04 3c 9c a8 24 bb
       -0.00035231555 0.05545399 0.008112178 -0.0025124913
000300 7a c7 10 3c de 5d 06 3c 7b 02 05 bc 94 7a 0b bc
       0.008836621 0.008201091 -0.008118267 -0.008513112
000310 a3 15 13 bc b1 48 de 3c 74 ba 21 3d 19 57 a1 bc
       -0.008977327 0.027134271 0.039484456 -0.019694852
000320 59 9e ee 3b 87 eb 75 3b b2 bb 41 3d b9 af 81 bb
       0.00728206 0.0037524418 0.04729814 -0.0039577154
000330 ca a5 bd bb ac 11 40 bc 29 22 05 3b bb ec 81 3c
       -0.005787586 -0.011722963 0.002031455 0.015859952
000340 d0 d4 93 3a e8 c4 80 bc fb cf f2 3c 42 8e ee 3c
       0.0011278633 -0.015718892 0.029640188 0.029120568
000350 24 85 52 bc b0 4b 8d 3c 64 46 a0 bc 3f 59 14 bd
       -0.012849126 0.017248005 -0.019564815 -0.036217924
000360 27 2d 2d bc ca f8 95 3c 58 fc fa 3b 06 47 7e 3a
       -0.010569847 0.018307108 0.0076594763 0.00096999144
000370 2c 0d 7a 3c 9c 6d c0 bb f5 96 65 3c e2 95 d7 3a
       0.0152619295 -0.0058724415 0.014013042 0.0016447867
000380 c3 b7 60 bc ff f8 b4 3a 07 30 ff 3b 3b 28 ed bb
       -0.013715687 0.0013807117 0.0077877077 -0.007237462
000390 de 90 14 bc 02 7a 6b 3c 33 1b a4 3c ee 72 7c 3c
       -0.009067742 0.014372351 0.0200325 0.015408261
0003a0 5c 0c 8f bc 32 48 1f 3a 88 18 3f bc 74 b8 1e bc
       -0.017461948 0.00060761266 -0.011663564 -0.009687532
0003b0 cb a6 cc bc b0 20 30 3c a4 b7 0d 3c 82 77 16 3b
       -0.024981877 0.010749981 0.00864974 0.0022959416
0003c0 73 ea 8c 3a 9b 54 3e 3b ed c4 18 3d de 8b af bb
       0.0010751024 0.0029042128 0.037297178 -0.0053572496
0003d0 5a cf 56 bc 9f 2c 84 bb f2 59 12 3c ab 5f e0 bc
       -0.01311096 -0.0040336396 0.008932577 -0.027389368
0003e0 ab 67 f0 bb 60 53 82 bc f5 8f 8f bc 55 24 34 3b
       -0.007336577 -0.015908897 -0.017524699 0.0027487476
0003f0 01 93 ff ba bf a9 b3 bc e7 b5 69 3c 93 a4 ad 3c
       -0.0019498767 -0.021931527 0.01426456 0.02119664

action_model._discrete_distribution.branches.0.bias f4 [2]
000000 35 8c 04 bc 36 8c 04 3c
       -0.008090069 0.0080900695

action_model._discrete_distribution.branches.0.weight f4 [2, 128]
000000 30 8f 58 3c 3a a5 03 bd 4f aa b3 3c 8a ed 96 3b
       0.013217732 -0.032139994 0.021931795 0.0046059536
000010 8c 80 83 3c b5 d7 da bb ad 76 c5 3b 85 66 0a 3b
       0.016052507 -0.0066785463 0.00602611 0.0021118235
000020 b9 93 8b 3b 06 2e 75 3c 28 c9 9c bc 89 5b 43 3c
       0.0042595533 0.014964586 -0.019138888 0.011923679
000030 69 4e 71 3b 3e 0c dd bc 97 67 35 3c 49 48 c0 3b
       0.0036820418 -0.026983377 0.011072061 0.005867992
000040 bd db 86 3c 08 67 79 bc b5 2f 04 bc 4e d2 26 3c
       0.016462201 -0.0152223185 -0.008068015 0.0101819765
000050 0d 4b 61 bb a9 82 48 bc 9c cb 46 bc ee c9 b3 bc
       -0.003437701 -0.012238183 -0.012133505 -0.021946874
000060 f9 44 d7 3b 20 e9 d0 bb 6e a3 5e 3c 07 34 9d bb
       0.0065695015 -0.006375447 0.013588769 -0.004797462
000070 9c 4f a2 bb 29 b5 b4 3c 45 0e 92 bc e8 d7 3c 3b
       -0.004953338 0.02205904 -0.01782907 0.0028815214
000080 0a 78 c7 3c f6 83 c2 38 1a 25 f7 bb 20 97 e7 3a
       0.024349231 9.2752205e-05 -0.0075422646 0.001766894
000090 c7 7d 7f bc a2 c7 85 bb c9 a6 66 3c 88 cb 7c 3a
       -0.0155939525 -0.004082636 0.014077851 0.00096433656
0000a0 4b ab 91 3c 86 e5 16 3c 46 11 45 bb 8f 41 ff bb
       0.017781874 0.009209996 -0.003007011 -0.0077897976
0000b0 d6 2c 27 3b 7a 4d 7e bc 2a 43 b0 3c 82 b2 81 bc
       0.0025508902 -0.015521402 0.021516401 -0.01583219
0000c0 a6 58 55 bc 66 3a e2 bb 04 af 63 bc c9 ae ee bb
       -0.013021624 -0.0069039343 -0.013896707 -0.0072840196
0000d0 2e 62 fb 3b 33 3b 25 bc 12 69 99 3c 37 d1 14 b8
       0.007671616 -0.010084915 0.01872686 -3.5480796e-05
0000e0 7b cb 82 3c 0c 55 7e 39 4e 4b be 3c f6 00 43 bc
       0.015966168 0.0002425501 0.023229267 -0.011902085
0000f0 6b ac 23 bc 2c c0 a1 bb ad a9 2c bc 13 ee 87 bc
       -0.009989838 -0.0049362388 -0.010538501 -0.016593015
000100 93 e0 a0 bc 20 94 46 bc 5c 74 8d bc a1 bd 9e ba
       -0.019638335 -0.012120277 -0.017267399 -0.0012110957
000110 47 07 9d 3b ff fc 92 ba f0 4d ba bc 17 e7 91 bc
       0.0047921273 -0.0011214315 -0.022742242 -0.017810388
000120 5d a4 c7 bb 77 3d fa 3b a9 35 c7 bb 9b 60 13 3c
       -0.0060925917 0.0076367217 -0.006079395 0.0089952005
000130 f9 f4 c9 bc a4 bd 0e bb 1c 71 be 3c ec 3f ec bb
       -0.024652945 -0.0021780515 0.023247294 -0.0072097685
000140 03 65 da bb 1d 6a 79 3a 93 7f 1f bc 9c e2 a8 3c
       -0.0066648736 0.00095144083 -0.009735006 0.020615868
000150 71 bd a5 3b a7 7b ac bb 92 6f 98 bc 03 98 60 bc
       0.0050579836 -0.005263764 -0.018607888 -0.013708117
000160 d5 60 4f ba 9f 3b bd ba c3 66 3d bc e6 b9 d6 ba
       -0.00079108524 -0.0014437324 -0.011560145 -0.0016382306
000170 82 ba c0 bc c3 38 ff 3b 44 e8 31 bc 1d aa c1 3b
       -0.023526434 0.007788749 -0.010858599 0.0059101717
000180 7d d6 89 3c 33 3e d5 bb 4b 42 0f bc 8b c6 8b bb
       0.016825909 -0.006507659 -0.008743833 -0.0042656115
000190 7f ad be bb 38 87 6d bc 8e 2d 2a bc 31 84 c4 3b
       -0.005819022 -0.014497571 -0.010386838 0.0059972038
0001a0 c5 6a 3d bc ea 4a b2 ba 3d 09 f4 3c 35 c5 86 3c
       -0.0115611 -0.0013602648 0.029789561 0.016451458
0001b0 6b 83 e6 39 92 9b 97 3c 28 31 03 bc 15 39 8f 3c
       0.00043966933 0.018506799 -0.008007325 0.017483274
0001c0 50 17 fe 3c 05 18 00 bb e3 d4 12 3c 1a 4b c7 3a
       0.031016976 -0.0019545567 0.008961889 0.0015204877
0001d0 9a 87 c1 3a 2f 7b 2f ba 34 c6 a5 3c 42 c8 d8 3b
       0.0014765144 -0.0006694076 0.020236112 0.0066156695
0001e0 8a 7f 80 3c 75 2f 41 3b 71 58 91 bc 5e 61 43 3b
       0.015685815 0.002947775 -0.017742367 0.0029812674
0001f0 cd d9 10 bb 48 47 ca bb b3 79 1c bb 68 32 23 3c
       -0.0022102476 -0.006173048 -0.002387625 0.009960748
000200 d8 d3 7d bc dc 0b ee 3c 2d c9 ad bc 4b 10 77 bc
       -0.015492402 0.02905839 -0.021214092 -0.015079568
000210 3a 31 43 bc 7b a5 b1 3b d5 ff cf 3b d1 c8 83 bb
       -0.011913592 0.005421338 0.006347636 -0.004021742
000220 d8 4c af 3b 3f c9 8f 3a b2 0e 04 3c f1 81 25 bc
       0.0053497367 0.001097001 0.008060144 -0.010101781
000230 9e 68 1b 3c 11 8a 15 3c 8d bf 0a bc 31 49 99 b9
       0.009485392 0.009127156 -0.008468521 -0.00029236966
000240 54 40 64 3b 1d ea 0b 3c 2b 60 60 3c eb 0f 53 bc
       0.0034828382 0.008539704 0.013694803 -0.012882213
000250 c7 e7 bb bb cc 35 83 bb 39 a0 53 bb 56 24 96 3c
       -0.005734417 -0.004004216 -0.0032291545 0.018327873
000260 27 35 e1 ba 0d 9e 88 bb 1b 9d 50 bc e7 41 76 3c
       -0.0017181978 -0.0041692317 -0.012732769 0.015030361
000270 02 ab 41 3c 69 c2 3d bc 4f 86 48 3c a7 fc d3 38
       0.011820557 -0.0115819955 0.012239053 0.00010108324
000280 72 f4 93 bc 97 ce 2e bc f9 be 5a bb 4d e8 92 bc
       -0.018060897 -0.010669372 -0.0033377989 -0.017933035
000290 79 b5 91 3c 58 ab 55 3c c3 27 f7 bb e6 8d 93 bc
       0.017786728 0.01304134 -0.0075425818 -0.018011998
0002a0 8a 3f bf bc 82 0f 0a bc cf 57 08 3c 75 b0 9c 3c
       -0.023345727 -0.008426549 0.008321716 0.01912711
0002b0 b9 0d 2a bc 52 82 a7 3b 06 df 86 3c 78 84 50 bc
       -0.010379248 0.005111971 0.016463768 -0.0127268955
0002c0 4b b9 76 3b 0f a6 a6 ba 7e 22 56 3c 5d f9 ca bb
       0.0037647064 -0.0012714284 0.013069747 -0.006194277
0002d0 49 11 7c ba 98 1e 5d 3c e5 4e 2c 3c 57 ab 06 3c
       -0.0009615613 0.013496064 0.010516857 0.008219562
0002e0 2d b9 99 bc a3 6b c9 3b f4 07 17 bc 54 f4 bc bb
       -0.018765057 0.0061468645 -0.009218205 -0.005766431
0002f0 ff d9 dc 3c 0f 7d d5 ba 07 8c 2a 3b c1 6d 25 3b
       0.026959417 -0.0016287881 0.0026023404 0.002524242
000300 a5 c7 0a 3d 2c 1f ee bb 33 20 7b 3b 25 81 19 3c
       0.033881802 -0.0072668996 0.0038318753 0.009369169
000310 f1 2d 34 bc 6a 8c 72 3b fa 10 21 3c 15 e5 66 ba
       -0.010997281 0.0037009963 0.009830708 -0.00088079396
000320 25 7b 01 3c f9 cb 1e bb 1c d7 a7 3c dc 0b 5e 3c
       0.007902895 -0.0024230464 0.020488314 0.013552632
000330 b7 ee 89 3b 8a 86 03 bb 1e 47 9e bb 69 8d bb 3b
       0.004209365 -0.0020069205 -0.004830255 0.0057236445
000340 14 c9 1e bc 53 93 18 bb 6f ba d3 3b ab 69 b4 bb
       -0.009691495 -0.0023281171 0.0064614336 -0.0055057607
000350 61 b7 e7 bc f0 bc 39 3a d8 fc c9 3b b5 79 05 bc
       -0.028285684 0.0007085344 0.0061641745 -0.008146693
000360 fc 01 91 bb f6 e4 35 bc a4 d5 09 3a 12 93 f2 3c
       -0.0044252854 -0.011101952 0.000525797 0.029611144
000370 93 6c eb b9 98 ff 26 bc 99 0c 56 3b 98 39 aa 3b
       -0.00044903587 -0.010192774 0.0032661317 0.005194854
000380 44 66 96 bc 38 f5 32 3c 24 2b 70 bb 7d 2e 36 3b
       -0.01835931 0.0109227225 -0.0036646808 0.0027798705
000390 69 12 78 bc 39 f0 4e bc e1 a0 da ba bd 9e 88 3a
       -0.015141108 -0.012630516 -0.0016680026 0.0010423284
0003a0 bd 49 77 3c 90 c5 ab bc 61 da 52 bc f8 db ba bb
       0.015093264 -0.020968229 -0.012869448 -0.005702492
0003b0 35 42 10 3c be e5 71 bc c6 3f 53 3c fb 53 d7 bc
       0.0088048475 -0.014764247 0.012893623 -0.026285162
0003c0 cf 18 ab 38 34 2a c7 3c fb b2 0b bc 41 98 52 3b
       8.1585364e-05 0.024312116 -0.008526559 0.0032134207
0003d0 38 78 65 bc 2d 22 8f bc 05 f4 86 3b 6e ef 53 3c
       -0.014005713 -0.017472351 0.004118445 0.012935502
0003e0 12 b0 9d bb 51 20 04 bc ab 7d 53 3b 4c 81 5e bc
       -0.004812249 -0.008064345 0.003227095 -0.013580631
0003f0 58 da 37 bc ac 36 1b 3c 0b 5b 0f bc 9a b3 05 3c
       -0.011221491 0.009473484 -0.008749734 0.008160496

network_body._body_endoder.seq_layers.0.bias f4 [128]
000000 70 1d 22 3c 61 b8 38 ba 32 9d af 3b 06 76 9b 3b
       0.009894714 -0.00070465176 0.0053593153 0.004744294
000010 0d 19 9d 3a 8f 42 9c bb af d2 85 3b 25 8c ff 3a
       0.0011985615 -0.0047686766 0.0040839533 0.0019496722
000020 3e 3b 7c ba 8c d3 7d bb 50 80 90 3b 2e 86 93 bb
       -0.0009621865 -0.0038730828 0.0044098273 -0.0045020794
000030 ae 71 69 bb fe 8b 6f 3b fa fa f9 3a a7 1a ec bb
       -0.0035620737 0.0036551948 0.0019071989 -0.0072053256
000040 64 ae 0a 3c 85 36 c5 3b 31 5c 4a ba bf 78 8a 3b
       0.0084644295 0.006018462 -0.0007719426 0.00422582
000050 05 a2 26 3b 85 9e 8d bb 4d 76 ed bb 55 44 34 bb
       0.002542616 -0.0043218755 -0.0072467686 -0.002750655
000060 69 72 b2 bb 39 9d fb ba 01 01 93 3b d5 e8 2e bb
       -0.0054457677 -0.0019196636 0.0044862037 -0.0026689072
000070 01 23 13 bc c7 b1 be ba c1 37 f7 bb 2a f4 5a bb
       -0.008980514 -0.0014548831 -0.007544488 -0.0033409693
000080 22 2d e1 3b 86 44 f0 3a 13 10 37 3c bd 80 78 3b
       0.0068718353 0.0018330968 0.011173266 0.003791853
000090 cc e0 75 3b 3a d8 1a 3c 88 83 18 3b 54 09 2d 3b
       0.0037518023 0.0094509665 0.0023271758 0.0026403265
0000a0 21 dc af 3b db 57 b4 39 5d 8b 47 bc 18 6e d0 ba
       0.0053668176 0.00034397733 -0.012179223 -0.0015901951
0000b0 41 2f bc 3a 16 97 80 bb 87 32 c6 3b f9 aa d2 3a
       0.0014357344 -0.003924261 0.006048504 0.0016072682
0000c0 9b 59 1a bb 79 9a 0f bb ca c9 9f bb 72 91 00 3b
       -0.0023551944 -0.0021912141 -0.00487635 0.0019617942
0000d0 fd f5 b1 3b 72 f4 9f 3b aa 39 07 3c 74 9b 06 3a
       0.0054309354 0.004881435 0.008253494 0.00051348587
0000e0 e7 78 07 bc 7e 34 e5 3a 7e e0 88 3b 7e a6 51 3b
       -0.008268571 0.0017486957 0.004177152 0.0031990106
0000f0 64 25 0e bc f1 54 86 bb 60 bd f0 bb 3a 19 e2 bb
       -0.008675907 -0.0040994813 -0.007346794 -0.00689998
000100 aa 1e 15 3c 4d 00 2d 3c 55 69 a9 3b 70 e3 b6 3b
       0.009101549 0.010559154 0.0051700273 0.005581312
000110 82 23 e9 bb b2 36 8c bb ad b4 ad bb 2d dc 48 bb
       -0.0071148286 -0.004278981 -0.0053010792 -0.0030648813
000120 4a 0a 87 3b 8f 8f 68 3a 68 75 a1 ba a6 1a 15 bb
       0.0041210996 0.00088714896 -0.0012318315 -0.002275148
000130 1a 0a 07 bc 5d ff 42 bb 43 79 01 3c df a0 c1 3a
       -0.0082421545 -0.002975426 0.007902446 0.0014772675
000140 27 d0 df bb d6 60 a5 bb 1c 56 04 3c 85 9f 17 bc
       -0.0068302336 -0.005046944 0.008077171 -0.009254341
000150 d7 31 a3 b9 62 89 3d 3c 1b ed e0 bb 24 fc 1b 3c
       -0.00031126916 0.011568399 -0.0068642027 0.009520564
000160 3a 0a b9 bb 8a ff a0 bb 0c ac 61 3a 2b 9a 02 3c
       -0.005646971 -0.004913275 0.0008608706 0.007971327
000170 ce 84 3d 3b f2 6d 85 bb 62 4c 22 3c af 9b 67 bc
       0.002891827 -0.0040719444 0.009905906 -0.014136239
000180 e7 32 ef 3b 72 cf 03 bc 67 48 3c bc 9f c4 24 3b
       0.007299769 -0.008045064 -0.011491871 0.002514161
000190 82 44 4a 3b 15 d2 15 bb 33 1a 8a 3b 3a 5b 31 3c
       0.0030863588 -0.0022860814 0.004214549 0.010824973
0001a0 65 9d 59 3b 1d 27 05 3b 8a 30 d9 bb 71 22 b5 bb
       0.0033205387 0.0020317503 -0.0066281008 -0.0055277874
0001b0 67 7c 5f 3b cd b3 27 bc 5f 43 58 3c 76 39 28 3c
       0.003410125 -0.010235739 0.013199656 0.010267606
0001c0 89 0c c1 3b 27 23 8d bb 24 a9 aa 3b d0 45 d5 bb
       0.005891387 -0.004307169 0.0052081514 -0.0065085664
0001d0 d8 13 66 b8 a2 a4 45 3b d2 93 ec 3b 74 9d ef 3b
       -5.4854754e-05 0.0030157943 0.00721977 0.007312471
0001e0 4a 3e 60 ba f8 82 66 bb 65 59 28 bb 29 b0 ad 3a
       -0.00085542037 -0.0035173278 -0.002568805 0.0013251352
0001f0 b7 40 fd bb c5 b7 04 3c 9f 2c 1d ba d5 b5 1a bb
       -0.007728662 0.008100455 -0.0005995724 -0.0023606915

network_body._body_endoder.seq_layers.0.weight f4 [128, 75]
000000 36 03 f7 3c e8 a1 54 3d a6 43 ea 3d 0b 36 1f 3e
       0.030152898 0.05191222 0.11438684 0.1554796
000010 7c 56 2b 3e 2b 47 62 3c d3 d1 0a bd 8a 4e 24 be
       0.1673221 0.013810913 -0.03389151 -0.16045585
000020 95 3e d9 bd c2 ba 2d be 27 5a 8f 3e c7 e0 f6 bb
       -0.1060764 -0.16965774 0.27998468 -0.0075341198
000030 9f 95 53 3d d8 01 e4 3d 74 e2 21 be 6f 88 bb 3d
       0.05165636 0.11133164 -0.15809041 0.09156882
000040 2a d7 69 bd 7b d0 00 be fc 93 c9 3d 21 1e 0f be
       -0.057089962 -0.12579529 0.09842679 -0.13976337
000050 f0 5a 68 bd 98 0b 20 3e 57 54 ee bd ed 08 8f bd
       -0.05672735 0.15629423 -0.1163718 -0.06984124
000060 e3 18 56 bd bd 3f 58 bd cc 6d 92 3d c2 31 36 3c
       -0.052269828 -0.05279516 0.07149848 0.011120262
000070 6e 7f 5f 3e 02 2c 76 bb 69 2f e7 3d af d5 a0 bd
       0.21825954 -0.0037562852 0.1128834 -0.07853257
000080 2f 3d 13 bd 74 91 9d bc 55 5d 11 be ac 73 07 3d
       -0.03594702 -0.019234397 -0.1419576 0.033069298
000090 6e 8e 03 3d e5 6c 5d bd 69 92 5e bd bd 68 0a 3c
       0.032118253 -0.054058928 -0.054338846 0.008447823
0000a0 3c 8d 7a bb 68 dd 25 bd b4 b3 46 bb 49 d6 9a bc
       -0.0038231155 -0.040494353 -0.0030319514 -0.018901007
0000b0 bf 2f 93 3e 60 70 d9 3d d3 30 21 3e 68 20 83 bd
       0.28747365 0.10617137 0.15741281 -0.064026654
0000c0 b5 fc 99 bd 8b 2d 86 3c 10 db 8e bd 72 d7 25 bc
       -0.07518903 0.016379138 -0.069753766 -0.010122167
0000d0 c8 19 d4 ba 0f b0 07 3d b5 d2 8d be 40 a5 24 be
       -0.0016182 0.033126887 -0.2769982 -0.16078663
0000e0 e4 2e af bd 92 31 c3 bd 13 71 3a bd ee f7 98 3d
       -0.085538656 -0.09530939 -0.045517992 0.07469164
0000f0 b5 0b 21 be 9d 82 c1 3d e6 bb 15 bd 83 20 cc bc
       -0.15727122 0.09448741 -0.036556147 -0.024917847
000100 c9 b5 b7 3d bc 2a c2 bd 68 60 a1 bd 1c c5 8a 3e
       0.0897022 -0.09480807 -0.07879716 0.27103508
000110 aa b6 f7 3b 0d a4 ad 3d db e9 25 bc 23 d1 97 bc
       0.007559617 0.08478556 -0.010126556 -0.018532341
000120 9c 92 d1 bd e2 3f f6 3d e7 12 91 bc ad e4 db bd
       -0.10233042 0.120239034 -0.017709209 -0.10736976
000130 dc 82 1e 3d a2 6f a3 bd 23 e4 bb bd 3f 5d aa bd
       0.038699016 -0.07980277 -0.09174373 -0.083185665
000140 f1 13 f2 bd 13 51 87 be c5 41 65 3d fe e0 35 38
       -0.1182021 -0.26429042 0.055970926 4.3363303e-05
000150 68 04 c2 bd ea f4 7d bd 1f c1 20 3d d2 d7 c4 3c
       -0.09473497 -0.062001146 0.039246675 0.024028692
000160 19 18 a5 3d cd 36 0f 3e d1 6e 22 3e f0 a2 89 3d
       0.08061237 0.13985749 0.15862586 0.06720531
000170 95 ce 88 bd 4b fd 51 3e ef 1f 1a 3d ce 8b 68 3d
       -0.066800274 0.2050678 0.03762811 0.056773953
000180 f0 fc 0a bc da 3d c7 bd fb 85 26 3d d2 c4 b6 3b
       -0.008483157 -0.09728594 0.040655117 0.005577662
000190 fc cc 93 3d 8e 87 d0 bd 66 9b d1 bd c8 59 cf 3d
       0.07216832 -0.10182105 -0.10234718 0.10124546
0001a0 eb ee 15 3d 01 5b 95 3e ae 08 12 bd 83 82 df bd
       0.036604803 0.29170993 -0.03565281 -0.10913565
0001b0 90 43 24 be ae 12 b2 3c f2 5b dc 3c 58 32 8a bd
       -0.16041398 0.021737423 0.026899312 -0.067478836
0001c0 e0 45 59 3d 31 e7 33 bc f3 0e 12 3e b4 86 9e bd
       0.053045154 -0.010980413 0.14263515 -0.07740536
0001d0 06 08 88 be 7d c1 86 bd a3 bb 8d bd f8 85 02 3d
       -0.2656862 -0.06579874 -0.069205545 0.031866044
0001e0 18 e3 85 3e e0 f3 b4 3d e6 91 0f bd 6b d1 cf 3c
       0.2614982 0.08835578 -0.03505125 0.025368413
0001f0 8e 63 2f 3d bf d5 98 3d 62 f8 fc 3d 4d 47 0c 3d
       0.042819552 0.07462644 0.12352063 0.034247685
000200 06 c5 5e 3c a9 f5 f2 bd 73 58 3e bd a0 50 9f bd
       0.013596779 -0.11863262 -0.04647107 -0.0777905
000210 3b 1e 25 bd 3d 0c d3 3c 8c 46 a7 bd 6c 6a bd bc
       -0.040312033 0.025762672 -0.081677526 -0.023122035
000220 32 28 9d 3d b2 52 62 3e 28 4d 16 be 87 7d 28 3d
       0.07673682 0.22101858 -0.1467787 0.041135337
000230 33 3c cc bd ec bf 16 bd 33 d8 04 3e ee 79 96 3c
       -0.099724196 -0.036804125 0.12973098 0.018368687
000240 d2 18 75 3d ad b0 54 be f1 45 2d be b5 bb bf bc
       0.059838124 -0.20770521 -0.16921212 -0.023404935
000250 63 e5 37 bd 2d 51 cb bd 82 c4 7f bd d2 94 f6 3d
       -0.044896495 -0.099275924 -0.062443264 0.12040104
000260 73 5d 93 bd b5 94 d7 bd 4b 88 c5 3d 7f 3d 1c 3e
       -0.071955584 -0.105264105 0.096451364 0.15257834
000270 e9 26 8b 3c 18 0a bb bd d6 49 c1 bd ca 8e 06 be
       0.016986327 -0.091327846 -0.09437911 -0.13140407
000280 a6 47 45 3d ae 17 68 bd b2 3f 2d 3d 71 3f ab 3c
       0.048164032 -0.056663208 0.042297073 0.020904275
000290 d3 25 09 bc fc 49 d6 3d e9 84 13 be 3f 6e 37 bd
       -0.008370834 0.1046333 -0.1440617 -0.044782873
0002a0 bf c6 83 3d db 5d 9a 3c 1d 1d 3a bd d2 74 25 be
       0.06434392 0.018843582 -0.04543792 -0.16157845
0002b0 b4 2d 42 3d 11 17 cb 3d 69 9c cb 3d 2c 94 e3 3d
       0.047406867 0.09916509 0.09941942 0.11112246
0002c0 3e fe 70 3d bc 7e 33 bd fe 19 73 be 2d 06 1d 3d
       0.058836214 -0.043822035 -0.23740384 0.038335968
0002d0 91 f0 02 be d5 48 b8 3d 6b f1 6c be c0 6a ea bc
       -0.12787081 0.089982666 -0.23138969 -0.028615355
0002e0 2c 34 be bc 09 e4 6b 3d 51 4f ee 3d 7a bf 56 ba
       -0.023218237 0.05759052 0.11636222 -0.00081919844
0002f0 60 c2 6d 3b de b4 35 bc fa c9 10 3d ee 79 8a 3c
       0.0036279187 -0.011090485 0.03534887 0.016903844
000300 f7 e7 4f 3e 9f b9 27 bd 5f 1c 27 3c bf 51 21 bd
       0.20303331 -0.040948506 0.010199635 -0.0393846
000310 17 af c1 3d bc a4 a2 3a 68 f3 c9 bc 47 44 b0 bc
       0.09457224 0.0012408714 -0.024652198 -0.021516932
000320 e5 f2 c4 bd 34 9f 91 bd 56 db cf 3d ff df c0 3d
       -0.09616641 -0.07110444 0.10149257 0.09417724
000330 58 12 8b bd 93 dd 9e bd 67 c1 58 3d 07 a8 d2 3d
       -0.06790608 -0.07757106 0.052918818 0.10285955
000340 4b b1 42 bd e9 1d 9b bd 3a 71 cc 3d 25 c6 6d 3d
       -0.04753236 -0.07574064 0.09982534 0.058050293
000350 30 a6 48 3d 18 8c 42 3c 68 15 10 be 6a bd dc 3d
       0.048986614 0.011874221 -0.14070666 0.10778315
000360 0c 72 06 3e 51 72 b7 3d 91 a3 f1 bc 44 11 4d be
       0.13129443 0.08957351 -0.02949694 -0.20026118
000370 24 11 11 3e 69 ca 6e 3d 9a 85 03 3d 51 a8 8c 3d
       0.14166695 0.058298502 0.032109834 0.06868041
000380 7b 4e 21 3d ea c5 1f 3e 97 23 79 bd 78 2c 1a 3e
       0.039381485 0.15602842 -0.060824957 0.15056026
000390 12 ba 22 be e2 ec 69 3d 9f e3 ef 3d f7 8c 6d 3e
       -0.15891293 0.057110675 0.11713337 0.23198305
0003a0 7a cb 0e 3e 34 44 cf bd 5c 9c 65 3e 2b 88 d2 bd
       0.13944808 -0.101204306 0.22422928 -0.10279878
0003b0 5f d4 8d bc c8 94 ac bd 3f 64 75 bd fb 9a ba bd
       -0.01731318 -0.08426815 -0.059910055 -0.091115914
0003c0 ad e6 2e bc 23 6a 2e 3d 8f e8 14 3d cc 6a 08 3e
       -0.010675115 0.04258169 0.036354598 0.1332199
0003d0 43 6d fd 3c ed 3f d4 3d d2 40 29 bd 1b 0a 3e 3e
       0.03093589 0.103637554 -0.041321583 0.18558542
0003e0 4a 6e f0 3c 70 86 97 3c be f8 1e be 22 35 9b bd
       0.029349465 0.018496722 -0.15524575 -0.07578494
0003f0 99 39 fe 3c 2b c4 0d bc 43 61 ed 3d 92 d5 06 bd
       0.031033324 -0.008652727 0.11590817 -0.03291852

network_body._body_endoder.seq_layers.2.bias f4 [128]
000000 8a eb e5 3b ce 89 2f 3b d8 8b d4 bb 92 43 22 ba
       0.007016604 0.002678502 -0.0064863972 -0.00061898783
000010 b3 3a 2d bc d4 6c 90 3b 2e 2d 3b ba 73 f9 02 bc
       -0.010573077 0.0044075046 -0.0007140216 -0.007994044
000020 a4 53 29 3c e8 52 7f ba 44 89 80 bb b9 46 0e bc
       0.010334883 -0.0009739832 -0.0039226133 -0.008683854
000030 6c 68 8a ba d9 e7 93 3b 18 2e f3 bb 91 69 f2 3b
       -0.0010559685 0.0045137224 -0.0074212663 0.0073978384
000040 55 0a d9 ba a6 8a 61 bb 13 69 08 3c 7c 33 26 bb
       -0.0016558865 -0.0034414916 0.008325833 -0.0025360277
000050 c5 b3 20 ba 2f f8 52 3a 17 27 81 bb f5 82 dd 3b
       -0.00061303034 0.00080478465 -0.0039414275 0.006759996
000060 16 0b 6b 3b 80 d0 ea b9 8a ad 9f bb 6d 61 f9 39
       0.0035864762 -0.00044787303 -0.0048729824 0.0004756557
000070 76 57 08 3c ac 12 1b bc 8b f7 23 bb 9f 77 39 3c
       0.008321634 -0.009464901 -0.0025019373 0.011320024
000080 78 b2 16 bc 3e be 2f bb 4d ec fe bb 64 59 a4 bb
       -0.009197824 -0.0026816274 -0.007779634 -0.005015539
000090 d8 0a bc 3b 69 40 16 3b 70 18 df bb 6d 39 69 bb
       0.0057385974 0.0022926575 -0.006808333 -0.0035587207
0000a0 5d a8 71 bb fc 4a 72 3b 9c 7a 83 3b 99 ba ac 3b
       -0.0036874034 0.0036970964 0.004012419 0.0052712676
0000b0 37 11 22 3b 83 10 83 3b 2e b4 0b bc 1d 33 af 3b
       0.00247295 0.003999771 -0.008526845 0.0053466693
0000c0 05 44 bd 3b bc 75 6d 3b d2 c8 0c 3c e9 ec c1 3b
       0.005775931 0.0036233505 0.008592801 0.0059181345
0000d0 ae f7 06 3c c1 3d 6f ba 57 b3 29 bb 05 88 eb 3b
       0.008237762 -0.00091263285 -0.0025894248 0.0071878457
0000e0 6f fa 4a bb cf 5f b5 3b 52 ee 04 bc ab 2d ef 3a
       -0.0030972024 0.005535103 -0.008113461 0.0018247863
0000f0 bc 22 c3 3b 85 ad c8 3b fb fb bd 3a ea 87 9c bb
       0.0059550684 0.0061242008 0.0014494652 -0.0047769444
000100 b7 af 17 3c 06 e2 39 3b 16 27 2b bb b6 09 94 bb
       0.009258202 0.002836348 -0.0026115826 -0.004517759
000110 72 ad c0 bb 1d 5d 8f 3b 8b 76 ce 3b 55 c8 98 bb
       -0.0058800513 0.0043751136 0.0063007525 -0.0046625533
000120 8b 9a b0 3a 3c 85 05 3b 43 aa e1 3b b7 31 e3 bb
       0.0013473792 0.0020373603 0.006886752 -0.0069334167
000130 31 c6 4a 3c 86 6f 2a 3c 28 e0 ae 3b 19 82 20 3b
       0.012376354 0.010402566 0.00533678 0.0024491607
000140 6f 89 f5 bb 59 3d 41 bb 58 f2 e3 3b 6d 05 e7 3b
       -0.00749319 -0.002948603 0.00695638 0.0070502074
000150 1f 60 25 bc 7f 90 a9 3b ce c6 af ba 24 bf ba bb
       -0.010093718 0.005174696 -0.0013410689 -0.0056990553
000160 c4 b9 37 bb 4e a6 44 3b 64 4b fc 3a 7b 12 41 3a
       -0.002803431 0.0030006352 0.0019248542 0.00073651195
000170 e2 6d ce 3b 9f be 26 bb c6 33 aa 3b 0e 24 b9 b9
       0.00629972 -0.002544321 0.00519416 -0.00035312813
000180 36 81 c2 bb a5 22 61 3b f6 2b 9a 3b 81 4d c2 bb
       -0.0059358133 0.0034352925 0.0047049476 -0.0059296493
000190 b7 b6 11 bc c2 0e dd 3b 7d 63 a4 3b 0d 98 09 3b
       -0.00889366 0.006746144 0.0050167427 0.002099517
0001a0 a6 2c b1 bb 5e b0 18 bb 77 b1 51 3b a6 84 fc ba
       -0.005406934 -0.0023298482 0.0031996646 -0.0019265607
0001b0 f7 84 5b bb 6e 20 76 3b 0e 4e 97 3a ae 4b a3 3b
       -0.0033496001 0.003755595 0.0011543648 0.004983387
0001c0 3a 8c 49 bb 7d d1 45 bb 3c 67 0c 3c a6 d3 03 bc
       -0.0030753748 -0.003018468 0.008569535 -0.008046066
0001d0 62 ad f5 bb f0 fa 0c bc 5f 30 4f ba ad 55 38 3c
       -0.0074974755 -0.00860475 -0.0007903631 0.011250895
0001e0 5d ee 4c 3b ca aa b0 ba 34 81 8f bb 79 45 82 3a
       0.0031270005 -0.0013478633 -0.004379416 0.0009938917
0001f0 5d 72 d8 bb 60 7f bb bb 19 75 87 b9 1d a2 af 3b
       -0.00660543 -0.0057219714 -0.0002583645 0.0053599016

network_body._body_endoder.seq_layers.2.weight f4 [128, 128]
000000 92 2f b5 bc 3f c8 49 3d ac 6d ed bc 9a d2 d5 3d
       -0.02211741 0.049263235 -0.02898296 0.1044056
000010 e4 27 5e bd 15 f7 c1 bb 9c f1 09 bd 81 ab 15 3d
       -0.05423726 -0.005919347 -0.033677682 0.036540512
000020 99 fe e0 bd 68 fe 2d bd 9b df db bc 38 3f 71 bd
       -0.10986061 -0.04247895 -0.026840022 -0.05889818
000030 54 39 70 bd f3 57 b4 bd e7 7f 84 3c 49 b7 74 3d
       -0.058648422 -0.088058375 0.01617427 0.059745107
000040 f6 9a 0a be e8 93 df 3c 38 43 c0 3c 9c 10 08 bb
       -0.13535675 0.027292207 0.023469552 -0.0020761853
000050 fe 96 f5 3d e1 0e 05 3e 83 e8 11 3d 04 9b 55 3e
       0.1199169 0.12993957 0.03562213 0.20859915
000060 08 1f 2e bd 06 a1 a3 bd 47 ae 91 bc 58 a7 e5 bd
       -0.042510062 -0.07989697 -0.017783297 -0.11213559
000070 0c 67 9b 3d d2 41 61 3c ea fc 09 bc e6 9f 7f 3d
       0.07588014 0.013748603 -0.008422116 0.06240835
000080 31 f1 19 3d 6e 79 6a 3d e8 f0 e1 3d 30 e5 ae 3d
       0.037583534 0.05724471 0.11032277 0.08539808
000090 0e 55 0d 3e 0d 1a 09 3d 66 1b ba bd a3 ed 6e 3c
       0.13801977 0.03347211 -0.09087257 0.014583024
0000a0 46 95 50 3d 9e 17 df bd 18 d4 79 3c 77 c2 5d bd
       0.05092361 -0.108931765 0.015248321 -0.054140534
0000b0 06 8c bb bd e4 47 ee bd 16 30 69 3e fd 4d 2b bd
       -0.09157567 -0.11634806 0.2277225 -0.041822422
0000c0 66 e0 ad 3d 38 0b 36 3d d0 60 1d 3e 9f 9e 0a be
       0.08490066 0.044444293 0.15368962 -0.13537072
0000d0 63 f3 e2 3d 27 57 da 3c df b2 29 bc f4 c8 7c 3c
       0.110815786 0.026652886 -0.010357588 0.01542877
0000e0 df d6 53 3c 02 87 a4 3a cd e6 8e bc b6 97 45 bd
       0.012929647 0.0012552442 -0.017444039 -0.048240386
0000f0 f1 34 43 3d 46 6b d8 bd 5c bb 04 3d c0 ef e3 bd
       0.04765791 -0.10567336 0.032405242 -0.11129713
000100 86 ca 4e be ef ee 05 bd 60 a5 99 bd 6c 24 b1 3d
       -0.20194444 -0.032698568 -0.07502246 0.08649525
000110 7e 5b 33 3d 9c 25 84 3c 9d 4c b3 bd d3 c5 8a 3d
       0.043788426 0.016131215 -0.08754847 0.06776013
000120 4e 17 61 3d 82 7b a6 3d 42 ff 63 3d 02 c9 9d 3d
       0.054953866 0.08129026 0.055663355 0.07704355
000130 33 3f c8 bd fd c3 dd bd 3b 0a 86 3d a7 20 90 bd
       -0.09777679 -0.108283974 0.0654492 -0.07037478
000140 df b7 84 bd c9 0c 84 bd ce 8e 2b bd 15 e8 a0 bd
       -0.06480383 -0.06447751 -0.041884236 -0.07856766
000150 00 88 64 bc e4 f7 66 bd 8c a8 6b bd ae 6f d1 bc
       -0.013948441 -0.05638875 -0.057533786 -0.025565948
000160 8e 2a be 3d 11 49 0c 3d e1 f6 45 bd 9e be fa bc
       0.092854604 0.03424937 -0.048331145 -0.030608471
000170 ed 27 96 3e 8b 6b 1b bd d3 a9 31 3e 62 ec 0a ba
       0.29327336 -0.037944358 0.17349939 -0.0005299506
000180 08 04 ae 3d c5 f8 c8 3c 58 51 04 bd a3 78 2c 3d
       0.08496863 0.024532685 -0.032304138 0.042107236
000190 d0 55 8c 3d fe 14 c9 3d 65 41 db 3d 92 1e 6a 3c
       0.06852305 0.09818457 0.107058324 0.014289515
0001a0 e2 d6 32 bd a4 76 c1 bd 91 1e 1e 3e 21 d4 4e 3c
       -0.04366196 -0.09446457 0.15441348 0.012623818
0001b0 ad 99 3c bc a8 ee ed 3c 5f f6 90 3d c8 a1 e4 3d
       -0.011511249 0.029044464 0.070782416 0.1116367
0001c0 83 b8 85 bc 66 65 5a be fe 5c bc 3d f6 e8 44 bd
       -0.016323334 -0.21327743 0.09197424 -0.04807373
0001d0 7e cc 85 bd 47 bf a5 bd e7 4c 00 3e ac 6b 41 bd
       -0.065331444 -0.08093124 0.12529336 -0.047221825
0001e0 8e ea b4 3b 90 ad 4f 3d d9 31 51 bd 7c c5 e7 bd
       0.005521125 0.05070263 -0.05107293 -0.11316964
0001f0 d2 ed 2e bd 90 32 05 3e 8b b3 af 3b b9 c3 09 be
       -0.042707272 0.1300757 0.0053619794 -0.13453569
000200 8b d3 09 bd 0d 9b 06 3d 46 52 f8 3d f3 e8 f8 3d
       -0.03364901 0.03286271 0.121250674 0.121538065
000210 97 ae b7 bd c4 80 38 3e 31 a0 2e 3d 29 a8 18 3e
       -0.08968847 0.1801787 0.04263324 0.14907898
000220 6f 0c 3f 3c 10 38 b0 bd b4 f4 70 bd e4 7f 7f 3c
       0.011660679 -0.08604443 -0.058827117 0.015594456
000230 d5 d6 12 3d 74 02 1b 3c 8b ae 38 be 4b 6b 08 bd
       0.03584941 0.009461034 -0.18035333 -0.033305448
000240 5c 7b 16 bd de f7 16 bd b2 2a cb bd 6e 14 89 3d
       -0.03673874 -0.03685748 -0.09920253 0.0669335
000250 a5 86 2f 3e 42 80 82 3c 2b 50 1f be 62 b7 bf bc
       0.17141207 0.015930299 -0.15557925 -0.023402873
000260 cd 59 e2 3d 68 87 96 3d cf 95 34 3d 41 dd d9 bd
       0.110522844 0.073500454 0.04408818 -0.10637904
000270 5c f9 24 3d 1d 57 2c 3e 3f cc a4 3c 74 37 91 3d
       0.04027687 0.16830106 0.020116923 0.07090655
000280 e7 60 e2 ba df 3e 82 bd bc f1 55 3c f4 51 b2 3d
       -0.0017271311 -0.06359648 0.013058122 0.087070376
000290 d5 69 d9 bd 77 fe 84 3d 77 c9 d1 3d 6e 59 e6 bb
       -0.10615889 0.06493848 0.102435045 -0.007029704
0002a0 19 b8 20 bc 1c a1 82 3d 44 bd 71 bb db 93 55 be
       -0.009809517 0.063783854 -0.0036886493 -0.20857184
0002b0 01 04 fe 3d 98 ea f7 3d 1f ef 8e 3d 96 df e7 bd
       0.124031074 0.12105292 0.069792025 -0.113219425
0002c0 de f3 c5 bc 76 23 f3 bd 8f d4 d6 3b 8f c8 28 3e
       -0.024164136 -0.11871998 0.0065561007 0.16482757
0002d0 91 75 9a bd 46 4c 2d 3d f4 c9 ba 3d 6e 6e 11 be
       -0.07541955 0.04230907 0.09120551 -0.14202282
0002e0 26 59 35 be 7a b1 5b 3e 4f f7 95 bc 65 21 a3 3d
       -0.17709789 0.2145442 -0.018306402 0.07965354
0002f0 6e e6 76 bd 1e 5b c5 3d f0 41 8e 3d e3 d3 b5 3c
       -0.06027835 0.0963652 0.0694617 0.022195762
000300 e0 b6 14 be 8a 34 8b bd 0f 74 1d 3e 9f 71 12 be
       -0.14522886 -0.067971304 0.15376304 -0.14301156
000310 f9 b2 82 bd 62 86 d3 bc 3b 7d d5 3d 53 38 21 be
       -0.063817926 -0.025820915 0.104242764 -0.15744142
000320 ab 2b ee 3d ce 29 f1 3d a9 86 aa 3d 8d 28 97 3e
       0.11629423 0.11775552 0.08326466 0.29523125
000330 22 b8 3b bd 36 8c 48 3c 12 e4 a3 3d dc dd f4 3c
       -0.0458299 0.01224046 0.08002485 0.029890947
000340 65 5e 8a bd 05 de ca 3b 3e 72 b6 bd 98 2b 8e bd
       -0.067562856 0.0061910176 -0.08908509 -0.069419086
000350 be d2 7d bd 07 5e fc bc 1c aa aa bd c9 29 71 bd
       -0.061968558 -0.030806554 -0.08333227 -0.05887774
000360 50 fc ca bd 76 c5 3b 3d bc 1f 1b 3e f4 4e 88 3c
       -0.09911406 0.04584261 0.15148824 0.01663921
000370 fb 02 a9 3c 6a 86 fd 3c 41 3c 8b 3d 69 5d 23 be
       0.020631304 0.030947883 0.06798602 -0.15953602
000380 ce 49 89 3c 68 f8 6c be 13 06 1d bd a2 ed 81 bd
       0.016758826 -0.23141634 -0.03833587 -0.06344153
000390 2a f6 1b be be c4 9f 3d 59 61 0c 3d 4e 30 19 3e
       -0.15230623 0.078011975 0.034272525 0.14959833
0003a0 c8 1c b8 3d 10 c1 ff 3c 75 c7 15 be 12 b5 a7 bd
       0.089898646 0.031219989 -0.14626868 -0.08188833
0003b0 e6 d7 e8 bc 7a 86 70 bc f6 c1 5e bd 72 76 4b bd
       -0.02842326 -0.014680499 -0.054384194 -0.049673505
0003c0 be de 4a bd f4 1d a2 3c 1d 02 5b bd 40 4d 81 bc
       -0.04952883 0.019789673 -0.053468812 -0.015783906
0003d0 c5 f8 e8 3d e9 ec ad 3d ee a4 c1 bb 0c 2c 30 bd
       0.11375574 0.08492453 -0.0059095537 -0.043010756
0003e0 cf 37 d7 3b d3 5b 6c 3d 10 54 38 be 6a 51 33 bd
       0.006567932 0.057704758 -0.18000817 -0.043778814
0003f0 63 3a a7 bd be 38 a4 3e 5d 3c a5 3d 55 b3 70 3d
       -0.08165433 0.3207454 0.08068154 0.058764774
