results/phase2_t5_with_config_3/NPCAgent/NPCAgent-13395.onnx (onnx, 109940 bytes, 9 tensors)

action_model._continuous_distribution.log_sigma f4 [1, 2]
00000000: e3be dbbb caba 17b8
-0.006706105 -3.6175166e-05

action_model._continuous_distribution.mu.bias f4 [2]
00000000: 1132 09bb 51f9 5d3b
-0.0020934383 0.0033870528

action_model._continuous_distribution.mu.weight f4 [2, 128]
00000000: 41ea f0ba 3730 ff3a b3b9 81bb d889 fe3c
00000010: 2977 a5bc 5d8f 1dbd 906d 373c b943 523b
00000020: 37a0 5cbb f01c f03c e8cc efbb 1b2c 2abc
00000030: 69f4 26bc 7951 14bc 1af0 233b 0a4f 223b
00000040: 4fba 063d 1144 8e3b 93bd 0e3c 174a b43a
00000050: ab40 3e3b ce42 c2ba 5e31 3e3c 81c2 dd39
00000060: 0580 0b3b 3397 16bc d4f3 2e3d 822f 68b9
00000070: 7d2a 97bb ad77 6a3a 43b9 62ba 34f7 c338
00000080: b0b7 aabc d527 0abd 56e9 adb9 49c6 fdbc
00000090: 7f2f fcbb 62a9 9abc a845 803a 50a5 3e3b
000000a0: e9d2 493b bc88 41bc 377f aabc 1175 6b3c
000000b0: 69c7 2dbc dfd6 fabb 61e2 583b 7fa6 d6ba
000000c0: 4497 8bbc 0dec 80bd 61d8 033d 99f8 6abc
000000d0: b0d1 91bb 78c0 b73b e198 7c3c c6ad d03c
000000e0: 6efe e9bb 8c0c 873b 0182 1a3c 3e31 1a3b
000000f0: 0b5d 4dbc ca60 22bc 9994 a13c b7c7 87bc
00000100: 6384 353c da92 ff3c d948 44bc eb02 aabb
00000110: 2c67 3f3c 1cde 2b3d 4e0f 1eba 602d c3bc
00000120: 4ac9 983c 422a 34bc d56f 76ba 64d1 8f3b
00000130: 1ade 0d3d a70d 12ba 27fa 9f3b ebd2 ec3b
00000140: 435b d83b 5128 1abc e539 08bc 1c38 2e3c
00000150: fa81 d1bb 157e 5cbc fc4b 02bc 8994 f23a
00000160: 1303 90bc f54b 7f3c b252 d83c aa1b 06bc
00000170: c8bf e23c 1064 3d3b 8f1a 403d df90 4c3c
00000180: 2a95 703c 6f4b a3ba d3a9 8fbb e3ba b3ba
00000190: 2603 e8bc acbf 01bd eadc 2cbd 7147 c73b
000001a0: f6af 06bc dbe1 1bbc 7547 6a3b 47d8 0c39
000001b0: 88c3 f4bc 7ffc 2dbb 65cb b7ba defa 3ebd
000001c0: b7b9 14bc 904d 903c ecd3 053d 111f 2ebc
000001d0: f697 c4bc 2e3c 7ebc cae9 9b3c 6545 ba3c
000001e0: 62a3 66bc 8079 e43a 7daf 3fbb 848c 84bc
000001f0: 3f12 803a 47d2 7f3c 6ffd ca3a f20c 0cbc
00000200: 34dc 83bc 1bd8 cfbb f5b7 9a3c c82a e6bb
00000210: a917 0a3b c7fd 2e3d 42c7 8bbc 311a 303c
00000220: 77c2 d63c 7d37 0a3d dec6 86bc f859 183c
00000230: 7a3c 093d 81fb 493b eccf 17ba b30f 8ebb
00000240: 4eb2 d13b 74c8 633c d706 f53c e248 1a3b
00000250: 4bb3 ec3c 78d3 e2bc 076e 18bc 9afe b6bb
00000260: cc42 47ba 1e38 82bc 6a06 1dbc 5e31 4c3c
00000270: 8480 78bc 8f58 4c3c 19e5 bdba de37 9b3b
00000280: 630f 8bbc 4087 24bc 013f bdbc b0ff 9e3b
00000290: 77b6 843c fc60 11bc a6b0 b8bc 3477 0bbc
000002a0: 6b94 d03b ddc9 00bd 36a6 eabc 5586 dfbc
000002b0: cc6b c93c 10fc 003c 3e6d a5bc 9d90 613c
000002c0: 7cb4 ba3c af75 5b3c 7539 763b ae48 8e3b
000002d0: 7f4c b23b 3228 8b3b a315 c03c 1f47 e63c
000002e0: 089a 2e3b fd94 6b3c 2204 77bc 4ed5 da3b
000002f0: 2ac2 be3c 0a16 f1bb 0ce8 5ebc 0745 123c
00000300: 7ba1 1fbc f36f 02bc 3508 27bc f97f 6bbb
00000310: e517 c1ba 7604 e53b 9706 7b3b c5a4 cfb9
00000320: 04bc 283d f170 9ebc 3325 0a3b 8b0b 01bd
00000330: f2da bf3b 7c15 d83a 038b f5ba fc74 8b3b
00000340: aa18 393d 8952 343c 4336 9ebb eae9 89bc
00000350: 6133 beba 77d2 833c 4323 62bc 5a7a f23a
00000360: 87bc 35bc 8eec a33c 3d66 81bc 53bc 2ebd
00000370: 5304 073c 9f95 4ebc 218e 963a c66f 76bc
00000380: f49e fe3b 9844 333a 7f55 de3b 7f48 2fbb
00000390: 828c 2c3c c348 333d 63b6 033c 7b65 643c
000003a0: ed65 e33c 55fa 473c 1c56 08bb 7d5d 63bc
000003b0: 078b 38bc 311f b83c 7236 b53c ebdd b1b8
000003c0: 8f0c 4bbc 591c 1f3c 6af6 cb3c d41f adbc
000003d0: f3f0 32bc 3120 b43b 96f4 283d 4dd0 2fba
000003e0: d527 d1bb 3bc2 363b f53a 9e3c 95f9 48bc
000003f0: f135 d1bb 86a5 1f3c ef95 80bc 5040 a3bc
-0.001838036 0.0019469325 -0.0039589047 0.031071588 -0.020198422 -0.0384668 0.011195555 0.0032083823
-0.0033664831 0.029310673 -0.007318128 -0.010386492 -0.010190108 -0.009052628 0.0025014938 0.002476635
0.03289252 0.0043416102 0.00871219 0.0013754991 0.0029030244 -0.0014820935 0.01160845 0.00042297321
0.0021286022 -0.009191322 0.042713 -0.00022142942 -0.0046132193 0.00089442247 -0.0008648822 9.34437e-05
-0.020839542 -0.033729393 -0.0003317098 -0.030978339 -0.0076960917 -0.018879596 0.0009786384 0.0029090233
0.0030795878 -0.011812385 -0.020812614 0.0143711725 -0.010606625 -0.007655009 0.0033093917 -0.0016376524
-0.017039903 -0.06295023 0.032188777 -0.014341497 -0.0044500455 0.005607661 0.015417309 0.025473487
-0.007140926 0.0041213688 0.009430409 0.0023527886 -0.01253439 -0.009910772 0.019724177 -0.016574724
0.011078927 0.031197954 -0.011980259 -0.005188336 0.011682313 0.041959867 -0.0006029502 -0.023825347
0.01865067 -0.010996403 -0.00094008195 0.004388975 0.03463564 -0.00055714924 0.0048821154 0.007227292
0.006602676 -0.009409026 -0.008314584 0.010633495 -0.0063936682 -0.013457795 -0.007952686 0.0018507402
-0.01757959 0.015582074 0.02640662 -0.008185307 0.027679339 0.0028898753 0.04690033 0.012485712
0.014684001 -0.0012458394 -0.0043842583 -0.0013712313 -0.028321814 -0.031676933 -0.042202868 0.0060815145
-0.008220663 -0.009514297 0.0035748158 0.0001343201 -0.029878393 -0.0026548204 -0.0014022408 -0.046625964
-0.009077481 0.01761511 0.032672808 -0.010627524 -0.023998242 -0.015517278 0.019032378 0.022738168
-0.014077039 0.0017431229 -0.0029248886 -0.016180284 0.0009771063 0.015614099 0.0015486906 -0.008548008
-0.016096212 -0.0063429005 0.018886546 -0.007024143 0.0021071231 0.04272249 -0.017062787 0.010748432
0.026215775 0.033744324 -0.01645225 0.009298794 0.03350494 0.0030820074 -0.00057911756 -0.0043353676
0.0063994294 0.013902772 0.029910488 0.0023541977 0.028894087 -0.027688727 -0.009303576 -0.00558455
-0.0007601201 -0.0158959 -0.009584049 0.012462942 -0.015167359 0.012472286 -0.0014487832 0.0047368845
-0.01697511 -0.010042012 -0.023101332 0.0048522577 0.016200287 -0.0088732205 -0.02254517 -0.008512307
0.006365349 -0.03144251 -0.028643709 -0.027285734 0.024587534 0.007872596 -0.020193692 0.013767389
0.02279114 0.013394757 0.0037570868 0.00434216 0.005441248 0.004246735 0.023447817 0.028110085
0.0026642103 0.014378783 -0.015076669 0.00667826 0.023285944 -0.0073573636 -0.013605129 0.00892759
-0.00974309 -0.007961261 -0.010194828 -0.0035934432 -0.0014731853 0.006989057 0.0038303488 -0.0003960488
0.04119493 -0.019340964 0.0021079301 -0.03150515 0.0058549577 0.0016485895 -0.0018733445 0.004255889
0.045189537 0.011006006 -0.004828246 -0.016835172 -0.0014511162 0.016091568 -0.013802352 0.0018499598
-0.011092312 0.020010259 -0.015795821 -0.04266007 0.008240777 -0.012608915 0.001148645 -0.015041297
0.0077704135 0.00068385294 0.0067850943 -0.0026746092 0.010531547 0.043770563 0.00803909 0.01394021
0.027758563 0.01220568 -0.0020803278 -0.01387727 -0.011263615 0.02247581 0.022120688 -8.481353e-05
-0.012393131 0.009711348 0.024897773 -0.02113334 -0.010921705 0.0054970016 0.04124888 -0.00067067595
-0.006382922 0.0027886766 0.019315222 -0.012266536 -0.006384604 0.009744054 -0.015696494 -0.019928128

action_model._discrete_distribution.branches.0.bias f4 [2]
00000000: 2031 ba39 3c31 bab9
0.00035513286 -0.00035513367

action_model._discrete_distribution.branches.0.weight f4 [2, 128]
00000000: a224 423c 090f 173b 6d01 8b3b 22e7 5a3a
00000010: e268 94bb 04be abba f11c 3dbc 5911 a33a
00000020: 900f bfba a125 383b 5142 b0bb 38c7 66bb
00000030: ebea daba 73c9 e73c 1480 3cba 2e93 1bbb
00000040: 431c a23b d98f f1bb 488d b1bb 464f a63c
00000050: e566 15bc 4b14 e33b 5cd4 33bc f651 1c3c
00000060: 7ab6 4fbc f0fe 773a 8120 c83b 3134 c83b
00000070: e1c7 163c d1de 78bc d727 e53b a15f d13b
00000080: 8634 59bc f3d1 6f3c 567d 18bc 9c2f e83a
00000090: 2e00 77bc 203b 1abc a5b5 31bc bcf4 fc3b
000000a0: 5337 6e3b e8ab a8bb 5c6b 1dbc fcb1 0b3c
000000b0: 1699 39bc 6d7c 4cbc dc9f b33b 212b ffbb
000000c0: eb4b b1bb a1fc c93b c732 f13b 709f 6b3c
000000d0: e8db 9fbb 838a d23a f564 593b 3ab7 ce3b
000000e0: 6797 cfbb 496d 2bbc 10a3 8d3c 41f9 9539
000000f0: 3af7 21bc 139f a6bb 86cb 7aba 12cb 4d3b
00000100: 8c2c 023a 9461 a43a 6e5b 563c 2359 c6bb
00000110: e563 053c 54dc 8cbb 0929 8b3b c226 d63c
00000120: a94e 62ba 0628 393b 4f03 4dbc 9980 eab9
00000130: baae 26bc abd1 8b3b 8b0e 73ba 72a4 893b
00000140: b108 53bc 06ee a9bb a3c4 e7bb e4d3 52bc
00000150: e73f 51bc 2aed 9dbc 1022 613a 71af 8b3b
00000160: 0752 9cbb 6e65 4bbc e45d db3a e835 6ebc
00000170: cb17 803a c7c2 1ebc aeb0 6dbc 2453 303b
00000180: 4e9c 0aba fd4f 933c b821 e3bb 7c02 413c
00000190: d6ab 2dba 1525 a6bc e0f3 ba3a 3615 37bb
000001a0: fbb4 90ba c563 303c 3734 0a3c 458a 48bc
000001b0: 9b21 0d3c e0d1 613b 87e1 86bc c6af b83b
000001c0: ad9b 2c3c f25e fa3b 37f7 803a 449d 85bb
000001d0: 9d01 813c 0d11 4ebc 238e 87ba a35f 493c
000001e0: 98ec 11bc 27e3 783a ae3a bc3c da80 9bbc
000001f0: e84f f13b 76f7 1ebc 62ee dcba 81dd 3abc
00000200: 56b3 023b d1df b83b b01f 09b9 209a c6bb
00000210: 5b27 adba d6b5 06bc efc2 11bb 45b1 e93b
00000220: 895e 10bc a14c 3a3c 5b9e b33a c842 f4bb
00000230: 7e4f a5bb 29b7 3f3a d72b d2bb 07b2 cd3b
00000240: 8297 403c 7788 173c 6fff 453c 45fb 323c
00000250: a757 d538 b334 dc3b b168 383c 3f63 9ebb
00000260: 9a97 353c 1c56 f637 4d92 57bc 67e7 043a
00000270: 33a4 a9ba 6334 8abc 75b1 763b 10b8 543b
00000280: 072a 263b 392d 163b bb34 fd3b fc26 4d3c
00000290: b2e8 e9bb 47bb d33b e5b3 09bc ca39 573c
000002a0: 4257 66bb 9138 913c e00b 013c 7701 58bc
000002b0: 7829 17bb dc62 793a ce3b 3dbc 04fa 6ebb
000002c0: 81c7 e13b 6812 62bb 8e6f a6bc 22a1 033c
000002d0: c95d ab3c 2f6b 8bbc 9ebf 423b 2507 0f3b
000002e0: 1d44 4e3c da64 03bc 11ec 3dbb bdb8 433c
000002f0: ca63 b4bb 8bf3 2c3b cfdd eaba 9d8d bc3b
00000300: 1004 033c 1e27 9ebb 6b49 15bb df45 10bc
00000310: ffb5 8dbc df1c b73b afa6 80bb f646 5fbc
00000320: 9e85 07bc c1ca 6a3c 7bce 79bc 2686 8ebc
00000330: 24ff 31bc 1f01 593c cfd8 433c e402 0dbc
00000340: bd16 773b bc50 e03a 79ff 7cbc 202e 2b3c
00000350: 44dd 8b3c 9ac6 a9ba b630 4c3c 5b9e 56bc
00000360: 6d4d efbb e869 9c3b 2d1f c63b 4030 6bbc
00000370: cb17 bd3a ac6a 343c 9ab0 c6bb d998 0cbc
00000380: 2303 9dbc c89e 24b7 42ba c63c 93c4 9d3c
00000390: 6afe f73b 2e46 bc3b 3059 58bc 03bb a3bb
000003a0: b291 b0bb df09 c33c 49ce d2bb 6d16 313c
000003b0: c3a0 853b 212e 6a3c 9ea8 d439 c231 81bc
000003c0: 0364 333c c056 e03b 2890 d43b 52a2 e1bb
000003d0: 1306 8bbb 1385 45bc e346 ffbb c85f 353c
000003e0: c6ff 433a ab54 b73b c46c 913b 5353 30bb
000003f0: 788d 7c3b 42e5 34bc c911 833c 5a73 0c3b
0.011849554 0.0023049733 0.0042421133 0.00083504815 -0.0045291046 -0.0013102894 -0.011542545 0.0012441083
-0.0014576782 0.00280986 -0.0053789993 -0.0035213958 -0.0016702091 0.0282943 -0.0007190716 -0.002373885
0.0049472167 -0.0073718843 -0.0054184534 0.020301472 -0.00911877 0.0069299093 -0.010975923 0.009541025
-0.012677783 0.0009460291 0.0061073904 0.0061097373 0.009202928 -0.015189842 0.0069932747 0.0063895737
-0.0132571515 0.014637458 -0.009307226 0.0017714384 -0.015075726 -0.009413511 -0.01084653 0.0077196043
0.0036348894 -0.005147446 -0.009608116 0.0085263215 -0.011328002 -0.012480837 0.005481703 -0.007787124
-0.0054106615 0.006164149 0.0073607895 0.014381275 -0.00487851 0.0016063008 0.0033171747 0.0063084634
-0.0063351872 -0.010463067 0.017289668 0.00028605203 -0.009885604 -0.005084881 -0.00095670705 0.0031401557
0.00049657444 0.0012541288 0.013083322 -0.0060531064 0.0081414925 -0.004298726 0.004246835 0.026141528
-0.0008632937 0.0028252616 -0.012512996 -0.0004472777 -0.010173494 0.0042669377 -0.00092718814 0.0042005116
-0.01288049 -0.0051858453 -0.0070730015 -0.0128679015 -0.012771583 -0.019278128 0.00085881446 0.0042628576
-0.0047705206 -0.012414319 0.0016736356 -0.014539219 0.0009772716 -0.009689993 -0.014507456 0.0026905024
-0.00052875734 0.017982477 -0.00693151 0.0117803775 -0.0006625032 -0.020281354 0.0014263354 -0.0027936227
-0.0011040265 0.010765974 0.008435301 -0.012239997 0.008613969 0.003445737 -0.016464962 0.005636188
0.010535163 0.007640713 0.0009839301 -0.0040775854 0.01574784 -0.012577307 -0.0010342043 0.012290868
-0.008906506 0.00094942976 0.0229772 -0.01898234 0.007364262 -0.009702554 -0.0016855712 -0.01140535
0.0019943318 0.0056419154 -0.00013077143 -0.0060608536 -0.0013210581 -0.008222064 -0.0022241434 0.007131728
-0.008811601 0.011370809 0.001370381 -0.00745425 -0.0050448766 0.0007313365 -0.0064139175 0.006277326
0.011754872 0.009248844 0.012084826 0.010924165 0.00010172958 0.0067201494 0.011255429 -0.0048336084
0.011083508 2.9365583e-05 -0.013157439 0.0005069882 -0.0012942612 -0.016870683 0.0037642394 0.0032458343
0.002535464 0.0022915138 0.007727233 0.012521502 -0.007138335 0.006461534 -0.008404707 0.013136337
-0.0035147225 0.017727168 0.007876366 -0.013183943 -0.0023065489 0.00095133274 -0.011549903 -0.003646494
0.006890238 -0.0034495834 -0.020316865 0.0080340225 0.020918744 -0.017018883 0.0029716264 0.0021824327
0.012589482 -0.00801965 -0.0028979818 0.0119459005 -0.00550506 0.002639028 -0.0017918887 0.0057541863
0.007996574 -0.0048264405 -0.0022779356 -0.008805721 -0.017298697 0.0055881585 -0.00392612 -0.013627758
-0.008271603 0.014330567 -0.015246983 -0.017397951 -0.010864053 0.013244896 0.011953547 -0.008606646
0.0037702762 0.0017113904 -0.015441769 0.010448009 0.017073281 -0.0012952865 0.0124627855 -0.013099278
-0.007302931 0.004773367 0.006046197 -0.014354765 0.0014426647 0.011011761 -0.006063533 -0.008581364
-0.019166535 -9.812131e-06 0.024258737 0.019258773 0.0075681703 0.0057456708 -0.013204858 -0.004996659
-0.005388462 0.023808418 -0.0064332825 0.010808569 0.004078002 0.014293225 0.0004056142 -0.015770797
0.010949138 0.006846279 0.0064869113 -0.006885805 -0.0042426675 -0.012055653 -0.007790433 0.011070199
0.0007476773 0.00559481 0.0044380147 -0.0026905134 0.003853647 -0.011040987 0.015999692 0.002143106

network_body._body_endoder.seq_layers.0.bias f4 [128]
00000000: 5695 053b 53b0 d43a 644f 5b3b ead7 33bb
00000010: 4582 2f38 6f86 21bb 0d76 1b3b 03e4 80ba
00000020: f4a2 3dbb 706c 30bb 5ce7 083b b96e ccbb
00000030: ef3e 153b 51a9 783b ebe2 863a 1776 6bba
00000040: 110e 13bb c3e4 ffba 5463 03bb e70e 8fbb
00000050: cec9 46bb 3679 67bb 714d 0bba dca4 703b
00000060: d4ed 07bb fedf aa3a c429 80bb 138d 70bb
00000070: d46a 61bb 1d0e 1c3b f5fc 103b 1d07 88bb
00000080: 9afb 393b d3da bdba f8ce 1c3b e1eb beba
00000090: 3357 3cbb 698e f63a df43 0fba cd50 aeb9
000000a0: 8e78 e03a 5f48 47bb 1f7f 0cbb f94d f93a
000000b0: 4cf5 23bb 7f0d 7c3b 9ec5 7f3b 58cc ec3a
000000c0: 27dc e63a 5087 4cbb c500 02bb f372 0f3b
000000d0: ea74 25bb 6e96 023b 36eb 033b fb84 ddba
000000e0: c5ec 3aba 987f 90b9 88d2 56bb cca4 93ba
000000f0: f72b 4f3b eb44 08ba c086 6fbb d9a5 dc39
00000100: d007 73bb 6986 8fbb c59a a4ba 17b1 bab9
00000110: d481 4e3b 399d f13a a640 1c3b d30b ee3a
00000120: 9f57 05bb 5f5d ca3a 95d6 3fbb 9ad6 1c3b
00000130: 33f9 ea3a 36e0 e03a f7f9 bbba e728 273b
00000140: ada6 4e3a 82ad f1ba 3fc4 2d3b 37d4 2d3a
00000150: 6428 acb9 8c05 853b 5133 49bb eacf 253b
00000160: 3e2f db39 24e4 45bb 2da7 89bb afe4 a1ba
00000170: 72b4 47bb 71d0 7f3a 9759 dcba 3d30 1e3b
00000180: c7cf 84bb 2fff a13a f9ae 223b 9005 44bb
00000190: 1a65 1f3b 0277 86bb eb50 74bb dcc7 e8ba
000001a0: cfc5 1f3a c985 91bb 79a4 59bb 9e7b 7bbb
000001b0: dbe4 133a 44f5 90b9 a0d3 0b3b 54b8 78bb
000001c0: 13fb 083b df74 373b 7e36 15bb 1154 40bb
000001d0: 0de9 ccba bd65 523b 7f25 10bb f6a8 6dbb
000001e0: b91d e3ba 6892 07ba 7044 563b 3c0a 753a
000001f0: 9ba0 493b 5232 1e3b e9a9 533b bd02 ff3a
0.00203832 0.0016226865 0.0033464069 -0.0027441927 4.1844574e-05 -0.002464678 0.0023721487 -0.0009833578
-0.002893624 -0.0026920103 0.0020889854 -0.006238785 0.0022773107 0.0037942717 0.0010291015 -0.00089821353
-0.0022438804 -0.0019523132 -0.0020048218 -0.00436579 -0.0030332687 -0.003532005 -0.0005313969 0.0036719358
-0.0020741122 0.0013036726 -0.003911229 -0.003670518 -0.003439595 0.0023812123 0.002212343 -0.0041512386
0.0028378726 -0.001448477 0.0023927074 -0.0014566147 -0.0028738498 0.0018810752 -0.00054651307 -0.00033248067
0.0017125772 -0.0030408127 -0.0021438075 0.001902043 -0.0025018035 0.0038460193 0.00390277 0.001806627
0.0017613218 -0.0031208582 -0.0019836884 0.0021888583 -0.0025246688 0.001992609 0.002012921 -0.0016900593
-0.00071306183 -0.00027560885 -0.0032779295 -0.0011264323 0.0031611898 -0.0005198258 -0.0036548823 0.00042085236
-0.0037083514 -0.0043800366 -0.0012558332 -0.00035608627 0.003151049 0.0018433697 0.0023842244 0.0018161483
-0.0020346416 0.0015439204 -0.0029272188 0.0023931623 0.001792705 0.0017156664 -0.0014341463 0.0025506557
0.0007883113 -0.001843855 0.0026514677 0.0006631049 -0.0003283649 0.004059499 -0.0030700753 0.0025300928
0.00041806133 -0.0030195797 -0.004200837 -0.0012351478 -0.0030472544 0.0009758538 -0.0016811368 0.002413764
-0.0040530893 0.0012359376 0.002482353 -0.0029910542 0.0024321736 -0.0041035423 -0.0037279676 -0.0017759758
0.00060948444 -0.0044409973 -0.0033209606 -0.0038373242 0.0005641707 -0.00027648557 0.0021335855 -0.0037951665
0.0020901605 0.0027993245 -0.0022768076 -0.0029346982 -0.0015633419 0.0032104098 -0.0021995006 -0.0036264039
-0.0017327584 -0.00051716575 0.00326946 0.00093475333 0.0030765894 0.002413888 0.003229732 0.0019455772

network_body._body_endoder.seq_layers.0.weight f4 [128, 75]
00000000: 655a 343e 1fd4 35bd 32cf 563b b75a 0dbe
00000010: 6c28 30be 74ea 563e 79ba a43d 2806 07bc
00000020: b34a 873c e787 11be f258 86bd a32c d7bd
00000030: c1c9 2bbc b81a 073e d18a 55bc 3d95 f73d
00000040: d4bf 3bbe 40b1 d0bb 7c0f f53c 0072 0b3d
00000050: 5113 c4bc 6abc 04be b168 0d3e ccd1 833d
00000060: 89da 01bd 7847 43bd 0ba5 d8bd 2b67 b9bd
00000070: 3b18 8bbb 84a0 f03c b6a1 f1bd 08c8 053c
00000080: 5bb4 47be f256 cabd bfc6 2fbd 7aec 013d
00000090: 1dd3 8e3d d94e ba3d 5f39 5d3d a651 3a3d
000000a0: acde 833b f53e 4b3d d1ba b53c 802a 72be
000000b0: f2f7 853d f7dd 223e dc3c 54bd 1913 93bd
000000c0: 8525 cf3d fd79 64be 7b86 30be 657b 44bd
000000d0: 7563 c4bc 2f5b 0bbe 49ec c93b fc84 72be
000000e0: b37f f53d 946e 04bd dac8 db3d 7ffe 27be
000000f0: 921a 67bd 61fe ccbd ce73 91bd b941 09bd
00000100: d6b3 323d 77fa 11bd d4a9 e23d eee4 82bd
00000110: 41a2 2dbe 7ab5 923d 291e f13b c8b3 0cbe
00000120: 5101 1e3e e32a 20bd a2fd b2bd d49e 603e
00000130: 7181 25bc 162a bd3d 4e01 563e afda 2fbe
00000140: e839 ffbd 53ad 333d 18e4 2cbc 1d09 fa3c
00000150: 2e10 a23d 3b61 00be 5d25 383d 45a7 0c3e
00000160: bca1 b73d 6a03 10be 11c4 8dbc fed6 05be
00000170: 1fe3 ae3d 5fb9 09be b6b2 16be ab64 3e3c
00000180: c54f 503c d298 06bd c1a4 d13c 617b 5cbe
00000190: 0217 a3bd 5b7e c2bc bab7 46be 16f1 bbbd
000001a0: d36c c6bc 032f b0bd 21f9 e8bd eeab a33d
000001b0: e83c 23be 7a33 533e e2a6 fe3d e90f c53d
000001c0: 5407 cb3c f221 10bd 0e35 e13d 2f5c 1c3d
000001d0: 6b35 833c 7c80 50bc 96f3 a33c ffd0 cf3e
000001e0: ecf7 183c 97a1 39bb 4009 b4bc 29f9 443d
000001f0: 94b1 50bb ff57 77be 6c98 4a3d ae49 df3b
00000200: 573b b83c 8b0d ddbc 5c31 d9bc fc87 f8bd
00000210: db1c a63c a506 603d d010 993b ec8f a63c
00000220: 9c21 38bd 085a f13b f001 7dbd 9c23 d53d
00000230: 8f7c f63c 3869 be3d cd94 8a3e 3ee4 07be
00000240: 615f 36bd 90eb d2bd c792 fbbd 6b57 613e
00000250: 845c 0bbd 0605 cb3d b499 23be fbaf a83d
00000260: c16f fc3c c5ae e23d d523 823d 4e04 963d
00000270: ad49 d23d 48b9 a63d 1b13 1b3e 7a47 b0bd
00000280: 1fd8 823e b12b 84bd e332 d23d 95a4 023d
00000290: 35f1 603e faf0 c83d 93a7 9b3d 1c74 c9bd
000002a0: 0bd5 a23c 4339 44be d34a 6d3c d05c 0f3c
000002b0: 6588 b9bc 3ee7 ce3d ca71 1b3d fabe 95bd
000002c0: aef6 21be bb0f 233e c69f b9bc b59e 463c
000002d0: ff4a fcbd 905b 7d3e 1275 283e 6ce6 abbb
000002e0: a8ef fdbb 1718 fe3d 2d40 5d3e e74f c3bd
000002f0: c22f b1bc 7cbf 5ebd 38b8 83bd c1cf c8bc
00000300: f37a d13d 7ce7 14bc a8a7 803d 2954 113e
00000310: 4de0 3dbd 9c34 74bd 8f41 44bc d3cb bf3d
00000320: 3deb 5ebe 606b 1a3b 13f0 eebd 3a29 c53d
00000330: cb7e 00be b6d9 7cbd 3900 853d 5f59 903c
00000340: d92c 2d3e 2cd0 31be 3763 e93d bb9a 2f3e
00000350: 9b2f 923d c58f a7bd 9595 52bd 9f10 bbbc
00000360: 54a5 d6bd 20a0 c73a ddc1 1ebe 3feb a1bd
00000370: b5a5 28bc dd08 173d 7e1c cc3d ac44 54be
00000380: 9d12 533d 909c 89bc fe73 54bb d21c 9ebd
00000390: 9174 c9bd c420 093e 95cb e1bc 934d babd
000003a0: cb1b 703d 1800 44bd 7770 23be 8677 08be
000003b0: d0a0 c3bd 8fae 4d3d 30d8 20bd fcbe 253e
000003c0: bc66 5dbe 0dec 2b3e dd8a 9c3d 9f06 5bbc
000003d0: 1f00 713e e03f 94bc b0e6 393e 016b b63c
000003e0: ae34 44bd 6cbb 2a3e f134 0f3e fdd7 a23d
000003f0: 550f 933d 7540 0b3d 62b0 05bc 10d1 c6bd
0.17612608 -0.044391748 0.0032777307 -0.13804136 -0.1720292 0.20987874 0.08043379 -0.008241214
0.016515112 -0.14211999 -0.06559934 -0.10506561 -0.010485114 0.13193786 -0.013033585 0.12089012
-0.18334895 -0.006368786 0.02991461 0.034044266 -0.023934992 -0.129625 0.13809468 0.064365
-0.031702552 -0.04767558 -0.105783544 -0.09052881 -0.004244832 0.029373415 -0.11798422 0.008165367
-0.19502394 -0.09879865 -0.04291415 0.031719662 0.069738604 0.0909707 0.05400979 0.045488022
0.0040243473 0.049620587 0.022183808 -0.23649025 0.065414324 0.15904985 -0.051815853 -0.07181377
0.10114578 -0.2231216 -0.172388 -0.04796924 -0.023973206 -0.13609003 0.0061622006 -0.23683542
0.11987247 -0.032332018 0.10731669 -0.16405676 -0.056421824 -0.100094564 -0.07102166 -0.033509944
0.043628536 -0.035639253 0.110675484 -0.06391321 -0.16956426 0.0716352 0.0073583317 -0.13740456
0.1543019 -0.0391034 -0.08739783 0.21935588 -0.010101662 0.09236543 0.20898935 -0.17173265
-0.124622166 0.043866467 -0.010552429 0.030521924 0.07913242 -0.1253709 0.044957507 0.13735683
0.08966395 -0.14063802 -0.017305406 -0.13070294 0.08539414 -0.1344962 -0.1471661 0.011620681
0.012714331 -0.032860585 0.025591256 -0.2153144 -0.07963373 -0.023741892 -0.19406024 -0.09176843
-0.024221813 -0.08602717 -0.113756426 0.07991777 -0.15941203 0.20625106 0.12434174 0.09622175
0.024783768 -0.035188623 0.109964475 0.03817385 0.016016683 -0.012725946 0.020013612 0.4058914
0.009336453 -0.0028325075 -0.021977067 0.04808918 -0.0031844126 -0.24154662 0.049461767 0.006814203
0.022489233 -0.026983997 -0.026512794 -0.12135312 0.020277431 0.054693837 0.0046711937 0.0203323
-0.044953927 0.007365469 -0.061769426 0.104071826 0.030088691 0.09297413 0.2706665 -0.13270661
-0.044524554 -0.10298836 -0.12283855 0.22006004 -0.034023777 0.099130675 -0.15976602 0.082366906
0.030815007 0.11068491 0.06354491 0.0732504 0.10267959 0.08140808 0.15144007 -0.08607383
0.25555512 -0.06453646 0.10263612 0.03189524 0.21967013 0.09811588 0.076003216 -0.09836599
0.019876977 -0.19162469 0.0144831715 0.008750156 -0.022648046 0.101027 0.037950315 -0.073118165
-0.15816757 0.1592397 -0.022659194 0.0121228 -0.12318992 0.2474196 0.16450909 -0.0052459743
-0.0077495165 0.124069385 0.21606512 -0.095367245 -0.021629218 -0.054381832 -0.06431621 -0.024513127
0.10228529 -0.009088393 0.06281978 0.14192261 -0.046356488 -0.059620485 -0.011978521 0.09365048
-0.21769424 0.0023562536 -0.11666884 0.09627004 -0.12548368 -0.061731063 0.06494183 0.01762074
0.1691164 -0.17364568 0.11395877 0.17148869 0.07137986 -0.08181719 -0.051412184 -0.022835074
-0.104807526 0.0015230216 -0.1550364 -0.07906198 -0.010293414 0.036873687 0.09966372 -0.20729321
0.051531423 -0.016798288 -0.003241777 -0.07720341 -0.098366864 0.13391405 -0.027562896 -0.09096827
0.058620255 -0.047851652 -0.1596087 -0.13326845 -0.09552157 0.0502153 -0.039268672 0.16186136
-0.21621221 0.16789265 0.076436736 -0.013368278 0.23535202 -0.018096864 0.18154407 0.02226782
-0.0479018 0.16673058 0.1398504 0.07951353 0.07180659 0.033997018 -0.008159729 -0.09707844

network_body._body_endoder.seq_layers.2.bias f4 [128]
00000000: 2da6 2fbb 737d 6cbb 0ab9 423b e471 23bb
00000010: c296 013b bb6b 4f3b 8cc6 41bb 3a55 3a3b
00000020: 3346 5a3b fa39 083b 0bab 89ba fe6a 203b
00000030: 28d5 393b f2e4 753a a1af ffb8 c77d 81bb
00000040: 8fb6 43bb c444 293b fbf5 4a3b f5df d039
00000050: 73da 843b 0e43 4dbb 0461 84bb 7aad 86bb
00000060: 394b f03a 91f1 81bb 9b80 2bbb f6df 9b3b
00000070: c6d6 65bb 78f6 193b 3a52 87bb 2b31 5a3b
00000080: 9d4d 633a 6165 983a 7bc1 4ebb 48a9 5c3a
00000090: f48d 6e3b ff05 e339 c833 45bb 7635 53bb
000000a0: a300 a839 0242 26bb 1eb9 1fbb deff 4ebb
000000b0: b259 513b 410f 733b df0b 5bbb d498 393b
000000c0: a905 403b b904 ba3a f2a8 67ba 08b1 0a3b
000000d0: 0067 4b3b a826 eb38 c5bd da3a 7ee5 063b
000000e0: 2976 e43a bb9e 5a3b 267e 7ebb ac8d b1b9
000000f0: 141d 383b 775e 24bb e3bd 32bb 888e 273b
00000100: 118f 86bb d2ec 34bb 97de f3ba 2ddb 28ba
00000110: 8714 38bb db6f edba 6605 1d3b 7bbe b63a
00000120: 12db 553b 8b8d 00bb 5ee3 c83a 2568 5dbb
00000130: 59a2 4039 dc83 d6b9 bebb 9e3b 8ea9 7cba
00000140: 375d 423b 254d 2c3b f04a 0dbb 6554 84bb
00000150: c6f0 8c3a 26d4 433b e336 55bb aef6 77bb
00000160: cdce 03bb 9a29 233b 6f06 3fbb e538 57bb
00000170: 22f3 b43a 8a78 85bb 8273 edba 3049 3fbb
00000180: 6799 323b e3fb 923b 4a50 283b 2f10 993a
00000190: c337 283b aa2e 2f3b a24a 193b 9071 5f3b
000001a0: b8b2 8f3b 85ad 593b 222f ecba e4ba 6ebb
000001b0: 163f d03a 47eb 3a3b e6b1 333b c3ee d23a
000001c0: f036 6cbb c193 bfba 1792 b13a 3046 2abb
000001d0: 5a5c 83ba bda0 103b fee1 3d3b 9715 35bb
000001e0: 26c1 c93a cc0f 51ba 3828 4e3b c650 30bb
000001f0: 9e42 12bb 7ef9 47b8 92b6 65bb c43a 56bb
-0.002680193 -0.0036085516 0.0029712343 -0.002493971 0.0019773697 0.0031649906 -0.0029567806 0.0028432147
0.0033306002 0.002078651 -0.0010503245 0.0024477835 0.002835581 0.0009380124 -0.00012192061 -0.0039517614
-0.0029863452 0.002582834 0.003096937 0.00039839713 0.0040543615 -0.0031320485 -0.0040398855 -0.0041100355
0.0018332965 -0.0039655645 -0.0026169184 0.004756923 -0.0035070642 0.0023492854 -0.004129675 0.0033293467
0.0008670928 0.0011626893 -0.0031548429 0.0008417559 0.0036400529 0.0004330128 -0.0030090678 -0.003222791
0.0003204393 -0.0025368934 -0.0024371813 -0.0031585614 0.0031944332 0.003708795 -0.0033423824 0.0028319852
0.0029300249 0.0014192081 -0.00088371255 0.0021162648 0.0031036735 0.000112128735 0.0016688636 0.0020583565
0.0017430234 0.003335877 -0.0038832515 -0.00033865625 0.0028093504 -0.002508072 -0.0027273826 0.0025567133
-0.0041064103 -0.0027606976 -0.0018605766 -0.0006441351 -0.0028088407 -0.0018115 0.0023959517 0.0013942266
0.0032631797 -0.0019615616 0.001532655 -0.0033783999 0.00018371026 -0.00040915504 0.004844158 -0.0009638303
0.002965761 0.00262911 -0.0021559559 -0.004038381 0.0010752908 0.002988109 -0.0032533936 -0.0037836242
-0.0020112277 0.0024896623 -0.0029148122 -0.0032840308 0.0013805369 -0.0040732073 -0.0018116089 -0.002918791
0.002725208 0.0044855936 0.0025682622 0.0011677797 0.0025668002 0.0026730695 0.0023390432 0.0034094788
0.0043853186 0.0033214998 -0.0018019418 -0.0036427313 0.0015887942 0.0028521584 0.0027419268 0.0016092885
-0.0036043487 -0.0014616178 0.0013547566 -0.0025981776 -0.001002203 0.0022068464 0.0028973813 -0.0027631277
0.0015392646 -0.0007975071 0.0031457078 -0.0026903613 -0.002231754 -4.7677655e-05 -0.0035051447 -0.0032688836

network_body._body_endoder.seq_layers.2.weight f4 [128, 128]
00000000: c8ed f83d 7740 453d d8ec 053e 43f0 8abc
00000010: f543 7f3d df8d 223b 889f fc3d 6a77 4ebd
00000020: c45f aa3c 1bdf 1d3d 82d2 633d ce43 043b
00000030: 816d 9abc e464 493e 4c76 9d3d 36d6 3d3d
00000040: c45f b7bd d599 a33c c721 593b 8c00 f8bd
00000050: 6130 193e b7f4 683e 76a3 4f3d c20a debd
00000060: ff88 f83d 398d 4bbd 10cf cebd 3676 2abc
00000070: 318e 2bbe 18c2 2cbd 6dc5 953d 769c e5bc
00000080: acd5 1cbe 1e0c a3bc 9b81 473c 4345 d7bd
00000090: ac97 2c3e 8c14 1d3c 8b5b 133d 774d 133c
000000a0: 96cd f8bd c75c babd 4d4e 903c 0a73 563d
000000b0: 7820 60bd 4f35 5e3d 9a24 26bd 477d f8bd
000000c0: 296e 2a3e 7081 11bd 6686 63bd 2e7a 123e
000000d0: f48a 1a3e cbd1 88bd f5e7 9abd ee4d d53d
000000e0: 33aa 213a 4ee0 193d c396 c1bc cf8f a03d
000000f0: d423 5cbe 0a23 85bd d783 473d ac30 9dbd
00000100: 7e1c dc3c 07eb febd 7934 18be 4856 50bd
00000110: 9c3e 543d fa85 013d 5286 eabc c8e8 f5bd
00000120: b212 5abd 740b c63d 78df 7cbb deec 533b
00000130: 6f46 4bbd c47a ab3d 39a5 143d 696f d93c
00000140: e7b5 cbbc e804 9f3c f790 9a3e cc4a a5bd
00000150: 2ea4 f4bd 1c6f 1abc 4998 c3bd 11ab a1bd
00000160: 0da7 d53d b454 acbd b6ab 1cbe 5d00 9f3d
00000170: 44a2 2fbc 3c26 c73c e57c 483d a188 91bb
00000180: f55e 3bbc 8d9c c5bc 5284 b43d 74c3 c43d
00000190: e1ca 36bd 295c abbd da7d 6abd 991e d9bd
000001a0: 4615 21bd bf7f ac3d b826 1fbc 78f6 2cbe
000001b0: b819 fb3d 6137 dcbd dcf4 8a3d 3fbc 643d
000001c0: 1e39 603c 924b a6bd 924a ac3d 4f6b 2d3e
000001d0: c951 43be 423f bd3d d2d0 84ba cae8 773d
000001e0: da90 783c 31c2 2c3d e330 0bbc 0ec1 0ebd
000001f0: 7eb1 133d 916a 0bbe c698 f9bc 7bda 5abd
00000200: cb29 b03d 12fb ac3c 3553 42be a835 0a3d
00000210: fb2f 6a3d 274f ee3d e84a 25bd a074 9abc
00000220: e0b5 1dbd 5f05 4a3d 2b55 f93b 62d8 a53d
00000230: 0c7d c43d 3ecd 76bd c406 a4bd 3553 e2bd
00000240: 3694 bb3b 38a2 4bbb 80cf cfbc 96ad 6b3d
00000250: 54a9 ae3d 11db 74bc dd70 123d 495d c7bd
00000260: 6ec8 86bd 60cc 6dbd 87f9 55bd 80a7 783d
00000270: 05ea 0c3e 8318 9f3d cfce ac3c 97b4 9d3d
00000280: b580 d7bd ab34 b8bb 6a63 c73d 6845 debd
00000290: 66eb 723d 9dc8 063e da6f babd 7906 ee3d
000002a0: 60a5 153d 99dd b73d 951f 963d 48c9 1f3d
000002b0: c19d 5b3d 78c5 ecbd a652 5cbe 2594 803d
000002c0: 7ad4 e0bd 7dd8 f9bb 7ff1 dcbc 8316 fbbd
000002d0: df67 debd 6245 b63d a94e 793c 12fd e1bc
000002e0: b678 5cbd 11d3 7bbd cebf df3c 254b f4bd
000002f0: 5347 c7bd f1be 1b3e d90d 69bc 0ee9 31be
00000300: 8b0a 1fbd 049c 5cbd 7630 753c 7c4a 1dbd
00000310: f180 aabd d554 22bd c2d6 e23c 961f 91ba
00000320: 0b49 2c3e aff0 d4bd 2264 c23b 6600 603c
00000330: 75dd a33c 4794 0e3d a165 79bd 952c 1d3c
00000340: dd7e be3b 3e6f da3d 0af0 56bb ae56 2aba
00000350: 170f 26be f73e a3bd 2675 0d3d dbd7 63bd
00000360: 8fd9 ebbd 0603 d13b 7b12 9a3d 6db8 ac3d
00000370: a0f9 d33c 449b 243e bd06 dc3d 50c0 c0bd
00000380: deb4 693e 3f38 513d 9b03 47bd 26c5 2c3d
00000390: 1ad0 7dbc 973c b93d 07fb cf3d d69e 1ebc
000003a0: e969 6b3d 1975 1a3c 9c7e 483d 2803 10bd
000003b0: 7248 e73d 0f7f 02be 66c6 f93c 9368 c5bd
000003c0: 7bfb c43d 45a8 623d ed64 e93c 7529 1b3d
000003d0: 63e0 593e a14f 9d3d b84d 2dbd 248d 903d
000003e0: 046e 3dbd 72e2 4cbe 5afe 493e e52a 583d
000003f0: 0e24 313d bb48 98bc 4c2c 00bd 5174 1ebd
0.12154728 0.04815718 0.1307863 -0.016960269 0.06232067 0.00248038 0.12335116 -0.05040685
0.020797618 0.038542848 0.055620678 0.0020182016 -0.018851044 0.19667393 0.07688579 0.046346866
-0.08953813 0.019970814 0.0033131705 -0.12109479 0.14959861 0.22749601 0.050692998 -0.10841896
0.12135505 -0.049695227 -0.10098088 -0.01040416 -0.1675346 -0.04217729 0.073130466 -0.028028708
-0.15315884 -0.019903239 0.012176896 -0.105112575 0.16854733 0.009587418 0.035975974 0.008990637
-0.121485874 -0.09099727 0.017615462 0.052355804 -0.054718465 0.054250058 -0.04056225 -0.1213327
0.16643585 -0.03552383 -0.055548094 0.1430442 0.15092069 -0.0668064 -0.075637735 0.104152545
0.0006167024 0.03756743 -0.02363146 0.07839929 -0.21498042 -0.06500824 0.048709717 -0.07675299
0.026869055 -0.12447172 -0.14863767 -0.050863534 0.05181752 0.03162191 -0.028628502 -0.1200729
-0.053240485 0.09670153 -0.0038585346 0.0032337229 -0.049627718 0.08373025 0.03629038 0.026542382
-0.024867011 0.01941152 0.30188724 -0.08070907 -0.11945377 -0.009425905 -0.095505305 -0.078939565
0.10432253 -0.08414593 -0.15299878 0.07763741 -0.0107198395 0.024310224 0.048947234 -0.0044413363
-0.011436214 -0.0241225 0.088143006 0.09607592 -0.044627074 -0.083671875 -0.057248928 -0.10601539
-0.03932693 0.08422803 -0.009713821 -0.16890895 0.12260765 -0.1075275 0.067849845 0.055843588
0.013685493 -0.08119883 0.08412661 0.16935466 -0.19074167 0.09240581 -0.0010133034 0.06052474
0.015171254 0.042177383 -0.008495542 -0.03485208 0.03605794 -0.1361487 -0.030468356 -0.053431015
0.086017214 0.021115813 -0.18977053 0.033742577 0.057174664 0.11636191 -0.04035464 -0.01885444
-0.038503528 0.04932153 0.0076090298 0.08097912 0.09594163 -0.060254328 -0.08009103 -0.11051027
0.005724455 -0.0031072032 -0.025367498 0.05753859 0.085283905 -0.014944808 0.035752166 -0.097345896
-0.06581198 -0.058056235 -0.05223992 0.060706615 0.13761146 0.07768347 0.021094708 0.077004604
-0.10522596 -0.005621513 0.097357586 -0.10853082 0.059306525 0.13162465 -0.09103365 0.11622328
0.036534667 0.08977813 0.073302425 0.039010316 0.053617243 -0.11561102 -0.21515903 0.06278256
-0.10978027 -0.0076246844 -0.026970623 -0.12260153 -0.108596556 0.088999525 0.015216508 -0.027586494
-0.053826056 -0.061480585 0.02731314 -0.11928395 -0.09730401 0.15209557 -0.014224493 -0.1737406
-0.038828414 -0.053859726 0.014965167 -0.038401112 -0.08325375 -0.039631683 0.027690295 -0.0011072035
0.16824739 -0.10397469 0.005932347 0.01367197 0.02000306 0.034809377 -0.060887937 0.009593149
0.005813463 0.10665749 -0.0032796883 -0.00064979016 -0.16216694 -0.07970994 0.03453555 -0.055625778
-0.115161054 0.0063785342 0.07523056 0.08433614 0.025875866 0.16074854 0.10743473 -0.09411681
0.22822902 0.05107903 -0.048587423 0.042180203 -0.01549151 0.0904476 0.101553015 -0.009681424
0.05747405 0.009427332 0.04894887 -0.03515926 0.11293115 -0.12743782 0.030490112 -0.096390866
0.096182786 0.055336256 0.028490508 0.037881333 0.21277003 0.07681204 -0.042310447 0.070581704
-0.046247497 -0.20008257 0.19725934 0.052775282 0.043247275 -0.018589368 -0.031292245 -0.038685147
