results/phase2_t3_with_config_1/NPCAgent/NPCAgent-555120.onnx (onnx, 98164 bytes, 9 tensors)

action_model._continuous_distribution.log_sigma f4 [1, 2]
0	0x3d19da3a	0.037561633
1	0x3c8cd777	0.017192585

action_model._continuous_distribution.mu.bias f4 [2]
0	0x3b96b703	0.0045994534
1	0xbb173d0d	-0.002307716

action_model._continuous_distribution.mu.weight f4 [2, 128]
0	0xbbf38a26	-0.00743224
1	0xbd5caf94	-0.05387838
2	0xbaf5613a	-0.0018720992
3	0x3ab27907	0.0013616391
4	0x3ccc5857	0.024944467
5	0xbbe28195	-0.00691242
6	0x38b9bb3d	8.856363e-05
7	0xbb1d062e	-0.0023959982
8	0xbb831f25	-0.0040015155
9	0x3cd7ffee	0.026367154
10	0x3d37fa8d	0.04491668
11	0x3bd27d0c	0.006423598
12	0x3a7275c3	0.0009249115
13	0xbc533a55	-0.012892325
14	0x3c38e99c	0.011286166
15	0xbc805bdf	-0.015668808
16	0xbc191e77	-0.009345642
17	0xbc90782a	-0.017635424
18	0xbcdb73f0	-0.026788682
19	0x3c56a6ed	0.013101322
20	0x39a70333	0.00031855106
21	0xbc0248f1	-0.007951961
22	0x3c262109	0.010139712
23	0xb9a4a985	-0.0003140682
24	0xbd126d56	-0.035748802
25	0x3b8a61c4	0.0042230804
26	0xbbe3bb2e	-0.006949804
27	0xba517186	-0.00079896336
28	0x39b31ef6	0.00034164608
29	0x3b8257f9	0.0039777723
30	0x3d105b91	0.035243575
31	0xbc96ef0e	-0.018424537
32	0xbbb3fad9	-0.00549255
33	0xbd0a1154	-0.03370793
34	0xbb6a808b	-0.0035782184
35	0xbb3eb5ca	-0.0029100054
36	0x3cb07d6b	0.021544179
37	0xbbba1e06	-0.0056798486
38	0x3d014cf7	0.03156754
39	0x3c8c77d3	0.01714698
40	0x39b8c48d	0.00035241657
41	0x3c935204	0.017983444
42	0xbc69a765	-0.014261101
43	0x3bc31c3e	0.0059542945
44	0xbb439be8	-0.0029847566
45	0x3badcca5	0.0053039365
46	0xbb9308f1	-0.00448715
47	0xbb205586	-0.0024465038
48	0x3bad1dc3	0.005283089
49	0x3cc3335c	0.023828201
50	0xbcb70da1	-0.022345366
51	0x3bdbec82	0.0067115435
52	0xbcf249bb	-0.029576173
53	0x3b965b1a	0.004588497
54	0x3b221e88	0.0024737436
55	0x3c94d929	0.018169956
56	0x3b4e5ad4	0.0031487243
57	0x3bef7016	0.007307063
58	0xbd0a7b4f	-0.033809002
59	0xbc48949c	-0.0122424625
60	0x3cbe59e8	0.02323623
61	0x3b956e68	0.0045602806
62	0xbd0120c5	-0.031525392
63	0xbce199fe	-0.02753925
64	0x3c4bcf07	0.012439496
65	0xbc6c93f1	-0.014439569
66	0xbbfa9db6	-0.007648195
67	0xbc1f7ef5	-0.009734859
68	0xbc4628e6	-0.012094712
69	0xbcd28c84	-0.025701769
70	0xbcd88465	-0.026430318
71	0xbbf09c79	-0.0073428717
72	0xbc2448db	-0.010027136
73	0x3c92f8e8	0.017940953
74	0xbd1dad60	-0.03849542
75	0xbc03cc4a	-0.008044312
76	0x3c0f680c	0.008752834
77	0xba152cc1	-0.0005690568
78	0x3bdc243a	0.0067181857
79	0xbc80c7f0	-0.015720338
80	0xbc28c945	-0.010301893
81	0x3c306a3a	0.010767514
82	0xbc80b0c6	-0.015709292
83	0x3c6c232e	0.014412684
84	0x3b1913e3	0.00233578
85	0xbc2269d8	-0.00991293
86	0x3d347cd5	0.04406436
87	0xbba3c34c	-0.0049976464
88	0xbae92958	-0.0017788811
89	0x3caec954	0.021336235
90	0xbbcc90ae	-0.006242833
91	0x3b881b80	0.004153669
92	0xbc4fb41d	-0.01267722
93	0xbab8eeb2	-0.0014109223
94	0xb97e2e6e	-0.00024240624
95	0xbc523f8d	-0.0128325345
96	0x3c3a5922	0.01137379
97	0x3be18a9e	0.0068829795
98	0x3c71cb06	0.014757877
99	0xbc2bfda7	-0.010497487
100	0x3bc29e1d	0.0059392587
101	0x3c89e51b	0.016832879
102	0x3902a05f	0.00012457509
103	0xba9252b2	-0.0011163561
104	0xbcdca484	-0.026933916
105	0xbb8bd132	-0.0042668814
106	0xbbdb0b12	-0.0066846693
107	0xbc1ac748	-0.009446926
108	0xbceec162	-0.029144946
109	0xbc9dceca	-0.019263644
110	0x3ca5d17f	0.020241497
111	0x3d31b569	0.043385897
112	0x3bf4294b	0.0074512116
113	0x3c0ab180	0.008465171
114	0x3b2760ae	0.0025539803
115	0xbd17b521	-0.037037972
116	0x3bffe5ab	0.007809361
117	0xbb83fb94	-0.004027793
118	0xbcc0af9a	-0.023521233
119	0x3b2ea5dc	0.0026649153
120	0xbcf6bc30	-0.030119032
121	0x3c24c087	0.010055668
122	0xbbda5b6a	-0.0066637294
123	0x3c9747a1	0.018466773
124	0xbc112e0a	-0.008861074
125	0x3b90b474	0.004416043
126	0x3b3e4e3c	0.002903833
127	0x3bb588f2	0.005540007
128	0xbbc8f6aa	-0.0061329203
129	0x3cc93875	0.024563054
130	0x3ba6ba4a	0.0050881254
131	0x3bc1f3dd	0.0059189633
132	0xbd4ed63d	-0.050497282
133	0x3b0fccc5	0.002194212
134	0xbc21461d	-0.009843376
135	0xbce23e06	-0.027617466
136	0xbc6d6419	-0.014489197
137	0x3c9f391c	0.019436412
138	0x3c115cf8	0.008872263
139	0xbcb533a3	-0.022119349
140	0x3a887d50	0.0010413323
141	0xbce2e6a4	-0.027697869
142	0xbc441d7f	-0.011969923
143	0x3cd9836b	0.026551923
144	0xbc73da35	-0.014883568
145	0x3ceba0fd	0.028763289
146	0xbc69aa3d	-0.014261779
147	0xbc915f00	-0.017745495
148	0xbc46361b	-0.012097861
149	0xbc5c1593	-0.013432878
150	0x3c1f3364	0.009716842
151	0xbad8fac6	-0.0016554228
152	0xb876273d	-5.8687514e-05
153	0xbc3b1d45	-0.011420553
154	0x3cd5a0c4	0.026077636
155	0xbc27d609	-0.010243901
156	0xbc1ce324	-0.009575639
157	0xbbc487a6	-0.005997616
158	0x3c6be7f7	0.014398566
159	0xbb763393	-0.0037567362
160	0x3cfc8421	0.030824723
161	0x3d0231fb	0.031785946
162	0xbcbffc88	-0.023435846
163	0x3c2201af	0.009888097
164	0xbb43ce46	-0.0029877587
165	0x3ce038e6	0.027370881
166	0xbbc93f11	-0.0061415513
167	0xbb5be42e	-0.0033552754
168	0x3c70f10e	0.014705909
169	0x3c0ff231	0.00878577
170	0x3d435abb	0.04769395
171	0xbce13fc0	-0.027496219
172	0xbcdb8200	-0.026795387
173	0xbc2f2afb	-0.0106914
174	0xbcfae1f1	-0.030625315
175	0x3d144a0a	0.03620342
176	0xbcb30d15	-0.021856824
177	0x3bdaa1f6	0.0066721393
178	0x3d278533	0.040898513
179	0x3ac83bf6	0.0015276659
180	0xbc461726	-0.01209048
181	0x3cc8bbf6	0.02450369
182	0x3b0dc08f	0.0021629666
183	0x3cb2fb40	0.021848321
184	0x3cae51bd	0.02127921
185	0x3ca48b1e	0.020085867
186	0x3d068c36	0.03284856
187	0x3c0c664f	0.008569314
188	0xbcf65724	-0.030070849
189	0x3d1543c1	0.03644157
190	0x3cbd51d3	0.023110306
191	0x3cd9aa12	0.026570354
192	0x3c54b2d1	0.012982086
193	0xbcb38485	-0.021913776
194	0xbd0536fe	-0.032523148
195	0x3cbb9bda	0.022901464
196	0x3c6fe767	0.014642573
197	0x3cfe24ec	0.031023465
198	0x3c836bbe	0.016042586
199	0xbc2ee525	-0.0106747495
200	0x3c83763f	0.016047595
201	0x3b0a0f7d	0.002106636
202	0x3d5050b7	0.050858226
203	0xbc84f9fb	-0.016232481
204	0xbcfa0291	-0.030518802
205	0xbc9f63cc	-0.019456767
206	0x3c88676b	0.016650876
207	0x3c05f744	0.0081766285
208	0xbd010769	-0.031501208
209	0xbafd816b	-0.0019340938
210	0xbc64ee54	-0.0139728375
211	0x3ce345f5	0.027743319
212	0x3b85e806	0.0040864972
213	0xbcd7505c	-0.026283436
214	0xbc225eb0	-0.009910271
215	0x3ccc9288	0.024972215
216	0x3c79cf96	0.015247246
217	0xbd222d05	-0.039593715
218	0x3d1aec2f	0.0378229
219	0x3cd41b3e	0.025891896
220	0x3c09a7c4	0.008401815
221	0x3bd9b5c2	0.0066439817
222	0xbbdd9fc4	-0.0067634303
223	0x3cc3c4b4	0.023897506
224	0xbc25a15b	-0.010109271
225	0x3bd5007c	0.006500302
226	0xbbd233fd	-0.006414889
227	0xbc83c4b4	-0.016085006
228	0x3bd6b2b6	0.0065520657
229	0x3c962d2f	0.018332092
230	0x3ccd0ae9	0.025029616
231	0xbb0b559b	-0.0021260742
232	0xbd134635	-0.035955627
233	0x3c67efb3	0.01415627
234	0x3d07922a	0.033098377
235	0xbd09f859	-0.03368411
236	0xbce4bbc0	-0.027921557
237	0xbce4a239	-0.027909385
238	0x3ca40f61	0.020026864
239	0xbbbc3c4a	-0.0057444917
240	0x3c81e1a4	0.015854664
241	0xbd4c8ea3	-0.049940716
242	0x3bbd418f	0.0057756375
243	0x3bfbddec	0.0076863673
244	0xbd259dff	-0.04043388
245	0xba969615	-0.001148882
246	0xbb2ec77a	-0.002666919
247	0xbcf4a2bc	-0.029862754
248	0x3bcd7e50	0.006271161
249	0x3c2d93c6	0.010594314
250	0x3b87fc5a	0.0041499557
251	0x3c9d918e	0.019234445
252	0xbc967c70	-0.018369883
253	0x3bc2da89	0.0059464616
254	0xbc0859fc	-0.008322235
255	0xbb884b44	-0.004159363

action_model._discrete_distribution.branches.0.bias f4 [2]
0	0x3c78db84	0.015189055
1	0xbc78db86	-0.015189057

action_model._discrete_distribution.branches.0.weight f4 [2, 128]
0	0xbc6037b5	-0.013685157
1	0xbb34f853	-0.0027613833
2	0x3c9e3535	0.01931248
3	0x3cba401a	0.022735644
4	0x3c5b3af1	0.013380752
5	0xbc000bac	-0.007815283
6	0x3b985a4a	0.004649435
7	0xbcaeb716	-0.021327537
8	0xbb812bc1	-0.0039419835
9	0x3c6ed50e	0.014577163
10	0xbc2b7b87	-0.010466463
11	0x3bfe4f89	0.007760946
12	0xbb3d8194	-0.0028916346
13	0xbae5db53	-0.0017536677
14	0x3cfe6b12	0.031056914
15	0x3c8f5f9b	0.017501643
16	0x3cfcb800	0.030849457
17	0x3ccd5805	0.025066385
18	0xbbee9ec8	-0.007282112
19	0xbb3bea32	-0.0028673527
20	0xbc0c422e	-0.0085607
21	0xbb27b033	-0.00255872
22	0x3c50b847	0.012739248
23	0xbab925e4	-0.0014125672
24	0x3c13c3c9	0.009018847
25	0xbcecba2a	-0.028897364
26	0x3c4328f6	0.011911621
27	0xbc280373	-0.010254729
28	0x3ba2ee9c	0.004972292
29	0xbba4b90b	-0.0050269417
30	0x3bc89bb5	0.0061220773
31	0xb73a8520	-1.11174595e-05
32	0x3c3c7e3b	0.011504705
33	0xbc81eff3	-0.015861487
34	0xbc988538	-0.018618211
35	0x3ce40c53	0.027837908
36	0xbbbc4240	-0.0057452023
37	0x3c78cfc8	0.015186258
38	0x3c92daef	0.017926661
39	0xbafb3822	-0.0019166509
40	0xb8822209	-6.2052226e-05
41	0x3cf53151	0.029930742
42	0x3cd785bd	0.026308889
43	0xbcbb6ecd	-0.022879982
44	0xbb4b5719	-0.0031027256
45	0xbbbe9535	-0.0058161267
46	0x3c50dbe4	0.0127477385
47	0xbc312581	-0.010812164
48	0x39cfc5e2	0.0003962955
49	0x3bb974ea	0.005659689
50	0x3be5ac0d	0.0070090354
51	0xbc3dc242	-0.011581959
52	0xbc2a4c89	-0.010394224
53	0xbb52c9e3	-0.003216379
54	0x3a788ff8	0.0009481902
55	0xbc6dea28	-0.014521159
56	0xbc77f3aa	-0.015133778
57	0x3bc8dc25	0.006129759
58	0x3cb42fb1	0.021995397
59	0xbc4600a8	-0.012085117
60	0x3c4ec770	0.012620792
61	0xbb772f49	-0.0037717393
62	0x3ca825e5	0.020525882
63	0x3cc59ac7	0.024121655
64	0xbba6fd05	-0.0050960802
65	0x3c05f679	0.008176439
66	0x3c95ce77	0.018286927
67	0x3b3cc066	0.0028801202
68	0x3c6c0316	0.014405033
69	0x3c9b93c4	0.018991359
70	0x3c7aec76	0.015315166
71	0xbb341804	-0.0027480135
72	0xbcb71ee3	-0.022353595
73	0x3c1ac34a	0.009445975
74	0xbc61a7da	-0.013772929
75	0x3b86720f	0.0041029523
76	0xbc2681cd	-0.010162783
77	0x3cb3c90c	0.021946453
78	0x3c674378	0.014115207
79	0x3a20c101	0.00061322754
80	0xbb5380f9	-0.0032272919
81	0x3bb709ce	0.0055858856
82	0xbc8975f1	-0.016779872
83	0x3d18d29e	0.037310235
84	0x3cdf5781	0.027263405
85	0xb97819b8	-0.00023660704
86	0x3cc9873b	0.024600616
87	0xbc90c81b	-0.017673543
88	0xbc8c9a60	-0.017163455
89	0x3c4890a5	0.012241517
90	0xbbda6b8b	-0.006665652
91	0x3bbf6920	0.0058413893
92	0xbc8f9eef	-0.01753184
93	0xbbac076c	-0.005249908
94	0xbbb6a86b	-0.005574276
95	0x3c9ba29a	0.018998433
96	0x39d1a8fe	0.00039989495
97	0x3bb1e38c	0.005428737
98	0xbb2ae842	-0.0026078378
99	0xbc8d3f5f	-0.017242132
100	0x3969bc25	0.00022290701
101	0x3bd40e8d	0.006471461
102	0x3c9c7342	0.019097928
103	0xbc258b62	-0.010104032
104	0xbd0d9358	-0.034564346
105	0xbc8c7695	-0.017146388
106	0x3a6650d0	0.0008785846
107	0x3d0d4f18	0.034499258
108	0xbc454448	-0.012040205
109	0xbc3a28b9	-0.011362248
110	0x3abbeafb	0.0014336997
111	0x3c9912b0	0.018685669
112	0x3ac6da7a	0.0015171312
113	0x3ace9578	0.0015761098
114	0xbc9a5a8b	-0.018842002
115	0xbcbc9e28	-0.023024634
116	0xbbaa7715	-0.005202184
117	0xbc9b7539	-0.018976795
118	0x3c86a018	0.01643376
119	0xbbb0e89e	-0.005398824
120	0x3cd44259	0.025910543
121	0xbbf28aa1	-0.0074017798
122	0xbc9d2f14	-0.019187488
123	0x3c99528c	0.01871612
124	0x3b6555a0	0.0034993663
125	0x3c957467	0.018243982
126	0x3c2a4937	0.010393432
127	0xba192664	-0.00058422075
128	0x3c85e905	0.016346464
129	0xba772aa5	-0.0009428657
130	0xbbdcfceb	-0.0067440174
131	0xbc28f9f5	-0.010313501
132	0x3b23b277	0.00249782
133	0xbc218ef8	-0.009860747
134	0xbce80d00	-0.028326511
135	0x3ccdce36	0.025122743
136	0xbb3727ed	-0.0027947382
137	0xbd0ddd48	-0.03463486
138	0x3c4e8a56	0.012606224
139	0xbc046cfd	-0.008082625
140	0x3ca2be2c	0.019866072
141	0x3c29413c	0.0103304945
142	0xbc9234f2	-0.017847512
143	0xbc8826cd	-0.016620064
144	0xbb2ce921	-0.0026384073
145	0xbc498981	-0.01230085
146	0x3c048ac6	0.008089727
147	0xbbdcfe60	-0.006744191
148	0x3c50c037	0.01274114
149	0xbba7dc4f	-0.0051226984
150	0xbce5574c	-0.027995728
151	0x3b72b2b0	0.0037032776
152	0x3c1ad145	0.009449308
153	0x3cf27259	0.02959554
154	0xbc473a90	-0.0121599585
155	0x3c8d33cc	0.017236613
156	0xbc2c5c51	-0.010520057
157	0xb9be629d	-0.00036313097
158	0xbca8774a	-0.020564694
159	0xbc7be2ba	-0.01537388
160	0xbc8d0a2a	-0.01721676
161	0x3c2b6ddb	0.010463203
162	0x3c28ac5f	0.010295003
163	0xbc462e30	-0.012095973
164	0xbc0efb2e	-0.008726878
165	0x3b418751	0.0029530118
166	0xbb605a17	-0.0034233385
167	0x3cb3dd34	0.021956064
168	0xbc6960d1	-0.014244274
169	0xbc8c48ab	-0.017124495
170	0xbc8710fd	-0.016487593
171	0x3cac3e56	0.021025818
172	0xbbdedad6	-0.0068009896
173	0xbc076da6	-0.008265888
174	0xbc167cc2	-0.009185018
175	0x3bb62876	0.0055590225
176	0xbc4bb870	-0.01243411
177	0xbbdc88bb	-0.0067301667
178	0x3c5fb078	0.013652913
179	0x3c7e26f7	0.01551222
180	0x3c2ce81f	0.010553389
181	0xbb661af5	-0.0035111282
182	0x3ca0e0ae	0.019638386
183	0x3bcf1c67	0.0063205245
184	0x3c364379	0.011124485
185	0xbc05bc0e	-0.0081625115
186	0xbba839ef	-0.0051338593
187	0xbb201283	-0.0024425096
188	0xbc724c1e	-0.014788656
189	0x3b99604b	0.0046806685
190	0xbca16cbd	-0.01970517
191	0x3c0e65be	0.008691249
192	0xbd055e55	-0.032560665
193	0x3b41ab54	0.0029551582
194	0xbc5b57f4	-0.013387669
195	0xbb2b5a0e	-0.0026146206
196	0xbccfab6c	-0.025350295
197	0x3c15a887	0.009134418
198	0x3bcda99c	0.0062763225
199	0x3c7655b8	0.015035085
200	0xbb34d9d7	-0.0027595663
201	0xbbb422ee	-0.005497328
202	0x3c049ea2	0.008094462
203	0xbacd3153	-0.0015654959
204	0xbb88e809	-0.0041780514
205	0xbc548fb5	-0.012973716
206	0xbb7f90e1	-0.0038996267
207	0xbc1ec86d	-0.00969134
208	0xb71fbb18	-9.5207e-06
209	0x3b6485b9	0.0034869744
210	0x3d146702	0.03623105
211	0xbbfe35df	-0.007757887
212	0xbb88dccd	-0.004176712
213	0xbb6e2eed	-0.0036343888
214	0xbc144c0b	-0.009051333
215	0x3c9e8468	0.019350246
216	0x3ca852b6	0.020547252
217	0xb9b30c81	-0.00034150857
218	0x3c11cce3	0.008898946
219	0xbcb24afb	-0.02176427
220	0x3b73c6c4	0.003719733
221	0xbb53fe0d	-0.003234747
222	0x3ca5bf5f	0.020232854
223	0xbc4e51f3	-0.01259278
224	0xbb61853f	-0.0034411696
225	0x3bfa39d3	0.0076362877
226	0xb95bd94c	-0.00020966417
227	0x3c3790b8	0.011203937
228	0xbbbf8c3e	-0.0058455756
229	0xbbf92dc6	-0.0076043336
230	0xbd0e6b0e	-0.034770064
231	0xbb0f2168	-0.002183998
232	0x3cb7f689	0.022456424
233	0x3be5beec	0.007011285
234	0x3c87da6d	0.016583646
235	0xbca48d6b	-0.020086965
236	0x3bc69b04	0.00606096
237	0xbc89d4e2	-0.016825143
238	0x3c5b732b	0.013394157
239	0xbbd0724e	-0.0063612824
240	0xbc138be1	-0.009005518
241	0x3b74f2db	0.0037376198
242	0x3c8a0d16	0.016851943
243	0x3cb52c67	0.0221159
244	0x3ba32bfd	0.004979609
245	0x3bbe5405	0.0058083558
246	0xbc53a334	-0.012917329
247	0xbb846597	-0.0040404308
248	0xbcd6474a	-0.02615704
249	0x3c10635a	0.00881275
250	0x3c5440ed	0.012954933
251	0xbca05722	-0.019572798
252	0xbc61c101	-0.013778926
253	0xba292347	-0.0006452095
254	0xbc262b5c	-0.010142174
255	0xbc013956	-0.007887205

network_body._body_endoder.seq_layers.0.bias f4 [128]
0	0x3ad2aa71	0.0016072524
1	0x3b64b798	0.003489947
2	0xbb1b350e	-0.0023682746
3	0xbb37c6b6	-0.0028042025
4	0x3c147b8f	0.009062662
5	0xbacd5d8f	-0.0015668141
6	0x3a9dce4a	0.0012039628
7	0xbc8f5da3	-0.017500704
8	0xbabeae91	-0.0014547874
9	0xbb526bde	-0.003210775
10	0x3b199009	0.00234318
11	0x3b2f1310	0.0026714243
12	0xbb2fb387	-0.0026809887
13	0xbbc6b1c6	-0.0060636727
14	0x3b59531a	0.0033161105
15	0x3bc09d5d	0.005878134
16	0xbb50b6a4	-0.0031847144
17	0x3b1d24ad	0.002397816
18	0xbc3c1996	-0.01148071
19	0x3a5a2562	0.00083216105
20	0x3bc38224	0.0059664417
21	0xbbf294c5	-0.0074029886
22	0xbbb09c51	-0.005389728
23	0x3b09da53	0.0021034672
24	0xba2f7cb7	-0.0006694304
25	0x3c936d0a	0.01799633
26	0xbb4eacbe	-0.0031536068
27	0x3a3b7555	0.0007150968
28	0x3bb674f3	0.0055681407
29	0xbb8b14d4	-0.0042444263
30	0xbc29f2b3	-0.010372805
31	0x39f4be12	0.0004668092
32	0xbba4ac49	-0.005025421
33	0x3be72d44	0.0070549566
34	0xbb8fbf75	-0.004386837
35	0xbc149e6d	-0.009070975
36	0xbbecfb0a	-0.0072320746
37	0xbc410abb	-0.0117823435
38	0x3b736a16	0.003714209
39	0x3c02767e	0.007962821
40	0xbc05ee09	-0.008174428
41	0x3af11fdd	0.0018396337
42	0xb9f6d494	-0.0004707916
43	0xbb46888b	-0.0030293788
44	0xbafdcc5b	-0.0019363271
45	0xb97e2732	-0.00024237929
46	0xbc83c183	-0.016083485
47	0x3bedae0f	0.0072534154
48	0xbb42f15e	-0.0029745917
49	0x3ba825ea	0.005131473
50	0x3cc1f38c	0.023675703
51	0xbc697061	-0.014247985
52	0xbbdd8fd5	-0.006761531
53	0x3c9adf28	0.018905237
54	0xbb87817e	-0.0041353097
55	0x3c11f00b	0.008907328
56	0xbba0145b	-0.004885239
57	0xbb90acfa	-0.0044151517
58	0x3ab95b52	0.0014141595
59	0xbb1ab5cd	-0.0023606897
60	0x3b222fbe	0.0024747695
61	0x3bfd9909	0.0077391905
62	0xb9a61c06	-0.00031682866
63	0xbb5811a5	-0.0032969501
64	0xbc94e1bf	-0.01817405
65	0x3b8e8e8f	0.0043504904
66	0xbb5aa014	-0.0033359574
67	0x3ba40d45	0.0050064647
68	0xba93f0fa	-0.0011287027
69	0xbbaf89f6	-0.0053570224
70	0xbc7f86a9	-0.01559607
71	0xbacb2c5e	-0.0015500893
72	0x3b47703d	0.003043189
73	0xbc40d919	-0.01177051
74	0xba0b9e80	-0.00053260475
75	0x3b5320be	0.003221556
76	0xbacca8c9	-0.0015614267
77	0x3c82b70a	0.01595642
78	0x3b8f591c	0.0043746363
79	0xbba6d50f	-0.0050913165
80	0x3b4228ae	0.0029626298
81	0x3c05ec8c	0.008174073
82	0xbc33bd00	-0.010970354
83	0xbaa3ea55	-0.001250575
84	0xbc45c59c	-0.0120710395
85	0x3bead497	0.007166456
86	0xbbe93b9d	-0.007117702
87	0xbbc6b9d5	-0.0060646334
88	0x3b49ba0e	0.0030781063
89	0xbc1fa5b0	-0.009744093
90	0x39973296	0.00028838654
91	0xbbc133a0	-0.0058960468
92	0x3c3538b6	0.011060884
93	0xbbc2b54f	-0.005942024
94	0xbbfb77a9	-0.0076741767
95	0x3b5f019a	0.0034028054
96	0xba3d42f2	-0.00072197535
97	0xbc2a93a0	-0.010411173
98	0x3c6b2ac3	0.014353457
99	0xba664505	-0.00087840884
100	0xbae4dc83	-0.0017460737
101	0x3c5e807d	0.013580439
102	0xbc6f07f7	-0.014589301
103	0x3bd46869	0.006482173
104	0xbb6932ac	-0.0035583181
105	0x3c171ef9	0.009223693
106	0x3a6c351f	0.0009010601
107	0x3bd1f34a	0.006407176
108	0x3b82a2be	0.0039866855
109	0xbb3c5723	-0.002873846
110	0x3b93d269	0.004511167
111	0x3b99a6f3	0.0046890914
112	0xbb941f61	-0.004520342
113	0x3a26f904	0.00063695037
114	0x3c1c368c	0.009534489
115	0xbb7299fe	-0.0037018056
116	0x3ba8b746	0.005148801
117	0xb980d308	-0.00024571293
118	0x3b490418	0.0030672606
119	0x3c49ea51	0.012323932
120	0x3bdc21c4	0.0067178924
121	0xbb401a9f	-0.0029312742
122	0xbaa4111e	-0.0012517308
123	0xbc20cd4e	-0.009814573
124	0x3b78bcf4	0.0037954422
125	0xbbee8798	-0.0072793476
126	0xbc14c446	-0.009079998
127	0x3c5c143e	0.0134325605

network_body._body_endoder.seq_layers.0.weight f4 [128, 52]
0	0x3e835f30	0.2565856
1	0x3e0313e9	0.12800564
2	0xbe9bc233	-0.304216
3	0x3d0894d1	0.033345047
4	0x3d5c79a4	0.053826943
5	0xbd2a2091	-0.041534964
6	0x3e443b0a	0.19163147
7	0xbe279f69	-0.16369404
8	0x3d810f10	0.06301701
9	0x3c3cb9c4	0.011518899
10	0x3e103b42	0.14085105
11	0x3e0f78ff	0.14011
12	0x3d0b2c0d	0.033977557
13	0xbe6b4b83	-0.22978024
14	0xbc80f3b1	-0.015741201
15	0xbe04b09c	-0.12957996
16	0x3d6859a7	0.056726124
17	0x3d649b75	0.055812318
18	0xbe41a93a	-0.18912211
19	0x3dc13dfd	0.094356515
20	0x3c848627	0.01617725
21	0x3e06c94e	0.13162729
22	0x3d06bd05	0.032895107
23	0xbd165731	-0.036704246
24	0xbd81acda	-0.06331797
25	0xbdca53a1	-0.09879232
26	0x3e4b7871	0.19870164
27	0xbe4bba7a	-0.19895354
28	0xbdc41012	-0.09573378
29	0x3d0f3100	0.03495884
30	0xbe27fa6c	-0.16404122
31	0xbe7e0d14	-0.24809676
32	0x3d9e2642	0.07722141
33	0x3e03073a	0.12795725
34	0x3d1ae86b	0.037819307
35	0x3dfd73d4	0.12375608
36	0x3d90f5f6	0.07078163
37	0x3daa9a08	0.083301604
38	0x3da0ec51	0.07857574
39	0xbe0e79fa	-0.13913718
40	0x3e0160fb	0.12634651
41	0xbc9d95f4	-0.019236542
42	0x3e8a7e82	0.27049643
43	0x3dc55d24	0.09636906
44	0x3de00fb2	0.10940494
45	0x3e9e3f32	0.3090759
46	0x3bf1caef	0.007378928
47	0xbd38ac05	-0.045085926
48	0xbe9fdaff	-0.31221768
49	0xbcd6183a	-0.026134599
50	0x3e794e98	0.24346387
51	0xbcae774b	-0.021297118
52	0x3e3f19d9	0.18662204
53	0xbe6e41c7	-0.2326728
54	0x3e349b30	0.17637324
55	0xbd82836d	-0.06372724
56	0xbdbabf0a	-0.09118469
57	0x3e71ef1b	0.23626368
58	0xbce2c4fa	-0.027681816
59	0x3e1499d4	0.14511806
60	0x3dd10ec0	0.102078915
61	0xbe079529	-0.13240494
62	0x3d7afcbb	0.06127618
63	0x3ca2e76c	0.019885741
64	0xbe6ca464	-0.23109585
65	0xbe3c5723	-0.18392615
66	0xbcb81572	-0.022471163
67	0x3e2fdf60	0.17175055
68	0xbaa3cf65	-0.0012497721
69	0x3e0baee8	0.1364094
70	0x3ca55bd7	0.020185394
71	0xbb8d9c00	-0.004321575
72	0x3e607207	0.21918498
73	0x3d1b1e63	0.037870776
74	0x3e91fcdc	0.2851323
75	0x3cd74a71	0.026280614
76	0xbe126291	-0.14295413
77	0x3c15a9ae	0.009134693
78	0xbe3ab94d	-0.18234749
79	0xbdac42f5	-0.084112085
80	0x3d7e85c8	0.062139302
81	0x3c358c42	0.011080803
82	0xbd420f91	-0.047378127
83	0x3db563b5	0.08856908
84	0x3d2086a3	0.0391909
85	0xbc011df2	-0.007880675
86	0xbcff6b1d	-0.031179005
87	0x3e55aaa4	0.20865875
88	0x3e6c3c12	0.2306979
89	0x3e21db9b	0.15806429
90	0x3df62ac1	0.120198734
91	0xbe4f04ec	-0.20216721
92	0x3db45dd8	0.08806962
93	0xbccb5401	-0.02482033
94	0xbe44c27b	-0.19214813
95	0xbdbd3571	-0.09238709
96	0xbce2318c	-0.027611516
97	0x3c8f2672	0.017474387
98	0xbb35d4b9	-0.00277452
99	0xbdbd1be5	-0.09233836
100	0x3dd061bb	0.101748906
101	0x3cfbcaa7	0.03073628
102	0x3d9c5778	0.07633871
103	0xbd92159c	-0.07133028
104	0xbeca90f1	-0.39563707
105	0xbe126644	-0.14296824
106	0xbcf1ed6b	-0.029532155
107	0x3e00f1f2	0.12592295
108	0xbb38e1a2	-0.002821066
109	0x3e304406	0.17213449
110	0xbc9681ad	-0.018372381
111	0x3cb8bda4	0.022551365
112	0x3e2ebf1b	0.17065088
113	0x3d122179	0.035676453
114	0xbd8b9fa5	-0.06817559
115	0xbd7e7c44	-0.062130228
116	0xbe0c42a4	-0.13697296
117	0xbe27ce54	-0.16387302
118	0xbd5b692b	-0.053567093
119	0x3e019468	0.12654269
120	0xbe0d1bf8	-0.137802
121	0x3ca3987e	0.019970175
122	0x3c48d68b	0.012258182
123	0x3bf5b486	0.0074983267
124	0xbd5d581c	-0.054039106
125	0xbbbcd537	-0.005762722
126	0x3d69ce2d	0.05708139
127	0xbeabbdd1	-0.33543256
128	0x3dce71fc	0.100803345
129	0xbde27ad8	-0.11058587
130	0x3ed83e27	0.42234918
131	0x3d132d2a	0.035931744
132	0x3ce47ef8	0.027892575
133	0x3d298997	0.04139098
134	0x3cf1fa1d	0.029538209
135	0xbc5f7096	-0.013637682
136	0xbe3ed097	-0.18634258
137	0x3e0a818c	0.1352598
138	0xbdb7f23f	-0.08981752
139	0x3e18dce1	0.14928009
140	0xbeb9c18e	-0.36280483
141	0x3ea59d16	0.3234641
142	0x3e38d963	0.18051676
143	0xbd38f1a6	-0.04515233
144	0x3d462e48	0.04838398
145	0x3e20ec08	0.15715039
146	0xbd939726	-0.07206564
147	0x3cdbff64	0.026855178
148	0x3deae24e	0.114689454
149	0xbd92a3fb	-0.07160183
150	0x3e551172	0.20807436
151	0xbe772df9	-0.24138631
152	0x3d67c7c9	0.056587014
153	0xbd045c15	-0.03231438
154	0xbc9f6aa8	-0.019460037
155	0x3e3ea8b6	0.18619046
156	0x3d7c4328	0.061587483
157	0xbb7d88b9	-0.003868623
158	0xbe205d80	-0.15660667
159	0xbd907609	-0.070537634
160	0xbe860111	-0.2617269
161	0x3c31ceb9	0.010852509
162	0x3e033918	0.12814748
163	0xbd9d9384	-0.07694152
164	0xbd98f99a	-0.07469483
165	0xbda84362	-0.08215977
166	0xbe1c0ac9	-0.15238489
167	0x3e17c0ca	0.14819637
168	0xbc298c3f	-0.010348379
169	0x3e0b0461	0.13575889
170	0x3db23fde	0.08703588
171	0x3cb21519	0.021738576
172	0x3d9dc217	0.07703035
173	0xbda4d3ae	-0.08048187
174	0x3d00a47c	0.031406865
175	0x3d09165c	0.03346859
176	0xbe2e446f	-0.17018293
177	0xbe0caf8e	-0.13738844
178	0xbc5eefd7	-0.013606987
179	0x3db8512e	0.08999859
180	0x3d8101e3	0.06299188
181	0x3da0a65e	0.07844232
182	0xbc2e8e4b	-0.0106540425
183	0xbd64e8ad	-0.05588596
184	0x3e5c12e5	0.21491583
185	0x3cf263de	0.029588636
186	0x3e3a1ce8	0.1817509
187	0xbd0ec254	-0.034853294
188	0x3c2141fc	0.009842392
189	0xbe3690ea	-0.17828718
190	0xbd969bbb	-0.07353922
191	0x3e576b3a	0.21036997
192	0xbb8b2afd	-0.004247068
193	0xbe3b5164	-0.18292767
194	0xbc1e4f8e	-0.009662522
195	0x3d59c0f8	0.053162545
196	0xbc0e910d	-0.008701575
197	0x3d996217	0.07489412
198	0x3daebc39	0.085319944
199	0x3dd2fd10	0.10302174
200	0x3e574eaa	0.21026102
201	0xbc13a101	-0.009010554
202	0x3d82156f	0.063517444
203	0x3b3874ab	0.0028145711
204	0x3dddc0f8	0.108278215
205	0x3da8033f	0.08203744
206	0xbe1e579b	-0.15463106
207	0xbd905ebe	-0.07049321
208	0xbe88dc55	-0.267306
209	0x3daf9f83	0.08575346
210	0xbcb858cb	-0.022503277
211	0x3dfe2928	0.12410194
212	0x3de11588	0.10990435
213	0xbcde6c6b	-0.027151307
214	0xbdb00d06	-0.08596234
215	0x3e344ab1	0.17606618
216	0x3dabd870	0.083908916
217	0xbdbd94d0	-0.09256899
218	0x3bd999a0	0.006640628
219	0xbd7c9a22	-0.06167043
220	0x3d1cd693	0.03829057
221	0x3e237494	0.1596244
222	0x3e643583	0.22286038
223	0x3da3c6db	0.07996913
224	0x3e6beeb3	0.23040275
225	0x3dbc7018	0.09201068
226	0x3e07c081	0.13257028
227	0x3e098044	0.13427836
228	0x3dd00030	0.10156286
229	0xbd3c5124	-0.04597582
230	0xbd82f81f	-0.063949816
231	0xbe7561d0	-0.23963094
232	0xbdd0ea2f	-0.10200917
233	0x3d5216a8	0.051291138
234	0xbdc139b9	-0.09434838
235	0xbd2937ed	-0.0413131
236	0xbe04d707	-0.12972651
237	0xbbd4af44	-0.00649062
238	0xbe14e681	-0.14541055
239	0x3d96dd8d	0.07366476
240	0xbe8c2d97	-0.27378532
241	0x3dbc43de	0.09192632
242	0x3df0b12f	0.11752545
243	0xbc3e1a9c	-0.011603024
244	0xbcd77ef2	-0.02630565
245	0xbd8f9bcc	-0.07012138
246	0x3cdf6c53	0.027273333
247	0xbe041289	-0.12897696
248	0xbdc9eb16	-0.09859292
249	0x3da4ceff	0.08047294
250	0xbdc4f67a	-0.09617324
251	0xbcff5c31	-0.03117189
252	0x3e9f23b3	0.31081924
253	0xbdd95876	-0.10612576
254	0x3dbe3b30	0.09288633
255	0xbdb5de5e	-0.08880304

network_body._body_endoder.seq_layers.2.bias f4 [128]
0	0xbbb09d39	-0.005389836
1	0xbb3cd078	-0.002881078
2	0xbb7edd2c	-0.0038889153
3	0xbb18dcbc	-0.0023324927
4	0x3bbd97c8	0.005785916
5	0xbc1a446e	-0.009415729
6	0x3a9edf55	0.0012121001
7	0x3bc8554c	0.006113684
8	0xbbd0d78e	-0.0063733524
9	0x3b4ccd8d	0.0031250448
10	0x3b0a51e3	0.0021105937
11	0x3bf44b04	0.0074552316
12	0x3b0517af	0.0020308306
13	0xbb2165f7	-0.0024627426
14	0x3b49c457	0.0030787194
15	0xbb3bef8f	-0.0028676724
16	0xbbe15196	-0.006876181
17	0x3aee2b58	0.0018170876
18	0xbba4cfcb	-0.0050296537
19	0x3b658466	0.0035021543
20	0x3a774638	0.00094327657
21	0xbc00a53e	-0.007851897
22	0xbbb1b0c7	-0.005422685
23	0xbba2f4d0	-0.0049730316
24	0xbbc83440	-0.0061097443
25	0x3b6bd6f6	0.003598628
26	0x3b5f4aa8	0.0034071598
27	0x3bf5623a	0.007488516
28	0xbc0de5e3	-0.008660766
29	0xbb86c98a	-0.004113381
30	0x3b524604	0.003208519
31	0xbbee9e56	-0.0072820587
32	0x3bc3aee4	0.0059717763
33	0xbb8fd4a2	-0.0043893615
34	0x3b694694	0.0035595046
35	0x3acff0f8	0.0015864661
36	0xbabffcc3	-0.0014647472
37	0xbb51c98a	-0.0032010996
38	0x3a99eec6	0.0011744134
39	0x3b90f7fb	0.004424093
40	0x3ad3b6f8	0.0016152551
41	0x3b19840f	0.002342466
42	0x3c05b47a	0.008160705
43	0x3a9d57bc	0.0012004296
44	0xbacffd78	-0.0015868386
45	0x3b8e1cc8	0.004336927
46	0x3b14caa7	0.0022703798
47	0xba996df3	-0.0011705741
48	0xbb5bd190	-0.0033541657
49	0x3ad59c0a	0.0016297114
50	0x3b59773a	0.0033182637
51	0xbc3ffd94	-0.011718173
52	0xbac8320d	-0.0015273705
53	0x3b313ef4	0.002704558
54	0xbb8e0b2b	-0.0043348274
55	0x3bc97cae	0.006148896
56	0xbc0447e5	-0.008073782
57	0xbab5d7a7	-0.0013873474
58	0xbb5cadbf	-0.0033672897
59	0xbc008f7b	-0.007846708
60	0x3bfc9631	0.007708334
61	0x3b879767	0.0041379216
62	0xba695070	-0.0008900231
63	0xbb30640e	-0.0026915106
64	0x3b87093e	0.004120975
65	0xbb80759d	-0.0039202706
66	0x3b2a5b0e	0.0025994214
67	0xbb94f27a	-0.004545507
68	0x3b79415a	0.0038033337
69	0x3b03fec7	0.0020140873
70	0xbaf00a64	-0.0018313644
71	0xbb0d26dd	-0.0021538057
72	0xbc2a326d	-0.010387999
73	0xbae7315c	-0.0017638612
74	0x3aa4fa47	0.0012586795
75	0xbb627dfc	-0.0034559956
76	0x3bf0fe11	0.007354506
77	0x3c240c84	0.01001275
78	0x3b35f2e4	0.0027763182
79	0xbbf5581b	-0.0074873096
80	0x3b1be561	0.0023787844
81	0x392a4425	0.00016237849
82	0xbbafd7fc	-0.0053663235
83	0x3c070006	0.008239752
84	0xb9629788	-0.0002160949
85	0x3b440d77	0.0029915252
86	0x3bb0d4c6	0.0053964583
87	0xbb5105f6	-0.0031894422
88	0xbbcdf19b	-0.006284905
89	0x3b917aa1	0.0044396673
90	0x3b6f8e36	0.003655327
91	0xb81eb4a4	-3.783837e-05
92	0xbba1f32e	-0.0049423194
93	0x3bd5cca8	0.006524641
94	0x3ac6dbf5	0.0015171753
95	0xb9c78930	-0.0003805845
96	0x3aa24d7c	0.0012382711
97	0xbb4c224b	-0.003114837
98	0x39479bf5	0.00019036217
99	0xbb854929	-0.0040675593
100	0xbc620c16	-0.013796827
101	0xbb9e2d2c	-0.0048271623
102	0x3be48cf5	0.006974811
103	0xbc6b848a	-0.0143748615
104	0xbc00921d	-0.007847336
105	0x3b339e17	0.0027407461
106	0x3b8fd185	0.0043889903
107	0x3b87b0ee	0.0041409647
108	0xbad5c2fa	-0.0016308718
109	0xbbca9cb7	-0.0061832326
110	0xbb694a09	-0.0035597107
111	0x3a57bff9	0.0008230205
112	0x3ba77ae8	0.005111087
113	0x3c0d0ad9	0.008608543
114	0x3b2fe137	0.002683712
115	0xbc9339b5	-0.017971853
116	0x3bb48a86	0.0055096773
117	0xbc08d921	-0.008352549
118	0xbbcf1ddb	-0.0063206977
119	0x3bd59c2d	0.0065188617
120	0xbb6ff1e7	-0.003661269
121	0x39a54c25	0.00031527985
122	0xbc0da651	-0.00864561
123	0x3b24df6c	0.0025157584
124	0xbb9cc735	-0.0047844895
125	0xba59541b	-0.0008290426
126	0xbb3842a9	-0.0028115904
127	0xbace41a4	-0.0015736115

network_body._body_endoder.seq_layers.2.weight f4 [128, 128]
0	0x3dddce47	0.1083036
1	0xbdcd928e	-0.10037719
2	0xbd281ed5	-0.04104503
3	0x3d001b60	0.031276107
4	0xba38d7fa	-0.0007051226
5	0xbc056342	-0.008141341
6	0xbd199244	-0.037493005
7	0xbae607bf	-0.0017549916
8	0x3d4f4616	0.05060395
9	0x3d190caf	0.03736561
10	0xbd27e061	-0.04098547
11	0xbd1dab22	-0.038493283
12	0x3dafaff9	0.08578486
13	0x3d4fe3e7	0.050754454
14	0xbe0699b8	-0.13144577
15	0xbd7ea4ad	-0.062168766
16	0x3c8b591e	0.017010268
17	0x3d127ed6	0.03576549
18	0xbe19b112	-0.15008953
19	0xbd8db846	-0.06919913
20	0xbdc869db	-0.09785815
21	0x3b17f1d8	0.0023184922
22	0xbd82228b	-0.06354245
23	0x3d07fd4f	0.03320056
24	0xbd86234d	-0.06549702
25	0x3dfe07f5	0.124038614
26	0x3d2c5714	0.04207523
27	0xbd2b2490	-0.041782916
28	0xbdda32db	-0.10654231
29	0xbc813fc6	-0.01577748
30	0xbcfaaf1b	-0.030601075
31	0xbcc63849	-0.02419676
32	0x3e559a40	0.20859623
33	0x3e1381ff	0.14405058
34	0x3d351993	0.044213843
35	0x3c768592	0.015046494
36	0xbddd3095	-0.10800282
37	0x3c7a1b79	0.015265339
38	0xbd862024	-0.06549099
39	0x3e2865dd	0.16445108
40	0xbc966ea4	-0.018363304
41	0x3d34b4af	0.044117626
42	0xbd8cdfed	-0.06878648
43	0xbd712ff5	-0.058883626
44	0xbdba0744	-0.09083417
45	0x3c0b27e2	0.0084933955
46	0x3d672f9e	0.056441896
47	0xbdd0fe52	-0.10204758
48	0xbdd5cc92	-0.10439409
49	0x3dd187b4	0.102309614
50	0xbde034d0	-0.10947573
51	0xbda27b42	-0.07933666
52	0x3d3230ea	0.04350368
53	0x3bc70b2b	0.0060743294
54	0xbd0212c4	-0.031756178
55	0xbdf64fc4	-0.12026933
56	0xbe372bdb	-0.17887823
57	0xbdf0abb0	-0.11751497
58	0x3c3f3471	0.011670218
59	0x3e032b5b	0.12809508
60	0x3d8af3d6	0.06784789
61	0xbd699098	-0.05702266
62	0xbdd24646	-0.1026731
63	0xbd17fd18	-0.037106603
64	0xbddfd750	-0.109297395
65	0x3c96b445	0.018396506
66	0x3df14774	0.11781207
67	0xbdc44a16	-0.09584443
68	0xbd954d53	-0.07290139
69	0x3ca6de17	0.020369573
70	0xbd9a4fd4	-0.07534757
71	0x3cce7a7e	0.025204893
72	0xbd931dca	-0.07183416
73	0x3d83b5d4	0.06431165
74	0xbd2b3dfa	-0.041807152
75	0x3d7887ee	0.060676508
76	0xbcdab81e	-0.026699122
77	0xbd8f0d20	-0.06984925
78	0x3c8bddd5	0.017073551
79	0xbd0b1bff	-0.033962246
80	0xbd359dfc	-0.04434012
81	0xbd60c0fe	-0.05487155
82	0xbe12cba8	-0.14335501
83	0x3d62e2cd	0.055392075
84	0xbdc2a7d1	-0.09504665
85	0x3e51e1ed	0.2049634
86	0x3dca00c2	0.09863426
87	0xbd2465ec	-0.040136263
88	0x3dd6175d	0.10453675
89	0x3d6cd12a	0.057816662
90	0xbd7eed41	-0.06223798
91	0x3cd1067b	0.025515785
92	0x3db0184c	0.08598384
93	0xbddeface	-0.10887681
94	0xbc98eda2	-0.018668
95	0x3dbbff4e	0.09179555
96	0x3de02b75	0.10945789
97	0x3dbda88b	0.09260663
98	0x3d5896b5	0.0528781
99	0x3e31b7d2	0.17355278
100	0x3dec7570	0.11545837
101	0xbdbdd89b	-0.0926983
102	0x3c0a0f93	0.008426565
103	0x3e4319f1	0.19052865
104	0xbd9313a6	-0.07181482
105	0xbe27db8b	-0.16392343
106	0xb8f260c7	-0.000115574854
107	0xbd3f945c	-0.046772346
108	0x3d34dda8	0.0441567
109	0x3dfb8265	0.1228073
110	0xbbb5cd95	-0.005548189
111	0xbd3d4769	-0.04621068
112	0x3d391172	0.045182653
113	0x3ddc7902	0.10765268
114	0x3d85deb6	0.06536619
115	0x3e4ab3a4	0.1979509
116	0x3de51b5f	0.11186861
117	0xbe83e36f	-0.25759456
118	0xbd833c47	-0.06407981
119	0x3d36384e	0.04448729
120	0xbd55c7ed	-0.052192617
121	0x3e006b33	0.12540893
122	0xbb86b638	-0.0041110776
123	0x3e5b063b	0.21389095
124	0xbc2ffa0b	-0.010740767
125	0xbd6c058a	-0.05762247
126	0x3e34d5f2	0.17659739
127	0xbe590077	-0.21191584
128	0x3b90f961	0.0044242595
129	0x3d9989b3	0.07496967
130	0x3e1a91a7	0.15094624
131	0xbd825377	-0.06363576
132	0xbe1f59bf	-0.15561579
133	0xbce4b0f8	-0.027916417
134	0x3d6aad7e	0.05729436
135	0xbdd93745	-0.10606245
136	0x3e2bc8ff	0.16775893
137	0x3d733c0b	0.059383433
138	0x3d2d180f	0.042259272
139	0xbcac82b6	-0.021058422
140	0xbd836b00	-0.06416893
141	0x3dfb24ac	0.12262854
142	0xbe70914f	-0.23492931
143	0xbc818763	-0.015811628
144	0x3dbc8126	0.092043206
145	0x3db2b018	0.087249935
146	0x3ca1ff80	0.019775152
147	0x3e5da5b9	0.2164525
148	0xbbc71ddb	-0.006076557
149	0xbbd90e25	-0.0066240006
150	0x3e0f37a3	0.13986067
151	0x3a4a92ca	0.0007727562
152	0x3d9c4c11	0.07631696
153	0x3e0212fd	0.12702556
154	0xbcde2074	-0.027115084
155	0x3e4c57b9	0.19955339
156	0x3d9fe7c7	0.0780788
157	0xbdaafb10	-0.083486676
158	0x3e1d3df4	0.15355664
159	0xbdf7c4b0	-0.12098062
160	0xbdf27267	-0.11838227
161	0x3d672d8b	0.056439918
162	0x3dfa0e94	0.12209812
163	0x3e14ed19	0.1454357
164	0x3e516963	0.20450358
165	0xbcc31783	-0.023814922
166	0x3e1317f8	0.14364612
167	0xbd9e88e3	-0.07740953
168	0x3db3b044	0.087738544
169	0xbca94bc4	-0.02066601
170	0xbe169e97	-0.14708935
171	0xbdc7d082	-0.097565666
172	0x3d858909	0.06520278
173	0xbd01e6a9	-0.031714115
174	0x3b5b195b	0.003343186
175	0xbd9ca264	-0.07648161
176	0xbd0cb6d0	-0.03435403
177	0x3d03f1f4	0.032213166
178	0x3d59550a	0.053059615
179	0xbe09d40e	-0.13459799
180	0x3be02e33	0.006841445
181	0xbce075d8	-0.027399942
182	0x3cacb456	0.021082085
183	0x3cbb0fed	0.022834742
184	0xbdc80cb4	-0.09768048
185	0xbc046c31	-0.0080824355
186	0x3df61a71	0.12016762
187	0x3ddc6f5b	0.10763427
188	0x3d7a30c6	0.06108167
189	0x3dad5745	0.08463911
190	0xbe06fdd7	-0.1318277
191	0x3dc58408	0.096443236
192	0x3d20f85b	0.03929935
193	0x3d847661	0.064678915
194	0xbd857e7e	-0.06518267
195	0x3e0a2405	0.13490303
196	0xbdbaaa3f	-0.09114503
197	0x3d5217ba	0.05129216
198	0x3d9d513c	0.0768151
199	0x3bf8e4d7	0.007595639
200	0x3b2f27e7	0.0026726665
201	0xbcd3958d	-0.025828147
202	0x3dd04a97	0.10170477
203	0x3e1dd335	0.154126
204	0xbdc7f75a	-0.097639754
205	0x3d3bc37f	0.045840736
206	0x3e28a271	0.16468216
207	0xbce0cfb9	-0.0274428
208	0xbbebb702	-0.007193447
209	0xbacd9153	-0.0015683569
210	0x3e6cf8e0	0.23141813
211	0xbd2e9b2f	-0.042628463
212	0xbe00aaf8	-0.1256522
213	0xbd4b8f19	-0.049697015
214	0x3dc196b2	0.09452571
215	0xbdaf5c1c	-0.0856249
216	0x3d43d24d	0.04780798
217	0x3dae07f2	0.08497609
218	0x3c5bcd88	0.013415702
219	0x3d09a12e	0.03360098
220	0x3d2d4d4d	0.042310048
221	0xbc4d02bd	-0.01251286
222	0xbd593255	-0.053026516
223	0xbe30e0ca	-0.1727325
224	0xbe3021f3	-0.1720045
225	0xbb6287df	-0.0034565849
226	0x3e1c6393	0.1527236
227	0xbe0d7e8c	-0.13817805
228	0x3d75d5f8	0.06001851
229	0x3e1b486b	0.15164344
230	0xbdbd473a	-0.09242101
231	0x3dcf8060	0.101319075
232	0xbc3700b5	-0.011169602
233	0x3bcae060	0.0061912984
234	0xbc6faded	-0.0146288695
235	0x3caa8f36	0.020820241
236	0xbc8d3258	-0.01723592
237	0x3e263247	0.16230117
238	0x3d9bc171	0.076052554
239	0x3d3ba0ec	0.045807764
240	0xbc6d2025	-0.014472996
241	0x3d5fc533	0.054631423
242	0xbbcdcd1d	-0.006280555
243	0x3df73526	0.12070684
244	0x3cf92c55	0.030416647
245	0xbda2b904	-0.07945445
246	0x3cd7606f	0.0262911
247	0x3d22774c	0.03966455
248	0xbe081646	-0.13289747
249	0xbdcef802	-0.101058975
250	0x3c0d4f19	0.008624815
251	0x3d6e7555	0.058217365
252	0x3c522fa6	0.012828743
253	0x3d427d3e	0.04748272
254	0x3bd16c83	0.0063911094
255	0xbcfeb701	-0.031093122
