results/phase3_t2_final/NPCAgent/NPCAgent-11130.onnx (onnx, 107855 bytes, 9 tensors)

action_model._continuous_distribution.log_sigma f4 [1, 2]
0	0x3b099885	0.002099545
1	0x39c12738	0.0003684105

action_model._continuous_distribution.mu.bias f4 [2]
0	0xba790c7b	-0.0009500456
1	0xbaf29e2f	-0.0018510277

action_model._continuous_distribution.mu.weight f4 [2, 128]
0	0x3cf5dddb	0.030013015
1	0x3c009386	0.007847672
2	0xbccba41f	-0.024858532
3	0xbd04a19f	-0.032380696
4	0xb92fb4c5	-0.00016756642
5	0x3aac4d9e	0.001314569
6	0x3ac5c3b0	0.0015088227
7	0xbb7cc051	-0.0038566778
8	0xbbcbc85b	-0.0062189526
9	0xbc085fb3	-0.008323598
10	0xbcd7b444	-0.026331075
11	0xbd020b8a	-0.031749286
12	0x3ccd1c94	0.025038041
13	0x3c75215a	0.014961565
14	0xbca751ae	-0.02042469
15	0xbcbfb49a	-0.023401547
16	0xba9ebb0c	-0.0012110188
17	0xbcc83df2	-0.0244436
18	0xbd00ba32	-0.03142757
19	0xbbe5ed05	-0.0070167803
20	0x3b6907b4	0.003555757
21	0xbc8f1b44	-0.017469056
22	0xba0369ff	-0.0005013048
23	0xbcee8314	-0.029115237
24	0x3c8605f0	0.016360253
25	0xbbd965ed	-0.006634465
26	0xbc36515d	-0.011127797
27	0x3c866554	0.016405739
28	0x3c8832fc	0.016625874
29	0x3c3ef747	0.011655635
30	0x3b1d96dc	0.0024046218
31	0x38cc1b7c	9.7325974e-05
32	0x3bd8bd58	0.0066143684
33	0x3b8e9a20	0.004351869
34	0xbb478e39	-0.0030449762
35	0xbb54715c	-0.00324162
36	0x3d04450e	0.03229242
37	0x3c274efd	0.010211703
38	0x3c67a632	0.014138745
39	0x3bbc8147	0.0057527157
40	0x3b47bf7d	0.0030479126
41	0xbca52e8b	-0.020163795
42	0x3b1bb87f	0.0023761091
43	0xbd4787de	-0.048713557
44	0xbc2987d0	-0.010347322
45	0xbd017e3b	-0.031614523
46	0xbc330b22	-0.010927947
47	0x3c25c85d	0.010118571
48	0x3c8a8846	0.016910683
49	0x3c60b565	0.013715123
50	0xbcabe09d	-0.020981127
51	0xbbb769ec	-0.0055973437
52	0xba344822	-0.00068772037
53	0x3c2ef24f	0.010677888
54	0xbbddcbe9	-0.0067686928
55	0x3c057f53	0.008148032
56	0x3cad7b4b	0.021176955
57	0x3cb814d5	0.022470871
58	0xbbf3882f	-0.007432006
59	0x3c277612	0.010221021
60	0x3c4caed5	0.012492855
61	0x3c894101	0.01675463
62	0x3c2bb35d	0.010479775
63	0xbb144079	-0.0022621437
64	0xbc88e90a	-0.016712684
65	0xbbace317	-0.0052760947
66	0x3c17f49c	0.009274628
67	0xbbd02508	-0.0063520707
68	0xbc9d380f	-0.01919177
69	0xbc971f58	-0.018447563
70	0x3c3dcabc	0.01158398
71	0xbc9ef983	-0.019406086
72	0xbd009c66	-0.031399153
73	0x3cb0bee6	0.021575402
74	0xbc09243b	-0.008370454
75	0xbbb1ea72	-0.0054295594
76	0x3b2d175f	0.0026411635
77	0x3c83ae66	0.01607437
78	0x3b4b232d	0.0030996308
79	0x3bbc22de	0.005741461
80	0xbc709baf	-0.014685555
81	0x3c705524	0.014668737
82	0x3c35c27e	0.011093734
83	0x3c7347d8	0.014848672
84	0x3cbab38b	0.02279069
85	0x3c1b8acd	0.009493542
86	0x3c6699c2	0.014074745
87	0xbb9645fa	-0.0045859786
88	0x3b816ffc	0.003950117
89	0x3bcfc9b3	0.006341183
90	0x3c9131e2	0.017723981
91	0xbbfb685c	-0.0076723527
92	0xbcc3f0be	-0.023918506
93	0xbc228433	-0.009919214
94	0x3c0b5fd2	0.008506732
95	0x3b8dc1df	0.0043260898
96	0x3cb63d19	0.02224593
97	0x3bb49be8	0.0055117495
98	0x3bc5c598	0.006035518
99	0xbd3f6ca7	-0.04673448
100	0xbc80b24a	-0.015710015
101	0xbbae1bcc	-0.0053133722
102	0x3c29a521	0.010354311
103	0x3bb71f17	0.005588423
104	0xbd0e9721	-0.034812097
105	0x3a24b02e	0.00062823563
106	0x3c391d74	0.011298526
107	0x3c4336e5	0.011914943
108	0xbb914130	-0.00443282
109	0x3d2a7cf7	0.041623082
110	0xbd0461a1	-0.03231967
111	0xbb06875a	-0.0020527453
112	0x3bd4eb47	0.006497774
113	0xba805fa6	-0.000979413
114	0x3bcb313e	0.0062009385
115	0xbc97f683	-0.018550163
116	0xbd057ca3	-0.032589566
117	0x3ba317b1	0.0049771895
118	0xbc324de8	-0.010882832
119	0x3ba352cb	0.004984235
120	0xbc5cab00	-0.013468504
121	0xbc91c94e	-0.017796185
122	0xbc8c43bd	-0.017122144
123	0x3bbc6345	0.0057491385
124	0x3ca733f4	0.020410515
125	0xbc0535a3	-0.008130464
126	0xbc96ed07	-0.01842357
127	0x3c0307bb	0.007997449
128	0xbc0273b3	-0.007962155
129	0xbc82c9ef	-0.01596543
130	0xbbe8cfed	-0.007104865
131	0x3b6c0bfa	0.003601788
132	0xbbbf27a4	-0.005833583
133	0xbc569275	-0.0130964415
134	0x3c7b1bb0	0.015326425
135	0x3c9d4b33	0.019200897
136	0x3c61ac00	0.013773918
137	0x3bd93359	0.0066284356
138	0xbbfc18b8	-0.0076933764
139	0xbca69e03	-0.020339018
140	0x3c00820f	0.007843508
141	0xbc888b8d	-0.016668105
142	0x3d27206a	0.040802397
143	0xbd23eb3d	-0.040019263
144	0xbcb28f43	-0.021796828
145	0x3cb250c2	0.021767024
146	0xbc5f7021	-0.013637573
147	0xbbd72326	-0.0065654693
148	0xb95c5f5f	-0.00021016363
149	0x3c8a7098	0.016899392
150	0xbc486c56	-0.012232861
151	0xbbbbcd80	-0.0057312846
152	0xbca5724e	-0.020196106
153	0x3cbd5645	0.023112426
154	0xbcf10b76	-0.02942441
155	0x3ba50738	0.005036261
156	0xbc356d2d	-0.011073393
157	0xbbd30fd7	-0.0064410972
158	0x3bf440b2	0.0074540013
159	0xbc04218d	-0.00806464
160	0xbc48d145	-0.012256925
161	0x3b495540	0.003072098
162	0xba72882a	-0.00092518574
163	0xbbb313de	-0.005465015
164	0xbb8c1b5c	-0.0042757224
165	0x3bc0e605	0.0058867955
166	0x3b1cb7e6	0.0023913323
167	0x3d1a581f	0.037681695
168	0xbc20c8b0	-0.009813473
169	0x3c415cf3	0.011801946
170	0xbc6b074e	-0.014345003
171	0x3be9e6c1	0.0071381037
172	0xbbb4e3e8	-0.0055203326
173	0xbc857725	-0.016292164
174	0xbd08f691	-0.03343827
175	0xbc4507e3	-0.012025806
176	0x3c279263	0.010227772
177	0xbc083e43	-0.008315626
178	0x3d3b264c	0.04569082
179	0xbc9bdd27	-0.019026352
180	0xbbb947c2	-0.005654306
181	0xbc94468e	-0.01810005
182	0xbb74528b	-0.0037280645
183	0x3b1f9b10	0.00243539
184	0xbc8556cb	-0.016276738
185	0xbbeb32b4	-0.007177675
186	0xbc8e2e33	-0.017356014
187	0xbc3558e1	-0.011068554
188	0xbca7772a	-0.020442564
189	0x3cacd11c	0.021095805
190	0xbb0f912d	-0.00219066
191	0x3c2f477d	0.0106981965
192	0x3b90f584	0.004423799
193	0x3ba70d33	0.005098009
194	0xbbad7a58	-0.0052941255
195	0xbc4cf567	-0.01250968
196	0xbc39af57	-0.011333308
197	0xbcc84065	-0.024444768
198	0xbc701e5a	-0.014655674
199	0xbc3e1afe	-0.011603115
200	0xbccaae25	-0.024741242
201	0x3caee09e	0.02134734
202	0x3cef4b53	0.029210722
203	0x3c6a5c92	0.014304297
204	0x3931014a	0.00016880516
205	0x3b3a9a4d	0.0028473318
206	0xbc71b312	-0.014752166
207	0xbcafbb3a	-0.021451581
208	0xbc5d5c35	-0.013510753
209	0x3ce887c6	0.028385054
210	0xbcb3dabd	-0.021954888
211	0x3d3b3322	0.04570306
212	0xbac84da1	-0.0015281924
213	0xbc13c031	-0.00901799
214	0xbb6d15a2	-0.0036176224
215	0xbc5776ea	-0.01315091
216	0x3c68d74b	0.014211486
217	0x3c69f01b	0.014278437
218	0xbc129d3a	-0.008948619
219	0xbccf21b3	-0.025284624
220	0x3a95660e	0.0011398213
221	0x3b992015	0.004673014
222	0x3c04e7b9	0.008111888
223	0x3b635764	0.003468954
224	0xbc769ffd	-0.015052793
225	0xbc85a8a4	-0.016315766
226	0xbc98b7db	-0.018642357
227	0xbc37149b	-0.011174346
228	0x3b2edcb0	0.0026681833
229	0x3be85436	0.007090117
230	0xbccb73bf	-0.024835465
231	0x3afa71e6	0.0019107431
232	0xbc448786	-0.011995202
233	0x3bbcd79b	0.005763007
234	0xbc91d9d6	-0.017804068
235	0x3a31e755	0.00067864853
236	0xbc6c1568	-0.0144094005
237	0xbba6122a	-0.0050680833
238	0x3d3648a3	0.044502866
239	0x3bafb3d8	0.005362015
240	0xba37bce8	-0.0007009045
241	0xbcd842da	-0.026399065
242	0x3be741b5	0.0070573934
243	0xbc9adf24	-0.01890523
244	0xbc5302c1	-0.012879075
245	0x3bfd658d	0.007733053
246	0x3ceb09d6	0.028691214
247	0xbcf728df	-0.030170856
248	0x3c014f99	0.007892513
249	0x3cbc0da8	0.02295573
250	0x3ba4d479	0.0050302115
251	0x3c6332a5	0.013867055
252	0xbcbb3c1a	-0.022855807
253	0x3d22a600	0.03970909
254	0x3cbe1942	0.023205403
255	0xbb272d48	-0.0025509167

action_model._discrete_distribution.branches.0.bias f4 [2]
0	0x3a9d1501	0.0011984409
1	0xba9d1502	-0.001198441

action_model._discrete_distribution.branches.0.weight f4 [2, 128]
0	0xba430a78	-0.00074402196
1	0xba9b00f2	-0.0011825843
2	0x3b72f97e	0.0037074978
3	0x3c423b6b	0.011854987
4	0x3c3c6c8e	0.011500491
5	0x3b2d4c7d	0.0026443296
6	0xb9d7b202	-0.00041140622
7	0xb9dbae3b	-0.00041900747
8	0x3b98b688	0.0046604313
9	0xba3ac7bb	-0.0007125099
10	0xbb83fb0b	-0.0040277294
11	0xbb8a20ab	-0.00421532
12	0x3c2590d1	0.010105328
13	0xbc09c0ad	-0.008407754
14	0xbc3d7bdd	-0.011565176
15	0xbacf7376	-0.0015827257
16	0x3bc3c269	0.005974103
17	0xbbd5e5bb	-0.00652763
18	0xbc1e4069	-0.009658911
19	0xbc0777bb	-0.008268292
20	0xbbc2eaf8	-0.0059484206
21	0x3c8be4e8	0.017076924
22	0x3b5dbd32	0.0033834693
23	0x3bbd4598	0.0057761185
24	0xbc2f11e6	-0.01068542
25	0x3be4e3c1	0.006985158
26	0xbc4e49cf	-0.0125908395
27	0x3c2f96ba	0.010717088
28	0x3a20a21c	0.0006127672
29	0xb92b5fc6	-0.00016343509
30	0xbc213afa	-0.009840721
31	0xbc873768	-0.016505912
32	0x3ba9660d	0.005169636
33	0xbc83c559	-0.016085314
34	0x3b598adb	0.0033194337
35	0x3c1ca043	0.009559694
36	0x3c1bc254	0.009506781
37	0x3b2d10e2	0.0026407768
38	0xbc912a77	-0.017720444
39	0x3a927060	0.0011172406
40	0xb967efaa	-0.00022119159
41	0x3bdb220c	0.0066874083
42	0xbc3d52c2	-0.0115553755
43	0x3bbbb702	0.0057286033
44	0xbc524264	-0.012833212
45	0x3c10ba42	0.00883347
46	0x3b9d6cfc	0.0048042517
47	0x3c14747e	0.009060977
48	0x3bc36a03	0.0059635653
49	0xbc851e33	-0.016249752
50	0xb7cdc11c	-2.4527828e-05
51	0x3b3c8526	0.0028765886
52	0x3b789098	0.0037927981
53	0xbc2f1b4f	-0.010687663
54	0xbc6c0f3b	-0.014407928
55	0x3bbd2e00	0.005773306
56	0xbbf52c4e	-0.007482088
57	0x3b58dba0	0.003308989
58	0x3bd31be0	0.006442532
59	0xbb88262d	-0.0041549415
60	0x3ac82b01	0.0015271605
61	0x3c506d48	0.012721367
62	0x3bdfc581	0.006828964
63	0xbbdda1d0	-0.0067636743
64	0x3c47a41c	0.012185123
65	0xbbbfa5af	-0.0058486084
66	0x3b813f38	0.003944304
67	0xbb8e9dad	-0.0043522925
68	0xbbeee842	-0.007290871
69	0xbb8e49c8	-0.0043422915
70	0x3bc76198	0.006084632
71	0x3ab7902a	0.0014004756
72	0x3b4c5847	0.0031180547
73	0x3b09900e	0.0020990404
74	0x3c10f470	0.008847341
75	0x3b89806d	0.0041962177
76	0x3bd3d36b	0.006464412
77	0x3c65c2b9	0.014023476
78	0x3c473800	0.0121593475
79	0xbb2c8c8d	-0.0026328892
80	0x3c5c41e8	0.013443448
81	0x3b0c23f0	0.0021383725
82	0x3c0eacd4	0.008708198
83	0xba9e0d36	-0.001205838
84	0xbb8fa84d	-0.0043840767
85	0xbb155312	-0.002278511
86	0x3c6147bf	0.013750016
87	0x3c019bc3	0.007910672
88	0xbb25ef2f	-0.0025319566
89	0xba0482a4	-0.00050548674
90	0xbbab18c1	-0.0052214568
91	0x3b0fefbf	0.0021962968
92	0xbc1f3306	-0.009716755
93	0xbc852cc2	-0.016256694
94	0x3bf3479a	0.007424307
95	0x3c778385	0.01510704
96	0xbcc3de4e	-0.023909714
97	0xbb76fbe4	-0.003768676
98	0xbc56dd00	-0.013114214
99	0xbb473766	-0.003039801
100	0x3ba410c1	0.00500688
101	0x3a1efb3d	0.0006064659
102	0xbb55dc88	-0.0032632668
103	0x3b3afb1c	0.002853102
104	0x3babfae5	0.005248415
105	0x3c1e7a2d	0.009672684
106	0x3c1b61d5	0.009483774
107	0xbaeabf42	-0.0017909782
108	0x38609f06	5.3553864e-05
109	0x3bc35073	0.005960518
110	0x3ae138a6	0.001718302
111	0x3c8e6f78	0.017387137
112	0x3c958539	0.018252002
113	0xbc0d4e86	-0.0086246785
114	0xb9ca8b26	-0.00038632116
115	0x3a3dc6a2	0.00072393764
116	0xbc046f58	-0.008083187
117	0xbc035b9a	-0.008017445
118	0x3a971de5	0.0011529295
119	0xbb214d85	-0.0024612856
120	0x3c0866a9	0.008325257
121	0xbc1391bc	-0.009006914
122	0xbbcf8037	-0.006332423
123	0xbb5f0702	-0.0034031277
124	0x3b803ab9	0.0039132503
125	0xbc0bf381	-0.008541943
126	0xbc433825	-0.011915241
127	0x3a40fc13	0.0007361781
128	0xbba631bb	-0.0050718463
129	0x3b29e46e	0.0025923508
130	0xbc096c84	-0.008387689
131	0x3b90f42e	0.0044236397
132	0xbc909fe4	-0.017654367
133	0xbcac42fd	-0.021028036
134	0xbb5dbd95	-0.0033834924
135	0x3c098d54	0.008395512
136	0x3ba08db6	0.0048997058
137	0x3b7c51f2	0.0038500992
138	0xbbea6843	-0.0071535422
139	0x3afba7ca	0.0019199785
140	0xbbac42da	-0.0052569928
141	0x3c90f203	0.017693525
142	0xba8baa04	-0.0010655527
143	0xbbe1ef01	-0.0068949466
144	0xba994023	-0.0011692088
145	0x3aa71ddf	0.0012749991
146	0x3b6060ca	0.0034237378
147	0x39c7ab92	0.00038084068
148	0x3b3b62c2	0.00285928
149	0x3bcbe53b	0.0062223948
150	0x3c008771	0.007844792
151	0xbb924e3d	-0.004464893
152	0x3c83302c	0.016014181
153	0x39fcf934	0.00048250856
154	0xb8b8f545	-8.819489e-05
155	0x3a801ded	0.0009774544
156	0xbb5bfc9e	-0.003356732
157	0x3aa9be84	0.0012950455
158	0xbc396f1a	-0.011317993
159	0x3b020e10	0.0019844808
160	0xbc10bb2a	-0.008833686
161	0xbc913975	-0.017727593
162	0x3bc2834c	0.005936062
163	0x3be0822f	0.0068514566
164	0x3c37c3a3	0.011216077
165	0x3c79dd01	0.015250445
166	0x3c401add	0.011725155
167	0xba9a3921	-0.0011766293
168	0x3cb6e07e	0.022323843
169	0xba2c922e	-0.0006583062
170	0x3bc73e0b	0.006080394
171	0x3b9f3e48	0.0048597194
172	0xbbe487f2	-0.0069742138
173	0xbc9aca50	-0.018895298
174	0xbc582446	-0.013192242
175	0x3c72c8fe	0.014818428
176	0x3ca032b6	0.01955543
177	0xbc31ce2f	-0.010852381
178	0x3c054f76	0.008136621
179	0xbc4620ae	-0.012092752
180	0x3c3743cb	0.011185597
181	0xbc19b083	-0.009380463
182	0xbbe2f728	-0.006926436
183	0x3c28fa56	0.010313591
184	0xb9ffb28d	-0.0004877042
185	0xbb9e5af4	-0.00483262
186	0x3aeccfb4	0.0018067271
187	0x3bb1655a	0.0054136934
188	0xbb542f8a	-0.0032376968
189	0x3c0ee582	0.008721711
190	0xbb088e59	-0.00208368
191	0x3b104330	0.0022012703
192	0xbab6473e	-0.001390673
193	0x3c3dcaa3	0.011583957
194	0xbbb7fa0a	-0.005614524
195	0xba207873	-0.0006121464
196	0xbb10b2f9	-0.0022079332
197	0x3bb5b695	0.005545447
198	0xbc02ed9b	-0.00799122
199	0x3aec225f	0.0018015614
200	0xbb34137e	-0.0027477439
201	0x3c4b4f33	0.012409019
202	0x3c132ff7	0.008983604
203	0x3be6ea1e	0.007046952
204	0x3b8c97d3	0.00429056
205	0xbbaf1a08	-0.0053436793
206	0xbc494502	-0.012284519
207	0xbb614f88	-0.003437968
208	0x3ba7e689	0.0051239175
209	0xbc7c6007	-0.015403754
210	0x3a94e696	0.0011360224
211	0x3ca2f881	0.019893887
212	0x3c7b4560	0.0153363645
213	0xbb66cd81	-0.0035217705
214	0x3c8fd6db	0.017558506
215	0xbc26a267	-0.010170556
216	0xb89f32cb	-7.591172e-05
217	0x3b850646	0.0040595857
218	0xbc27e8da	-0.010248387
219	0xbbbb26eb	-0.0057114265
220	0x3c63eb60	0.013911098
221	0xbb99d824	-0.0046949554
222	0xbc9b7d3a	-0.018980611
223	0x3c621337	0.0137985265
224	0x3baa3a8e	0.0051949685
225	0xbb20197d	-0.0024429255
226	0x3c993757	0.018703146
227	0xbb601a29	-0.003419528
228	0x3c8f99e4	0.017529435
229	0x3bb92322	0.00564994
230	0xb9576b90	-0.00020544068
231	0xbc03a436	-0.008034756
232	0xbab8dffa	-0.0014104836
233	0xbc1e454b	-0.009660075
234	0xbc5ddc31	-0.013541267
235	0xbbd49862	-0.006487892
236	0x3c223934	0.009901334
237	0x3ab473dd	0.001376744
238	0xbb52f6a7	-0.0032190473
239	0xbc0445e4	-0.008073304
240	0xbcab107f	-0.02088189
241	0xbb250d6f	-0.002518501
242	0x3a08b67a	0.00052151794
243	0x3ac3a1e8	0.0014925571
244	0xbc0911e7	-0.008366085
245	0x3b9844d3	0.0046468764
246	0x3acc8d7b	0.0015606129
247	0xbc006035	-0.007835438
248	0x3b305465	0.0026905772
249	0xbc5bd73c	-0.013418015
250	0xbb1c0b51	-0.0023810456
251	0xbbb538e9	-0.005530466
252	0xbb80e0c3	-0.0039330437
253	0xbc0fcbba	-0.0087766
254	0xbaa96cfc	-0.0012926157
255	0xbbba29c6	-0.0056812493

network_body._body_endoder.seq_layers.0.bias f4 [128]
0	0x3aa158d9	0.0012309804
1	0x3a681e4b	0.00088546117
2	0xba7c07ff	-0.00096142286
3	0xba2905f1	-0.0006447724
4	0xbb603ced	-0.0034216002
5	0x3966fc61	0.00022028528
6	0xbaefe171	-0.001830144
7	0x3ab37372	0.0013691022
8	0x3a10bf46	0.0005521666
9	0xbae07969	-0.0017126027
10	0xbb693fe0	-0.003559105
11	0x3ad8cdab	0.0016540786
12	0xb97251fc	-0.0002310946
13	0x3a794f28	0.00095103914
14	0x3b0c8a58	0.0021444764
15	0xba7cb7a4	-0.00096404017
16	0xbb3e9634	-0.0029081227
17	0xba94a3ef	-0.001134036
18	0xbb0c8c31	-0.0021445865
19	0xbac0f90b	-0.0014722658
20	0x3b631fe2	0.0034656455
21	0xba11f294	-0.0005567458
22	0xbb6c1224	-0.0036021555
23	0xbb046197	-0.002019977
24	0xb92f55d9	-0.00016721281
25	0xbab1d2e5	-0.001356688
26	0x3a440b2d	0.0007478472
27	0xb9800e98	-0.00024424936
28	0x3ae2d9e5	0.0017307369
29	0xbab8c60a	-0.0014097106
30	0xb9d0fee0	-0.00039862748
31	0x392d79f6	0.00016544
32	0xbb39e0af	-0.0028362682
33	0x3aa34f41	0.0012459533
34	0x3a72e02e	0.0009264973
35	0xba727c86	-0.0009250123
36	0x38aa4e7c	8.1208505e-05
37	0x3b1cb561	0.0023911821
38	0x3ab9d8ea	0.0014179025
39	0x3a73f35f	0.00093059795
40	0xbb127122	-0.0022345264
41	0xbabc178d	-0.001435028
42	0x3a7788ae	0.0009442669
43	0xbafaafd1	-0.0019125884
44	0x37a82b48	2.0047315e-05
45	0xbb4ed52a	-0.003156016
46	0xbb003c36	-0.0019567139
47	0xba908787	-0.0011026718
48	0x39be5d56	0.00036309165
49	0xb8f2fad6	-0.00011586181
50	0x3a388fdc	0.00070404797
51	0xbaa1c9f0	-0.0012343507
52	0x3b306bd0	0.002691973
53	0xba846603	-0.0010101203
54	0x3b88697b	0.004162965
55	0x3a59028b	0.0008278272
56	0x3b2da363	0.002649509
57	0xbaf3c525	-0.0018598182
58	0x3b01478c	0.0019726483
59	0x395e02c9	0.00021172607
60	0xbb08ca7b	-0.002087264
61	0x3aa9b45e	0.001294743
62	0x3abaddbf	0.0014256759
63	0x3b493a65	0.0030704972
64	0xbb00509a	-0.0019579292
65	0x3a1a862c	0.0005894627
66	0x3b130f4a	0.0022439533
67	0x3ad04afc	0.0015891488
68	0xba3ccb6c	-0.0007201943
69	0x3aaf1d6e	0.0013360211
70	0x3ac6a715	0.0015155995
71	0xbb1b75ef	-0.0023721417
72	0xb9ee9d20	-0.00045511965
73	0xba928ab7	-0.0011180256
74	0xba50804a	-0.0007953687
75	0xbb38ea4c	-0.0028215824
76	0x35022d00	4.849426e-07
77	0x3a1b7aae	0.00059310615
78	0xb86d5d44	-5.6592064e-05
79	0x3b3a6431	0.0028441066
80	0xba3b96a9	-0.0007155934
81	0x3a937b74	0.0011252002
82	0x3b133bba	0.002246602
83	0xbb05e896	-0.0020432821
84	0x3b12671c	0.002233929
85	0x3b1fb9dd	0.0024372258
86	0x3acde86f	0.0015709529
87	0xbaaf89f0	-0.0013392549
88	0xbb530f15	-0.0032205035
89	0x3a018cbc	0.00049419305
90	0x3a50e4e0	0.00079686753
91	0x3b23e94c	0.0025010882
92	0x395da9b9	0.00021139429
93	0x3a112fcd	0.0005538434
94	0xb816e204	-3.597328e-05
95	0x3ae77adb	0.0017660515
96	0xba80d513	-0.0009829126
97	0xbb50facf	-0.0031887775
98	0xba79c70e	-0.00095282577
99	0x3abb7efe	0.0014304814
100	0xbb0ac27e	-0.0021173055
101	0x3ac83030	0.001527315
102	0x3ae99186	0.0017819859
103	0xb9a4fc1f	-0.00031468362
104	0x3a47760f	0.00076088397
105	0x3aecde7e	0.0018071679
106	0x3a459534	0.00075371866
107	0x3a74083b	0.0009309088
108	0xbab53219	-0.0013824134
109	0xb92c890b	-0.0001645425
110	0x3b11340c	0.0022156266
111	0xbb29a4cc	-0.002588558
112	0x3a33a081	0.0006852225
113	0xbac59c14	-0.0015076422
114	0x3acaa470	0.0015460383
115	0xba1d2c7c	-0.00059957034
116	0x39c4107b	0.00037396312
117	0x3b0551ee	0.0020343023
118	0x3b2eb26b	0.0026656638
119	0xbb369e49	-0.0027865341
120	0x39a6def4	0.000318281
121	0x3ae48f04	0.0017437642
122	0xbab93897	-0.0014131245
123	0xbb38e9f6	-0.0028215623
124	0x3b24b384	0.0025131414
125	0x3955c5ce	0.00020386951
126	0xbab5a9d6	-0.0013859819
127	0x3ac13181	0.0014739485

network_body._body_endoder.seq_layers.0.weight f4 [128, 71]
0	0xbe8c3af1	-0.2738872
1	0xbd928fe8	-0.07156354
2	0x3d88d046	0.0668035
3	0x3e34b862	0.17648461
4	0xba3d21aa	-0.0007214794
5	0xbd1f4e84	-0.038893238
6	0xbd68c6f9	-0.05683038
7	0xbd3e3006	-0.046432517
8	0xbd1beeec	-0.03806965
9	0xbe5a8ac6	-0.21342
10	0xbe3ab051	-0.18231322
11	0xbcd7f08b	-0.026359817
12	0xbdcd4759	-0.10023374
13	0xbb73fbb0	-0.0037228875
14	0x3cbe0704	0.023196705
15	0x3d99e3ad	0.07514129
16	0x3e18157a	0.14851943
17	0xbd118bbd	-0.035533655
18	0xbe038674	-0.12844259
19	0xbd1bb306	-0.038012527
20	0x3d91de27	0.0712245
21	0xbdbf9f15	-0.09356514
22	0x3e061a85	0.13096054
23	0xbe604372	-0.21900728
24	0xbdd02651	-0.10163558
25	0xbe0ea029	-0.13928284
26	0x3d705d8d	0.058682967
27	0x3bea1029	0.0071430397
28	0x3d7fdf56	0.06246885
29	0x3d179d20	0.03701508
30	0xbccb63e7	-0.02482791
31	0xbd955fc4	-0.072936565
32	0x3ceaaf79	0.028648125
33	0x3da46b39	0.080282636
34	0xbe1285eb	-0.14308898
35	0xbd5705f7	-0.052495923
36	0xbdc2f32d	-0.09519038
37	0xbe38667f	-0.18007849
38	0xbde98ec9	-0.11404187
39	0x3cf7d6eb	0.030253848
40	0x3c807cd4	0.015684523
41	0x3e0936f0	0.13399863
42	0xbd272a4e	-0.04081183
43	0xbe043e41	-0.12914373
44	0x3c09ceae	0.008411093
45	0xbe06cb54	-0.13163501
46	0xbe00d0b1	-0.1257961
47	0x3d0773f7	0.033069577
48	0xbc8db288	-0.017297044
49	0xbdf8fa40	-0.121571064
50	0x3bd80861	0.0065927957
51	0x3ce39981	0.027783157
52	0x3d829a88	0.06377131
53	0x3e578001	0.21044923
54	0x3cbbc5ca	0.022921462
55	0xbd6dcd15	-0.05805691
56	0x3e0b2cbb	0.13591282
57	0x3d28715f	0.041123744
58	0x3de9a003	0.11407473
59	0xbdd294f7	-0.10282319
60	0x3e01201c	0.12609905
61	0xbd2251cb	-0.039628785
62	0x3deb13d6	0.11478393
63	0x3e1a1240	0.15046024
64	0xbd273c85	-0.0408292
65	0x3e479013	0.19488554
66	0x3e0097df	0.12557934
67	0x3cd0e108	0.025497928
68	0xbde526c5	-0.11189035
69	0xbc964394	-0.01834277
70	0x3e59ca0f	0.21268485
71	0x3de881a7	0.11352854
72	0xbd424d58	-0.047437042
73	0xbe2360e9	-0.15954937
74	0x3cd92550	0.02650705
75	0xbdde6001	-0.10858155
76	0xbe41a5f2	-0.1891096
77	0xbdbfcd4d	-0.0936533
78	0x3c0570cd	0.00814457
79	0xbc0b4867	-0.008501149
80	0x3c7d307e	0.015453456
81	0x3dcd665b	0.100292884
82	0xbd01e6dc	-0.031714305
83	0x3c6094d2	0.0137073565
84	0xbe898636	-0.26860207
85	0x3e69db67	0.22837602
86	0x3d099b75	0.03359552
87	0x3cfe5b69	0.031049447
88	0xbe509153	-0.20367937
89	0xbe86ada0	-0.2630434
90	0xbde80604	-0.113292724
91	0xbe1ea33c	-0.15491956
92	0xbd892a65	-0.06697539
93	0xbcc5bea8	-0.024138764
94	0x3cc72c88	0.024313226
95	0x3b375e96	0.0027979962
96	0x3bd1d7c9	0.0064038974
97	0x3e204af5	0.15653594
98	0x3d1ba969	0.03800336
99	0xbe915aba	-0.2838953
100	0xbd628280	-0.055300236
101	0xbd9d6987	-0.07686143
102	0x3d996212	0.074894086
103	0xbd450849	-0.048103604
104	0xbd8b0635	-0.06788293
105	0x3e241f18	0.16027486
106	0x3d02ef80	0.031966686
107	0xbacb502a	-0.0015511562
108	0xbc23767e	-0.009976981
109	0x3d6bb51d	0.05754577
110	0xbd8b6313	-0.06806006
111	0x3d2fb5c4	0.042897955
112	0x3d19a730	0.037512958
113	0x3e189e2a	0.14904085
114	0xbdb1f68a	-0.08689602
115	0x3b126ad9	0.0022341518
116	0x3c8e9643	0.017405635
117	0xbd5a71df	-0.053331252
118	0x3e024701	0.12722398
119	0x3dd6eed8	0.104947746
120	0xbbc9a193	-0.0061532944
121	0xbe0e7bf8	-0.13914478
122	0xbd91908b	-0.071076475
123	0xbe855d97	-0.26047966
124	0x3d43f3e6	0.04784002
125	0x3e4cae67	0.19988404
126	0xbca3c0c3	-0.019989377
127	0x3d9a5a4b	0.07536753
128	0xbd882f11	-0.06649602
129	0x3d746fba	0.059676863
130	0x3e3d24d4	0.1847108
131	0xbe1bc658	-0.15212381
132	0x3c996092	0.018722806
133	0x3da8384b	0.08213862
134	0xbe37cc74	-0.17949086
135	0x3df5b337	0.11997073
136	0xbe25789c	-0.1615929
137	0xbdc50fd4	-0.096221596
138	0xbdfc6d10	-0.123254895
139	0x3e5bbf97	0.21459804
140	0xbd6a0810	-0.057136595
141	0xbe46a5ac	-0.19399136
142	0x3c1d0802	0.009584429
143	0x3d762610	0.060094893
144	0x3d92a639	0.07160611
145	0xbc53e7f6	-0.012933722
146	0x3e3a2f9a	0.18182221
147	0x3d884d21	0.06655336
148	0xbd94a8f0	-0.07258785
149	0xbe804e36	-0.2505967
150	0xbd057dad	-0.032590557
151	0x3e4e0dbf	0.20122431
152	0x3dc42f10	0.09579289
153	0xbc42cee0	-0.011890143
154	0xbddb878d	-0.10719214
155	0x3d21a9c8	0.039468557
156	0xbc0c88cd	-0.008577538
157	0xbda4e420	-0.08051324
158	0x3d0911ad	0.033464123
159	0x3cdb1aab	0.026746115
160	0x3da67557	0.081278495
161	0xbd2c9b55	-0.042140324
162	0x3d874f0b	0.06606873
163	0x3e4395c2	0.19100097
164	0xbdc8ebe6	-0.09810619
165	0x3d88f6bb	0.06687685
166	0xbd2a1b3f	-0.04152989
167	0xbe5d62f7	-0.21619783
168	0x3cfddfef	0.030990569
169	0x3e2e78f1	0.17038323
170	0xbcea2f1d	-0.028586918
171	0xbe1b6989	-0.15176977
172	0x3dbd9842	0.092575565
173	0xbe165811	-0.14682032
174	0xbea58d4a	-0.32334358
175	0x3c0d9548	0.008641548
176	0xbd97ea36	-0.07417719
177	0x3c040d77	0.008059851
178	0x3e2a78a7	0.16647588
179	0xbb73f0db	-0.0037222418
180	0x3db37ed9	0.08764429
181	0xbe3f41a5	-0.18677385
182	0x3d973587	0.073832564
183	0xbd7dfd69	-0.06200925
184	0x3e812aa0	0.25227833
185	0xbdc1a180	-0.09454632
186	0xbe06c471	-0.13160874
187	0xbe1d59f9	-0.15366353
188	0x3d014041	0.031555418
189	0xbdd3a2e9	-0.10333807
190	0x3d54cdc0	0.05195403
191	0x3c3ff4d7	0.011716089
192	0x3b7004aa	0.0036623874
193	0xbe1327d3	-0.1437066
194	0x3da10027	0.07861357
195	0xbde7dcb7	-0.11321395
196	0xbe69c116	-0.22827563
197	0x3c7ff455	0.015622218
198	0x3e20e6d0	0.15713048
199	0xbd400391	-0.0468784
200	0x3d58fe44	0.05297686
201	0xbbdfc4e0	-0.0068288893
202	0xbe2294f5	-0.15877135
203	0xbc120e3d	-0.0089145275
204	0x3e098724	0.13430458
205	0xbe9b260c	-0.30302465
206	0xbd81131e	-0.063024744
207	0x3d7a138c	0.061053798
208	0x3d49b244	0.049242273
209	0xbe1f406e	-0.15551922
210	0xbe2c68df	-0.1683688
211	0xbcacebea	-0.021108586
212	0xbdc46a9e	-0.09590648
213	0x3cbf9c4a	0.023389954
214	0xbe11bb9c	-0.14231724
215	0xbd688d03	-0.056775104
216	0x3dc19707	0.09452634
217	0x3cae15e2	0.021250669
218	0xbd5d047e	-0.053959362
219	0x3e1bcc53	0.15214662
220	0xbd40c14c	-0.047059342
221	0x3d016f54	0.03160031
222	0x3e0ffb4d	0.14060707
223	0x3c1fc180	0.009750724
224	0x3e07e631	0.13271405
225	0xbd64f5d6	-0.05589851
226	0xbe062991	-0.13101794
227	0x3d24b820	0.040214658
228	0xbcd1c67e	-0.025607344
229	0x3d30df50	0.043181717
230	0xbbec8e1c	-0.007219089
231	0xbd3636ae	-0.04448574
232	0x3b5eff6b	0.0034026753
233	0x3e54bdef	0.20775579
234	0xbd7d3155	-0.061814625
235	0xbe0b9cba	-0.13634005
236	0x3c78c13a	0.015182788
237	0x3d3dc0e0	0.046326518
238	0xbd837157	-0.06418102
239	0xbe0ac915	-0.13553269
240	0xbe4f4790	-0.20242143
241	0xbd3990f1	-0.045304243
242	0x3d338970	0.043832242
243	0x3df5fb27	0.12010794
244	0x3d1a97a5	0.037742276
245	0x3dc21b46	0.09477858
246	0xbdb9c0eb	-0.09069999
247	0x3bb12900	0.005406499
248	0x3e69fdf9	0.22850789
249	0xbd622ed6	-0.055220447
250	0xbc29889c	-0.010347512
251	0xbd1e8583	-0.038701545
252	0x3e2d98d9	0.16952838
253	0x3e1e993e	0.15488145
254	0x3d76c832	0.060249515
255	0xbd63b936	-0.055596553

network_body._body_endoder.seq_layers.2.bias f4 [128]
0	0x3b0f73d8	0.0021889117
1	0x3a861f84	0.0010232781
2	0x3b0e5b7b	0.0021722007
3	0x39ca90de	0.00038636377
4	0x3a8a2e04	0.0010542278
5	0x3ac2893e	0.0014841927
6	0xbabec7cc	-0.0014555394
7	0xbaacff42	-0.0013198631
8	0xbb0467fe	-0.0020203586
9	0xba0ac1fd	-0.0005293189
10	0x3ac962c6	0.001536452
11	0x3b1bfd4c	0.00238021
12	0xba3b2d94	-0.00071402756
13	0x3a6a2b92	0.0008932884
14	0xba5a004b	-0.00083160837
15	0x3b1e2edc	0.0024136817
16	0x3ad7b544	0.001645722
17	0x38144cb4	3.5357385e-05
18	0x3b0b06c5	0.0021213752
19	0x3ac177d3	0.0014760442
20	0x3a3b98c0	0.00071562454
21	0xba020138	-0.0004959288
22	0x3b0a549c	0.002110756
23	0x3ad5e652	0.0016319251
24	0x3a9e8546	0.0012094162
25	0xbb09f22d	-0.002104889
26	0x3ade6104	0.0016966169
27	0xbafbf4e4	-0.0019222763
28	0x3a7580ba	0.000936519
29	0x3ac5dfbf	0.0015096589
30	0xbb21f07c	-0.002470999
31	0x3b246850	0.002508659
32	0x3b051f49	0.0020312837
33	0xba93efb8	-0.0011286652
34	0x3abb3593	0.0014282934
35	0x3b172f27	0.0023068876
36	0xba1a9fcb	-0.0005898445
37	0xbb0911b0	-0.0020915084
38	0xbada34a0	-0.0016647764
39	0xbaf31b93	-0.0018547646
40	0x3b25f68d	0.0025323958
41	0xba8ded51	-0.0010828172
42	0x3a982783	0.0011608455
43	0x39d67b5e	0.00040909176
44	0x3b2fdfd4	0.0026836293
45	0x3b03c57f	0.002010673
46	0x3b2121d5	0.0024586816
47	0x3992e1ca	0.00028015516
48	0xbb107d4c	-0.002204734
49	0x3a833a08	0.0010011801
50	0xbac738c0	-0.0015199408
51	0x3ac472fc	0.0014987881
52	0x3b4c595a	0.0031181187
53	0x3ae6f299	0.0017619907
54	0x3a4d0692	0.00078211084
55	0xbae9978c	-0.0017821654
56	0x3a302f3e	0.0006720907
57	0x3a805b82	0.0009792896
58	0x3b07018b	0.0020600285
59	0x3a94adc1	0.0011343287
60	0x3a89a02b	0.0010500004
61	0xbb033257	-0.0020019019
62	0x3a4cdbe4	0.00078147487
63	0xbb257d78	-0.0025251787
64	0xba62d33a	-0.0008652691
65	0xbafb09d6	-0.0019152712
66	0xb905f59a	-0.00012775362
67	0x3b193160	0.0023375377
68	0x3ae15099	0.0017190158
69	0x3afee7fd	0.00194478
70	0x3a172528	0.00057657296
71	0x3b059dc0	0.0020388216
72	0x3adb0143	0.001670875
73	0xbb092b94	-0.0020930516
74	0xbad1d11b	-0.0016007753
75	0xbac08893	-0.001468914
76	0xbb2a1986	-0.0025955155
77	0xbae42e22	-0.0017408768
78	0x3ab89344	0.0014081975
79	0x3a988ddb	0.0011638956
80	0x3ad76bb7	0.00164353
81	0xbafde2c8	-0.0019369954
82	0x3a245512	0.000626878
83	0xbaf88a60	-0.0018962137
84	0xba91c5c9	-0.0011121567
85	0x385f7560	5.3276657e-05
86	0xba2e2914	-0.00066436944
87	0x3ab192bf	0.0013547762
88	0xbb46461c	-0.003025419
89	0xbb157a08	-0.0022808332
90	0x3a9e5d8e	0.0012082325
91	0x3aaaacdb	0.0013021486
92	0x3a22f4ce	0.00062162883
93	0x3a03000e	0.00049972616
94	0xbb0cacf9	-0.0021465404
95	0xbb176e12	-0.0023106379
96	0x3a803c03	0.000978351
97	0x3af17cc8	0.0018424029
98	0x3ad9e678	0.0016624471
99	0x3ad9e14d	0.0016622931
100	0x3a27413d	0.00063802657
101	0xbb0b85b0	-0.00212894
102	0x3a58e488	0.00082738
103	0xbaedc414	-0.0018140101
104	0x3ab89781	0.0014083238
105	0xbb2e8f91	-0.0026635865
106	0x3a8be16e	0.0010672042
107	0xba7c66b8	-0.00096283434
108	0x3b24dbe3	0.0025155477
109	0xb9facf3e	-0.00047838123
110	0xbae28b85	-0.0017284012
111	0xba4303d7	-0.0007439232
112	0xba71fb6a	-0.0009230884
113	0x3aae4976	0.001329704
114	0xbb0c2ad0	-0.0021387823
115	0x3b027a5e	0.0019909362
116	0x3ac81f5a	0.0015268133
117	0xbaf99b60	-0.0019043498
118	0xbb28ec56	-0.0025775633
119	0x3aa12a14	0.0012295865
120	0xbb5106dd	-0.003189496
121	0xbb3f9f46	-0.0029239221
122	0x389075c6	6.888392e-05
123	0xbb396efa	-0.0028294907
124	0x3a030924	0.00049986155
125	0xbb3a9916	-0.0028472594
126	0xba9810dc	-0.0011601704
127	0xbaa9cdbd	-0.0012954992

network_body._body_endoder.seq_layers.2.weight f4 [128, 128]
0	0x3d75509e	0.059891336
1	0xbd5dc52e	-0.054143123
2	0xbca9fb8e	-0.020749833
3	0x3d818062	0.06323315
4	0xbd908cba	-0.070580915
5	0x3d14fd4a	0.036374368
6	0xbc45c6ee	-0.012071354
7	0x3b08c6c7	0.0020870434
8	0x3d77ab9a	0.060466386
9	0xbc8a93eb	-0.016916236
10	0xbe4223d4	-0.1895898
11	0x3db9ab29	0.09065849
12	0xbd35798a	-0.04430536
13	0x3e3a3432	0.18183973
14	0xbd818dec	-0.063258976
15	0x3da629da	0.08113451
16	0xbde8ec4c	-0.11373195
17	0x3deb20a2	0.114808336
18	0xbdb2271c	-0.08698866
19	0x3e14d287	0.14533435
20	0x3cd1702c	0.025566183
21	0x3d5d3266	0.05400314
22	0xbd3012cb	-0.042986672
23	0xbd232599	-0.039830778
24	0x3d847304	0.0646725
25	0xbe22199a	-0.15830079
26	0x3d0750c3	0.033036005
27	0xbd938a53	-0.072041176
28	0xbe1e9169	-0.15485157
29	0xbdb7b377	-0.08969777
30	0x3d500998	0.0507904
31	0x3d198e29	0.03748909
32	0x3e0fddb9	0.14049424
33	0xbc750d45	-0.014956777
34	0xbcfe4dbe	-0.03104293
35	0x3d93204d	0.07183895
36	0xbe104179	-0.14087476
37	0x3df8628a	0.1212817
38	0xbbdf4e0d	-0.0068147243
39	0x3d1a3de1	0.03765667
40	0xbe0cf3e4	-0.13764912
41	0xbb3f411d	-0.0029183098
42	0x3cc7aed5	0.024375359
43	0xbd812721	-0.06306291
44	0x3c8755a2	0.016520325
45	0x3dcb88e6	0.09938221
46	0x3c844246	0.016144883
47	0xbdcf358f	-0.10117637
48	0xbd8c70cd	-0.068574525
49	0xbbbda91e	-0.0057879826
50	0x3c5e8f27	0.013583935
51	0xbde70901	-0.11281014
52	0x3c8af95c	0.016964607
53	0x3e50ee92	0.20403507
54	0xbd8c3161	-0.06845356
55	0x3e215827	0.15756284
56	0x3e1a4bba	0.1506795
57	0x3d037f1f	0.032103654
58	0xbda25697	-0.07926672
59	0x3e04c340	0.12965107
60	0x3cb6a523	0.02229554
61	0x3c2d0c4a	0.010562012
62	0xbdbae166	-0.091250226
63	0xbbdbacd7	-0.0067039537
64	0x3d164b14	0.036692694
65	0xbd8d5dc3	-0.06902649
66	0xbc545e50	-0.012961939
67	0x3d0e7e33	0.03478832
68	0x3d035188	0.032060176
69	0xbcc57c42	-0.024107102
70	0xbc432b24	-0.011912141
71	0x3d8c127b	0.06839462
72	0x3d10bb74	0.03533502
73	0xbcb37485	-0.021906147
74	0x3d26d2f3	0.04072852
75	0xbe05aa97	-0.13053356
76	0x3cd3c066	0.025848579
77	0xbd92c76e	-0.071669444
78	0xb9985fd8	-0.00029063108
79	0x3ca4cec5	0.020118127
80	0x3c966b60	0.018361747
81	0x3cc5f721	0.024165692
82	0xbaf69bb4	-0.0018814714
83	0x3db0df01	0.086362846
84	0xbd9ed78d	-0.07755957
85	0xbe05c7de	-0.13064525
86	0x3e707fd1	0.23486258
87	0xbd3c645e	-0.045994155
88	0xbda7d6f3	-0.08195295
89	0xbcf7d405	-0.030252466
90	0xbc802bcb	-0.015645882
91	0x3cf6982c	0.030101858
92	0x3de90fe4	0.11379984
93	0x3e0982df	0.1342883
94	0x3e2408c3	0.16018967
95	0x3d958e00	0.07302475
96	0x3cb6bc1a	0.02230649
97	0xbb87fa5d	-0.0041497187
98	0x3d7b9549	0.061421666
99	0x3c759257	0.014988503
100	0xbcbc545c	-0.022989444
101	0xbd64f872	-0.055901
102	0xbd253e07	-0.040342357
103	0xbaa8dce4	-0.0012883213
104	0x3d93d4f1	0.0721835
105	0x3d4d35c3	0.0501001
106	0x3c926f9e	0.017875489
107	0xbd9d0c75	-0.076683916
108	0x3cfd60b3	0.030929899
109	0xbe349e28	-0.17638457
110	0xbe10d47e	-0.1414356
111	0x3d42e260	0.04757917
112	0xbd766541	-0.060155157
113	0xbc8e715e	-0.017388042
114	0xbc3fec03	-0.011713984
115	0xbdb1d7b4	-0.0868372
116	0xbac0501a	-0.001467231
117	0x3df08a2c	0.11745104
118	0xbe7fc788	-0.24978459
119	0xbe19e86f	-0.15030073
120	0xbd9045e4	-0.070445806
121	0xbb685f92	-0.0035457355
122	0xbe203b96	-0.1564773
123	0x3c45763b	0.012052114
124	0xbb9d3af6	-0.0047982885
125	0x38850972	6.3436935e-05
126	0xbca86fa5	-0.020561049
127	0xbbb60146	-0.005554351
128	0xbccc4a71	-0.02493784
129	0x3d2a197f	0.04152822
130	0xbe53fdbf	-0.20702265
131	0x3dfd051a	0.12354489
132	0x3e71f0f0	0.23627067
133	0x3df9fe10	0.12206662
134	0xbdebf48b	-0.11521252
135	0xbd9c733f	-0.07639169
136	0x3e124543	0.14284234
137	0xbb435fbd	-0.0029811703
138	0x3d2f2016	0.04275521
139	0x3d894256	0.06702106
140	0x3d198d44	0.037488237
141	0x3dba1260	0.09085536
142	0x3d880a63	0.06642606
143	0xbe00232c	-0.12513417
144	0x3cf23d20	0.029570162
145	0xbd4100a0	-0.047119737
146	0xbdfc0d19	-0.12307186
147	0xbd781f6c	-0.06057684
148	0x3df9f4bd	0.12204883
149	0xbd663f6b	-0.056212824
150	0xbb0407d1	-0.002014626
151	0xbda79e16	-0.081844494
152	0x3d8c7527	0.068582825
153	0x3e3a11e2	0.18170884
154	0x3d096bce	0.033550076
155	0xbcd447a8	-0.025913075
156	0x3dd7111b	0.105013095
157	0x3b4e7231	0.003150117
158	0xbdd6b0f7	-0.10482972
159	0xba04551d	-0.0005048083
160	0xbd9ecc75	-0.07753841
161	0x3d1bd60b	0.038045924
162	0x3da3c8b8	0.079972684
163	0xbe24e377	-0.16102396
164	0x3d50cd6c	0.050977156
165	0x3dc5198b	0.096240126
166	0x3decf586	0.115702674
167	0x3dcac698	0.0990116
168	0xbdba2623	-0.09089305
169	0xbdcda184	-0.10040572
170	0xbdd96826	-0.10615568
171	0xbe3543f3	-0.17701702
172	0x3dc11e59	0.094296165
173	0x3da7f346	0.082006976
174	0xbd272c4d	-0.040813733
175	0xbcf4667c	-0.029834025
176	0xbcc7ff35	-0.024413684
177	0x3dbb89eb	0.09157165
178	0xbde8a511	-0.11359609
179	0xbd5f69d8	-0.0545443
180	0x3dc49a68	0.09599763
181	0xbd139908	-0.036034614
182	0x3e25f7b7	0.16207777
183	0xbe82b86a	-0.25531322
184	0xbe05eef4	-0.13079435
185	0xbd7411e2	-0.059587367
186	0xbe04a689	-0.12954153
187	0x3e10a527	0.141255
188	0x3d1b60ff	0.0379343
189	0x3cd8baf5	0.026456336
190	0x3d7ad6a1	0.061239842
191	0xbc70f7dd	-0.014707533
192	0xbe0a797c	-0.13522905
193	0xbcfbaf92	-0.030723367
194	0xbd079062	-0.03309668
195	0x3d84272f	0.06452786
196	0xbd61dd81	-0.055142883
197	0xbd23d021	-0.03999341
198	0xbe1b5db8	-0.1517247
199	0x3d859584	0.065226585
200	0x3ca59687	0.020213379
201	0xbd44c441	-0.048038725
202	0x3c4c0ac3	0.012453738
203	0x3d132073	0.035919618
204	0xbdacf9ee	-0.08446108
205	0x3c90efb8	0.017692432
206	0x3dbe4ba7	0.09291773
207	0x3d69cd29	0.05708042
208	0xbcbb0884	-0.022831209
209	0x3d89fb1f	0.06737351
210	0x3d42120a	0.047380485
211	0x3d8c2435	0.068428434
212	0xbd92ed81	-0.071742065
213	0x3d28c892	0.041206904
214	0x3e2301f8	0.1591872
215	0xbc95931c	-0.018258624
216	0x3d64ce0c	0.055860564
217	0xbd96cac4	-0.07362893
218	0xbd7e4b35	-0.06208344
219	0x3c43f154	0.011959393
220	0xbd0b1bb5	-0.03396197
221	0x3e71ae0d	0.23601551
222	0x3d8885d5	0.066661514
223	0xbdfa9871	-0.12236107
224	0x3ceba671	0.028765889
225	0x3e058dbb	0.13042347
226	0x3ca9c4a0	0.02072364
227	0x3dd17043	0.1022649
228	0xbd9973ef	-0.07492816
229	0xbcb1f081	-0.021721127
230	0x3e1d3767	0.15353166
231	0x3e6ce0ce	0.23132631
232	0xbda4b68e	-0.08042632
233	0xbc341e33	-0.010993528
234	0xbdd7fcac	-0.1054624
235	0x3d4d1ead	0.050078083
236	0x3cdafc6b	0.02673169
237	0xbdf81fd8	-0.12115449
238	0x3e5734b3	0.21016197
239	0x3d56f84d	0.05248289
240	0xbdfea0fb	-0.12433048
241	0xbdbf3e34	-0.09338036
242	0x3e623851	0.22091796
243	0x3d0b953c	0.034077868
244	0x3d25cadf	0.040476676
245	0x3dc2dcfa	0.09514804
246	0x3de3603e	0.11102341
247	0x3d33aa4d	0.043863583
248	0x3dc5c6d9	0.09657068
249	0xbd073eaf	-0.033018764
250	0x3db82d81	0.08993054
251	0xbc7ae1f4	-0.0153126605
252	0x3a063462	0.00051195
253	0x3db9d022	0.09072901
254	0x3d53852f	0.051640686
255	0xbd248776	-0.040168248
