results/phase1_only_shoting_no_player_movement/NPCAgent/checkpoint.pt (torch, 431623 bytes, 33 tensors)

network_body._body_endoder.seq_layers.0.weight f4 [128, 4]
0	0x3e300b87	0.17191897
1	0xbec2c793	-0.38042888
2	0xbed7ce4b	-0.42149577
3	0x3dc18700	0.09449577
4	0x3dcb8e75	0.09939281
5	0x3f022585	0.508385
6	0x3f5c6bbb	0.86101884
7	0xbeacae90	-0.3372693
8	0xbf0c376f	-0.54772085
9	0xbf4d1032	-0.8010284
10	0x3ecc7aba	0.39937383
11	0x3e45f2ac	0.19330853
12	0xbfa17461	-1.2613641
13	0x3e7f59d7	0.24936615
14	0xbf044088	-0.51660967
15	0xbe71c6f2	-0.23611048
16	0x3f680a5b	0.906408
17	0xbf752e91	-0.9577418
18	0xbf18e708	-0.59727526
19	0xbe347ad8	-0.17624986
20	0xbee915f6	-0.45524567
21	0xbebf5327	-0.37368128
22	0xbe21609f	-0.15759514
23	0xbec74691	-0.38921025
24	0x3f297c59	0.66205364
25	0x3e18fb39	0.14939584
26	0xbebf846d	-0.3740572
27	0xbd29de4a	-0.041471757
28	0x3e870f64	0.2637893
29	0xbf7bb43d	-0.98321897
30	0xbee85ac6	-0.45381755
31	0x3e00d588	0.12581456
32	0xbded69ed	-0.11592469
33	0x3ec5418a	0.38526565
34	0x3e030d73	0.12798099
35	0xbed5bc7f	-0.41745374
36	0x3d817303	0.06320765
37	0x3f272563	0.6529142
38	0x3f5e7e40	0.8691139
39	0x3dbfb2e7	0.09360295
40	0xbecb9040	-0.39758492
41	0xbedb65d7	-0.42851135
42	0x3e2caddc	0.16863197
43	0xbe4caf70	-0.19988799
44	0xbdfe8ba8	-0.12428981
45	0x3ee7df8d	0.45287743
46	0x3e7e7922	0.24850896
47	0xbecced6f	-0.40024897
48	0x3de7b781	0.113142975
49	0x3dadc17b	0.08484169
50	0xbdad490d	-0.08461199
51	0xbea2ddf5	-0.31809965
52	0x3f392767	0.7232575
53	0xbe8fea4a	-0.28108436
54	0x3d4e7793	0.050407004
55	0x3e8be5ec	0.27323854
56	0x3e425fac	0.18981808
57	0x3e329cff	0.17442702
58	0xbf909532	-1.1295531
59	0x3d84e72c	0.06489405
60	0xbf92846c	-1.1446662
61	0xbf0a0361	-0.53911406
62	0xbd97e862	-0.074173704
63	0x3e79d6e4	0.2439838
64	0xbee8b13a	-0.45447713
65	0x3ebf5f59	0.37377432
66	0x3ef636f5	0.48088804
67	0x3dd4f7f5	0.103988566
68	0xbec25808	-0.37957788
69	0x3f936ade	1.1516988
70	0xbde21016	-0.110382244
71	0xbe42b2b2	-0.1901348
72	0x3f2d9a3f	0.67813486
73	0xbe662b49	-0.2247745
74	0xbf1e2765	-0.6177886
75	0x3da126e2	0.078687444
76	0x3f1da338	0.6157718
77	0xbebd602e	-0.36987442
78	0x3f28eeae	0.65989196
79	0x3f8ea5d1	1.1144353
80	0xbf24e3f4	-0.6441033
81	0xbf1612a5	-0.586222
82	0xbf3fb333	-0.7488281
83	0xbda3f05a	-0.08004828
84	0x3db05d12	0.08611502
85	0x3f3fdde7	0.7494797
86	0xbe91184f	-0.28338858
87	0x3f0c5ce3	0.54829234
88	0x3ee2c4d3	0.4429079
89	0xbe8cd36a	-0.27505046
90	0xbe8c5770	-0.2741046
91	0x3e846927	0.25861475
92	0xbec234bc	-0.37930858
93	0xbe9ea443	-0.30984697
94	0xbf296ccd	-0.6618164
95	0x3e444642	0.19167426
96	0xbf913e88	-1.1347208
97	0x3ebb9205	0.36634842
98	0xbf1a9957	-0.6039023
99	0x3eaca9a3	0.33723173
100	0xbf926835	-1.1438051
101	0xbec1ea0a	-0.3787387
102	0xbe4e55cd	-0.20149918
103	0xbde30c9b	-0.11086389
104	0xbddb8f22	-0.1072066
105	0x3ead45ac	0.33842218
106	0x3f3aa473	0.7290718
107	0xbe9c73fa	-0.30557233
108	0x3e8f2b34	0.2796265
109	0x3ec9e21c	0.3943032
110	0x3f769e28	0.9633508
111	0xbe64422f	-0.22290872
112	0x3e681ebf	0.22667979
113	0x3f893bf6	1.0721424
114	0xbf0bb948	-0.5457959
115	0x3f1ececf	0.62034315
116	0x3e1a1992	0.15048817
117	0xbf3addec	-0.72994876
118	0x3f1c3886	0.6102375
119	0xbf874b18	-1.0569792
120	0x3e93491a	0.2876671
121	0x3f061bbd	0.52386075
122	0x3f9b610a	1.2138989
123	0xbeca37b4	-0.39495623
124	0x3ed1f7bb	0.41009316
125	0x3eb6c222	0.35694987
126	0x3fa3f898	1.281024
127	0xbf358929	-0.70912415
128	0x3ecf7dde	0.40525717
129	0x3e748668	0.23879397
130	0x3f00d812	0.503297
131	0xbf01d670	-0.5071783
132	0x3cb6ae8f	0.022300033
133	0x3f643fe2	0.8915998
134	0x3d21d025	0.039505143
135	0x3f078dd9	0.5295082
136	0x3f32b092	0.69800675
137	0xbe641d21	-0.22276737
138	0xbf62032d	-0.88286096
139	0xbd91bc48	-0.0711599
140	0x3f1e1662	0.61752903
141	0xbe80741d	-0.25088587
142	0xbec33469	-0.38125923
143	0xbd8be632	-0.06831016
144	0x3e950459	0.2910488
145	0x3f2d3e01	0.67672735
146	0x3f0404ba	0.5156971
147	0xbd545373	-0.051837396
148	0x3f2753b0	0.6536207
149	0xbe9a358b	-0.30118975
150	0xbf0137ab	-0.5047557
151	0xbe7da5b1	-0.24770238
152	0x3f9e2b46	1.2356956
153	0xbe1e6ecd	-0.15471955
154	0x3f65f0c3	0.898205
155	0xbef21dfe	-0.47288507
156	0xbf04d5a3	-0.51888484
157	0x3f77f399	0.96856076
158	0x3d801bed	0.062553264
159	0x3f125a3c	0.57168937
160	0xbdc67563	-0.096903585
161	0x3f62656c	0.8843601
162	0xbe3e7548	-0.18599427
163	0xbd48a995	-0.04898985
164	0x3f0be39a	0.5464417
165	0xbc8d87fc	-0.017276756
166	0xbf9636ba	-1.1735451
167	0xbebf285b	-0.37335476
168	0x3e80b75e	0.25139898
169	0x3d98181e	0.07426475
170	0x3f4b2464	0.793524
171	0x3f3292aa	0.6975504
172	0xbd61c6cb	-0.055121224
173	0x3e5dd318	0.21662557
174	0x3ea3f505	0.32022873
175	0x3f2632ab	0.64921063
176	0xbead6099	-0.3386276
177	0xbe140d64	-0.14458233
178	0x3e8c0718	0.27349162
179	0x3e843da5	0.2582828
180	0xbee4caf1	-0.44686082
181	0xbba2ec95	-0.0049720504
182	0x3eefded6	0.46849698
183	0x3e94a9be	0.29035753
184	0x3e499f1d	0.19689603
185	0x3ed38618	0.41313243
186	0xbe2c8a78	-0.16849697
187	0x3f020128	0.50783014
188	0xbef95d6a	-0.48704082
189	0xbe4a7f73	-0.1977518
190	0xbea49575	-0.32145277
191	0xbe495598	-0.19661558
192	0xbf46b7b2	-0.77624047
193	0x3e6cc44a	0.23121753
194	0xbda28815	-0.07936112
195	0xbf235386	-0.6379932
196	0xbf1e62e0	-0.6186962
197	0xbdb43b22	-0.08800341
198	0x3e1864d0	0.14882207
199	0x3e9ca6d5	0.30596033
200	0x3e694a2c	0.227822
201	0xbec40a94	-0.3828932
202	0xbe803bcb	-0.25045618
203	0xbf57906a	-0.84204733
204	0xbf1338d7	-0.57508606
205	0x3d14652c	0.036229298
206	0xbe8fc583	-0.28080377
207	0xbf8fa218	-1.1221342
208	0x3c1a8950	0.009432152
209	0x3db87578	0.090067804
210	0xbdff499a	-0.1246521
211	0x3e63c098	0.22241437
212	0xbf15f2ab	-0.58573407
213	0xbe5c19c0	-0.21494198
214	0x3ef6c9ee	0.48200935
215	0xbf1327f9	-0.5748287
216	0x3f026d07	0.5094761
217	0x3f0359ac	0.51308703
218	0x3f26e35f	0.6519069
219	0xbfa79450	-1.3092136
220	0x3f2bc57c	0.6709821
221	0x3de143cb	0.109992586
222	0x3e63fbd1	0.22264029
223	0xbe56e223	-0.20984702
224	0xbf9124f2	-1.13394
225	0x3eb9fc47	0.36325285
226	0xbf03a202	-0.5141908
227	0xbf852a44	-1.0403523
228	0x3e4d9f0a	0.200802
229	0x3ebcc413	0.36868343
230	0x3f08506a	0.532477
231	0x3c741341	0.014897169
232	0x3e357323	0.17719702
233	0x3ca46534	0.020067789
234	0xbe8ada5d	-0.27119723
235	0xbdfdd85b	-0.12394782
236	0x3e671a0e	0.22568533
237	0x3ebbf358	0.36709094
238	0x3ea2ec62	0.3182097
239	0xbf55cd6e	-0.83516586
240	0x3e8291a0	0.25501728
241	0x3d73bfbb	0.05950902
242	0xbfbc9025	-1.473149
243	0xbf2a0eb9	-0.66428715
244	0xbef2e5d0	-0.47440958
245	0x3e312f65	0.17303236
246	0x3e982727	0.2971737
247	0x3e520fbb	0.20513813
248	0x3f602821	0.8756123
249	0xbd8cc7a7	-0.06874018
250	0xbe7f5ffd	-0.2493896
251	0x3f889284	1.0669713
252	0x3e63bf8f	0.22241043
253	0x3e8ee829	0.279115
254	0xbee6c350	-0.45070887
255	0xbd330573	-0.04370637

network_body._body_endoder.seq_layers.0.bias f4 [128]
0	0xbb9d9913	-0.0048095076
1	0xbbf03a96	-0.0073312027
2	0x3c04c527	0.008103645
3	0x3b81a657	0.003956597
4	0xbc0616fc	-0.008184191
5	0xbb31ad26	-0.002711126
6	0xbc19be87	-0.009383804
7	0xbb2ec312	-0.0026666564
8	0x3c05cc38	0.008166365
9	0xbc0492e0	-0.008091658
10	0x3c0af251	0.008480624
11	0x3c225a89	0.009909281
12	0xbc0b0d17	-0.008487008
13	0xbc02c061	-0.007980437
14	0x3c0bd1a0	0.008533865
15	0x3abc3a5a	0.0014360652
16	0xbc140105	-0.009033446
17	0xbba94ff4	-0.005167002
18	0xbad616ef	-0.0016333739
19	0xbb81507a	-0.003946361
20	0x3c1411dc	0.009037461
21	0x3bf39145	0.007433089
22	0x3b4c76aa	0.003119866
23	0x3af6b2f7	0.0018821646
24	0xbbd05ceb	-0.006358733
25	0x3c17cf31	0.009265707
26	0xbbbd947c	-0.005785523
27	0xbc07b683	-0.00828326
28	0xbbcb5706	-0.0062054424
29	0xbb86c291	-0.0041125496
30	0x3bd67852	0.006545105
31	0xbc0a247d	-0.008431551
32	0x3c30f359	0.010800206
33	0x3c0c5e72	0.008567439
34	0x3c07983e	0.008276043
35	0x3bc84f4d	0.006112969
36	0xbbf2bbc9	-0.0074076396
37	0xbbe4df62	-0.006984637
38	0xbc0069a7	-0.0078376895
39	0x3ac9a9ea	0.0015385721
40	0x3bfe289f	0.0077563073
41	0x3a9becac	0.0011896095
42	0xbbb6ac6e	-0.0055747544
43	0x3c78a7b1	0.0151766995
44	0xbbd8a9a1	-0.006612018
45	0x3bda1005	0.0066547417
46	0xbc27112b	-0.010196964
47	0x3c097c57	0.008391461
48	0x3bfa462f	0.007637761
49	0x3bfba954	0.0076800976
50	0xbc02bfc2	-0.007980289
51	0xbb734595	-0.0037120332
52	0xbbe94c5c	-0.0071196984
53	0x3b6d9e0a	0.0036257529
54	0xbb573ee9	-0.0032843894
55	0xbc0e23fc	-0.0086755715
56	0x3c090acb	0.00836439
57	0x3c0f2e3b	0.00873905
58	0x3bfb0227	0.0076601687
59	0xbc01c9d1	-0.007921652
60	0x3b35d222	0.0027743657
61	0x3c0ab4e4	0.008465979
62	0xbc117e67	-0.008880234
63	0xbbcd959d	-0.006273939
64	0x3c0adca3	0.008475455
65	0xbc127833	-0.008939791
66	0x3c127e67	0.0089412695
67	0xbc039c3c	-0.008032855
68	0xbc0015cd	-0.007817698
69	0x3bc24ba8	0.005929429
70	0xbb1c6800	-0.00238657
71	0xbb8f11d3	-0.0043661385
72	0x3c0c5a02	0.008566381
73	0xbc01ec3d	-0.007929859
74	0x3bfbf57f	0.0076891775
75	0xbc1702f1	-0.00921701
76	0x3bce9a23	0.0063049956
77	0xbc0604d8	-0.008179866
78	0xbc08f804	-0.008359913
79	0xbb559020	-0.0032587126
80	0x3baca8c6	0.005269143
81	0x3c15701f	0.00912097
82	0x3bd67a8c	0.0065453704
83	0xbbedd4bb	-0.0072580255
84	0x3c0c238d	0.008553398
85	0xbc03b0f0	-0.008037791
86	0xbc11d8f7	-0.008901826
87	0x3bee840b	0.0072789243
88	0xba244553	-0.00062664336
89	0xbc01cfb6	-0.007923057
90	0xbc2f5de5	-0.010703539
91	0xbb788662	-0.0037921895
92	0xb9cd4d68	-0.0003915832
93	0xbb9eef5c	-0.004850311
94	0xbc032b43	-0.00800592
95	0xbbd00d10	-0.0063492134
96	0x3c12da8c	0.008963238
97	0x3bc2f15f	0.005949184
98	0x3a328fe2	0.00068116013
99	0xbc0fa2b7	-0.008766822
100	0xbc0e47b8	-0.008684091
101	0x3c030c01	0.007998467
102	0x3ba261be	0.0049554994
103	0xbc110d77	-0.008853308
104	0x3b7638d0	0.0037570484
105	0x3af41269	0.0018621209
106	0xbc172ab0	-0.009226486
107	0x3beb1634	0.0071742777
108	0x3b274c97	0.002552783
109	0x3c0aa362	0.008461805
110	0x3bca590a	0.006175165
111	0xbb4cef21	-0.0031270462
112	0x3c02e119	0.007988238
113	0xbbefa022	-0.0073127905
114	0x3bfc72d8	0.00770412
115	0x3b33f1a2	0.0027457257
116	0xbc13d742	-0.009023489
117	0x3c17f1aa	0.009273926
118	0xbc12ef82	-0.008968236
119	0x3c02aff7	0.007976524
120	0xbc050a2d	-0.008120102
121	0xbc07923c	-0.008274611
122	0x3be09bad	0.0068544955
123	0x3b85b236	0.0040800823
124	0x37d58fb6	2.54585e-05
125	0xbbdf4f13	-0.0068148463
126	0xbc153c94	-0.009108681
127	0x3b365d96	0.0027826778

network_body._body_endoder.seq_layers.2.weight f4 [128, 128]
0	0xbcd4ec4f	-0.025991587
1	0x3d4d11ba	0.050065733
2	0x3d4d49fc	0.050119385
3	0x3c5e8963	0.01358256
4	0x3e36ed93	0.17864065
5	0x3d813302	0.06308557
6	0x3e2932e4	0.1652332
7	0x3e04d867	0.12973176
8	0xbd9f9d13	-0.077936314
9	0x3d3db436	0.04631444
10	0xbdc4baf3	-0.0960597
11	0xbe1ce27a	-0.15320769
12	0xbdad6bb6	-0.0846781
13	0xbe37fc7c	-0.17967409
14	0x3d423d2b	0.047421616
15	0x3e320261	0.1738372
16	0xbd4bdfe8	-0.04977408
17	0x3de0abca	0.10970266
18	0x3d9e8d83	0.07741835
19	0xbc4e33b5	-0.01258557
20	0x3dbb328d	0.09140501
21	0xbcea88d3	-0.028629696
22	0xbd5c8c68	-0.05384484
23	0xbbdcc9a6	-0.0067379056
24	0x3d390ab0	0.045176208
25	0xbd324905	-0.043526668
26	0x3d446676	0.047949277
27	0xbd5a803f	-0.05334496
28	0x3e17b459	0.14814891
29	0xbe11b06e	-0.14227459
30	0x3c951ad1	0.018201264
31	0x3b0a6cca	0.0021121972
32	0xbd1cd949	-0.038293157
33	0xbb702deb	-0.0036648463
34	0x3db684fd	0.08912084
35	0x3ca988ea	0.020695169
36	0xbdbe40f1	-0.0928973
37	0xbd3e7ed5	-0.046507675
38	0xbc25afb5	-0.010112693
39	0x3d95f48e	0.07322036
40	0x3e02444d	0.12721367
41	0xbc87a00b	-0.016555807
42	0xbd681293	-0.05665834
43	0xbe28c1c6	-0.16480169
44	0xbdf3a2aa	-0.1189626
45	0xbe10e1e7	-0.14148675
46	0xbd87bd87	-0.06627946
47	0xbdb3401f	-0.087524645
48	0x3cf1c931	0.02951488
49	0xbd09e46a	-0.0336651
50	0x3c8aee88	0.016959444
51	0x3da9a4bf	0.08283376
52	0x3ca9abb6	0.020711761
53	0xbe1e229b	-0.15442888
54	0x3e0d33c0	0.13789272
55	0xbd3730b0	-0.044724166
56	0xbdc8ae30	-0.09798849
57	0x3d6c7151	0.057725254
58	0x3df7a335	0.12091676
59	0xbdc6d3a3	-0.09708335
60	0x3b2f79ed	0.0026775554
61	0xbdc6b0b0	-0.09701669
62	0xbe05a74f	-0.13052104
63	0x3d10270e	0.035193495
64	0xbd7b7600	-0.06139183
65	0x3d82a8b0	0.06379831
66	0xbd513a80	-0.05108118
67	0x3dda503c	0.10659835
68	0x3d16776b	0.03673498
69	0x3d8c6d1e	0.0685675
70	0xbd0254ce	-0.031819157
71	0xbdfa2b33	-0.12215271
72	0x3c75f368	0.015011646
73	0x3d9a0a1c	0.075214595
74	0xbe36120b	-0.1778032
75	0xbd91c17c	-0.07116982
76	0xbc0bcda9	-0.00853292
77	0x3e322539	0.17397012
78	0xbd5841d5	-0.052797157
79	0xbd96a604	-0.07355884
80	0xba954665	-0.0011388777
81	0xbb127442	-0.0022347127
82	0x39fd3321	0.00048294014
83	0x3dadb9f4	0.08482733
84	0xbe1be5f9	-0.15224446
85	0xbd6ef124	-0.05833544
86	0x3d3056d2	0.04305155
87	0xba748e5c	-0.00093290745
88	0xba91e147	-0.001112976
89	0x3df6ce18	0.12051028
90	0xbc0a6642	-0.008447232
91	0xbd3290b4	-0.04359503
92	0x3d0e564a	0.03475026
93	0xbdef2f54	-0.11678949
94	0x3d2428b0	0.040077865
95	0xbe2e1354	-0.1699956
96	0x3cd4b5cb	0.025965592
97	0xbe6a8be4	-0.22904927
98	0x3c4906c6	0.012269681
99	0xbd618415	-0.055057604
100	0x3e8934a2	0.26797968
101	0xbd88a659	-0.06672353
102	0xbc9dd64e	-0.019267228
103	0x3cf05436	0.02933703
104	0xbd94fd9b	-0.07274934
105	0x3dd7b7d4	0.10533109
106	0xbd33c9f0	-0.043893754
107	0xbe745f92	-0.23864582
108	0x3d4e68a6	0.05039277
109	0x3c91ed77	0.017813427
110	0xbce9fcb6	-0.028562885
111	0x3b08630e	0.0020810994
112	0x3d49fa6e	0.049311094
113	0xbcae583a	-0.021282304
114	0xbdd00584	-0.10157302
115	0x3d683857	0.056694355
116	0x3dd52678	0.10407728
117	0x3d3d14f7	0.04616257
118	0xbdf0dedb	-0.11761256
119	0xbbf1ce87	-0.0073793563
120	0xbd54dab1	-0.051966373
121	0xbcc7e1c2	-0.024399642
122	0xbe29bf4a	-0.16576877
123	0x3dcb0d0f	0.099146
124	0xbe08829c	-0.13331074
125	0xbe60e7f3	-0.21963482
126	0xbd871de7	-0.065975
127	0xbdb66475	-0.089058794
128	0x3c8e4994	0.01736907
129	0x3b76615f	0.0037594659
130	0x3db8132c	0.08988032
131	0x3c29813c	0.010345753
132	0x3dd98c62	0.10622479
133	0x3d6d9145	0.057999868
134	0x3da22006	0.07916264
135	0x3e026680	0.12734413
136	0x3cd6b960	0.02621144
137	0x3d74d60d	0.059774447
138	0xbd6742d0	-0.0564602
139	0xbdf05c02	-0.11736299
140	0xbd0ebd17	-0.0348483
141	0xbd62b401	-0.055347446
142	0xbcabf310	-0.020989925
143	0xbd52aef7	-0.05143639
144	0x3d91c77d	0.071181275
145	0x3cc105e5	0.023562381
146	0xbe0ecc25	-0.13945062
147	0xbd1e7c45	-0.03869273
148	0x3def7bdd	0.11693547
149	0x3d441196	0.047868334
150	0xbd8517cf	-0.06498682
151	0x3da7b204	0.08188251
152	0x3c11fd14	0.008910436
153	0x3dd5a7e5	0.10432414
154	0xbe067df8	-0.13133991
155	0xbd35e58d	-0.04440837
156	0xbd612aa1	-0.054972295
157	0xbbb65956	-0.005564849
158	0xbdeb0b94	-0.11476818
159	0x3d8db693	0.06919589
160	0x3d600784	0.054694667
161	0x3db18685	0.08668236
162	0xbe1128c0	-0.14175701
163	0xbdf6aae2	-0.12044312
164	0x3ca3e57f	0.020006893
165	0xbd9b1321	-0.07572008
166	0x3e0147b5	0.1262501
167	0x3e0134ec	0.12617844
168	0xbe01e18f	-0.126837
169	0x3c8e1b88	0.017347112
170	0x3de92449	0.11383874
171	0x3e05d31b	0.13068812
172	0x3c3d3e45	0.011550491
173	0x3cc12fc3	0.023582345
174	0xbc8c7e7f	-0.017150162
175	0xbd325b3c	-0.04354404
176	0xbc97a75d	-0.018512422
177	0xbe53cb77	-0.20683084
178	0x3cbd7403	0.023126608
179	0xbbd83ba9	-0.006598909
180	0x3d00b66e	0.03142398
181	0xbe0ebf39	-0.13940133
182	0xbd66835e	-0.056277625
183	0x3d0d8d2a	0.034558453
184	0x3c279174	0.01022755
185	0xbe25b8b5	-0.16183741
186	0xbdb9b09c	-0.09066889
187	0x3bd009f2	0.006348842
188	0xbc02802f	-0.007965132
189	0xbdac0920	-0.08400178
190	0xbcab5578	-0.020914778
191	0xbbf5b366	-0.0074981926
192	0x3dbbd5ae	0.091716155
193	0x3c7826dd	0.0151459845
194	0x3cb96057	0.022628946
195	0xbd3fb4cf	-0.046803292
196	0xbdb7704e	-0.08956967
197	0xbd97c6b7	-0.07410949
198	0xbe2321d7	-0.15930878
199	0xbe1fd5d1	-0.15608908
200	0xbd7053e4	-0.058673754
201	0x3d0984d2	0.033573933
202	0x3c0719b1	0.008245871
203	0x3dc4a579	0.09601874
204	0xbd149dee	-0.036283426
205	0x3de2f270	0.110813975
206	0xbbdc9144	-0.006731184
207	0x3e1ce714	0.15322524
208	0x3e40df2f	0.18835138
209	0x3dad2e0f	0.084560506
210	0xbc818207	-0.015809072
211	0x3d9715a5	0.07377175
212	0x3d218e91	0.039442603
213	0xbd4211b3	-0.04738016
214	0xbc8f3521	-0.017481389
215	0x3d8d577c	0.06901452
216	0x3c9550fd	0.018227095
217	0x3e2296db	0.1587786
218	0xbd17bec4	-0.037047163
219	0x3d56862c	0.05237405
220	0x3d7f4142	0.062318094
221	0x3d1d9dc0	0.03848052
222	0xbba4ab7b	-0.005025325
223	0xbc28def2	-0.010307061
224	0xbd9418e0	-0.07231307
225	0x3d4b5709	0.04964355
226	0x3d6c386b	0.057670992
227	0x3da2181f	0.07914757
228	0xbc87a8e1	-0.01656002
229	0xbdaa2dfb	-0.08309551
230	0x3e268af0	0.16263938
231	0x3de7920b	0.11307152
232	0x3d753521	0.05986512
233	0x3e5ece6a	0.21758428
234	0xbe04f857	-0.12985359
235	0xbc409b73	-0.011755812
236	0x3bef3e17	0.007301103
237	0xbd1a307f	-0.037643906
238	0xbd866623	-0.0656245
239	0x3d08e18b	0.03341822
240	0xbdf04a2f	-0.117328994
241	0x3dc36b2d	0.095419265
242	0xbd2ec517	-0.04266843
243	0x3d838a14	0.06422821
244	0x3e1c510a	0.15265289
245	0xbdbde697	-0.09272497
246	0x3d0f0b5c	0.034922943
247	0xbcc3077c	-0.02380728
248	0xbb856ad7	-0.004071574
249	0x3d13e069	0.036102686
250	0x3ca464fd	0.020067686
251	0xbc0b8565	-0.00851569
252	0x3d93b757	0.07212704
253	0xbe2acc6e	-0.16679546
254	0x3cfa8939	0.030583011
255	0x3d69a831	0.057045165

network_body._body_endoder.seq_layers.2.bias f4 [128]
0	0xbbe81ad8	-0.007083278
1	0xbc0a4ee9	-0.008441665
2	0xbc07edcf	-0.008296444
3	0x3b1f3fa1	0.00242994
4	0x3c07cf90	0.008289233
5	0xbb911ffb	-0.004428861
6	0x3c02f3be	0.007992683
7	0xbc0b80ed	-0.008514625
8	0xbbe7473f	-0.0070580537
9	0x3c0a10b7	0.008426837
10	0x3b0e1c0c	0.0021684198
11	0xbc32478d	-0.010881317
12	0x3bc11e21	0.005893484
13	0xbc9b5336	-0.018960577
14	0xbc0bbec4	-0.008529369
15	0xbc0a79ce	-0.008451892
16	0x3c056151	0.008140878
17	0xbbc895df	-0.0061213817
18	0x3c00a245	0.007851188
19	0xbbad1005	-0.0052814507
20	0xba367590	-0.0006960267
21	0x3c08bdd5	0.008346041
22	0x3a9cc5dc	0.0011960822
23	0x3c091567	0.008366919
24	0x3c0927d1	0.008371309
25	0xbc2b0021	-0.010437042
26	0x3bfe7b35	0.0077661523
27	0xbb8d36c1	-0.0043095057
28	0xbc2dd401	-0.010609628
29	0xbc07d1a7	-0.008289731
30	0xbc38799a	-0.011259461
31	0xbb9ea558	-0.004841488
32	0x3c344f94	0.011005301
33	0x3b931763	0.004488872
34	0xbc08e011	-0.008354203
35	0xbb5bb59e	-0.0033525
36	0x3c08828b	0.008331905
37	0xbc0127b1	-0.007882998
38	0xbb731b8f	-0.0037095284
39	0xbc5fb71c	-0.0136544965
40	0x3c4cd6c0	0.012502372
41	0xbbeac6cf	-0.007164813
42	0xbb49a714	-0.0030769752
43	0x3c073c28	0.008254088
44	0xbaea4856	-0.0017874341
45	0x3c009387	0.007847673
46	0xbbbe426c	-0.005806258
47	0x3c08b1f1	0.008343206
48	0x3c066ed3	0.0082051335
49	0x3c08e214	0.0083546825
50	0x3c0f0bc8	0.008730836
51	0x3be7ca6c	0.007073691
52	0x3bf15ce0	0.007365808
53	0xbbca7e81	-0.006179631
54	0xbbb61e03	-0.005557777
55	0x3c06ff45	0.008239572
56	0xbc05223b	-0.008125837
57	0x3b1387e6	0.0022511422
58	0x3bd23379	0.0064148274
59	0x3b87a5fc	0.00413966
60	0x3c04b0ba	0.0080987755
61	0xbc09e837	-0.008417181
62	0x3c2beb0a	0.010493049
63	0x39119c67	0.00013886542
64	0xbc079588	-0.008275397
65	0xbb5cfef9	-0.0033721311
66	0xbc05436c	-0.00813375
67	0x3c11e830	0.0089054555
68	0xbbe7a817	-0.0070695984
69	0x3c08abe0	0.008341759
70	0x3b9f9c91	0.004870959
71	0x3c0a1bd9	0.008429491
72	0x3bba6150	0.00568787
73	0xbc060a1b	-0.00818112
74	0xbbfda8d7	-0.0077410745
75	0x3c907294	0.01763276
76	0xbba349df	-0.0049831714
77	0x3bfb9967	0.007678199
78	0xbb2e5fde	-0.0026607434
79	0xbb28e346	-0.002577023
80	0xbc0aac51	-0.008463935
81	0xbc0a5926	-0.008444106
82	0x39442ac2	0.00018707945
83	0x3c082151	0.0083087245
84	0x3c195b68	0.009360172
85	0xbb96dd93	-0.0046040504
86	0xbc08306a	-0.008312324
87	0x3c083967	0.008314467
88	0xbbfc9f57	-0.0077094245
89	0x3c28cb21	0.010302336
90	0x3c0995b0	0.008397505
91	0xbc096ffc	-0.008388516
92	0xbc2f93b1	-0.010716365
93	0x3c06a51f	0.008218079
94	0x3c4b6635	0.012414505
95	0xbb5f315f	-0.0034056527
96	0x3a7567ad	0.0009361457
97	0x3c07e0b6	0.008293321
98	0xbc063cd0	-0.00819321
99	0x3c00de4a	0.007865498
100	0xbc0664e6	-0.008202767
101	0x3b4ed4e2	0.0031559994
102	0x3af995bd	0.0019041818
103	0x3aa8c215	0.0012875224
104	0x3c046ee6	0.008083081
105	0xba46b634	-0.0007580251
106	0x3b6818fe	0.0035415287
107	0xbbfcf073	-0.0077190935
108	0xbc0ae102	-0.008476498
109	0xbbbd16c2	-0.005770535
110	0xbae2feff	-0.0017318426
111	0xbc1e354d	-0.009656263
112	0x3c03a408	0.008034714
113	0x3bfbb771	0.00768178
114	0xbc09cd03	-0.008410695
115	0x3c098514	0.008393545
116	0xbb817f13	-0.003951916
117	0xba6f1bc4	-0.0009121264
118	0x3c13a461	0.009011359
119	0xbc09c0d0	-0.0084077865
120	0x3bfeb4de	0.007773026
121	0x3c982ac2	0.018575076
122	0xbc068bc6	-0.0082120355
123	0x3c01fc0e	0.00793363
124	0xbb5773cc	-0.0032875417
125	0xbc078876	-0.008272281
126	0xbba9d37a	-0.0051826807
127	0x3bfbb190	0.007681079

action_model._discrete_distribution.branches.0.weight f4 [2, 128]
0	0xbbe27c1d	-0.006911768
1	0xbc1d78e9	-0.009611347
2	0xbbe4ac70	-0.006978564
3	0x3c0cec4b	0.0086012585
4	0xbb8ede9b	-0.0043600327
5	0x39cbda74	0.00038881938
6	0x3c21fac8	0.009886451
7	0xbb7e1501	-0.0038769844
8	0x3bfc94bf	0.0077081616
9	0x3c504dfd	0.012713906
10	0x3c21c4f6	0.009873619
11	0xbcad8b3b	-0.021184554
12	0x3ba17647	0.00492743
13	0xbc582bc1	-0.0131940255
14	0xbc348e7f	-0.011020302
15	0xbc251971	-0.0100768665
16	0x3c2d02ed	0.01055978
17	0xbb8d91ae	-0.004320345
18	0x3c0c4fed	0.008563978
19	0xbbf68c67	-0.0075240615
20	0xbc72de8c	-0.014823567
21	0x3c83ba1c	0.016079955
22	0x3bb9d0eb	0.005670657
23	0x3be5b68b	0.007010286
24	0x3c911e79	0.017714726
25	0xbca449e3	-0.020054763
26	0x3c4ac244	0.012375418
27	0xbbc7ec73	-0.006101185
28	0x3acc98bd	0.0015609484
29	0xbb002657	-0.0019554102
30	0xbb9c21c9	-0.0047647697
31	0xba81feb3	-0.0009917825
32	0x3c16c251	0.009201602
33	0x3905b7a8	0.00012752286
34	0xbc3b568b	-0.011434208
35	0xbc6e1a22	-0.014532598
36	0x3c188752	0.009309607
37	0x3c02d508	0.007985361
38	0xbb8f8e60	-0.004380986
39	0xbb8c9fdf	-0.004291519
40	0xbb2212ba	-0.00247304
41	0xbbb1b041	-0.0054226224
42	0xbb6ba809	-0.003595831
43	0x3be0e044	0.006862672
44	0x3b0a227b	0.002107768
45	0x3c82b74c	0.015956543
46	0xbb3a1530	-0.0028393976
47	0x3c63a255	0.013893683
48	0x3c850826	0.016239237
49	0x3c6016d1	0.013677315
50	0xbc16f53b	-0.009213741
51	0xbc0fffb5	-0.008788993
52	0x3c5bbd64	0.013411853
53	0xbb12bdf7	-0.002239106
54	0x3b21da1f	0.002469666
55	0x3adfab55	0.0017064611
56	0xbc747ad9	-0.014921867
57	0x3bdba67b	0.0067031956
58	0x3c4c241d	0.012459782
59	0xbc2c9d3a	-0.010535533
60	0x3bece673	0.00722962
61	0xbbf8a75c	-0.00758831
62	0x3b8ecf05	0.0043581747
63	0x3c021667	0.007939911
64	0xbc5aa244	-0.013344351
65	0xbc3e7b1c	-0.011626031
66	0xbc9db554	-0.019251503
67	0x3c922366	0.017839145
68	0xbbe6d7c9	-0.0070447666
69	0x3cd86754	0.026416458
70	0x3c2b1167	0.010441161
71	0x3cdc3063	0.026878541
72	0x3b3b2bb9	0.0028559996
73	0xbca50fd1	-0.020149143
74	0xbac335e4	-0.001489338
75	0x3b9da01d	0.0048103468
76	0x3bdd1456	0.006746809
77	0xbbe25509	-0.0069071096
78	0xbb9139a5	-0.0044319206
79	0x3c53279e	0.012887863
80	0xbc89d75f	-0.01682633
81	0xbc82af1c	-0.01595264
82	0xbc108804	-0.008821491
83	0x3cbc8c80	0.023016214
84	0x3ba0fc5a	0.004912895
85	0xbc4c84d0	-0.012482837
86	0xbc909bfe	-0.017652508
87	0x3ce2ad0b	0.027670404
88	0xbc4bd429	-0.01244072
89	0x3b9614ee	0.0045801317
90	0x3cc2ab48	0.023763314
91	0xbc7c77cc	-0.015409421
92	0x3c140c9e	0.009036211
93	0x3c8f9db2	0.01753125
94	0x3c630fe7	0.013858772
95	0x3b862467	0.004093695
96	0x3bcbbedc	0.0062178206
97	0x3d1a0512	0.03760249
98	0xbca8ac8d	-0.020590091
99	0x3bfb272b	0.0076645813
100	0xbcb0fecc	-0.021605872
101	0x3c1d58af	0.009603663
102	0x3b20d659	0.0024541824
103	0xbc31f473	-0.010861504
104	0x3b8d1873	0.004305893
105	0xbb4a1bcc	-0.0030839322
106	0x3b63f397	0.0034782642
107	0xbb81bc34	-0.003959203
108	0xbc4dd8a7	-0.012563861
109	0xbc1aab7d	-0.0094403
110	0x3a12769c	0.0005587132
111	0xbbb7cad2	-0.005608895
112	0x3c922df6	0.017844182
113	0x3bee17d3	0.0072660237
114	0xbb2749bc	-0.0025526127
115	0x3c7f5da5	0.015586291
116	0x3bbe7ff0	0.005813591
117	0xbba78eef	-0.0051134746
118	0x3c211a43	0.009832921
119	0xbc804878	-0.015659556
120	0x3c1d627e	0.009606002
121	0x3bd0e7ba	0.00637528
122	0xbc93f82c	-0.018062674
123	0xbc6ddde6	-0.014518237
124	0xb7a87b7c	-2.0084663e-05
125	0xbcd0c088	-0.025482431
126	0xbc7e8436	-0.015534451
127	0x3bd6e9a1	0.0065586125
128	0xbbe810e8	-0.0070820935
129	0x3c8bdef0	0.017074078
130	0x3ca1086f	0.019657342
131	0xbb1b3c23	-0.0023686967
132	0xbcc948f6	-0.024570923
133	0x3c69d72f	0.014272495
134	0xbc262066	-0.01013956
135	0x3c9b28ca	0.018940348
136	0x3bba0bbb	0.005677668
137	0xbc887730	-0.016658396
138	0x3b5e929c	0.0033961898
139	0xbb7c1946	-0.0038467213
140	0xbb91990e	-0.0044432944
141	0x3c51f8fd	0.012815711
142	0x3c37e544	0.011224095
143	0x3c8eeb5a	0.017446209
144	0xbc3141c5	-0.010818903
145	0xbc092f3f	-0.008373081
146	0xbc165177	-0.009174696
147	0x3c01cf6a	0.0079229865
148	0xbba735bf	-0.0051028426
149	0xbc9bf57d	-0.019037956
150	0xbb90f1ac	-0.004423341
151	0xbc50a8f9	-0.012735599
152	0xbb416d5a	-0.0029514642
153	0xbc29de65	-0.010367964
154	0x3b5e345e	0.0033905725
155	0xbc013559	-0.007886254
156	0x3bbec290	0.0058215335
157	0x3ce8c094	0.02841214
158	0x3c905f9e	0.017623719
159	0x3be8f4c8	0.0071092583
160	0xbc6d9308	-0.014500387
161	0xbb99d6ee	-0.004694811
162	0x3bc61ac0	0.0060456693
163	0xbae2e24c	-0.0017309873
164	0xbc8e898d	-0.017399574
165	0x3bc76d84	0.0060860533
166	0xbc3c290f	-0.0114843985
167	0x3c72aa34	0.014811087
168	0xbcc4f4b1	-0.02404246
169	0xbc03481f	-0.0080128005
170	0x3c05ef60	0.008174747
171	0xbc491005	-0.012271886
172	0x3c05572f	0.008138462
173	0xbba3ed51	-0.0050026556
174	0x3c41848f	0.01181139
175	0xbc3b5d82	-0.011435868
176	0xbbce1b87	-0.0062899026
177	0xbce185f0	-0.027529687
178	0xbc71c4aa	-0.014756361
179	0xbc1a21bc	-0.009407457
180	0xbc0b8600	-0.008515835
181	0xbbaa1a31	-0.0051911105
182	0xba325470	-0.00068027433
183	0xbc965849	-0.018352645
184	0x3c33a5ae	0.010964794
185	0xbb9f7b07	-0.004866961
186	0xbb134896	-0.0022473685
187	0xbb230038	-0.0024871957
188	0xbc464d46	-0.012103384
189	0x3ca9b97b	0.020718327
190	0xbc0fadaa	-0.008769432
191	0x3ba334a8	0.0049806423
192	0x3c48f191	0.012264625
193	0x3b001091	0.0019541124
194	0xbaafdaca	-0.0013416645
195	0xbadb6942	-0.0016739743
196	0xbbca2ecd	-0.00617013
197	0x3b9da508	0.004810933
198	0xbb95f596	-0.0045763953
199	0xba9d422f	-0.0011997874
200	0xbc37f61d	-0.011228112
201	0x3c5bb8b0	0.013410732
202	0x3c7c57a9	0.015401759
203	0xbc78d5fe	-0.015187738
204	0x39d2ea18	0.00040228735
205	0xbbb83efd	-0.005622743
206	0x3bdebf3e	0.0067977
207	0x3be7bf1b	0.007072342
208	0x3b87024f	0.0041201483
209	0x3ba7d6eb	0.0051220558
210	0xba158fee	-0.0005705346
211	0xb80f2e6d	-3.4137094e-05
212	0xbc609699	-0.01370778
213	0x3b1c9e12	0.0023897928
214	0x3c53edf9	0.012935155
215	0xbc026f8e	-0.007961167
216	0x3b5e5b9f	0.0033929122
217	0xbc867886	-0.016414892
218	0xbbfdcc6b	-0.007745316
219	0x3c8903cd	0.016725445
220	0x3c39fefd	0.011352298
221	0xbb3d19e5	-0.0028854546
222	0xbc05d926	-0.008169448
223	0x3c8bdb41	0.017072322
224	0x3b0f019e	0.0021821032
225	0xba27a4c4	-0.00063950964
226	0x3c24945a	0.010045135
227	0xbc2ce370	-0.010552272
228	0x3c286184	0.010277156
229	0xbb5dfb1f	-0.0033871604
230	0xbc16e16a	-0.009209016
231	0xbc1305cf	-0.008973553
232	0xbc59d2c2	-0.0132948775
233	0x3bfd1d3b	0.007724432
234	0xbc158e5f	-0.009128182
235	0x3b3d23df	0.0028860492
236	0x3c80a46c	0.015703402
237	0xb7d2bc60	-2.512167e-05
238	0x3c386386	0.011254197
239	0x3be5a36d	0.0070080073
240	0xbc9ece4f	-0.019385485
241	0xbc54c546	-0.012986487
242	0x3cc35816	0.023845714
243	0xbbf4470c	-0.0074547585
244	0xbabea27f	-0.0014544277
245	0x3b8bed91	0.0042702635
246	0xbc06f65c	-0.008237448
247	0x3c5e27c7	0.013559288
248	0xbc132879	-0.008981817
249	0xbc91bf7e	-0.017791506
250	0x3c98d0f1	0.018654319
251	0xbcc6f3a5	-0.0242861
252	0x3c648d58	0.013949715
253	0x3cbdca86	0.02316786
254	0x3b83d1e2	0.0040228227
255	0xbc1aa6b4	-0.009439159

action_model._discrete_distribution.branches.0.bias f4 [2]
0	0x3c057b61	0.008147092
1	0xbc057b64	-0.008147094

exp_avg f4 [128, 4]
0	0xb54a7f14	-7.5435787e-07
1	0x3517df50	5.6576846e-07
2	0xb57d1ed8	-9.429473e-07
3	0x34880496	2.533531e-07
4	0xb6c97143	-6.003452e-06
5	0x369714f0	4.502588e-06
6	0xb6fbcd8c	-7.5043117e-06
7	0xb5801841	-9.543802e-07
8	0xb2fbab52	-2.9298153e-08
9	0x32bcc057	2.1973547e-08
10	0xb31d4ae5	-3.6622527e-08
11	0xb3868505	-6.2640574e-08
12	0x37df6bb8	2.6633832e-05
13	0xb7a790c6	-1.9975367e-05
14	0x380ba354	3.3292294e-05
15	0x36dc1e64	6.560049e-06
16	0xb7049ad1	-7.903859e-06
17	0x36c6e83f	5.927897e-06
18	0xb725c189	-9.879827e-06
19	0xb6041fcf	-1.9688048e-06
20	0x36c4f91a	5.8702544e-06
21	0xb693bad0	-4.4026892e-06
22	0x36f63756	7.3378133e-06
23	0x358ba798	1.0405083e-06
24	0xb72e73f8	-1.0398209e-05
25	0x3702d6f8	7.798655e-06
26	0xb75a10f3	-1.2997759e-05
27	0xb6234d28	-2.4333804e-06
28	0xb621e282	-2.4122714e-06
29	0x35f2d3bc	1.8092028e-06
30	0xb64a5b1e	-3.0153383e-06
31	0xb5891384	-1.0212975e-06
32	0x372136e9	9.609133e-06
33	0xb6f1d266	-7.2068533e-06
34	0x374984a3	1.20114155e-05
35	0x35eddf60	1.7722887e-06
36	0xb65b401b	-3.2670857e-06
37	0x3624700b	2.4503122e-06
38	0xb689080c	-4.083855e-06
39	0xb5759f98	-9.150185e-07
40	0x36edbc7d	7.0850933e-06
41	0xb6b24d66	-5.3138237e-06
42	0x371495d1	8.856369e-06
43	0x35e34ee4	1.6935778e-06
44	0x369d8104	4.693984e-06
45	0xb66c4186	-3.520488e-06
46	0x36c4e14a	5.8674823e-06
47	0x355c11ec	8.1982466e-07
48	0xb680ffe7	-3.844488e-06
49	0x36417fd2	2.8833642e-06
50	0xb6a13fe3	-4.8056113e-06
51	0xb507e209	-5.0620343e-07
52	0xb6cead5b	-6.1594596e-06
53	0x369b0209	4.619597e-06
54	0xb7012c5f	-7.69933e-06
55	0xb62fea96	-2.621358e-06
56	0x37dc2238	2.6241978e-05
57	0xb7a519a9	-1.9681482e-05
58	0x38099562	3.280247e-05
59	0x37068610	8.018236e-06
60	0x371fa96e	9.516587e-06
61	0xb6ef7e2e	-7.1374443e-06
62	0x374793cb	1.1895735e-05
63	0x3684c960	3.9573497e-06
64	0xb6a48526	-4.9030814e-06
65	0x3676c7ba	3.6773113e-06
66	0xb6cda66d	-6.1288506e-06
67	0xb5835854	-9.785967e-07
68	0x372207ef	9.6578e-06
69	0xb6f30be7	-7.24335e-06
70	0x374a89f1	1.2072255e-05
71	0x36401c19	2.8626584e-06
72	0xb7000926	-7.631525e-06
73	0x36c00dbf	5.723646e-06
74	0xb7200b72	-9.539408e-06
75	0xb6063925	-2.0000818e-06
76	0xb61afe44	-2.309579e-06
77	0x35e87d6d	1.7321851e-06
78	0xb641bdcd	-2.886972e-06
79	0xb633442c	-2.671276e-06
80	0x37a90d82	2.015266e-05
81	0xb77d9446	-1.5114498e-05
82	0x37d350e2	2.5190824e-05
83	0x36b25814	5.315067e-06
84	0x36d1af80	6.2491163e-06
85	0xb69d43a0	-4.686837e-06
86	0x37030db1	7.811396e-06
87	0x3612cf7d	2.187647e-06
88	0xb65f82ba	-3.3305682e-06
89	0x3627a206	2.497925e-06
90	0xb68bb1ad	-4.163207e-06
91	0xb52f3526	-6.526992e-07
92	0x3708bb14	8.149789e-06
93	0xb6cd189e	-6.112342e-06
94	0x372ae9da	1.0187237e-05
95	0x367a7ea4	3.7326618e-06
96	0x362d6c0f	2.5841907e-06
97	0xb602110c	-1.9381432e-06
98	0x3658c716	3.2302391e-06
99	0x35361f50	6.784585e-07
100	0x3780600e	1.5303518e-05
101	0xb7409017	-1.147764e-05
102	0x37a07812	1.9129398e-05
103	0x36676162	3.4478367e-06
104	0xb66b2969	-3.5041833e-06
105	0x36305f10	2.6281377e-06
106	0xb692f9e0	-4.3802283e-06
107	0xb52383a9	-6.091382e-07
108	0xb62a42d2	-2.5370869e-06
109	0x35ff6440	1.9028157e-06
110	0xb654d38d	-3.17136e-06
111	0xb4b8d75e	-3.442937e-07
112	0x369a37b8	4.596044e-06
113	0xb6675398	-3.447034e-06
114	0x36c0c5aa	5.745057e-06
115	0x362d077d	2.5783368e-06
116	0xb6b6fb05	-5.453245e-06
117	0x36893c44	4.089934e-06
118	0xb6e4b9c5	-6.816556e-06
119	0x3494d3ca	2.7721245e-07
120	0xb4daf6b5	-4.0785167e-07
121	0x34a43903	3.0588862e-07
122	0xb508da36	-5.0981487e-07
123	0xb3a95fac	-7.8870784e-08
124	0xb67ca45c	-3.7646596e-06
125	0x363d7b3c	2.8234927e-06
126	0xb69de6ba	-4.7058247e-06
127	0x341061cc	1.3446623e-07
128	0x361c4250	2.328441e-06
129	0xb5ea6382	-1.7463319e-06
130	0x364352e3	2.910551e-06
131	0x32f3df12	2.8390364e-08
132	0x370801dc	8.106665e-06
133	0xb6cc02c8	-6.0799975e-06
134	0x372a024e	1.0133326e-05
135	0x35f4f671	1.825114e-06
136	0x369fba4f	4.7602584e-06
137	0xb66f976c	-3.5701914e-06
138	0x36c7a8e2	5.9503227e-06
139	0x35c315c2	1.4534965e-06
140	0xb40ec827	-1.3297596e-07
141	0x33d62c32	9.9731906e-08
142	0xb4327a2a	-1.6621985e-07
143	0xb520ed3c	-5.9949866e-07
144	0xb694f7d7	-4.439596e-06
145	0x365f73c8	3.3296983e-06
146	0xb6ba35ce	-5.5494957e-06
147	0xb5417b50	-7.2077546e-07
148	0xb6a37689	-4.871578e-06
149	0x367531d2	3.6536844e-06
150	0xb6cc5427	-6.0894704e-06
151	0xb5291cd8	-6.299938e-07
152	0xb5ff9471	-1.9042183e-06
153	0x35bfaf56	1.4281638e-06
154	0xb61fbcc2	-2.3802718e-06
155	0x346a2944	2.180796e-07
156	0x376b1101	1.4011051e-05
157	0xb7304cbd	-1.05082845e-05
158	0x3792eaa1	1.7513814e-05
159	0x36b59b75	5.412318e-06
160	0x378de6d5	1.6916e-05
161	0xb754da4e	-1.2687013e-05
162	0x37b1608a	2.1144999e-05
163	0x36a4b21a	4.9083146e-06
164	0x372531da	9.846373e-06
165	0xb6f7cac3	-7.384778e-06
166	0x374e7e49	1.230796e-05
167	0x361605ae	2.2355048e-06
168	0xb664fbe8	-3.4121276e-06
169	0x362bbced	2.5590955e-06
170	0xb68f1d73	-4.2651604e-06
171	0xb63c123d	-2.80248e-06
172	0x36360aea	2.7126466e-06
173	0xb608882f	-2.0344849e-06
174	0x36638da1	3.3908075e-06
175	0x354bd3fc	7.593187e-07
176	0xb68644fd	-4.0015425e-06
177	0x3649677b	3.0011568e-06
178	0xb6a7d639	-5.0019266e-06
179	0xb595b45c	-1.1153857e-06
180	0x3620ff5c	2.3990497e-06
181	0xb5f17f09	-1.7992871e-06
182	0x36493f2d	2.9988107e-06
183	0x3598ec90	1.1393731e-06
184	0xb4e54bb2	-4.270965e-07
185	0x34abf8c6	3.2032239e-07
186	0xb50f4f50	-5.3387066e-07
187	0x357f8226	9.5184294e-07
188	0x3735a185	1.0826047e-05
189	0xb7083927	-8.1195385e-06
190	0x376309ee	1.3532566e-05
191	0x36481311	2.981342e-06
192	0x37ad024c	2.0624277e-05
193	0xb781c1b9	-1.5468207e-05
194	0x37d842e1	2.578035e-05
195	0x36134231	2.1943235e-06
196	0x36bc041e	5.603316e-06
197	0xb68d0317	-4.202487e-06
198	0x36eb0520	7.0041424e-06
199	0x35d20738	1.564832e-06
200	0xb7485bd6	-1.1942311e-05
201	0x371644de	8.956731e-06
202	0xb77a72ce	-1.4927891e-05
203	0xb545707c	-7.3551905e-07
204	0x35fb4488	1.8720903e-06
205	0xb5bc736b	-1.4040683e-06
206	0x361d0adb	2.3401142e-06
207	0x340cb9cc	1.3106109e-07
208	0x36468f28	2.9587627e-06
209	0xb614eb60	-2.2190725e-06
210	0x367832f2	3.6984534e-06
211	0x351927da	5.7054933e-07
212	0xb6bae1d4	-5.569522e-06
213	0x368c295e	4.177141e-06
214	0xb6e99a50	-6.9619055e-06
215	0xb4fbdb46	-4.6911936e-07
216	0xb69dfbf4	-4.708296e-06
217	0x366cf9ee	3.5312219e-06
218	0xb6c57af0	-5.8853693e-06
219	0x349ac400	2.8827344e-07
220	0xb6cd4d1e	-6.1184537e-06
221	0x3699f9da	4.588842e-06
222	0xb7005036	-7.64807e-06
223	0xb5c58910	-1.4717534e-06
224	0x381a464a	3.6781923e-05
225	0xb7e76977	-2.7586457e-05
226	0x3840d7e2	4.5977424e-05
227	0x36774c5e	3.685032e-06
228	0x372a3237	1.0144481e-05
229	0xb6ff4b57	-7.608363e-06
230	0x3754bed0	1.2680612e-05
231	0x3630bb33	2.6335008e-06
232	0x373569e9	1.08131e-05
233	0xb7080f67	-8.109818e-06
234	0x3762c459	1.35163655e-05
235	0x36357b19	2.7042754e-06
236	0xb76b8773	-1.4038628e-05
237	0x3730a592	1.0528967e-05
238	0xb79334a0	-1.7548271e-05
239	0xb5088d08	-5.0869176e-07
240	0x37221a98	9.662144e-06
241	0xb6f327dc	-7.2466046e-06
242	0x374aa141	1.2077683e-05
243	0x358dc60b	1.0562957e-06
244	0x36e95eac	6.9549624e-06
245	0xb6af070b	-5.2162263e-06
246	0x3711db2b	8.6937025e-06
247	0x3660652d	3.3437493e-06
248	0xb71d198e	-9.363879e-06
249	0x36eba666	7.022917e-06
250	0xb7445ff7	-1.1704854e-05
251	0xb7041d4a	-7.8746325e-06
252	0x36a1cd4e	4.8220745e-06
253	0xb672b3f6	-3.6165561e-06
254	0x36ca40a0	6.0275925e-06
255	0x35c6d804	1.4815018e-06

exp_avg_sq f4 [128, 4]
0	0x2d085b46	7.750972e-12
1	0x2c9966a9	4.359919e-12
2	0x2d550e9a	1.211089e-11
3	0x2c7c63ff	3.5866863e-12
4	0x2f832966	2.3858177e-10
5	0x2f138e8e	1.3420218e-10
6	0x2fccf0b1	3.7278405e-10
7	0x2d0722d7	7.6815975e-12
8	0x2c984463	4.3276923e-12
9	0x2c2b4cfd	2.4343299e-12
10	0x2cedeae7	6.7620245e-12
11	0x2b5b8fbc	7.80039e-13
12	0x314cce6f	2.980325e-09
13	0x30e6683f	1.6764331e-09
14	0x31a0014a	4.6567594e-09
15	0x2f7d7b83	2.3054096e-10
16	0x2fe5cfe4	4.1802573e-10
17	0x2f8144f9	2.351397e-10
18	0x30338a6d	6.5316536e-10
19	0x2e192db0	3.482875e-11
20	0x2eff81bf	1.1619105e-10
21	0x2e8fb8f9	6.535745e-11
22	0x2f479d5f	1.8154854e-10
23	0x2cb5c2b6	5.1659467e-12
24	0x301a1c44	5.606504e-10
25	0x2fad5fcc	3.1536584e-10
26	0x3070cc2b	8.760163e-10
27	0x2e4f77e7	4.7172845e-11
28	0x2e1642cd	3.4165382e-11
29	0x2da90b1f	1.9218014e-11
30	0x2e6ac859	5.3383385e-11
31	0x2d2d6bdb	9.85786e-12
32	0x2fa212d4	2.9481007e-10
33	0x2f36552d	1.6583064e-10
34	0x2ffd3d67	4.606406e-10
35	0x2d59ce00	1.2380763e-11
36	0x2e4a2c77	4.5968975e-11
37	0x2de371ff	2.5857537e-11
38	0x2e9df2b8	7.182649e-11
39	0x2d010001	7.332802e-12
40	0x2f91bb9c	2.650865e-10
41	0x2f23f312	1.491112e-10
42	0x2fe3b530	4.14198e-10
43	0x2dd1db49	2.3857931e-11
44	0x2ecca6f3	9.306502e-11
45	0x2e663bd6	5.234909e-11
46	0x2f1fe274	1.4541418e-10
47	0x2ce3fc01	6.479706e-12
48	0x2ee49395	1.03944554e-10
49	0x2e809301	5.846879e-11
50	0x2f329345	1.6241326e-10
51	0x2c987092	4.3325976e-12
52	0x2f18e35f	1.3905098e-10
53	0x2eabffce	7.82162e-11
54	0x2f6ee34c	2.1726726e-10
55	0x2df569bc	2.790023e-11
56	0x31939695	4.2953823e-09
57	0x3126096c	2.4161535e-09
58	0x31e69b53	6.7115393e-09
59	0x3019808e	5.5843763e-10
60	0x30160209	5.4572574e-10
61	0x2fa8c248	3.0697067e-10
62	0x306a6328	8.5269614e-10
63	0x2f0189ac	1.1781393e-10
64	0x2fe8d2d3	4.2350354e-10
65	0x2f82f69d	2.3822092e-10
66	0x3035e4ae	6.617239e-10
67	0x2e669cd8	5.243525e-11
68	0x2fbfbf88	3.487879e-10
69	0x2f57b776	1.9619315e-10
70	0x3015cda5	5.449812e-10
71	0x2dfd0b54	2.87678e-11
72	0x2f165376	1.3672072e-10
73	0x2ea91de8	7.6905426e-11
74	0x2f6ae264	2.1362606e-10
75	0x2d45196b	1.12037974e-11
76	0x2e037bbb	2.9895846e-11
77	0x2d93eb34	1.6816416e-11
78	0x2e4d7152	4.6712252e-11
79	0x2dcf3caa	2.3560116e-11
80	0x30c42305	1.427083e-09
81	0x305ca76a	8.0273443e-10
82	0x31193b5a	2.2298168e-09
83	0x2ef5d1a7	1.1178552e-10
84	0x2f8f17bc	2.6028413e-10
85	0x2f20fab9	1.464099e-10
86	0x2fdf950c	4.0669368e-10
87	0x2e6c3ccb	5.3714182e-11
88	0x2e5f9b8c	5.0842483e-11
89	0x2dfb8f04	2.8598908e-11
90	0x2eaeb187	7.944139e-11
91	0x2dac8201	1.961187e-11
92	0x2fa4e37d	2.9993066e-10
93	0x2f397fe6	1.687109e-10
94	0x3000d1b5	4.686414e-10
95	0x2eb24816	8.107308e-11
96	0x2ec91392	9.143898e-11
97	0x2e623606	5.1434433e-11
98	0x2f1d1753	1.4287353e-10
99	0x2d96bd74	1.713716e-11
100	0x308baf28	1.0163363e-09
101	0x301d2511	5.716894e-10
102	0x30da41b6	1.5880264e-09
103	0x2e862f04	6.101966e-11
104	0x2e6f2726	5.437708e-11
105	0x2e068602	3.0587095e-11
106	0x2ebad68e	8.496413e-11
107	0x2c2d3c5d	2.4618287e-12
108	0x2db81831	2.0929121e-11
109	0x2d4f1b2c	1.1772621e-11
110	0x2e0fd2e7	3.2701754e-11
111	0x2b1cb9cc	5.568018e-13
112	0x2f2a4e78	1.5489288e-10
113	0x2ebf984d	8.7127285e-11
114	0x2f850d53	2.4202026e-10
115	0x2dba9136	2.1210238e-11
116	0x2eb5b078	8.262274e-11
117	0x2e4c6687	4.6475292e-11
118	0x2f0df1dc	1.2909801e-10
119	0x2a8a6cbd	2.4589177e-13
120	0x2ddf7ddc	2.5408058e-11
121	0x2d7b6dac	1.429205e-11
122	0x2e2e9a4a	3.9700056e-11
123	0x2ad9c8a1	3.8686158e-13
124	0x2e33863f	4.0819122e-11
125	0x2dc9f710	2.2960772e-11
126	0x2e8c40e9	6.377993e-11
127	0x29b6bcaa	8.1151516e-14
128	0x2e3739a4	4.1660578e-11
129	0x2dce20e2	2.3434091e-11
130	0x2e8f2507	6.5094645e-11
131	0x2a239457	1.4528774e-13
132	0x2f998c8b	2.79304e-10
133	0x2f2cbe1e	1.5710852e-10
134	0x2fefeb9b	4.3641254e-10
135	0x2d29ee2f	9.659425e-12
136	0x2e9b7d7e	7.070876e-11
137	0x2e2eed2c	3.977367e-11
138	0x2ef2f41a	1.1048247e-10
139	0x2d150631	8.471044e-12
140	0x2d6986e9	1.3274473e-11
141	0x2d035bdf	7.466887e-12
142	0x2db6715a	2.0741343e-11
143	0x2cbcd215	5.366605e-12
144	0x2e3ba939	4.2669177e-11
145	0x2dd31e68	2.4001426e-11
146	0x2e929c33	6.667058e-11
147	0x2bb5794d	1.2894491e-12
148	0x2e4cb665	4.654623e-11
149	0x2de64d36	2.6182261e-11
150	0x2e9fee7f	7.272848e-11
151	0x2c04be66	1.886402e-12
152	0x2d8bfa86	1.5913725e-11
153	0x2d1d79d6	8.95147e-12
154	0x2ddab771	2.4865195e-11
155	0x2ae2d103	4.0290696e-13
156	0x305ac497	7.958731e-10
157	0x2ff61d2c	4.4767867e-10
158	0x30aae99a	1.2435522e-09
159	0x2efe1b24	1.1555404e-10
160	0x30d1e646	1.5272199e-09
161	0x306c2308	8.590608e-10
162	0x3123fbdf	2.3862794e-09
163	0x2f33c192	1.6348725e-10
164	0x2fbbc8f7	3.4157896e-10
165	0x2f534218	1.921382e-10
166	0x3012b507	5.3371746e-10
167	0x2de071d1	2.5516396e-11
168	0x2ef5ba16	1.11743656e-10
169	0x2e8a38a9	6.285578e-11
170	0x2f3ff957	1.7459932e-10
171	0x2e859bd0	6.0758176e-11
172	0x2dfb914f	2.8599926e-11
173	0x2d8d81bd	1.608746e-11
174	0x2e448985	4.4687382e-11
175	0x2ca2f4b8	4.631486e-12
176	0x2e56151e	4.8676722e-11
177	0x2df0d7bc	2.7380646e-11
178	0x2ea74078	7.605733e-11
179	0x2ca5e420	4.714909e-12
180	0x2fc86e6f	3.6458256e-10
181	0x2f617c3f	2.0507772e-10
182	0x301c964a	5.6966043e-10
183	0x2eb05786	8.019101e-11
184	0x2dd2eaea	2.3978559e-11
185	0x2d6d4841	1.3487934e-11
186	0x2e24c77d	3.7466464e-11
187	0x2d4755ee	1.1330921e-11
188	0x303ff47b	6.9832823e-10
189	0x2fd7f307	3.9280953e-10
190	0x3095f6fb	1.0911373e-09
191	0x2ea82fe9	7.648266e-11
192	0x31665de8	3.3522785e-09
193	0x310194d1	1.8856563e-09
194	0x31b3f95f	5.237936e-09
195	0x2e7ed5a1	5.7942654e-11
196	0x2f6c179a	2.147246e-10
197	0x2f04cd52	1.2078274e-10
198	0x2fb8726c	3.3550707e-10
199	0x2dafa6a7	1.9969205e-11
200	0x3020936a	5.841715e-10
201	0x2fb4a5d7	3.2859646e-10
202	0x307ae658	9.127681e-10
203	0x2c8b1bdf	3.953712e-12
204	0x2e289994	3.8335182e-11
205	0x2dbdaccf	2.1563555e-11
206	0x2e83b7fa	5.989871e-11
207	0x2a3b5d84	1.6641381e-13
208	0x2e2768c3	3.806445e-11
209	0x2dbc55de	2.1411258e-11
210	0x2e82c9dc	5.947573e-11
211	0x2cd5a064	6.071631e-12
212	0x2f0cfd29	1.2822866e-10
213	0x2e9e9cd6	7.212868e-11
214	0x2f5c4b95	2.0035736e-10
215	0x2c22730d	2.308545e-12
216	0x2e645cda	5.1923667e-11
217	0x2e00743c	2.9207067e-11
218	0x2eb26888	8.113071e-11
219	0x2abb268f	3.3244628e-13
220	0x2edd4a35	1.0063098e-10
221	0x2e78f382	5.660495e-11
222	0x2f2ce1f6	1.5723586e-10
223	0x2d1bcfcc	8.85687e-12
224	0x319e6570	4.6099373e-09
225	0x3132321b	2.593089e-09
226	0x31f77e75	7.2030226e-09
227	0x2e87565e	6.154431e-11
228	0x30640328	8.29504e-10
229	0x300041c2	4.6659576e-10
230	0x30b2226f	1.2960991e-09
231	0x2ebb37c6	8.513683e-11
232	0x3013d04c	5.3774296e-10
233	0x2fa64a53	3.0248035e-10
234	0x3066f572	8.402231e-10
235	0x2e274931	3.803641e-11
236	0x30c0158e	1.3975965e-09
237	0x30581840	7.8614804e-10
238	0x311610da	2.1837452e-09
239	0x2c7d12f2	3.596398e-12
240	0x2fa981ed	3.083324e-10
241	0x2f3eb22e	1.7343701e-10
242	0x30046d85	4.8176957e-10
243	0x2c7272b9	3.4453952e-12
244	0x2f3bfc2f	1.7097145e-10
245	0x2ed37ba7	9.617134e-11
246	0x2f92dd02	2.671428e-10
247	0x2e73d664	5.544222e-11
248	0x3068aaca	8.4643814e-10
249	0x3002e020	4.7612225e-10
250	0x30b5c580	1.3225616e-09
251	0x301ddb81	5.74282e-10
252	0x2fa92c24	3.0772285e-10
253	0x2f3e51b4	1.7309426e-10
254	0x30042a7b	4.808169e-10
255	0x2e1cb72e	3.563299e-11

exp_avg f4 [128]
0	0x35fd1ed6	1.8858943e-06
1	0x377bcd8f	1.5008626e-05
2	0x339d4b0d	7.324534e-08
3	0xb88ba352	-6.658457e-05
4	0x37a5c184	1.9759646e-05
5	0xb776375e	-1.4675634e-05
6	0x37da10f6	2.5995523e-05
7	0x36ca5b24	6.0306793e-06
8	0xb7c984a0	-2.4022826e-05
9	0x3709080d	8.167711e-06
10	0xb79495d3	-1.7712742e-05
11	0xb744e14a	-1.1734965e-05
12	0x37213fe2	9.611222e-06
13	0x37812c58	1.5398648e-05
14	0xb8899561	-6.560493e-05
15	0xb7c793ce	-2.3791476e-05
16	0x374da66a	1.22576985e-05
17	0xb7ca89eb	-2.41445e-05
18	0x37a00b72	1.9078816e-05
19	0x36c1bdce	5.7739444e-06
20	0xb85350e5	-5.038166e-05
21	0xb7830daf	-1.5622789e-05
22	0x370bb1b0	8.326417e-06
23	0xb7aae9da	-2.0374475e-05
24	0xb6d8c70e	-6.4604747e-06
25	0xb820780e	-3.8258782e-05
26	0x3712f9e4	8.76046e-06
27	0x36d4d388	6.342718e-06
28	0xb740c5aa	-1.1490114e-05
29	0x3764b9c3	1.363311e-05
30	0x3588da2f	1.0196289e-06
31	0x371de6b3	9.411643e-06
32	0xb6c352e7	-5.821104e-06
33	0xb7aa0252	-2.026666e-05
34	0xb747a8e0	-1.1900644e-05
35	0x34b27a2e	3.324398e-07
36	0x373a35d0	1.1098993e-05
37	0x374c5429	1.2178943e-05
38	0x369fbcca	4.760547e-06
39	0xb812ea9f	-3.502762e-05
40	0xb831608e	-4.2290012e-05
41	0xb7ce7e49	-2.461592e-05
42	0x370f1d73	8.530321e-06
43	0xb6e38da1	-6.781615e-06
44	0x3727d63e	1.0003858e-05
45	0xb6c93f2c	-5.997621e-06
46	0x358f4f52	1.0677416e-06
47	0xb7e309f1	-2.7065138e-05
48	0xb85842e7	-5.156072e-05
49	0xb76b0528	-1.4008292e-05
50	0x37fa72cc	2.9855779e-05
51	0xb69d0ad6	-4.680226e-06
52	0xb6f832f4	-7.3969077e-06
53	0x37699a4c	1.3923807e-05
54	0x37457af2	1.17707405e-05
55	0x37805034	1.5296137e-05
56	0xb8c0d7e0	-9.195483e-05
57	0xb7d4beca	-2.5361212e-05
58	0xb7e2c45e	-2.703274e-05
59	0x381334a5	3.509656e-05
60	0xb7caa13e	-2.415536e-05
61	0xb791db31	-1.7387416e-05
62	0x37c45ff7	2.3409708e-05
63	0xb74a409a	-1.20551795e-05
64	0xb725cc41	-9.882323e-06
65	0x371303ad	8.762739e-06
66	0xb829b8ef	-4.0464973e-05
67	0x37504169	1.2412996e-05
68	0x36991e55	4.5632864e-06
69	0xb7912d97	-1.7306576e-05
70	0xb73f8d3e	-1.1417373e-05
71	0xb74bdd13	-1.2151216e-05
72	0xb80510ca	-3.1725307e-05
73	0x36d782d5	6.42273e-06
74	0xb7c8e464	-2.394821e-05
75	0x37b77a97	2.1872385e-05
76	0xb580f3b6	-9.607672e-07
77	0x37b2598d	2.1260954e-05
78	0x3783f2ed	1.5729538e-05
79	0x367b4e92	3.7447649e-06
80	0xb62a7374	-2.5399177e-06
81	0xb8410ee4	-4.6028654e-05
82	0xb69f3eea	-4.7458934e-06
83	0x3762a4e4	1.3509041e-05
84	0xb69572ae	-4.4538965e-06
85	0x3760ca04	1.3398476e-05
86	0x375c3406	1.31251345e-05
87	0xb60d2487	-2.10319e-06
88	0x352aa18f	6.3565034e-07
89	0x3741aa32	1.1543323e-05
90	0x35e20140	1.6838676e-06
91	0x36ea0f23	6.9755056e-06
92	0x368049c0	3.823283e-06
93	0x37c941bd	2.3991679e-05
94	0x37758129	1.463321e-05
95	0x3777a374	1.4760404e-05
96	0xb80e4611	-3.3920693e-05
97	0xb4304422	-1.6416064e-07
98	0x379979ad	1.8295681e-05
99	0x3760097f	1.3353651e-05
100	0x3781f604	1.5492558e-05
101	0xb7f35eb9	-2.9011966e-05
102	0x364ec728	3.0812316e-06
103	0x3775c5b8	1.4649173e-05
104	0xb6bce825	-5.629862e-06
105	0xb7de6926	-2.6513426e-05
106	0x376b8d9d	1.4040063e-05
107	0xb7a106f2	-1.919593e-05
108	0xb7f0de42	-2.8713726e-05
109	0xb7d9b844	-2.5954221e-05
110	0xb489f0e3	-2.5693507e-07
111	0x3742c30e	1.1608716e-05
112	0xb8837142	-6.267663e-05
113	0x373cd502	1.1255268e-05
114	0xb73b87ba	-1.117767e-05
115	0x36d99789	6.484745e-06
116	0x3726917d	9.928245e-06
117	0xb7aa23ce	-2.0282252e-05
118	0x36b3ecfb	5.362204e-06
119	0xb75e7e2e	-1.326161e-05
120	0x36421912	2.8922846e-06
121	0x379d851f	1.8777848e-05
122	0xb8366941	-4.3490207e-05
123	0xb813cf22	-3.524044e-05
124	0xb72b3462	-1.0204591e-05
125	0x34c8de92	3.7414844e-07
126	0x37474560	1.1877477e-05
127	0x369ea880	4.728383e-06

exp_avg_sq f4 [128]
0	0x2e550e9a	4.844356e-11
1	0x30ccf0b1	1.4911362e-09
2	0x2dedeae9	2.7048102e-11
3	0x32a0014b	1.862704e-08
4	0x31338a6b	2.612661e-09
5	0x30479d60	7.261942e-10
6	0x3170cc2b	3.5040653e-09
7	0x2f6ac85a	2.1353355e-10
8	0x30fd3d6a	1.8425628e-09
9	0x2f9df2b9	2.8730598e-10
10	0x30e3b52e	1.6567918e-09
11	0x301fe275	5.816568e-10
12	0x30329345	6.4965305e-10
13	0x306ee349	8.690689e-10
14	0x32e69b52	2.6846156e-08
15	0x316a6329	3.4107848e-09
16	0x3135e4ac	2.6468951e-09
17	0x3115cda4	2.1799247e-09
18	0x306ae266	8.5450436e-10
19	0x2f4d7150	1.8684898e-10
20	0x32193b5a	8.919267e-09
21	0x30df950e	1.6267749e-09
22	0x2faeb186	3.1776554e-10
23	0x3100d1b5	1.8745656e-09
24	0x301d1754	5.714942e-10
25	0x31da41b4	6.3521046e-09
26	0x2fbad68e	3.3985653e-10
27	0x2f0fd2e7	1.3080702e-10
28	0x30850d54	9.680812e-10
29	0x300df1dd	5.163921e-10
30	0x2f2e9a4c	1.5880025e-10
31	0x2f8c40ea	2.5511976e-10
32	0x2f8f2504	2.603785e-10
33	0x30efeb9a	1.7456501e-09
34	0x2ff2f414	4.4192972e-10
35	0x2eb6715a	8.296537e-11
36	0x2f929c34	2.6668234e-10
37	0x2f9fee7f	2.9091393e-10
38	0x2edab773	9.9460794e-11
39	0x31aae99a	4.9742086e-09
40	0x3223fbdf	9.545118e-09
41	0x3112b507	2.1348698e-09
42	0x303ff958	6.9839734e-10
43	0x2f448989	1.7874958e-10
44	0x2fa74078	3.042293e-10
45	0x311c9648	2.2786413e-09
46	0x2f24c77c	1.4986584e-10
47	0x3195f6fb	4.364549e-09
48	0x32b3f95d	2.095174e-08
49	0x30b8726f	1.3420286e-09
50	0x317ae657	3.6510721e-09
51	0x2f83b7f9	2.3959482e-10
52	0x2f82c9db	2.379029e-10
53	0x305c4b97	8.0142953e-10
54	0x2fb26888	3.2452285e-10
55	0x302ce1f6	6.2894345e-10
56	0x32f77e77	2.8812094e-08
57	0x31b22271	5.1843974e-09
58	0x3166f573	3.3608927e-09
59	0x321610d8	8.734979e-09
60	0x31046d85	1.9270783e-09
61	0x3092dd05	1.0685716e-09
62	0x31b5c581	5.290247e-09
63	0x31042a7e	1.9232682e-09
64	0x301e4043	5.7571387e-10
65	0x2ff3c3cf	4.4340573e-10
66	0x321212c7	8.502588e-09
67	0x30962df6	1.0926999e-09
68	0x31018042	1.8844877e-09
69	0x31131426	2.1402768e-09
70	0x2fee250f	4.331828e-10
71	0x30c834de	1.4566941e-09
72	0x31a72b94	4.865294e-09
73	0x2f1ff519	1.4548042e-10
74	0x317bea62	3.6658538e-09
75	0x314af499	2.9533906e-09
76	0x3011cbb8	5.3040194e-10
77	0x312d87b6	2.5251956e-09
78	0x30db7475	1.5967446e-09
79	0x2e471c53	4.527252e-11
80	0x2eb6bbc5	8.3097564e-11
81	0x324e507c	1.2009078e-08
82	0x2fbb5c67	3.4080758e-10
83	0x30450e13	7.1688183e-10
84	0x3027b901	6.101715e-10
85	0x300b8613	5.0758436e-10
86	0x3043b811	7.120216e-10
87	0x2f710561	2.1920733e-10
88	0x2df85665	2.8232703e-11
89	0x305efe16	8.112421e-10
90	0x2f848ad6	2.410931e-10
91	0x2f633a9f	2.0666356e-10
92	0x2e388dd1	4.1962715e-11
93	0x313e21d1	2.7667861e-09
94	0x311c7193	2.2765547e-09
95	0x308a3286	1.0055181e-09
96	0x319594d7	4.353392e-09
97	0x2e7987d9	5.6736702e-11
98	0x308dfdd2	1.033124e-09
99	0x309d04df	1.1424638e-09
100	0x30ab22c9	1.2451774e-09
101	0x3190b589	4.2115897e-09
102	0x308dc96f	1.0316351e-09
103	0x308ff6fc	1.0474817e-09
104	0x2e84040c	6.003384e-11
105	0x3211d62b	8.488807e-09
106	0x30a7d8c1	1.2212454e-09
107	0x31a67e5e	4.845602e-09
108	0x316ffc9d	3.4922671e-09
109	0x31ceb085	6.015457e-09
110	0x3076352a	8.956983e-10
111	0x30174af8	5.5040017e-10
112	0x32e879ac	2.7063685e-08
113	0x2ffd2256	4.604483e-10
114	0x301ba7e2	5.662725e-10
115	0x2f6e6162	2.1680571e-10
116	0x301860eb	5.5435007e-10
117	0x30ca4a77	1.4718599e-09
118	0x2f1eafff	1.4432543e-10
119	0x31422c0b	2.825575e-09
120	0x3084697b	9.634243e-10
121	0x30c8dc7f	1.4614584e-09
122	0x31e19f8a	6.5664993e-09
123	0x3140cbf7	2.8055618e-09
124	0x311c27f5	2.27237e-09
125	0x2ea64e0d	7.5626706e-11
126	0x309f0028	1.1568817e-09
127	0x2eca701c	9.205811e-11
