results/phase2_t2_player_move/NPCAgent/NPCAgent-164416.onnx (onnx, 102260 bytes, 9 tensors)

action_model._continuous_distribution.log_sigma f4 [1, 2]
00000000: fd7a b93c 302f 843c
0.022641653 0.016135782

action_model._continuous_distribution.mu.bias f4 [2]
00000000: 4430 80ba 9d86 ec3a
-0.0009780009 0.0018045489

action_model._continuous_distribution.mu.weight f4 [2, 128]
00000000: 599f 5abb 3674 e0bc d2c4 923c 0123 f3bb
00000010: 7e94 4bbb 95cb 033c 2f4b 14bc 9576 e0bb
00000020: 8fab 913c 8141 3f3c b3d6 92bb 6c0c 953c
00000030: 4e61 4f3b 179d 06bc 8b8c eabb 059f 93bc
00000040: 0e02 453c 93ab c73b e6da 3f3c d8c3 f1bb
00000050: a5e4 603d e95e 65bc b7e5 7fbc 01aa c9bc
00000060: c106 9c3b 68a6 37bc 5003 6abc b7a7 5a3c
00000070: 532b fd3b 7c60 c9ba 4728 933c 52d9 443d
00000080: 21c7 1e3c 3d9c 21bb b4da c63a fcb8 40bc
00000090: e1bc a63c a0ac 8dbc bdc0 d83b 6148 abbb
000000a0: d2dc c63c bc08 babc 4017 d3bb 457b 5bbc
000000b0: 1577 9f3c a0e8 c6bc 761d ccbb a0e4 b33c
000000c0: 36b4 ed3c 54fa 0dbc 84e5 0ebd 5596 923a
000000d0: c190 803c f662 84bc 9cdf ab3b 625a 4abd
000000e0: 8b90 a8bc a415 953c b5f9 bc3c 681d 573b
000000f0: 9112 8a3c 008d 793c 008a 7c3a 91d7 a6bc
00000100: 8d00 26bb 48f5 913c 7389 b23c e174 fa3b
00000110: ae5d ad3b 04bf 89bb c28b 4a3d a6ca a73b
00000120: 352c a93c 21a9 a5bc d231 bdbb 11e2 693c
00000130: 8af8 13bd 2db2 2abc 4b2b 093c b790 d0ba
00000140: c7ee c43c cb89 883c f814 b8ba e0bd 053c
00000150: d441 10bc 0977 0abc eceb 0fbb c044 1d3d
00000160: cfa9 c5bb ed5a 13bc 573a 89bc 9934 3ebc
00000170: 5d5a 9abc 4a34 f23b 1e2f e83b 78a8 bbbc
00000180: bd58 853b 5349 35bc 4e51 a2bb 82bf 1cbc
00000190: e0ec b7bb b60a 0f3c f569 1dbd f267 c5bc
000001a0: 1df6 fb3b a92c d83c 38bf 71b9 0482 65bc
000001b0: 2899 0f3c 8701 d2ba 2ba7 d9bc 3e5a 2a3c
000001c0: f3d5 593b 31aa e73a 4078 013d 7559 a63c
000001d0: ca5a 5c3a 9b05 0ebc e24a adba 518c 753c
000001e0: e833 473c 3b79 143c 9706 f2bc f8e9 643c
000001f0: 244b b33c 18b2 843c 4d7b 8abc 3325 c8bb
00000200: a20a fe3c c0c5 963b d165 d2bb ffe4 75bd
00000210: 0b28 f5bc 34ac 19b9 b71d 863c 35e8 ce3b
00000220: ab8c cd3c 7d4d 13bd 7a88 04bc 61f8 223d
00000230: 0fe1 5bbb 54f3 6dbc 1331 72ba ff20 98bc
00000240: 23ba e43c 7967 f23b e493 983c c948 e0bb
00000250: 062e 743c 2b2d e9bc fc5c 5bbc b379 6dbb
00000260: 1ce9 933c 942f b6bb 352f edbc ec5a 28bb
00000270: 33a4 33ba 37ff 51bc b5c2 94bc b215 8e3b
00000280: 78dc d13a 6540 32bc 30f2 8e3c 06da 65bb
00000290: 1620 903a 2791 eebb 907e 1c3d e671 963c
000002a0: 655c 68bc ec75 08bd 9bfb c4bc 0832 c3bb
000002b0: dfdf 6cbc 3d76 3abd a503 b3bc 4935 f4bc
000002c0: 2b6f 89b9 d6e3 2b3a 5167 2dbb 728b 193b
000002d0: 9cf7 0b3c 7a73 80bc d2ac 30ba 6400 61bc
000002e0: a8b7 a5bb cc67 33bc c313 cf3c b8a0 1c3c
000002f0: 6d33 18bb 798a 9b3c 05ad 32bb ce4c 93bc
00000300: f4c0 893c 4f13 d3ba a6c3 2a3d ca9b cbba
00000310: a600 343c e796 083d 1a16 3dbc 5c98 cf39
00000320: 63d6 bdbc 6659 49bc 6258 6d3b 6549 a2bb
00000330: cabf c23c 56e8 e6bb 02a8 af3c 216d 593d
00000340: fec8 163c 09ac 063c 1754 3ebc 4869 cb3c
00000350: 8fff fbbc fdf9 adbb 4242 febb 8589 d9ba
00000360: 6ed1 de3a 3e26 883c 077e ba3c 0992 603c
00000370: 6473 75bc 255e e83a 9dcc 923b 2a02 2e3c
00000380: 48d2 663c 658d a5bb aad3 efbc 111e 5d3c
00000390: 50ef 023a ff95 04bb a93f 573c 5ffa 1abc
000003a0: 4686 43bc 455c b9bb f1b0 63bc bc0c 13bc
000003b0: 2a27 1dbc 403a 45bc 0bba 723b 6b36 913c
000003c0: 100d 013b 0125 3fbd 8336 bdbc 9276 bfbc
000003d0: b1a7 843a f6de e339 808d 9ebc 9d62 5cbc
000003e0: 3aa3 e23c af65 8f3c 299f 01bc 526a 5f3c
000003f0: 36bd b23b 7c77 86bc 4021 f93a 2093 52bc
-0.0033359139 -0.027399164 0.017916117 -0.0074199443 -0.003106385 0.008044143 -0.009051128 -0.0068500736
0.017782 0.011673332 -0.0044811605 0.0181944 0.0031643691 -0.008216164 -0.0071578673 -0.018020162
0.012024416 0.0060934513 0.011709904 -0.0073780827 0.054905552 -0.013999679 -0.015618733 -0.024617197
0.0047615473 -0.011209108 -0.014283016 0.01334565 0.007726112 -0.0015363838 0.017963542 0.048058815
0.009691031 -0.0024659776 0.001517138 -0.011762854 0.020353736 -0.017294228 0.006614773 -0.005227134
0.024275217 -0.022709243 -0.0064419806 -0.013396089 0.019465962 -0.024280846 -0.006229098 0.021959603
0.029016595 -0.00866564 -0.034886852 0.0011183718 0.015694024 -0.01616047 0.005245162 -0.049402602
-0.020576736 0.018198796 0.023068288 0.0032823924 0.016854556 0.015231371 0.0009633601 -0.020366462
-0.0025329918 0.017817155 0.021794057 0.0076433276 0.0052907085 -0.004203679 0.04944969 0.005120593
0.020650962 -0.020222249 -0.0057737613 0.01427509 -0.036125697 -0.010418457 0.008372138 -0.0015912269
0.02403964 0.016667267 -0.0014044335 0.0081629455 -0.008804757 -0.008451232 -0.0021960689 0.038395643
-0.0060322057 -0.008993846 -0.016751451 -0.01160922 -0.018841917 0.0073914872 0.007085695 -0.02290748
0.0040694163 -0.011064845 -0.00495354 -0.009567143 -0.0056129545 0.008730581 -0.038431127 -0.024097417
0.007689251 0.026388483 -0.00023054786 -0.014008049 0.008764543 -0.0016022184 -0.02656897 0.010397492
0.0033239096 0.0017674622 0.03160882 0.020306328 0.00084058626 -0.008668329 -0.0013221169 0.014987067
0.0121583715 0.009062107 -0.029544158 0.013971798 0.021886416 0.016198203 -0.016904498 -0.00610795
0.03101093 0.0046012104 -0.006420829 -0.06003284 -0.02992632 -0.00014655368 0.016371591 0.0063143023
0.02509149 -0.03596257 -0.008089179 0.039787654 -0.0033550893 -0.014523346 -0.000923888 -0.018570421
0.027920788 0.007397589 0.018625207 -0.006844614 0.014903551 -0.02846392 -0.013388868 -0.0036235868
0.018055491 -0.005559871 -0.028953174 -0.002568896 -0.00068527757 -0.012817196 -0.01815925 0.0043360824
0.0016011139 -0.010879611 0.017449468 -0.003507258 0.001099589 -0.007280487 0.038206637 0.018364858
-0.014182185 -0.033315584 -0.024045756 -0.005956892 -0.014457672 -0.045522917 -0.021852324 -0.029810565
-0.00026213503 0.00065570825 -0.0026459286 0.0023429063 0.008542921 -0.015680064 -0.00067396194 -0.013733003
-0.005057294 -0.01095004 0.025277978 0.009559803 -0.0023224012 0.018986927 -0.0027263772 -0.01798096
0.01681564 -0.0016103777 0.04169049 -0.00155341 0.010986483 0.033347037 -0.011540914 0.00039595633
-0.023173517 -0.012289381 0.003621601 -0.004952597 0.023773093 -0.0070467396 0.021442417 0.05308259
0.009203194 0.008219727 -0.011616728 0.024830475 -0.030761508 -0.005309342 -0.0077593634 -0.001659677
0.0016999671 0.016619798 0.022765173 0.0137066925 -0.014981125 0.0017728253 0.004479958 0.010620633
0.014088221 -0.005052256 -0.029275734 0.013495938 0.0004994767 -0.0020231006 0.013137736 -0.009459107
-0.011933869 -0.0056567513 -0.013897167 -0.008975204 -0.009591857 -0.012037814 0.003703716 0.017726144
0.0019691624 -0.04666615 -0.023097282 -0.023371968 0.0010120777 0.00043462933 -0.019354582 -0.013451246
0.027665723 0.017504541 -0.007911482 0.013636189 0.0054546846 -0.016414396 0.0019007102 -0.01285246

action_model._discrete_distribution.branches.0.bias f4 [2]
00000000: 491f 1dbb 461f 1d3b
-0.0023974946 0.002397494

action_model._discrete_distribution.branches.0.weight f4 [2, 128]
00000000: 3f8d a93c 3cf2 46bc ee50 5439 28b2 513c
00000010: eb3c b1bc b9cd a73b 2183 97bb 8f2b 723c
00000020: c9f0 33bc 77bf 00bc a883 873c 19be f13a
00000030: 1478 ae39 7cdc 41bb 7b17 32bc 94fd aebc
00000040: c634 86bb 52e7 8f3c c6f2 c93c 18a8 c3bc
00000050: 9c83 35bc 1671 21bc 3811 c937 6ed7 58bc
00000060: 279a acbc cade e3bc 5047 0f3b 7054 da3b
00000070: ceca db3b 4f57 dfbb 7340 a2bc 0b3c b53b
00000080: c31a 643c fcf6 e63c cbba 973c 8f7c bbbb
00000090: 7b16 743c 1429 bfbc 6c9a 0cbc ca45 df3b
000000a0: aa10 233a 29f8 b7ba 70be 8c3b 7cca 95bc
000000b0: 7f7b b3bb 86ff 37bc fbd1 af3b d55b 1b3c
000000c0: b6d2 be3b 721b 123c 7fa8 c1bb e756 2bbc
000000d0: 9002 3d3b 92bb 42ba 24c9 263c 7799 543c
000000e0: 9584 223c 1af1 e9bb 1aad 17bb 097d 403b
000000f0: 1c51 40bc 3218 983c f19b 08bd 0b1e 84bc
00000100: 44a9 c43c 4965 5cbc 8e05 1f3c 4699 50bb
00000110: bc3f ae3c dab4 87bc bbce ac3c fda8 033c
00000120: 0f12 8b3c 35e4 c13c 99a6 8dbc d75e 81bc
00000130: cf34 993c cb96 2b3c 65a9 403c 841a 84bb
00000140: 5227 383b 1131 453c 9654 40bc fc19 273c
00000150: 9a25 8d3c 6f20 3d3b dbf8 b3bc 3590 e33a
00000160: 8093 ad3b 414f b6bc 6dbe 163c 8833 67ba
00000170: f678 873c 1e8c 67bc 4f63 07bc c10c e9ba
00000180: 156f adbb 78ee bc3b abe3 f2bc dc9f 0ebc
00000190: b67d 153b 5ada 4dbb b171 83bc fa5a b63b
000001a0: 0f01 aa3b e8c6 d33b 7341 7cbb b9a9 893b
000001b0: 401a 3dbb cc1f 923c e3af 17bd 4ae3 4ebc
000001c0: c2b8 443c 2fb9 463a 19d6 1b3c 16ac 63bc
000001d0: 63c3 38bc 1566 153b 7615 813b ceef 7dbc
000001e0: 8a82 c23b 81af fdb9 8d1e 0abc b1d3 0dbc
000001f0: f218 9cba fb90 80bb dbed b13a 6a90 17bc
00000200: ca23 26bc 927d 373c 3d1e 0e3c 329b 623b
00000210: c621 64bb bc83 7fba f6d3 c13b fb32 20bc
00000220: 0b44 833c 9865 02bb 72aa a8bc 6532 70bc
00000230: ac7b f13b 4ad9 fc3b dbb8 c038 b3f3 853c
00000240: 5182 14bb 22b7 62bb af34 e53b 19cd 433c
00000250: aae0 353c b5a2 3fbb 44aa 42bc a7c2 eb3b
00000260: c3fd 9e3c 62b0 113a e3c8 ccbc dafa 013c
00000270: 3034 c63b 4d3c ae3b 8ea0 213c e443 873b
00000280: b928 4ebc 1adc 323b 39b5 2e3c 1ea9 d93c
00000290: 2b6c d1bc 56c9 aab8 dd81 50bb cb0d e6bb
000002a0: 61d0 353c 5367 c1bb 6353 4fbc f03a 583c
000002b0: fc10 1c3c 83fb 09bc c15b 88bc e40c ecbb
000002c0: 6e67 22bb 322c 99bb 01b6 b73b 5935 ae3b
000002d0: 506b 263a 99cb 17bc e0c2 993b 3321 a0bc
000002e0: 39d6 6bbb a1b1 963c de68 993c 3dca b53a
000002f0: 4c10 c33b 1cb1 4aba 3690 e63c f0a8 c43c
00000300: 6192 97bb a43f 6bbc dae0 cd3b 6487 84ba
00000310: 7856 90bc 1847 e83c 5978 4abc ad69 cc3a
00000320: 8be6 bdbc 3e55 203b 0fc3 33ba 9763 113c
00000330: d1dd 243c c319 c73b 251f 48bc cef4 873c
00000340: 5ac3 d3bb 4c88 9bbc 68ef 9b3a 4409 c4bc
00000350: b47c c3bb 7a4e 05bb 67f9 3f3b d05e 65bc
00000360: 38f8 903b c74a 9f3c 3c4c 24bc 6c04 72bb
00000370: 2a59 a73a 033f 763b bbf7 1e3c df19 babb
00000380: fb95 103a 023f f53b 9425 1fbc 6b56 a63c
00000390: 1441 8aba ccbd 423c eba8 1dbc 671f aebc
000003a0: d689 a4ba 3c00 b73b cfef d8bb e0c3 2d3c
000003b0: 1a04 0d3c 301f ccbb 8bf5 4f3c 7892 193c
000003c0: d5eb 42bb e821 b7bb f8c4 0f3b 4e35 e43b
000003d0: aa70 f23b bc17 d3bb e86b 143a 746f 703c
000003e0: a4ae fcbb 8fb6 9a3b 4d4a b5bb 8f09 7cbc
000003f0: 7bf5 c03b 00cf 23bc 0355 12bb ac4d e93b
0.020697234 -0.012142714 0.00020248044 0.012798823 -0.021635493 0.0051209596 -0.004623786 0.014780893
-0.010982701 -0.007858149 0.01654227 0.0018443494 0.0003327733 -0.0029580882 -0.010869856 -0.02136115
-0.0040956466 0.017566357 0.024651896 -0.023883864 -0.011078741 -0.009853622 2.3969085e-05 -0.013234956
-0.0210696 -0.027816195 0.0021862574 0.0066628978 0.006707526 -0.006815828 -0.019806122 0.0055308393
0.013922396 0.028193943 0.018521687 -0.0057216357 0.014897938 -0.023335017 -0.008581739 0.0068137394
0.00062204397 -0.001403575 0.004295163 -0.018285029 -0.0054773684 -0.011230355 0.005365608 0.009482344
0.0058234585 0.008917676 -0.005909979 -0.010457731 0.0028840639 -0.0007428463 0.010179792 0.012976042
0.009919305 -0.0071393372 -0.0023143948 0.0029371402 -0.011738088 0.018566225 -0.033351842 -0.016127607
0.024006493 -0.013451883 0.009705914 -0.003182964 0.021270625 -0.016565729 0.02109467 0.008035895
0.016976384 0.023668388 -0.017291354 -0.015792293 0.018701939 0.010472964 0.011759137 -0.004031481
0.0028099609 0.012035624 -0.011738917 0.010199066 0.017229844 0.0028858443 -0.02196925 0.0017361703
0.0052971244 -0.022254588 0.0092006745 -0.00088196294 0.01653717 -0.014132528 -0.008263423 -0.001778029
-0.005292783 0.0057657324 -0.029649576 -0.008705106 0.0022810525 -0.0031410665 -0.016045423 0.0055650445
0.0051881145 0.0064629205 -0.003849116 0.0042011407 -0.0028854758 0.017837428 -0.037032973 -0.012627432
0.01200694 0.0007580695 0.009511494 -0.013896009 -0.011277053 0.0022796441 0.003939326 -0.015499068
0.0059359716 -0.0004838668 -0.008430135 -0.008656428 -0.001190929 -0.003923533 0.0013574915 -0.00925074
-0.010140369 0.011199372 0.008674202 0.0034577367 -0.003481017 -0.0009747108 0.0059151603 -0.00977778
0.016023656 -0.001989698 -0.020589087 -0.0146604525 0.007369479 0.0077163326 9.1897055e-05 0.016351556
-0.0022660682 -0.003459402 0.0069948058 0.011950755 0.011100927 -0.0029241268 -0.011881415 0.007194835
0.019408112 0.0005557594 -0.024998134 0.007933343 0.0060487017 0.005317247 0.009864939 0.0041279662
-0.012582951 0.0027291835 0.010663324 0.0265699 -0.025564274 -8.1437334e-05 -0.0031815686 -0.007020687
0.011097045 -0.00590221 -0.012654158 0.013197646 0.009525534 -0.0084217815 -0.016645314 -0.007203685
-0.0024780887 -0.004674458 0.0056064134 0.005316418 0.0006348388 -0.00926485 0.0046924204 -0.01954708
-0.003598584 0.018395247 0.018726762 0.0013869476 0.0059528705 -0.000773208 0.028144937 0.024006337
-0.004625604 -0.014358435 0.006282908 -0.001011115 -0.017619357 0.028354213 -0.012357795 0.0015595459
-0.02318122 0.002446487 -0.0006857374 0.008873842 0.010062651 0.006076069 -0.012214457 0.016596224
-0.0064624967 -0.01898589 0.001189691 -0.0239302 -0.0059657935 -0.0020340965 0.0029292942 -0.013999656
0.004424121 0.019444836 -0.010027941 -0.0036928905 0.0012767662 0.003757418 0.009702618 -0.0056793536
0.0005515513 0.0074843178 -0.009713549 0.02030488 -0.0010547959 0.011886071 -0.009622793 -0.021255208
-0.0012553285 0.0055847447 -0.0066203843 0.010605782 0.008606935 -0.006229304 0.012692819 0.0093733
-0.0029742618 -0.0055887587 0.002193747 0.006964362 0.0073986845 -0.0064420383 0.0005661831 0.01467501
-0.0077112485 0.0047214697 -0.005532539 -0.015383138 0.0058886386 -0.009998083 -0.0022328503 0.007119855

network_body._body_endoder.seq_layers.0.bias f4 [128]
00000000: 9bab 233a 42dd 693b 2035 6c3a adc8 eeb9
00000010: c965 a339 bda1 f53a 1356 9939 bff1 103c
00000020: 5681 d8bb 35ec 3ebb 71f4 e238 0876 33b9
00000030: d7c1 96ba ae9e 833b 334c ea3a 4d95 43bb
00000040: eb7d 51bb 736b a63b 3401 ccba e4c5 f53a
00000050: 1348 c43b e306 89bb c844 9dba f931 97ba
00000060: 4b49 133b 6a93 2bba 871e 403b a166 7cbb
00000070: 4758 e2ba 444e 56ba e92c f1bb 44ce 0fbb
00000080: a2c4 42bb 5f6a b9ba d21b 7939 5562 f4ba
00000090: 5aad 693b 3c60 44bc e1da 103c 48b0 343b
000000a0: afe0 e0ba 4bac 0dbb 4ed7 59bb 597e cfba
000000b0: bc3b 7abb 49a3 b8ba 39a7 7cbb f336 81bb
000000c0: 176a 97bb b8c5 2337 7a86 cebb 542a 1dba
000000d0: 9079 7a39 ce29 333a 984e 47bb d915 ef3b
000000e0: c12e b3bb af88 b0bb ab08 deb9 40b1 8439
000000f0: 9c51 893b e277 d03a 8e1c 07bc 5836 ae3b
00000100: e15b 79bb fe11 163b aedf 9d3a 42af 37bb
00000110: fdd3 753a 4178 073b 1761 87b9 910c 35bb
00000120: 70ef 9f3b 8c5c 57b8 0bc4 b5bb b394 d33b
00000130: 9146 0bb9 a281 333b 2128 8b3a 4e45 ba3b
00000140: e0bf 2bbb 2576 08bb 0019 9239 902e 2c3c
00000150: abb0 d4ba 0230 eeba b26a c438 9919 f9bb
00000160: d6ae 5eba e1e8 5f3b 59b1 fcb9 67ac 4dbb
00000170: 34f6 d83b 3c17 103b df3b cfba e298 da3b
00000180: e596 0a3a 8888 a2bb 3583 b4ba 775e 32bb
00000190: e4ee c5bb 2bc6 9d38 9352 97bb 7f27 9fba
000001a0: f48b 42bb e71a 86bb 5d47 be38 e865 9f3b
000001b0: 25ca 99bb ee4d 9dbb f085 0cbb 6597 373a
000001c0: 89db 42bb 07d2 10ba 6b52 d23a 356d 7ebb
000001d0: 04c8 dc3a 5cfc 81bb 3680 ca3a 94e9 713b
000001e0: 82b7 47bb e21e 0d3a 1258 dc3a b7f6 3ebc
000001f0: f493 62bb 882c 1cbc 6730 0fbc 868d 973b
0.0006243528 0.0035684858 0.0009010602 -0.00045544413 0.0003116562 0.0018740218 0.00029246564 0.008846699
-0.006607215 -0.002913249 0.000108220505 -0.0001711474 -0.001150186 0.004016719 0.0017875492 -0.002984363
-0.0031965922 0.005078727 -0.0015564323 0.0018750993 0.005990037 -0.004181729 -0.0011998648 -0.0011535279
0.0022474106 -0.0006545099 0.002931507 -0.003851332 -0.001726874 -0.00081751146 -0.00736009 -0.0021943012
-0.0029719253 -0.0014146081 0.00023756854 -0.0018645028 0.0035656304 -0.011985835 0.008841247 0.0027570892
-0.0017156805 -0.0021617587 -0.0033239904 -0.0015830501 -0.0038182577 -0.0014086749 -0.003855182 -0.003943318
-0.004620801 9.761592e-06 -0.006302652 -0.0005995382 0.00023887143 0.00068345375 -0.0030411836 0.0072963056
-0.00546822 -0.0053873877 -0.00042349598 0.00025309063 0.004190637 0.0015904868 -0.008246554 0.005316537
-0.003804915 0.0022898908 0.0012044811 -0.0028028046 0.0009377597 0.0020671042 -0.00025821544 -0.0027625898
0.004880838 -5.1346186e-05 -0.005547052 0.0064569353 -0.00013282361 0.00273905 0.0010616818 0.0056845313
-0.0026206896 -0.0020822373 0.00027865916 0.010509148 -0.0016226968 -0.0018172266 9.365882e-05 -0.0076019284
-0.00084946805 0.0034165906 -0.0004819732 -0.0031383277 0.0066211466 0.0021986505 -0.001581069 0.006671057
0.0005286767 -0.0049601234 -0.0013772013 -0.002721695 -0.006040441 7.523255e-05 -0.004617998 -0.0012142508
-0.002968547 -0.0040925625 9.0731985e-05 0.004864443 -0.004693287 -0.0048005497 -0.0021442138 0.00070034555
-0.0029732904 -0.00055244606 0.0016046291 -0.0038822417 0.0016844277 -0.003966851 0.0015449587 0.0036912905
-0.003047437 0.0005383325 0.0016810915 -0.011655501 -0.003457305 -0.009532101 -0.008739567 0.004625025

network_body._body_endoder.seq_layers.0.weight f4 [128, 60]
00000000: 8179 77bc 182f 403e ba73 40bd 653a 10be
00000010: 0386 873d be94 05bd 5df7 e6bc 2c3b bbbc
00000020: 4e02 a4bd 16b8 a33d 9f6c 86be e3f2 6fbd
00000030: bb9f 03bd 9bc6 1cbe 91bc 273d 01f7 e9bb
00000040: b551 f43d 2e59 7e3e b481 02be 50ea 2ebe
00000050: 0890 bbbd c4c7 2bbe 8f8f af3d 3c38 2dbe
00000060: e2b6 143d 0a7a e1bd c40c 843e 5403 673e
00000070: 4f31 633d 75fa 0c3e 745d 04bd 86fc 973d
00000080: 249c 18be fcaf 2c3e 854a 0a3e 0caf aa3e
00000090: d057 333e 7b0f 6d3d 44d4 f53d 223a 48be
000000a0: d454 6c3e ec38 d0bd f908 93bd bfe0 31be
000000b0: d3b6 043e 0d77 2d3e 5180 013e 1ba6 26be
000000c0: 62f6 30bd f47e e13d 4d86 98bd 8ed3 08be
000000d0: 1e2a 19bd 7a52 f13b 6cb3 293e 524e 9dbd
000000e0: 097e e1bd 0fe7 1ebe 73a7 0cbe 1147 033d
000000f0: d3ed d03d f2e8 b1bd 6332 4c3e 9922 ebbd
00000100: b888 b2bd bce0 17be f630 27be 1d32 4d3d
00000110: 5f07 b5bd 0249 3d3d e7d1 793d 5e0b 94bd
00000120: 3102 8e3d 28eb 043e 0c2a 5b3e 73cb 45bd
00000130: 8f6b 283e 33bd 85bd 5def 8fbe 7e29 8a3d
00000140: 4aff 25bd e9ee f33d 8e8d 55be 5ff9 88bd
00000150: 2256 5c3e 3a10 ebbd 63f6 3ebe 66e2 84bd
00000160: cf61 27be 1a33 23be 60bf 48be 95aa ecbd
00000170: 0e21 233e c32c 64be 215c 5abd f9c9 0b3e
00000180: 7b08 14bd 6df9 1d3d 94ec f4bc 082d 083e
00000190: 1ead c83d c4b9 78bd 2f39 8d3e 1e16 d23c
000001a0: 1a46 f63d 7f60 78bd c501 9c3d b705 593d
000001b0: 924f 03be b285 233e 54b0 babc 4cda 5f3b
000001c0: 9541 863d 2019 2abd be01 af3e 0b47 9f3d
000001d0: 3941 17be 3d4e 33be 4244 5b3e 8c4f 33be
000001e0: 7b2c 7ebe 6d61 33bc 89f6 373e 08d4 13be
000001f0: 3402 abbd 8507 253d e40d 093c f626 4c3e
00000200: 8fc3 44be da59 553e a53b debc 5566 aebb
00000210: ef84 1c3e 8ff7 16ba a496 03bc 27d7 193d
00000220: 3e0f 39be 8e77 a23d e2a3 a2bd 281d 513e
00000230: a3ab b43d 4a00 09bd 7a19 68be e33d 8c3d
00000240: 8808 4d3e abb3 f63c 6e4e 523e 1231 2d3d
00000250: 9c79 e03c 5197 a8bd 976d f5bd 241d a83d
00000260: f7d0 afbd 3eba 4a3c 1604 4f3d d139 3a3c
00000270: b1c7 00be 9daa 29be dcd1 f73b a0ab 21be
00000280: 49e4 c7bd 9f03 b23d 8d2f 123e ecfa e73e
00000290: a797 2b3e e7e5 7c3e 6454 403e 9eab a7bc
000002a0: 9b37 5d3d 36b2 b438 5af5 a1bd 1457 39bd
000002b0: 4fdf 28be c0dc 0c3d 0ade 783e 1c68 d73d
000002c0: aa0e 813c 1167 1bbe 8b56 013e 917c d03d
000002d0: b2ed 3abe 713e 943e 311f 78be 0704 813e
000002e0: 99d9 283e 937a 5c3d 6341 64bd 7584 c0bc
000002f0: 12b2 73bd 735e 433d 9c98 f8bc b243 313e
00000300: e241 d6bd c662 6d3e 1ac9 263e c1d9 b33d
00000310: 2a29 51be b00c 793c 2b60 f63c ccad 87bd
00000320: bb94 29be d72d 78bb 3320 44bd 0783 673d
00000330: 3fb2 29be 2cdf 913d a3c9 b7bd 422c 2f3d
00000340: f950 30bd e976 9fbe 41e4 e93d 0e51 893e
00000350: 587b bc3e c788 75bc 32f4 06bc 0be1 8f3d
00000360: f560 cd3d fec3 073c dbb7 d63c f006 1d3e
00000370: 8152 6b3d c1c2 113b a1d0 9cbd ea63 db3c
00000380: d25b 20be ef49 803e 3f91 263e 1f67 edbd
00000390: e356 95bd 616a a13b b0d7 00be 7a15 633e
000003a0: f8cd 12be f0d1 383d 6cfe 2dbe 844e 5ebe
000003b0: e3ca 2cbc 08f0 80bd c6c3 0dbd 53aa 943d
000003c0: 8b5f 6bbd 6a09 dbbd 5a9a b03d ab13 23be
000003d0: cc10 283d 71af 4a3c 89b8 0dbd d3b9 f9bd
000003e0: d1f4 193e 1bc0 343e 7af9 a3bd fb76 c6bd
000003f0: 023d 9c3d 0589 fabd 48a7 343d eb45 663e
-0.015104652 0.18767965 -0.046985365 -0.14084776 0.066173576 -0.032612555 -0.028194124 -0.022855364
-0.08008252 0.07994096 -0.26254746 -0.058581244 -0.032134753 -0.15310137 0.040951315 -0.007140041
0.11929647 0.24838707 -0.1274479 -0.1708157 -0.09158331 -0.16775423 0.085723035 -0.16915983
0.036307223 -0.11009605 0.2579099 0.22559863 0.055466946 0.13767417 -0.032315686 0.07421212
-0.14903313 0.16864008 0.1350499 0.33336675 0.17513967 0.05787609 0.12003377 -0.19553426
0.23079234 -0.10167107 -0.07179446 -0.1737089 0.12960367 0.16939946 0.12646605 -0.16274302
-0.04320372 0.110105425 -0.07447491 -0.13361952 -0.03739368 0.0073645683 0.1657235 -0.07680954
-0.110103674 -0.1551783 -0.13735752 0.032050196 0.10201611 -0.08687009 0.19941096 -0.11481208
-0.08717483 -0.14831823 -0.16327271 0.05009662 -0.088392965 0.046212204 0.060991194 -0.072287306
0.06934012 0.1298033 0.21402758 -0.048289727 0.1644728 -0.065302275 -0.28112307 0.06746195
-0.040526666 0.11910803 -0.2085478 -0.06688189 0.21517232 -0.11477704 -0.18648677 -0.064884946
-0.16345905 -0.15937462 -0.19604254 -0.115559734 0.15930578 -0.222827 -0.053310517 0.13651265
-0.0361409 0.03856795 -0.029897965 0.13298428 0.097986445 -0.060724035 0.2758269 0.025645312
0.120250896 -0.0606389 0.07617525 0.052983966 -0.12823322 0.1596897 -0.022789158 0.0034157215
0.065554775 -0.041527867 0.34181017 0.07777222 -0.14770974 -0.17510314 0.21412757 -0.17510813
-0.24821655 -0.010948521 0.1796514 -0.14436352 -0.083500296 0.040290374 0.008365128 0.19936737
-0.19215225 0.20835057 -0.02712805 -0.0053222575 0.15285085 -0.0005758935 -0.008031521 0.0375587
-0.1807222 0.079329595 -0.079414144 0.20421278 0.088217996 -0.03344754 -0.22665969 0.068477415
0.20022786 0.03011497 0.20537731 0.042283125 0.027401738 -0.08231986 -0.11983793 0.08208683
-0.08584779 0.012373505 0.050541006 0.011366324 -0.12576176 -0.1656899 0.007562859 -0.15788126
-0.09760339 0.08692097 0.14275952 0.45308626 0.1675707 0.24697076 0.18782192 -0.020467576
0.054008108 8.616263e-05 -0.07908125 -0.04524906 -0.16491435 0.03439021 0.24303451 0.10517904
0.015754063 -0.15176035 0.1263067 0.10180009 -0.18254736 0.2895389 -0.24230649 0.25198385
0.16489257 0.053827833 -0.05572642 -0.02350066 -0.059495993 0.047697496 -0.030346207 0.1731098
-0.10461785 0.2318221 0.16287652 0.08781768 -0.20425859 0.015200779 0.030075153 -0.06624946
-0.16560642 -0.003786912 -0.04788227 0.05652144 -0.16571902 0.07122645 -0.08974006 0.042766817
-0.04304597 -0.3114541 0.11420489 0.26819652 0.36812854 -0.014986224 -0.008236932 0.070253454
0.10028259 0.008286474 0.026210716 0.15334678 0.05745173 0.0022241327 -0.0765698 0.026781041
-0.15660027 0.25056407 0.16266344 -0.115919344 -0.07291963 0.0049260114 -0.12582278 0.22176161
-0.14336383 0.045122087 -0.16991585 -0.21709639 -0.010546419 -0.06295782 -0.034610532 0.07259049
-0.057464164 -0.10695155 0.0862319 -0.15925471 0.041031644 0.01237093 -0.034599815 -0.12193646
0.15034796 0.17651407 -0.08006568 -0.096906625 0.07628824 -0.12233166 0.044104844 0.22487609

network_body._body_endoder.seq_layers.2.bias f4 [128]
00000000: db50 fcb9 fbfe 2f3a 7ed9 8a39 c184 29bb
00000010: ec52 54bb 2d98 84bb 15da 173b 6094 d4ba
00000020: de4b 103b 2d3c 3ebb f8f5 35bb 6613 deb7
00000030: 1a61 70b9 deaa a8ba 7b70 35bb d48d fbba
00000040: 7668 3239 fdd8 233a ea5e b5ba 4f5b 0e3b
00000050: a9a8 7639 104c 3b3b 7950 34bb 108a fb3a
00000060: d93a 133b f75e 8eba 5908 ed39 552e 30bb
00000070: bc1f 6ebb 1678 51bb 44db d2b9 9793 113a
00000080: bbe9 60bb cc77 a13b 681f 9839 8d36 a6ba
00000090: 107e 32bb 53bd 1ebb 92e8 803a 93fc 0a39
000000a0: 9e26 27bb 9c41 87ba e6df 1dbb 095a 4bbb
000000b0: 5c91 4cba 5547 153b 2ca3 23bb 3ab5 28bb
000000c0: be81 6eba 4a7b e5ba 19dc a03a d0d4 88ba
000000d0: 3cf4 06bb 56ec 2abb 6fdf 813a 3353 bb3a
000000e0: 29e4 c2b9 7170 37bb 88f3 ac3a d17d ecba
000000f0: 0f53 0abb 95aa 17ba eea9 d63b a64c 0cbb
00000100: cfc9 b53a 0b3f 47bb d485 1e3a 1b34 58bb
00000110: c639 9fba 8042 463b ac1e 92ba 9fa1 733b
00000120: 6119 66bb 5ec9 123c 464a df3b 6d51 0dbb
00000130: 534b 9038 d31c edba de86 63bb 88ee 423b
00000140: be12 763b 422d 28bb 8031 98ba 6c4f c938
00000150: bc8d d73b 1353 d23a 628a d5ba d701 18bb
00000160: 46e8 f03b 9f7d 143b 08cf 1db9 3523 f739
00000170: 1877 dab9 67ac 883a c966 cbba 97bf d03a
00000180: b2bf 67ba 19a1 6d3b d673 ceb9 8b17 833a
00000190: 6bec 803b 9282 39ba 6450 f7b8 d43b 4f3b
000001a0: fd91 a9bb cad9 53bb 5ebf 49bb 0926 003c
000001b0: 3eb8 6dbb 2880 5bbb 4028 dc3a 531c ba3a
000001c0: 5e83 d13b f550 eeba 7bad 3cbb 88e6 9eba
000001d0: d58a d13b 2a0c 803b 84cc 2dbb 46e0 75ba
000001e0: 9bdb b13a 9aba 0db9 5b06 1539 6762 d6ba
000001f0: 2197 adb9 1953 4dbb cbcf 403b d2d7 f3ba
-0.00048125428 0.0006713715 0.00026483455 -0.002586648 -0.0032398058 -0.004046461 0.0023170759 -0.0016218536
0.0022017877 -0.0029027567 -0.0027765017 -2.6473495e-05 -0.00022924357 -0.0012868305 -0.0027685452 -0.0019192048
0.00017014318 0.00062502903 -0.0013837491 0.0021721905 0.00023523219 0.0028579272 -0.0027513786 0.0019190926
0.0022465496 -0.0010862042 0.00045210382 -0.0026883085 -0.0036334833 -0.0031962446 -0.00040217687 0.00055533036
-0.0034319002 0.004927611 0.000290151 -0.0012681052 -0.0027235784 -0.0024221733 0.0009834936 0.00013254797
-0.0025505195 -0.0010319236 -0.0024089753 -0.0031029007 -0.00078036427 0.0022778113 -0.0024969084 -0.0025742785
-0.00090983126 -0.0017508056 0.0012272625 -0.00104394 -0.0020592352 -0.0026080809 0.0009908507 0.0014291763
-0.00037172556 -0.0027990604 0.0013195137 -0.0018042867 -0.0021106636 -0.00057856116 0.006551019 -0.002140799
0.0013869348 -0.0030402567 0.00060471636 -0.0032990042 -0.0012147955 0.003025204 -0.0011148057 0.003717519
-0.0035110342 0.0089591425 0.006814274 -0.0021563426 6.880485e-05 -0.0018090255 -0.0034717838 0.0029744226
0.0037547792 -0.0025661741 -0.0011611432 9.59922e-05 0.0065781754 0.0016046487 -0.0016291852 -0.0023194456
0.007351908 0.0022657884 -0.00015049812 0.00047137743 -0.00041668932 0.0010427356 -0.0015518303 0.0015926239
-0.00088405155 0.0036259352 -0.00039377686 0.0010001523 0.003934433 -0.00070766464 -0.00011792852 0.0031621354
-0.005174874 -0.0032325857 -0.003078423 0.007821568 -0.0036273147 -0.0033493135 0.0016796663 0.0014199115
0.006393834 -0.0018182086 -0.0028789926 -0.0012123147 0.006394724 0.0039077 -0.0026519606 -0.00093794276
0.0013569476 -0.00013516322 0.00014212115 -0.001635623 -0.0003310973 -0.0031330048 0.002942073 -0.0018603748

network_body._body_endoder.seq_layers.2.weight f4 [128, 128]
00000000: 1d11 383d 7d26 4b3d 6c1d c43d 2ee5 3f3d
00000010: 28af 103d 578a 5dbd dd0f 78be 9b33 f63c
00000020: f206 5e3d 7702 b43d bc96 8a3c 695e c93a
00000030: ae0c 533d f478 0d3c f049 ba3d 67a2 0e3d
00000040: c42b c93d d146 153d d0c1 7e3d 60fb 083c
00000050: 7427 05bd 3fb3 e03a d2ce f13a 1e4f e2bd
00000060: 24af 1ebd a1de 31be 6864 05be 4532 0e3e
00000070: 341e a1bd 8f1d ba3c 23cd 653c a862 14be
00000080: f31b 903d 3707 fa3d c617 39bd 155e 83bd
00000090: 4689 d63d ca92 64bd e76b 353d b8f8 1bbe
000000a0: 99d1 403d c1b2 97bc 6594 48be 8ca8 993b
000000b0: 0ae8 353d 043d f9bc 57ec 3abc 361c 8dbd
000000c0: 2f3f a53c f177 89bd f35b 03be 742d 32be
000000d0: 8f95 91bd 8105 8a3d c26c 1fbc 679e 32bd
000000e0: 46e1 6f3d d3fb 943d 2725 dfbc 70f7 c3bd
000000f0: 35a8 0ebd b293 a83d 282c cabd 1473 0a3d
00000100: 5987 1fbd 8ea5 a0bd 1065 353d 361e 643d
00000110: 07fb 713d 8a52 463d a2e3 f23d dcfe c4bc
00000120: c927 20be 8a10 77bd 2c0d a93c 6f0e ccbd
00000130: 116a aebd e2ad 523d 489b 53bd 9b0e e43d
00000140: 1d57 c6bc 50b2 323e 4412 86bd 3492 093e
00000150: 21d9 023c 25ce 893b 5d07 ce3c 1b32 7e3d
00000160: e484 d8bd a080 cd3d a61f a7bd 1f5b fd3c
00000170: abb6 8e3d d003 e2bd eb3e 48bd a7f3 cd3d
00000180: 1edc b5bd 5924 bd3d ef4a 57be 1870 1c3e
00000190: 6eed 373d 3e4d cfbb f9bc ecbd 6565 41bd
000001a0: 6a04 ffbd 44d4 143d f306 ee3c 761a ae3a
000001b0: 902e d23d 7aaf 043e 46c4 643d 2cbd f33d
000001c0: 4cd6 c23d 6c88 5cbd 9883 873b 1113 0f3d
000001d0: c11d 0bbe 9553 1abe 4815 10be 8259 123d
000001e0: 1e50 c43b 12b7 683c 5cf2 c43d b890 bebd
000001f0: 1701 c1bc 9016 1b3d fd12 bcbc 4ddd b7bd
00000200: e5be 753d 3af8 30be 4bd8 993d 38e2 ca3d
00000210: e732 6b3d 14cf 61bd f715 21be 66fc 983d
00000220: 9419 d9bc 95ce fc3d 4145 953d c456 cc3d
00000230: 5158 083e 990a a3bd dbc2 d8bd ae38 283e
00000240: 783c acbd 7127 d8bd 8cbf aabc faf0 a83c
00000250: 8d2b 403d 59ba b33d d71d 123e c237 7ebc
00000260: d3a0 bc3c 2ef5 efb9 3a7d c8bd 999c 4a3d
00000270: 1ddb 91bd ec18 603e 620d 81bd c5ed d0bd
00000280: dd5a 81bd 55b7 aabd 3882 783c 50e8 30bc
00000290: 94f8 863d 8942 93bd b86f 00be 1e33 113e
000002a0: f1cf 903d 4c2c 1dbe da11 193e 57c9 4c3d
000002b0: 27a4 f9bc 5c24 03bd 3a0d ca3c 8cc0 4b3c
000002c0: a32b 91bc 4291 ca3d 64fd 133c e6b8 0a3e
000002d0: 4f06 6ebd a33f 28be 81a4 30bd 1743 78bd
000002e0: 72a6 103d 47b4 b5bc 10ae e1bd 3fd4 e3bb
000002f0: 3d54 883d 1d0a aa3d 1ccd 793d 8cb8 0ebe
00000300: d1cd eebd 5c76 c2bc cc82 d0bc 3e4f 073e
00000310: 77ec 9f3d 1255 88bd a833 8f3c bdf9 283d
00000320: a55c a73a 0e7f 3abc fb81 51bd f65e 9a3d
00000330: 0909 c23d 581b 01be 2e2d c03b be7e cc3d
00000340: 976d 01bd ebb8 703c 318b 80bd 6a41 fdbd
00000350: 5300 3abd d0be 1ebd 2ec6 86be dc27 4fbd
00000360: f8d1 adbd 5040 26be 63da 0dbc 44e0 ee3d
00000370: 6a34 5c3d 353c cdbc 5c4d 48bd 004c 0abe
00000380: 9bcb a4bc 87f5 9f3e 3bc9 5a3c 708f 9b3a
00000390: 317f 4d3c 0a2f 3c3b 5836 d8bc 25df a33d
000003a0: 4e79 a33d 5aea db3d 832e 513e 4677 8739
000003b0: 49a5 81bc f029 9f3d 6270 69ba 45a1 a0bd
000003c0: 45d0 b4bd 506e d7bc c704 133e cc4d 923d
000003d0: bc45 bf3b 3c76 e63c 97df 0e3e 2838 edbd
000003e0: 58d1 623b dc5b f2bd 99dd 263d 7bc5 173b
000003f0: c847 a0bd 2c1d 40bd ca34 d53d 5350 89bd
0.044938195 0.049597252 0.09575924 0.046849422 0.035323292 -0.05408701 -0.24224801 0.030053904
0.054205842 0.08789533 0.016917579 0.001536322 0.051525764 0.0086347945 0.09096134 0.034822848
0.09822801 0.03644449 0.062196553 0.008360714 -0.03250833 0.0017143263 0.0018448478 -0.11050247
-0.038741246 -0.17370082 -0.13026583 0.13886364 -0.07867089 0.022719173 0.014025959 -0.1449076
0.07036581 0.12208407 -0.045188688 -0.06414429 0.104754016 -0.05580405 0.044292357 -0.15231597
0.047074888 -0.018517854 -0.19587858 0.004689282 0.044410743 -0.030424602 -0.011408887 -0.068901464
0.02017173 -0.0671233 -0.12828045 -0.17400151 -0.07108604 0.06739331 -0.00973052 -0.043608095
0.058564447 0.07274594 -0.027239395 -0.09568679 -0.034828383 0.08231296 -0.098717034 0.033801153
-0.038947437 -0.07844077 0.044285834 0.055692874 0.05907729 0.04841856 0.11859824 -0.024047308
-0.15640177 -0.060318507 0.020636164 -0.099636905 -0.08516324 0.05143536 -0.05166176 0.11135598
-0.02421146 0.17450833 -0.06546453 0.13434678 0.007986338 0.0042054825 0.025149995 0.062059503
-0.10572222 0.10034299 -0.08160333 0.030927239 0.06968435 -0.110358834 -0.04888813 0.100562386
-0.08879875 0.092354484 -0.21024679 0.15277135 0.044904165 -0.0063263467 -0.11559481 -0.047215838
-0.12452014 0.036335245 0.029056048 0.0013283032 0.10262787 0.12957564 0.055851243 0.11901316
0.0951353 -0.05384104 0.0041355602 0.034930293 -0.13585569 -0.15070947 -0.14070618 0.035729893
0.005990996 0.014203804 0.09616539 -0.09304947 -0.02356009 0.037863314 -0.022958273 -0.08977757
0.059996504 -0.17282191 0.07511958 0.09906429 0.05742159 -0.055129126 -0.15731035 0.07470016
-0.026501454 0.1234409 0.072886 0.09977487 0.1331494 -0.07961006 -0.10584041 0.16427872
-0.08409971 -0.10554398 -0.02084329 0.02062272 0.046916533 0.08775777 0.14269195 -0.015516223
0.023025906 -0.00045768305 -0.0978951 0.04946575 -0.07121871 0.21884507 -0.06301381 -0.10201601
-0.06316159 -0.08335749 0.015167765 -0.010797575 0.06590381 -0.07190425 -0.12542617 0.14179656
0.07070912 -0.15348929 0.14948216 0.0499967 -0.030473782 -0.032017097 0.02466451 0.0124360435
-0.017721003 0.09890987 0.009032581 0.13547096 -0.058111485 -0.16430525 -0.043125633 -0.060610857
0.035314985 -0.02218069 -0.11019528 -0.006952792 0.06656692 0.0830271 0.060986623 -0.13937587
-0.1166035 -0.023738079 -0.025452994 0.13213822 0.07808774 -0.06656851 0.017480686 0.041253794
0.0012768699 -0.011382831 -0.05114935 0.075376436 0.094743796 -0.12608087 0.005864761 0.09985112
-0.031598654 0.014692525 -0.06276549 -0.12365992 -0.045410465 -0.03875619 -0.26323074 -0.050575122
-0.08487314 -0.16235471 -0.0086580245 0.11663869 0.053760923 -0.025053123 -0.0489019 -0.13505554
-0.020116618 0.3124201 0.013353641 0.0011868309 0.012542532 0.002871456 -0.0263931 0.08001546
0.079821214 0.107380584 0.20427899 0.00025838072 -0.015825884 0.07771671 -0.0008904991 -0.0784326
-0.08828787 -0.026297718 0.14357291 0.07143745 0.0058371704 0.02813255 0.1395248 -0.115829766
0.0034609642 -0.11833927 0.040738676 0.002315848 -0.07826191 -0.04690282 0.10410459 -0.06704774
