results/phase4_t2_final/NPCAgent/NPCAgent-3499974.onnx (onnx, 107855 bytes, 9 tensors)

action_model._continuous_distribution.log_sigma f4 [1, 2]
-0.02232922 4.310383e-05
00000000: c5eb b6bc 63ca 3438

action_model._continuous_distribution.mu.bias f4 [2]
0.008493249 0.0008511705
00000000: 4527 0b3c 1621 5f3a

action_model._continuous_distribution.mu.weight f4 [2, 128]
0.030534966 0.010024501 -0.046794567 -0.039300233 0.10831138 0.050582316 -0.07302128 -0.11394856
-0.016141381 -0.08682261 -0.12398882 -0.12314197 -0.015383864 0.07772042 0.062494412 -0.005962287
-0.11119485 -0.06693893 0.11473605 0.03419736 -0.12888826 -0.05473119 0.03801555 -0.0059344657
-0.010253751 -0.011978025 -0.00703154 -0.003796378 -0.061079167 0.07952531 0.08043006 -0.03643446
0.11371638 -0.13656199 -0.06377551 0.04478768 0.0946825 0.022849118 0.0890528 -0.06808574
0.06482553 0.00399916 0.11273452 -0.052092314 -0.0054225456 0.03934652 -0.013666569 -0.14574645
0.061539825 -0.013289429 0.028583316 0.046689846 -0.053874854 -0.009686648 0.09327094 -0.087073036
0.024160156 0.030051881 0.0314423 0.0004522866 -0.1075783 0.029233074 -0.054110274 0.046097957
-0.028922578 -0.12850691 -0.0112888515 0.12035025 0.05508678 0.048390463 0.07826703 0.12504624
0.12334411 -0.117738515 0.08961632 0.10419089 0.06881001 0.087483004 0.033968475 0.051922012
-0.04920052 0.02196459 0.06573793 0.06172339 0.02196443 -0.11793365 -0.05312987 -0.108364284
0.111115426 0.079405084 0.06099491 -0.055053115 0.09347547 -0.008545672 -0.021700723 0.104006454
-0.102785274 0.02044745 0.087768085 0.03459453 -0.118425176 0.07650281 0.1295631 0.01438677
0.03195006 -0.10480775 -0.03978219 0.096155904 -0.12733753 0.012289621 0.016568042 0.053700563
0.029995395 -0.06472038 -0.0151516795 -0.11411757 0.019833254 -0.058919095 0.091874264 -0.100407906
-0.06986413 -0.1032511 0.06774626 -0.10046162 0.020110544 -0.030100966 -0.08838125 -0.13248426
-0.054943442 -0.010564266 -0.07022319 -0.078533255 -0.013411203 -0.020654922 -0.038031228 -0.045038965
-0.107191436 0.052033275 0.08111533 0.027048511 -0.13476005 -0.04905308 0.07377682 -0.09660602
0.060175806 -0.00980268 -0.030453457 0.02750747 0.081216395 0.122117996 0.07629156 -0.10535474
-0.06359167 0.11599728 -0.09662018 0.11365877 0.13695966 0.07153881 -0.055970225 0.19133668
0.042898923 -0.050171547 -0.081775896 -0.029057836 0.09496058 0.12646791 0.045568243 -0.007883238
0.038884707 0.01782978 0.034753203 -0.074916564 0.02902633 -0.033927716 0.012435012 0.06444259
0.071199626 0.08740965 -0.025902634 0.11540074 -0.10440788 -0.06410941 0.09423125 0.015332307
0.04623546 -0.015146924 -0.1085942 0.08336498 0.066595696 0.054098528 0.069296144 0.021757524
0.07224869 0.08991453 0.0062957103 -0.008848558 -0.0023109177 0.059317872 0.019702623 -0.039668385
0.016972894 0.06582156 0.037771847 0.03615302 -0.022944344 -0.03614475 -0.077941686 -0.05241257
0.07576252 0.01694438 -0.15704538 -0.057903383 -0.056951594 0.06539111 -0.01352663 -0.03917782
-0.032594714 -0.034077693 0.02645942 0.0042878473 0.034848128 0.1304156 -0.042068917 0.010650413
0.1437623 0.02276252 0.06680717 0.073887706 -0.10448913 0.015367511 -0.07568123 0.13587056
-0.07919999 -0.024208097 0.05885309 0.038857695 0.0029782455 0.073817454 -0.03025476 0.06163891
-0.059508275 -0.02353726 0.06961047 -0.022058114 0.08176969 -0.017477933 -0.028638763 0.07308398
-0.033301312 0.054956913 0.05835954 0.01912266 0.046732295 -0.11736711 -0.03928785 -0.03175035
00000000: 7724 fa3c ce3d 243c a9ab 3fbd 48f9 20bd
00000010: 5bd2 dd3d 672f 4f3d 2e8c 95bd dd5d e9bd
00000020: ee3a 84bc 0dd0 b1bd daed fdbd db31 fcbd
00000030: 9a0c 7cbc e22b 9f3d 24fa 7f3d 4a5f c3bb
00000040: 20ba e3bd 4717 89bd bcfa ea3d 8812 0c3d
00000050: 49fb 03be d02d 60bd 31b6 1b3d e875 c2bb
00000060: 59ff 27bc 7a3f 44bc d568 e6bb a7cc 78bb
00000070: 262e 7abd 2ade a23d 84b8 a43d 4d3c 15bd
00000080: 22e4 e83d e8d6 0bbe bc9c 82bd 4973 373d
00000090: e6e8 c13d 132e bb3c 5061 b63d 8970 8bbd
000000a0: 3fc3 843d 630b 833b 5be1 e63d c05e 55bd
000000b0: 9caf b1bb d129 213d bfe9 5fbc 8f3e 15be
000000c0: 2f11 7c3d e8bb 59bc 8f27 ea3c da3d 3f3d
000000d0: e1ab 5cbd bfb4 1ebc d604 bf3d 5953 b2bd
000000e0: 85eb c53c 5d2f f63c a4c9 003d e120 ed39
000000f0: 0352 dcbd 337a ef3c bca2 5dbd 36d1 3c3d
00000100: 0bef ecbc 5197 03be e0f4 38bc 317a f63d
00000110: ada2 613d 1435 463d 774a a03d 1f0c 003e
00000120: d69b fc3d e420 f1bd c388 b73d 0962 d53d
00000130: 43ec 8c3d 4a2a b33d 8722 0b3d 2dac 543d
00000140: 7c86 49bd 15ef b33c 9ca1 863d aad1 7c3d
00000150: c0ee b33c 3387 f1bd b59e 59bd 18ee ddbd
00000160: 7c90 e33d 229f a23d ccd5 793d 607f 61bd
00000170: 1170 bf3d 2503 0cbc b7c5 b1bc 5601 d53d
00000180: 1681 d2bd 6981 a73c c1bf b33d feb2 0d3d
00000190: e688 f2bd 81ad 9c3d 30ac 043e 7db6 6b3c
000001a0: 11de 023d 72a5 d6bd a6f2 22bd 63ed c43d
000001b0: c564 02be 685a 493c b4b9 873c 1ff5 5b3d
000001c0: e7b8 f53c 1e8c 84bd c03e 78bc 79b6 e9bd
000001d0: 5979 a23c 2655 71bd 9328 bc3d a9a2 cdbd
000001e0: ed14 8fbd 5075 d3bd 8dbe 8a3d d2be cdbd
000001f0: debe a43c 4d96 f6bc 3b01 b5bd f4a9 07be
00000200: 600c 61bd be15 2dbc 2dd1 8fbd 0bd6 a0bd
00000210: aaba 5bbc 8334 a9bc a2c6 1bbd c77a 38bd
00000220: 2f87 dbbd d820 553d cb1f a63d d794 dd3c
00000230: 8afe 09be e2eb 48bd 4d18 973d 61d9 c5bd
00000240: e87a 763d 6c9b 20bc 8779 f9bc 5957 e13c
00000250: c854 a63d 0019 fa3d c03e 9c3d 3ac4 d7bd
00000260: 593c 82bd fb8f ed3d cde0 c5bd eec5 e83d
00000270: 273f 0c3e f182 923d 0941 65bd c3ed 433e
00000280: c8b6 2f3d ae80 4dbd 1f7a a7bd b30a eebc
00000290: b17a c23d ce80 013e c4a5 3a3d b228 01bc
000002a0: 9245 1f3d c20f 923c 6059 0e3d db6d 99bd
000002b0: a0c8 ed3c caf7 0abd 38bc 4b3c 7afa 833d
000002c0: 1cd1 913d d503 b33d c331 d4bc 3957 ec3d
000002d0: ccd3 d5bd cb4b 83bd 50fc c03d 5b34 7b3c
000002e0: 6561 3d3d ce2a 78bc a366 debd 42bb aa3d
000002f0: 5363 883d 6b96 5d3d 23eb 8d3d d63c b23c
00000300: 1ff7 933d 1c25 b83d 3f4c ce3b 8bf9 10bc
00000310: c472 17bb 4cf7 723d 6567 a13c 517b 22bd
00000320: bd0a 8b3c 74cd 863d a7b6 1a3d 3015 143d
00000330: c7f5 bbbc 840c 14bd e49f 9fbd 90ae 56bd
00000340: 6129 9b3d f1ce 8a3c 81d0 20be 192c 6dbd
00000350: 1346 69bd c6eb 853d cc9e 5dbc ec78 20bd
00000360: 0982 05bd 0d95 0bbd 6dc1 d83c 1281 8c3b
00000370: e9bc 0e3d ab8b 053e 7550 2cbd 127f 2e3c
00000380: 6d36 133e 7778 ba3c 33d2 883d 7052 973d
00000390: 66fe d5bd 03c8 7b3c c3fe 9abd a721 0b3e
000003a0: 9b33 a2bd 0f50 c6bc f00f 713d 3f29 1f3d
000003b0: ab2e 433b 9b2d 973d d5d8 f7bc 1579 7c3d
000003c0: f3be 73bd 36d1 c0bc ef8f 8e3d 38b3 b4bc
000003d0: de76 a73d e22d 8fbc d79b eabc 0ead 953d
000003e0: f566 08bd 801a 613d 6a0a 6f3d 20a7 9c3c
000003f0: 5d6a 3f3d 2b5e f0bd 4cec 20bd a80c 02bd

action_model._discrete_distribution.branches.0.bias f4 [2]
0.022570822 -0.022570737
00000000: 72e6 b83c 44e6 b8bc

action_model._discrete_distribution.branches.0.weight f4 [2, 128]
0.09342506 0.11340285 0.053660266 -0.03878151 0.10086532 0.10412007 -0.011176651 0.13760121
-0.047364093 0.010248098 -0.16424257 0.01982356 -0.053197756 -0.0767611 -0.11095203 -0.07038078
0.020604024 -0.09459848 0.080033496 0.08512021 -0.015614922 0.11510016 0.050517105 -0.008187003
-0.10574902 0.14690337 -0.11057487 0.08654377 0.0023470237 -0.034727532 0.021098902 -0.07119725
0.1622139 0.06987493 -0.040323224 0.07248144 0.13787946 -0.011438801 0.046549752 0.11702827
0.022343576 0.08576413 -0.16352136 -0.0028840068 -0.005840964 0.030598527 0.13085286 -0.110828884
0.10006273 0.08688615 -0.14884429 -0.0136122685 -0.136138 0.034058526 0.09647809 0.09941978
0.15381205 0.1186322 0.042598844 0.105892725 0.16699663 0.07141185 -0.15461996 0.14005834
-0.1271557 -0.08223637 0.18379945 0.049702235 0.038439248 0.063474216 0.13150364 -0.06906192
-0.009407945 -0.111374974 0.060584318 -0.073338695 -0.14899048 -0.046139028 -0.08707496 -0.038966898
0.111527994 0.16406378 0.006490731 -0.018008035 0.078114055 0.048778575 0.09537491 0.041846447
-0.0013912559 -0.08171121 0.09996902 0.1834113 0.10181173 -0.04062675 -0.0089619225 0.054016612
-0.004962149 -0.1465721 -0.09638059 0.11187101 -0.03989841 0.13679726 -0.023724208 -0.06998571
-0.069662005 0.030739726 -0.14130907 -0.10959457 0.10247298 -0.104818866 0.11204922 0.142718
-0.05424565 0.12840058 0.07194283 -0.03808761 0.032367982 0.12673296 0.00448419 0.17223965
0.11805102 0.043227285 -0.11330347 0.113899045 0.068267584 -0.013253742 0.068724 0.07305963
-0.09046002 -0.11924391 -0.036387213 0.018940374 -0.10344727 -0.106141396 0.02175582 -0.15074089
0.05136172 3.994264e-05 0.15635322 -0.012736333 0.051634483 0.08690812 0.11615095 0.050580546
-0.0050118994 0.09475164 -0.074503645 -0.081628494 -0.007897305 -0.10066679 -0.023745408 0.02798615
0.12432531 -0.15321054 0.11877054 -0.07877303 -0.03402764 0.018281737 -0.027326366 0.07962907
-0.17296088 -0.06980105 0.036157724 -0.07419433 -0.1127031 -0.0031376968 -0.062800996 -0.090145834
-0.019720702 -0.1029369 0.14581896 -0.005934382 0.0070683844 -0.01732635 -0.1277836 0.105226524
-0.082940325 -0.09972822 0.13065141 0.035401333 0.119340934 -0.05167699 -0.09179319 -0.104547635
-0.1763428 -0.11628298 -0.041563585 -0.10429751 -0.14961043 -0.069881216 0.17232569 -0.13292369
0.12732434 0.07731154 -0.15301314 -0.061695885 -0.045528833 -0.07216084 -0.1338603 0.06058739
-0.01048082 0.08530031 -0.063695684 0.0712726 0.14405857 0.027136462 0.09351436 0.03269588
-0.108680725 -0.13614759 -0.009441757 0.043682173 -0.0902942 -0.060857046 -0.11710344 -0.0684512
-0.002627327 0.06599594 -0.10867542 -0.17529866 -0.0951841 0.023261312 0.0062667313 -0.04738305
0.008565131 0.13621736 0.09888462 -0.11798046 0.036496107 -0.1401519 0.009034607 0.07569354
0.056363128 -0.0196191 0.14452657 0.11079904 -0.099476255 0.11493259 -0.10998263 -0.13210537
0.033651657 -0.104064725 -0.051678207 0.062324338 -0.030247208 -0.12954445 0.011176731 -0.15569355
-0.1221658 -0.04480057 0.09406704 -0.112538934 -0.056962345 0.030376025 -0.06185955 -0.087365955
00000000: a355 bf3d c13f e83d deca 5b3d 5cd9 1ebd
00000010: 7a92 ce3d e73c d53d 461e 37bc 55e7 0c3e
00000020: da00 42bd a3e7 273c 342f 28be 0565 a23c
00000030: e4e5 59bd ec34 9dbd d13a e3bd cc23 90bd
00000040: c5c9 a83c d9bc c1bd 9ae8 a33d 8153 ae3d
00000050: bbd5 7fbc a2b9 eb3d 06eb 4e3d c822 06bc
00000060: f192 d8bd d66d 163e 1475 e2bd dc3d b13d
00000070: 86d0 193b 753e 0ebd 9bd7 ac3c ddcf 91bd
00000080: 671b 263e 961a 8f3d f729 25bd 2671 943d
00000090: 4630 0d3e cf69 3bbc f4aa 3e3d 85ac ef3d
000000a0: e009 b73c 1ba5 af3d 2572 27be 9b01 3dbb
000000b0: 8f65 bfbb c3a9 fa3c 4bfe 053e 41fa e2bd
000000c0: b0ed cc3d 5ef1 b13d a36a 18be fe05 5fbc
000000d0: c367 0bbe f480 0b3d 4e96 c53d 999c cb3d
000000e0: e880 1d3e 70f5 f23d 207c 2e3d 49de d83d
000000f0: 2a01 2b3e 6040 923d b254 1ebe 746b 0f3e
00000100: 1b35 02be 8b6b a8bd ec35 3c3e 9294 4b3d
00000110: 7972 1d3d c5fe 813d e4a8 063e 5670 8dbd
00000120: c823 1abc 9018 e4bd 4327 783d 9932 96bd
00000130: f690 18be 47fc 3cbd 5b54 b2bd c19b 1fbd
00000140: ca68 e43d 5600 283e 33b0 d43b 9685 93bc
00000150: 43fa 9f3d 0bcc 473d ec53 c33d 2e67 2b3d
00000160: cd5a b6ba 3558 a7bd 8fbc cc3d 2cd0 3b3e
00000170: ab82 d03d 3c68 26bd 07d5 12bc 8640 5d3d
00000180: 8699 a2bb ff16 16be 3063 c5bd a11c e53d
00000190: 846c 23bd 9514 0c3e 4559 c2bc ab54 8fbd
000001a0: f4aa 8ebd e1d1 fb3c 53b3 10be 1e73 e0bd
000001b0: 5bdd d13d 46ab d6bd 107a e53d ab24 123e
000001c0: b030 5ebd 717b 033e c356 933d c101 1cbd
000001d0: 4a94 043d 49c6 013e 1df0 923b 975f 303e
000001e0: bcc4 f13d 180f 313d a60b e8bd e743 e93d
000001f0: e0cf 8b3d 3926 59bc 2bbf 8c3d 4aa0 953d
00000200: 1a43 b9bd 2736 f4bd c20a 15bd d828 9b3c
00000210: 2adc d3bd a960 d9bd 4339 b23c d25b 1abe
00000220: ab60 523d 1588 2738 0f1b 203e 0dac 50bc
00000230: ae7e 533d e2fc b13d 8de0 ed3d 8c2d 4f3d
00000240: dc3a a4bb 260d c23d 5e95 98bd d72c a7bd
00000250: b363 01bc 642a cebd bb85 c2bc 3643 e53c
00000260: 459e fe3d 39e3 1cbe f83d f33d c153 a1bd
00000270: 9160 0bbd 95c3 953c 8bdb dfbc 9114 a33d
00000280: a81c 31be daf3 8ebd 1f1a 143d 32f3 97bd
00000290: e2d0 e6bd d1a1 4dbb cf9d 80bd 619e b8bd
000002a0: 4f8d a1bc 95d0 d2bd 9151 153e 3475 c2bb
000002b0: e89d e73b fdef 8dbc b4d9 02be 0181 d73d
000002c0: 9edc a9bd 4f3e ccbd 7cc9 053e fd00 113d
000002d0: 0569 f43d 40ab 53bd 11fe bbbd 121d d6bd
000002e0: 3593 34be c525 eebd 943e 2abd ef99 d5bd
000002f0: 7a33 19be e21d 8fbd 2576 303e 261d 08be
00000300: 5061 023e 8355 9e3d 7aaf 1cbe d3b4 7cbd
00000310: 717c 3abd 10c9 93bd ad12 09be 7c2a 783d
00000320: bfb7 2bbc eeb1 ae3d e272 82bd 5ef7 913d
00000330: 1784 133e 494d de3c 7584 bf3d 1dec 053d
00000340: 0094 debd 466a 0bbe 99b1 1abc 14ec 323d
00000350: 2aec b8bd 3d45 79bd eed3 efbd 2530 8cbd
00000360: 3c2f 2cbb e128 873d 3891 debd 7e81 33be
00000370: e2ef c2bd 828e be3c 2759 cd3b bb14 42bd
00000380: c354 0c3c 907c 0b3e 0584 ca3d bd9f f1bd
00000390: f17c 153d fb83 0fbe e305 143c 3705 9b3d
000003a0: 06dd 663d 3cb8 a0bc c6fe 133e 9bea e23d
000003b0: 35ba cbbd c761 eb3d 933e e1bd a146 07be
000003c0: 52d6 093d e31f d5bd 87ac 53bd ce47 7f3d
000003d0: fec8 f7bc 4da7 04be 9c1e 373c 216e 1fbe
000003e0: 1032 fabd cd80 37bd 38a6 c03d d07a e6bd
000003f0: 5951 69bd 24d7 f83c 7160 7dbd ecec b2bd

network_body._body_endoder.seq_layers.0.bias f4 [128]
0.011275654 0.05513327 0.02003131 -0.0045509203 0.023900656 0.0012105168 0.025458604 0.051353935
0.0062048957 0.037042163 0.009883487 0.011515961 0.00049782323 0.014566535 -0.005394829 0.012083719
0.03163749 0.016967531 0.008166579 -0.00043096975 0.01870604 0.04122084 0.047824677 -0.0047969306
0.017395906 0.0137986075 0.06391363 0.0056789787 0.016795872 0.021723567 0.025295714 0.015454954
0.022217194 0.023545438 0.015129579 -0.0062457495 0.05594853 0.032494567 0.035868082 0.02259616
0.00058540667 0.06558093 0.020091249 0.014479245 0.02838784 0.034229647 0.009759548 0.015629295
0.021051457 0.051294398 0.030235516 0.032895222 0.045307413 0.02007121 0.03153083 0.03189587
0.026165295 0.006363704 0.020203052 0.032736916 0.015010687 -0.005528156 0.017569551 0.018709382
0.035815712 0.010611176 0.031301472 0.026188003 0.017986888 0.022749621 0.028356824 0.018656576
-0.002936542 -0.018544696 0.028012859 0.0007235374 0.009221696 0.02038535 0.02620646 0.020677311
0.021713875 0.05693584 0.027628135 0.02326604 0.04233976 -0.010781471 0.06722915 0.003616312
0.052801248 0.007383802 0.014904771 0.016842872 0.056306988 -0.0017166912 0.016129822 0.01723084
0.046043556 0.0231614 0.041168083 0.019098794 0.017528694 0.026380938 0.035767578 0.022154493
0.03658493 0.016012693 0.046388168 -0.006237747 0.031294227 0.06723106 0.015853569 0.014906176
0.005595649 -0.02542022 0.025205562 0.015143904 0.020147523 0.032716956 0.06386759 0.0010524192
0.01604458 0.01483854 0.025622943 0.027988888 0.020618387 0.032483265 0.0086193 0.0404332
00000000: 85bd 383c 6cd3 613d b418 a43c e31f 95bb
00000010: 4fcb c33c 34aa 9e3a 908e d03c 8158 523d
00000020: 7052 cb3b 86b9 173d 59ee 213c 71ad 3c3c
00000030: 5a80 023a 7aa8 6e3c 1bc7 b0bb cafa 453c
00000040: 5096 013d 7eff 8a3c 1dcd 053c c8f3 e1b9
00000050: 693d 993c 2fd7 283d cfe3 433d 922f 9dbb
00000060: dc81 8e3c 8e13 623c 26e5 823d ba16 ba3b
00000070: 7f97 893c 9ff5 b13c f538 cf3c c636 7d3c
00000080: d500 b63c 5de2 c03c 0ee2 773c 25a9 ccbb
00000090: 492a 653d 0619 053d 69ea 123d 951b b93c
000000a0: fa75 193a 4b4f 863d 6796 a43c 5b3a 6d3c
000000b0: 9e8d e83c 6334 0c3d 83e6 1f3c 0209 803c
000000c0: 1b74 ac3c 131a 523d 79b0 f73c 24bd 063d
000000d0: 4494 393d 616c a43c 7926 013d 3ea5 023d
000000e0: 9a58 d63c 9e86 d03b df80 a53c 2517 063d
000000f0: 62ef 753c 8925 b5bb 05ee 8f3c 6b44 993c
00000100: 7fb3 123d 7fda 2d3c f935 003d 3988 d63c
00000110: 3d59 933c 6a5d ba3c 924c e83c add5 983c
00000120: 0073 40bb 0ceb 97bc 397b e53c c6ab 3d3a
00000130: 9916 173c 2dff a63c eeae d63c 7763 a93c
00000140: 4ce1 b13c 8e35 693d 6654 e23c 6c98 be3c
00000150: 756c 2d3d c4a4 30bc 70af 893d a6ff 6c3b
00000160: 1f46 583d d2f3 f13b 2433 743c 10fa 893c
00000170: 28a2 663d 9902 e1ba b022 843c b127 8d3c
00000180: 2b98 3c3d fabc bd3c dd9f 283d 1375 9c3c
00000190: 5698 8f3c d61c d83c 0681 123d 577d b53c
000001a0: 14da 153d 0d2d 833c 8501 3e3d 0466 ccbb
000001b0: 602e 003d 70b0 893d 58df 813c 0939 743c
000001c0: b55b b73b 113e d0bc e57b ce3c 231e 783c
000001d0: 6b0c a53c 3702 063d 03cd 823d 54f1 893a
000001e0: ec6f 833c 591d 733c 35e7 d13c f448 e53c
000001f0: e4e7 a83c 2c0d 053d f737 0d3c 489d 253d

network_body._body_endoder.seq_layers.0.weight f4 [128, 71]
0.043846186 -0.06597437 0.21651061 0.1437403 0.028161839 -0.13014469 -0.13134746 0.058105625
0.20597595 0.08020044 -0.09858599 0.024706889 0.102019474 -0.13462411 -0.24871352 -0.003962558
0.21260111 0.0934573 0.036555633 -0.09378826 0.0013924624 -0.18640505 0.13119626 0.023378199
-0.05000572 -0.0065937014 0.15108804 -0.18476509 -0.29587638 0.10391007 -0.18476029 0.18287958
0.12536503 -0.3129125 -0.23865813 -0.10563218 -0.082783565 0.018260226 -0.25119323 -0.13309743
0.14670904 0.034769934 0.11843172 0.015910212 -0.20866549 0.2039477 -0.055113353 -0.2849875
-0.028003171 0.10794693 -0.07058264 -0.11854621 0.3069833 0.1837835 -0.09920611 -0.06739453
-0.06415214 0.1217008 0.05078949 -0.11387017 0.08959933 0.051078655 -0.07481907 -0.14860123
-0.014514973 -0.14717233 -0.14840448 -0.22609632 0.048150655 0.1251518 0.033435736 -0.13204286
0.0410459 -0.13653328 0.13277659 0.1638695 0.098765135 -0.1380764 0.20965262 0.14798813
-0.008704665 0.03190365 -0.055746753 0.14920951 0.020276355 0.21457773 -0.19019653 0.04644195
0.1463593 0.1743184 0.14395982 0.0062358873 -0.026843075 0.0025249661 0.04655716 -0.092535116
0.080312915 0.07919515 0.30815455 -0.027557546 -0.04286101 0.10601023 0.10164666 0.08934928
0.007597298 0.21355627 0.0023560887 -0.06175918 0.06537085 -0.16712807 0.00018870259 -0.027640773
0.18444774 -0.02947198 -0.09064774 0.11951899 -0.17399131 -0.056560736 0.039387837 -0.22234337
0.040655266 -0.086590074 0.026558485 0.06640837 0.07978199 0.054337922 -0.04435958 0.019816238
0.1195519 0.06768341 0.012970684 0.12295339 -0.16531694 0.0983309 -0.01636092 0.05717914
0.11175205 -0.018588843 0.19551943 -0.26815704 -0.118333824 0.011570328 0.29865536 0.038598903
-0.036248326 -0.10600595 -0.21302524 0.06925559 -0.039649077 0.03853326 0.15004286 0.021822255
0.0788131 -0.11659204 0.07419008 0.07897313 0.032355994 -0.08168861 0.18289168 -0.07557197
0.105112314 0.09249707 -0.00533963 -0.032103058 -0.20209661 0.26343936 0.13264923 0.18859579
-0.14510603 -0.093059964 -0.018817836 0.052895237 0.10680841 0.20396392 0.092377 0.12525357
-0.0052535417 -0.12485932 0.011091945 -0.11771538 0.008305147 -0.062269483 0.13689287 0.102582924
-0.048379794 -0.14868604 -0.02787431 0.14784284 -0.010224427 0.11236247 0.20756555 -0.03171712
0.0709806 0.1019803 0.13037933 -0.024333848 -0.056666292 0.109719366 0.10532939 -0.22499308
0.0857908 -0.19492757 0.09289317 0.14338382 -0.113649905 0.24056913 -0.19584535 0.033411663
0.047811907 0.20625667 -0.07996936 0.11468156 0.17069925 0.023447754 -0.16279069 -4.6420904e-05
-0.06014066 0.076009884 -0.08015678 -0.054956313 -0.017909959 0.0017788502 0.04015223 0.050900392
-0.017406836 0.0010663361 0.022040498 0.2131448 -0.10791354 -0.10828798 0.10262358 0.08882917
0.11247035 -0.09120818 -0.1709891 -0.003246131 -0.18361476 0.077261716 -0.044781346 0.4169204
0.09305628 -0.13343748 -0.031500068 -0.010319009 -0.07260136 -0.14563441 -0.07725412 -0.005430421
0.05017867 0.038803704 0.035421558 -0.001147832 -0.09548653 0.09430262 -0.025716249 0.16787514
00000000: 0f98 333d 921d 87bd f5b4 5d3e a830 133e
00000010: a8b3 e63c a644 05be f37f 06be 2a00 6e3d
00000020: 5ceb 523e 2140 a43d 74e7 c9bd 1a66 ca3c
00000030: 96ef d03d e7da 09be c2ae 7ebe 59d8 81bb
00000040: 1bb4 593e 8a66 bf3d 5cbb 153d 0f14 c0bd
00000050: 4983 b63a f7e0 3ebe 5058 063e a383 bf3c
00000060: ccd2 4cbd fa0f d8bb d3b6 1a3e 0f33 3dbe
00000070: 1c7d 97be cece d43d cd31 3dbe c944 3b3e
00000080: b15f 003e 1136 a0be cc62 74be af55 d8bd
00000090: 6e8a a9bd 7896 953c 669c 80be b14a 08be
000000a0: e53a 163e eb6a 0e3d 548c f23d 2256 823c
000000b0: 68ac 55be aad7 503e 8abe 61bd e2e9 91be
000000c0: e866 e5bc 4813 dd3d a28d 90bd 5bc8 f2bd
000000d0: ea2c 9d3e be31 3c3e 932c cbbd 2506 8abd
000000e0: 3262 83bd 453e f93d a408 503d c434 e9bd
000000f0: db7f b73d da37 513d be3a 99bd ec2a 18be
00000100: 36d0 6dbc 58b4 16be 58f7 17be cb85 67be
00000110: 9f39 453d cb27 003e e9f3 083d 3e36 07be
00000120: bf1f 283d 61cf 0bbe 96f6 073e 68cd 273e
00000130: 6045 ca3d e663 0dbe 2daf 563e 338a 173e
00000140: 039e 0ebc 67ad 023d b556 64bd 61ca 183e
00000150: 991a a63c 44ba 5b3e e1c2 42be ea39 3e3d
00000160: 36df 153e 8680 323e 346a 133e 6a56 cc3b
00000170: 02e6 dbbc e779 253b b8b2 3e3d 0d83 bdbd
00000180: 197b a43d 1131 a23d 6fc6 9d3e 5dc0 e1bc
00000190: 078f 2fbd e41b d93d 202c d03d c1fc b63d
000001a0: c1f2 f83b 7fae 5a3e 9c68 1a3b 32f7 7cbd
000001b0: 27e1 853d 9f23 2bbe 77de 4539 e76e e2bc
000001c0: dedf 3c3e 396f f1bc 86a5 b9bd 5fc6 f43d
000001d0: c72a 32be 3bac 67bd 2455 213d fbad 63be
000001e0: 2386 263d 2356 b1bd 2e91 d93c 1d01 883d
000001f0: bd64 a33d 7191 5e3d 64b2 35bd aa55 a23c
00000200: a0d7 f43d 9a9d 8a3d fe82 543c fdce fb3d
00000210: d848 29be b661 c93d 5607 86bc ad34 6a3d
00000220: 42de e43d a147 98bc 3f36 483e e14b 89be
00000230: 0159 f2bd 7991 3d3c 5be9 983e e219 1e3d
00000240: 2079 14bd a619 d9bd 4a23 5abe e0d5 8d3d
00000250: 1267 22bd 0dd5 1d3d d6a4 193e 96c4 b23c
00000260: c368 a13d cfc7 eebd f8f0 973d aabc a13d
00000270: b887 043d 5c4c a7bd f547 3b3e 7ac5 9abd
00000280: 2045 d73d 1b6f bd3d 10f8 aebb 7f7e 03bd
00000290: 6af2 4ebe 86e1 863e 33d5 073e 411f 413e
000002a0: ad96 14be 3996 bebd dd27 9abc ada8 583d
000002b0: 5ebe da3d ebdb 503e 2730 bd3d 7942 003e
000002c0: e725 acbb 3eb6 ffbd fdba 353c c314 f1bd
000002d0: 5012 083c 490e 7fbd a52d 0c3e ff16 d23d
000002e0: e429 46bd 2741 18be aa58 e4bc 1d64 173e
000002f0: 5b84 27bc 4b1e e63d 108c 543e d0e9 01bd
00000300: 475e 913d 0cdb d03d 2982 053e c757 c7bc
00000310: ea1a 68bd 8cb4 e03d efb6 d73d 9664 66be
00000320: 16b3 af3d 189b 47be c63e be3d 35d3 123e
00000330: 48c1 e8bd c157 763e af8b 48be abda 083d
00000340: 6bd6 433d f334 533e fac6 a3bd 2ade ea3d
00000350: c9cb 2e3e 8115 c03c 9ab2 26be 11b4 42b8
00000360: 0d56 76bd 12ab 9b3d 3d29 a4bd df19 61bd
00000370: e8b7 92bc 4f28 e93a aa76 243d ee7c 503d
00000380: c898 8ebc 4dc4 8b3a 468e b43c a142 5a3e
00000390: c601 ddbd 17c6 ddbd 502c d23d 11ec b53d
000003a0: db56 e63d 5bcb babd c417 2fbe 0abd 54bb
000003b0: 8205 3cbe 643b 9e3d a56c 37bd 9776 d53e
000003c0: 4a94 be3d d6a3 08be 3706 01bd 1011 29bc
000003d0: 06b0 94bd 3021 15be 6837 9ebd acf1 b1bb
000003e0: 2688 4d3d a2f0 1e3d 3216 113d da72 96ba
000003f0: 718e c3bd bb21 c13d e2aa d2bc 76e7 2b3e

network_body._body_endoder.seq_layers.2.bias f4 [128]
0.028264286 0.024295187 0.008923106 0.010310742 0.013293717 0.020923251 0.017256567 0.020664083
0.01650587 0.0075942646 0.012887458 0.012728042 0.030968722 0.027176816 0.040474996 0.018516447
0.020671006 0.020052144 0.018537873 -0.00066119304 0.016324643 0.020162417 0.0130448 0.012542976
0.028064791 0.009389336 0.03121422 0.022233881 0.025488148 0.020097168 0.035501055 0.032323055
0.024128394 0.030614724 0.03645677 0.018403865 0.019510759 0.030952403 0.024280177 0.009099864
0.011806254 -0.0028926346 0.03264328 0.025385814 -0.023911834 0.009098549 0.009916148 0.019937871
0.020642698 0.032857995 0.011087923 0.026654284 0.023295153 0.020867452 0.029821057 0.0067643956
0.01840147 0.015085328 0.02667557 0.025890606 0.016814198 0.0074415216 0.04378288 0.021531029
0.024307426 0.03195354 0.021305872 0.026198838 0.008182735 0.014014711 0.0139047615 0.03329943
0.037550054 0.05447895 0.029902302 0.010322135 0.01805513 0.03084185 0.03240585 0.019263979
0.014181261 0.018242344 0.03409236 0.02992037 0.017433854 0.017651582 0.01138656 0.012876936
0.026495777 0.023765704 0.0056296405 0.0123993 0.023967104 0.04156633 0.014871972 0.019327847
0.057782486 0.013017291 0.020981694 0.025491174 0.021431586 0.021727411 0.03650151 0.036352623
0.01279659 0.021631287 0.013945571 0.014896117 0.009738267 0.049116593 0.019805456 0.020564869
-0.011967719 0.01583112 0.007602258 0.016649317 0.010371637 0.009898785 0.018659545 0.011407359
0.02685773 0.022617893 0.031268273 0.016198443 0.0066964966 0.038624253 0.012774884 0.036370765
00000000: 818a e73c b306 c73c 3832 123c 63ee 283c
00000010: e4cd 593c 3d67 ab3c a55d 8d3c b947 a93c
00000020: 5137 873c 4fd9 f83b eb25 533c 4789 503c
00000030: 1eb2 fd3c eaa1 de3c 1cc9 253d ceaf 973c
00000040: 3e56 a93c 6544 a43c bddc 973c ea53 2dba
00000050: 42bb 853c a72b a53c dbb9 553c 0e81 4d3c
00000060: 22e8 e53c bbd5 193c f7b4 ff3c d423 b63c
00000070: 85cc d03c d1a2 a43c 8e69 113d 2e65 043d
00000080: e9a8 c53c bbcb fa3c b253 153d b4c3 963c
00000090: 07d5 9f3c e58f fd3c 39e7 c63c 9917 153c
000000a0: 056f 413c 5b92 3dbb f6b4 053d e9f5 cf3c
000000b0: c0e2 c3bc 1512 153c 5777 223c bf54 a33c
000000c0: e01a a93c 1b96 063d 1faa 353c 165a da3c
000000d0: 7ad5 be3c 38f2 aa3c 4a4b f43c dda7 dd3b
000000e0: aebe 963c 7428 773c ba86 da3c 8918 d43c
000000f0: eebd 893c 02d8 f33b ad55 333d d761 b03c
00000100: 5e20 c73c b7e1 023d a789 ae3c f29e d63c
00000110: e110 063c f59d 653c ccd0 633c fc64 083d
00000120: 16ce 193d 5225 5f3d acf5 f43c 2c1e 293c
00000130: 5ae8 933c 0ca8 fc3c ffbb 043d 7ecf 9d3c
00000140: 8558 683c f870 953c 6ea4 0b3d 901b f53c
00000150: 71d1 8e3c 0d9a 903c b28e 3a3c c9f9 523c
00000160: ac0d d93c 4bb0 c23c d978 b83b 6f26 4b3c
00000170: a956 c43c 7541 2a3d 92a9 733c 6f55 9e3c
00000180: 54ad 6c3d 7a46 553c cde1 ab3c ded2 d03c
00000190: 4b91 af3c affd b13c 9b82 153d 7de6 143d
000001a0: caa8 513c 1934 b13c f77b 643c d80e 743c
000001b0: 418d 1f3c 7b2e 493d 0d3f a23c a877 a83c
000001c0: 4014 44bc 44b0 813c 5d1c f93b 2664 883c
000001d0: cced 293c 832e 223c e7db 983c eee5 3a3c
000001e0: be04 dc3c 2949 b93c 2913 003d 99b2 843c
000001f0: 496e db3b 7734 1e3d bf4d 513c 83f9 143d

network_body._body_endoder.seq_layers.2.weight f4 [128, 128]
0.025230914 -0.024133043 0.05593569 -0.26611608 0.1873658 -0.10315647 0.15968224 -0.09889098
0.04948874 0.08826292 0.06595554 0.08222392 0.0013977817 0.044335842 0.13072316 0.11424529
-0.014385247 0.060663156 -0.029735375 -0.031650126 -0.092241146 0.061994094 0.040463336 0.005508993
0.20286898 0.05748229 0.17115982 0.02960981 -0.14779893 0.029485716 0.12056783 -0.035028543
0.048546728 0.068425946 -0.041363668 -0.13347612 -0.177028 -0.1869034 -0.14487228 0.08734733
-0.070209675 -0.121943854 -0.081381395 0.06284647 -0.011853332 0.14009766 -0.076777324 -0.14968716
0.16934516 -0.018877499 0.0657274 0.15870677 -0.056165144 0.14475128 0.10405415 0.093779325
0.29330534 -0.26323697 -0.03344077 0.15739274 -0.051102277 -0.025223903 -0.16756508 0.14920884
0.12063285 0.12393722 -0.035243694 0.10293256 -0.050650213 -0.13175508 0.087670565 -0.20559734
-0.019516895 0.08337441 0.051476713 0.00434541 0.12751961 0.010088294 -0.026478333 -0.030821431
0.039461683 -0.29712978 0.22386907 -0.07309654 0.10497518 -0.09325482 -0.114082225 -0.010857949
-0.08842287 0.021203928 0.05614957 0.024985723 0.10915633 -0.036931537 0.13129826 0.09732044
-0.012307757 0.097677894 0.0061424496 0.027695531 0.04480262 0.062995225 -0.030777767 0.087198064
-0.19716072 -0.13852349 -0.16114418 0.01946035 0.07693532 -0.20065214 -0.18798509 0.061959237
0.0994834 -0.0006538336 -0.004263906 -0.13176319 0.03982212 0.044249073 -0.06338719 0.121876515
0.099625126 0.044282403 0.008815538 0.17640759 0.06601546 0.068682976 0.026394006 -0.079704024
-0.10879601 0.082755454 -0.0043688565 0.0758627 0.10108324 0.04966818 -0.013721025 -0.12676196
0.16927505 0.0051965355 0.04692994 -0.011650828 0.179684 0.039927125 0.13325459 0.062985554
-0.02542666 0.07126779 -0.16666572 0.11758987 0.10081102 0.022255806 -0.14867271 0.024276042
0.14077842 0.066791356 -0.09202276 -0.055898204 -0.121181734 -0.0972968 0.15145746 -0.055737752
0.09070899 0.022183955 0.08853385 0.0013839884 -0.15279579 -0.066256806 -0.034119245 0.02273731
0.09568636 -0.051186316 -0.37536386 0.10031504 0.0908636 0.03422912 0.017045163 0.04631892
0.08673959 -0.044598278 -0.005635038 0.03243237 -0.020403404 0.07852941 -0.047561433 0.020141318
0.12479745 -0.09646057 0.118303604 -0.06064551 -0.07549712 -0.014140719 0.04246453 0.09970199
-0.21440826 -0.14081177 0.094066426 0.15711798 -0.07775456 0.20154104 0.00578742 0.0373395
-0.10425585 -0.02193517 -0.13257512 0.06851284 -0.032466438 -0.07984557 -0.0100178 0.05385273
-0.104622796 -0.11720112 -0.060732417 -0.21909529 0.0763787 -0.05524978 -0.11186469 0.042076744
-0.055859577 0.038189728 -0.03915386 0.09974056 -0.33799246 0.18534803 0.09783313 0.19815919
-0.13968413 -0.05129011 -0.08506455 -0.037699137 0.1997985 0.12406384 0.09430407 -0.021391883
-0.21903375 -0.0036352926 -0.049015924 0.10839525 -0.0062487232 -0.025471518 -0.12075531 -0.06885602
0.1532253 0.10498953 -0.15754709 0.05769613 0.15764415 -0.04206474 0.019935718 0.115596175
0.04445053 0.08267596 -0.17394233 0.057219017 0.08881423 0.11459738 0.064846344 0.0132573005
00000000: 10b1 ce3c a9b2 c5bc d21c 653d 5e40 88be
00000010: d2dc 3f3e b343 d3bd be83 233e 5b87 cabd
00000020: b4b4 4a3d 31c3 b43d b313 873d 0465 a83d
00000030: c535 b73a 8099 353d 4bdc 053e 6ff9 e93d
00000040: 19b0 6bbc ee79 783d 9a97 f3bc 90a3 01bd
00000050: ede8 bcbd 85ed 7d3d e2bc 253d c884 b43b
00000060: e3bc 4f3e 8d72 6b3d 8544 2f3e 4690 f23c
00000070: 9a58 17be 078c f13c 44ec f63d 177a 0fbd
00000080: efd8 463d e722 8c3d f36c 29bd f7ad 08be
00000090: d446 35be 9b63 3fbe 6659 14be 28e3 b23d
000000a0: 17ca 8fbd b3bd f9bd 4aab a6bd a6b5 803d
000000b0: 7a34 42bc c375 0f3e 6e3d 9dbd 9747 19be
000000c0: d168 2d3e fca4 9abc 169c 863d 0784 223e
000000d0: 6c0d 66bd ae39 143e 581a d53d 600f c03d
000000e0: 1e2c 963e ffc6 86be 30f9 08bd 902b 213e
000000f0: 9f50 51bd 5ca2 cebc 2e96 2bbe 34ca 183e
00000100: 5b0e f73d ccd2 fd3d b15b 10bd 4ece d23d
00000110: 9976 4fbd ceea 06be a08c b33d 1c88 52be
00000120: e5e1 9fbc 34c0 aa3d 3fd9 523d f163 8e3b
00000130: 8094 023e 5f49 253c 17e9 d8bc 3a7d fcbc
00000140: 93a2 213d 6521 98be ef3d 653e a4b3 95bd
00000150: 3afd d63d 62fc bebd f1a3 e9bd 8ae5 31bc
00000160: 0d17 b5bd dcb3 ad3c 17fd 653d dcae cc3c
00000170: 5b8d df3d 8645 17bd 0d73 063e f04f c73d
00000180: 79a6 49bc 590b c83d 9a46 c93b bde1 e23c
00000190: f482 373d a403 813d a821 fcbc e694 b23d
000001a0: 80e4 49be 1ad9 0dbe fb02 25be 506b 9f3c
000001b0: 4490 9d3d c177 4dbe 2a7f 40be f8c8 7d3d
000001c0: f4bd cb3d 0866 2bba 3cb8 8bbb eeec 06be
000001d0: 851c 233d 843e 353d 25d1 81bd 659a f93d
000001e0: 4208 cc3d 7761 353d 0c6f 103c 31a4 343e
000001f0: 1d33 873d a9a9 8c3d 3e38 d83c dd3b a3bd
00000200: 71d0 debd b17b a93d a028 8fbb e75d 9b3d
00000210: bb04 cf3d dd70 4b3d 26ce 60bc e3cd 01be
00000220: 7056 2d3e b347 aa3b 9c39 403d 1de3 3ebc
00000230: 15ff 373e a08a 233d e473 083e 92fe 803d
00000240: 924b d0bc d9f4 913d 6baa 2abe f5d2 f03d
00000250: 0276 ce3d cf51 b63c a93d 18be 8dde c63c
00000260: 3828 103e e8c9 883d 6e76 bcbd 84f5 64bd
00000270: 212e f8bd 8b43 c7bd aa17 1b3e 454d 64bd
00000280: a3c5 b93d 20bb b53c 3c51 b53d f266 b53a
00000290: 8076 1cbe a6b1 87bd 9fc0 0bbd 9843 ba3c
000002a0: 36f7 c33d bea8 51bd b12f c0be f971 cd3d
000002b0: b216 ba3d d533 0c3d 4ca2 8b3c e8b8 3d3d
000002c0: 87a4 b13d afac 36bd 20a6 b8bb ced7 043d
000002d0: 0a25 a7bc 07d4 a03d c7cf 42bd 68ff a43c
000002e0: ce95 ff3d 1f8d c5bd 2949 f23d 6d67 78bd
000002f0: 3c9e 9abd 79ae 67bc 49ef 2d3d 8f30 cc3d
00000300: d78d 5bbe f630 10be e6a5 c03d 89e3 203e
00000310: c83d 9fbd c660 4e3e 66a4 bd3b 4ef1 183d
00000320: 1784 d5bd 63b1 b3bc c6c1 07be 7650 8c3d
00000330: 87fb 04bd 1386 a3bd b321 24bc ae94 5c3d
00000340: 7a44 d6bd 2407 f0bd 8ec2 78bd 845a 60be
00000350: 706c 9c3d 984d 62bd 5119 e5bd aa58 2c3d
00000360: 03cd 64bd d56c 1c3d cc5f 20bd c744 cc3d
00000370: 590d adbe e0cb 3d3e bc5c c83d 3eea 4a3e
00000380: 5b09 0fbe 9415 52bd 5336 aebd 696a 1abd
00000390: fa97 4c3e 2f15 fe3d 7e22 c13d 083e afbc
000003a0: 624a 60be 173e 6ebb ecc4 48bd 54fe dd3d
000003b0: 17c2 ccbb a5a9 d0bc 8f4e f7bd 6304 8dbd
000003c0: 18e7 1c3e c004 d73d 0654 21be c752 6c3d
000003d0: 786d 213e 144c 2cbd 3b50 a33c b0bd ec3d
000003e0: c211 363d 0452 a93d f01d 32be 7d5e 6a3d
000003f0: 3ce4 b53d 08b2 ea3d 29ce 843d 2635 593c
