results/phase2_t1_player_dont_move/NPCAgent/NPCAgent-113955.onnx (onnx, 102260 bytes, 9 tensors)

action_model._continuous_distribution.log_sigma f4 [1, 2]
000000 3a a7 13 3b dd dc 1c bb
       0.0022530095 -0.0023935356

action_model._continuous_distribution.mu.bias f4 [2]
000000 52 da 87 3b d0 e2 c8 3b
       0.004145899 0.006130554

action_model._continuous_distribution.mu.weight f4 [2, 128]
000000 84 fe 82 3b 96 3a 08 bc c7 7c 8f 3d 1e e2 8c bb
       0.003997626 -0.008314749 0.07006221 -0.004299416
000010 5f 84 d7 3b fd cb d0 3c 68 db 9a bc 7b 83 87 3c
       0.006577059 0.025487894 -0.01890345 0.016542187
000020 9b 37 65 3c 59 c4 f3 39 5e 63 c3 3a e7 85 94 bb
       0.013990308 0.00046494862 0.0014906933 -0.004532564
000030 72 cb c7 3a 29 55 ea bc 07 31 df b9 42 61 a8 3c
       0.0015243127 -0.02860506 -0.00042570403 0.020554189
000040 79 cd c5 bb d2 fb 87 3b 02 c7 a6 ba c7 53 ca bb
       -0.006036457 0.0041498924 -0.0012724104 -0.006174538
000050 b6 93 41 3c f5 68 8b bc 38 76 41 3d b0 fb 84 3c
       0.011815002 -0.01701782 0.047231883 0.016233295
000060 ca 11 05 bd 60 f3 1c bd 5b a9 d2 ba 5c 2c ad ba
       -0.032487668 -0.038318038 -0.00160722 -0.0013212073
000070 08 c6 01 3c d5 e0 4f bd 9c ca 99 3c bd 79 eb bc
       0.0079207495 -0.050751526 0.01877337 -0.028744573
000080 ba cd 8e bc e0 a4 86 3b 5d ba 30 3c e0 f5 da 3b
       -0.017432082 0.00410901 0.01078662 0.0066821426
000090 8e cd 2e 3c 8f d9 9d 3b 29 b1 0a 3c 90 36 26 3c
       0.010669125 0.004817195 0.00846509 0.010144845
0000a0 c7 d8 02 39 4d 41 6f bb af 49 6f ba 18 61 32 3d
       0.00012478522 -0.0036507428 -0.0009128106 0.043549627
0000b0 b2 88 f8 bc 28 a9 65 3d c7 a3 be bb 16 85 1a bc
       -0.030338619 0.056069523 -0.0058178636 -0.009431144
0000c0 8e 6f a6 bb 97 5a dc 3c 46 8d 68 ba f2 2e 7f 3c
       -0.0050792163 0.026898665 -0.0008871149 0.0155751575
0000d0 1f 55 23 3d e0 06 ee ba 72 98 53 3c ca 9b a7 bc
       0.0398761 -0.0018160008 0.012914764 -0.020460028
0000e0 91 b5 53 3c be 55 02 3d a9 6f 9f bc b7 5f 53 3c
       0.012921707 0.03182005 -0.019462423 0.012901238
0000f0 df 48 a0 39 bc c6 97 3c cb 80 59 3c 98 fe 4e bc
       0.0003057187 0.018527381 0.013275336 -0.012633942
000100 da 62 f2 3a cf 9d 55 bc 8f c1 58 bc d3 c9 ff bc
       0.0018492595 -0.013038113 -0.013229742 -0.031224167
000110 16 dd 2a 3d 7d 4d 2d 3b 61 a1 f8 bb 94 49 f1 bb
       0.04171475 0.0026443892 -0.0075875972 -0.0073635075
000120 96 3a 6a ba 68 bd 50 b9 e2 37 c9 3c 3c 2f a7 bc
       -0.00089351216 -0.00019906985 0.02456278 -0.020408265
000130 0a 54 df 3b 65 40 37 b9 25 2d 2b 3c 46 a0 17 3d
       0.006815438 -0.00017476229 0.010447775 0.037018083
000140 bf 1c 2a bb 2a 11 ab 3a f6 a7 02 bd 31 a4 75 bc
       -0.0025957075 0.001305138 -0.03189846 -0.01499276
000150 f0 5b e7 3c d0 f5 41 3c df 21 92 3c be d5 2e bc
       0.028242081 0.011838391 0.017838417 -0.010671077
000160 8e 16 aa bc 17 52 ce 3c 0b 7f 2f 3b 78 c5 7e 3b
       -0.020762708 0.025185628 0.0026778604 0.0038875025
000170 fc 03 76 3c 2c 48 0f 3c 93 fa 8f bc f4 88 92 bc
       0.015015598 0.008745234 -0.017575538 -0.01788757
000180 7c cc 93 bc 67 18 bd 3b 9c 8d 8d bc 12 92 f1 bc
       -0.018041842 0.0057707313 -0.017279439 -0.029488597
000190 6c 23 56 bc 09 4d ab 3c 3f 58 03 3d 69 54 f2 3c
       -0.013069969 0.020910757 0.03206658 0.029581266
0001a0 9e 2c 30 3d 7c 67 a1 bc 82 73 70 3c 20 a2 a5 3c
       0.0430113 -0.019702666 0.014675977 0.020218909
0001b0 cd 27 61 3c 65 b9 a2 bc 63 b3 b8 3a 80 50 de ba
       0.013742399 -0.019863794 0.0014091547 -0.0016961247
0001c0 f0 8e 07 3c 63 fc d8 bb 58 25 24 bb 3b 63 aa bb
       0.008273825 -0.0066218837 -0.0025046673 -0.0051998175
0001d0 17 69 ed bc 03 f8 c5 3b 6c ba be bc 46 20 c2 3c
       -0.028980775 0.006041528 -0.023282252 0.02369703
0001e0 24 4c ea ba 6f 0f 54 3c 51 c5 74 bc 82 d0 d3 bc
       -0.0017875475 0.012943133 -0.014939622 -0.02585626
0001f0 04 3b 1b 3c 05 45 36 3b 0e 9f 40 bb e2 75 60 3c
       0.00947452 0.0027812135 -0.002939168 0.01369998
000200 cc 6b 3f bc 5c a3 8c 3c be 0f f4 bb ca bb c1 39
       -0.011683416 0.01716774 -0.0074481657 0.00036951742
000210 26 94 86 3c 1d 4b 90 3c 36 c1 f0 3b 54 46 23 bb
       0.016428065 0.017613942 0.0073472513 -0.0024913745
000220 39 82 1f 3c b1 f4 0d 3d 25 1c fc bc 0b ef a2 bb
       0.009735637 0.034657184 -0.03077514 -0.004972344
000230 23 21 92 3c cd 88 37 3c 5d 64 74 bc 92 05 cf 3b
       0.017838066 0.011202049 -0.014916507 0.0063178027
000240 c1 94 74 bc d2 2c 52 bc 64 14 e2 3c fc 1c dc 3a
       -0.014928044 -0.012828069 0.027597614 0.0016793306
000250 1e 7b 73 3c 45 02 e7 bc f0 9e c0 3c 48 2b 7c 3b
       0.014860896 -0.028199324 0.023513287 0.0038477946
000260 fd 31 1e 3d d1 bf 8a bc bc 8e 99 bc 8f a2 e7 3c
       0.03862189 -0.016937168 -0.018744819 0.028275756
000270 cd ca 8e bc cc 60 2e bd 79 69 c4 3c 95 4c a1 3c
       -0.017430687 -0.04257278 0.023976075 0.019689837
000280 36 f8 ad 3c 10 b7 e5 3c c2 48 24 3c 2b 81 13 bd
       0.02123652 0.028041393 0.010027112 -0.036011856
000290 07 ea b4 3c 80 5a cf bb 3e 18 3e bd ac 3e 04 3d
       0.02208425 -0.006327927 -0.046409838 0.03228633
0002a0 ed ce 0b 3d 72 ac 40 bc 78 22 bf 3c f3 1f d8 bb
       0.034132887 -0.011759864 0.023331866 -0.0065956055
0002b0 6e a7 b2 3b b0 24 db 39 43 2b cc bb 01 b0 a2 3a
       0.005452088 0.0004179827 -0.006230743 0.0012412072
0002c0 ac 88 1c bc d7 8f 6a 3c c8 d6 b0 bc 57 6c 7c bc
       -0.0095540695 0.014316521 -0.02158679 -0.01540669
0002d0 40 a6 56 3d 10 9f 8f 3a ab ae 55 bc 63 ff 7e bc
       0.052404642 0.0010957438 -0.013042132 -0.015563819
0002e0 f5 31 0a 3c 28 8c 0d 3d ac a4 f0 bc 76 45 e1 3c
       0.008434762 0.03455749 -0.029375397 0.027498942
0002f0 cb a6 37 3d f4 68 7e bc 38 80 4a bc 90 87 ea 3c
       0.0448368 -0.015527952 -0.012359671 0.028629094
000300 40 1a ce bc 52 c1 82 3c 00 59 b2 3a b6 b9 24 3b
       -0.025159001 0.015961323 0.0013606846 0.0025135106
000310 9b 26 80 3c e0 2d 7d bc f9 68 bb bc 44 11 a8 bc
       0.015643409 -0.015452832 -0.022877203 -0.020516045
000320 12 76 90 bb 26 47 15 bd 5b 14 3c 3a 0b bf 52 3c
       -0.0044086063 -0.036444806 0.0007174664 0.012862931
000330 b2 69 ac 3b c3 a6 55 bc 87 da a7 bc b6 79 70 3c
       0.0052616233 -0.013040247 -0.020489944 0.014677456
000340 bb 6e 8f 3c 2d 28 ca bc 29 c7 7e bc 94 a6 88 3c
       0.017508855 -0.02467736 -0.015550413 0.016680993
000350 e2 37 13 bd 04 ce fb 3c 23 e3 b2 bc 6f 63 18 bd
       -0.035941966 0.030737884 -0.021836823 -0.037204202
000360 41 4c 93 3c 0e 6d a2 3c 2d 12 fd 3c 87 06 b9 bc
       0.017980697 0.019827392 0.030892456 -0.02258612
000370 bd 90 97 bc 5a a2 ff 3c 59 8c e0 3b 90 54 23 bd
       -0.018501634 0.031205345 0.0068526682 -0.039875567
000380 e4 ec 26 bd f3 12 e6 bc 06 1f f2 bb a0 fc ec 3b
       -0.04075326 -0.028085208 -0.007388952 0.0072322637
000390 97 b9 46 3b f2 b4 34 bc a1 fd c4 bb f6 6e d8 bc
       0.0030323023 -0.011029469 -0.0060116802 -0.026420098
0003a0 28 f6 09 3d 54 6f 27 3d a9 0e 11 3d 08 84 46 3d
       0.03368202 0.040877655 0.03541437 0.04846576
0003b0 68 7e 26 3c 79 24 91 3c 44 8d 8a bc b0 5e b6 3c
       0.010161974 0.017717587 -0.016913064 0.022261947
0003c0 52 e0 e7 3b ca d4 e7 3c 46 6e 8f bb f1 23 b1 bc
       0.0070763016 0.028299708 -0.0043771593 -0.021623584
0003d0 39 5b f7 bb 6d 8a 09 bd 40 87 04 3c 45 3d 42 3c
       -0.0075487164 -0.03357928 0.008088887 0.011855428
0003e0 26 fc 01 bd e3 cc e1 bb ce ad 05 bd d6 2d b6 3a
       -0.031734608 -0.0068908795 -0.032636456 0.0013899158
0003f0 38 82 a0 bc 06 b2 ee bc b7 71 34 bd ac ff 0e 3c
       -0.019593343 -0.029137623 -0.04405376 0.008727949

action_model._discrete_distribution.branches.0.bias f4 [2]
000000 57 70 bc 3b 54 70 bc bb
       0.0057506966 -0.0057506952

action_model._discrete_distribution.branches.0.weight f4 [2, 128]
000000 e0 9f 80 3c eb 13 61 bc 2b 00 08 3c 02 c2 cc bc
       0.015701234 -0.013737659 0.008300821 -0.024994854
000010 b5 3f 07 ba 59 ec 4d bc 0a 44 03 3c 25 26 9a bc
       -0.00051593344 -0.012568557 0.008011827 -0.018817017
000020 08 b6 7d bb 8e a2 a9 3a 5b e8 d9 3b d2 e4 74 bc
       -0.0038713235 0.0012942122 0.0066500134 -0.014947133
000030 1f 92 b5 3b 6a c8 b0 3b e1 58 92 3b 9e 24 be 3c
       0.0055411006 0.005394985 0.0044661616 0.02321082
000040 06 c6 e4 3b a7 b3 93 bb 9b 84 6b bc 88 94 0a bb
       0.006981614 -0.0045075 -0.014374877 -0.002114566
000050 d9 69 37 bc 0b 1b a9 3c e3 07 88 bc 99 31 13 3c
       -0.01119467 0.020642778 -0.016605323 0.008983993
000060 53 7e 82 bb 62 b0 08 bc 40 60 25 bc d8 6c 4c 3b
       -0.003982344 -0.008342834 -0.010093749 0.0031192806
000070 df ae 48 3c 46 f2 f2 bb 74 97 3b 3c 29 03 3d 3c
       0.012248724 -0.007414135 0.011449683 0.011536398
000080 6c 05 4f bc 03 ea be bc f0 14 bd bb a9 2d 94 bb
       -0.01263557 -0.023304945 -0.005770318 -0.0045220447
000090 a2 8f 83 3b b3 7e 2f 3a 12 a6 fd ba ef e4 45 bb
       0.004014925 0.00066946 -0.0019351861 -0.003019627
0000a0 93 56 16 3b 2e 2e 23 bb 9f ff 12 3c a2 c2 06 3b
       0.0022939786 -0.0024899351 0.008972078 0.0020562788
0000b0 60 a7 bb 3a 8b 10 a8 b8 89 a2 be bb cf 7d ff 3a
       0.0014316849 -8.0139456e-05 -0.0058177155 0.001949245
0000c0 c7 6a e8 bb 12 12 84 bc 26 c9 3f 3a 93 0e a5 bb
       -0.007092807 -0.016121898 0.0007316045 -0.005037138
0000d0 4b 5b 7e 3c cf 9d 65 3c a6 2a a3 3c 43 1a 12 bc
       0.015524696 0.014014675 0.019917797 -0.008917394
0000e0 b0 f9 09 bb 19 f6 b4 ba 51 4e 89 3c 86 00 18 3b
       -0.0021053366 -0.0013806253 0.016760977 0.0023193671
0000f0 66 7c e8 3b a6 59 3c bc 91 00 a0 bb 54 ed 4f bc
       0.0070949076 -0.011495983 -0.00488288 -0.012690861
000100 18 bb ae 3b e3 55 49 3c db 32 31 bc 03 f3 59 bb
       0.005332362 0.012288543 -0.010815348 -0.0033256419
000110 d0 97 84 3b 95 89 12 3a 3f 4f a2 3a 71 55 16 3c
       0.004046418 0.00055899593 0.0012383236 0.009175644
000120 93 1c cf 3b 74 97 1c 3b b0 99 e7 3a 0c 94 93 3b
       0.006320545 0.0023893984 0.0017669704 0.0045037325
000130 75 49 2b bb e1 71 13 bc e1 b4 8b 3b 0e 85 e1 bb
       -0.0026136313 -0.008999319 0.004263506 -0.0068823164
000140 d1 ac 79 bc 20 48 4e 3b e6 2d 0f bc 16 71 93 3b
       -0.015238957 0.0031476095 -0.00873897 0.004499565
000150 43 bb 42 bb 03 25 2b 3c 22 63 0f bb 6f f6 89 3c
       -0.0029713667 0.010445836 -0.0021879156 0.016841142
000160 b9 55 4d bc e4 eb 09 bb 43 25 8b bc fb 4e 03 3c
       -0.012532645 -0.0021045143 -0.016985541 0.008014436
000170 1d d4 c6 3a 14 ec 0f 3c 4c fc 42 bc 1b 2a 9a 3c
       0.0015169416 0.008784313 -0.011900973 0.018818906
000180 76 21 25 bb 3c e1 b9 3c 75 e7 ad bb bc b5 8b ba
       -0.0025196946 0.022690408 -0.005307133 -0.001065902
000190 a2 6e 1e 3c 01 4f 99 bb ca 22 6f bc f3 18 4d 3b
       0.009669932 -0.0046786075 -0.014595697 0.0031295388
0001a0 8b 83 bc 38 02 f8 52 b9 ee 4a 45 3a 1a e2 4a 3c
       8.98904e-05 -0.00020119551 0.0007526119 0.012383008
0001b0 ed f5 15 bb 7d 9a 06 3c 29 27 20 3c c5 92 77 3b
       -0.002288218 0.008215544 0.0097749615 0.003777669
0001c0 be 6c db 3b 85 4a 27 3c bf eb 39 bb 5c de 51 3b
       0.0066963127 0.010210638 -0.0028369275 0.0032023406
0001d0 5d 14 85 bb 5c 47 58 bb 3e 39 6e 3a 6e 69 96 3c
       -0.0040612654 -0.0033001518 0.0009087509 0.01836082
0001e0 a5 84 cb bb 8d 80 06 3c a2 43 49 ba 9c e2 4b 3b
       -0.006210881 0.00820936 -0.00076776196 0.0031110412
0001f0 93 99 5b bc fb fc 65 bc 2a b3 ef 3a 34 e0 8b bb
       -0.013403314 -0.014037366 0.0018287648 -0.0042686705
000200 a3 0f f2 3a af 3d 4f 3c 42 5d b9 3a 24 86 bd 3c
       0.0018467795 0.012648984 0.0014142173 0.023135252
000210 f1 c6 c4 ba 5f 00 96 bc de 85 67 ba a0 dc 0d bc
       -0.0015012902 -0.018310724 -0.00088318984 -0.008658558
000220 b7 3a 41 bb f9 d1 28 bc f4 30 56 3a 91 29 89 bb
       -0.002948446 -0.010303968 0.0008170747 -0.0041858633
000230 d9 63 9a bc a4 45 09 3c ae 3c 8e bc 80 13 cb bc
       -0.01884644 0.00837842 -0.017362919 -0.024789572
000240 87 54 91 bc ef 7f 06 ba 51 a4 05 3c a8 44 24 bc
       -0.017740501 -0.0005130758 0.008156852 -0.010026135
000250 2f 34 fe b9 56 06 68 bc f0 38 ab 3c b3 2b 27 3c
       -0.00048485535 -0.014161667 0.020901173 0.01020329
000260 a5 44 b1 bb 33 ee 23 bc b1 1a 85 3c 61 62 15 bc
       -0.0054097944 -0.010005522 0.016248079 -0.009117694
000270 c2 eb 62 bc 81 88 6e 3b 00 76 2d 3c 5a c4 ef bb
       -0.013850154 0.003639728 0.010587215 -0.007317108
000280 70 c4 f5 3b 2b ab 76 3c 79 43 29 3c f8 38 54 3c
       0.007500224 0.015055458 0.010331028 0.0129530355
000290 28 4a ce bc 06 0b 1d 3c 24 d1 83 bb 37 1f f9 ba
       -0.025181845 0.009585148 -0.0040227342 -0.0019006495
0002a0 a3 bc 3e bc 6c 9f c6 3b 54 33 ea b8 8b 4f fa b8
       -0.011641654 0.006061485 -0.0001116755 -0.00011935745
0002b0 3e cf 11 bc 07 9c 38 bb da 9f f0 3b 8f 06 77 ba
       -0.008899508 -0.0028169171 0.0073432745 -0.00094232796
0002c0 87 e6 45 3a 80 2e cf 3b 70 2b 8f 3b 5b cd 55 3b
       0.0007549305 0.006322682 0.004369192 0.0032623622
0002d0 88 be 58 3c 3f d9 2c bc 65 a7 71 bc 31 f9 2b 39
       0.01322902 -0.010549842 -0.014749383 0.00016400662
0002e0 f3 22 0f bc 74 60 34 3b 23 9d 53 3b d4 1e 53 bb
       -0.00873636 0.002752331 0.0032289706 -0.003221442
0002f0 77 de dd 3b 32 41 03 bc af a9 09 3c b1 b1 2e 3b
       0.0067709046 -0.008011149 0.008402272 0.0026656205
000300 a1 da 50 3b 88 c7 a9 3b fc 51 b4 3a c3 57 f8 38
       0.0031868594 0.0051812567 0.0013757343 0.000118419084
000310 b9 d7 83 3c 42 2d 2d bc 84 de 02 3c f2 f3 d9 bb
       0.016094076 -0.010569872 0.007987622 -0.006651395
000320 1d 03 a1 bb 25 5b f5 bb 4e bd 82 3c cd 20 1c bb
       -0.004913701 -0.007487672 0.015959408 -0.0023823262
000330 ec a9 c0 bb 73 d4 63 3c e9 81 d2 3b db 64 af 3c
       -0.0058796313 0.013905632 0.006424178 0.021410396
000340 6a 9c ec ba 4c ad 38 3a 44 c4 3b 3b 8e 59 2a 3c
       -0.0018051986 0.0007044866 0.002865092 0.010397328
000350 02 45 70 3b ee 5f 6c ba 85 07 c9 bb 72 54 2f bb
       0.0036662226 -0.000901698 -0.0061349296 -0.0026753214
000360 60 14 c2 bb 9a 42 1d bc 37 dc e2 3a b7 6b e5 bb
       -0.005922839 -0.009598399 0.0017308061 -0.007001366
000370 2a 1b 44 3c 9b eb 7d 3b 22 92 14 bc 1a 7c e2 3b
       0.011969367 0.0038745168 -0.009068044 0.0069117667
000380 09 c3 17 3b 22 70 1c bc 59 fb 73 bc 8e 24 39 3c
       0.0023157021 -0.009548219 -0.014891469 0.011300219
000390 b8 d5 02 3b 0e 14 37 3b b5 83 60 3c b0 04 d9 bb
       0.0019963812 0.0027935538 0.013703276 -0.0066228732
0003a0 01 59 85 3c 99 d3 1d 3a 2c 2b 39 bc 70 d2 ef ba
       0.016277792 0.0006020605 -0.011301797 -0.0018296968
0003b0 66 74 17 bc 12 bd 30 bc f5 d6 60 bb 6a a8 a3 3b
       -0.00924406 -0.010787265 -0.0034307812 0.0049944418
0003c0 d9 30 43 bc fe d5 ef 3a c3 30 69 3c 2f f7 73 bc
       -0.011913502 0.0018298028 0.014232817 -0.014890476
0003d0 00 df 36 bc 5f 71 65 3c c4 23 85 3c c0 82 07 bc
       -0.011161566 0.014004081 0.016252406 -0.008270919
0003e0 43 33 75 bc e1 c4 a4 bc 3b 4b 9f 3b 98 1a 75 bb
       -0.014965835 -0.02011341 0.004861263 -0.0037399884
0003f0 83 3d ea 3c 71 c0 2e 3c 21 88 9a b8 94 47 1f 3b
       0.028593784 0.010665999 -7.368648e-05 0.0024304138

network_body._body_endoder.seq_layers.0.bias f4 [128]
000000 42 72 f3 3a ec 43 76 bc 5e 4c 95 3b 0b 7b 5f 3b
       0.001857348 -0.015030842 0.004556223 0.003410044
000010 4a ca 25 bb 50 1b 4a 3c 99 0e 8e bb 83 05 d6 ba
       -0.0025297576 0.012335613 -0.0043352363 -0.0016328547
000020 39 55 ee bb cb e3 ca b9 e1 16 45 3c 1b ef a9 3a
       -0.007273343 -0.0003869816 0.012029381 0.0012964936
000030 a3 dc f1 3a b7 87 56 3c a0 d9 98 3b e4 d4 dd 3b
       0.0018452596 0.01309388 0.004664615 0.0067697633
000040 63 bc 69 3c 29 79 12 ba 41 72 30 3c cc ad 35 3c
       0.014266106 -0.0005587512 0.010769428 0.0110888
000050 af e0 94 bb ff 4e 20 3b af b4 0e 3c d5 e5 71 ba
       -0.004543386 0.0024461148 0.0087100705 -0.0009227668
000060 01 aa 5f bc c1 8c 84 3b d5 74 0f 3c fc 23 01 3b
       -0.013651372 0.0040450995 0.008755882 0.0019705286
000070 f9 ab cb bc 3f ec 4a 3b 32 3c 6c 3c 18 01 ef bb
       -0.024862276 0.0030963568 0.014418649 -0.0072938316
000080 f8 af 35 3c c7 11 0b bc 96 bb bf 3b 86 4c 08 bc
       0.0110893175 -0.008488125 0.0058512194 -0.008319026
000090 80 41 42 3b a0 d6 48 bc 7f 8b 22 3c 3b c1 b4 bc
       0.0029641092 -0.012258202 0.009920954 -0.022064796
0000a0 ce 90 59 3c ee ba a0 3a fc de 24 bc 45 b9 ce 3b
       0.013279153 0.0012262741 -0.010062929 0.006308707
0000b0 e0 ea 45 3c 83 9d 85 ba 63 26 50 3c 36 7f 86 3c
       0.012079924 -0.0010194037 0.012704465 0.01641808
0000c0 62 2d 56 bc 87 1c 32 bc 7a c8 f0 bb e5 b8 23 bc
       -0.013072344 -0.010871059 -0.0073481174 -0.009992813
0000d0 e9 da 2b bb f8 00 2b bc 19 c6 d4 3b 7c 8d 01 3c
       -0.002622301 -0.010437243 0.0064933416 0.007907268
0000e0 45 03 43 3c 05 6e e8 bb cf 91 2a bb 6c 4f 7e 3a
       0.011902635 -0.0070931935 -0.002602685 0.0009701166
0000f0 0a 58 18 bc 93 6f fb b9 dc 4e 5a bb 61 4d 2e bb
       -0.009298334 -0.0004795758 -0.0033311164 -0.0026596414
000100 47 f1 b1 3a cd 0c 8c 3c 4a d3 eb 3b e5 8f 54 3b
       0.0013575935 0.017095948 0.0071968185 0.00324344
000110 b0 a1 97 bc a1 9d a7 bb b1 1d e4 bb 1e 44 f3 3b
       -0.018509716 -0.0051152264 -0.0069615473 0.0074238917
000120 b9 7d e0 b9 5d fd bc ba 53 fb 84 bb 35 7f 71 bb
       -0.0004281828 -0.001441877 -0.0040582805 -0.0036849503
000130 f5 54 96 39 ee fe af 3b e1 b8 88 ba 12 ad 4d 3b
       0.00028673527 0.005370966 -0.0010431075 0.0031383676
000140 bb bf 13 3c 78 21 1e 3c 45 16 31 3b e8 64 1f 3c
       0.00901788 0.009651534 0.002702133 0.009728648
000150 41 cb 95 3b ee c3 37 bb a0 19 88 3a e3 c5 27 3b
       0.004571349 -0.0028040367 0.0010383613 0.0025600127
000160 b0 79 64 3c 0d 91 24 bb 66 73 a2 3b 15 f6 7b bb
       0.013945028 -0.002511087 0.004957604 -0.0038446237
000170 c6 12 7a 3c e9 e1 8b 3c 43 15 03 3c 85 63 ae 3c
       0.015263265 0.017075496 0.008000675 0.021287689
000180 55 96 e6 b9 59 86 a0 bb 20 10 50 3c 22 3e 14 3a
       -0.00043981025 -0.004898828 0.012699157 0.00056550105
000190 3b 52 5f 3c 9f 5b 8b bb 8b 34 81 bb 7c d9 50 bb
       0.013630445 -0.0042528654 -0.003943031 -0.0031867912
0001a0 ea fc b5 3b b6 48 f2 3a 55 28 d0 3c 75 80 0b bc
       0.0055538313 0.0018484804 0.025409857 -0.008514513
0001b0 c7 cf b1 3b 7f 59 37 bc 9c a3 4a 3c c7 f5 74 3c
       0.0054263803 -0.011190771 0.012368109 0.014951176
0001c0 bd a7 47 bc 36 e0 e1 3b 1c 16 ff 3b d2 91 23 bc
       -0.012185988 0.006893183 0.007784618 -0.009983497
0001d0 c1 7c a3 3b e2 86 aa 3b d8 df 72 bc 07 e5 ba bb
       0.004989237 0.0052040676 -0.014823876 -0.0057035717
0001e0 c1 11 3f bc a0 96 c9 3b 0d 99 d7 3a e1 f8 b7 bb
       -0.011661948 0.006151989 0.0016448811 -0.0056143855
0001f0 b9 c1 73 3a 93 9e ba bb a1 44 d3 3c 25 1e a7 3b
       0.0009298581 -0.005695173 0.02578956 0.005100029

network_body._body_endoder.seq_layers.0.weight f4 [128, 60]
000000 4a 46 05 3e a3 2a a9 3d c0 4d df bd 0d f5 36 bd
       0.13015094 0.082600854 -0.109035015 -0.044667292
000010 b5 99 04 3b 2f 46 61 3d 9f 3a d4 3b 22 a1 78 be
       0.0020233218 0.054998573 0.0064767147 -0.24280217
000020 db 68 80 bd c5 2e bc bd 97 e4 e3 bd 7b 70 04 3e
       -0.062699996 -0.09188608 -0.111275844 0.12933533
000030 f9 82 23 be 4a 87 53 3e 7e fd 84 3d 6d 2f 3c be
       -0.15967931 0.20657077 0.06493662 -0.18377466
000040 58 b5 51 be f6 61 ea 3b 4d 03 e3 3d 9e aa f8 3d
       -0.20479333 0.007152791 0.11084614 0.12141918
000050 83 c3 88 3d 4d 14 06 be e0 1f 52 3d 95 5e 5f be
       0.06677916 -0.13093682 0.05129993 -0.21813424
000060 57 e0 ad 3d 4b 53 70 be 21 c7 20 3e f3 a9 40 bd
       0.08490055 -0.23469274 0.15700962 -0.047037076
000070 b5 26 ec bb 4b f9 3a 3c 6c 9f 53 bc 3f 09 e0 bc
       -0.0072067627 0.011411975 -0.012916427 -0.027348159
000080 75 e3 44 3e a1 90 11 3d 62 83 3d 3e 4a d0 2a be
       0.19227393 0.03553832 0.1850715 -0.16681018
000090 a3 0e 11 3b 25 02 fb 3d 3e d9 5d bc 7b 0e 3e be
       0.0022133968 0.122562684 -0.013540564 -0.18560211
0000a0 e4 81 77 be 9b 12 11 b9 8d 00 08 3d d0 e8 9b 3d
       -0.24170643 -0.00013835209 0.03320365 0.07612765
0000b0 bd 92 14 be e5 22 4c bd 63 24 75 bd bf d0 d0 3d
       -0.14509101 -0.049837966 -0.059849154 0.10196065
0000c0 b3 df b7 bd b0 eb b9 3c 9e 7d 52 3d ff 1b 09 3d
       -0.08978214 0.022695392 0.05138933 0.033473965
0000d0 2d 9d d8 bc 03 26 26 bc f4 76 c0 bd 64 32 81 be
       -0.026442135 -0.010140899 -0.093976885 -0.25233757
0000e0 80 8d 51 bc 13 a9 0c bd a9 1f b1 3c 72 aa 08 3e
       -0.012790084 -0.03434093 0.021621542 0.1334627
0000f0 94 13 58 bd b3 88 96 3c 0d 99 1a 3d 4e be 48 be
       -0.052753046 0.01837573 0.037743617 -0.19603845
000100 d8 36 33 3e 61 c8 d3 bd 4a c7 1d 3e d4 db e2 bc
       0.1750139 -0.103409536 0.15408054 -0.027692713
000110 94 49 72 3b 2e b7 b3 3d 45 2d 30 3e 65 16 17 be
       0.0036970126 0.08775173 0.17204769 -0.14754637
000120 b2 8c a8 3d 39 80 9e bd 34 b7 11 be 58 29 24 3d
       0.082299605 -0.077393 -0.14230043 0.04007849
000130 62 da e3 3c 82 8e b2 bd 45 3f 63 be 21 aa 3e 3e
       0.027814094 -0.087185875 -0.22192104 0.18619587
000140 00 f2 9d bd 72 db 0b 3c ec 67 97 be 60 88 25 be
       -0.077121735 0.008536207 -0.29571474 -0.16165304
000150 56 1f ce be 78 4e f8 3d ce ee 9f bd 67 7e 4c 3e
       -0.40258282 0.12124342 -0.0780922 0.19970094
000160 61 3e c8 3d cf 77 61 be ca a4 6c bd e0 e1 f6 bc
       0.09777523 -0.2201836 -0.057774343 -0.030137002
000170 ed 65 a3 3d f2 51 62 bc a2 66 d4 bc 0e c0 9b bc
       0.07978425 -0.013813483 -0.025927845 -0.019012477
000180 60 fc 17 be 71 c2 6c be 0e a6 62 bd f4 6d b6 be
       -0.14842367 -0.23121049 -0.055334143 -0.35630763
000190 4d 7e cc bc 71 76 ab 3c ee 7d cb ba 81 75 29 be
       -0.024962569 0.0209305 -0.0015525201 -0.1654873
0001a0 28 7f 0c be 64 44 3b be 0c d0 2d 3d fd 0a 87 3e
       -0.13720381 -0.18287808 0.042434737 0.2637557
0001b0 bd 1d ad bd 7a e9 0c 3d b1 22 2b bd e5 c0 1f 3e
       -0.08452938 0.034402348 -0.04178113 0.15600927
0001c0 5a c9 2a bd 34 e5 eb bd 37 30 df bd c5 f3 da bc
       -0.04169593 -0.115183264 -0.10897868 -0.026727566
0001d0 35 4e c5 3d 0c 5f cc 3d 99 88 8b 3d fb 29 40 be
       0.096340574 0.09979066 0.06813163 -0.18766014
0001e0 ec 0a bc be 2c c2 07 3c 98 09 ac 3d b1 aa 81 3b
       -0.36727083 0.00828604 0.08400267 0.0039571156
0001f0 c2 28 fa 3c 9f fc da 3c e8 c0 0d bd 97 d3 60 be
       0.030537013 0.026731787 -0.034607798 -0.21955715
000200 b2 89 04 3e a3 b0 d6 3c b9 b6 ba bc 90 4d 65 bd
       0.12943152 0.026207274 -0.022792207 -0.055982172
000210 33 47 74 bb c4 a1 9b 3c 6e 31 ae bd 17 1e e6 bc
       -0.0037273883 0.018998034 -0.08505522 -0.02809052
000220 bc ac 39 3e ad 0d 2f 3d 91 c1 b4 3b 12 39 35 3d
       0.18132299 0.04273765 0.005516239 0.04424388
000230 ae 10 d5 3d 60 e4 c3 bd 24 71 d4 bd 4b 6d 1f 3d
       0.10403572 -0.095650434 -0.10373142 0.03892259
000240 f7 11 69 be 16 48 64 be 4e 14 5e 3e 7b 5a 91 bd
       -0.2276076 -0.22293124 0.21687433 -0.07097336
000250 e4 e3 9a bd 21 e9 b4 bd 42 55 69 be 2d 95 98 3d
       -0.07562998 -0.08833528 -0.2278643 0.07450328
000260 53 37 3c 3e 5d 1f 99 be d0 ac dc bd 4a eb 7e bc
       0.1838048 -0.2990674 -0.10775149 -0.015559027
000270 b3 cc 2d 3d 3f 50 bc bb 0c a6 3e 3e 11 8c f0 3d
       0.042431545 -0.005746871 0.1861803 0.117454655
000280 d4 f7 0f be e4 c7 d7 bc f6 72 f2 3c ab 99 03 3e
       -0.14059383 -0.026340432 0.029595833 0.12851588
000290 85 23 f5 3d 75 ba be bb 82 56 df bc 20 78 03 be
       0.119696654 -0.0058205673 -0.02726293 -0.12838793
0002a0 3f 3b b4 bc dd c5 d6 3c 3f 8c 2e be ee 10 39 3e
       -0.022000907 0.026217395 -0.17045687 0.18072864
0002b0 92 59 b3 bd a3 ff 07 be f9 b5 61 3e c7 f0 29 3e
       -0.087573186 -0.13281111 0.22042073 0.16595756
0002c0 7b 98 6e bc 4e 66 5d be ce 82 ba bd 55 55 00 bc
       -0.014562721 -0.21621057 -0.0910698 -0.007832845
0002d0 ed 47 5f 3d da 45 8b be 42 3e 3b be 48 79 a9 3d
       0.054511953 -0.2720173 -0.18285468 0.08275086
0002e0 2b 11 b7 3c 30 13 5e 3d d8 44 e6 bd 52 23 f8 3d
       0.022347054 0.054217517 -0.112436 0.12116112
0002f0 f6 0a 56 3d 4e 00 98 bd 41 88 cf bc 7a 35 4c 3e
       0.052256547 -0.07421933 -0.025333526 0.19942275
000300 0d fe 93 3d 53 43 68 be 91 8a ce 3d dc 43 45 bd
       0.07226191 -0.22681932 0.10085023 -0.04816042
000310 54 43 38 3d 22 3b 1b be c0 60 c6 bd d5 97 7a 3d
       0.044986084 -0.15159276 -0.09686422 0.061179955
000320 d4 58 d5 3d 47 a1 12 bd 4e a9 68 3d af f2 10 bb
       0.10417333 -0.035798337 0.056802087 -0.0022117307
000330 ea b9 3b bd 4c b4 42 3e 20 12 93 3c 56 dd 3d 3d
       -0.0458316 0.1901409 0.017952979 0.04635366
000340 2a c6 05 bd d0 c3 cd 3d 1d e3 34 3e b5 02 01 3e
       -0.032659687 0.10047114 0.17664762 0.12598689
000350 fd 74 86 3e fb 09 8c bd 1a 38 27 3d 46 ce 27 be
       0.2626113 -0.06837841 0.040824987 -0.16387281
000360 21 96 19 3e 5b 29 bd 3d 17 9f e3 bd 04 a1 90 3e
       0.14998676 0.092364036 -0.11114328 0.28247845
000370 de e3 ad bd 96 68 b2 bd 51 3e 49 3d 11 94 36 bd
       -0.08490728 -0.087113544 0.049131695 -0.0445748
000380 3e 88 64 3e 30 8c 31 be 7c a5 8a bd 23 0b bd 3d
       0.22317597 -0.17338634 -0.06769845 0.0923064
000390 b6 9b 03 3d ec 1a 03 3e 1c 92 3e be 28 f9 da 3d
       0.03213092 0.12803239 -0.18610424 0.10692054
0003a0 fc c5 6a 3e 6c 18 49 3e fc 69 5b be 50 a1 2e 3e
       0.22927088 0.19638222 -0.21427149 0.17053723
0003b0 8d b5 27 bd 15 f9 18 3e 47 7b 81 be cc 66 cd 3d
       -0.040944625 0.14938767 -0.25289366 0.100293726
0003c0 f7 b4 8a bd 91 25 a7 bd 3b df 68 3e b0 2e a5 3c
       -0.067727976 -0.08161462 0.22741406 0.020163864
0003d0 9b 40 15 3d d7 ef d3 3b 19 ea 2c 3e c4 74 81 3e
       0.036438566 0.0064678 0.16886176 0.25284398
0003e0 0f 85 06 be b3 7d 1d bd 4e 6a 38 3e be f4 bd bd
       -0.13136695 -0.038449954 0.18009302 -0.092751965
0003f0 f6 2d 59 be 01 57 9a 3e 4d 82 d2 3b 03 14 6e 3e
       -0.21208939 0.30144504 0.0064242245 0.23249821

network_body._body_endoder.seq_layers.2.bias f4 [128]
000000 18 79 77 ba a1 56 ad 3b 6c 0a d9 3b 50 18 a0 bb
       -0.00094403466 0.005289868 0.006623557 -0.004885711
000010 9a 66 a7 3c 3f b5 1c 3c 28 48 9b ba d1 f2 1e 3c
       0.020434666 0.009564697 -0.0011847066 0.009701447
000020 5c 42 a8 3c 5e fc 40 3c 44 89 9a bb 1c 3f 36 bc
       0.020539455 0.011778919 -0.0047160704 -0.011123445
000030 58 fa b0 3b d4 c2 5f ba 55 f2 36 bc 7e 97 cb 3b
       0.005400937 -0.00085358066 -0.011166175 0.0062131276
000040 72 ef a8 bb 85 9b ca bb 83 19 ac 3c 9b 66 56 bb
       -0.005155497 -0.00618309 0.021008259 -0.0032714966
000050 95 a4 d7 ba 29 84 83 3a b0 db 12 3c 58 c8 51 3c
       -0.0016452248 0.0010033894 0.00896351 0.012804113
000060 6f 6c b4 3b ca a2 9b bb 80 d7 0a bc 0a 7f 3b 3c
       0.0055060904 -0.0047496306 -0.008474231 0.011443863
000070 48 03 c0 3a 3b c3 99 bb 88 1a 84 3c 02 6f 3a ba
       0.0014649415 -0.0046924627 0.016125932 -0.00071118784
000080 d7 95 22 3c cc a6 70 3c a9 69 01 3c 0e 26 c8 3a
       0.00992342 0.014688205 0.0078987265 0.001527013
000090 1c 74 24 3c 8c 9c 0a bc 62 da 87 bc e2 d0 60 3c
       0.010037448 -0.008460175 -0.016583625 0.013721677
0000a0 59 35 39 3c 43 92 10 bc 38 ff c3 3a 70 00 4f ba
       0.011304223 -0.008823934 0.001495338 -0.00078964885
0000b0 46 b4 cf ba 3e 27 9e 3b 1d 4d bb bb f1 1e 89 bb
       -0.0015846572 0.0048264554 -0.0057159797 -0.0041845967
0000c0 73 6d d5 bb 09 0e f3 3b c0 09 83 bb 52 ef 04 bc
       -0.0065132915 0.0074174446 -0.003998965 -0.008113699
0000d0 c4 b1 94 3c 77 01 d5 3a b8 43 15 3b 2f bf 4f bb
       0.018151172 0.0016251047 0.002277596 -0.0031699648
0000e0 41 24 a0 3b 3b a3 b6 3b 5a 5a de b9 90 5c 50 3c
       0.0048871343 0.005573658 -0.00042410457 0.012717381
0000f0 36 05 e4 3b 92 18 84 3a 16 c3 62 bb b6 ce 2d 3c
       0.006958629 0.0010078123 -0.0034601144 0.010608366
000100 27 ad 73 bc 4a bb 74 3c 02 18 fc bb a5 46 69 bb
       -0.014872826 0.014937231 -0.0076932916 -0.0035595086
000110 d3 d2 e6 3b 74 fb a4 bb 3c cf 2f bc 4f 57 e9 ba
       0.007044175 -0.0050348584 -0.010730561 -0.0017802509
000120 44 dc ce bb 17 97 a8 bb 18 a1 26 3c ee 0f 0a bb
       -0.006312879 -0.0051449644 0.010170244 -0.0021066624
000130 e8 f3 20 bb 25 d2 ac bc f1 0f ed ba ad e9 69 3b
       -0.0024559442 -0.021096298 -0.0018086416 0.003569226
000140 55 7a 88 3c f6 57 5c ba ff 31 11 bb a4 b7 5e 3a
       0.016659895 -0.0008405441 -0.0022155044 0.00084959925
000150 2b e5 16 3b 45 58 80 3c 18 0c f3 bb 44 46 0b bb
       0.0023024778 0.01566709 -0.007417213 -0.0021251598
000160 46 2e cf 39 6d 94 15 3c b5 55 84 3c 36 ea 0f bb
       0.00039516593 0.009129626 0.01615415 -0.002195967
000170 db 6d 2f bc a6 c3 17 3c 11 5a 22 bb d6 7c b3 bb
       -0.010707344 0.009262955 -0.0024772922 -0.005477528
000180 47 bf ea ba e4 5f 82 3b 46 81 ac 39 c0 01 fa ba
       -0.0017909788 0.003978716 0.00032902713 -0.0019074008
000190 78 51 d8 ba 56 fd a3 3a a7 24 b9 3b 1e bf 8a 3a
       -0.0016503772 0.0012511413 0.0056501213 0.0010585522
0001a0 cf 32 91 3c 17 17 6c 3c eb 9d 95 3b 7c b3 7f 3c
       0.017724423 0.014409802 0.0045659444 0.015606757
0001b0 a0 24 08 3c 31 59 83 3a 5e c5 63 bb 89 97 0e 3c
       0.008309513 0.0010021088 -0.0034755091 0.008703121
0001c0 3e cc 20 39 cd 74 d3 3b 8d f1 4a bc 1e 48 65 bc
       0.00015334875 0.0064531327 -0.012386692 -0.013994245
0001d0 b1 03 00 3b f2 cc ac 39 02 66 10 3b ba c8 a8 3b
       0.001953345 0.00032959093 0.0022033458 0.0051508816
0001e0 24 7e 92 3a 27 94 65 3b 22 3b 98 bb b6 e9 d1 ba
       0.0011176509 0.0035030933 -0.004645721 -0.0016015086
0001f0 9c 16 2c bb 64 24 e6 bb 7e ff a9 b9 2b 12 95 3c
       -0.0026258593 -0.007023381 -0.00032424548 0.01819714

network_body._body_endoder.seq_layers.2.weight f4 [128, 128]
000000 0d 77 58 bd 72 68 98 3d 6c 37 7a 3d d1 40 9d 3d
       -0.05284791 0.07441796 0.06108801 0.076783784
000010 96 ba a3 bd 5c 44 8e bd 87 f6 9a 3d 24 1d db 3d
       -0.07994573 -0.06946632 0.075665526 0.106989175
000020 06 9b 03 3e 8d ac c4 3d 01 19 c5 3d aa 5f 58 bc
       0.12852105 0.09603224 0.0962391 -0.013206402
000030 2b 9c 07 be b3 06 18 3e 83 22 af 3b 8d 88 d2 3d
       -0.13243167 0.14846306 0.0053446903 0.10279951
000040 b7 9e 1c 3d 27 05 a4 3d f2 3d 0b ba 22 da 71 bd
       0.0382373 0.08008795 -0.000531166 -0.05904592
000050 5a d2 d4 3d df 05 2d be dc cd dd 3c 45 93 83 3d
       0.10391684 -0.16896771 0.0270757 0.06424574
000060 bd 42 a6 bc f4 4c 3a 3d 55 ea 02 be d8 64 1c be
       -0.020295495 0.045483544 -0.12784703 -0.15272844
000070 d0 78 ba bd 32 21 9a bd 46 4c 9b bc d5 7a 80 bb
       -0.091050744 -0.07525863 -0.018957268 -0.0039208927
000080 78 9e ab bc 7e f2 64 bd 28 84 a6 bd ea b5 1b 3b
       -0.020949587 -0.05589532 -0.081306756 0.0023759552
000090 ed b1 34 3e 7a 6f 84 3d bd 3b a7 bd 3c be b5 bd
       0.17645998 0.06466575 -0.08165691 -0.08874175
0000a0 bd 11 3e 3d 5e 5e 3e 3b 9f bd ad 39 1a 0d 7d bd
       0.046403635 0.0029047946 0.0003313841 -0.061780073
0000b0 8d 8d dc bd ef 8b af bc 25 bc fc 3c c7 d4 d4 bd
       -0.10769186 -0.02142903 0.030851433 -0.103921466
0000c0 dc cc 8a 3d f9 50 82 3d d7 d8 0e bd 60 e7 21 be
       0.06777355 0.063631006 -0.034874763 -0.15810919
0000d0 ad e1 3d 3d 2a 62 14 bc 70 b9 27 bd d1 22 72 3a
       0.0463578 -0.009056607 -0.04094833 0.00092367554
0000e0 bf 45 51 bc 93 86 d7 3d 70 b2 05 3e 24 39 1e 3d
       -0.012772976 0.10523715 0.1305635 0.038628712
0000f0 23 f0 7b bd 3e 07 a1 3d df 78 c4 bd 3a b7 98 3d
       -0.06150831 0.078627095 -0.09593367 0.07456823
000100 e7 a5 67 bd 22 58 49 3d 23 5b 80 bd 55 6d ef 3d
       -0.0565547 0.049156316 -0.06267383 0.11690775
000110 33 53 19 bd bc 5e b2 3d 22 91 bb 3d de ea b8 3d
       -0.03743286 0.087094754 0.09158541 0.09029172
000120 b2 7b 94 3d 5b a3 b5 3d c2 c7 aa 3d 9e 1d 51 3d
       0.072501555 0.08869048 0.08338882 0.051053636
000130 64 b4 a4 bb fd 36 08 bd 3e 25 58 bd 18 ec bf 3b
       -0.005026387 -0.033255566 -0.052769892 0.005857002
000140 3f 92 91 bb b3 8b 13 3e 53 11 64 3c a4 80 2d bd
       -0.0044424827 0.1440876 0.013920146 -0.04235901
000150 b8 63 af 3d fe ba 24 be bc d7 a7 bd 9b 02 93 3d
       0.08563942 -0.16086957 -0.08195445 0.07178231
000160 b8 49 67 bd b8 44 8a bd 6f 20 ef 3d 9f 76 68 bd
       -0.056466788 -0.06751388 0.11676108 -0.05675375
000170 9c 54 5c 3d bf be e6 bb 88 dd 16 bd 04 a0 e0 bc
       0.053791627 -0.0070417817 -0.036832362 -0.027420051
000180 5c 51 02 be 5b 59 75 bd 1f 33 a6 bc 47 34 3c 3e
       -0.12726349 -0.05989967 -0.020288048 0.18379317
000190 ab 9c 7b 3e d0 bf 40 bd 04 d4 a7 3c 43 46 33 3c
       0.24571483 -0.047057927 0.02048684 0.010942045
0001a0 b2 ff 78 be b7 6e a7 3d 16 97 25 be 30 92 f2 bd
       -0.2431629 0.08175414 -0.16170916 -0.11844289
0001b0 c6 3e 08 bb 58 8f 16 3d cf 84 23 be 61 f5 5a bd
       -0.002078937 0.036757797 -0.15968631 -0.053456668
0001c0 ad a2 ff bd 2b f6 0d 3d d5 15 ba bd 83 ef 10 bd
       -0.124822 0.034658592 -0.090861954 -0.035384666
0001d0 e8 02 0e 3e 34 b6 94 3d 94 d9 3a bd 3f 70 fd 3d
       0.13868296 0.07261315 -0.045617655 0.12374925
0001e0 20 8a 86 bd 74 db f4 bd 2a 97 77 bc e6 fa 0f be
       -0.06569314 -0.1195592 -0.015111724 -0.14060554
0001f0 2d 7f 38 bc 56 a3 c9 bd b6 49 34 3d 02 91 30 3c
       -0.01126079 -0.09845607 0.04401561 0.01077676
000200 dc 50 a1 bc f1 9f 27 3d c6 1b 62 bd 70 fb 82 bd
       -0.019691877 0.040924016 -0.055202268 -0.06395614
000210 b4 e7 3a 3c d8 cb fa bb 78 e0 ce bc 3d 3f bb bd
       0.011407781 -0.0076536946 -0.02525352 -0.09142921
000220 06 25 8e bd 04 46 8b bd 58 9c 45 bd 04 10 89 39
       -0.069406554 -0.06800464 -0.048244804 0.0002614261
000230 a7 b2 bf 3d 0c 29 1f 3e 75 93 5b bd a6 40 22 3d
       0.09360247 0.15543002 -0.053607423 0.039612435
000240 b3 0c 19 be 5d 22 fb bc c0 5a bd 3c e2 88 63 bd
       -0.1494625 -0.030656034 0.023114562 -0.055550463
000250 b5 25 19 bb 38 86 88 3d a4 c9 f5 bb 40 81 ff bd
       -0.0023368422 0.06666225 -0.007500844 -0.12475824
000260 d5 60 e7 bb 4a d8 06 3d 9c 96 f9 bd 51 76 12 3d
       -0.007061104 0.032921113 -0.121869296 0.035757367
000270 b4 59 95 bc 15 72 91 3d 5e 65 09 bd ec 1d d2 3d
       -0.01823125 0.071018375 -0.033543937 0.102596134
000280 87 0c a5 bc ac bc 9e bc 0d 7c 02 bd d8 33 be bc
       -0.020147575 -0.019377075 -0.031856585 -0.02321808
000290 25 7b 4b bd 47 26 38 3e e9 a6 8d bd 57 ba 30 3c
       -0.049677987 0.17983352 -0.06916601 0.010786614
0002a0 40 6b 50 bc 49 ea 80 be 0e 68 2a 3e b8 43 17 3d
       -0.012720883 -0.25178745 0.16641256 0.036929816
0002b0 e9 31 97 3d 49 91 3d 3c 51 6e f6 bd b9 54 d9 3d
       0.073825665 0.011570283 -0.1203276 0.10611863
0002c0 59 6c 82 3d 93 19 01 bd 57 d3 58 3c c7 eb 53 bd
       0.06368322 -0.03151853 0.013233981 -0.051738527
0002d0 1b c7 0b 3c 77 a6 eb bd ad 19 bd bc 4d f7 c0 3d
       0.008531357 -0.1150636 -0.023083532 0.09422169
0002e0 58 89 a0 bd 91 05 c6 bd e6 aa de 3d 52 fb d1 bd
       -0.07838696 -0.096690305 0.1087244 -0.10253014
0002f0 ac 87 dc 3c fe fa 1b 3e 4d 8f 58 bd 45 9f 30 3d
       0.026920162 0.15232465 -0.052871037 0.04312064
000300 63 a6 98 bd 59 44 af 3d 0c a5 82 3d 3b 1a 1b 3d
       -0.07453611 0.08557958 0.063791364 0.037866812
000310 65 f1 2a 3c 43 9b 0f bd 12 25 27 3c 9e 4a 4f be
       0.0104335295 -0.03506018 0.010201709 -0.20243308
000320 13 7d 02 be a9 68 57 bd 13 74 a4 bd cf 3e ce 3d
       -0.12743025 -0.052590046 -0.08029952 0.100705735
000330 5c 2f a5 3d 66 b1 dd bd 0b d3 ad bd 84 7d cf 3d
       0.08065674 -0.10824852 -0.08487519 0.10131362
000340 e4 dd 84 3c 53 7f 06 bc a6 e9 3b bc 49 c4 12 be
       0.016219087 -0.008209067 -0.01146928 -0.1433269
000350 90 5e c8 3c 1d 92 be 3d 51 ff 71 be ff e2 c6 bd
       0.024459153 0.09305213 -0.23632552 -0.09711265
000360 a5 4a b4 3c 16 fe 3c be 9c 3c 97 bc e2 34 de bc
       0.02200825 -0.18456301 -0.018461518 -0.027124826
000370 46 ca 92 3b ea 2a 3e bd 5a 27 d8 3c a4 ac 3f be
       0.0044796793 -0.046427645 0.026385952 -0.18718201
000380 19 25 39 3c ae 5b 94 3d 6d d6 34 bd 8e a0 9f bd
       0.011300349 0.07244049 -0.044149805 -0.07794295
000390 48 4a 66 3d 17 08 01 be 24 f8 9d bd c0 97 03 bd
       0.056223184 -0.12600742 -0.07713345 -0.032127142
0003a0 6d b4 10 3e 1e 4c 60 3c 81 e5 26 3e 09 e1 fc 3a
       0.14131327 0.013690023 0.16298486 0.001929314
0003b0 15 ee b2 bc 9d 6e b5 bd fa 94 4b 3d 92 93 ee 3c
       -0.021842042 -0.088589884 0.049702622 0.029123101
0003c0 e4 f3 cc bd 35 8d c6 3d ec 27 4c 3d f2 9c e6 bd
       -0.10007456 0.09694902 0.04984276 -0.11260404
0003d0 c2 ea f6 bc 2e 58 6b bd 97 46 f4 3d 3c 65 1f bd
       -0.030141238 -0.05745714 0.119275264 -0.038914904
0003e0 23 53 3a 3d 45 bb a8 bb e7 b9 a4 bd 62 51 58 3d
       0.04548944 -0.0051492774 -0.080432706 0.052811988
0003f0 d9 0b 8a 3d fe 36 50 3c ee ea 28 3e 0e 6d 28 3d
       0.06740541 0.012708424 0.16495869 0.041119628
