results/phase4_t1/PlayerAgent.onnx (onnx, 90951 bytes, 7 tensors)

action_model._continuous_distribution.mu.weight f4 [1, 128]
000000 01 b2 16 bd c6 04 36 3c 9a 16 b9 bc 10 9d 57 bc
       -0.03679085 0.0111095365 -0.022593785 -0.013160005
000010 4b ba 98 bc 37 0d 01 3c e7 1d ad bc 65 74 43 bb
       -0.018643519 0.007876686 -0.021132423 -0.0029824015
000020 da 67 74 bc 8d ec ab 3b 6a e0 2c bc 60 ec b7 3c
       -0.014917338 0.005246705 -0.010551551 0.02245158
000030 e3 2a 1c bc fa e4 13 bd b9 0b 95 bb c6 2d 0e bd
       -0.009531709 -0.03610704 -0.0045485166 -0.03471162
000040 f8 d8 3a 3c da b1 41 bc 16 33 8a bc fa c3 06 bc
       0.011404268 -0.011822188 -0.016870063 -0.008225435
000050 b7 04 89 bc 39 6f f7 3b 6f 47 48 3c 12 9c 50 bc
       -0.016725881 0.0075511006 0.012224062 -0.012732523
000060 78 e7 09 bc 06 48 f4 bc 98 04 c5 3b 1c 53 55 bc
       -0.008417003 -0.0298195 0.0060125105 -0.013020303
000070 ac 2c f1 3c 3e 73 23 bc 22 34 db bc 75 a3 21 bc
       0.029440247 -0.009976206 -0.026758257 -0.009865631
000080 1d d3 20 bc c0 ea 0e 3d 2e db 55 3c a7 68 0f 3d
       -0.009815958 0.034891844 0.013052745 0.035011914
000090 5f cb 4e 3c 4c 05 44 3d c2 7b f1 3b 60 62 04 bc
       0.01262173 0.047856614 0.0073694894 -0.008080095
0000a0 af 23 a8 bb 5c 47 14 bd 8f e2 9b bc 8b 97 ad bb
       -0.005131207 -0.036200866 -0.01902893 -0.0052976063
0000b0 48 08 99 3b 72 8e c6 3c 49 fd d9 3b 75 20 a4 bb
       0.0046701767 0.024237845 0.0066525084 -0.005008752
0000c0 5c 30 c3 ba 42 6c ea ba d2 75 04 bb 0d 22 16 bd
       -0.0014891732 -0.0017885047 -0.0020211828 -0.036653567
0000d0 1b 3d c5 3c b2 7c ec bc 33 fe 1b bb 79 da 95 bc
       0.024076989 -0.028868053 -0.0023802638 -0.018292652
0000e0 5c b4 4f 3b 68 ae c3 3c 80 b8 57 bc 64 1a 00 bd
       0.0031693196 0.023886874 -0.013166547 -0.031275168
0000f0 02 1a c2 ba fc 31 61 3b e8 c5 4e 3b fb da 49 ba
       -0.0014808776 0.0034362068 0.0031551067 -0.0007700172
000100 df b1 d2 bb bc 3e 34 bc db ed 81 3b 2f 27 54 3c
       -0.0064298953 -0.011001285 0.003965122 0.012948795
000110 c8 3e 0a bc 9a 5c e2 bc fb 81 a0 ba f8 3f 43 ba
       -0.00843782 -0.027632046 -0.0012245768 -0.0007448192
000120 9b 4f 73 b9 4a 51 83 3a 17 b9 60 3c 68 9f 55 3c
       -0.00023203941 0.0010018733 0.013716004 0.013038494
000130 6a 3d f3 bb da ac 91 bc 10 00 90 bb 37 8c f5 bc
       -0.0074230926 -0.017782617 -0.0043945387 -0.029974086
000140 82 f4 9d 3a a2 74 f3 3b f5 38 8d bb ff 83 09 3d
       0.0012051018 0.007429675 -0.0043097683 0.033573147
000150 c5 7b 95 bb 8a 54 ba 3c 5f d6 f4 b9 4f cc 94 bb
       -0.0045618736 0.02274539 -0.00046699026 -0.004540957
000160 4c 6a 1b bc 94 2f 60 bc cd d9 03 3d 20 b5 3e bc
       -0.009485792 -0.0136832185 0.032190133 -0.011639863
000170 2d e8 9f 3c e5 53 1c 3d c0 09 bb 3c ac 6c cc 3c
       0.01951989 0.038165946 0.022831798 0.024954163
000180 d0 4e c8 3b 1d 26 14 3c 42 14 6e 3c 93 80 e8 3c
       0.006112911 0.00904229 0.014531197 0.028381621
000190 be 8d 51 39 c4 1f f5 3c ea 4b 7d bb 42 c0 73 3c
       0.00019984596 0.029922374 -0.0038649985 0.014877381
0001a0 e6 d5 63 bc 5d ac 8e 3c 48 d4 9c bc bb 46 5d 3c
       -0.013905978 0.017416174 -0.019144192 0.013505633
0001b0 ab 67 c4 bc 44 42 0b bd 4a 78 5c bc b7 ad 7e 3c
       -0.023975214 -0.033998743 -0.0134564135 0.0155443465
0001c0 24 19 a1 bb 85 f0 83 bc 76 ca 53 bd 2c 93 9e bc
       -0.004916327 -0.0161059 -0.051706754 -0.019357286
0001d0 5a 98 4d 3c 57 6b 80 bc 68 69 74 3a 7b 96 67 bc
       0.0125485305 -0.015676184 0.0009323568 -0.014134998
0001e0 29 90 97 3c 8c 25 1f bc 1f 0c 39 bb 1f 63 7f bc
       0.018501358 -0.009713542 -0.0028235985 -0.015587597
0001f0 d2 1f 74 3c 65 8b 31 bc 3b 37 d0 bc 18 bc 5d 3a
       0.014900165 -0.010836457 -0.025416961 0.0008458509

action_model._discrete_distribution.branches.0.bias f4 [2]
000000 9e 37 03 3c 9d 37 03 bc
       0.008008866 -0.008008865

action_model._discrete_distribution.branches.0.weight f4 [2, 128]
000000 75 74 db 3c ab 54 64 bd 2f 7a 0b bd aa 28 5b bd
       0.02678893 -0.05574481 -0.03405207 -0.053505577
000010 8f 15 6d 3d 18 e1 a7 3d 3c b7 8c 3d 5e 54 a9 bd
       0.057881888 0.0819723 0.06870887 -0.08268045
000020 6a 6c 7b 3d d5 47 cd bd bf 5d 8d bd ef aa 9f bd
       0.06138269 -0.100234665 -0.06902646 -0.07796275
000030 46 90 66 3d df 51 62 3d 28 e9 67 3d 14 6c 8f 3c
       0.056289934 0.05525386 0.05661884 0.01750759
000040 96 91 db bc 13 5e 95 bd 53 03 42 3b 94 cf ba 3b
       -0.02680282 -0.07293334 0.0029604032 0.005701015
000050 69 7f a0 3d c6 de 31 3c d9 1f 93 3c 41 8d 8c 3d
       0.078368016 0.010856336 0.017959522 0.068628795
000060 1f 12 aa bd d8 31 38 3d 1c 9e 84 bd 2e 64 3e 3d
       -0.083042376 0.04496941 -0.064754695 0.046482258
000070 5d 9b 13 3c 0f 30 81 3d eb 26 bd bc 2a d1 51 bd
       0.009009209 0.063079946 -0.023089847 -0.051224865
000080 a3 a6 44 bd b2 ff b3 bd 5c b1 30 bd 77 29 aa bb
       -0.04801048 -0.087890044 -0.043137893 -0.0051929313
000090 b3 78 f2 bc 57 5f f4 3b c7 23 d1 3c 39 73 02 3e
       -0.02959857 0.0074576545 0.025529755 0.12739266
0000a0 54 b3 e2 bc d8 fb 06 3c ac ea 70 3c 6b f5 3e bc
       -0.027673401 0.008238755 0.014704388 -0.011655192
0000b0 16 94 d8 3d bd 6b c8 bb a2 5e f2 bc 46 7c 34 bd
       0.1057512 -0.006116359 -0.02958614 -0.04406383
0000c0 49 ab b8 bd bd da 86 bd 33 a1 08 3e c8 b6 96 bc
       -0.09017045 -0.0658469 0.13342743 -0.018397704
0000d0 5f f9 70 3c 65 82 04 3b 19 74 a6 bd 88 e8 d5 bd
       0.014707892 0.0020219323 -0.081276126 -0.104447424
0000e0 ea d8 78 3d f5 ff e6 3c 9e d4 83 3d 53 bc c2 3c
       0.06075374 0.028198222 0.06437038 0.02377144
0000f0 fa 92 70 3d 4f 87 36 bd 59 bf a1 3d 93 09 6b 3d
       0.058733918 -0.044562634 0.07897825 0.057382178
000100 5c 83 13 3d be d3 f1 bd 5f 65 7c bd 49 b1 d1 bd
       0.036013946 -0.11807965 -0.061620113 -0.102388926
000110 65 79 8b 3c 24 ca 75 bd 09 d5 74 bd 38 20 08 3d
       0.017025659 -0.06000723 -0.05977348 0.03323385
000120 d2 5f d4 3d a6 7c bd bb 9b 5c 99 bd 56 14 ed 3a
       0.10369839 -0.0057826815 -0.07488366 0.0018087726
000130 1a 45 7a 3d 20 08 3a bd 85 f5 a1 bd ef bc be bb
       0.061101057 -0.045417905 -0.07908157 -0.0058208625
000140 81 cb 73 bd 96 8c 42 bd 4c 9d 80 bd f5 10 6a bc
       -0.05952025 -0.047497354 -0.06280002 -0.014286269
000150 6f 67 a3 3d 00 a6 91 bb 09 29 05 3e fb 0c 18 3d
       0.07978713 -0.0044448376 0.13003935 0.037121754
000160 cd 56 df 3c 8e d0 a1 3c 0a 25 e2 bc 39 a1 80 bd
       0.02726307 0.019752767 -0.027605552 -0.06280751
000170 aa 9b 85 bd c5 98 b8 bc 5d 83 00 3c bd 93 9d bd
       -0.06523831 -0.022533784 0.007843819 -0.076941945
000180 a2 93 9b 3c 5b c1 f6 bc c8 f8 b9 bd b9 13 85 bd
       0.018991295 -0.030121496 -0.090806544 -0.064979024
000190 49 c2 5d 3d 44 0f b5 bc f4 2d 7c bd f0 5d b1 bd
       0.054140363 -0.022102006 -0.06156726 -0.08660495
0001a0 17 8c a9 3d a0 fa d5 3d 3a 99 d0 bd 0b 0e 88 3d
       0.08278673 0.104481936 -0.10185476 0.066433035
0001b0 c9 ca ce bc 52 51 ea 3c 65 47 49 3d 2f 9d dd bc
       -0.02524318 0.02860323 0.049140353 -0.02705249
0001c0 08 a3 8a 3d d3 bc ac bb f1 d3 44 3d a0 1c 70 3d
       0.06769377 -0.005271533 0.048053686 0.05862105
0001d0 42 60 e2 3c 47 12 70 bc eb a0 93 bd 90 98 5e bd
       0.02763379 -0.014652795 -0.07208427 -0.054344714
0001e0 d2 8b 83 bc 71 10 01 3d cd 46 f1 bd b1 d1 45 3c
       -0.016057882 0.03150982 -0.11781082 0.01207392
0001f0 9d be 90 bc 83 a4 9a bd 67 49 81 3d 52 4e 89 bd
       -0.017669016 -0.07550909 0.063128285 -0.067043915
000200 b1 c7 e4 bc e9 d7 25 3d 1b 33 b1 3c c9 05 6c 3d
       -0.027927252 0.04048911 0.021630814 0.057622705
000210 cf 55 86 bd 01 38 ce bd dc 00 67 bd 0c d8 9d 3d
       -0.065593354 -0.10069276 -0.056397304 0.07707223
000220 5b fb 97 bd 20 6c 93 3d ea a6 a6 3d 1f c0 76 3d
       -0.07420989 0.071983576 0.08137305 0.060241815
000230 0e 44 59 bd ef e0 70 bd e0 bb 81 bd 24 26 07 bd
       -0.053043418 -0.058808263 -0.063346624 -0.032995358
000240 5b a7 53 3c f8 49 96 3d 1a 37 99 3b 0b ee 3d 3c
       0.012918319 0.07338327 0.004675758 0.011592398
000250 56 ee a9 bd e1 35 b6 bc 2f a8 e4 bc 97 af 7f bd
       -0.08297412 -0.022242488 -0.027912227 -0.062423315
000260 56 03 9b 3d 18 b8 44 bd 77 ac 86 3d ee f3 77 bd
       0.07568996 -0.048027128 0.06575864 -0.060535364
000270 c0 c7 63 bc 8f 5e 62 bd 18 bd 8f 3c 34 40 67 3d
       -0.013902605 -0.05526596 0.017546222 0.056457713
000280 b9 70 3b 3d 99 e0 a2 3d 5a 65 6a 3d fe 4f a1 3c
       0.045761798 0.07952995 0.057225563 0.019691464
000290 26 ab 1e 3d 50 67 a3 3b 47 15 11 bd 55 5b 04 be
       0.03873744 0.004986681 -0.035420682 -0.12925465
0002a0 4f 1b 22 3d bf 14 c8 bc 84 2d 37 bc cd 05 bb 3c
       0.039576825 -0.024423955 -0.011180285 0.022829914
0002b0 40 93 b9 bd 29 7e 6d 3c 77 96 b4 3c 6a 86 60 3d
       -0.09061289 0.014495411 0.022044403 0.054815687
0002c0 b7 05 60 3d 25 26 93 3d ca c6 03 be 22 16 b2 3c
       0.05469295 0.0718501 -0.12868801 0.02173907
0002d0 18 9a ad 3b e0 58 b1 ba 3f 13 be 3d 64 12 ef 3d
       0.0052979104 -0.0013530515 0.09281015 0.116734296
0002e0 80 3f 6c bd a6 0b c0 bb 46 be 86 bd 30 8f 12 bd
       -0.057677746 -0.0058607636 -0.065792605 -0.035781085
0002f0 7c 3e 71 bd 50 35 60 3d 2c 83 89 bd b7 5b 6a bd
       -0.05889748 0.054738343 -0.06714472 -0.057216372
000300 c1 8e 3b bd ac 3b f3 3d 71 a2 5e 3d 73 0f c8 3d
       -0.045790438 0.11876616 0.054354135 0.09768572
000310 11 3b 35 bb 3c ed 7f 3d 27 1f 9b 3d 42 5a 07 bd
       -0.0027653615 0.062482104 0.07574301 -0.03304506
000320 30 0c c4 bd b1 97 9b bc 51 ed a2 3d 1f da 97 bb
       -0.09572637 -0.01899323 0.07955421 -0.0046341564
000330 c0 06 93 bd c6 92 45 3d 2d 23 96 3d bb 61 91 3c
       -0.07179022 0.048235677 0.07330928 0.017746797
000340 80 14 5f 3d 90 d1 80 3d 2b 8c 7a 3d f5 bd f5 3c
       0.05446291 0.06289971 0.06116883 0.029997805
000350 25 12 b3 bd 28 63 5c 3c 21 68 07 be 68 65 12 bd
       -0.08743695 0.013451375 -0.13223316 -0.03574124
000360 8a 60 3a bd 1c e1 3c bc 93 26 06 3d 77 24 80 3d
       -0.045502223 -0.01152828 0.03275163 0.06256955
000370 e0 e1 99 3d 66 81 dd 3c 0d 6c 5b 3a 63 ca 90 3d
       0.07513785 0.027039241 0.0008370288 0.07069852
000380 f6 bd 47 bc 7c f9 c1 3c fd 70 96 3d 9f 4d 26 3d
       -0.012191286 0.023678534 0.073457696 0.04060137
000390 45 45 49 bd ce 36 82 3c d7 73 5c 3d 01 08 a1 3d
       -0.049138326 0.015895274 0.05382141 0.07862855
0003a0 ce 3e fd bd 0a c5 df bd 0e f0 b3 3d 53 a2 c4 bd
       -0.12365495 -0.10926254 0.08786021 -0.096012734
0003b0 31 a6 a6 3c 9b 19 21 bd fc 81 b4 bc fb ca 2b 3d
       0.020342918 -0.03933106 -0.022034638 0.041941624
0003c0 66 12 8c bd 1d 05 9c ba 45 e9 7b bd 21 17 9c bd
       -0.06839447 -0.0011903379 -0.06150176 -0.07621599
0003d0 50 d7 66 bc 2f 32 ae 3c 2e b9 8d 3d ef b3 45 3d
       -0.01408942 0.021264164 0.06920086 0.0482673
0003e0 2f ad d8 3c af 86 4a bd a4 0f eb 3d ac cc 0f bc
       0.026449768 -0.04944485 0.114775926 -0.008776825
0003f0 68 b2 18 3d 78 29 5f 3d 49 65 40 bd 16 74 9b 3d
       0.037279516 0.054482907 -0.046971593 0.07590501

network_body._body_endoder.seq_layers.0.bias f4 [128]
000000 2e 0c c1 3a eb 56 9a bb 8a 72 85 bc b7 4a 90 bd
       0.0014728361 -0.0047100685 -0.016289968 -0.07045501
000010 c7 b1 1d bc d7 4c 47 3d 4d 64 d4 3c 9c 99 af 3c
       -0.009624905 0.048657265 0.025926733 0.021435551
000020 a3 ee 8e 3c 64 b3 00 3d da 2d 07 3d 19 1f b9 3c
       0.017447775 0.03142108 0.03300271 0.022597836
000030 d4 ff e8 ba ed 4c 2f 3d 2d e2 15 3d f7 62 64 3c
       -0.0017776438 0.04279797 0.03659265 0.013939611
000040 ca 02 ca 3b c4 49 31 3c 32 88 5b 3d 0c 72 7c bd
       0.0061648833 0.01082081 0.053596683 -0.0616322
000050 01 a4 c9 3c 20 f8 1e 3b 8b eb aa bc c5 98 d8 bb
       0.024614336 0.002425678 -0.020864269 -0.0066100084
000060 96 bd 36 3c 3b 3d 98 3a d9 74 29 3d b2 f0 4d 3d
       0.011153599 0.0011614928 0.0413712 0.050278373
000070 68 86 f6 b8 e7 9b 79 bb 61 71 d6 bc b8 85 5a 3d
       -0.00011755229 -0.003808731 -0.02617711 0.05335018
000080 a9 74 4e 3d a8 98 64 bc a4 fa 9c 3d aa f4 28 3b
       0.050404225 -0.013952412 0.076649934 0.0025780597
000090 88 e6 27 3c c0 2c d8 bb 89 5a 31 3d 2a 8d 07 3d
       0.010247834 -0.0065971315 0.04329923 0.03309361
0000a0 20 86 cf 3c 29 a0 72 3c 47 c0 67 bd b8 61 99 bd
       0.02533251 0.014808693 -0.056579854 -0.074893415
0000b0 b4 42 93 bc ab e1 3e 3d b1 2d 01 3d 32 13 59 bc
       -0.017976142 0.046601932 0.031537715 -0.013249205
0000c0 c3 a7 e1 3c 03 e7 ef bb b0 06 03 3d 2f ad 20 3d
       0.027545815 -0.00732124 0.0319888 0.03922766
0000d0 6e 0f c8 3b 1f 3a 1a 3c ff 43 4d 3d 87 34 05 bd
       0.006105355 0.009413271 0.050113674 -0.032520797
0000e0 ea 69 20 3c f9 e6 11 bd c0 d4 aa 3c 90 9a a5 bd
       0.009790877 -0.035620663 0.0208534 -0.08086121
0000f0 6c 5c 34 3c 75 29 b2 bd 91 3e 1d bb ee 4a a3 3c
       0.011008363 -0.086993136 -0.0023993591 0.01993319
000100 6d 1c 79 3c 1c 14 3f 3c a4 62 94 3c 6d fa 69 bc
       0.015204531 0.011662509 0.018113442 -0.014280898
000110 89 fc c8 3c 58 47 c6 3c 99 a1 56 bd fc c6 5b 3c
       0.02453448 0.024203941 -0.052400205 0.013414141
000120 d1 69 aa 3c 54 ff 04 bb 7e d3 96 3c 14 ca ba 3c
       0.02080241 -0.002029379 0.018411394 0.022801436
000130 5f 0d 49 3d 5f 0b 38 bc 0a 33 ee 3c 12 21 8e bc
       0.049085017 -0.01123318 0.029077072 -0.017349754
000140 e9 37 e7 3b 97 be 20 3d 73 f3 8b bb 66 d0 ad 3c
       0.0070562256 0.03924426 -0.004270965 0.021217536
000150 f0 c0 59 3c e9 c6 04 3d d2 91 08 bc e3 49 0c 3d
       0.013290629 0.032416258 -0.0083355475 0.03425015
000160 d8 a1 4e 3b 7d cc 97 bc e0 fd 52 3c db cd 93 bc
       0.0031529572 -0.018530125 0.012877911 -0.018042495
000170 5f 69 0f 3c 7f f1 25 3d 84 e5 87 3b a4 5e ad 3c
       0.00875315 0.04051351 0.0041472334 0.021163292
000180 f1 0f b0 3b e7 4d 8b 3d fa 27 59 3d 47 90 a8 bc
       0.005372994 0.06801968 0.05301664 -0.02057661
000190 c6 f7 92 3d d4 51 24 3d f2 71 5c 3c da 60 da ba
       0.07176165 0.0401171 0.013454901 -0.0016660944
0001a0 d9 c3 55 3d 5e b6 df 3c a3 8e 8c 3c 23 ee be 3b
       0.052188728 0.02730864 0.017157858 0.005826728
0001b0 6a ff 71 3c 92 0c a4 3c 16 85 fd bc 00 a5 ab bd
       0.014770368 0.020025525 -0.03094725 -0.083810806
0001c0 35 c3 65 3c 11 51 88 3b 93 7d bb 3c 8f 69 6f 3d
       0.014023592 0.0041600545 0.022887027 0.058450278
0001d0 c7 3f 8d 3c 6c 8f 96 3c bd e2 50 3d 27 ae 3e 3d
       0.017242325 0.018378936 0.050997484 0.046552803
0001e0 02 ad 5b 3c ce 17 67 bd 66 77 92 3c 5e 73 bc 3c
       0.0134079475 -0.056419186 0.0178792 0.02300423
0001f0 31 04 9f bc d8 6e 12 3c ba 44 4f 3d 44 65 ae b9
       -0.019411178 0.00893756 0.050602652 -0.00033263315

network_body._body_endoder.seq_layers.0.weight f4 [128, 39]
000000 9c 5e 6f 3e aa 94 b3 3d 5e 5d 7e 3d 90 32 88 bd
       0.23375934 0.0876859 0.06210076 -0.06650269
000010 5a c7 92 3e f3 81 56 be c9 ce 42 bc 33 9f 14 be
       0.28667718 -0.20948009 -0.011890122 -0.14513855
000020 e1 11 1e bd 5b cb bb 3d 2f 5d 71 be 62 09 98 3e
       -0.03859127 0.09169646 -0.23570703 0.2969466
000030 ef 94 60 3e 7e b5 3a bd 69 11 88 bc ff 03 6b 3e
       0.21931814 -0.04558324 -0.016609864 0.22950743
000040 5c 5e 5c 3e 98 91 1a bd c4 0e d5 bd 0e 2d 1f 3e
       0.2152037 -0.037736505 -0.10403207 0.15544531
000050 a2 05 4d bd 32 dc 15 be 00 83 9d bb cc 73 ac 3d
       -0.0500542 -0.14634779 -0.004806876 0.08420524
000060 a1 13 65 3d e4 23 57 3e d2 d3 c4 bd b7 75 f5 bd
       0.055926923 0.21009785 -0.09610714 -0.11985343
000070 f5 e5 68 3e 6a 2d 82 bc f7 10 8c ba ef 00 21 3e
       0.22743972 -0.015890796 -0.0010686208 0.15723012
000080 3b e3 20 bd e2 2a 5c 3e 64 b9 51 bd 78 a4 05 be
       -0.039279204 0.21500733 -0.051202193 -0.13051021
000090 fc 74 a3 3d b6 d5 b6 3d 67 04 13 3c 92 3e 5f 3d
       0.079812974 0.08927481 0.008973218 0.05450303
0000a0 b5 2a 1a 3e ca ea 53 bd 16 97 ca bd e6 1a b7 be
       0.15055354 -0.051737584 -0.098920986 -0.3576271
0000b0 da bd d3 3d f6 6f 98 bd 1d 49 09 be f1 d4 91 3e
       0.10338946 -0.0744323 -0.13406797 0.28482774
0000c0 3d dd 7f 3e 7a b1 60 3e ac b6 a5 3d ac 13 e8 3d
       0.2498674 0.21942702 0.080914825 0.11331877
0000d0 cd f1 68 3d dc e2 30 be fc c4 b0 bd 77 12 9b bc
       0.056871224 -0.1727404 -0.08631322 -0.018929703
0000e0 be 25 8d bd ac c3 e1 3e 92 2c 71 be d4 78 9d 3e
       -0.068919644 0.44094598 -0.23552158 0.30756247
0000f0 e6 02 2a 3d aa 85 0d be c8 9e ce 3d 5f be 16 3e
       0.04150667 -0.1382052 0.10088879 0.14721058
000100 16 2b 33 3d 34 3b ec 3c 50 22 85 b5 d1 ef 17 3e
       0.04374226 0.028836824 -9.919258e-07 0.14837576
000110 c7 ee 8e bc 70 c3 3a 3e 23 93 cd bc da a0 1a 3e
       -0.017447842 0.18238616 -0.025094574 0.15100423
000120 b2 e2 81 bd 25 18 e2 3d 13 84 8f bc 68 7f 1e 3d
       -0.06342067 0.110397615 -0.017519033 0.038695723
000130 9b e1 91 be 88 6c 62 bd 7d cf 01 3e 1f 70 eb 3c
       -0.28492436 -0.055279285 0.12676807 0.028739987
000140 36 bc 85 3e d1 99 e7 bd 6a 9e bf be 54 cf 10 be
       0.26120156 -0.11308635 -0.37425548 -0.1414159
000150 95 7c 49 3e 67 1b 60 3d de 0b 26 be aa d7 b6 bd
       0.1967643 0.054713633 -0.16215464 -0.089278534
000160 2b 37 99 bd 44 e0 17 be 90 c1 4d 3d 02 32 3a 3d
       -0.074812256 -0.14831644 0.050233424 0.045457847
000170 85 68 88 be e0 53 0f be c6 bf 98 3d 78 4e d9 3d
       -0.26642242 -0.1399684 0.07458453 0.1061067
000180 b1 45 43 be d2 53 45 3d a4 55 28 3e b4 d5 f8 3c
       -0.19069554 0.04817564 0.1643892 0.03037534
000190 ba 7e 3c bd b9 fb 7f bd 4e 55 d0 3d 92 c3 b1 ba
       -0.046019293 -0.06249592 0.101725206 -0.0013562313
0001a0 39 15 38 3e cf 3c 15 be 9c 25 19 bd 2b ff a2 bd
       0.17976846 -0.14573978 -0.037389383 -0.07958826
0001b0 99 f9 35 3e 6b 86 14 be 3d b0 a6 be fb 66 3b 3e
       0.17770995 -0.14504401 -0.32556334 0.18301003
0001c0 45 d6 08 3d 71 ae c2 be 28 d4 4c 3e 68 98 8e 3d
       0.03340747 -0.38023713 0.20002806 0.06962663
0001d0 71 7b 28 be d8 d5 04 3d ec 5f cb bd b0 6e 95 3d
       -0.16453339 0.0324305 -0.09930405 0.072965026
0001e0 03 e1 95 bd 15 23 b1 bc e3 06 92 be 80 d9 d5 bc
       -0.07318308 -0.021623174 -0.2852088 -0.026104689
0001f0 17 1e 1f be 55 55 50 3d 53 38 31 3e 49 9a a6 be
       -0.15538822 0.05086263 0.17306642 -0.32539585
000200 25 33 89 3d 0a a8 3c bb fe ec 00 be 7c fa 26 3e
       0.06699208 -0.0028786683 -0.12590405 0.1630649
000210 6f 80 0f be 12 57 4d 3e a5 b5 52 be bd 76 15 be
       -0.14013837 0.20052746 -0.20577104 -0.14596076
000220 c3 cd 8d bd 1a 87 76 3e e4 59 a8 bd 80 ac 58 bc
       -0.069240116 0.24074975 -0.0822027 -0.013224721
000230 4b ad 76 be e2 fa 24 be 85 f7 f7 3a 03 3f 0b 3e
       -0.24089544 -0.16111329 0.0018918371 0.13598256
000240 d7 30 41 bd bf 92 2d 3e d2 29 34 bd 58 8e 20 be
       -0.047165718 0.1695051 -0.043985195 -0.156793
000250 33 05 ee bd 5b fd e3 3d 53 1b 55 bd cd 6d a8 be
       -0.116220854 0.11132308 -0.05202801 -0.3289627
000260 80 74 b5 be eb 0d 4f be c3 3e cf 3b 01 86 10 be
       -0.35440445 -0.20220153 0.0063246205 -0.14113618
000270 56 50 65 3e 3c bd 01 be b6 d9 b4 3b bb e9 7c 3e
       0.22393927 -0.12669843 0.005519117 0.24698536
000280 85 d1 6c be 33 e5 fa 3d 23 25 51 3d ca 5e fb bd
       -0.231268 0.122507475 0.051060807 -0.12273939
000290 97 c2 e9 3e 7e b5 b1 be a6 f6 fa bd 02 7d 04 bd
       0.45656273 -0.3470878 -0.12254076 -0.03234578
0002a0 32 5e 16 3d 0b 78 a7 3e be 8a 54 3d 0b fd ae bd
       0.036710925 0.32708773 0.051890127 -0.08544358
0002b0 62 54 5b bd c5 45 77 3e 42 e5 aa bd 2e 13 17 be
       -0.05354727 0.24147709 -0.08344509 -0.1475341
0002c0 df f9 8d bd 3d cc c6 bd b2 0d 17 3e f3 86 ac 3d
       -0.06932425 -0.09706924 0.14751318 0.08424177
0002d0 cb 34 52 be a2 d0 3d 3e 87 c0 85 be ac 79 56 ba
       -0.20527951 0.18536618 -0.2612345 -0.00081815827
0002e0 a9 58 20 be 7f 09 32 3d 1e 65 51 3d ee d7 f9 bd
       -0.15658821 0.043466087 0.051121823 -0.121993884
0002f0 27 b8 b0 be c5 d0 4b be 47 d1 03 bc 85 e6 b3 3c
       -0.34515497 -0.19903858 -0.008045501 0.021960506
000300 b3 2e a2 bd 21 6c c8 3d c2 0f 35 3e ca cb 94 3e
       -0.079190634 0.09786249 0.17681792 0.2906173
000310 dd 5e 86 be a0 65 75 3e 50 78 49 3e f2 5b 4d 3e
       -0.2624425 0.23964548 0.19674802 0.20054606
000320 b3 c7 2a 3a fc c2 4e bc 3c ba 82 3e 51 f4 36 3e
       0.0006514743 -0.01261973 0.2553271 0.17866637
000330 21 6a 8b bd d7 a1 ee bd 0d 7c 1c 3e 06 33 2c be
       -0.06807352 -0.11651962 0.15281697 -0.16816339
000340 ba 09 82 3d 1e dd 3c bd 5b 3a 74 3e e4 f6 5e 3e
       0.063495114 -0.04610931 0.23850386 0.21773869
000350 d8 a0 44 3e 5f f2 0f 3e a7 06 1f 3e b1 2c 1d be
       0.19201982 0.14057301 0.15529881 -0.1534908
000360 0b 5d 62 bd 3f 05 38 3e c9 74 67 3e b9 91 ee bd
       -0.055264514 0.17970751 0.22603144 -0.11648888
000370 fe a6 d1 3e 8c 07 80 be 0d 35 a2 3e ae 46 1c 3c
       0.40947717 -0.25005758 0.316811 0.009538336
000380 f9 d6 b6 bd e5 0d 58 be 8d 2c ef 3c d2 22 03 bd
       -0.089277215 -0.2109905 0.029196048 -0.03201563
000390 73 78 13 3e ad ee 16 3e 6c b6 a8 3d 72 c5 c6 3b
       0.14401416 0.14739485 0.08237919 0.006066018
0003a0 a0 56 55 3e fd 57 8c 3c cc d1 a6 3d 81 5c 68 be
       0.20833826 0.0171318 0.08145484 -0.22691537
0003b0 32 61 62 be d5 34 15 3e 63 09 06 bc eb 95 8d 3e
       -0.2210739 0.14570935 -0.008180949 0.2765344
0003c0 ee b8 8d 3e 47 17 3e bd 5a 93 6a be 18 11 3d be
       0.27680153 -0.046408918 -0.22907773 -0.18463552
0003d0 09 31 86 bd d6 ac 66 be b4 d1 17 be b8 15 35 3e
       -0.065523215 -0.22526869 -0.14826089 0.17684066
0003e0 ba 1b 49 3d b2 87 a4 3d 81 3c ab 3e 03 94 d0 3c
       0.049098708 0.08033694 0.33444598 0.025461202
0003f0 15 0d 94 be 67 0e 61 3e 9a 24 d9 3b 58 4e 01 be
       -0.2891623 0.2197815 0.0066266777 -0.12627542

network_body._body_endoder.seq_layers.2.bias f4 [128]
000000 cc dc ff 3b 1e df cc 3c de 7b de 3c ef 7b 04 3d
       0.0078083035 0.025008734 0.027158674 0.032344755
000010 7b cb 87 3c 30 e3 80 3c 77 36 12 3c c4 ea 22 3d
       0.01657652 0.015733331 0.008924118 0.03977467
000020 24 30 a9 3c 66 c3 d7 3c 9a bd 29 3d 25 56 95 3c
       0.020652838 0.02633829 0.041440584 0.018229553
000030 e6 b9 a3 3c fb 59 55 3c 9f b8 9d 3c 4d 12 3a 3c
       0.019986104 0.013021941 0.019253073 0.011356902
000040 3e 08 88 3c c2 17 fd 3c 5f 26 51 3c 5b a0 ea 3b
       0.016605493 0.030895118 0.012765496 0.007160229
000050 4f e7 dd 3c 54 43 62 bc af fe 67 bc b9 9c 20 3c
       0.027087836 -0.013809998 -0.014159842 0.009802991
000060 16 27 63 3d 0e f6 89 3c 6f 33 2b 3d a2 ad c0 3c
       0.055457197 0.01684096 0.041797098 0.023520295
000070 dd 57 16 bd e9 4c a0 3c 26 65 da 3c a1 88 1a 3d
       -0.036704887 0.019567924 0.02665956 0.037727956
000080 de 13 c5 3c ee 5d 9a 3c 3a 39 e3 3c c8 26 ce bc
       0.024057325 0.018843617 0.027737249 -0.025164977
000090 c6 2d b6 3c 63 61 b5 bc 87 d8 b4 bb b9 d3 39 3c
       0.022238623 -0.022141164 -0.005518976 0.0113419825
0000a0 10 b2 a2 3c e5 da e8 3b 65 6a 2a 3c eb 0e 01 3d
       0.019860297 0.0071061724 0.010401343 0.031508368
0000b0 e5 a8 93 3c e2 a9 31 bc f1 23 dc 3b 4a 34 1f 3d
       0.018024871 -0.010843726 0.0067181517 0.038868226
0000c0 e4 d2 38 3d 47 2d b0 3c 30 04 53 3c 78 2d 81 3c
       0.045122996 0.021505965 0.012879416 0.015768752
0000d0 c4 66 31 bd a0 3d f7 3b da 54 41 3d ab d2 55 3d
       -0.043310896 0.007545188 0.04720006 0.05220286
0000e0 33 e7 e1 3b 16 37 92 bc d6 e8 ce 3c df 06 78 3c
       0.006894016 -0.017848533 0.02525751 0.015138357
0000f0 45 2a 28 3c 23 71 7b 3c 23 a3 9c 3b e7 71 8a 3c
       0.010263984 0.015346798 0.0047801896 0.016900016
000100 16 9a 27 bb a4 d3 19 3d cd 2b e0 3c d6 0d 1f 3d
       -0.002557402 0.03755535 0.027364636 0.038831554
000110 e1 3b 86 3c 65 ae b7 3c d2 71 23 3d 1b a5 59 bc
       0.016385974 0.022422025 0.03990347 -0.013283993
000120 98 b5 c7 3c e6 bb 08 bb b5 f0 2b 3d 74 97 55 bc
       0.024378583 -0.002086395 0.041977603 -0.0130365975
000130 b4 19 aa 3c 5f 7a d6 3c 9d 6f 08 3d 08 45 3a 3c
       0.02076421 0.026181398 0.033309568 0.011368997
000140 98 6a ac 3c 56 9d 15 3d a4 2f 25 3d 75 73 88 bc
       0.021046922 0.036527 0.040328637 -0.016656617
000150 ba 8a 97 3a c1 1b 96 bc c3 55 94 3c 22 44 2e bb
       0.001156173 -0.018323781 0.0181073 -0.0026590903
000160 8f 9c a6 3c 00 5f dd 3b 8e e5 98 bb d3 1a 50 3d
       0.020338325 0.0067557096 -0.004666037 0.05080683
000170 e4 c1 18 3d 26 ba ef bb b7 f2 75 bc 36 63 fb 3c
       0.037294284 -0.007315892 -0.015011481 0.030686956
000180 70 04 a7 bc f5 9e 62 3c b6 52 6d 3d 53 70 48 3c
       -0.020387858 0.013831844 0.057940207 0.012233811
000190 62 20 e0 3a 73 9f b1 3a ba 6a d4 3c 56 eb 01 3d
       0.0017099495 0.0013551548 0.025929797 0.031718574
0001a0 1e 2b c4 3c 4d 09 39 3c 11 24 2b 3d d2 c5 0f 3b
       0.023946341 0.011293721 0.041782442 0.0021937978
0001b0 d2 7a f4 3b ce 9f b3 ba 2d 4d ad 3c 35 24 0b 3c
       0.0074609304 -0.0013704242 0.021154964 0.008492519
0001c0 e5 11 c1 3c 6a 1d db ba 93 81 6d 3c 20 ec 83 bb
       0.023568103 -0.001671714 0.014496225 -0.004025951
0001d0 e0 d3 ed bb 96 d5 48 3c 79 87 aa 3c c0 14 ba 3c
       -0.0072579235 0.012257954 0.020816552 0.022714972
0001e0 83 22 3d bd 06 c7 8d 3c ad e3 35 3d 30 68 04 3c
       -0.04617549 0.017306816 0.04440658 0.008081481
0001f0 e8 6d 07 bc 9b 43 1a 3d 4a c3 ea 3b f8 7e 2a 3d
       -0.00826595 0.03766213 0.0071643936 0.041624993

network_body._body_endoder.seq_layers.2.weight f4 [128, 128]
000000 02 30 20 bd 51 d1 64 3d 75 ed 5e bd 6f 0c 59 bd
       -0.039108284 0.055863682 -0.054425675 -0.052990373
000010 e8 10 d7 bc ed 48 4f be 60 49 01 3d 6f 57 37 3e
       -0.026253179 -0.20242663 0.031564116 0.17904447
000020 32 bc e5 3d 6b da cb bc 39 4c 5b 3d b8 26 b5 bd
       0.11217536 -0.024884423 0.05353949 -0.08845276
000030 92 34 a8 3d ec 87 db bd 5c f3 f5 3b 0c 61 c3 3d
       0.08213152 -0.107192844 0.0075058173 0.095399946
000040 74 9c e0 3d 85 26 cd 3c b6 e4 2d be eb 96 81 bc
       0.10967341 0.025042782 -0.16981778 -0.015819034
000050 95 15 be 3b b9 d8 e3 bd 4c 08 bc bb 02 e5 ff 3d
       0.0058009126 -0.11125321 -0.0057382938 0.12494852
000060 68 27 5a 3d 6c b8 79 3b 11 6a 9f bd 2e 9d c7 3d
       0.053260237 0.0038104309 -0.077839024 0.097467765
000070 92 78 67 bd 5d 04 4b 3d 46 e8 5a bc 2e 81 a7 bd
       -0.05651147 0.049564708 -0.013361042 -0.08178936
000080 f5 cf 8b 3c 63 90 0f 3d b3 82 f7 bd 5e 0f df 3d
       0.017066935 0.035049807 -0.12085476 0.10891603
000090 c6 15 88 3d 18 c3 7a bd 1d 3b de bd c8 41 29 3d
       0.06644778 -0.061221212 -0.10851119 0.0413225
0000a0 12 5a 17 bc fd ee 33 3c 93 4b 39 be 0f 52 7e bd
       -0.009237783 0.010982272 -0.18095236 -0.062089976
0000b0 31 5f fb 3d 4f 50 91 3e 9f a5 eb bd d8 ba 94 3d
       0.12274016 0.28381583 -0.11506199 0.072622
0000c0 02 c4 03 3e 4e fa d4 bc 5e f8 f5 bc 71 8a e6 bb
       0.1286774 -0.02599826 -0.030025657 -0.0070355465
0000d0 f8 72 a2 3d 00 63 4c bd 04 78 35 3d 76 10 bf 3d
       0.07932085 -0.0498991 0.04430391 0.093293115
0000e0 dc 6a 2c 3c f4 be d4 bc 2f 9f 84 3e f2 12 14 bd
       0.010523524 -0.02596996 0.25902697 -0.03615088
0000f0 91 9e fb bd a5 45 ab 3d 06 9e a2 3d 8a b0 c9 3d
       -0.122861035 0.08362893 0.07940297 0.09848125
000100 79 9a 64 3d 52 4f 72 3b c7 ca 73 3d 69 0b ba 3d
       0.05581138 0.0036973548 0.059519555 0.090842076
000110 36 71 3d 3d 26 cf 85 bd e5 66 c6 bd 1b 5d 20 3e
       0.046250544 -0.06533651 -0.09687594 0.15660517
000120 96 c2 a7 bc 3b 20 23 3d d9 64 07 be 4d 3b c7 bc
       -0.020478528 0.03982566 -0.13222064 -0.024320269
000130 8a 1b 67 be bd 1a bb bd 3c b0 91 bd 4b b6 95 3d
       -0.22569099 -0.09135959 -0.07113692 0.0731016
000140 35 75 4b 3d 0e 4c 7d 3e 90 a6 97 3d fb 6f 57 be
       0.049672324 0.24736044 0.07404816 -0.21038811
000150 dc 6c 14 be 84 75 ce 3d 56 2f e1 3d 4d d0 c3 3c
       -0.14494652 0.10081008 0.10995357 0.023903036
000160 14 77 82 3c 4f 2c 4d 3d 25 62 5d bd b0 78 c3 bd
       0.015925921 0.050091084 -0.054048676 -0.09544504
000170 dd a8 74 be dd bc f0 bd 14 39 9e bd 85 70 58 3d
       -0.23892541 -0.11754773 -0.077257305 0.052841682
000180 f6 8b 02 bc 64 02 ba 3c 87 49 6b be 97 51 01 3e
       -0.00796794 0.022706218 -0.22977267 0.1262878
000190 1d d3 09 3d 0c ee 99 bd 7a 67 09 3b c2 26 06 bd
       0.0336486 -0.07516107 0.0020966218 -0.032751806
0001a0 b8 fa 15 be b5 8e eb 3c b5 5b 85 3b 34 de a8 3c
       -0.14646423 0.028754571 0.00406977 0.020613767
0001b0 c8 e4 71 3d ac 98 d5 bb 02 e3 0a 3e 8b 10 a1 bd
       0.059056073 -0.006518444 0.13563159 -0.078644834
0001c0 5a 7e 5c 3d bd 44 8f bd 34 16 c1 3d 34 18 8a bd
       0.053831436 -0.06995533 0.09428063 -0.06742898
0001d0 45 a3 78 3c b9 d2 35 be 55 71 ef bd 42 f8 a7 bd
       0.015175645 -0.17756166 -0.11691538 -0.08201648
0001e0 4c 59 15 bc 97 5b e4 bd e2 3d 29 be e9 6e 12 3e
       -0.009115528 -0.11150282 -0.16527513 0.14300121
0001f0 9c 6c 14 be 71 c3 ea 3d b5 83 d7 bd eb d2 33 3c
       -0.14494556 0.11463059 -0.10523168 0.01097558
000200 eb 3d df bc 36 e6 96 3e 4a 2d 3a be 62 49 10 3e
       -0.027251204 0.29472512 -0.18181339 0.14090493
000210 56 ad 94 b9 2b 1a 22 be d6 92 2b be 42 0f 9b bd
       -0.00028357905 -0.15830295 -0.16755232 -0.075712696
000220 91 ed 91 bd db 77 dc 3d 94 a5 08 3e 47 7c 54 be
       -0.0712539 0.10765048 0.13344413 -0.20750533
000230 af 36 ed bc 73 a2 28 3e a4 e2 0f 3e 26 dc 58 3d
       -0.02895674 0.1646822 0.140513 0.052944325
000240 e2 fc 52 3e 00 23 ed bc 85 83 9d 3e 29 5e 9b bd
       0.2060428 -0.028947353 0.30764404 -0.07586319
000250 30 13 b4 bd 6f 40 2a bb ad a9 ab bd e6 d0 ec 3d
       -0.08792722 -0.0025978347 -0.083819725 0.11563282
000260 8a e3 95 3d 3a ef 95 bc ec 11 cb bc de e1 15 bd
       0.0731879 -0.018302549 -0.02478882 -0.036592357
000270 a8 5b 29 3d 29 c6 1e 3d 92 b6 26 3e 7f 7c fe bc
       0.041347176 0.0387632 0.16280583 -0.031065224
000280 e4 95 fe 3d 1c f7 1a 3d 0d bc 1d 3e 8a 52 12 be
       0.12430933 0.037833318 0.15403767 -0.14289299
000290 1f 61 c3 bd d0 f4 9b 3c 33 0e 4a 3e 98 d0 ba 3d
       -0.09540009 0.019037634 0.19731979 0.09121817
0002a0 c4 58 5d bd fb 2d 35 bd 45 a9 20 3e a1 fc 32 bd
       -0.05403973 -0.044233304 0.15689571 -0.043697957
0002b0 d0 7d 71 bd 04 c2 8c bd da 1d 7f 3b b6 9b 00 be
       -0.058957875 -0.06872943 0.0038927705 -0.12559399
0002c0 aa 99 b4 bc 7f 7d 50 bc 56 0e 96 3d da 74 85 3d
       -0.022045929 -0.012725233 0.07326953 0.06516428
0002d0 84 5f 20 3e 4b fc e0 bc 35 87 32 3e 6f 31 9f bd
       0.15661436 -0.027464053 0.1743439 -0.077731006
0002e0 90 34 67 bc 4b 71 34 3e 0b 71 b3 3d cb a1 fe bd
       -0.014111653 0.17621343 0.087617956 -0.12433203
0002f0 bc ba 8f 3d 72 bf 41 3d 74 7d d6 bc 44 fd 55 be
       0.07018039 0.047301717 -0.026182868 -0.20897394
000300 ab fb 09 bc ac e4 b8 3d 44 b6 32 3d f3 11 1b 39
       -0.008421819 0.09027991 0.043630853 0.00014788639
000310 7e e8 e6 bc ed f3 c0 bd d9 ab f5 bd 13 a4 b0 3c
       -0.028187033 -0.09421525 -0.11995668 0.021562612
000320 4f f9 4d 3d c0 62 7c bd 12 2d 42 bd c9 6a cd 3c
       0.050286587 -0.061617613 -0.047406264 0.025075333
000330 ab 15 2d 3e a4 00 f2 bd d0 6a 47 3d 0f d1 9e bd
       0.16902797 -0.118165284 0.04868585 -0.077547185
000340 94 40 3d bc a8 86 41 3c ea ec 0d bd 62 cb b0 bd
       -0.011551041 0.01181189 -0.034649767 -0.08632542
000350 8a c8 04 bb 32 05 1b bd 68 92 13 3d e8 d4 01 bc
       -0.0020261132 -0.03784675 0.036028296 -0.007924296
000360 2d 36 04 3e 96 70 3b 3d 0e ae 2e 3e dc e4 de bd
       0.12911291 0.045761667 0.17058584 -0.10883495
000370 da e7 47 bd da fc 13 3d 9f 3f b8 bd a0 f7 38 be
       -0.048805095 0.03612981 -0.0899651 -0.18063211
000380 aa 95 cc 3c 3d 26 e5 3d 6f 6f ca 3d 94 45 23 bd
       0.02497371 0.11188934 0.098845355 -0.039861277
000390 77 67 6b 3d 20 03 7d 3d e3 ea ee bd 98 b5 bd bd
       0.05747172 0.06177056 -0.11665895 -0.09263152
0003a0 04 69 11 3e 5f 00 f9 3c fa 95 08 bc 2c ea 02 be
       0.14200217 0.030395685 -0.008336538 -0.12784642
0003b0 cc f2 5b bd 17 3a ac 3d 2e 47 32 3d 43 39 8a bd
       -0.053698346 0.08409517 0.043524913 -0.06749203
0003c0 bd 41 8d bb 50 40 ab 3c b6 42 2d 3d 96 46 50 bd
       -0.004310815 0.02090469 0.04229995 -0.050848566
0003d0 56 d9 0d 3e ee 6e a0 bd 33 eb e2 3d bd 71 45 3e
       0.13852438 -0.07833658 0.11080017 0.19281669
0003e0 34 80 fa bd c3 a5 19 3a 1d 2f 53 bd b9 7b bd 3d
       -0.12231484 0.0005861187 -0.051558603 0.09252114
0003f0 99 ac 4c 3d 49 92 3e 3d f6 ff 4e 3c c9 02 b0 bd
       0.04996929 0.046526227 0.012634268 -0.08594281
