results/npc_move_shot_player_move/NPCAgent/NPCAgent-499967.pt (torch, 610063 bytes, 42 tensors)

network_body._body_endoder.seq_layers.0.weight f4 [128, 60]
00000000: bb7c 873d 01dd 8ebe eed0 963e 6045 9fbe
00000010: ce97 3ebe cc9c d3bd b273 af3d 6985 533d
00000020: a00a 08be 7798 78be 5298 003d aa47 483e
00000030: a289 363e c2d4 4a3e 6a72 743d 729d 9c3d
00000040: 19c3 9d3d f871 1cbd 0be0 603e c2bf e8bd
00000050: 1293 9a3d 2c06 4cbc ea61 0dbe 5256 143c
00000060: ccf3 603e 4877 ffbb 7fbc 4f3d cf10 4c3d
00000070: a114 81be fac8 11bd 88bd 29be 95a0 b93b
00000080: 4bc9 a0be 0849 05be 3bc4 13bd f966 9fbd
00000090: ea9b 273e e4ca 0d3e 7126 953b 7b95 1cbe
000000a0: 674e 5a3d 1bbd 9b3d 5994 59be b9fe b53b
000000b0: af8b 7c3e f90e 6bbe 681d 57be 3f58 84bd
000000c0: 03c2 3d3e 987d 113e cfc7 c43d 83a3 03be
000000d0: c96d e8bc b8dc e2ba 225a 0a3e 4574 b9bc
000000e0: e47f b2bd 490a febd 1a01 fd3d 44dc ff3c
000000f0: e1de 0f3e f989 5d3d 659a 96be 059e 473d
00000100: 2cf1 193e 2552 93bd ec41 a03d 274c e4bc
00000110: cff5 933c 1f0f ab3d 5a94 413d 62a9 c6bd
00000120: 07e3 05be 9857 de3d bc69 633e 5b33 a1bc
00000130: 7424 483e fe53 a03c abcf 233d bee5 1bbe
00000140: f835 39be 5ccf 19bd e94c 94bb f101 12bc
00000150: 4256 ab3c f222 c03d 9a22 523c b370 c9bc
00000160: 9cca f6bd 5522 89be 95a6 c7bd 1e21 863d
00000170: f91d 26be 3c9c 2ebe 22c2 bfbd b0e8 f2bd
00000180: 24bd 423d a7e4 61be b67d 03be 00f7 16be
00000190: 8d22 d33d a4ae 9dbd 6a7b 37be ff8f 90bd
000001a0: 67a5 7abc 37b8 0fbe c9d5 0e3e 79e6 55be
000001b0: de1f 6f3e 8707 15bd 084f 0abe 6a0e 2cbe
000001c0: 42c0 a4ba c41f 35be 0787 ea3d 1256 803e
000001d0: 53e1 383e cebf 283e 5043 bcbc 1c07 cd3d
000001e0: e156 593e 83b0 0ebe 27aa f03d 1b84 6cbb
000001f0: 90be cc3d 598c e7bd f2d6 bfbd f340 793e
00000200: f1a8 f83c ac4d 06be b008 22bd 48ba 543e
00000210: 1485 9d3d 3cf2 14bd f790 833d b7f5 0bbe
00000220: bbdc 36be e8d0 f43d 1e2c 07be ddcb c5bd
00000230: e90c 16be b64c 0bbd f744 173e b0f0 9d3d
00000240: ab4b c33c 2ecc 0e3e 8591 9f3c c0d1 5fbe
00000250: 39f3 1bbe 5571 0fbc ad16 be3d 8845 293c
00000260: c560 c3bd 4f52 46be bba3 da3c 07d7 c8be
00000270: f0fd 9b3d eef2 0a3e ab32 8cbd 1978 fbbc
00000280: 3e32 453d 3018 4bbe 5aa0 fabd 6cb8 0b3d
00000290: 070b ad3d e0a8 043e 5a3a 983d c2e2 a7bd
000002a0: 9655 3cbe e5be 503e 1a92 183d 13cb 9c3c
000002b0: 73f6 3cbe e44b 493c 7743 8dbe 0c16 84be
000002c0: 1c2e 02be 4b82 3d3e 9f51 a63d 4520 acbe
000002d0: 26de 7bbe a6ca 89bb c728 dfbc dbee f13d
000002e0: 4283 c93d cde5 163e 156b c9bd 5f23 09be
000002f0: 5e26 a83c 0597 e03d fff7 febc e873 6c3e
00000300: 91f7 443e c316 113d fe2b 05be b09c 8e3e
00000310: 3fba 01bd 799f edbd 1fb3 7dbe 6776 df3d
00000320: 734a c7bc b3e8 8f3e 7c9b 06bd deb3 3a3d
00000330: e61f a03d 6d1b 043e 181f be3c 54e0 e6bd
00000340: 1491 e63d a2fd 1dbc 6b4d 79bd e658 9c3d
00000350: 933d 68be b6f4 813d 21b4 6abe 202e e83c
00000360: dd82 a33d d65c d33d ee2a cf3b 2c32 693e
00000370: 5513 ee3c 8b59 163e 74c5 e43d 9293 58bd
00000380: 442f 233e 45b3 25bc fa3e ff3d 23bf 403e
00000390: 533e d6bd 506f b03c 97de e43c e29d 5e3d
000003a0: 443f 9a3b 110f 033d 152f b23d e732 03bd
000003b0: 58eb ab3d 6551 bdbd fd5c 013e 84b4 903d
000003c0: b71a 44be 9b98 8abd ab3f 82bd 7738 eabd
000003d0: 29bb d5bd 3db7 7d3b b61b 183e 1c27 42bd
000003e0: a6b2 963d 33ad 783d 7616 44bd 5f9a b63d
000003f0: 7a59 edbd 862c 50bd 7159 6ebd 511c 1dbd
0.06615587 -0.27902988 0.29456276 -0.31107616 -0.18612596 -0.10332641 0.08566989 0.0516409
-0.13285303 -0.2427691 0.031395264 0.19558588 0.1782594 0.19807723 0.059679426 0.07647218
0.077032275 -0.038194627 0.21960466 -0.113647 0.07547583 -0.012452643 -0.13806883 0.0090537835
0.21968001 -0.007796202 0.050716873 0.049820717 -0.2521105 -0.035592057 -0.16576207 0.005664895
-0.31403574 -0.1301614 -0.03607581 -0.07783312 0.1636807 0.13846928 0.0045517017 -0.15291397
0.053297427 0.076044284 -0.21247996 0.005554047 0.2466266 -0.2295493 -0.21007311 -0.06462144
0.18531041 0.14208066 0.09608423 -0.12855344 -0.028372662 -0.0017308211 0.13510945 -0.02263845
-0.087157995 -0.124043055 0.12353726 0.03123296 0.14049865 0.05408666 -0.2941467 0.048734684
0.15033406 -0.07193402 0.078250736 -0.027868344 0.018061547 0.083524935 0.04726062 -0.09700276
-0.13074885 0.10856551 0.22208303 -0.019677809 0.19545156 0.0195713 0.03999297 -0.15224358
-0.18086994 -0.03755127 -0.00452577 -0.008911596 0.020915154 0.09381665 0.0128256325 -0.024589872
-0.120503634 -0.26784006 -0.0974857 0.06549285 -0.16222371 -0.17051786 -0.093632 -0.11860788
0.04754366 -0.2205988 -0.12840924 -0.1474266 0.103093244 -0.07699326 -0.17918172 -0.07058715
-0.015298224 -0.14035116 0.1394874 -0.208887 0.23352 -0.03638413 -0.1350671 -0.16802374
-0.0012569504 -0.17687899 0.11451536 0.25065666 0.18054704 0.16479418 -0.022981316 0.10011122
0.21224548 -0.13934521 0.11751204 -0.0036089483 0.099972844 -0.11306066 -0.093671694 0.24341182
0.030353995 -0.13115567 -0.039559066 0.20774186 0.07691398 -0.036363825 0.06424134 -0.13667952
-0.1785764 0.11953908 -0.13200423 -0.096580245 -0.14653362 -0.034008704 0.14772402 0.07711923
0.023839792 0.13945076 0.019478569 -0.21857357 -0.15229501 -0.008755048 0.09281669 0.010331519
-0.09539942 -0.19367336 0.0266894 -0.39226553 0.07616794 0.13569233 -0.06845602 -0.030696915
0.048143618 -0.19833446 -0.12237616 0.034111425 0.08449369 0.12955046 0.07433005 -0.081975475
-0.18392023 0.2038532 0.03724871 0.019139802 -0.18453388 0.01228616 -0.27590534 -0.2579807
-0.12712902 0.18506734 0.08121037 -0.3361837 -0.24596462 -0.004205066 -0.027241124 0.11813136
0.098394886 0.147361 -0.098348774 -0.13392399 0.020526107 0.10966305 -0.031124113 0.2309109
0.19235064 0.035422098 -0.13005063 0.27853918 -0.03167176 -0.116026826 -0.2477536 0.10911255
-0.024327492 0.28107223 -0.032863125 0.04558169 0.07818584 0.12901087 0.023208186 -0.11273256
0.1125814 -0.00964299 -0.060864847 0.076341435 -0.22679739 0.06345503 -0.22920276 0.028342307
0.079839446 0.103204414 0.0063222563 0.22773045 0.029061953 0.14682595 0.11170474 -0.05287511
0.15935999 -0.010113542 0.12463184 0.18822913 -0.10461106 0.021537453 0.02793817 0.054349788
0.004707249 0.03199679 0.087003864 -0.032030966 0.08394498 -0.092440404 0.12633128 0.070656806
-0.19150816 -0.067673884 -0.063598 -0.11436551 -0.104360886 0.0038713955 0.14854321 -0.04740058
0.07358293 0.06071205 -0.047872983 0.08916163 -0.11589332 -0.05082371 -0.058190767 -0.038357083

network_body._body_endoder.seq_layers.0.bias f4 [128]
00000000: 7ffd 3d3b 4113 24bb 2722 77bc ae0e c9ba
00000010: fea2 45bb b1bc c33b b8a4 883c 3393 623a
00000020: 52c9 daba 1090 8dbc 3095 3a3c ece8 333b
00000030: 6300 b93b f7be 4cbb b3f5 3c3c 3593 ab3b
00000040: ba42 14bc 0f92 b7bb f224 97b9 7314 b63a
00000050: 1eda da3b 562b 90b9 d253 5aba 3395 693b
00000060: a17c 053b d3d8 0bbb 9322 d5ba 4143 473c
00000070: 20e2 ef3b b341 35bb ac0f 9abb 6473 623c
00000080: f6de 72ba 6d41 99bb 1d88 a13b 2153 113c
00000090: fd29 19bb 0439 c7b8 6e4a ccba 9df5 47bb
000000a0: 0a5d 8c3b 481d c73a cdb4 5e3c 437c 9fba
000000b0: a00f ceba 2a0f 03b7 7a0b 2d3c 8177 a03b
000000c0: 7bf0 d5bb 37b1 323a 0429 8d3b a9a5 0a3c
000000d0: be68 8b3a 7926 22bc fb2d b63b b0e3 ddba
000000e0: 14ab 5a3b c88c 48bb e127 baba ef1b ffbb
000000f0: 8f9b a83b ddda 803c 6bf1 d0bb 7764 e63b
00000100: f9ac b63c 98e7 113a eea3 95bb 7687 3cbc
00000110: f36c 653c 4c8e efbb fb70 763c 0d36 6a3a
00000120: 4aa9 d1ba adc8 9cbb 1931 febb b4f9 703c
00000130: d6c8 b0bb ec53 c33a 97e5 543c 3ce5 5d3c
00000140: a22a 913b 344d cdbb 3a4e ee3b 967b 673a
00000150: fa5a 323b 1211 743a 7e6e 77bb 9aaf 6137
00000160: a524 eebb 4adb c9bb db8a edba d902 913a
00000170: d2e4 a5bb 99b5 743c 604b 243b 661a 81b8
00000180: b181 1b3c 2fa0 ec3b 364c bebb 3fb7 1a3b
00000190: 3d3d 84ba 6b32 97bb 1b8a 853a 613f e539
000001a0: ecf3 783a e491 373c 6e72 c43a bbf1 c83b
000001b0: eeb3 0bbc 5db8 70bc 37af 54bc 713a 063b
000001c0: e8fb 2bbb dcc8 caba 9da0 71bb 27e4 10bb
000001d0: 954f 913c 002e f6bb f79d e03a 29c4 1cba
000001e0: 0ede a0bb cbef 163c 4adb 53bb ada8 30ba
000001f0: 8270 0f3c 7701 b83b e5fc 15bc 6870 453b
0.0028990207 -0.002503589 -0.015083826 -0.0015339458 -0.0030156965 0.0059734215 0.016680107 0.000864315
-0.0016692078 -0.017280608 0.011388108 0.0027452065 0.005645798 -0.0031241754 0.011533189 0.0052360543
-0.009049112 -0.0056021283 -0.0002882849 0.0013891592 0.0066788336 -0.00027498108 -0.000832853 0.0035641908
0.0020368474 -0.0021338954 -0.0016260914 0.012162031 0.0073206574 -0.0027657568 -0.0047015753 0.013821457
-0.0009264791 -0.004676989 0.004929556 0.008869917 -0.0023370974 -9.4996794e-05 -0.0015586147 -0.0030511387
0.004283552 0.0015191222 0.013592911 -0.001216777 -0.0015721209 -7.811739e-06 0.010561818 0.0048970585
-0.0065289116 0.0006816568 0.004307868 0.008462348 0.0010636074 -0.009896868 0.0055596805 -0.0016928818
0.003336613 -0.003060149 -0.0014202559 -0.0077853124 0.005145497 0.015729362 -0.0063764355 0.0070310193
0.022299277 0.0005565821 -0.004566661 -0.011506906 0.014003026 -0.0073106643 0.015041585 0.0008934446
-0.0015995887 -0.0047846646 -0.0077573177 0.014707971 -0.0053950353 0.001490233 0.012994192 0.013543423
0.004430131 -0.006265307 0.007272509 0.00088303664 0.002721487 0.0009310405 -0.0037755067 1.34519305e-05
-0.007267552 -0.0061601745 -0.0018123047 0.0011063471 -0.005062678 0.014935874 0.002506934 -6.1561164e-05
0.00949137 0.007221244 -0.005807425 0.0023607758 -0.0010089051 -0.0046141646 0.0010188253 0.00043725505
0.00094967964 0.011204217 0.0014987716 0.006132332 -0.008526785 -0.014692393 -0.012981228 0.002048161
-0.0026242677 -0.0015471238 -0.0036869415 -0.0022108646 0.017738143 -0.007512808 0.0017136921 -0.0005980158
-0.0049092835 0.009212445 -0.0032326751 -0.0006739002 0.008754851 0.005615409 -0.009154533 0.0030126814

network_body._body_endoder.seq_layers.2.weight f4 [128, 128]
00000000: a8d0 fc3c d393 e7bc 664f 8c3d 05d9 633d
00000010: 0836 053d e15c 23bd 9699 733d 69c4 12be
00000020: 61fa b53d 7aae 8e3d 0965 31be 8be2 02be
00000030: 5b13 4f3c 6a5e bd3d b2bf 193d c53a 90bd
00000040: ac09 fbbd 53c9 e2bc 8d2a 123e c4b3 08be
00000050: 2d0d 3dbd 67ce 973d 470d 363c 5bcb 233d
00000060: a449 ef3b b773 1dbe 1b44 d8bc 41de 46bd
00000070: 24ca ccbd 4969 8c3d e901 1abe 71d2 08bb
00000080: 7add c3bd bbdd d0bc ebd4 84bd 8357 42bd
00000090: 8729 80bc 6444 c53b 0655 8d3d b2e3 3f3d
000000a0: 39b2 543d 384e 8c3e 044d cebd 944d 4c3d
000000b0: 1f0c 483c 2685 a6bd 405c d1bd 0d1e f5bc
000000c0: 558f 903d 883d 293e 0528 aa3d bd98 033c
000000d0: 6fc6 2abd 9129 9dbd 6fe5 a0bc b7aa 163d
000000e0: b903 0f3e 7f2c 163e 90ff fcbc 4cc3 64bd
000000f0: f2e3 423d e305 96bd 4c95 383e 3bed 25bc
00000100: ea7f 783d db27 b13b 09ef 8f3c da15 9b3d
00000110: 1ca3 873d ce46 f53d 71f9 b53b 0ea5 ddbd
00000120: f7d2 9d3d 4ae3 9a3d 66e1 063e b5cb 95bd
00000130: 228f 483d ffb0 ec3c 3c60 02be 485a ccbd
00000140: 0d64 a63d d597 86bd 3540 52bd 3139 913d
00000150: 021c a63d 7b91 83bd e4ac 79bd afe6 a03d
00000160: 93fb 073e 86f3 083d e00b 4b3d 4744 6ebd
00000170: e8bb c83d f436 ad3d 5c7a c53c 3b47 a33c
00000180: 770a f13b 7e0f 473d b7a4 1d3e 0391 70bd
00000190: 759e 67be 17a2 43bd 488c f3bd 982d 23bd
000001a0: b39c b3bd ac90 a1ba a704 a83d 89cc 623b
000001b0: da80 a4bd e5bd b7bd 6bd4 863d 8b08 1c3e
000001c0: a9a1 943d ff66 abbd 0327 89bd c1e6 61bd
000001d0: 9979 8fbc df62 803c a95e 743d 9c00 03be
000001e0: 199e d43c 3ba6 03be 796d 62be 9c14 11be
000001f0: 9c7a cc3d 7b35 39bd 78e4 883d db1b bdbd
00000200: f55c 8d3d 9e3a 5b3d e80f de3c 893a 9fbb
00000210: 190d 93bd 7998 763d 5eb8 edbc da52 873d
00000220: 8e3b 693e 9bca 40bd 99c4 12be 1d5e 5f3b
00000230: 07cc e1bd 21d7 c53d a555 f53d da21 25bc
00000240: ba8e b4bd 904a 09bd c2d5 303d 2b59 e1bd
00000250: 871c 9f3d faf8 e3bd d2ca b5bc 3603 1fbe
00000260: abe1 a73d 988b d4bd 29c5 46bd eafe d5bc
00000270: 6347 a4bd 782e 273d f403 a23d 78a7 dc3d
00000280: da59 fc3c 1d54 3a3b 32cb 173e d871 76bd
00000290: 14e6 c3bd 7b5b eb3c f2bf 83bc 3e5b 4a3d
000002a0: db86 793c 3f07 7dbd 4d4a 253e d971 02be
000002b0: 787b f03d 212f 393d 6b9a b53c 986a 113d
000002c0: 55d4 8e3c fa9d bdbb c24c 35bc fa54 a9bd
000002d0: ce68 9fbd 11c7 4a3d 6d22 0e3b 3a67 65bd
000002e0: a942 9fbc bbfc 473c 426a 39bd 87a2 a23d
000002f0: e7fc f9bc 878e 8abc a63b b3bb db4b 943c
00000300: 9345 13bd 8d84 1d3d b814 43bc 04ff f4bc
00000310: dffe 08be 3588 c13b d0fc dfbd bb49 a73d
00000320: 4bec 043b a4a2 dd3d eccf 5dbd cb4b 14be
00000330: 48f4 cc3c c43c e1bd 3f40 f1bd 9e06 f63d
00000340: 18c6 203d 1bc2 d5bc 935a 5b3d 607c 95bc
00000350: 3679 9fbd e85f 8abb 1352 62bd 8974 043d
00000360: 9f21 913d 15e0 c7bc 30ae 783b 18f0 8dbd
00000370: 0db8 1fbe 0cf6 b0bc 93b8 29bd 31c5 23be
00000380: d21b 76be 9101 c33d 8a18 93bd 147c f9bd
00000390: 59b4 5f3d 7590 9c3d f90a 3b3c a6aa d8bd
000003a0: ab53 b83c 38d9 813d 5dff 56bd 3cad e4bd
000003b0: f673 18bc 3164 44be 15d1 f7bd e6de f53c
000003c0: 4d94 3ebd a255 7fbd 365a 6abd f2f8 b5bd
000003d0: 0533 00bd c7e6 49bd 8006 003d 80b7 c7bd
000003e0: 2f81 63bd 80b9 09be 5394 813d b566 00be
000003f0: 1160 593e 7543 27be 04ae 68bd 0ad0 b43d
0.030861214 -0.02826873 0.068510816 0.055626888 0.03252223 -0.039883498 0.059472643 -0.14332737
0.088856466 0.069668725 -0.17323698 -0.12781732 0.012638892 0.09246524 0.03753633 -0.070424594
-0.12257704 -0.02768389 0.14274044 -0.13349825 -0.046155144 0.07412415 0.011111564 0.039988857
0.00730248 -0.15376173 -0.026399663 -0.0485518 -0.09999493 0.06856019 -0.15039791 -0.0020877386
-0.09563728 -0.025496354 -0.064859234 -0.04744674 -0.015644802 0.0060201157 0.069009826 0.046848007
0.05192778 0.27403426 -0.10073283 0.04987867 0.012209921 -0.08130865 -0.102226734 -0.029921556
0.070585884 0.16527379 0.08308414 0.008032021 -0.041693147 -0.07673944 -0.019640652 0.0367839
0.13966264 0.14665411 -0.03088358 -0.055850312 0.047580667 -0.073253416 0.18025702 -0.010127361
0.060668863 0.0054063625 0.017570036 0.07572527 0.066229075 0.119763955 0.0055534174 -0.10822497
0.07706254 0.07562883 0.1317192 -0.07314245 0.048964627 0.028892992 -0.12732023 -0.09978157
0.08124552 -0.065719284 -0.051330764 0.070909865 0.08110811 -0.064242326 -0.060955897 0.078564994
0.13279562 0.033435367 0.04957187 -0.058170583 0.09801465 0.08457747 0.024106197 0.019931426
0.007355984 0.04859876 0.15394865 -0.058732044 -0.2261904 -0.047762003 -0.11891991 -0.039838403
-0.087701224 -0.0012326441 0.08204012 0.0034606776 -0.08032389 -0.089717664 0.06583484 0.15237634
0.07257397 -0.08369254 -0.06696894 -0.055151705 -0.017514037 0.015672145 0.059660587 -0.12793201
0.025954293 -0.1285638 -0.22112073 -0.14168018 0.099843234 -0.04521702 0.06684202 -0.09233829
0.06902496 0.0535227 0.027107194 -0.004859273 -0.071802326 0.060204003 -0.029018577 0.066075996
0.22776625 -0.04706822 -0.14332809 0.0034083195 -0.11025243 0.09660173 0.11979226 -0.010078872
-0.088162854 -0.033518374 0.043172605 -0.110033356 0.07769113 -0.11131473 -0.022191439 -0.15528569
0.081973396 -0.10378188 -0.04852787 -0.026122529 -0.080214284 0.0408158 0.0791091 0.1077413
0.030804563 0.0028431483 0.14823607 -0.060167164 -0.09565368 0.028730145 -0.016082738 0.04940342
0.015229906 -0.06177449 0.16141625 -0.12738742 0.117423 0.04521096 0.022168359 0.035502046
0.017435232 -0.0057866545 -0.011065664 -0.08268161 -0.07783662 0.04950625 0.0021688 -0.056006648
-0.019440966 0.012206252 -0.04526735 0.07941156 -0.030516101 -0.016913665 -0.005469757 0.018102577
-0.035955023 0.03845649 -0.011906795 -0.029906757 -0.13378476 0.0059061297 -0.10936892 0.0816836
0.0020282443 0.10822037 -0.054153368 -0.14482038 0.025018826 -0.10997918 -0.11779832 0.12012981
0.039251417 -0.026093533 0.053553175 -0.018247783 -0.07786791 -0.0042228587 -0.055254053 0.0323377
0.07086491 -0.024398843 0.003794562 -0.0693056 -0.15597554 -0.0216017 -0.04143579 -0.15993191
-0.2403405 0.09521783 -0.07182415 -0.12181869 0.054615352 0.076447405 0.01141619 -0.105794236
0.022500833 0.06340259 -0.052489627 -0.11165854 -0.009304991 -0.19178845 -0.12100426 0.030013513
-0.04652815 -0.062337525 -0.057214938 -0.08885373 -0.031298656 -0.049292352 0.0312562 -0.09751797
-0.05554312 -0.13449669 0.06327119 -0.1253918 0.21228053 -0.16334327 -0.05680658 0.08828743

network_body._body_endoder.seq_layers.2.bias f4 [128]
00000000: 518e 88bb 61ff 0abb d0ea d0bb d358 12bc
00000010: 28eb 77bb 382f 45bc 9af1 2f3b f3d7 d03b
00000020: 1cb1 6a3a 7fe6 99ba ea4d bf3a a7fd 1eba
00000030: c2ed 46bb aa21 d3bb e608 573b 89bb 293c
00000040: b6fd 08ba 2978 083a 48d4 633c 1d95 fbba
00000050: 70b8 ae3a e693 523b ed3a a8ba 8531 cc3b
00000060: 654f 5f3c a540 afba 9142 923a 1131 913b
00000070: 77d8 823b e41a 9fbb 5fbc e2bb e137 3ebb
00000080: f160 cd3b ed06 063b 5752 9e3b 8c88 8eb9
00000090: a724 ba3b fc3c 0a3c 266f adbb 3b25 c53b
000000a0: b787 313c eac7 bcbb f046 f63b 959a 3ebc
000000b0: d90b bf3b 2bfb 94bb 69ab 0f3c 7b6e 343b
000000c0: 01d9 12ba 3dad 043b 4cd9 063a e5d4 6e3b
000000d0: 57cf 0cbb afbe 973b 9c8a 28b9 ece5 9fbb
000000e0: f4a8 143b 208c 9e3b a5c2 ffbb c205 08bb
000000f0: 8311 ccbb d532 c43b ea71 b9bb 65d7 d23b
00000100: fd3d 6f3b 395e a7ba d602 2ebb 404e 2cba
00000110: e12c 45ba 35e9 80ba cb15 0abc 5331 643b
00000120: bebb 163b f0c7 8ebb ee77 083c 8849 a73b
00000130: fd7b bd3b 3af5 1f3c af64 40bb 127b 3dbc
00000140: cd77 033c 76f0 e7ba 76f6 c7bb db35 c4bb
00000150: e541 08bc cf7c 663b c1d2 45bb 41e9 863c
00000160: 8089 4dba 5eed 5a3c 31c7 8e3c 88e6 ae3b
00000170: 4d68 a23b 5f99 303c 9ead 2cbc fd44 44bb
00000180: cdff 18bc a459 9abb 96e0 64bb 45d3 cbba
00000190: f8c8 ac3a e454 e03b bff3 cdbb f21e 4ebc
000001a0: 14c3 d83a ae54 5d3b 1a6f 2ebb 3828 2c3c
000001b0: b4eb 74bc 2601 49bc 6dd3 01bb 09b8 feba
000001c0: 0b24 94bb 7a23 ddbb 4ba3 dd3b 7d30 adba
000001d0: 03a9 0a3b db41 4dbb 773e 1abc 319f cabb
000001e0: facc 0f3b 14cc e5bb 0858 cdbb 9526 8ebb
000001f0: 50ac 313c a2fc b6b9 51e7 1bbb d457 66bb
-0.004167356 -0.0021209347 -0.006375648 -0.00893231 -0.0037829373 -0.012035184 0.0026846887 0.0063733994
0.0008952783 -0.0011741667 0.0014595364 -0.0006065019 -0.0030354117 -0.006443222 0.00328117 0.010359653
-0.0005225794 0.00052058935 0.013905592 -0.001919422 0.0013330113 0.0032131611 -0.0012834944 0.006231489
0.013629769 -0.0013370706 0.0011158754 0.004430898 0.00399309 -0.0048555005 -0.0069194282 -0.0029025006
0.00626766 0.0020450905 0.004831593 -0.00027186086 0.005680639 0.008437391 -0.005292791 0.006016401
0.01083558 -0.0057611363 0.0075157806 -0.011633535 0.00583027 -0.004546543 0.008768895 0.0027531672
-0.0005601794 0.002024486 0.0005144074 0.0036442813 -0.002148589 0.0046308856 -0.00016073365 -0.0048797037
0.0022683712 0.0048384815 -0.007805186 -0.0020755385 -0.0062276735 0.005987505 -0.0056593316 0.0064343684
0.0036505454 -0.0012769169 -0.0026551983 -0.00065729395 -0.0007521641 -0.0009835126 -0.008428047 0.0034819439
0.0023000087 -0.0043573305 0.008329375 0.005105201 0.005782603 0.009763056 -0.0029356887 -0.011564987
0.008024168 -0.0017695564 -0.0061023785 -0.0059878654 -0.008316492 0.0035169607 -0.0030185434 0.016468646
-0.00078406185 0.013362257 0.017428966 0.00533754 0.0049562813 0.010778754 -0.01053944 -0.0029948347
-0.009338331 -0.004710393 -0.0034923903 -0.0015550634 0.0013182452 0.0068460573 -0.0062851603 -0.01258062
0.001653763 0.0033772397 -0.0026616515 0.010507636 -0.014948774 -0.01226834 -0.0019809857 -0.0019433509
-0.004520898 -0.006748614 0.006763851 -0.0013213303 0.0021157868 -0.003131977 -0.009414307 -0.006183528
0.0021942244 -0.0070128534 -0.0062665977 -0.0043380954 0.010844305 -0.0003490197 -0.0023788998 -0.0035147564

action_model._continuous_distribution.log_sigma f4 [1, 2]
00000000: 6a22 803c d3e1 b13c
0.01564141 0.021714127

action_model._continuous_distribution.mu.weight f4 [2, 128]
00000000: ba16 073d 837f 3c3c 4869 af3c 0e03 593c
00000010: 7f33 2ebc ae0e 9c3c 1465 d53b af56 473c
00000020: 001a 8cbc a57c 143c 568f d23b 33c3 233d
00000030: 939a 723c 0879 903c 7c30 abbc 835e 6abc
00000040: 34a5 8fbc 2e06 b93c 0663 17bc db5f 5a3c
00000050: b403 313c d0b2 053b fbfc 71bc 323f f1bc
00000060: 3d8f 163c e406 bfbb aa4a a5bc 798a 753b
00000070: 3ce4 f8bb ebbc 3aba e3f3 ddba ca97 a53c
00000080: eba6 883c f44d fdbb c366 36bc 9a6e bfbb
00000090: d7a9 813b 8889 863c e9d6 553c 53d5 273d
000000a0: eb2a f0bc b1b1 ed3c c7d2 ccbc 45e6 ceba
000000b0: 9735 1ebb 7f3c 0a3d e8cb dbbc 367c 89bb
000000c0: e867 d03c 67d9 213c 5e64 c13a 23e2 f0bc
000000d0: e0fe c4bb 3b84 cebc 6d85 ca3a 324e 783c
000000e0: 0377 e33c 380b 83bc 90f0 e43c bb89 b53c
000000f0: fcad 953b ef6d 88bb d8d9 413c 7563 a5bb
00000100: c7c7 403b cd02 373d d27e a23c 0a75 a4bc
00000110: 3cfe c83b c860 b63b 6e19 1aba 0c2c 54bc
00000120: 0b3e a13c 4192 543c 931e bd3b beff 1e3d
00000130: 258b afbb 5ec7 01bc adce 2b3c 8e03 253c
00000140: b40d a0bc 94b1 003d 88ec 753b d75a aaba
00000150: 27e5 1dbc 67f6 f5bb 2cbc 3ebb 559f 0ebd
00000160: 2091 52bc a328 17bd 6c30 f6bc ebb2 8ebc
00000170: c8d1 71bd e12d ac3c 8017 803c 1bbc 543b
00000180: 492d 48bc 5391 873c 479b 4a3c ebc7 b43b
00000190: 8c0c ca3c 12a8 a73a 9580 633c c8f4 ea3c
000001a0: f4af fa3c b6bd b5bc e89c e4bb 5997 94bc
000001b0: b788 c13b d99c b03c 6bc9 bb3b 6170 083d
000001c0: f5c6 33bc 5a52 d7bb 303f 56bc e913 0c3d
000001d0: cb62 bcba d69f c63c 4204 aa3b b42a 753c
000001e0: 4ab4 b5ba 1b92 a0bb 20dc 58bc 232f 043c
000001f0: 40aa ecbc 0d1e e83c e9ea 423a 2edf 83bc
00000200: 172f 493c 4d6e d3bb 83ae 933a fdf8 b33a
00000210: 1596 bf3c 7a22 463c 2519 e23c 79b0 c0bb
00000220: 3fb9 233b f103 6b3c 2978 0bbb 9082 293c
00000230: 271f 86bc 3549 6b39 91da 3e3b 0fd0 433b
00000240: 3fc5 033d d4e4 99bc 8dd8 fabb f4a5 8abc
00000250: efb8 fa3c 82db 84bc cb47 b23c 8b0e 89bc
00000260: 2fd1 85bc 50bd 7dbb ea20 4a3c 45cc a9bc
00000270: 726b 50bc 8719 6c3b e943 633c 4f7e 8f3c
00000280: 7408 0fbc decd 90bc ca04 b9bc 0258 243c
00000290: 215a 9abc 5bee 1e3b 01b7 043d 7ef5 9cbb
000002a0: 7dc6 35bd e98d 59bc 95f1 ae37 1a37 1c3c
000002b0: 897b b1bc 374b c03c 33e5 e3bc 042d 0e3c
000002c0: 7e57 013c 0f4c 1fbb 24e7 c0bb e518 c43b
000002d0: 60e3 843b 635f e6bb f5f7 d43c 8d8e d43c
000002e0: d208 513d dace 813c fcd4 37bc 9398 3d3d
000002f0: f004 413c 9424 d63c 62c9 ff3c d04b 98bc
00000300: 6d46 48bc 4df8 ac3b 385c 4dbc 6159 e43c
00000310: ecad 623c 34e6 613c 4059 a63c 92e7 eb3b
00000320: 5489 10bc d870 6b3b 505a c5bc 089a b63b
00000330: 376b b63b e438 12bd c1e5 23ba faf3 1f3b
00000340: 1041 75bb 1611 f43b 3443 a03b 7af5 4a3c
00000350: 5c40 203c 416c 073c 9de3 103c f6e3 a8bc
00000360: 6b20 213c d396 943a bbfd 1cbd 4426 9abc
00000370: 8f99 ea3c 8021 a6bb ea4d b33c cf81 b43c
00000380: 9e5c e03c 1b21 0ebc 933e 393c da65 c63a
00000390: 21dd d2bb ce64 1cbb 1ac6 9bbb e212 813c
000003a0: bce7 f8bc 561f 6e3c 3a4d 423d 1516 e0bb
000003b0: 81d8 633c 4ea3 0c3c b6d3 913b 160c 36bc
000003c0: 9a2e fd3c 5ef4 a53b a11c a6bc 3a30 353b
000003d0: 5a21 b4bc c15d d93c c28b 8d3c c56d 903b
000003e0: 9a20 97bb e879 ec3b 28a8 0b3d e410 c63c
000003f0: f8a4 87bc a887 b23c efa7 093d 40bd a53c
0.032980658 0.011505011 0.021412507 0.013245357 -0.010632395 0.019049969 0.0065122936 0.012166663
-0.017102242 0.009062921 0.0064257784 0.03998108 0.014807361 0.017635837 -0.020897143 -0.01430476
-0.01753483 0.022585955 -0.009239918 0.013328518 0.010804106 0.002040077 -0.014769788 -0.02944908
0.009189424 -0.005829679 -0.020177204 0.003746657 -0.007595567 -0.0007123488 -0.0016933646 0.02021398
0.016681155 -0.00773024 -0.011132899 -0.005842042 0.003957014 0.016423002 0.013051727 0.040974926
-0.02931734 0.029015394 -0.02500285 -0.0015785178 -0.0024140829 0.0337491 -0.026830629 -0.0041957153
0.025440171 0.009878493 0.0014754643 -0.029404705 -0.006011829 -0.025209537 0.0015451141 0.015155362
0.02776671 -0.01599656 0.02794674 0.022160402 0.0045678597 -0.0041634957 0.011831723 -0.0050472566
0.0029415952 0.044680405 0.019835863 -0.02007534 0.0061338227 0.0055657364 -0.0005878423 -0.012949955
0.019682905 0.012974323 0.005771467 0.038818114 -0.0053571635 -0.007921068 0.010486287 0.010071648
-0.019537784 0.03141935 0.0037525017 -0.0012997043 -0.009637154 -0.00750618 -0.0029103858 -0.03481992
-0.012851983 -0.03690399 -0.030052386 -0.0174193 -0.059037954 0.02101797 0.015636206 0.0032460752
-0.012217828 0.016548788 0.012366123 0.005516996 0.024664186 0.0012791178 0.013885637 0.028681174
0.03060148 -0.022185188 -0.0069767125 -0.018138574 0.0059061903 0.021559166 0.005730798 0.033310298
-0.010972728 -0.0065710964 -0.0130765885 0.034198675 -0.0014372704 0.024246138 0.005188496 0.0149637945
-0.0013862934 -0.0049002296 -0.013236076 0.008067879 -0.028889775 0.028334642 0.0007435517 -0.016097631
0.0122792935 -0.006452358 0.0011267219 0.001373082 0.023386994 0.012093181 0.02759988 -0.005880412
0.0024982241 0.014344201 -0.0021281338 0.01034607 -0.016372276 0.00022438618 0.0029121975 0.0029878651
0.03217053 -0.018785872 -0.0076552094 -0.016924836 0.030605761 -0.01621795 0.02176275 -0.016730567
-0.016335098 -0.0038717575 0.012336949 -0.020727286 -0.012720929 0.0036025958 0.0138711715 0.017516283
-0.008730043 -0.01767629 -0.022585291 0.010030748 -0.018841805 0.0024250958 0.03240109 -0.004790007
-0.044378746 -0.013278463 2.0854912e-05 0.009534622 -0.021665351 0.023473365 -0.027819252 0.008677725
0.007894395 -0.002430681 -0.005886929 0.005984413 0.0040554255 -0.007030414 0.025997141 0.02594688
0.051033802 0.015845705 -0.011220213 0.046288084 0.011780962 0.026140489 0.031223956 -0.018590838
-0.012223822 0.005278623 -0.012534194 0.02787465 0.0138354115 0.013787795 0.02030623 0.007199236
-0.008821804 0.0035925414 -0.024090916 0.005572561 0.00556698 -0.035698786 -0.00062521925 0.0024406896
-0.0037422813 0.007448326 0.0048908237 0.012387628 0.0097809695 0.008265556 0.00884333 -0.020616513
0.009834389 0.0011336453 -0.038327914 -0.018817075 0.028637676 -0.0050699115 0.021887738 0.022034554
0.027387913 -0.008674885 0.011306423 0.0015136555 -0.006435052 -0.0023863795 -0.00475384 0.015756074
-0.030383937 0.014533838 0.04743693 -0.00683857 0.013906599 0.008583857 0.0044502867 -0.01111128
0.03090601 0.005064531 -0.020277323 0.0027647153 -0.02198856 0.026533963 0.017278556 0.004407617
-0.0046120407 0.007216681 0.034095913 0.024177976 -0.016558155 0.021793202 0.03360742 0.020231843

action_model._continuous_distribution.mu.bias f4 [2]
00000000: 6e2a b0bb 5512 98bb
-0.0053761518 -0.004640857

action_model._discrete_distribution.branches.0.weight f4 [2, 128]
00000000: 16be 513c 3862 c9ba 59e2 39bc a497 c63b
00000010: 0293 843b a016 b1bc a3fa 863c c478 20bc
00000020: bb71 da3a 475d 8bbc 3a96 863c b615 8dbc
00000030: 9ffa 2fbb e01d 103c f4a8 bb3c 7375 ddbc
00000040: 7a40 75bb 03d6 e23c a70e 083d 4858 a33c
00000050: d290 e73b 8658 26bb dc6e b0ba 5239 963c
00000060: e8ba 13bd 5473 e43b 1f5d 4e3c 83fe f0bb
00000070: 4de9 b839 7655 cc3b 8187 eab9 8be3 ae3c
00000080: eda5 5abb e3fb 86bc c002 503c ff58 d43c
00000090: 4d11 a83b 5953 623c 2a5e 0c3c ed38 a0bc
000000a0: a895 4a3a 9d52 533c a327 f3bb 574f 1bbc
000000b0: ae57 8b3c 8bc6 24bb 08f2 71bc f0d4 b43c
000000c0: fcb3 b13a f980 b9bc f177 de3a 655e 3cbb
000000d0: e59c 973a 4691 823c e8d1 693c e32a 9ebc
000000e0: 6a44 443c 28c5 823c 4269 ec3c cd78 753c
000000f0: d566 953b 36b4 b13c a260 be3b cb03 763c
00000100: 0f6f 1ebc 6393 7ebb 676c 393c ec07 c53b
00000110: c284 963c 677f 33bb 066a 42bc 2543 bd3b
00000120: d85f 273b 31ae 5c3c 3ce7 9dbc 4502 973a
00000130: b111 9e3c c9db 0cbd 4917 20bc d149 8abb
00000140: 90e5 c33b 9a46 083d 83cf 71bc 4839 d53b
00000150: 5166 f7bc effd b0bc 9134 d73b c642 48bb
00000160: bde6 a43b 3c8c c6ba 8cf8 94bb cfd1 a83a
00000170: 0114 ea39 f714 39bc fb34 7c3b 0020 dcbb
00000180: ac00 94bc 6ce7 2cbc ef57 9f3c ecf8 343c
00000190: b1e3 903a 20b2 2ebc 3163 3737 0d82 113b
000001a0: 0a6d c937 9df2 2e3d db62 983b cca8 5dbc
000001b0: 81c6 52bc 72d6 3abc 0166 493c 0331 623c
000001c0: 1b7d 4d3c 7e98 4abc 03e0 95bc ba5d 39bc
000001d0: 35a2 e13c 024e 7d3c e9db 153b 11c3 cf3a
000001e0: 04ec 24bb 87bd b63b 4292 433b 790c 1e3b
000001f0: 8926 86bc c065 153c 7e3b 993c 3ddc 893c
00000200: 6685 92bc ff38 6f3c 401c 863c 0cb5 eabb
00000210: 4b04 5bbc 2052 9f3c 3c5a adbc bc5e a1b9
00000220: 19db 923b 08bf d93c 6650 8abb 0d78 793c
00000230: fd72 8cb9 8f69 70bc be7d 0ebb 4210 ac3b
00000240: b048 09bc c651 40bc f7e8 0abd c91a 3e3b
00000250: 3e6e bcbc 528f 3a3b 151e 173c 7fde 3bbc
00000260: d149 be3c 3df0 02bc 7bf1 cbbb 8ff4 0f3c
00000270: 583f 0bbc 00cf adbb 431b a5bc 7aca adbc
00000280: 2ae2 fcba 8ee2 a33c 45fd 1a3c 0c44 64bc
00000290: 15a8 773c c72b 8dbc a459 02bc de3a a13a
000002a0: 4d30 02bc ee04 4abc 9a10 9eba e1f2 853a
000002b0: ed76 9fbc 8738 41bb dde8 a23a 6961 09bc
000002c0: 1213 01bc e939 973c 3819 d0ba a040 20bc
000002d0: 3faf 2cbc d39b 85bc 8d55 41bc d12c 593c
000002e0: 0fd2 253c be56 1ebd 37e3 88bc d626 94bc
000002f0: 2c0c dbbb ed10 92bc d5d5 89bc 1a89 673b
00000300: e7ab 263c bd54 c7bc 88a9 c4bb a4d1 e9bb
00000310: 3361 93bc c833 1fbc f64e 633c 258f ffbb
00000320: 2de8 7f3c 79d4 38bc aee5 373c df87 823c
00000330: d7e9 07bd 0826 823c b4d6 523b 1b4d b63c
00000340: a13c 9038 6fd2 a6bc 31b8 363c 6fe4 e23b
00000350: 4195 82bb d838 463c 094a 8ebc e7af 713b
00000360: 96ac 093b f075 733c f27f 6bbb c5f7 acbc
00000370: 3a18 aebc 529d dc3c e953 b739 f702 c93c
00000380: f809 e83c 7978 b03c 24ee 3cba 69fa ce3a
00000390: 5482 0fbc e05c 893c 09fb 863c 9213 233c
000003a0: 4ac1 473b eefe 5ebc 1a86 2a3c 6a25 b33c
000003b0: 2a8b 093d 54ac 3c3c 15c4 91bc 594d dabc
000003c0: 0a45 48bc 9d79 35bc b9fd 6f3c 6a5d 7f3c
000003d0: a7c4 b6bb 5f82 0bbc fb86 a53a 0de3 5dbc
000003e0: 1676 00bc e62b 98bc afad 5e3b 1d0e d83b
000003f0: f6d6 113c 04eb 31bb cea8 5abc 5f32 3ebb
0.012801668 -0.0015364354 -0.011345469 0.0060605574 0.004045845 -0.021617234 0.016476935 -0.009794418
0.0016665974 -0.017012252 0.016429055 -0.017222267 -0.0026852263 0.008796185 0.022907712 -0.027033543
-0.0037422464 0.02768994 0.0332171 0.019939557 0.0070668245 -0.0025382354 -0.0013460773 0.01833788
-0.03606692 0.006971756 0.012595444 -0.007354559 0.00035269037 0.0062357737 -0.00044732916 0.021348735
-0.003336306 -0.01647753 0.012695968 0.025921343 0.0051290155 0.013813817 0.008567372 -0.019558394
0.0007727989 0.0128981145 -0.0074204965 -0.009479365 0.017009582 -0.0025142755 -0.014767177 0.022074193
0.0013557668 -0.022644507 0.0016973001 -0.0028742787 0.0011567144 0.015938412 0.014271237 -0.01930756
0.011979202 0.015963152 0.028858785 0.014982414 0.0045593777 0.021692377 0.0058098594 0.015015553
-0.009670033 -0.0038845174 0.011317349 0.0060129073 0.01837385 -0.002738917 -0.011866098 0.0057758265
0.0025539305 0.013469265 -0.0192753 0.0011521062 0.019295545 -0.03438929 -0.009771177 -0.0042202254
0.0059782937 0.033270456 -0.014758947 0.0065070726 -0.030200155 -0.02160546 0.0065675457 -0.0030557378
0.005032389 -0.0015147994 -0.0045462307 0.0012879911 0.00044646862 -0.011296502 0.0038483727 -0.006717682
-0.018066727 -0.010553222 0.01945111 0.011045676 0.0011054185 -0.0106625855 1.0930745e-05 0.002220276
2.4011842e-05 0.042711843 0.0046504564 -0.013529014 -0.01286471 -0.011403667 0.012292386 0.013805631
0.0125420345 -0.0123654585 -0.018295294 -0.01131385 0.027543167 0.015460493 0.0022866672 0.0015850981
-0.002516509 0.0055767926 0.0029841815 0.002411632 -0.016375797 0.009118497 0.018705126 0.01682865
-0.017885875 0.014600991 0.016370893 -0.0071626958 -0.013367723 0.01944834 -0.021161191 -0.00030778896
0.004481685 0.026580349 -0.00422101 0.015226376 -0.00026788554 -0.014673605 -0.0021742429 0.0052509615
-0.008379146 -0.011738246 -0.03391358 0.0029007664 -0.023001786 0.0028466773 0.009223481 -0.011466621
0.023228558 -0.007991848 -0.006223855 0.008786335 -0.008498989 -0.0053042173 -0.020154601 -0.021214712
-0.0019293476 0.02000549 0.009459798 -0.013932239 0.0151157575 -0.017232789 -0.007955942 0.0012300869
-0.007946086 -0.012330277 -0.0012059391 0.0010219478 -0.019465888 -0.0029483156 0.0012429018 -0.008385041
-0.007878082 0.01846023 -0.0015876656 -0.009781033 -0.010539829 -0.016309654 -0.011800182 0.013255314
0.010120883 -0.038656943 -0.016709907 -0.018084925 -0.0066848006 -0.017830336 -0.016825596 0.0035329522
0.010172821 -0.024332399 -0.006001655 -0.007135587 -0.017990684 -0.009716935 0.013873806 -0.0077990466
0.01561932 -0.011281126 0.0112241935 0.015933929 -0.03318199 0.015887275 0.003217143 0.022253564
6.877748e-05 -0.020364014 0.011152313 0.006924204 -0.0039850776 0.012098514 -0.017369287 0.0036878528
0.002100741 0.014859661 -0.0035934416 -0.02111424 -0.021251787 0.026930485 0.00034966998 0.024537547
0.028325066 0.02154182 -0.00072071166 0.0015791181 -0.0087591 0.016767919 0.016477125 0.009953396
0.00304802 -0.013610585 0.010407949 0.021868426 0.033579983 0.011515696 -0.017793695 -0.02664821
-0.012223491 -0.011076358 0.014647895 0.0155862365 -0.005577642 -0.00851497 0.0012628728 -0.013542903
-0.007840654 -0.01857562 0.0033978035 0.0065934793 0.008901348 -0.0027148137 -0.01334591 -0.0029021723

action_model._discrete_distribution.branches.0.bias f4 [2]
00000000: 6713 5a3c 6613 5abc
0.01331029 -0.013310289

exp_avg f4 [128, 60]
00000000: 0000 0000 6f6f 1fb6 0000 0000 cd30 b0b5
00000010: 0000 0000 8711 d7b6 0000 0000 6adb 0cb6
00000020: 0000 0000 8711 d7b6 0000 0000 5e07 17b6
00000030: f700 0080 8711 d7b6 0000 0000 9b9b ffb5
00000040: 0400 0000 8711 d7b6 0000 0000 241b 5db6
00000050: f502 0000 8711 d7b6 0000 0000 fe05 cab5
00000060: 0400 0080 ca38 0236 f116 0cb7 8992 d0b6
00000070: b316 0080 8554 b6b6 e0f3 82b5 c49f 45b5
00000080: f8d2 05b7 603e e736 eba9 b2b6 d760 a8b6
00000090: 68db acb3 0f6e 90b6 13e0 07b6 b0b5 acb4
000000a0: a88f d0b5 8eed a2b6 0000 0000 817b e0b5
000000b0: aa7b 4fb5 1022 bdb6 0000 0000 705e 52b5
000000c0: a5cb f235 38e2 09b7 0000 0000 f272 11b6
000000d0: 3fa8 53b6 c67a 5ab6 0000 0000 f341 96b5
000000e0: 7aec 4838 293e a935 8611 5736 e230 4bb8
000000f0: 0000 0000 3ecb 17b7 0000 0000 f06f b637
00000100: 0000 0000 1b37 6138 0000 0000 6ac4 ef36
00000110: 0000 0000 1b37 6138 0000 0000 1b29 e836
00000120: 9400 0080 1b37 6138 0000 0000 6f1c 0537
00000130: 0400 0000 1b37 6138 0000 0000 d4ee df36
00000140: d300 0000 1b37 6138 0000 0000 d6d0 4637
00000150: 0400 0000 ac2b 5838 e7b6 1036 3d9d 0737
00000160: 2710 0080 3d20 3b38 715b 1837 242f 0a38
00000170: bd78 eab5 cd04 5f38 1361 1836 9098 a337
00000180: df59 9435 de30 0438 dec6 b037 559b 3338
00000190: e071 27b7 c889 8538 0000 0000 1c0a bf37
000001a0: b487 eeb6 1408 7f38 0000 0000 f852 0138
000001b0: 3ae3 91b7 5c14 9538 0000 0000 fba7 d637
000001c0: f344 cc36 7dae 4738 0000 0000 3f41 d737
000001d0: b8de 3739 b620 1939 1937 e1b7 0a74 ed39
000001e0: 0000 0000 6c30 4f35 0000 0000 3afb d1b4
000001f0: 0000 0000 326a 80b5 0000 0000 b626 c9b3
00000200: 0000 0000 326a 80b5 0000 0000 bc08 26b4
00000210: 2000 0000 326a 80b5 0000 0000 8032 53b2
00000220: 0400 0000 326a 80b5 0000 0000 1228 a7b4
00000230: 3100 0080 326a 80b5 0000 0000 6e0c 4134
00000240: 0400 0080 754c 3435 6990 dab5 585a b2b5
00000250: 6904 0000 b849 87b5 71f1 5b33 5c52 2635
00000260: bd25 6f35 18c9 cdb3 7d20 ebb5 5946 efb5
00000270: 9920 8132 1d8b 03b6 8ea7 8435 3ef9 0235
00000280: 319e 7135 4c39 f9b5 0000 0000 ec9a 99b5
00000290: 97cc d034 569d b4b5 0000 0000 5842 0b34
000002a0: ad54 8b35 6ddf 05b6 0000 0000 988e 22b5
000002b0: c231 df35 f7cd 2fb6 0000 0000 d7cf 18b5
000002c0: 6247 8a37 3868 50b6 2a6a 0035 335e 0cb7
000002d0: 0000 0000 6b11 1b36 0000 0000 3807 0538
000002e0: 0000 0000 c059 b438 0000 0000 b77f 8237
000002f0: 0000 0000 c059 b438 0000 0000 a85a 8637
00000300: 300d 0080 c059 b438 0000 0000 90e0 9537
00000310: 0400 0080 c059 b438 0000 0000 e9c9 8937
00000320: c309 0000 c059 b438 0000 0000 da92 ec37
00000330: 0400 0080 d491 c638 8ac0 11b7 2616 9137
00000340: 740a 0080 7292 9238 3d1d 8737 9eff 8838
00000350: c5ef edb5 6b52 c938 5207 0ab7 0fb7 fe37
00000360: aaa7 31b5 3296 7a38 e5c7 e137 055b 9338
00000370: 408e f5b5 fb2f b838 0000 0000 c1f6 0938
00000380: 5e70 87b6 c8d0 bc38 0000 0000 fb4f 4238
00000390: 1abf d1b7 8ac9 e838 0000 0000 ee35 1f38
000003a0: 89a7 9636 4cef aa38 0000 0000 72a4 1e38
000003b0: efbc 9f39 5b6d 3439 c259 34b8 e6fe 563a
000003c0: 0000 0000 69f7 7fb7 0000 0000 1e24 a337
000003d0: 0000 0000 cbee 4c38 0000 0000 1435 e336
000003e0: 0000 0000 cbee 4c38 0000 0000 ad7e d336
000003f0: 1402 0080 cbee 4c38 0000 0000 beb8 0837
0.0 -2.375771e-06 0.0 -1.3127225e-06 0.0 -6.4095398e-06 0.0 -2.0989341e-06
0.0 -6.4095398e-06 0.0 -2.2505042e-06 -3.46e-43 -6.4095398e-06 0.0 -1.9044268e-06
6e-45 -6.4095398e-06 0.0 -3.2947364e-06 1.061e-42 -6.4095398e-06 0.0 -1.5051917e-06
-6e-45 1.9404565e-06 -8.349992e-06 -6.215942e-06 -8.143e-42 -5.433862e-06 -9.756732e-07 -7.362071e-07
-7.976538e-06 6.891598e-06 -5.3245944e-06 -5.018064e-06 -8.049284e-08 -4.304347e-06 -2.0246996e-06 -3.2169692e-07
-1.5539017e-06 -4.8556312e-06 0.0 -1.6725245e-06 -7.7293464e-07 -5.6366043e-06 0.0 -7.836852e-07
1.8089673e-06 -8.218507e-06 0.0 -2.167359e-06 -3.1539382e-06 -3.2555995e-06 0.0 -1.1195065e-06
4.790395e-05 1.2609572e-06 3.2047697e-06 -4.8444497e-05 0.0 -9.047622e-06 0.0 2.1748216e-05
0.0 5.36955e-05 0.0 7.1456207e-06 0.0 5.36955e-05 0.0 6.918924e-06
-2.07e-43 5.36955e-05 0.0 7.934038e-06 6e-45 5.36955e-05 0.0 6.673721e-06
2.96e-43 5.36955e-05 0.0 1.1850343e-05 6e-45 5.1539086e-05 2.1564135e-06 8.083237e-06
-5.794e-42 4.46143e-05 9.081196e-06 3.2945667e-05 -1.7469498e-06 5.3171814e-05 2.270627e-06 1.9502157e-05
1.1053015e-06 3.1516764e-05 2.107344e-05 4.282159e-05 -9.980489e-06 6.367598e-05 0.0 2.2773682e-05
-7.1087507e-06 6.080426e-05 0.0 3.0833267e-05 -1.7391158e-05 7.108666e-05 0.0 2.558901e-05
6.0877005e-06 4.7607802e-05 0.0 2.566038e-05 0.00017535209 0.00014603403 -2.6847747e-05 0.00045290618
0.0 7.718397e-07 0.0 -3.9112075e-07 0.0 -9.56765e-07 0.0 -9.366833e-08
0.0 -9.56765e-07 0.0 -1.5463132e-07 4.5e-44 -9.56765e-07 0.0 -1.2293299e-08
6e-45 -9.56765e-07 0.0 -3.113533e-07 -6.9e-44 -9.56765e-07 0.0 1.7979048e-07
-6e-45 6.7166485e-07 -1.6284295e-06 -1.3288327e-06 1.582e-42 -1.0079739e-06 5.12095e-08 6.195967e-07
8.9089355e-07 -9.582635e-08 -1.751832e-06 -1.7827361e-06 1.50324e-08 -1.9601496e-06 9.883531e-07 4.879147e-07
9.0009695e-07 -1.8568621e-06 0.0 -1.1444477e-06 3.8891878e-07 -1.3456836e-06 0.0 1.296952e-07
1.0380951e-06 -1.9948595e-06 0.0 -6.0557204e-07 1.6629276e-06 -2.619692e-06 0.0 -5.692686e-07
1.6484122e-05 -3.1055079e-06 4.7838205e-07 -8.366583e-06 0.0 2.3106938e-06 0.0 3.1716394e-05
0.0 8.599786e-05 0.0 1.555668e-05 0.0 8.599786e-05 0.0 1.601626e-05
-4.731e-42 8.599786e-05 0.0 1.7866754e-05 -6e-45 8.599786e-05 0.0 1.6425694e-05
3.502e-42 8.599786e-05 0.0 2.8201775e-05 -6e-45 9.468538e-05 -8.6875025e-06 1.729566e-05
-3.75e-42 6.9891e-05 1.610687e-05 6.532598e-05 -1.7727658e-06 9.5997784e-05 -8.227145e-06 3.0364403e-05
-6.618162e-07 5.9744525e-05 2.6915173e-05 7.02646e-05 -1.8295323e-06 8.782741e-05 0.0 3.2893153e-05
-4.036395e-06 9.003427e-05 0.0 4.6327692e-05 -2.500373e-05 0.00011100162 0.0 3.795878e-05
4.489852e-06 8.150804e-05 0.0 3.7823287e-05 0.0003046761 0.00017206876 -4.2998938e-05 0.0008201435
0.0 -1.5256789e-05 0.0 1.9447933e-05 0.0 4.8859783e-05 0.0 6.7713063e-06
0.0 4.8859783e-05 0.0 6.303037e-06 -7.45e-43 4.8859783e-05 0.0 8.149245e-06

exp_avg_sq f4 [128, 60]
00000000: 0000 0000 7af7 ef2f 0000 0000 7836 a52f
00000010: 0000 0000 3f95 4331 0000 0000 358d 572f
00000020: 0000 0000 3f95 4331 0000 0000 2f92 862f
00000030: f9a1 9b29 1a81 4331 0000 0000 08b2 832f
00000040: c740 0529 8f96 4331 0000 0000 cc64 0630
00000050: 3dec 112b 2262 4331 0000 0000 7ab7 f32f
00000060: 91ce e729 ef3d 3b31 183f cf2e df56 bd30
00000070: 7d45 b32c ba1f 4231 dc35 0e2d 7cb4 3430
00000080: 60b6 822f a82a 2531 ae2e 8a2f 4b00 d130
00000090: 054d 782f d231 3731 1193 0e2d 9a24 3530
000000a0: 0645 4b2f ac63 3731 0000 0000 91e4 4a30
000000b0: b855 0b30 46dd 2031 0000 0000 8cc5 0830
000000c0: 30c2 512f 782f 3931 0000 0000 b89a e42f
000000d0: f9ce 552f 7b8f 3831 0000 0000 373e e02f
000000e0: 671c 2a33 c5b4 1e32 4195 4330 087a 3034
000000f0: 0000 0000 fbc5 8431 0000 0000 d4c1 4c31
00000100: 0000 0000 7b3a 9b32 0000 0000 b78a f82f
00000110: 0000 0000 7b3a 9b32 0000 0000 ac72 0d30
00000120: eaf9 9828 0c3a 9b32 0000 0000 aca1 1d30
00000130: 3252 0a22 7a3a 9b32 0000 0000 4a73 4830
00000140: 5fa0 a829 c53a 9b32 0000 0000 7bb3 b430
00000150: 50ce fa24 f21b 9b32 9bfd 322c 5e2c 0131
00000160: 95f4 e22b 4e02 9332 de25 2130 52c8 b831
00000170: 4514 782e d7a9 9a32 bfca 442e 30c7 9531
00000180: e51d bc30 004e 6f32 cda6 3931 b5a7 2b32
00000190: d4c6 0831 c5e3 8a32 0000 0000 f4ae b731
000001a0: addd 1331 16cb 8632 0000 0000 86fe 0032
000001b0: 8a2a b930 6b7d 8e32 0000 0000 0798 8e31
000001c0: 9b32 1e30 b729 9832 0000 0000 2f64 a331
000001d0: 10a8 9334 44d8 5134 793a 9b31 9599 d435
000001e0: 0000 0000 3f10 882d 0000 0000 1138 1c2d
000001f0: 0000 0000 c8e1 7b2e 0000 0000 85ff 122c
00000200: 0000 0000 c8e1 7b2e 0000 0000 999d 332c
00000210: e502 f526 87d6 7b2e 0000 0000 7870 352c
00000220: 217f 1825 07e7 7b2e 0000 0000 68cd b62c
00000230: 2c7e 8127 95b6 7b2e 0000 0000 7db9 b72c
00000240: bd29 1527 0559 782e e8dc a02b 00ed 9f2d
00000250: 6441 5229 9e47 762e 4f82 612b 1839 5a2d
00000260: 91a8 1a2c d7d3 6a2e e83b 372c df8a e62d
00000270: 6b30 bb2b a445 6d2e cbf7 342c c849 a02d
00000280: 05bf 582d ba78 412e 0000 0000 d0df aa2d
00000290: 070c b82c 7a93 672e 0000 0000 d822 9c2d
000002a0: fc6f 7c2c f3d6 6e2e 0000 0000 e713 592d
000002b0: 93bd 6d2c a25c 652e 0000 0000 8d34 5d2d
000002c0: 0c95 2e30 0578 fb2f cbe1 7b2d 1646 7e31
000002d0: 0000 0000 1ec9 2332 0000 0000 b4f1 f231
000002e0: 0000 0000 dd87 6333 0000 0000 b2a4 3c31
000002f0: 0000 0000 dd87 6333 0000 0000 4c2e 6131
00000300: 74aa 7d2b 7f8d 6333 0000 0000 3c61 6d31
00000310: 0ae1 392a ff85 6333 0000 0000 603f b331
00000320: bf74 242d 3279 6333 0000 0000 7e64 0132
00000330: 63fa 7d2b f892 6333 fb67 7a2e 7c19 3a32
00000340: 8e41 6d2e 6621 5933 0f89 ce30 977c ac32
00000350: 8398 ce30 f636 5c33 788e c42f 8a25 8232
00000360: 2270 b631 7a2e 3f33 2bef 5e31 9e2f d532
00000370: 6b5a 9e31 b911 5033 0000 0000 0321 6d32
00000380: f5ad d431 64fb 4933 0000 0000 f840 8a32
00000390: 506b 6231 4cd6 5233 0000 0000 cb6a 2532
000003a0: 3296 2331 bc50 5c33 0000 0000 2249 2f32
000003b0: 8eed 2a35 8bf0 af34 dc87 6332 5206 7f36
000003c0: 0000 0000 6de0 9231 0000 0000 1096 6031
000003d0: 0000 0000 f56c ca32 0000 0000 b842 8830
000003e0: 0000 0000 f56c ca32 0000 0000 8b13 a230
000003f0: 1b76 272a 8b66 ca32 0000 0000 5246 ab30
0.0 4.364969e-10 0.0 3.0052028e-10 0.0 2.8461071e-09 0.0 1.9604303e-10
0.0 2.8461071e-09 0.0 2.4478328e-10 6.9114805e-14 2.844962e-09 0.0 2.395526e-10
2.9588118e-14 2.8461817e-09 0.0 4.8892157e-10 5.1842195e-13 2.8432017e-09 0.0 4.433181e-10
1.0294294e-13 2.7247287e-09 9.424478e-11 1.377625e-09 5.0952007e-12 2.824875e-09 8.083725e-12 6.57401e-10
2.3776447e-10 2.4034907e-09 2.5135222e-10 1.5206835e-09 2.2582831e-10 2.6658324e-09 8.104421e-12 6.589943e-10
1.8487264e-10 2.6686662e-09 0.0 7.3811984e-10 5.068972e-10 2.3408844e-09 0.0 4.975724e-10
1.9077429e-10 2.6948026e-09 0.0 4.1582893e-10 1.9445769e-10 2.6857083e-09 0.0 4.078957e-10
3.960704e-08 9.237913e-09 7.115269e-10 1.6435672e-07 0.0 3.8642134e-09 0.0 2.9796086e-09
0.0 1.8070969e-08 0.0 4.52095e-10 0.0 1.8070969e-08 0.0 5.145846e-10
1.6983773e-14 1.8070772e-08 0.0 5.7346017e-10 1.8746001e-18 1.8070967e-08 0.0 7.292341e-10
7.488519e-14 1.80711e-08 0.0 1.3147735e-09 1.08769724e-16 1.8057083e-08 2.54361e-12 1.879719e-09
1.6126151e-12 1.71141e-08 5.862527e-10 5.3778786e-09 5.6406674e-11 1.8005194e-08 4.4745315e-11 4.3591157e-09
1.3687297e-09 1.3929366e-08 2.7015858e-09 9.991642e-09 1.9903625e-09 1.6168892e-08 0.0 5.345891e-09
2.1517323e-09 1.5692006e-08 0.0 7.5084525e-09 1.3472612e-09 1.658801e-08 0.0 4.1500274e-09
5.755198e-10 1.7714099e-08 0.0 4.755314e-09 2.7503165e-07 1.9543319e-07 4.5177413e-09 1.5839929e-06
0.0 1.5468625e-11 0.0 8.880023e-12 0.0 5.7271327e-11 0.0 2.088969e-12
0.0 5.7271327e-11 0.0 2.5524914e-12 1.7001075e-15 5.726133e-11 0.0 2.578408e-12
1.3226971e-16 5.7275986e-11 0.0 5.195556e-12 3.594149e-15 5.7232958e-11 0.0 5.221766e-12
2.070053e-15 5.6467737e-11 1.1429998e-12 1.8181456e-11 4.6686084e-14 5.5997533e-11 8.0116897e-13 1.2404543e-11
2.197829e-12 5.339359e-11 2.6039119e-12 2.6209644e-11 1.3300588e-12 5.3949414e-11 2.5717091e-12 1.822266e-11
1.2320593e-11 4.3990346e-11 0.0 1.9426155e-11 5.23093e-12 5.2654305e-11 0.0 1.775062e-11
3.5873518e-12 5.4305848e-11 0.0 1.2339441e-11 3.378496e-12 5.2150846e-11 0.0 1.2574064e-11
6.351264e-10 4.5741913e-10 1.4317834e-11 3.7001704e-09 0.0 9.5335775e-09 0.0 7.0706054e-09
0.0 5.2976123e-08 0.0 2.745122e-09 0.0 5.2976123e-08 0.0 3.2768126e-09
9.012021e-13 5.2981246e-08 0.0 3.454331e-09 1.6509377e-13 5.2974425e-08 0.0 5.2167906e-09
9.3482435e-12 5.2962783e-08 0.0 7.5316375e-09 9.023114e-13 5.2986223e-08 5.6935772e-11 1.0832419e-08
5.3945785e-11 5.0554625e-08 1.5027427e-09 2.0080092e-08 1.5031819e-09 5.127273e-08 3.5753422e-10 1.5151063e-08
5.309645e-09 4.4512923e-08 3.2441203e-09 2.4818117e-08 4.6086845e-09 4.8444893e-08 0.0 1.3802722e-08
6.1897887e-09 4.7027598e-08 0.0 1.6094859e-08 3.2948329e-09 4.9089337e-08 0.0 9.628546e-09
2.3804998e-09 5.129617e-08 0.0 1.0202969e-08 6.367562e-07 3.2771308e-07 1.324403e-08 3.800164e-06
0.0 4.2746735e-09 0.0 3.268159e-09 0.0 2.3565443e-08 0.0 9.914265e-10
0.0 2.3565443e-08 0.0 1.1792606e-09 1.4873556e-13 2.3562526e-08 0.0 1.2461874e-09

exp_avg f4 [128]
00000000: 8511 d7b6 1f37 6138 2a6a 80b5 c459 b438
00000010: d1ee 4c38 cc77 9937 7cbc 2eb7 8462 5a37
00000020: a05b 6a37 d6d7 5b36 82c1 f5b7 ba4e b737
00000030: 6c9d 28b7 91a2 fcb7 c03f 8836 6413 00b8
00000040: d331 27b6 9051 b7b3 1075 13b7 523e 98b6
00000050: 341b 4a36 c72c 5bb5 f8fb 0e38 73a7 5838
00000060: a4d1 91b6 a585 d2b6 f0ed 92b5 a68e 58b7
00000070: c686 16b7 0638 1f37 b79b 1837 38c7 8b36
00000080: a880 ef37 7c4e ca37 e0b6 c2b6 de77 ce35
00000090: 98cc 1435 56fc 5f37 80cc 5d36 77a7 1eb8
000000a0: 25d4 08b8 7f61 5238 3f6a 0637 343f 1337
000000b0: 98b8 98b5 f4ef a0b7 2235 79b6 a0fe 0a37
000000c0: 9c33 a737 e89f 6b37 c888 42b6 e082 3bb5
000000d0: 1232 a7b7 5c96 5437 545a 51b7 26e6 0138
000000e0: 1cd6 b337 b4c6 9bb5 3489 0436 0040 5f34
000000f0: a05d e6b6 005b 64b7 0f27 0237 dbdf 1038
00000100: 0245 6236 007f c9b5 edb9 58b7 a614 8db7
00000110: c0dd 77b5 bff5 b3b7 65cd 31b7 58a5 cd36
00000120: 203d c037 4ed9 b9b7 4c80 2eb7 388c da36
00000130: 054d bbb7 6728 b4b7 5d58 89b7 0eb9 77b7
00000140: f6de 00b8 2022 2a38 92da ceb6 9865 e537
00000150: 0127 2ab8 28da 4fb7 85dc da38 1ad9 23b7
00000160: e848 78b4 6d70 02b8 aaa2 2cb6 a8a2 a636
00000170: 9c5e cd35 2afb 03b6 2565 bdb7 67de 08b7
00000180: 148b 1db6 da14 ce37 6014 f1b6 bd70 38b8
00000190: b78c 8436 4d28 40b6 8da0 bc36 7c10 8cb6
000001a0: b1fa f737 f803 dd36 209f a5b7 72e8 b6b6
000001b0: 50f3 b9b5 63c1 04b6 3314 a835 0eb0 a236
000001c0: 8886 a9b7 7e25 c236 283e d8b7 ee31 6637
000001d0: 169b 81b6 ac4a 5837 8a55 87b7 6a26 74b7
000001e0: 52bb b638 3fed df35 e1b9 81b6 1e0c 1b38
000001f0: 3304 7437 ef42 c535 d049 2935 0474 21b8
-6.409539e-06 5.3695516e-05 -9.567641e-07 8.599789e-05 4.8859805e-05 1.8294806e-05 -1.0415093e-05 1.301675e-05
1.396882e-05 3.2759176e-06 -2.9296385e-05 2.185196e-05 -1.0050233e-05 -3.0116442e-05 4.0605373e-06 -3.0535637e-05
-2.491394e-06 -8.536438e-08 -8.7891385e-06 -4.537208e-06 3.011618e-06 -8.1649017e-07 3.4090102e-05 5.1654362e-05
-4.345742e-06 -6.274046e-06 -1.0947097e-06 -1.2907816e-05 -8.972076e-06 9.4901825e-06 9.096161e-06 4.165715e-06
2.855093e-05 2.4116824e-05 -5.80294e-06 1.5383082e-06 5.543202e-07 1.3350587e-05 3.30506e-06 -3.78261e-05
-3.26225e-05 5.0158702e-05 8.01176e-06 8.776598e-06 -1.1378606e-06 -1.9185223e-05 -3.7134819e-06 8.2847255e-06
1.9931984e-05 1.4044323e-05 -2.898787e-06 -6.9853377e-07 -1.9931267e-05 1.2671193e-05 -1.2478402e-05 3.097034e-05
2.1438165e-05 -1.160623e-06 1.9749396e-06 2.0791776e-07 -6.8654335e-06 -1.3611047e-05 7.757698e-06 3.4540757e-05
3.3716792e-06 -1.5012629e-06 -1.29178925e-05 -1.6818125e-05 -9.233736e-07 -2.1452897e-05 -1.0597844e-05 6.1287246e-06
2.2916647e-05 -2.2154909e-05 -1.040108e-05 6.51323e-06 -2.2328002e-05 -2.1476486e-05 -1.637282e-05 -1.4765434e-05
-3.0725227e-05 4.056294e-05 -6.1647233e-06 2.7346236e-05 -4.0567484e-05 -1.2388955e-05 0.00010436125 -9.766105e-06
-2.3123323e-07 -3.109912e-05 -2.572468e-06 4.966121e-06 1.5301225e-06 -1.9666718e-06 -2.2577655e-05 -8.158014e-06
-2.3475777e-06 2.4566823e-05 -7.1847317e-06 -4.3974014e-05 3.950288e-06 -2.8633688e-06 5.621527e-06 -4.174244e-06
2.9561432e-05 6.5867753e-06 -1.9743631e-05 -5.451083e-06 -1.3854387e-06 -1.9782099e-06 1.2522854e-06 4.8484717e-06
-2.0209016e-05 5.786015e-06 -2.577815e-05 1.37206935e-05 -3.862554e-06 1.2891989e-05 -1.6133086e-05 -1.4552477e-05
8.7133274e-05 1.6683842e-06 -3.8661387e-06 3.6966165e-05 1.4544511e-05 1.4697124e-06 6.306482e-07 -3.849344e-05
