results/phase2_but_with_config/NPCAgent/NPCAgent-499968.onnx (onnx, 98164 bytes, 9 tensors)

action_model._continuous_distribution.log_sigma f4 [1, 2]
000000 c5 b6 d2 3c 65 2f 38 3c
       0.025721917 0.0112417685

action_model._continuous_distribution.mu.bias f4 [2]
000000 59 1f cf 3b 77 bf 97 3a
       0.0063208756 0.0011577447

action_model._continuous_distribution.mu.weight f4 [2, 128]
000000 08 6a 04 bc 24 59 66 bd a5 ab 46 ba 0b 74 e9 3a
       -0.00808192 -0.056237355 -0.00075786776 0.0017811073
000010 70 dc 07 3d f3 69 c5 bb be 21 56 3b b4 2c e7 3a
       0.03316921 -0.006024593 0.003267392 0.0017637224
000020 a8 c0 26 3b 90 07 b0 3c 2f 4d 29 3d 9d 4c 40 3c
       0.0025444422 0.021487981 0.041333374 0.011737016
000030 60 99 16 b9 1d 3b e3 bb 9a ba 55 3c 43 64 a7 bc
       -0.00014362251 -0.006934537 0.013044978 -0.02043355
000040 32 99 1b bc de 5d ae bc 5e f2 86 bc 04 ce 9a 3c
       -0.009496974 -0.021284994 -0.016472992 0.018897064
000050 33 29 bc 39 62 67 40 bb 6b a9 6a 3c c2 6b e1 3a
       0.0003588885 -0.0029358496 0.014322619 0.0017198252
000060 7e a2 17 bd 45 d9 1f 3c 96 f7 28 bc 22 80 e8 3a
       -0.0370202 0.009756391 -0.010312935 0.0017738382
000070 7d 3b 3e 3a b2 33 9c 3b 21 a8 08 3d 36 ce aa bc
       0.0007256789 0.0047669047 0.033363465 -0.020850282
000080 d4 da 18 bc 0f 0b 30 bd 0f cf 51 3a 50 08 c9 bb
       -0.009329516 -0.042979296 0.00080035714 -0.006135024
000090 82 18 bb 3c 59 6c 4b bc 5d 98 15 3d 38 5e 6a 3c
       0.022838835 -0.012415969 0.036522258 0.01430469
0000a0 95 9a 3b bb 80 dd 8f 3c 15 8c 9d bc 65 07 4b 3c
       -0.0028626074 0.017561674 -0.019231835 0.0123919
0000b0 0f 53 92 3b 10 45 a1 3a 7c bc 18 3b f9 fd f8 bb
       0.0044654678 0.0012303907 0.0023305705 -0.0075986353
0000c0 27 b3 b4 3b 7e a3 96 3c 65 12 d9 bc 64 e9 9e 3b
       0.0055145207 0.018388506 -0.026498029 0.0048495997
0000d0 3f 3e d5 bc b8 82 ae bb fa 45 4a bb e0 91 49 3c
       -0.026030658 -0.0053256415 -0.0030864463 0.012302846
0000e0 2f 6a 97 bb f7 fa aa 3b 19 dd 1b bd 00 77 91 bc
       -0.0046208124 0.0052179056 -0.038052652 -0.017756939
0000f0 2a e6 e2 3c 82 09 cd 38 19 05 0d bd eb e9 02 bd
       0.027697641 9.776933e-05 -0.03442869 -0.031961363
000100 06 bc e5 3b 72 aa 28 bc e5 4d b1 ba 5d 8a 6f bc
       0.0070109395 -0.010294544 -0.0013527243 -0.014620391
000110 7e f5 81 bc 67 04 01 bd 4e 7b f0 bc dd 32 e1 bb
       -0.01586413 -0.03149834 -0.029355671 -0.0068725185
000120 13 fe d8 bb e9 69 bc 3c 9e 8a 36 bd c5 74 b1 bb
       -0.006622085 0.02299972 -0.04456579 -0.0054155313
000130 3c c9 82 3c 13 90 87 3b d3 14 8e 3b 93 e8 b5 bc
       0.015965097 0.004137048 0.0043359785 -0.022205627
000140 36 90 f9 ba 13 78 79 3c 4f bf 53 bc 75 b6 36 3c
       -0.0019040171 0.015226382 -0.0129240295 0.0111519
000150 4f 50 4d 3a 3f 31 a8 bb 7b 37 2d 3d 4e 77 20 bc
       0.00078320963 -0.0051328237 0.04228924 -0.009794069
000160 6c 01 03 bc ff af da 3c 42 8a 5f bc 97 57 5f 3b
       -0.0079959445 0.02669525 -0.013643803 0.0034079307
000170 1f 30 8e bc ed 03 ec ba 15 9c 80 ba 38 00 84 bc
       -0.01735693 -0.0018006541 -0.0009812141 -0.016113386
000180 f7 c7 68 3c 3a 12 94 3a a0 42 a1 3c 2c cd 2a bc
       0.014207832 0.0011296936 0.01968509 -0.010424893
000190 b2 ac 21 3c 9d fc a7 3c ee 32 19 bb 72 7e 22 3b
       0.009867834 0.020506198 -0.0023376304 0.0024794606
0001a0 19 8b f1 bc b5 d5 0a bc ab 2e 5d bc bf c0 66 bb
       -0.029485272 -0.008473803 -0.013499896 -0.00352101
0001b0 85 eb b6 bc d8 08 96 bc 44 83 9d 3c 69 29 4b 3d
       -0.022329101 -0.018314764 0.019227631 0.04960004
0001c0 e7 fe 1a 3b 2b 71 6b 3c cd dc 0b b9 a4 e2 20 bd
       0.0023650469 0.014370243 -0.00013338328 -0.03927864
0001d0 09 83 50 3c 6c f4 81 bb cd 4b 94 bc f3 62 fc 3b
       0.012726554 -0.003965905 -0.01810255 0.0077022254
0001e0 ac d3 00 bd 51 56 0f 3c d0 4c 2c bc 7d 90 89 3c
       -0.031451866 0.008748607 -0.01051636 0.01679253
0001f0 6c b4 06 bc 9d b4 99 bb 2f 39 e5 3b 48 33 ef 3b
       -0.008221727 -0.0046907202 0.006995342 0.0072998144
000200 8c 4a 0d bc 8a 5c b7 3c dd 3e 91 3b 11 ad 1e 3c
       -0.00862373 0.022382993 0.0044325427 0.009684817
000210 06 c8 4a bd ca 0f 9b 3b 30 af 23 bc 24 86 f0 bc
       -0.049507163 0.004732107 -0.009990498 -0.029360838
000220 af 66 87 bc 7d 4d df 3c 3e bd 07 3c ed ef b3 bc
       -0.016528456 0.027258629 0.008284865 -0.021964991
000230 8f a3 1c ba 77 06 e0 bc 17 b1 41 bc 14 05 da 3c
       -0.00059753 -0.027346833 -0.011822007 0.02661375
000240 8a 25 7d bc ed d1 f0 3c 57 bf 78 bc cb 63 90 bc
       -0.015450845 0.029396975 -0.015182338 -0.01762571
000250 9f 58 7a bc de 6a 54 bc 7a 02 2f 3c 17 f3 93 bb
       -0.015279918 -0.012964932 0.010681743 -0.0045150626
000260 56 2c bf bb e4 14 7c bc 2c 48 d5 3c 95 e4 5f bc
       -0.0058341427 -0.01538584 0.02603539 -0.013665338
000270 86 f0 1a bc 38 69 da bb 1a c2 69 3c 98 ee f8 bb
       -0.009456759 -0.006665375 0.014267469 -0.007596802
000280 58 b1 02 3d a8 b4 07 3d ab f9 d6 bc e0 41 3e 3c
       0.03190741 0.03313127 -0.026242098 0.0116123855
000290 d2 0d 9b 3a 24 70 00 3d a9 27 af bb 91 74 c7 bb
       0.001182968 0.031356946 -0.005345304 -0.006086894
0002a0 b9 46 88 3c 8f c4 1a 3c a4 e8 48 3d dd d2 e5 bc
       0.016635286 0.009446277 0.04904999 -0.028054649
0002b0 46 b4 e0 bc b6 ab 3d bc 8e 32 f6 bc 44 0f 0c 3d
       -0.027429711 -0.011576584 -0.030053403 0.034194246
0002c0 33 15 a9 bc f0 7a ee 3b 85 98 22 3d 6b f3 9f b7
       -0.020639991 0.007277839 0.039696235 -1.9067627e-05
0002d0 b3 ef 5f bc 01 99 e3 3c 5f 54 6d 3b 4b 75 9c 3c
       -0.013667989 0.027782919 0.003621362 0.019098898
0002e0 06 4c af 3c 49 ae a2 3c 2f ae 01 3d 7a 81 00 3c
       0.021398555 0.019858496 0.031660255 0.00784337
0002f0 9d b7 ec bc a3 c2 16 3d 7b 80 bb 3c 0d 74 d7 3c
       -0.028896147 0.036806714 0.022888413 0.026300455
000300 78 1d 7e 3c 0f ee b2 bc 21 44 fe bc 03 fb c0 3c
       0.015509956 -0.02184203 -0.031038346 0.023557192
000310 c4 32 65 3c 00 87 ec 3c b4 ea 84 3c 88 68 2e bc
       0.013989154 0.028872967 0.016225196 -0.010645039
000320 9e af 8b 3c 3d 9a f6 3a 68 8f 56 3d 82 79 8b bc
       0.017051514 0.0018814277 0.052382857 -0.017025713
000330 b7 5a ef bc 4f 78 94 bc ee c0 92 3c 92 b0 bb 3b
       -0.02921806 -0.018123774 0.017914262 0.005727836
000340 5f d3 ff bc 00 06 9e 3a 54 b0 73 bc 8c 1c e3 3c
       -0.03122872 0.0012056231 -0.014873583 0.027723573
000350 31 e9 98 3b 08 5a d1 bc aa be 3e bc 63 ac be 3c
       0.0046664705 -0.025555626 -0.011642138 0.02327556
000360 2c 2c 38 3c d7 f9 1b bd 6d b7 27 3d c2 87 da 3c
       0.011241 -0.038080063 0.040946413 0.026676062
000370 af 75 c0 3b 0e 4c 95 3a 30 63 25 bc af 14 c3 3c
       0.005873404 0.0011390464 -0.010094449 0.023813574
000380 56 4e 25 bc 2d bf f7 3b fd 32 d9 bb d8 0e ab bc
       -0.0100894775 0.0075606317 -0.0066283927 -0.020881101
000390 98 2b 0f 3c fa c0 b2 3c 28 fa cc 3c e0 ca 51 bb
       0.008738421 0.021820534 0.025021628 -0.0032011792
0003a0 22 e0 1f bd 53 0e 92 3c e6 e2 0f 3d 31 59 08 bd
       -0.03903211 0.017829096 0.035128497 -0.033288185
0003b0 f8 39 dd bc 59 3b ee bc 99 3b 92 3c 80 d1 84 bb
       -0.02700518 -0.029081034 0.017850684 -0.0040532947
0003c0 ce 78 98 3c 24 a7 4d bd 2b e4 c9 3a a4 1d 77 3b
       0.018612292 -0.050208226 0.0015403082 0.0037706876
0003d0 3b 11 26 bd dc d6 aa bb dc 57 6e bb e5 2a fb bc
       -0.040543776 -0.0052136015 -0.0036368286 -0.030660102
0003e0 80 8d bc 3b 54 42 3b 3c c3 ba a7 3a cc ae a1 3c
       0.005754173 0.011429388 0.0012796748 0.01973667
0003f0 f3 a9 8c bc 99 70 2c 3c 2d de e9 bb 69 c9 05 bb
       -0.017170882 0.010524892 -0.007137081 -0.002041424

action_model._discrete_distribution.branches.0.bias f4 [2]
000000 1b c0 bc 3c 1c c0 bc bc
       0.023040822 -0.023040824

action_model._discrete_distribution.branches.0.weight f4 [2, 128]
000000 ca ad c6 bc 9b 66 4f bc af 01 aa 3c 2a 9f f9 3c
       -0.024252791 -0.01265874 0.020752756 0.030471403
000010 80 cb ba 3c 17 cd 35 3a 84 e8 1e 3c 73 35 af bc
       0.022802114 0.0006935163 0.009698991 -0.021387791
000020 5b 9d 5b 3a 2a fd 68 3c 1d da 91 bc e2 f3 4c 3c
       0.0008377635 0.014220515 -0.0178042 0.012509318
000030 d5 66 05 bc 3c a4 38 3b dc 30 fa 3c 53 39 11 3c
       -0.008142193 0.0028174063 0.030540876 0.008863765
000040 6a 66 f1 3c d6 65 be 3c 0d cf 8a 3b 11 c5 8f 3b
       0.02946778 0.023241919 0.004236108 0.004387506
000050 f9 62 6d bc 30 48 87 3b 7e 6f 98 3c 14 35 fa 3a
       -0.014488929 0.0041284785 0.018607851 0.0019089305
000060 72 8d 72 3b f3 47 e9 bc 2c b8 ae 3b d0 86 7f bc
       0.0037010578 -0.02847669 0.0053320136 -0.015596107
000070 b9 bd 01 3c 4a b0 8c bb 50 1d 82 3b 0b 42 ed bb
       0.007918769 -0.004293476 0.0039707795 -0.007240539
000080 4b ea 1d 3c b4 f2 9e bc aa d6 9d bc 9e 13 cd 3c
       0.009638379 -0.01940284 -0.019267399 0.025033768
000090 44 0d 5d 3a d1 51 34 3c ae 8e b9 3c 90 32 20 bc
       0.00084324577 0.011005835 0.022651043 -0.00977768
0000a0 6e fb 29 bb 58 26 07 3d 73 5c cc 3c 8f b5 9e bc
       -0.0025937217 0.03299555 0.024946427 -0.019373683
0000b0 db a0 e3 3b 25 9a 78 bc 3d 24 b0 3c c0 a2 34 bc
       0.0069466657 -0.01517347 0.021501655 -0.011025131
0000c0 25 a7 eb ba 52 d1 5a bb 91 93 28 39 98 18 94 bc
       -0.001797889 -0.0033388925 0.00016076701 -0.018078133
0000d0 a4 1b f9 bb ce fc 02 bc 68 8e a5 ba 7d 5e c5 bc
       -0.007602172 -0.007994844 -0.0012630941 -0.024092907
0000e0 3b 92 c9 bc 67 0e 0e bc a4 c4 8f 3c 77 50 a2 bc
       -0.024605861 -0.008670426 0.01754982 -0.01981376
0000f0 71 ec 9c 3c aa fe 27 bc d7 81 91 3c 8e 2d 9d 3c
       0.019155713 -0.010253588 0.017762108 0.019186761
000100 f5 a3 39 bb f1 ca 4d 3c 28 30 d5 3c d3 cc c5 ba
       -0.0028326486 0.012560592 0.02602394 -0.001509095
000110 2f d1 7e 3c 81 02 29 3c c7 ea 39 3c 2d 82 c8 bb
       0.015552803 0.010315538 0.011347479 -0.006119034
000120 dc 75 a7 bc b0 87 8b 3c 52 eb bc bc 13 10 0e 3b
       -0.020441942 0.017032474 -0.023061428 0.0021677061
000130 57 c6 31 ba 7e bf e8 3c 19 97 75 3c fe ac 13 bc
       -0.0006781569 0.028411623 0.014989638 -0.0090134125
000140 8e 1e bd 3b 6b 07 5f 3c 89 ae 94 bc 65 60 1d 3d
       0.0057714647 0.013612608 -0.018149631 0.038422007
000150 18 7a dc 3c 91 14 aa 3b f8 77 af 3c 40 33 d9 bc
       0.026913688 0.00519044 0.02141951 -0.026513696
000160 98 b9 a8 bc a7 1f 9a 3c a1 f7 43 bc 6f 5d de 3b
       -0.02059631 0.018813921 -0.011960895 0.0067860405
000170 c4 03 f7 bc b8 2d 0e bc 8b 9a 28 bc 60 26 99 3c
       -0.030153163 -0.008677892 -0.010290752 0.018695056
000180 27 fd 13 3b ca f9 25 3b a0 73 6e 39 9a ae c7 bc
       0.002258131 0.0025325888 0.00022740522 -0.024375249
000190 bb 4e 95 3b f1 b0 70 3c 32 a7 96 3c 63 bc bb bb
       0.0045565045 0.014690624 0.018390272 -0.0057292446
0001a0 65 c9 33 bd bf 9a 8e bc 95 8c ab bb 09 57 2b 3d
       -0.043893237 -0.017407773 -0.0052352645 0.04183105
0001b0 08 e8 bf bb a4 98 57 bc a9 bf 8f bb e1 b8 e0 3c
       -0.0058565177 -0.013158951 -0.0043868613 0.027431907
0001c0 14 a4 ea 3a b9 2e 04 3c ec 11 e5 bc 1c be 02 bd
       0.0017901682 0.00806778 -0.027962647 -0.031919584
0001d0 fa 6a fa 3a 1f 51 fc bc 59 c3 c9 3c 55 74 11 bb
       0.0019105368 -0.0308004 0.024629282 -0.0022194583
0001e0 bf 10 be 3c 41 0e 82 bc 19 73 fa bc 2e ff a7 3c
       0.023201345 -0.015875937 -0.030572461 0.020507421
0001f0 60 47 ba 3b 73 20 08 3c 44 ea a4 3c 1b bb d1 3b
       0.005684778 0.008308518 0.020131238 0.0064004785
000200 f6 7a dc 3c db b5 12 3c 70 17 06 bc 10 dc 93 bc
       0.026914101 0.008954491 -0.008184299 -0.01804927
000210 ce de e2 bb b7 7b 96 bc 57 b5 08 bd 92 4c ce 3c
       -0.006923533 -0.018369539 -0.033376064 0.025182996
000220 5d 33 f8 bb 4b 67 0c bd 84 61 a3 3c 16 39 52 bc
       -0.0075744824 -0.034278195 0.01994396 -0.012830993
000230 64 c1 cd 3c 7e b9 bc 3b cc fa 8d bc af c7 02 bc
       0.02511663 0.005759417 -0.017331503 -0.007982179
000240 64 b8 a4 ba 1d a5 2b bc 96 b0 60 bb 3c 5c 65 bc
       -0.001256716 -0.010476378 -0.003428494 -0.013999041
000250 80 f0 98 3c 4d 7e 41 bc 52 b5 0a bd f3 29 c8 39
       0.018669367 -0.011809898 -0.033864327 0.00038178227
000260 af f1 71 3c 22 00 ef 3c 60 db b6 bb 79 f5 b8 3c
       0.0147670945 0.029174868 -0.0055803508 0.022577988
000270 b6 a2 5c bc bb bb 8f ba b3 d7 96 bc 5b 70 05 bc
       -0.013466528 -0.0010965982 -0.0184134 -0.008144463
000280 69 80 7b bc 65 73 65 3c 5a 4f 33 3c be 3c 18 bc
       -0.01535044 0.014004563 0.010944212 -0.009291826
000290 29 ed 7a bc 9c bf e9 3b 05 7e 05 bc fa 42 f4 3c
       -0.015315332 0.0071334373 -0.008147721 0.029817093
0002a0 39 e6 3f bc 0b 64 a5 bc 61 cf 77 bc 1c 85 8f 3c
       -0.011712604 -0.020189306 -0.015125127 0.017519526
0002b0 cf 09 8a bc 7a 0f 8f 3a ae f4 92 bc fe 22 bd 3b
       -0.01685038 0.0010914647 -0.017938938 0.0057719937
0002c0 60 c5 27 bc ad a9 14 3b 17 f2 a7 3c f3 4a b4 3c
       -0.010239929 0.0022684142 0.02050118 0.022008395
0002d0 d4 52 fe 3b cf 1c a6 3a 13 fe b2 3c 88 30 82 3c
       0.0077613387 0.001267338 0.021849668 0.015892282
0002e0 1f ba a8 3c d3 80 d9 3b 12 6d 34 ba 54 37 ad 3b
       0.020596562 0.0066376715 -0.0006882708 0.0052861366
0002f0 ca ae ae bc fc e2 36 3c b3 c8 8a bc 34 40 5f 3c
       -0.02132358 0.011162516 -0.016941404 0.013626147
000300 bb a3 0e bd 1a 4d bb ba af 0d ad bc 83 99 e8 3a
       -0.034824114 -0.0014289946 -0.021124689 0.0017745945
000310 77 12 d9 bc cc e6 91 3c 83 d6 27 3c 68 c8 96 3c
       -0.026498063 0.017810248 0.010244015 0.018406108
000320 0b 11 99 bb 96 5d 56 bc b3 66 8e 3c cd da c1 39
       -0.004671221 -0.013083836 0.017382955 0.00036974848
000330 68 d9 5f bc 4d 3e 9f bc b2 6f 9c bb 56 af 87 b8
       -0.0136626735 -0.019438887 -0.0047740573 -6.4699605e-05
000340 75 97 13 bc 24 c2 94 bb 4a 03 1a 3d 02 52 11 bc
       -0.009008278 -0.004539745 0.037600793 -0.00886965
000350 1f ce 7a bb 6a 76 14 bc 11 5b c0 bb 8e ef e6 3c
       -0.003826983 -0.009061435 -0.005870231 0.0281904
000360 ee 71 c4 3c 23 8e e2 bb c7 8e 68 3c 0a 08 ba bc
       0.023980107 -0.0069139167 0.014194197 -0.022708911
000370 af dd 85 3c db 9e 4a 39 83 62 cc 3c 86 59 49 bc
       0.016341059 0.000193234 0.024949318 -0.01228941
000380 a4 a6 ad bb 3d 90 2c 3c 15 8d 47 bb 99 37 96 3c
       -0.005299406 0.010532436 -0.0030449082 0.018337058
000390 88 c6 26 bc 48 a0 81 bc 0b 85 0b bd 0f eb d6 bb
       -0.0101791695 -0.015823498 -0.034062427 -0.006558783
0003a0 52 31 02 3d a9 4f ee 3b 1b f0 b9 3c 52 9d e0 bc
       0.031785317 0.00727268 0.022697499 -0.027418766
0003b0 a3 b0 00 b9 d4 39 76 bc 31 68 9d 3c 7d 85 77 bc
       -0.00012272834 -0.015028436 0.019214721 -0.01510751
0003c0 12 05 18 bc 43 7d 34 bb 76 c4 d4 3c 79 0a fe 3c
       -0.009278553 -0.0027540482 0.025972586 0.031010853
0003d0 b1 cb 0b bb ea 70 90 3c db f4 ac bc 08 94 ec bb
       -0.0021331126 0.017631967 -0.02111285 -0.007219795
0003e0 af 15 c0 bc 48 9d 8d 3c 77 64 c7 3c c3 03 af bc
       -0.02344784 0.017286912 0.024339898 -0.021364098
0003f0 a5 c7 82 bc 28 36 18 3c 57 db a2 bc 50 a9 73 bc
       -0.015964339 0.009290256 -0.01987998 -0.01487191

network_body._body_endoder.seq_layers.0.bias f4 [128]
000000 fb f4 00 3c b1 35 b2 3b a9 eb c9 ba 4b 8e 5e bb
       0.007870908 0.0054385294 -0.0015405315 -0.0033959325
000010 89 fa 08 3c 0d 30 18 bb 5d 88 e3 3b 57 98 30 bc
       0.0083605135 -0.0023222 0.006943746 -0.010778508
000020 3b a0 ef b7 27 f3 74 3a 24 ad e2 3b 3a 96 f1 3a
       -2.8565633e-05 0.0009344094 0.0069176126 0.0018431612
000030 52 e6 15 bc a6 49 0b bc 0f 6d 11 3c 20 fc 27 3c
       -0.009149151 -0.008501446 0.008876099 0.010252982
000040 f7 8d c2 3a ad ce 12 3c f6 3a 5d bc 01 cc e8 3b
       0.0014843334 0.008960408 -0.013502827 0.0071043973
000050 27 21 d7 3b 20 a4 64 bc 17 e1 dd bb dc 74 a0 3b
       0.0065652314 -0.013955146 -0.0067712176 0.004896743
000060 02 78 11 bc 31 f6 b3 3c 16 84 d7 bb a2 1e d3 3b
       -0.00887871 0.02196798 -0.006577025 0.0064428607
000070 a0 a4 22 3c bf 2b 03 b7 a9 e7 29 bc 9a f8 8c bb
       0.009926945 -7.818394e-06 -0.0103701735 -0.0043020966
000080 a5 fa 2b bc 0f ca 7a 3c 4e 03 28 39 49 82 57 bc
       -0.01049677 0.015306964 0.0001602296 -0.013153621
000090 f8 4a 8c bb 88 3d d4 bb 44 47 0a 3c ec a3 d9 3b
       -0.004281398 -0.0064770617 0.008439843 0.0066418555
0000a0 28 de fb bb 47 2c 12 3b da c5 01 3b c0 70 42 bc
       -0.007686395 0.0022304223 0.0019801767 -0.011867702
0000b0 61 cc c9 3b 52 01 02 3b d8 92 6d bc 53 99 84 3b
       0.006158397 0.0019837213 -0.014500342 0.004046598
0000c0 f5 e8 eb 3a 07 0e df 3b 8b 44 a9 3c 64 7b 32 bc
       0.0017998504 0.006807092 0.020662567 -0.010893676
0000d0 e1 23 0e bc 85 ba 7f 3c 5f 0e 6f bb 2c c0 2b ba
       -0.008675546 0.015608435 -0.0036477072 -0.0006551768
0000e0 65 26 98 bb d4 a6 a9 bb ac 82 f7 3b 78 73 be bb
       -0.004643249 -0.005177358 0.007553419 -0.005812105
0000f0 18 1a a8 3b b6 26 61 3c ce 42 e8 bb 1c dc e3 39
       0.0051300637 0.01374214 -0.007088042 0.00043460808
000100 c9 7d a5 bc 5d ca f2 3b fa ac f3 b9 cf eb 71 3b
       -0.02020158 0.0074093775 -0.0004647745 0.0036914235
000110 00 3e 56 bb b1 4e 33 bc 97 c8 6a bc 65 59 5b bc
       -0.0032690763 -0.010944054 -0.014330051 -0.013388013
000120 16 eb ba 3b d5 81 2b bc da 41 86 3b 51 80 ef 3b
       0.005704294 -0.010467966 0.0040972056 0.0073089977
000130 0f 62 02 3c 39 4c 0c 3c 46 1f 04 3c a9 fa 17 bb
       0.007957949 0.008563095 0.008064097 -0.0023190177
000140 47 98 9c 3b c1 10 90 3b d6 8d 7e bc 38 62 d3 ba
       0.004778895 0.0043965285 -0.015536746 -0.0016127294
000150 0a bc 83 bb 83 25 6e 3c 18 db c0 bb ed 61 6c bb
       -0.0040202187 0.014535311 -0.005885493 -0.003606911
000160 f5 58 80 bb df 4d 0c bc d5 56 49 bb 9f 6e e1 bb
       -0.0039168545 -0.008563488 -0.0030721922 -0.006879642
000170 41 3c 80 3c 43 c2 f3 bb c8 67 b0 bb 05 d7 6b 3a
       0.015653731 -0.0074389293 -0.0053834654 0.0008996579
000180 6e ed 31 ba 55 81 10 bc 23 3a 28 3c f2 77 ee bb
       -0.0006787394 -0.008819898 0.010267767 -0.007277482
000190 fc 51 0d ba 6a 77 88 3c 2b 5b ac bc 2e 26 24 3c
       -0.000539094 0.016658504 -0.021039566 0.010018868
0001a0 74 8b ef ba 14 5a 11 3c 1e 4e 34 3b dc 9d ff 3b
       -0.0018275813 0.008871574 0.0027512382 0.0078008007
0001b0 60 17 be 3b 55 a7 18 bb f2 da 02 3c 78 8c 21 3c
       0.0058011264 -0.0023293097 0.007986771 0.0098601505
0001c0 60 9b cf 3a ed 5d 48 39 7c 70 3b 3c 6c 9e 26 bb
       0.0015839152 0.00019108476 0.011440393 -0.0025424017
0001d0 38 f8 2c bb 36 07 71 3b 8c 09 12 3c cd 63 0b 3c
       -0.0026393067 0.003677798 0.008913409 0.008507681
0001e0 aa a0 55 3c 0b 39 fc 3a de c9 97 ba 60 19 23 bc
       0.013038794 0.0019243074 -0.0011580547 -0.00995478
0001f0 3d f2 bc 3b 68 bf 26 bc fc 4f 3a bc 68 bf 20 3c
       0.0057661817 -0.010177471 -0.011371609 0.00981126

network_body._body_endoder.seq_layers.0.weight f4 [128, 52]
000000 30 5f 83 3e c7 d8 0a 3e 33 c2 9b be 83 10 11 3d
       0.2565856 0.13559256 -0.304216 0.035416137
000010 75 79 5c 3d 9d 78 10 bd 0a 3b 44 3e 1f c1 1a be
       0.053826768 -0.035271276 0.19163147 -0.15112732
000020 12 92 84 3d 68 ab 91 3c 42 3b 10 3e ee 56 1c 3e
       0.06473173 0.017781928 0.14085105 0.15267536
000030 1f 46 ce 3c 41 db 64 be b1 f3 80 bc f5 5c ee bd
       0.02517992 -0.22349264 -0.015741201 -0.11638824
000040 16 2d 78 3d 1a 41 7e 3d 3a a9 41 be f2 97 d9 3d
       0.060589872 0.062073804 -0.18912211 0.106246844
000050 6d a0 57 3c cf 2a 0d 3e d0 f7 0d 3d 4d a5 bb bc
       0.013160807 0.13785861 0.03466016 -0.02290597
000060 30 21 5d bd 8a 69 ae bd 0f 8e 44 3e 91 5a 47 be
       -0.05398673 -0.08516224 0.19194816 -0.19468142
000070 fd 69 bc bd 0e fd 28 3d 07 f7 2e be f3 2c 6f be
       -0.09199903 0.041256957 -0.17086421 -0.2335699
000080 75 03 ae 3d 2f 8e 06 3e 6b e8 1a 3d 13 17 02 3e
       0.08496753 0.13140176 0.037819307 0.12704115
000090 c8 de 98 3d 18 57 b6 3d 51 ec a0 3d 04 f8 01 be
       0.07464367 0.089033306 0.07857574 -0.12692267
0000a0 49 5e 08 3e e3 d9 6b bc 82 7e 8a 3e e9 e7 cc 3d
       0.13317217 -0.01439521 0.27049643 0.10005171
0000b0 18 ca d2 3d ec 37 a2 3e ef ca f1 3b db a5 14 bd
       0.102924526 0.3168329 0.007378928 -0.036290985
0000c0 c7 28 a0 be 10 a9 d4 bc b0 e4 72 3e 4b 77 ae bc
       -0.3128111 -0.025959522 0.2372005 -0.021297118
0000d0 d9 19 3f 3e bc bf 7b be 30 9b 34 3e df 61 75 bd
       0.18662204 -0.2458486 0.17637324 -0.05990779
0000e0 12 bf ba bd ea ed 73 3e fa c4 e2 bc b3 f5 15 3e
       -0.09118475 0.23821226 -0.027681816 0.14644508
0000f0 b0 7e d1 3d 98 96 05 be bb fc 7a 3d e1 f4 94 3c
       0.10229242 -0.13045728 0.06127618 0.018183174
000100 33 5a 6b be 04 64 3a be 72 15 b8 bc 44 c0 31 3e
       -0.22983627 -0.18202215 -0.022471163 0.173585
000110 58 31 02 38 72 aa 0d 3e d7 5b a5 3c 68 ad 00 bc
       3.104037e-05 0.13834551 0.020185394 -0.007853843
000120 2a 1f 5e 3e c3 94 17 3d d2 0a 95 3e 20 1b f2 3c
       0.21691576 0.037007105 0.29109818 0.02955395
000130 c5 04 12 be b3 2c 2e 3c ac 2f 37 be 11 b4 b0 bd
       -0.14259632 0.010630774 -0.17889279 -0.08628095
000140 17 2c 7e 3d b7 da 33 3c 7a 74 2a bd bf 09 bf 3d
       0.062053766 0.010977439 -0.041614987 0.09328031
000150 50 30 f3 3c ee cd 60 bb 1d 6b ff bc ad 16 56 3e
       0.029686123 -0.003430243 -0.031179005 0.20907088
000160 43 51 6a 3e af 72 24 3e c1 2a f6 3d c4 53 4d be
       0.22882561 0.16059373 0.120198734 -0.20051485
000170 c5 b6 a5 3d 46 a0 ab bc 7b c2 44 be c8 fa b9 bd
       0.08091501 -0.020950448 -0.19214813 -0.09081036
000180 e9 50 ff bc 59 7e a5 3c b9 d4 35 bb 73 70 ba bd
       -0.03116651 0.020201849 -0.00277452 -0.09103479
000190 3a 4b db 3d 8e ae f7 3c 11 5a 98 3d 9c 15 92 bd
       0.10707708 0.030234601 0.07439054 -0.07133028
0001a0 f1 90 ca be 6e 7c 19 be 6b ed f1 bc 8e 51 01 3e
       -0.39563707 -0.14988872 -0.029532155 0.12628767
0001b0 5a e6 38 bb 06 1d 31 3e ad 81 96 bc b4 98 c1 3c
       -0.0028213472 0.17296228 -0.018372381 0.023632385
0001c0 c5 47 2f 3e d6 82 15 3d a5 9f 8b bd a2 c7 77 bd
       0.17117222 0.036501728 -0.06817559 -0.06049312
0001d0 23 5a 14 be 54 9f 26 be 2b 69 5b bd 04 6f 03 3e
       -0.1448751 -0.16271716 -0.053567093 0.12835318
0001e0 54 92 09 be b3 fe a9 3c 8b d6 48 3c 4c 35 0b 3c
       -0.13434726 0.020751333 0.012258182 0.008496594
0001f0 6b 05 64 bd 8c 80 b3 bb ab 2a 72 3d 22 d1 aa be
       -0.05566923 -0.0054779705 0.059122723 -0.3336268
000200 2b e2 d3 3d 5a af e0 bd 5f 44 d8 3e 74 b9 13 3d
       0.103458725 -0.10970946 0.42239663 0.036065534
000210 5d 90 f3 3c c4 f3 34 3d 95 ac b2 3c 76 fe 54 bc
       0.029731924 0.044177786 0.02181081 -0.013000121
000220 36 98 3d be c5 0e 0b 3e 3f f2 b7 bd 2b 40 19 3e
       -0.18515095 0.13579853 -0.08981752 0.14965884
000230 1e dd b9 be f3 0c a6 3e 63 d9 38 3e ab c9 34 bd
       -0.36301512 0.32431754 0.18051676 -0.044137638
000240 f8 d9 43 3d ed e0 21 3e 26 97 93 bd 69 d3 e0 3c
       0.047815293 0.15808459 -0.07206564 0.027444558
000250 47 c0 df 3d a8 09 8e bd 72 11 55 3e d8 28 75 be
       0.10925346 -0.069354355 0.20807436 -0.23941362
000260 6c 66 6c 3d 12 bc 07 bd 68 32 a6 bc b6 a8 3e 3e
       0.057714865 -0.033138342 -0.020287707 0.18619046
000270 28 43 7c 3d 77 2d 6b bc 80 5d 20 be f7 46 8d bd
       0.061587483 -0.014354101 -0.15660667 -0.06898301
000280 16 01 86 be d6 1c 28 3c 18 39 03 3e df be 9f bd
       -0.26172704 0.010260781 0.12814748 -0.07800078
000290 59 68 97 bd 6c 7b a9 bd c9 0a 1c be ba 55 14 3e
       -0.073929496 -0.08275494 -0.15238489 0.14485827
0002a0 a3 42 8a bc ae a4 0a 3e de 3f b2 3d 64 5e af 3c
       -0.016877478 0.13539383 0.08703588 0.021407314
0002b0 af 1c a4 3d f8 1d a6 bd 7c a4 00 3d d6 c1 ec 3c
       0.080132835 -0.08111185 0.031406865 0.028901022
0002c0 f7 ce 2b be e7 12 0f be c2 8c 3d bc 0a 5e b7 3d
       -0.1677817 -0.13972054 -0.011569204 0.089534834
0002d0 b6 90 80 3d fe 6f 9e 3d a5 6e e4 bb 01 02 6d bd
       0.062776014 0.077362046 -0.0069711977 -0.05786324
0002e0 bf 14 5f 3e 3c 64 f1 3c 63 e3 35 3e cf 1e 13 bd
       0.21785258 0.02946674 0.17762522 -0.035918053
0002f0 17 2f a0 3b 24 01 36 be bb 9b 96 bd de 55 57 3e
       0.004888426 -0.17773873 -0.07353922 0.2102885
000300 36 6e 01 bc e1 cd 3a be 8e 4f 1e bc cb 6e 55 3d
       -0.0078998115 -0.18242599 -0.009662522 0.052107614
000310 9a 14 49 bc 89 9d 99 3d 39 bc ae 3d fb 9d d3 3d
       -0.012272978 0.075007506 0.085319944 0.10332867
000320 3e ca 55 3e 60 76 17 bc 6f 15 82 3d 8a 4a 03 3b
       0.2087793 -0.009244531 0.063517444 0.0020033442
000330 52 0c e0 3d d2 03 a9 3d 82 bc 1d be be 5e 90 bd
       0.1093985 0.08252682 -0.15403941 -0.07049321
000340 55 dc 88 be 05 34 9d 3d cb 58 b8 bc 1b 9c fd 3d
       -0.267306 0.076759376 -0.022503277 0.123832904
000350 5a 15 e1 3d df 2c e4 bc 06 0d b0 bd 7d 98 33 3e
       0.109904006 -0.027853427 -0.08596234 0.17538638
000360 ac b1 af 3d 14 0a bf bd a0 99 d9 3b b6 3c 82 bd
       0.0857881 -0.09328094 0.006640628 -0.06359236
000370 f1 8e ed 3c fa 2e 23 3e 83 35 64 3e d1 d1 a3 3d
       0.028998824 0.15935889 0.22286038 0.07999004
000380 ec cc 6f 3e 7a df ba 3d 81 c0 07 3e cc 7d 05 3e
       0.23418015 0.09124656 0.13257028 0.13036269
000390 55 d6 ca 3d ce e7 43 bd 5e e9 7e bd 94 d4 74 be
       0.09904162 -0.047828488 -0.062234275 -0.23909217
0003a0 91 cb d3 bd 9d cf 4e 3d bd d4 ba bd 4d 10 3e bd
       -0.103415616 0.050490964 -0.09122608 -0.046402264
0003b0 ac 2c 02 be 33 42 bc bb 71 61 1b be dd ba 96 3d
       -0.12712353 -0.0057451962 -0.1517389 0.0735986
0003c0 da 71 90 be 96 a1 bc 3d 2f b1 f0 3d 36 f8 6a bc
       -0.28211862 0.092105076 0.11752545 -0.014341405
0003d0 fc 34 e7 bc e8 f5 8f bd 53 6c df 3c 84 45 04 be
       -0.028223507 -0.07029325 0.027273333 -0.12917143
0003e0 1a b2 cb bd 35 9d a3 3d 7a f6 c4 bd c4 b4 01 bd
       -0.099460796 0.07988969 -0.09617324 -0.031666532
0003f0 6e aa 9f 3e f4 63 db bd 30 3b be 3d a8 24 b8 bd
       0.31184715 -0.10712424 0.09288633 -0.089913666

network_body._body_endoder.seq_layers.2.bias f4 [128]
000000 0b c8 33 bc 66 74 08 b9 46 ef 22 3b 39 b1 94 3b
       -0.010972987 -0.00013013333 0.0024861856 0.004537728
000010 56 3c cf 3b cb 10 e0 bb 7b 94 aa 3b cf 93 c4 3a
       0.0063243313 -0.0068379394 0.0052056885 0.0014997664
000020 5d 56 03 bc 10 fd 06 3c f8 4c 33 3b fa f3 0b 3c
       -0.008016196 0.008239046 0.002735911 0.008542055
000030 08 da 6b bb b8 37 f2 bb 79 36 b2 3b 8d e5 9b 3a
       -0.003598811 -0.007391896 0.0054386226 0.0011893973
000040 a9 d1 00 bc c3 b7 c9 3b df 8f 1d bc c4 94 a9 3b
       -0.007862487 0.0061559393 -0.009616821 0.005175205
000050 20 3f a8 bb 32 b2 25 bc 6f 7e e0 39 08 8a 8e bb
       -0.005134478 -0.010113286 0.0004281881 -0.0043499507
000060 b2 66 f0 bb ed 66 23 39 09 60 00 3c a5 b3 23 3b
       -0.007336461 0.00015583234 0.007835397 0.0024978903
000070 08 77 19 bc 54 ad 93 bb 9f 1e 96 3b 2a 92 d1 bb
       -0.009366758 -0.0045067463 0.004581287 -0.006395598
000080 ad 4e 39 3c e1 93 91 3a 94 69 21 bb 63 e8 d6 3b
       0.011310262 0.0011106693 -0.002462958 0.0065584644
000090 e9 8a 3a 3a fe 68 b7 3a b2 2c a8 3b d4 44 d7 3a
       0.0007116036 0.0013993082 0.005132281 0.0016423711
0000a0 47 d0 d9 3b 33 5b d7 3b e8 4d 5c 3c 51 e3 c7 ba
       0.006647143 0.006572151 0.013446309 -0.0015250241
0000b0 81 9f 78 bb 9b 44 75 3a 96 00 8a 3a 7a 49 cb 3a
       -0.0037936869 0.00093562313 0.0010528739 0.0015509569
0000c0 61 d2 d4 bb ac 06 19 3b 63 1f f6 3b a6 78 86 bc
       -0.0064948057 0.0023349924 0.007511066 -0.016414952
0000d0 6c 8c b7 bb cf 72 ed 3b 49 44 cd bb b7 3e d1 3b
       -0.0056014564 0.0072463523 -0.0062642437 0.00638565
0000e0 c8 91 ab bb 2c 89 6e 3a b4 bb d7 b8 9a 30 c9 bb
       -0.0052358843 0.00090994197 -0.00010286961 -0.006139827
0000f0 6f 83 10 3c 75 25 1d 3c b4 cb 75 3b df cd e0 3a
       0.008820399 0.00959145 0.003750545 0.0017151198
000100 3a 22 14 3c 4b 2c 00 bc c9 a9 6d 3a e6 58 46 ba
       0.009041363 -0.00782306 0.00090661325 -0.00075663475
000110 a6 06 22 3c f3 7f c5 3b 6c b8 19 3b 8a b7 ca bb
       0.00988928 0.0060272156 0.0023455871 -0.0061864303
000120 64 94 1b bc e0 a0 17 3b 72 58 de 3b 9f 65 d3 bb
       -0.009495828 0.002313666 0.006785446 -0.006451323
000130 ea 55 d5 3b 5f e1 2e 3c 4a b9 fa 3b c3 6f b5 bb
       0.006510486 0.01067385 0.0076514827 -0.0055370047
000140 33 9a 76 ba 69 ad 4b 3b 8f c7 51 bc bb b4 49 3c
       -0.0009407133 0.0031078702 -0.012803926 0.012311156
000150 81 dc 95 3b a5 40 6d ba df 9b d9 3b 9e 9d 74 ba
       0.0045734053 -0.00090504653 0.0066408957 -0.0009331348
000160 c8 29 ca bb 7a 3a 86 3b 93 64 10 3c 84 2b 93 3b
       -0.0061695315 0.0040963264 0.008813041 0.0044912715
000170 c3 b1 52 ba a2 49 e5 3b e7 56 a7 bb 46 75 88 3b
       -0.0008037353 0.006997303 -0.005106795 0.0041643707
000180 e5 df 17 3b b8 90 30 b8 36 39 26 3b d0 06 1b bc
       0.0023174223 -4.209645e-05 0.002536369 -0.009462073
000190 d0 c9 da bb 3b ca 0b 3a 3a c2 49 3c ed e2 7e bc
       -0.00667689 0.0005332564 0.012314374 -0.015557033
0001a0 65 1c 56 bc 6e 82 d1 3b 6e 62 19 3c b5 07 7b 3b
       -0.013068293 0.0063937223 0.009361846 0.0038304154
0001b0 78 36 f4 bb 9a 2c 1b bc 0e 14 d7 b8 8a 89 a0 3b
       -0.0074527822 -0.009471083 -0.000102557344 0.0048992084
0001c0 1a 37 2b 3c 9d b0 d9 3b 2d 58 c4 ba 12 d8 94 bc
       0.010450149 0.0066433684 -0.0014979892 -0.018169437
0001d0 8c a4 6d 3b 90 27 55 bc 8d 05 df bb 03 3b 86 3b
       0.0036261408 -0.013009921 -0.0068060816 0.00409639
0001e0 b0 ee d9 ba 7e c2 dc 3a 76 40 10 bc a3 24 dd 3b
       -0.001662692 0.0016842631 -0.008804431 0.006748752
0001f0 50 b6 fe bb ef b3 66 3b 76 68 00 3a 44 47 c1 38
       -0.007773198 0.0035202464 0.00048983784 9.2162314e-05

network_body._body_endoder.seq_layers.2.weight f4 [128, 128]
000000 48 3e e2 3d 9b 03 df bd 24 6a 32 bd b1 f3 9e 3c
       0.110470355 -0.108893596 -0.043558255 0.01940331
000010 9c b2 a6 bb 4c ba 59 bc 34 5e 0f bd ca ad f9 3a
       -0.00508721 -0.013289046 -0.03500195 0.0019048986
000020 56 a4 24 3d 1e fc 3d 3d 0d cf 09 bd e2 59 0d bd
       0.040195785 0.046383016 -0.033644725 -0.034509547
000030 06 21 a2 3d e6 f9 53 3d 92 38 08 be 75 f9 70 bd
       0.07916455 0.051751994 -0.1330283 -0.05883165
000040 76 ad be 3c c8 fc 18 3d bc 1a 16 be da 00 8a bd
       0.023276072 0.037350446 -0.14658636 -0.06738444
000050 6e 7e da bd 52 40 9e bb 67 70 8f bd ca e9 c1 3c
       -0.10668646 -0.004829445 -0.07003861 0.02367105
000060 d9 06 90 bd 5f d7 03 3e d6 3f 19 3d ca 13 15 bd
       -0.07032556 0.12875126 0.037414394 -0.036395825
000070 e3 ac d7 bd c2 7e d5 bc c2 15 01 bd ff 08 07 bd
       -0.105310224 -0.02606142 -0.03151489 -0.032967564
000080 5a 8c 4e 3e 06 bd 14 3e 00 f0 3f 3d bd c1 1a 3c
       0.20170727 0.14525232 0.04685974 0.009445605
000090 e6 c3 e8 bd a7 56 8f 3c 34 44 8a bd e1 8f 21 3e
       -0.1136549 0.017497374 -0.0675129 0.15777542
0000a0 c6 2b a2 bc dc 83 1e 3d 2e 11 9a bd 8a 28 5d bd
       -0.019796263 0.03869997 -0.07522808 -0.05399374
0000b0 86 43 b7 bd ec 3e 8a bb 64 39 7d 3d 1d 51 c7 bd
       -0.08948426 -0.0042189267 0.06182231 -0.09732268
0000c0 75 20 cf bd ef 61 c6 3d 9c b0 d5 bd 1d 2d a0 bd
       -0.101136126 0.09686648 -0.10434076 -0.07821105
0000d0 01 c6 24 3d 92 47 3c 3c 70 1a 35 bd ac 83 ed bd
       0.040227894 0.011491673 -0.044214666 -0.1159738
0000e0 e2 d8 3d be cf b3 f8 bd 96 14 97 3c a3 a6 fe 3d
       -0.18539765 -0.12143671 0.018442433 0.12434127
0000f0 0a ad 69 3d d5 33 59 bd f3 0d e6 bd f0 f2 00 bd
       0.05704979 -0.053027947 -0.11233129 -0.031481683
000100 83 a0 e4 bd 7c 5d e7 3c c5 78 f5 3d 75 eb b2 bd
       -0.11163428 0.028242819 0.119859256 -0.08736316
000110 76 5c ab bd 24 6a bd 3c 82 d9 a8 bd ba cf 96 3c
       -0.08367245 0.0231219 -0.08244611 0.018409599
000120 3e 79 99 bd a4 09 6f 3d 47 cb 48 bd 33 b4 87 3d
       -0.07493828 0.058358803 -0.049021985 0.06626167
000130 9d 7a ee bc 97 cd 8b bd e3 e1 a3 3c d9 f0 36 bd
       -0.029111201 -0.068263225 0.020005172 -0.044663284
000140 cc 73 1c bd 52 43 52 bd f3 98 19 be 43 43 75 3d
       -0.03819637 -0.051333733 -0.14999752 0.0598786
000150 cd 2e d0 bd 67 2d 58 3e 91 36 c9 3d 27 dd 3b bd
       -0.101651765 0.2111107 0.09824861 -0.045865204
000160 f7 75 de 3d e8 e2 8b 3d 37 d5 8b bd f1 0c 8b 3c
       0.10862344 0.06830388 -0.06827777 0.016973944
000170 db d5 b7 3d ba b5 f8 bd 77 53 91 bc 87 39 bb 3d
       0.089763366 -0.121440366 -0.017739994 0.09141832
000180 0d da cd 3d 38 f7 c5 3d 10 8a 4d 3d d4 35 28 3e
       0.100513555 0.09666294 0.050180495 0.16426784
000190 0b 43 e6 3d 56 bc ab bd c2 31 20 bb 9f 39 49 3e
       0.11243256 -0.083855316 -0.002444372 0.19650887
0001a0 62 43 a2 bd a8 7f 2e be 1a c1 02 bc e6 05 51 bd
       -0.079230085 -0.17040884 -0.007980609 -0.051031016
0001b0 5e 8a 3c 3d c5 9c 00 3e 85 f8 f2 b8 e4 74 23 bd
       0.046030395 0.12559803 -0.000115857496 -0.039906397
0001c0 5c de 2a 3d b0 8f c2 3d 27 b2 93 3d db f8 46 3e
       0.041715965 0.095000625 0.07211714 0.19430868
0001d0 ab 16 e5 3d b5 e2 7c be ef 69 7c bd 9d 5f 4b 3d
       0.11185964 -0.24695857 -0.061624464 0.04965173
0001e0 25 43 52 bd 02 99 09 3e 79 da 9f 3b 31 77 5e 3e
       -0.051333565 0.13437274 0.004878339 0.21725155
0001f0 54 2f a2 bc 2d b4 84 bd 3d 67 2b 3e b2 9d 5a be
       -0.019797958 -0.06479678 0.16738601 -0.21349218
000200 49 82 85 3b f0 56 9b 3d f8 01 16 3e c1 30 86 bd
       0.004074369 0.075849414 0.14649189 -0.06552268
000210 0b 28 20 be 07 96 f8 bc 95 19 77 3d d3 f9 dc bd
       -0.15640275 -0.030344976 0.06032713 -0.10789838
000220 b5 72 31 3e 4f 29 6c 3d 75 60 1f 3d ad 2c aa bc
       0.17328914 0.057656582 0.038910348 -0.020773256
000230 c0 9c 88 bd 75 76 fb 3d 5f 52 6e be 0d c2 8b bc
       -0.06670523 0.12278453 -0.2327361 -0.017060304
000240 87 f7 c0 3d 0d fe b0 3d 84 fc c1 3c b0 70 5e 3e
       0.09422212 0.08642206 0.02367998 0.21722674
000250 0a f4 17 bb 8f 43 0a bc a7 d6 07 3e df d6 ef 3a
       -0.002318623 -0.008438959 0.13265477 0.001829829
000260 4a ee 97 3d c1 3c 02 3e 11 70 f9 bc d5 06 4f 3e
       0.07418497 0.12718488 -0.030448945 0.2021745
000270 6e 0d a0 3d b5 be ac bd b6 02 1b 3e d9 b9 f3 bd
       0.078150615 -0.08434812 0.15137753 -0.11900682
000280 2c 35 f0 bd c7 4d 69 3d 05 cd f9 3d 7a dd 13 3e
       -0.11728892 0.05695894 0.121973075 0.14439955
000290 18 04 59 3e c1 b4 c7 bc 93 b5 14 3e 4c 64 a0 bd
       0.21192968 -0.024378182 0.1452239 -0.0783163
0002a0 ae f7 af 3d 01 3a bd bc b6 a1 0d be f2 45 c7 bd
       0.08592163 -0.023098947 -0.13831219 -0.09730138
0002b0 18 63 85 3d f9 4a 05 bd 3a 6a 26 3a c2 66 a4 bd
       0.06513041 -0.032542203 0.00063482265 -0.08027412
0002c0 1b 29 12 bd 2b 5e 08 3d 3c c6 56 3d 71 36 0a be
       -0.035683732 0.03329293 0.052435145 -0.1349733
0002d0 08 59 2a bb ad 7d d9 bc 8a 9d cb 3c 40 b4 aa 3c
       -0.0025993008 -0.026549185 0.024855394 0.020837903
0002e0 b0 d5 c0 bd aa 78 28 bc 95 15 01 3e 82 75 d4 3d
       -0.09415758 -0.010282675 0.12605889 0.10373975
0002f0 79 99 6c 3d 7a 0d b4 3d 14 a9 03 be 4a 95 c2 3d
       0.05776355 0.08791633 -0.12857467 0.09501131
000300 86 ad 02 3d 9d 51 6a 3d 61 da 7d bd be 51 08 3e
       0.031903766 0.05720674 -0.06197584 0.13312432
000310 8a 20 c3 bd e3 85 32 3d 94 98 a5 3d c2 b4 65 3c
       -0.09527691 0.043584716 0.080857426 0.014020147
000320 6f f1 47 3c ec 7c bf bc 13 a0 cd 3d 54 1a 1c 3e
       0.012203558 -0.023374997 0.10040297 0.15244418
000330 5f 91 c2 bd b2 10 30 3d 5e 73 29 3e fd 78 ef bc
       -0.095003836 0.042984672 0.16547915 -0.029232496
000340 3f 90 1c bc 75 0d c4 bb 36 67 66 3e 67 4c 34 bd
       -0.009555875 -0.0059830495 0.2250031 -0.044018175
000350 2e 74 ee bd c8 08 36 bd 8b 72 be 3d 00 77 a0 bd
       -0.11643253 -0.04444197 0.09299191 -0.078351974
000360 69 3b 38 3d 82 77 ad 3d e3 5e 90 3c 00 2c 01 3d
       0.044978533 0.0847006 0.01762337 0.031536102
000370 f4 b2 30 3d e5 ac 84 bc 26 c0 59 bd 8c 72 32 be
       0.043139413 -0.016195724 -0.053161763 -0.17426509
000380 e4 7a 31 be eb 8d aa bb c6 b2 18 3e cc 51 0f be
       -0.17332035 -0.005204906 0.14911947 -0.13996047
000390 08 0f 76 3d fa 53 18 3e 92 d7 c6 bd 7b 3d cf 3d
       0.06007293 0.14875785 -0.097090855 0.10119148
0003a0 30 6d dc bb d8 a8 71 3b 9e ef 8e bc be 28 c6 3c
       -0.0067268834 0.003687432 -0.017448243 0.02418935
0003b0 e0 f6 96 bc 53 b5 28 3e c0 46 9e 3d 9e 62 54 3d
       -0.018428266 0.1647542 0.07728338 0.05185186
0003c0 4e 5f 4b bc 49 48 5b 3d 40 e1 46 ba af 73 f8 3d
       -0.012412859 0.053535733 -0.00075866655 0.1213144
0003d0 a3 8b e6 3c c9 45 a0 bd 86 2b d4 3c 33 6e 1b 3d
       0.028142756 -0.078258105 0.02589966 0.03794689
0003e0 c9 eb 07 be de 4e d2 bd 0d 2c 12 3c 7b c8 66 3d
       -0.13273539 -0.10268949 0.008921635 0.056343537
0003f0 1b 01 82 3c 5c 76 53 3d dc 14 d6 3b 00 8f 00 bd
       0.015869668 0.05162655 0.0065332484 -0.031386375
