results/ppo/NPCAgent/NPCAgent-2048.pt (torch, 147015 bytes, 11 tensors)

network_body._body_endoder.seq_layers.0.weight f4 [128, 4]
0	0x3cd2c4c9	0.0257286
1	0xbea2e9c9	-0.3181899
2	0xbe527589	-0.20552649
3	0x3f21b20c	0.631623
4	0x3e4b6604	0.19863135
5	0xbe2e2056	-0.17004523
6	0x3ee83933	0.4535614
7	0xbd035653	-0.032064747
8	0x3e16db7e	0.14732167
9	0xbe806a7d	-0.25081244
10	0xbd9700a7	-0.07373171
11	0xbf5aba59	-0.85440594
12	0x3f1385b5	0.57625896
13	0x3e746f5b	0.23870604
14	0xbf019908	-0.5062413
15	0xbe71372a	-0.235562
16	0xbe8df6df	-0.2772741
17	0x3fa3b1a0	1.2788582
18	0x3e8d9ac0	0.27657127
19	0xbde51aa9	-0.11186726
20	0xbe949578	-0.29020286
21	0x3ea91d8e	0.3303036
22	0x3e9f02e3	0.3105689
23	0xbe5971b4	-0.2123478
24	0x3d7a24c5	0.061070222
25	0xbebb716e	-0.36609977
26	0x3f772309	0.96537834
27	0x3e52d917	0.20590626
28	0xbe665f73	-0.22497348
29	0x3e368c07	0.17826854
30	0xbca4d295	-0.020119945
31	0xbd71ede0	-0.059064746
32	0xbf90b983	-1.1306614
33	0xbe02a52a	-0.12758318
34	0x3f740d20	0.9533253
35	0x3e0d3686	0.1379033
36	0x3e9ca163	0.30591878
37	0x3cbc1474	0.022958972
38	0xbf27e396	-0.65581644
39	0xbe07b026	-0.13250789
40	0xbe9c976f	-0.30584285
41	0xbee9cfeb	-0.4566644
42	0x3e6e0500	0.23244095
43	0xbcf320c5	-0.029678712
44	0x3f22e642	0.63632596
45	0x3f8c3096	1.0952327
46	0xbdc65e4a	-0.09685953
47	0xbe998e2b	-0.29991278
48	0x3f619a5b	0.8812615
49	0x3eb2c305	0.34914413
50	0x3d8dacad	0.06917701
51	0x3e9885d0	0.2978959
52	0x3e966235	0.293718
53	0x3de9ed58	0.11422223
54	0xbe9eca8c	-0.31013906
55	0xbf01b0ab	-0.506602
56	0xbde70558	-0.11280316
57	0x3e69f80a	0.22848526
58	0xbf2c7e77	-0.6738047
59	0xbe799f81	-0.24377252
60	0xbe06c788	-0.13162053
61	0xbe5dcc76	-0.21660027
62	0xbe6bd3b0	-0.23029971
63	0x3e33fed0	0.17577672
64	0xbd0caa4e	-0.034342103
65	0x3f0a9d60	0.54146385
66	0x3e74e68c	0.23916072
67	0xbe816e8f	-0.25279662
68	0x3e33dc8b	0.17564599
69	0x3e65ef30	0.22454524
70	0xbd83f4b3	-0.06443157
71	0x3f00585c	0.50134826
72	0x3de4cc4b	0.11171778
73	0x3c36c88c	0.011156213
74	0x3dfed0a0	0.12442136
75	0x3ee415fb	0.4454802
76	0x3ecb5b22	0.39717966
77	0x3df7b4cf	0.120950334
78	0x3e8a8c00	0.27059937
79	0xbe662586	-0.22475252
80	0xbf159a0f	-0.584382
81	0xbcc929b5	-0.02455602
82	0x3f07ca85	0.53043395
83	0xbf077dab	-0.5292613
84	0x3ee96ecd	0.45592347
85	0x3f1b79ed	0.6073292
86	0xbf29a160	-0.66261864
87	0xbe37ce96	-0.179499
88	0xbf525c27	-0.82171863
89	0x3f3a1e1e	0.72702205
90	0xbf12e68a	-0.57383025
91	0xbeeccece	-0.4625153
92	0xbe90fa66	-0.2831604
93	0xbecf1c7f	-0.40451428
94	0x3ea55a2f	0.32295367
95	0xbf249d72	-0.6430274
96	0xbda550ba	-0.08072038
97	0x3cddcf44	0.027076371
98	0x3ef8768e	0.4852795
99	0x3ef9829f	0.48732468
100	0x3f0f622a	0.5600916
101	0x3e8991a4	0.26868927
102	0x3c09a226	0.008400476
103	0x3e85e2e3	0.26149663
104	0xbf183068	-0.5944886
105	0xbe952612	-0.29130608
106	0x3ec63a68	0.38716435
107	0x3f21114e	0.6291703
108	0xbf431132	-0.7619811
109	0x3e85fa11	0.26167348
110	0xbe24b03c	-0.16082853
111	0xbf20eff4	-0.6286614
112	0xbe000b04	-0.12504202
113	0x3e5b0631	0.2138908
114	0xbeebe85f	-0.46075723
115	0xbd9df242	-0.07712223
116	0xbe8944b7	-0.26810238
117	0xbee57fc2	-0.44824034
118	0xbcadd72e	-0.02122077
119	0x3ef396d7	0.4757602
120	0xbe2101fb	-0.15723412
121	0x3f35ad2b	0.7096736
122	0xbf4f0bed	-0.8087757
123	0x3f62f1a5	0.8864997
124	0x3f715d1f	0.94282717
125	0x3f53d434	0.8274567
126	0xbedce551	-0.43143705
127	0xbe5fddb3	-0.21861915
128	0x3d1894cf	0.03725129
129	0xbe9c558a	-0.3053401
130	0x3ee426f8	0.4456098
131	0xbe07c232	-0.13257673
132	0x3df56f20	0.11984086
133	0x3ee3ef25	0.4451839
134	0xbf8e65e9	-1.112485
135	0xbf80c45e	-1.0059927
136	0xbe2cd3e2	-0.16877702
137	0xbb106320	-0.002203174
138	0x3dd4c23b	0.10388609
139	0x3eea818c	0.4580196
140	0xbe983920	-0.29731083
141	0xbe0b2b08	-0.13590634
142	0xbf48a41d	-0.78375417
143	0xbe74ae5e	-0.23894641
144	0xbde849b7	-0.11342185
145	0xbdf0b17c	-0.117526025
146	0xbe0002a2	-0.12501004
147	0x3da711cd	0.08157692
148	0xbf1d2c11	-0.61395365
149	0xbdd60285	-0.10449699
150	0x3f12920c	0.572541
151	0xbecf141c	-0.4044503
152	0xbdc09bc5	-0.09404711
153	0x3f6ca00f	0.9243173
154	0x3b802fc0	0.0039119422
155	0xbf02ec92	-0.5114223
156	0x3e35c7da	0.17752019
157	0x3dfa3c50	0.12218535
158	0xbf2b3056	-0.6687063
159	0x3f0d2789	0.5513845
160	0x3ecafa4b	0.39644083
161	0x3d802625	0.062572755
162	0xbe95e662	-0.2927733
163	0xbf145a23	-0.5795004
164	0x3ed925ba	0.42411596
165	0xbe5cc519	-0.21559562
166	0xbe4ef540	-0.20210743
167	0x3f0a7748	0.5408826
168	0x3eead017	0.45861885
169	0xbe819912	-0.25312096
170	0xbe08e6ee	-0.13369343
171	0xbf64a029	-0.89306885
172	0xbeed7edb	-0.46385846
173	0x3f413c42	0.7548257
174	0x3deac9a9	0.11464245
175	0xbd978da4	-0.07400063
176	0x3f6d2bba	0.92644846
177	0x3d882fce	0.06649743
178	0xbd1714fe	-0.036885254
179	0xbf0bf1ec	-0.5466602
180	0x3e519577	0.20467173
181	0x3dd6571a	0.10465832
182	0x3f174871	0.5909491
183	0x3f8d3bcf	1.1033877
184	0xbe57d38f	-0.21076797
185	0xbcc7614d	-0.024338389
186	0x3dc1c51c	0.09461424
187	0xbe61fe6c	-0.2206971
188	0xbf5472fd	-0.8298796
189	0xbfa8d69c	-1.3190494
190	0x3e451f2e	0.19250175
191	0xbd0cc481	-0.03436709
192	0x3ee4f73c	0.44719875
193	0x3e7b661e	0.24550673
194	0xbfa06e25	-1.2533613
195	0xbeac6f4f	-0.33678672
196	0x3e4a6132	0.1976364
197	0x3e256f39	0.1615571
198	0x3f83098e	1.0237291
199	0x3dbbafaa	0.09164365
200	0x3ed03d7e	0.40671915
201	0xbf74ad07	-0.9557652
202	0x3ea083d0	0.31350565
203	0x3ec12458	0.3772304
204	0x3e263cd8	0.16234148
205	0xbeef381b	-0.46722493
206	0xbdc7f2a1	-0.09763075
207	0x3e30c97e	0.17264363
208	0xbeaa114f	-0.3321633
209	0xbf27e76f	-0.65587515
210	0xbe6a2585	-0.22865875
211	0x3ed739fa	0.4203642
212	0xbebd6a87	-0.36995336
213	0x3f044a4d	0.51675874
214	0xbe0e64bc	-0.13905615
215	0x3e8f4773	0.279842
216	0xbf3ed16f	-0.7453832
217	0xbf04ef16	-0.51927316
218	0x3ef53c7d	0.4789771
219	0xbf0039cc	-0.5008819
220	0xbe0b34dc	-0.13594383
221	0x3f84d368	1.0377016
222	0xbeadbdb3	-0.33933792
223	0x3e8472b6	0.25868767
224	0xbc5cfed0	-0.013488486
225	0x3f474ede	0.77854717
226	0x3e660836	0.2246407
227	0x3f145e10	0.5795603
228	0xbefe6cbf	-0.49692342
229	0x3f88ab06	1.0677192
230	0x3bfce756	0.007718007
231	0xbeabc18a	-0.33546096
232	0x3e179279	0.14801969
233	0x3f7451e6	0.9543747
234	0xbf27c752	-0.65538514
235	0xbe4ea281	-0.20179178
236	0xbe2261eb	-0.15857665
237	0x3e969b76	0.29415482
238	0xbed0ee04	-0.40806592
239	0x3d887cd6	0.066644356
240	0x3f4a89fb	0.7911679
241	0xbe1862d3	-0.14881448
242	0x3f67ee0c	0.90597606
243	0x3e64eadb	0.22355215
244	0x3f1709f3	0.58999556
245	0xbf3421a2	-0.7036382
246	0xbf57766c	-0.8416507
247	0xbeec64cc	-0.46170652
248	0x3e3587e4	0.1772762
249	0x3e720973	0.23636417
250	0xbef78a1d	-0.4834756
251	0xbdc0a768	-0.0940693
252	0xbf12c433	-0.57330626
253	0x3e85ada8	0.26109052
254	0x3e8c01e1	0.27345183
255	0x3d7f8b6a	0.062388815

network_body._body_endoder.seq_layers.0.bias f4 [128]
0	0x00000000	0.0
1	0x00000000	0.0
2	0x00000000	0.0
3	0x00000000	0.0
4	0x00000000	0.0
5	0x00000000	0.0
6	0x00000000	0.0
7	0x00000000	0.0
8	0x00000000	0.0
9	0x00000000	0.0
10	0x00000000	0.0
11	0x00000000	0.0
12	0x00000000	0.0
13	0x00000000	0.0
14	0x00000000	0.0
15	0x00000000	0.0
16	0x00000000	0.0
17	0x00000000	0.0
18	0x00000000	0.0
19	0x00000000	0.0
20	0x00000000	0.0
21	0x00000000	0.0
22	0x00000000	0.0
23	0x00000000	0.0
24	0x00000000	0.0
25	0x00000000	0.0
26	0x00000000	0.0
27	0x00000000	0.0
28	0x00000000	0.0
29	0x00000000	0.0
30	0x00000000	0.0
31	0x00000000	0.0
32	0x00000000	0.0
33	0x00000000	0.0
34	0x00000000	0.0
35	0x00000000	0.0
36	0x00000000	0.0
37	0x00000000	0.0
38	0x00000000	0.0
39	0x00000000	0.0
40	0x00000000	0.0
41	0x00000000	0.0
42	0x00000000	0.0
43	0x00000000	0.0
44	0x00000000	0.0
45	0x00000000	0.0
46	0x00000000	0.0
47	0x00000000	0.0
48	0x00000000	0.0
49	0x00000000	0.0
50	0x00000000	0.0
51	0x00000000	0.0
52	0x00000000	0.0
53	0x00000000	0.0
54	0x00000000	0.0
55	0x00000000	0.0
56	0x00000000	0.0
57	0x00000000	0.0
58	0x00000000	0.0
59	0x00000000	0.0
60	0x00000000	0.0
61	0x00000000	0.0
62	0x00000000	0.0
63	0x00000000	0.0
64	0x00000000	0.0
65	0x00000000	0.0
66	0x00000000	0.0
67	0x00000000	0.0
68	0x00000000	0.0
69	0x00000000	0.0
70	0x00000000	0.0
71	0x00000000	0.0
72	0x00000000	0.0
73	0x00000000	0.0
74	0x00000000	0.0
75	0x00000000	0.0
76	0x00000000	0.0
77	0x00000000	0.0
78	0x00000000	0.0
79	0x00000000	0.0
80	0x00000000	0.0
81	0x00000000	0.0
82	0x00000000	0.0
83	0x00000000	0.0
84	0x00000000	0.0
85	0x00000000	0.0
86	0x00000000	0.0
87	0x00000000	0.0
88	0x00000000	0.0
89	0x00000000	0.0
90	0x00000000	0.0
91	0x00000000	0.0
92	0x00000000	0.0
93	0x00000000	0.0
94	0x00000000	0.0
95	0x00000000	0.0
96	0x00000000	0.0
97	0x00000000	0.0
98	0x00000000	0.0
99	0x00000000	0.0
100	0x00000000	0.0
101	0x00000000	0.0
102	0x00000000	0.0
103	0x00000000	0.0
104	0x00000000	0.0
105	0x00000000	0.0
106	0x00000000	0.0
107	0x00000000	0.0
108	0x00000000	0.0
109	0x00000000	0.0
110	0x00000000	0.0
111	0x00000000	0.0
112	0x00000000	0.0
113	0x00000000	0.0
114	0x00000000	0.0
115	0x00000000	0.0
116	0x00000000	0.0
117	0x00000000	0.0
118	0x00000000	0.0
119	0x00000000	0.0
120	0x00000000	0.0
121	0x00000000	0.0
122	0x00000000	0.0
123	0x00000000	0.0
124	0x00000000	0.0
125	0x00000000	0.0
126	0x00000000	0.0
127	0x00000000	0.0

network_body._body_endoder.seq_layers.2.weight f4 [128, 128]
0	0x3cc0732b	0.023492416
1	0xbd11cb85	-0.035594482
2	0xbc8a017c	-0.01684641
3	0x3dce33c6	0.10068469
4	0x3b895ab8	0.0041917227
5	0xbe0225a5	-0.12709673
6	0xbd8d1d4b	-0.06890353
7	0x3d83869b	0.06422158
8	0xbd9cd13a	-0.07657094
9	0xbde14b45	-0.11000685
10	0xbbc0925d	-0.005876823
11	0xbcae8281	-0.021302463
12	0x3cfc108c	0.030769609
13	0xbbbb3777	-0.005713399
14	0xbdb57276	-0.08859722
15	0xbdaf1465	-0.08548812
16	0xbe1d946e	-0.15388653
17	0xbd0f472c	-0.034979984
18	0xbe0be1d3	-0.13660364
19	0xbd94552c	-0.07242808
20	0xbe378587	-0.1792203
21	0x3c0abce1	0.008467884
22	0x3c6e350f	0.014539017
23	0xbd3be513	-0.04587276
24	0x3d9c8450	0.07642424
25	0x3cc49931	0.023998829
26	0xbd293e7a	-0.041319348
27	0xbd466df3	-0.0484447
28	0xbdf89d70	-0.12139404
29	0x3bf1d8c3	0.0073805763
30	0xbe0c710c	-0.13714999
31	0x3e1ddacd	0.15415497
32	0x3cda4eec	0.026648961
33	0x3dbbae08	0.09164053
34	0xbdd20b76	-0.10256092
35	0x3ca6c4aa	0.020357449
36	0x3cd2dccc	0.02574005
37	0x3e1dbf21	0.15404941
38	0x3d8f4b37	0.06996768
39	0xbd6c1a3c	-0.057642207
40	0x3d628a8e	0.055307917
41	0x3dee9a72	0.11650552
42	0x3e07678a	0.13223091
43	0x3d51f894	0.051262453
44	0x3d3e6584	0.04648353
45	0xbd9d0b89	-0.07668216
46	0xbd8816d4	-0.06644979
47	0xbd99c478	-0.075081766
48	0xbd445471	-0.047932092
49	0x3d13bed4	0.03607066
50	0x3d0bfda6	0.034177445
51	0xbe2c1830	-0.16806102
52	0xbdb51f4b	-0.08843859
53	0xbcc618bb	-0.024181714
54	0x3d823081	0.06356908
55	0x3da1fe2a	0.07909806
56	0x3bad165e	0.0052822074
57	0xbe03ee36	-0.12883839
58	0x3d583ac1	0.052790407
59	0xbe2ca41b	-0.16859476
60	0x3e018889	0.1264974
61	0xbd2e5abf	-0.04256701
62	0xbd764754	-0.060126618
63	0xbd81e86b	-0.06343158
64	0xbd4f0041	-0.05053735
65	0xbcaa73aa	-0.020807106
66	0xbd2827a3	-0.041053426
67	0xbdafd523	-0.085855745
68	0x3ddc1f1d	0.10748122
69	0xbcbc9fad	-0.023025358
70	0xbd00c21a	-0.03143511
71	0xbd0519dc	-0.032495365
72	0xbd8d1610	-0.06888974
73	0xbdd0ded1	-0.10198749
74	0x3d463dc8	0.048398763
75	0xbc0cd7c1	-0.008596362
76	0x3d8e0ca7	0.06936007
77	0x3dfc3602	0.12314989
78	0xbb130582	-0.0022433703
79	0xbceeedab	-0.029166063
80	0x3d8ec686	0.06971459
81	0xbd0e25ea	-0.034704126
82	0x3cf19278	0.029488787
83	0x3c5afc01	0.0133657465
84	0x3e2e2274	0.1700533
85	0xbd7cc098	-0.06170711
86	0xbdc07a86	-0.093983695
87	0xbc239b44	-0.009985749
88	0x3cebe422	0.028795306
89	0xbd8dc567	-0.06922417
90	0xbe0f021c	-0.13965648
91	0x3d85680e	0.065139875
92	0xbd979957	-0.07402294
93	0x3d41d422	0.047321446
94	0x3db9a18b	0.09064015
95	0xbbd27aa4	-0.0064233113
96	0x3df348cf	0.118791215
97	0xbbf6ff8e	-0.0075377887
98	0x3d6d34cb	0.057911675
99	0xbdcbd9df	-0.09953665
100	0x3d37908f	0.044815596
101	0x3d360c08	0.044445068
102	0x3e3e389d	0.18576284
103	0xbcfbcf83	-0.030738598
104	0xbe0080fa	-0.125492
105	0xbcdfc2bb	-0.027314534
106	0xbe63a0c5	-0.22229297
107	0xbdc5be1e	-0.096554026
108	0xbd1bc0a7	-0.038025524
109	0x3d1e3417	0.038623895
110	0xbde18cd5	-0.1101319
111	0x3d2ecce7	0.04267588
112	0xbd38b1de	-0.045091502
113	0x3dc75213	0.09732451
114	0x3dbfc5f4	0.093639284
115	0x3daab06b	0.0833443
116	0xbde596c1	-0.11210395
117	0x3cee0007	0.029052747
118	0xbd7540c1	-0.059876207
119	0xbd560057	-0.052246418
120	0x3ae25e32	0.0017270504
121	0x3e0a7ac2	0.13523391
122	0xbe07d622	-0.13265279
123	0x3d98d8a9	0.074632
124	0x3d9fc6f4	0.07801619
125	0x3d91b1a9	0.07113964
126	0x3d27c262	0.040956862
127	0x3c764835	0.015031864
128	0xbdd63d46	-0.10460906
129	0xbd7d79d0	-0.061883748
130	0x3d63877d	0.055549134
131	0xbad6bae6	-0.0016382604
132	0x3dcac3bb	0.09900614
133	0x3cf2153e	0.029551145
134	0xbdee4388	-0.11633974
135	0xbd0588de	-0.03260123
136	0x3ca8eb89	0.020620124
137	0x3e39b73e	0.18136308
138	0xbdbc5a62	-0.09196927
139	0x3d4337b9	0.047660563
140	0x3d666498	0.056248277
141	0x3c523c0d	0.0128317
142	0x3dc56b54	0.09639612
143	0xbdb0aa6b	-0.08626255
144	0xbe231255	-0.15924962
145	0xbdb6ea69	-0.08931429
146	0xbc46944f	-0.01212032
147	0xbd9f1ec8	-0.07769543
148	0xbda6bc9b	-0.081414424
149	0x3d15075b	0.036383968
150	0xbd4fea41	-0.05076051
151	0xbe2f0567	-0.17091905
152	0x3ad5139c	0.0016256454
153	0xbdd90249	-0.10596139
154	0xbd0f1f6a	-0.03494207
155	0xbd2af8d6	-0.041741215
156	0xbdbadde2	-0.09124352
157	0x3d86d4be	0.06583546
158	0x3cf5724e	0.029961731
159	0x3da76463	0.08173444
160	0xbe051b28	-0.1299864
161	0x3d7752f7	0.060381856
162	0x3dbd4977	0.09242528
163	0xbce35f9f	-0.027755557
164	0xbdaf6e1d	-0.08565924
165	0xbcdf8b25	-0.027288029
166	0x3e591d73	0.2120264
167	0x3e21dd2a	0.15807024
168	0x3be45795	0.0069684484
169	0x3d0bd9b6	0.034143172
170	0x3e1b30c3	0.1515532
171	0xbc55983c	-0.013036784
172	0x3b9f59ab	0.004862984
173	0xbdc5e454	-0.09662691
174	0x3df56633	0.119823836
175	0x3dd7721e	0.10519813
176	0x3e015a6a	0.12632146
177	0x3ce828cd	0.028339768
178	0x3db937e1	0.09043861
179	0xbe116bc1	-0.14201261
180	0x3e24976f	0.16073392
181	0x3e14cd21	0.14531375
182	0xbd855d96	-0.06511991
183	0xbd84b132	-0.0647911
184	0x3a92743f	0.001117356
185	0x3bf692da	0.0075248303
186	0xbdb9bbfb	-0.090690576
187	0xbaafd064	-0.0013413546
188	0x3b0b9f33	0.0021304607
189	0x3cbb1bc6	0.022840392
190	0xbd573482	-0.05254031
191	0x3d86f262	0.065891996
192	0xbc7a33b5	-0.015271117
193	0x3c82a2ab	0.015946707
194	0xbcdf60ee	-0.0272679
195	0xbd119907	-0.03554633
196	0xbb9ba354	-0.004749695
197	0x3c6aff83	0.014343145
198	0xbc7435f9	-0.014905446
199	0xbb4680eb	-0.0030289243
200	0xbd946d5e	-0.07247423
201	0x3d83233a	0.06403203
202	0x3da442ee	0.08020578
203	0x3dc41ed7	0.09576195
204	0xbce340a0	-0.027740777
205	0xbd0241f2	-0.03180117
206	0x3d08018f	0.03320461
207	0xbc198ef9	-0.009372466
208	0xbcbefff5	-0.02331541
209	0x3dd46094	0.10369983
210	0xbe16303f	-0.14666842
211	0x3cb16602	0.021655086
212	0xbe016876	-0.12637505
213	0x3d138102	0.036011703
214	0xbd9ac5f1	-0.075572856
215	0x3cc2e7fa	0.023792256
216	0x3e15e1d8	0.14636934
217	0x3e2819fb	0.16416161
218	0x3debf8b9	0.115220495
219	0xbcd35297	-0.025796218
220	0x3ca4ab4e	0.020101216
221	0x3c560ef2	0.013065087
222	0xbdd5dc0e	-0.10442363
223	0x3bf8c42b	0.0075917444
224	0x3d784c59	0.060619686
225	0xbdf2b88c	-0.11851606
226	0xbe1cbda7	-0.15306722
227	0x3df5e660	0.12006831
228	0x3e6192da	0.22028676
229	0x3d5b16c1	0.053488497
230	0xbd09dd0a	-0.033658065
231	0x3d84edb8	0.06490654
232	0xbd388c72	-0.045055814
233	0xbda8121c	-0.08206579
234	0x3c1eafbb	0.009685452
235	0xbd14b68c	-0.036306903
236	0xbd85d8ba	-0.06535478
237	0x3d580d12	0.05274684
238	0x3ce1f725	0.027583668
239	0x3d3a444b	0.045475286
240	0xbe30da4c	-0.17270774
241	0x3e0c4512	0.13698223
242	0x3d897a81	0.06712819
243	0x3e6eb876	0.23312554
244	0x3d8566af	0.06513726
245	0xbd0016b0	-0.031271636
246	0xbd850766	-0.06495552
247	0x3cd31831	0.025768371
248	0xbe29b2f9	-0.16572179
249	0xbdb92357	-0.09039944
250	0x3cedb892	0.029018674
251	0xbd3931f3	-0.04521365
252	0xbce399aa	-0.027783234
253	0x3e12a3a7	0.14320241
254	0xbd9374d8	-0.072000206
255	0x3da3d7de	0.08000158

network_body._body_endoder.seq_layers.2.bias f4 [128]
0	0x00000000	0.0
1	0x00000000	0.0
2	0x00000000	0.0
3	0x00000000	0.0
4	0x00000000	0.0
5	0x00000000	0.0
6	0x00000000	0.0
7	0x00000000	0.0
8	0x00000000	0.0
9	0x00000000	0.0
10	0x00000000	0.0
11	0x00000000	0.0
12	0x00000000	0.0
13	0x00000000	0.0
14	0x00000000	0.0
15	0x00000000	0.0
16	0x00000000	0.0
17	0x00000000	0.0
18	0x00000000	0.0
19	0x00000000	0.0
20	0x00000000	0.0
21	0x00000000	0.0
22	0x00000000	0.0
23	0x00000000	0.0
24	0x00000000	0.0
25	0x00000000	0.0
26	0x00000000	0.0
27	0x00000000	0.0
28	0x00000000	0.0
29	0x00000000	0.0
30	0x00000000	0.0
31	0x00000000	0.0
32	0x00000000	0.0
33	0x00000000	0.0
34	0x00000000	0.0
35	0x00000000	0.0
36	0x00000000	0.0
37	0x00000000	0.0
38	0x00000000	0.0
39	0x00000000	0.0
40	0x00000000	0.0
41	0x00000000	0.0
42	0x00000000	0.0
43	0x00000000	0.0
44	0x00000000	0.0
45	0x00000000	0.0
46	0x00000000	0.0
47	0x00000000	0.0
48	0x00000000	0.0
49	0x00000000	0.0
50	0x00000000	0.0
51	0x00000000	0.0
52	0x00000000	0.0
53	0x00000000	0.0
54	0x00000000	0.0
55	0x00000000	0.0
56	0x00000000	0.0
57	0x00000000	0.0
58	0x00000000	0.0
59	0x00000000	0.0
60	0x00000000	0.0
61	0x00000000	0.0
62	0x00000000	0.0
63	0x00000000	0.0
64	0x00000000	0.0
65	0x00000000	0.0
66	0x00000000	0.0
67	0x00000000	0.0
68	0x00000000	0.0
69	0x00000000	0.0
70	0x00000000	0.0
71	0x00000000	0.0
72	0x00000000	0.0
73	0x00000000	0.0
74	0x00000000	0.0
75	0x00000000	0.0
76	0x00000000	0.0
77	0x00000000	0.0
78	0x00000000	0.0
79	0x00000000	0.0
80	0x00000000	0.0
81	0x00000000	0.0
82	0x00000000	0.0
83	0x00000000	0.0
84	0x00000000	0.0
85	0x00000000	0.0
86	0x00000000	0.0
87	0x00000000	0.0
88	0x00000000	0.0
89	0x00000000	0.0
90	0x00000000	0.0
91	0x00000000	0.0
92	0x00000000	0.0
93	0x00000000	0.0
94	0x00000000	0.0
95	0x00000000	0.0
96	0x00000000	0.0
97	0x00000000	0.0
98	0x00000000	0.0
99	0x00000000	0.0
100	0x00000000	0.0
101	0x00000000	0.0
102	0x00000000	0.0
103	0x00000000	0.0
104	0x00000000	0.0
105	0x00000000	0.0
106	0x00000000	0.0
107	0x00000000	0.0
108	0x00000000	0.0
109	0x00000000	0.0
110	0x00000000	0.0
111	0x00000000	0.0
112	0x00000000	0.0
113	0x00000000	0.0
114	0x00000000	0.0
115	0x00000000	0.0
116	0x00000000	0.0
117	0x00000000	0.0
118	0x00000000	0.0
119	0x00000000	0.0
120	0x00000000	0.0
121	0x00000000	0.0
122	0x00000000	0.0
123	0x00000000	0.0
124	0x00000000	0.0
125	0x00000000	0.0
126	0x00000000	0.0
127	0x00000000	0.0

action_model._discrete_distribution.branches.0.weight f4 [2, 128]
0	0xbc9310f6	-0.017952424
1	0xbb9afa44	-0.004729541
2	0x3c0cb72a	0.008588592
3	0x3c1cf6b9	0.009580308
4	0x3c389dc4	0.011268083
5	0x3b78b643	0.0037950433
6	0x3c18e09f	0.009330898
7	0xbb72d9e5	-0.0037056145
8	0x3ace2c85	0.0015729821
9	0x3bf47610	0.007460363
10	0x3c9b225c	0.018937282
11	0xbb8c5f9c	-0.0042838585
12	0x3ae4b40d	0.0017448679
13	0x3c0c8d84	0.008578662
14	0xb9d90fbb	-0.00041401185
15	0x3c4e21ed	0.012581331
16	0x3b815f59	0.003948134
17	0xba8c0ba7	-0.0010684625
18	0xbc916855	-0.017749945
19	0x3c13f560	0.00903067
20	0xbc0cb4e4	-0.00858805
21	0xbc33fc1e	-0.010985402
22	0x3c57ad9d	0.013163951
23	0x3c4408f7	0.011965028
24	0xbba2eab0	-0.0049718246
25	0xbb84f866	-0.0040579317
26	0xbc0c72e4	-0.008572314
27	0x3c02e3bb	0.0079888655
28	0x3aa59d82	0.0012635442
29	0xbc08814f	-0.008331611
30	0x3ac1720a	0.0014758718
31	0xbab18df7	-0.0013546337
32	0x3b456cc5	0.0030124646
33	0x3c16236e	0.0091637205
34	0xbc8938db	-0.016750744
35	0xbbaa13b0	-0.005190335
36	0xbc0c05ba	-0.008546287
37	0xbb4ebe93	-0.0031546697
38	0xbbeb6d9f	-0.0071846987
39	0xbc15e2fe	-0.009148357
40	0x3a94b21b	0.0011344583
41	0xbc56c0d2	-0.013107495
42	0xbbdbfe32	-0.006713652
43	0xbae04c53	-0.001711259
44	0x3c115dc7	0.008872456
45	0xbbb46bd6	-0.005506019
46	0x3c463c39	0.012099319
47	0x3bef4e72	0.0073030526
48	0xbc120407	-0.008912093
49	0xbc124f91	-0.008930103
50	0x3c8258d7	0.015911503
51	0xbb2fd64a	-0.0026830607
52	0x3ac8c1e7	0.0015316576
53	0xbb80f92e	-0.0039359545
54	0x3b85d09c	0.004083706
55	0xbc07bd6e	-0.00828491
56	0x3c3bfa4d	0.011473251
57	0x3b90b0b6	0.004415597
58	0x3b201457	0.0024426186
59	0x3b896b96	0.0041937334
60	0xbbba91a3	-0.005693631
61	0xb9d67fda	-0.00040912518
62	0xb9d8450f	-0.00041250183
63	0x3ba5190f	0.0050383876
64	0xba8d6e2b	-0.0010790279
65	0xb808eb52	-3.2644086e-05
66	0x3b10ed9c	0.0022114282
67	0x3b1c0068	0.0023803953
68	0xbbb78b95	-0.0056013563
69	0xbc03db65	-0.008047913
70	0x3c06b74b	0.008222411
71	0x3c1cee1b	0.009578253
72	0xbb384729	-0.0028118587
73	0xbbe731a2	-0.0070554772
74	0xbbb6b813	-0.0055761426
75	0x3bb2ed64	0.005460428
76	0x3b9fe313	0.0048793643
77	0xbc24791c	-0.01003864
78	0xbb365d41	-0.002782658
79	0xbc0de4f7	-0.0086605465
80	0x3bc9f75b	0.0061635203
81	0xbc1ea277	-0.009682289
82	0x3b9788c7	0.0046244594
83	0x3b656120	0.0035000518
84	0x3ca387da	0.01996224
85	0x3bc2839f	0.0059361006
86	0x3c79761d	0.015225914
87	0xbbf6048f	-0.0075078676
88	0x3bce6052	0.0062981034
89	0x3bf09a20	0.007342592
90	0x3c2e23a0	0.010628611
91	0x3c1485aa	0.009065071
92	0xbb39d85b	-0.0028357718
93	0xbba62487	-0.0050702724
94	0x3c82827b	0.015931359
95	0xbbc8a918	-0.006123673
96	0xbb5550e8	-0.0032549445
97	0xbc91523f	-0.017739413
98	0x3b05cd93	0.0020416721
99	0xbafb8c42	-0.001919158
100	0x3c31c218	0.010849498
101	0xbb17f565	-0.0023187038
102	0xbc1bbceb	-0.009505491
103	0x3c07df0e	0.0082929265
104	0xbc4b586f	-0.012411221
105	0x3bc20213	0.0059206574
106	0x3c995390	0.018716604
107	0xbb9cc7ef	-0.004784576
108	0xbbcec0ff	-0.006309628
109	0x3c32225c	0.01087245
110	0xbb6e312f	-0.0036345234
111	0x3be8d8c7	0.00710592
112	0x3bd13f73	0.0063857376
113	0xbb9db166	-0.0048124073
114	0xbbcc928f	-0.006243057
115	0xbc1aa59a	-0.009438897
116	0xbc14f447	-0.009091443
117	0x3cad3d3f	0.021147368
118	0xbbdeb010	-0.0067958906
119	0x3a8ad716	0.0010592665
120	0x3b4bc2ed	0.0031091527
121	0xbca33f0e	-0.019927528
122	0xbc766d2b	-0.015040676
123	0xbc39dbb5	-0.011343886
124	0xbb4d7582	-0.0031350558
125	0xba5b8f5a	-0.0008375548
126	0xbc0a7d2b	-0.008452694
127	0x3bdba5c7	0.006703112
128	0xbb6d16f5	-0.0036177014
129	0xbca4b37b	-0.020105114
130	0xbb5b050f	-0.0033419763
131	0xbc3ff420	-0.011715919
132	0x3b9253e4	0.004465567
133	0xbc5fac12	-0.013651865
134	0xb96cbc0d	-0.00022576768
135	0xbc6991ad	-0.014255923
136	0x3c9a897f	0.018864391
137	0xbbeaecbd	-0.0071693347
138	0x3c890f91	0.016731055
139	0xbc1898fa	-0.009313816
140	0xbbc6a082	-0.0060616145
141	0xbc21f9a0	-0.009886175
142	0xbbee7b5d	-0.0072778896
143	0x3b28e0d6	0.0025768778
144	0xbc3814b0	-0.011235401
145	0xbb21da0e	-0.002469662
146	0x3c879a65	0.016553113
147	0xbc62c207	-0.013840205
148	0x3bac0df6	0.0052506877
149	0x3bfb633b	0.0076717413
150	0x3c724c10	0.0147886425
151	0x3ca0b1b3	0.019615984
152	0x3bbd4455	0.005775968
153	0x3b1f031f	0.0024263335
154	0xbc106f53	-0.008815604
155	0x3c98cdd5	0.018652836
156	0x3bbbea4d	0.005734718
157	0xbb7a021d	-0.0038148232
158	0xbb83e917	-0.004025589
159	0xbba27cf4	-0.004958743
160	0x3ba3c5f7	0.0049979645
161	0xbbfd630f	-0.007732756
162	0x3b2f58bc	0.002675577
163	0x3c2e7b69	0.01064954
164	0xbbcc9c7b	-0.00624424
165	0x3c1cf643	0.009580198
166	0x3b92589b	0.004466129
167	0x3b3f742c	0.002921353
168	0xbc18c2f5	-0.009323825
169	0x3ba37483	0.0049882545
170	0xbbf7f097	-0.0075665223
171	0xbc3e6301	-0.011620284
172	0x3c3b7db3	0.011443543
173	0x3c1b62d3	0.009484011
174	0x3b6e758f	0.0036385988
175	0x3c23b0b3	0.009990859
176	0xbba0d9c9	-0.0049087745
177	0x3baf9283	0.0053580417
178	0xba570642	-0.00082025316
179	0x3bab898b	0.0052349023
180	0x3b91bced	0.0044475705
181	0x3b0617a3	0.0020460866
182	0x3c5604a3	0.013062629
183	0x3b1efb2f	0.0024258604
184	0x3bf07f7b	0.0073394156
185	0xbca4ec4b	-0.020132205
186	0x3a02c87c	0.0004988981
187	0x3c15f6c6	0.009153074
188	0xbc6913db	-0.014225925
189	0xb77da5db	-1.5118591e-05
190	0xbbde7be2	-0.0067896703
191	0x3aade7bf	0.0013267918
192	0x3c37d673	0.011220562
193	0xbc831fb6	-0.016006332
194	0x3b9d1eba	0.0047949227
195	0xbc753720	-0.014966756
196	0x3c033ec3	0.008010569
197	0xbc0487ed	-0.008089048
198	0x3b0187ea	0.001976485
199	0x3a415a4e	0.0007375822
200	0x3baaf307	0.0052169594
201	0x3c1eacc0	0.0096847415
202	0xbc83a3bf	-0.016069291
203	0x3a401b73	0.0007328309
204	0xbb76018a	-0.0037537538
205	0x3bd94d28	0.006631512
206	0x3b74c9a5	0.0037351635
207	0xbaa5ac50	-0.0012639854
208	0xbacec5fa	-0.0015775554
209	0x3b9d249c	0.004795624
210	0x3bd4e7ad	0.0064973445
211	0xbc09c75b	-0.008409346
212	0xbc65c60a	-0.014024267
213	0x3a1dfb35	0.00060265075
214	0x3bd81b08	0.0065950193
215	0xbc78476f	-0.01515375
216	0x3bd06588	0.0063597597
217	0x3c5e77cd	0.013578367
218	0x3c69209b	0.014228965
219	0x3b57990d	0.0032897622
220	0x3ba966b9	0.005169716
221	0xbb1e5d15	-0.0024164368
222	0x3c306b31	0.010767744
223	0xbc965af8	-0.018353924
224	0x3c964b83	0.018346554
225	0xbc609530	-0.013707444
226	0xbb56f202	-0.0032798056
227	0x3c840e2b	0.016120037
228	0xba851fa5	-0.0010156526
229	0xbc076a19	-0.008265042
230	0xbadcb08a	-0.0016837281
231	0xbb9a4a61	-0.0047085737
232	0x3bb4bb91	0.0055155237
233	0xbbb2159b	-0.0054347045
234	0x3c47d20e	0.012196077
235	0xbc87d7a3	-0.016582316
236	0xbbcba22d	-0.006214401
237	0xbbb108dc	-0.0054026674
238	0xbc4a0f00	-0.012332678
239	0x3a8fe2e6	0.0010977655
240	0x3aec1f38	0.0018014675
241	0xbc10d9e8	-0.008841015
242	0x3bfcc1da	0.0077135386
243	0xbb5d962b	-0.003381143
244	0xbbfd44ff	-0.0077291722
245	0xbc71e485	-0.014763956
246	0x3b365d43	0.0027826584
247	0x3c197572	0.00936638
248	0x3bb5a723	0.005543606
249	0x3a6ab9f0	0.00089540984
250	0xbb82e723	-0.003994839
251	0x39cc5f39	0.00038980859
252	0xbc0cb7c0	-0.008588731
253	0xbc0669c7	-0.00820393
254	0xb9b3e634	-0.00034313055
255	0xbc1adaf7	-0.009451619

action_model._discrete_distribution.branches.0.bias f4 [2]
0	0x00000000	0.0
1	0x00000000	0.0

network_body._body_endoder.seq_layers.0.weight f4 [128, 4]
0	0x3dfeff58	0.12451047
1	0xbf1e57ff	-0.6185302
2	0x3dea49f6	0.11439888
3	0x3e044f75	0.12920935
4	0xbf0a77e9	-0.5408922
5	0xbe214939	-0.15750588
6	0x3fc6d3dd	1.5533406
7	0xbf5a8af5	-0.8536828
8	0xbe9fa1d9	-0.31178167
9	0x3b65d251	0.0035067985
10	0xbd72c0b7	-0.05926582
11	0xbea5742d	-0.32315198
12	0x3e7b97c5	0.24569614
13	0x3e358c59	0.1772932
14	0x3e9350f7	0.2877271
15	0x3e1536c4	0.14571673
16	0xbea88bb5	-0.32919088
17	0x3c0d9a64	0.008642767
18	0xbe813475	-0.25235334
19	0xbf6c9504	-0.9241488
20	0x3f100880	0.5626297
21	0xbf347747	-0.704945
22	0x3ef9683c	0.48712337
23	0x3f3ff109	0.74977165
24	0xbf1e0b7a	-0.6173626
25	0xbe80b5f5	-0.25138822
26	0xbe8b324b	-0.27186808
27	0x3e2d9622	0.16951802
28	0xbeb7a96e	-0.35871452
29	0xbdb58fab	-0.08865293
30	0xbefc01c6	-0.49220103
31	0xbf155a1d	-0.58340627
32	0xbdaf68c3	-0.085649036
33	0xbf2173cc	-0.63067317
34	0xbe00077c	-0.12502855
35	0xbc56ee7c	-0.013118383
36	0x3ee5e0dc	0.44898117
37	0x3ebe2758	0.37139392
38	0xbf2a265c	-0.6646478
39	0x3e12ed73	0.14348392
40	0x3e0a47ed	0.13504
41	0x3f1a58c1	0.6029168
42	0x3ea2d037	0.3179948
43	0x3f024584	0.5088732
44	0xbecfc4fe	-0.4057998
45	0x3e9f6c21	0.31137183
46	0x3dd70f0a	0.10500915
47	0x3f2231a0	0.6335697
48	0xbd60b5ab	-0.054860752
49	0x3d315353	0.043292355
50	0x3f168c8f	0.58808225
51	0xbcebbbdb	-0.0287761
52	0xbe36437d	-0.17799182
53	0x3f6c4cdb	0.9230477
54	0xbf3036cc	-0.68833613
55	0xbecf8c25	-0.4053661
56	0xbe83ba5b	-0.25728115
57	0x3e17b029	0.14813294
58	0xbd3ace1e	-0.045606725
59	0x3f389273	0.72098464
60	0x3e67c429	0.22633423
61	0x3ea146ce	0.31499332
62	0x3e39448d	0.18092556
63	0x3eb0d2bc	0.34535778
64	0x3f1827de	0.5943583
65	0x3e79d4cf	0.24397586
66	0x3e680756	0.22659048
67	0x3f14280d	0.5787361
68	0x3f06e9c9	0.5270048
69	0xbd9634b5	-0.07334272
70	0x3ded7e13	0.115963124
71	0x3b4bf17e	0.0031119282
72	0x3bb3f786	0.0054921536
73	0xbe9aa3cb	-0.3020309
74	0xbfa2d74e	-1.2721956
75	0xbf29fdf7	-0.66403145
76	0xbddbf3ac	-0.10739836
77	0xbf34d052	-0.7063037
78	0x3b746bf1	0.0037295783
79	0xbf03b72e	-0.51451385
80	0xbc3d3976	-0.011549344
81	0xbf40aaec	-0.75260806
82	0xbe83a970	-0.25715208
83	0x3f276ac4	0.65397286
84	0x3db752ab	0.089513145
85	0x3dfc8939	0.12330861
86	0xbbb4d7b7	-0.0055188793
87	0x3e8b8f15	0.272576
88	0x3e754ee7	0.2395588
89	0x3e8d96bf	0.27654073
90	0x3c846e90	0.016166002
91	0xbf9bc1b0	-1.2168484
92	0xbf25cd52	-0.6476642
93	0xbf0115b7	-0.5042376
94	0x3e80e750	0.25176477
95	0xbf93f22b	-1.1558279
96	0xbe5f19ed	-0.21787234
97	0xbf530cdc	-0.82441497
98	0x3f15b7a7	0.58483356
99	0xbf46987e	-0.77576435
100	0x3ed162bf	0.4089565
101	0xbed3e9de	-0.41389364
102	0x3ed92aa1	0.42415336
103	0x3dd03193	0.101657055
104	0x3f79f1b2	0.9763442
105	0x3e2ec796	0.17068323
106	0x3ef2f09b	0.47449192
107	0xbf053f8a	-0.5205008
108	0x3e90887e	0.28229135
109	0x3d5bc1b8	0.05365154
110	0xbdd5e96c	-0.10444912
111	0x3c51a7c9	0.012796351
112	0xbefae5de	-0.490035
113	0x3df426d2	0.11921467
114	0xbebcecdf	-0.36899468
115	0xbe934d62	-0.28769976
116	0xbecfedfc	-0.40611255
117	0x3f20d5d8	0.628263
118	0x3de99247	0.11404853
119	0xbe534c18	-0.20634496
120	0x3f04d546	0.5188793
121	0xbe5fef59	-0.21868648
122	0x3efa0ff1	0.48840287
123	0x3f0908b8	0.5352893
124	0xbb0f2f0b	-0.0021848108
125	0x3ed895d4	0.4230181
126	0xbf26d2a8	-0.65165186
127	0xbe5a1850	-0.21298337
128	0x3d3aeaac	0.045633957
129	0x3f0abb3c	0.54191947
130	0x3eac0a17	0.33601448
131	0x3bcac185	0.00618762
132	0x3ef3780b	0.47552523
133	0x3f2726b0	0.6529341
134	0xbe965da1	-0.29368308
135	0x3b1fd954	0.0024391012
136	0xbf490ef3	-0.78538436
137	0x3e344cb5	0.17607386
138	0xbed818e4	-0.4220649
139	0x3d827981	0.06370831
140	0x3e9d0eb7	0.3067529
141	0x3ebdd479	0.37076166
142	0x3ce86abc	0.028371207
143	0xbece6096	-0.40308064
144	0x3e08854a	0.13332096
145	0x3f96eddc	1.1791339
146	0x3fcec586	1.6154029
147	0xbe59fa57	-0.21286903
148	0xbea975ea	-0.33097774
149	0x3ed12d19	0.4085472
150	0x3f15f207	0.5857243
151	0x3e9d8a67	0.30769655
152	0x3eb3681f	0.35040376
153	0xbf2b9933	-0.6703064
154	0x3db45f45	0.08807234
155	0x3ea3dc8c	0.320042
156	0xbf0aed2a	-0.54268134
157	0xbe66f55e	-0.22554538
158	0x3e9724d3	0.29520282
159	0x3e784240	0.24244022
160	0xbd0f5c4b	-0.035000127
161	0x3f11dac8	0.5697446
162	0x3f424537	0.75886863
163	0xbf7cc4d9	-0.98737866
164	0xbe3418e8	-0.17587626
165	0xbf2e5dcd	-0.6811188
166	0xbf3535b0	-0.70785046
167	0x3ebbac63	0.36654958
168	0xbf6a2c57	-0.9147391
169	0x3d99ba99	0.07506294
170	0x3ecd2484	0.40066922
171	0xbdff08e4	-0.124528676
172	0xbe9c16b1	-0.30486062
173	0x3f1cde3c	0.612766
174	0x3f084976	0.5323709
175	0xbfa9df93	-1.3271354
176	0x3e987f07	0.29784414
177	0xbe85dc22	-0.2614451
178	0x3dc9364a	0.09824808
179	0x3e131d3b	0.1436662
180	0xbe82559b	-0.25455937
181	0xbee46f28	-0.44616055
182	0xbec1de67	-0.37864992
183	0xbe12c018	-0.1433109
184	0xbcdd9066	-0.027046394
185	0xbf16bd06	-0.58882177
186	0x3f204175	0.6259988
187	0xbf25074a	-0.6446425
188	0xbf04234d	-0.51616365
189	0xbdcd24b9	-0.1001677
190	0x3f6a517b	0.9153058
191	0x3e9047ce	0.28179783
192	0xbe782311	-0.24232127
193	0xbe934962	-0.28766924
194	0x3e0fbff5	0.1403807
195	0x3f2df3b8	0.6795001
196	0x3f0c11a6	0.5471443
197	0x3bda20fd	0.0066567645
198	0x3ed506e4	0.4160682
199	0xbe07dfc2	-0.1326895
200	0x3dfc73d5	0.12326781
201	0xbe853848	-0.26019502
202	0xbf02877a	-0.5098797
203	0x3e65b173	0.22430973
204	0xbd511e6a	-0.051054396
205	0xbf081ccb	-0.53168935
206	0x3d67acba	0.05656121
207	0xbd901c97	-0.07036703
208	0xbdccf0fb	-0.10006901
209	0x3ef5e06c	0.48022783
210	0x3edbb939	0.4291475
211	0xbf2236f1	-0.63365084
212	0x3f1880ad	0.59571344
213	0xbdd1fde2	-0.102535024
214	0x3f163146	0.58668935
215	0x3d9f6701	0.07783318
216	0x3e0f0af3	0.1396902
217	0xbe7200bb	-0.23633091
218	0x3ec17173	0.37781867
219	0xbe211697	-0.15731274
220	0xbca7c0fc	-0.020477764
221	0xbe5b50ae	-0.21417496
222	0x3edffc80	0.4374733
223	0xbe33cc69	-0.17558445
224	0xbf45c3b0	-0.7725172
225	0xbf41e7b9	-0.75744206
226	0x3e5f4636	0.21804127
227	0x3e471677	0.19442163
228	0xbef2a142	-0.47388655
229	0x3ed1f357	0.41005966
230	0xbf11f817	-0.5701918
231	0xbf12c2c9	-0.5732847
232	0x3ec293e3	0.38003454
233	0xbdf91aa6	-0.12163286
234	0x3e88f0ca	0.26746207
235	0xbe7e12ac	-0.2481181
236	0x3f6fc3ab	0.9365794
237	0xbed465ab	-0.41483817
238	0xbf1716b3	-0.5901901
239	0xbed42b74	-0.41439402
240	0x3e589275	0.21149619
241	0x3edacee0	0.42735958
242	0x3ee8b5c7	0.45451185
243	0x3edce52e	0.431436
244	0x3f022c3e	0.5084876
245	0x3f2a23ba	0.66460764
246	0x3daa9e1f	0.083309405
247	0x3e606711	0.21914317
248	0x3f7c0b5a	0.9845482
249	0xbe0c27a4	-0.13686997
250	0x3ddd9cb9	0.10820908
251	0xbf432f8f	-0.76244444
252	0x3f1ac4c9	0.6045652
253	0xbdbe0ee9	-0.09280188
254	0x3e91b97a	0.2846182
255	0xbf8c09b2	-1.0940459

network_body._body_endoder.seq_layers.0.bias f4 [128]
0	0x00000000	0.0
1	0x00000000	0.0
2	0x00000000	0.0
3	0x00000000	0.0
4	0x00000000	0.0
5	0x00000000	0.0
6	0x00000000	0.0
7	0x00000000	0.0
8	0x00000000	0.0
9	0x00000000	0.0
10	0x00000000	0.0
11	0x00000000	0.0
12	0x00000000	0.0
13	0x00000000	0.0
14	0x00000000	0.0
15	0x00000000	0.0
16	0x00000000	0.0
17	0x00000000	0.0
18	0x00000000	0.0
19	0x00000000	0.0
20	0x00000000	0.0
21	0x00000000	0.0
22	0x00000000	0.0
23	0x00000000	0.0
24	0x00000000	0.0
25	0x00000000	0.0
26	0x00000000	0.0
27	0x00000000	0.0
28	0x00000000	0.0
29	0x00000000	0.0
30	0x00000000	0.0
31	0x00000000	0.0
32	0x00000000	0.0
33	0x00000000	0.0
34	0x00000000	0.0
35	0x00000000	0.0
36	0x00000000	0.0
37	0x00000000	0.0
38	0x00000000	0.0
39	0x00000000	0.0
40	0x00000000	0.0
41	0x00000000	0.0
42	0x00000000	0.0
43	0x00000000	0.0
44	0x00000000	0.0
45	0x00000000	0.0
46	0x00000000	0.0
47	0x00000000	0.0
48	0x00000000	0.0
49	0x00000000	0.0
50	0x00000000	0.0
51	0x00000000	0.0
52	0x00000000	0.0
53	0x00000000	0.0
54	0x00000000	0.0
55	0x00000000	0.0
56	0x00000000	0.0
57	0x00000000	0.0
58	0x00000000	0.0
59	0x00000000	0.0
60	0x00000000	0.0
61	0x00000000	0.0
62	0x00000000	0.0
63	0x00000000	0.0
64	0x00000000	0.0
65	0x00000000	0.0
66	0x00000000	0.0
67	0x00000000	0.0
68	0x00000000	0.0
69	0x00000000	0.0
70	0x00000000	0.0
71	0x00000000	0.0
72	0x00000000	0.0
73	0x00000000	0.0
74	0x00000000	0.0
75	0x00000000	0.0
76	0x00000000	0.0
77	0x00000000	0.0
78	0x00000000	0.0
79	0x00000000	0.0
80	0x00000000	0.0
81	0x00000000	0.0
82	0x00000000	0.0
83	0x00000000	0.0
84	0x00000000	0.0
85	0x00000000	0.0
86	0x00000000	0.0
87	0x00000000	0.0
88	0x00000000	0.0
89	0x00000000	0.0
90	0x00000000	0.0
91	0x00000000	0.0
92	0x00000000	0.0
93	0x00000000	0.0
94	0x00000000	0.0
95	0x00000000	0.0
96	0x00000000	0.0
97	0x00000000	0.0
98	0x00000000	0.0
99	0x00000000	0.0
100	0x00000000	0.0
101	0x00000000	0.0
102	0x00000000	0.0
103	0x00000000	0.0
104	0x00000000	0.0
105	0x00000000	0.0
106	0x00000000	0.0
107	0x00000000	0.0
108	0x00000000	0.0
109	0x00000000	0.0
110	0x00000000	0.0
111	0x00000000	0.0
112	0x00000000	0.0
113	0x00000000	0.0
114	0x00000000	0.0
115	0x00000000	0.0
116	0x00000000	0.0
117	0x00000000	0.0
118	0x00000000	0.0
119	0x00000000	0.0
120	0x00000000	0.0
121	0x00000000	0.0
122	0x00000000	0.0
123	0x00000000	0.0
124	0x00000000	0.0
125	0x00000000	0.0
126	0x00000000	0.0
127	0x00000000	0.0

network_body._body_endoder.seq_layers.2.weight f4 [128, 128]
0	0xbd08f12f	-0.033433136
1	0xbe27a874	-0.16372854
2	0xbd155b1a	-0.036463834
3	0xbcb2a162	-0.021805469
4	0xbdf3da18	-0.119068325
5	0xbd24a7cf	-0.040199097
6	0xbcc24f63	-0.023719495
7	0xbc0129e9	-0.007883527
8	0xbd8322bb	-0.06403109
9	0xbd563b2b	-0.05230252
10	0xbdb8d8e2	-0.09025742
11	0xbc8e4f47	-0.017371787
12	0xbb7dece1	-0.0038745927
13	0xbe22d28d	-0.15900631
14	0x3db93fe1	0.09045387
15	0xbdfac59c	-0.12244722
16	0xbd91a1af	-0.07110917
17	0xbc5f99b1	-0.013647483
18	0xbb1e4916	-0.002415245
19	0xbc839d16	-0.016066115
20	0x3ddaa83c	0.106766194
21	0x3c87ab93	0.016561305
22	0x3d26b582	0.040700443
23	0x3de86064	0.1134651
24	0x3df07fc4	0.11743119
25	0xbccc294b	-0.024922034
26	0xbca99930	-0.020702928
27	0x3ddc5910	0.10759175
28	0x3d23e5a3	0.04001392
29	0xbd1ca8f9	-0.038247082
30	0xbdb7ce8c	-0.089749426
31	0x3bd60327	0.0065311375
32	0x3ca49d59	0.02009456
33	0xbc9067d1	-0.017627629
34	0x3ca7d119	0.020485448
35	0xbd6c01b0	-0.057618797
36	0x3c53730c	0.012905847
37	0x3dcc3630	0.09971273
38	0xbe185835	-0.14877398
39	0x3b9cdec9	0.0047873002
40	0x3d9f4c59	0.07778234
41	0x3d9e4411	0.077278264
42	0x3e06d515	0.13167222
43	0xbc224751	-0.0099046985
44	0xbc94bec8	-0.018157378
45	0xba0de356	-0.0005412599
46	0xbd05e318	-0.032687277
47	0x3d8c0cca	0.06838377
48	0xbd3cac31	-0.046062652
49	0x3cd266aa	0.02568372
50	0xbda367c7	-0.07978778
51	0x3d8d466e	0.06898199
52	0xbcefba87	-0.029263748
53	0xbe0a76a4	-0.1352182
54	0x3c97dfb0	0.01853928
55	0xbddd5de7	-0.10808926
56	0xbde4f899	-0.11180229
57	0x3dd1b8b2	0.10240306
58	0x3dd8b17e	0.10580729
59	0xbd92c187	-0.07165819
60	0x3dcd2e9f	0.10018658
61	0x3e14223f	0.14466189
62	0x3d2e20bd	0.04251169
63	0x3da66500	0.08124733
64	0x3bbedc45	0.005824598
65	0x3d443e5f	0.047911044
66	0x3dea2a43	0.11433842
67	0xbc465efa	-0.012107605
68	0xbdacf151	-0.08444465
69	0x3c595ae4	0.013266299
70	0x3c68b7df	0.014203995
71	0xbdfb46d7	-0.12269371
72	0x3cb56b9a	0.022146035
73	0x3d24e72d	0.04025953
74	0x3c40287c	0.011728402
75	0x3e00abdf	0.12565564
76	0x3d822d41	0.06356288
77	0xbc9305a6	-0.01794703
78	0xbdf6bf73	-0.12048235
79	0xbde6011d	-0.11230681
80	0x3dc2289d	0.094804026
81	0xbdd60bbb	-0.10451456
82	0xbaab6ec8	-0.001307928
83	0x3d3728bf	0.044716593
84	0xbe075bf4	-0.13218671
85	0x3d13c370	0.036075056
86	0xbe174a9e	-0.14774558
87	0x3c716494	0.014733452
88	0xbde7cb7c	-0.113181084
89	0xbe1a3cc3	-0.15062241
90	0xbb58d42a	-0.0033085444
91	0x3dc2d69c	0.0951359
92	0xbdf1c99d	-0.11806033
93	0xbdfee659	-0.12446279
94	0x3c896aad	0.0167745
95	0xbd51f48b	-0.051258605
96	0xbcbb82bd	-0.02288949
97	0xbcdb9900	-0.026806355
98	0x3c90473b	0.01761209
99	0xbe484d5e	-0.19560763
100	0x3e7a3795	0.24435265
101	0x3dfb11c5	0.12259249
102	0x3cb8314f	0.02248445
103	0x3e1f19fb	0.15537255
104	0x3d7741cb	0.06036548
105	0xbd03ef5c	-0.032210693
106	0x3c173768	0.0092295185
107	0x3a16ee84	0.00057575875
108	0x3db28f48	0.08718735
109	0xbd9014fa	-0.07035251
110	0x3d9f1de0	0.0776937
111	0xbd6d53d3	-0.05794127
112	0x3acfbc3b	0.0015848944
113	0x3dd5c1a9	0.10437328
114	0x3d29af68	0.041427046
115	0x3ded0b0d	0.115743734
116	0xbe1e566b	-0.15462653
117	0xbd6a0002	-0.057128914
118	0xbe04288c	-0.12906092
119	0xbe602d1c	-0.21892208
120	0x3c3f1171	0.011661873
121	0x3e19ab56	0.15006766
122	0x3d2c7d47	0.04211166
123	0x3d70ab21	0.05875695
124	0xbd05f6e0	-0.03270614
125	0xbdbb7d9b	-0.09154817
126	0x3da9e81c	0.082962245
127	0x3d5eae51	0.05436546
128	0x3cad0d22	0.021124426
129	0xbd05de6d	-0.032682825
130	0xbd02eb85	-0.03196289
131	0xbd547a37	-0.051874366
132	0x3e0ce0f4	0.13757688
133	0x3dddb69c	0.108258456
134	0xbdee94a4	-0.11649445
135	0x3d9592db	0.07303401
136	0xbdc1a5b4	-0.094554335
137	0x3dd48137	0.10376208
138	0xbdb0cf06	-0.086332366
139	0x3e549ece	0.20763704
140	0xbd68286c	-0.056679174
141	0x3cc9659a	0.02458458
142	0xbd45fae6	-0.04833498
143	0x3b177116	0.0023108176
144	0xbd98f72c	-0.07469019
145	0xbd924566	-0.07142143
146	0xbe030e07	-0.1279832
147	0xbd9b3078	-0.07577604
148	0x3d3e1036	0.04640218
149	0xbe1cb633	-0.15303878
150	0xbe5b1d47	-0.21397887
151	0xbdef5fa1	-0.11688162
152	0xbcfcf2e6	-0.030877542
153	0x3db264d5	0.087106384
154	0x3d92910a	0.0715657
155	0xbcf7d69a	-0.030253697
156	0xbdaacf3e	-0.083403096
157	0x3ca0c64a	0.019625802
158	0x3ce0149f	0.027353583
159	0x3c8acdc4	0.01694382
160	0x3d3d6ceb	0.04624645
161	0x3e00f97d	0.12595172
162	0xbac2f244	-0.0014873226
163	0xbd053a76	-0.032526456
164	0xbdde1f77	-0.10845845
165	0x3c3bf3f1	0.011471734
166	0xbdf0eff4	-0.117645174
167	0x3c06f24e	0.008236481
168	0xbe25ea23	-0.16202597
169	0xbc517ea2	-0.012786539
170	0xbd0675d7	-0.032827225
171	0x3dbb96a3	0.09159591
172	0xbd62621d	-0.05526935
173	0xbd82f4de	-0.06394361
174	0xbe70f371	-0.23530366
175	0x3e2c82ac	0.16846722
176	0xbd00a097	-0.03140315
177	0xbe63fd20	-0.22264528
178	0xbd75bc44	-0.059993997
179	0xbce1a0e5	-0.02754254
180	0xbdf548f8	-0.11976808
181	0xbd4c85dc	-0.049932346
182	0xbdf7c71d	-0.12098525
183	0xbddfd236	-0.109287664
184	0xbd124e09	-0.03571895
185	0x3d9bd8af	0.076096885
186	0x3daca9ea	0.08430846
187	0x3d68f4d2	0.056874104
188	0xbdb1b689	-0.08677394
189	0xbd8608d7	-0.06544655
190	0x3c009f4d	0.00785048
191	0x3ce6a041	0.028152587
192	0x3daa0682	0.083020225
193	0xbc7bea3b	-0.015375669
194	0xbbcad39b	-0.006189776
195	0x3e16f3b5	0.14741404
196	0xbd650b81	-0.055919174
197	0xbcf086e7	-0.029361201
198	0xbc14dddf	-0.009086101
199	0xbdaaa376	-0.08331959
200	0xbc516668	-0.012780763
201	0x3cef3d9a	0.029204179
202	0xbd421784	-0.047385707
203	0xbd7ac635	-0.06122418
204	0x3d8b4987	0.068011336
205	0x3cfc5c87	0.03080584
206	0x3b1752fc	0.0023090234
207	0xbde6817b	-0.11255165
208	0x3da62aac	0.08113608
209	0x3cda4ea0	0.02664882
210	0x3e208083	0.15674023
211	0xbdf9ee32	-0.12203635
212	0xbe4168d2	-0.18887642
213	0xbe12dcf5	-0.14342101
214	0xbd38e453	-0.045139622
215	0x3de68c53	0.112572335
216	0x3dc6436f	0.09680831
217	0x3d820de4	0.06350306
218	0xbd183c6d	-0.037167
219	0x3e0b1db3	0.13585548
220	0x3ca3acf7	0.019979937
221	0xbd4834a2	-0.04887832
222	0xbd47dfe4	-0.048797503
223	0x3d6805ac	0.056646034
224	0x3c05a485	0.0081569
225	0xbd064bb9	-0.03278706
226	0x3d90fd8b	0.070796095
227	0x3dcfeef8	0.101530015
228	0x3e448878	0.19192684
229	0xbe638450	-0.22218442
230	0xbd86c845	-0.06581167
231	0x3c901c21	0.017591538
232	0x3e2a0f67	0.16607438
233	0xbdaf3c06	-0.085563704
234	0xbdf80a56	-0.121113464
235	0x3c9ae7b2	0.018909309
236	0xbb130ce9	-0.0022438115
237	0x3cea362b	0.028590282
238	0x3dc81520	0.09769654
239	0xbcabd3f9	-0.0209751
240	0xbd903beb	-0.070426784
241	0xbd9cf3b6	-0.07663672
242	0xbe12fa6d	-0.14353342
243	0x3ddde280	0.10834217
244	0x3d086ae7	0.033305075
245	0x3c1f93cf	0.00973983
246	0xbd7f4acd	-0.062327195
247	0x3d178eff	0.037001606
248	0xbda41af4	-0.080129534
249	0x3c9f6ae4	0.01946015
250	0x3d63654a	0.05551652
251	0xbd8e1cce	-0.06939088
252	0x3d937067	0.071991734
253	0xbcb76441	-0.022386672
254	0x3daafc1c	0.08348867
255	0xbd946f6e	-0.07247816

network_body._body_endoder.seq_layers.2.bias f4 [128]
0	0x00000000	0.0
1	0x00000000	0.0
2	0x00000000	0.0
3	0x00000000	0.0
4	0x00000000	0.0
5	0x00000000	0.0
6	0x00000000	0.0
7	0x00000000	0.0
8	0x00000000	0.0
9	0x00000000	0.0
10	0x00000000	0.0
11	0x00000000	0.0
12	0x00000000	0.0
13	0x00000000	0.0
14	0x00000000	0.0
15	0x00000000	0.0
16	0x00000000	0.0
17	0x00000000	0.0
18	0x00000000	0.0
19	0x00000000	0.0
20	0x00000000	0.0
21	0x00000000	0.0
22	0x00000000	0.0
23	0x00000000	0.0
24	0x00000000	0.0
25	0x00000000	0.0
26	0x00000000	0.0
27	0x00000000	0.0
28	0x00000000	0.0
29	0x00000000	0.0
30	0x00000000	0.0
31	0x00000000	0.0
32	0x00000000	0.0
33	0x00000000	0.0
34	0x00000000	0.0
35	0x00000000	0.0
36	0x00000000	0.0
37	0x00000000	0.0
38	0x00000000	0.0
39	0x00000000	0.0
40	0x00000000	0.0
41	0x00000000	0.0
42	0x00000000	0.0
43	0x00000000	0.0
44	0x00000000	0.0
45	0x00000000	0.0
46	0x00000000	0.0
47	0x00000000	0.0
48	0x00000000	0.0
49	0x00000000	0.0
50	0x00000000	0.0
51	0x00000000	0.0
52	0x00000000	0.0
53	0x00000000	0.0
54	0x00000000	0.0
55	0x00000000	0.0
56	0x00000000	0.0
57	0x00000000	0.0
58	0x00000000	0.0
59	0x00000000	0.0
60	0x00000000	0.0
61	0x00000000	0.0
62	0x00000000	0.0
63	0x00000000	0.0
64	0x00000000	0.0
65	0x00000000	0.0
66	0x00000000	0.0
67	0x00000000	0.0
68	0x00000000	0.0
69	0x00000000	0.0
70	0x00000000	0.0
71	0x00000000	0.0
72	0x00000000	0.0
73	0x00000000	0.0
74	0x00000000	0.0
75	0x00000000	0.0
76	0x00000000	0.0
77	0x00000000	0.0
78	0x00000000	0.0
79	0x00000000	0.0
80	0x00000000	0.0
81	0x00000000	0.0
82	0x00000000	0.0
83	0x00000000	0.0
84	0x00000000	0.0
85	0x00000000	0.0
86	0x00000000	0.0
87	0x00000000	0.0
88	0x00000000	0.0
89	0x00000000	0.0
90	0x00000000	0.0
91	0x00000000	0.0
92	0x00000000	0.0
93	0x00000000	0.0
94	0x00000000	0.0
95	0x00000000	0.0
96	0x00000000	0.0
97	0x00000000	0.0
98	0x00000000	0.0
99	0x00000000	0.0
100	0x00000000	0.0
101	0x00000000	0.0
102	0x00000000	0.0
103	0x00000000	0.0
104	0x00000000	0.0
105	0x00000000	0.0
106	0x00000000	0.0
107	0x00000000	0.0
108	0x00000000	0.0
109	0x00000000	0.0
110	0x00000000	0.0
111	0x00000000	0.0
112	0x00000000	0.0
113	0x00000000	0.0
114	0x00000000	0.0
115	0x00000000	0.0
116	0x00000000	0.0
117	0x00000000	0.0
118	0x00000000	0.0
119	0x00000000	0.0
120	0x00000000	0.0
121	0x00000000	0.0
122	0x00000000	0.0
123	0x00000000	0.0
124	0x00000000	0.0
125	0x00000000	0.0
126	0x00000000	0.0
127	0x00000000	0.0

value_heads.value_heads.extrinsic.weight f4 [1, 128]
0	0x3e35e41c	0.17762798
1	0xbb704a40	-0.003666535
2	0xbde425ae	-0.11139999
3	0x3c809d38	0.015699968
4	0x3c8bdf88	0.017074361
5	0xbdfb9594	-0.12284389
6	0x3c29cac0	0.010363281
7	0xbdd8aa06	-0.105793044
8	0x3d5a0878	0.053230733
9	0x3e05d95c	0.13071197
10	0x3df3b480	0.11899662
11	0x3e3a14fa	0.18172064
12	0xbe3fbf87	-0.18725406
13	0xbdfdd48e	-0.12394057
14	0xbe34e9d2	-0.1766732
15	0xbe37e329	-0.17957748
16	0xbd960e0a	-0.073268965
17	0xbe501513	-0.20320539
18	0xbb240c80	-0.0025031865
19	0xbd9a7c96	-0.07543294
20	0x3d719ca0	0.05898726
21	0xbe469b38	-0.19395149
22	0x3deb20ec	0.11480889
23	0x3e209f24	0.15685707
24	0x3e5621e6	0.20911369
25	0x3e055e90	0.13024354
26	0x3daf8c74	0.08571711
27	0x3d9de5f8	0.07709879
28	0x3d42d2b8	0.04756424
29	0x3dd7e834	0.10542336
30	0x3e4f58dc	0.20248741
31	0xbe3f9f57	-0.18713127
32	0xbdfe0a6e	-0.12404333
33	0xbdcfc91d	-0.10145781
34	0x3e327db4	0.17430764
35	0x3e16fd20	0.14744997
36	0x3e1b6154	0.15173846
37	0xbd0f3328	-0.034960896
38	0x3e448f88	0.19195378
39	0xbe24af50	-0.16082501
40	0x3e59493a	0.2121934
41	0xbe56f200	-0.20990753
42	0xbddb321d	-0.10702918
43	0x3c833c00	0.016019821
44	0xbdd1ebf9	-0.10250086
45	0x3e551f56	0.20812735
46	0xbe34ae1a	-0.1764454
47	0xbe321509	-0.17390837
48	0xbc257fa0	-0.010101229
49	0x3dfc4e98	0.12319678
50	0xbe2c2c86	-0.1681386
51	0xbe5b87a2	-0.21438459
52	0x3ddd3194	0.10800472
53	0xbd4bca80	-0.049753666
54	0x3e3e8258	0.1860441
55	0xbe379840	-0.17929173
56	0xbe47743e	-0.19477937
57	0xbc5a9860	-0.013341993
58	0x3e54610a	0.20740142
59	0x3b5d9900	0.003381312
60	0x3e31372c	0.17306203
61	0x3dd053e0	0.10172248
62	0x3e185e42	0.14879707
63	0x3e316bcc	0.17326277
64	0x3e38892e	0.1802108
65	0xbe0b3628	-0.13594878
66	0xbe1c006e	-0.15234539
67	0x3d9fe810	0.07807934
68	0x3b98c840	0.0046625435
69	0xbe39322d	-0.18085547
70	0xbdec2a58	-0.11531514
71	0xbda17e7e	-0.078854546
72	0x3e002dac	0.12517422
73	0x3c9e6260	0.019334018
74	0xbe3282fc	-0.17432779
75	0x3c8a8828	0.016910627
76	0x3d046b2c	0.03232877
77	0xbe14b802	-0.14523318
78	0xbddc5952	-0.10759224
79	0xbd4fea80	-0.050760746
80	0xbe1c7bd2	-0.15281609
81	0xbdee37a4	-0.11631706
82	0xbe05010c	-0.1298868
83	0x3c8e05f8	0.01733683
84	0xbd9185ec	-0.07105622
85	0x3e2b887a	0.1675128
86	0xbd8752aa	-0.06607564
87	0xbdc158ac	-0.09440741
88	0x3d737c90	0.059444964
89	0x3e1e51e0	0.1546092
90	0x3e29fa02	0.16599277
91	0xbe0e46eb	-0.1389424
92	0x3df69c74	0.1204156
93	0x3debb94c	0.11509952
94	0xbe2eb0b4	-0.17059594
95	0x3ce9a988	0.028523222
96	0xbe40caf7	-0.18827425
97	0xbdcee192	-0.10101618
98	0x3e217962	0.1576896
99	0x3da52510	0.0806371
100	0x3dbe695c	0.092974395
101	0xbe1fd780	-0.1560955
102	0x3a39a900	0.0007082373
103	0x3e2491e2	0.16071275
104	0xbe2b93cd	-0.167556
105	0x3de26648	0.11054665
106	0x3cc81338	0.024423227
107	0x3ded1d84	0.11577895
108	0xbe5519fd	-0.20810695
109	0x3e05a718	0.13052022
110	0x3d4a9f80	0.049468517
111	0x3e3bc6e0	0.18337584
112	0xbd3478bc	-0.044060454
113	0x3de97d58	0.114008605
114	0xbd8e50de	-0.06949018
115	0x3dbd7db4	0.092524916
116	0x3ca1e490	0.019762307
117	0x3d5ae770	0.053443372
118	0xbe3c196c	-0.18369073
119	0x3d72e2f0	0.059298456
120	0x3c037df0	0.008025631
121	0xbc19bf50	-0.009383991
122	0xbe4fac29	-0.20280518
123	0x3e237d00	0.15965652
124	0x3d121e78	0.03567359
125	0x3cd69df0	0.026198357
126	0xbe291b0d	-0.16514225
127	0xbe3443d6	-0.17604002
