results/phase4_t1/NPCAgent/NPCAgent-6543.pt (torch, 863583 bytes, 29 tensors)

network_body._body_endoder.seq_layers.0.weight f4 [128, 71]
0	0xbedc3e0b	-0.43016085
1	0xbdd4faa3	-0.10399368
2	0x3cfd1b24	0.03089673
3	0xbd032ec0	-0.032027006
4	0x3d5a2eba	0.05326722
5	0xbbb7a0f8	-0.005603906
6	0x3d64bff1	0.055847112
7	0xbdd4f853	-0.103989266
8	0x3bc7c3c6	0.006096336
9	0x3e1e0090	0.15429902
10	0x3dbbb94e	0.091662034
11	0x3c0b7e34	0.008513976
12	0xbddff12e	-0.10934673
13	0xbc499c35	-0.012305309
14	0xbd2d3e03	-0.042295467
15	0xbca05db5	-0.019575933
16	0x3dc9ad05	0.09847454
17	0x3adcff3a	0.0016860731
18	0xba4029cb	-0.00073304464
19	0x3de05483	0.10953619
20	0x3d951f53	0.07281365
21	0xbd813611	-0.063091405
22	0x3ccd818b	0.025086185
23	0xbda1487c	-0.078751534
24	0xbd4dc45e	-0.0502361
25	0xbccffc81	-0.025388958
26	0x3e04eb89	0.12980475
27	0xbe4ae675	-0.19814475
28	0xbdcee76c	-0.10102734
29	0xbd47142e	-0.04860323
30	0xbe35acbd	-0.17741676
31	0x3db5b8c6	0.08873133
32	0xbdc8b043	-0.09799244
33	0x3e4c5349	0.19953646
34	0xbded6cd9	-0.11593027
35	0xbe1dd5a5	-0.1541353
36	0xbdd915e4	-0.105998784
37	0xbd84a8af	-0.06477486
38	0xbd5ffdcc	-0.0546854
39	0x3d37b62b	0.044851463
40	0xbdaf4b57	-0.08559292
41	0x3e1532c4	0.14570147
42	0xb95559fd	-0.00020346786
43	0xbd2deb6d	-0.042460848
44	0x3e08404f	0.13305782
45	0x3d8d0831	0.06886328
46	0xbe3bfeac	-0.18358868
47	0xbd80914d	-0.06277714
48	0x3e3d69f0	0.18497443
49	0x3e1b9f8e	0.15197584
50	0xbd5552a1	-0.052080754
51	0xbda74b0c	-0.08168611
52	0x3e46e4e5	0.19423254
53	0xbe02dc87	-0.12779437
54	0x3d9fd90f	0.078050725
55	0xbd6fc5a5	-0.058538098
56	0x3dc510c4	0.096223384
57	0x3d66921f	0.056291696
58	0x3c1ccfc0	0.009571016
59	0xbce88adb	-0.028386524
60	0xbdb3d959	-0.0878169
61	0x3d1535d8	0.036428303
62	0x3e0c2244	0.13684946
63	0xbd889a52	-0.06670059
64	0xbd9bb446	-0.07602744
65	0x3e16c836	0.14724812
66	0x3d5fd7a3	0.054649007
67	0x3df5879b	0.11988755
68	0xbd25771d	-0.0403968
69	0x3de58558	0.11207074
70	0xbda46998	-0.08027953
71	0xbc842329	-0.016130047
72	0x3dc3f763	0.0956867
73	0x3ce78903	0.028263574
74	0x3d9f71bf	0.07785367
75	0x3dcccf5a	0.10000487
76	0xbad7ad4b	-0.0016454844
77	0x3df684fe	0.12037085
78	0xbc4e31f0	-0.012585148
79	0x3df5f0e7	0.12008839
80	0x3ddbe6de	0.10737394
81	0xbe20de87	-0.15709887
82	0x3e0c49ac	0.13699979
83	0xbdcc1f14	-0.09966865
84	0x3e0b2dba	0.13591662
85	0xbc51a4dc	-0.012795653
86	0xbde83a86	-0.113392875
87	0x3e3c98c7	0.18417655
88	0xbc5a32c8	-0.013317771
89	0x3db6f8ea	0.08934195
90	0x3e0f22f8	0.13978183
91	0x3e3681d8	0.17822969
92	0xbdcb39ec	-0.09923157
93	0x3e81958a	0.25309402
94	0xbe4eb38c	-0.20185679
95	0xbc1df3dd	-0.009640661
96	0xbe51ff37	-0.20507513
97	0xbe7162b0	-0.23572803
98	0x3e1a3ef0	0.15063071
99	0x3dd0db99	0.10198135
100	0xbd860ec7	-0.06545787
101	0xbb6ac4e9	-0.0035822934
102	0xbc10e87d	-0.008844492
103	0x3daa2a55	0.083088554
104	0xbda215b0	-0.07914293
105	0x3df70f26	0.12063436
106	0xbd2672ba	-0.040636756
107	0xbd458c0b	-0.04822926
108	0xbc47ef40	-0.012203038
109	0x3ca5d56d	0.02024337
110	0xbd8ce288	-0.06879145
111	0x3c9de58d	0.019274497
112	0xbd0cf6ef	-0.03441518
113	0xbd43ee2e	-0.047834568
114	0x3e4e55b4	0.2014988
115	0x3e5c1cea	0.21495405
116	0x3e0f0659	0.13967265
117	0x3dfd990a	0.123827055
118	0xbe0e400d	-0.13891621
119	0xbdb1f5e5	-0.08689479
120	0x3e493d7b	0.19652359
121	0x3d3fd96e	0.046838216
122	0xbd7f5c07	-0.062343623
123	0xbd7dac3e	-0.06193184
124	0xbdfaf417	-0.12253588
125	0x3d576346	0.05258491
126	0xbbc69cd2	-0.006061175
127	0x3e621483	0.22078137
128	0xbe0a0a1d	-0.1348042
129	0x3e2cfb13	0.16892652
130	0x3e0934c9	0.13399042
131	0xbdea3b1d	-0.11437056
132	0x3da3f670	0.080059886
133	0x3d8e8664	0.06959227
134	0x3a763900	0.0009392649
135	0x3e2aefae	0.16692993
136	0xbd429df4	-0.047513917
137	0x3dda25e5	0.10651759
138	0xbc495780	-0.012288928
139	0x3b15e75b	0.0022873494
140	0x3cad6fca	0.02117147
141	0x3d7f0b2e	0.06226652
142	0x3d2df516	0.04247006
143	0x3e33ca87	0.17557727
144	0x39f40dc4	0.00046549563
145	0x3b0922bf	0.0020925251
146	0x3d73919f	0.059465047
147	0xbda4e169	-0.08050806
148	0x3d093515	0.03349789
149	0xbc8e7484	-0.017389543
150	0x3d3dfbb3	0.046382617
151	0x3c170015	0.009216328
152	0xbe63b531	-0.22237088
153	0x3d8b60bd	0.06805561
154	0xbda6ffbf	-0.081542484
155	0x3e6de3a2	0.23231366
156	0xbcbe07ee	-0.02319714
157	0xbe6617b5	-0.22469981
158	0x3ea40358	0.320338
159	0xbd95c3fd	-0.073127724
160	0xbca2350f	-0.019800691
161	0x3e367d0d	0.1782114
162	0xbdeedc1f	-0.116630785
163	0x3e010b80	0.12602043
164	0x3d8ad183	0.067782424
165	0x3bd1d7ce	0.0064038998
166	0x3db04a5c	0.08607933
167	0x3b7b8365	0.0038377878
168	0x3a98d8f5	0.0011661338
169	0x3c966102	0.018356804
170	0xbd26cfa6	-0.040725373
171	0x3d515a36	0.051111422
172	0x3df58739	0.11988682
173	0x3e0f0bd3	0.13969354
174	0xbe83802f	-0.25683734
175	0x3d977184	0.07394698
176	0x3e4af671	0.19820572
177	0xbdc38fe0	-0.09548926
178	0x3da9394e	0.08262883
179	0x3e505e81	0.2034855
180	0x3d271bde	0.04079806
181	0x3c377975	0.011198391
182	0x3d247c13	0.04015739
183	0xbd9acd83	-0.075587295
184	0x3dbf4c39	0.0934071
185	0x3db71c93	0.08940997
186	0xbc40ecd0	-0.0117752105
187	0x3e2524f9	0.16127385
188	0x3eca527f	0.39516065
189	0x3e1e9bad	0.15489073
190	0xbd2243dc	-0.039615497
191	0xbd3776f6	-0.044791184
192	0x3cf8f68d	0.030391002
193	0xbbc29c02	-0.0059390077
194	0xbdc19c26	-0.09453611
195	0xbe2dae5b	-0.16961043
196	0x3d8d0a5b	0.06886741
197	0x3d5752e4	0.052569285
198	0xbdf33b41	-0.11876536
199	0xbd2f3572	-0.04277558
200	0x3dfc9d26	0.12334661
201	0xbce0d360	-0.027444541
202	0xbde76933	-0.11299362
203	0x3dd4aabf	0.1038413
204	0x3daea45b	0.08527442
205	0xbd0a1fc9	-0.03372172
206	0x3d1032cc	0.035204694
207	0xbd86b0ad	-0.06576667
208	0xbdafd818	-0.085861385
209	0x3dc76c8d	0.09737501
210	0x3e307c56	0.1723493
211	0xbd99c9ae	-0.075091705
212	0xbda2805a	-0.07934637
213	0x3b925192	0.0044652903
214	0x3dc7c3ca	0.09754141
215	0x3dffeee7	0.12496739
216	0xbd216104	-0.039399162
217	0x3d1de5e5	0.038549323
218	0xbdbcf64c	-0.09226665
219	0xbced1af8	-0.028943524
220	0x3c329d45	0.010901754
221	0xbc3d508f	-0.011554851
222	0xbd2e4c5e	-0.0425533
223	0x3e3a7dd0	0.18212056
224	0xbe6e3759	-0.23263301
225	0x3e0a1f94	0.13488609
226	0x3da1cca4	0.0790036
227	0x3d3d6c38	0.046245784
228	0xbdd6c7d8	-0.10487336
229	0xbd584b86	-0.0528064
230	0x3c742185	0.01490057
231	0x3e13a5be	0.14418694
232	0xbe30b1e0	-0.17255354
233	0x3dc95eec	0.09832558
234	0xbe791119	-0.24322928
235	0x3c3bb0a2	0.011455687
236	0x3d0dd20a	0.034624137
237	0x3b8da1f5	0.0043222853
238	0x3debbdf3	0.11510839
239	0xbe0e1a0c	-0.13877124
240	0xbe1ffedf	-0.1562457
241	0x3d28f564	0.041249648
242	0x3deed946	0.11662535
243	0x3c84c062	0.016205017
244	0xbdfbe35a	-0.12299223
245	0x3de359ef	0.11101138
246	0xbbd83000	-0.006597519
247	0x3e5a3303	0.21308522
248	0xbe88e22a	-0.2673505
249	0x3d6a936d	0.057269502
250	0xbd8adaaa	-0.06779988
251	0xbd9c0df4	-0.07619849
252	0xbddc26fa	-0.10749622
253	0xbd8ff2df	-0.07028746
254	0x3d724b1e	0.05915367
255	0x3e4158ae	0.18881485

network_body._body_endoder.seq_layers.0.bias f4 [128]
0	0x00000000	0.0
1	0x00000000	0.0
2	0x00000000	0.0
3	0x00000000	0.0
4	0x00000000	0.0
5	0x00000000	0.0
6	0x00000000	0.0
7	0x00000000	0.0
8	0x00000000	0.0
9	0x00000000	0.0
10	0x00000000	0.0
11	0x00000000	0.0
12	0x00000000	0.0
13	0x00000000	0.0
14	0x00000000	0.0
15	0x00000000	0.0
16	0x00000000	0.0
17	0x00000000	0.0
18	0x00000000	0.0
19	0x00000000	0.0
20	0x00000000	0.0
21	0x00000000	0.0
22	0x00000000	0.0
23	0x00000000	0.0
24	0x00000000	0.0
25	0x00000000	0.0
26	0x00000000	0.0
27	0x00000000	0.0
28	0x00000000	0.0
29	0x00000000	0.0
30	0x00000000	0.0
31	0x00000000	0.0
32	0x00000000	0.0
33	0x00000000	0.0
34	0x00000000	0.0
35	0x00000000	0.0
36	0x00000000	0.0
37	0x00000000	0.0
38	0x00000000	0.0
39	0x00000000	0.0
40	0x00000000	0.0
41	0x00000000	0.0
42	0x00000000	0.0
43	0x00000000	0.0
44	0x00000000	0.0
45	0x00000000	0.0
46	0x00000000	0.0
47	0x00000000	0.0
48	0x00000000	0.0
49	0x00000000	0.0
50	0x00000000	0.0
51	0x00000000	0.0
52	0x00000000	0.0
53	0x00000000	0.0
54	0x00000000	0.0
55	0x00000000	0.0
56	0x00000000	0.0
57	0x00000000	0.0
58	0x00000000	0.0
59	0x00000000	0.0
60	0x00000000	0.0
61	0x00000000	0.0
62	0x00000000	0.0
63	0x00000000	0.0
64	0x00000000	0.0
65	0x00000000	0.0
66	0x00000000	0.0
67	0x00000000	0.0
68	0x00000000	0.0
69	0x00000000	0.0
70	0x00000000	0.0
71	0x00000000	0.0
72	0x00000000	0.0
73	0x00000000	0.0
74	0x00000000	0.0
75	0x00000000	0.0
76	0x00000000	0.0
77	0x00000000	0.0
78	0x00000000	0.0
79	0x00000000	0.0
80	0x00000000	0.0
81	0x00000000	0.0
82	0x00000000	0.0
83	0x00000000	0.0
84	0x00000000	0.0
85	0x00000000	0.0
86	0x00000000	0.0
87	0x00000000	0.0
88	0x00000000	0.0
89	0x00000000	0.0
90	0x00000000	0.0
91	0x00000000	0.0
92	0x00000000	0.0
93	0x00000000	0.0
94	0x00000000	0.0
95	0x00000000	0.0
96	0x00000000	0.0
97	0x00000000	0.0
98	0x00000000	0.0
99	0x00000000	0.0
100	0x00000000	0.0
101	0x00000000	0.0
102	0x00000000	0.0
103	0x00000000	0.0
104	0x00000000	0.0
105	0x00000000	0.0
106	0x00000000	0.0
107	0x00000000	0.0
108	0x00000000	0.0
109	0x00000000	0.0
110	0x00000000	0.0
111	0x00000000	0.0
112	0x00000000	0.0
113	0x00000000	0.0
114	0x00000000	0.0
115	0x00000000	0.0
116	0x00000000	0.0
117	0x00000000	0.0
118	0x00000000	0.0
119	0x00000000	0.0
120	0x00000000	0.0
121	0x00000000	0.0
122	0x00000000	0.0
123	0x00000000	0.0
124	0x00000000	0.0
125	0x00000000	0.0
126	0x00000000	0.0
127	0x00000000	0.0

network_body._body_endoder.seq_layers.2.weight f4 [128, 128]
0	0xbe9a0ef3	-0.3008953
1	0xbe3234ef	-0.17403005
2	0x3d78bbf1	0.06072611
3	0xbd4289e6	-0.04749479
4	0xbcd54351	-0.026033076
5	0xbdcd073e	-0.10011147
6	0xbd3cf9cb	-0.04613666
7	0x3dd9ea66	0.10640411
8	0xbd3eb078	-0.046555012
9	0xbc95d283	-0.018288856
10	0xbd93c4e3	-0.072152875
11	0x3dd6465e	0.1046264
12	0x3dbd8cf4	0.092554
13	0x3b0352f9	0.002003847
14	0xbd5b5ee4	-0.05355729
15	0x3bd95a04	0.006633045
16	0xbb5419b5	-0.0032363955
17	0xbd151c21	-0.03640378
18	0x3df804ec	0.12110314
19	0x3db12d49	0.086512156
20	0x3d2d1029	0.04225174
21	0x3e21f721	0.15816928
22	0x3d47c558	0.048772186
23	0x3c32bb04	0.010908846
24	0x3d97b090	0.074067235
25	0xbd8ccd0a	-0.068750456
26	0xbe0d222b	-0.13782565
27	0xbd6c21d1	-0.057649437
28	0x3db1eba5	0.08687524
29	0xbda17b25	-0.07884816
30	0x3db232bf	0.08701085
31	0x3de2414c	0.11047611
32	0xbd3db0f6	-0.04631134
33	0xbd0dd3ad	-0.034625698
34	0x3c22fad9	0.009947502
35	0x3b55340c	0.0032532243
36	0xbdbe3cf5	-0.092889704
37	0xbdde016e	-0.108401164
38	0xbe08d5d2	-0.13362816
39	0xbdd51d17	-0.10405939
40	0xbd9a2cbd	-0.075280644
41	0x3cd59810	0.026073486
42	0xbd06120e	-0.032732062
43	0xbd070dbf	-0.032972094
44	0xbd795bac	-0.06087844
45	0xbcd263d2	-0.025682364
46	0xbb5b5385	-0.003346653
47	0xbdb376b9	-0.08762879
48	0xbc4d153b	-0.012517269
49	0xbe53174e	-0.20614359
50	0xbcc4c141	-0.024017932
51	0x3d0f04a4	0.034916535
52	0x3ded0521	0.11573244
53	0xbb8213c2	-0.0039696405
54	0x3dd2cedf	0.10293364
55	0xbd9d57b7	-0.07682746
56	0xbd5629d0	-0.05228597
57	0xbcab055b	-0.020876577
58	0x3d8aab47	0.0677095
59	0x3d488396	0.048953615
60	0xbd9adc6e	-0.07561575
61	0x3ca4f011	0.020134004
62	0xbe1ac6f4	-0.15114957
63	0x3d8d9c0c	0.06914529
64	0x3d3580a5	0.044312138
65	0xbdc572ed	-0.09641061
66	0x3d2a42e1	0.041567687
67	0xbd25a595	-0.040441114
68	0x3c5d966d	0.013524634
69	0xbc6c6acb	-0.014429758
70	0xbda97256	-0.08273761
71	0xbcc8da32	-0.024518106
72	0xbdf6d359	-0.1205203
73	0x3d757e83	0.059935104
74	0x3df7f6d3	0.12107625
75	0x3c9af8bc	0.018917434
76	0xbc264661	-0.010148616
77	0xbc7a7d7c	-0.015288707
78	0xbd36bc8e	-0.044613414
79	0xbdfc7e7f	-0.12328815
80	0xbce226ce	-0.027606394
81	0xbbfe6145	-0.0077630603
82	0x3cf75f3c	0.030196778
83	0xbcc2817d	-0.023743385
84	0x3db3e2b2	0.08783473
85	0xbd02fcdf	-0.031979438
86	0xbe1192e6	-0.14216194
87	0x3c4b0f7f	0.012393831
88	0x3d788d8a	0.060681857
89	0x3d949ab1	0.072560675
90	0x3d9956d0	0.07487261
91	0xbe055f94	-0.13024741
92	0xbd95866a	-0.07301028
93	0xbc71c2ff	-0.014755963
94	0xbd8869b6	-0.06660788
95	0xbd49ba8b	-0.049250167
96	0xbcd9f489	-0.026605861
97	0x3c03fcfd	0.008055923
98	0x3da52dcc	0.08065376
99	0x3e01cd87	0.12676059
100	0x3d9b23df	0.07575201
101	0x3d14fdac	0.036374733
102	0xbe1e4d7b	-0.15459244
103	0x3da8dd51	0.08245338
104	0x3d8671a8	0.06564647
105	0x3c6eb2da	0.014569009
106	0x3e31d476	0.17366204
107	0xbdc60ccc	-0.096704096
108	0xbd42d1f0	-0.047563493
109	0x3d5739ea	0.052545466
110	0x3e1a6fa4	0.1508165
111	0xbdc2e3be	-0.095160946
112	0x3d530522	0.051518567
113	0xbe0cc3ee	-0.13746616
114	0x3da10443	0.07862141
115	0xbe793244	-0.24335581
116	0xbdc018a1	-0.093796976
117	0xbba4222e	-0.0050089573
118	0x3dc2a3b0	0.09503877
119	0xbcd326c7	-0.025775326
120	0xbb8af3b2	-0.0042404765
121	0x3c1f7bce	0.009734107
122	0xbd239690	-0.03993851
123	0xbd861fbd	-0.06549022
124	0x3da5c14a	0.080935076
125	0xbd33b12a	-0.04387013
126	0xb99e5fbb	-0.00030207433
127	0xb9728275	-0.00023127517
128	0x3d8292d8	0.063756645
129	0x3b878004	0.0041351337
130	0xbd9f36f0	-0.0777415
131	0xbd88aba2	-0.06673361
132	0x3d0f3cc5	0.034970064
133	0xbd68795b	-0.05675636
134	0xbd503cd1	-0.05083925
135	0x3d746e94	0.059675768
136	0x3d794085	0.060852546
137	0xbdbd2176	-0.09234898
138	0xbd0ac260	-0.033876777
139	0x3df7e5f7	0.12104409
140	0x3c367fc7	0.011138863
141	0x3d284617	0.041082468
142	0x3ded0102	0.11572458
143	0x3db4067d	0.087903
144	0xbb61af4f	-0.0034436767
145	0x3afa0c65	0.001907718
146	0x3cfdf2c8	0.030999556
147	0x3e1efa32	0.1552513
148	0x3d8d2ddc	0.068935126
149	0x3b796cbb	0.0038059193
150	0xbd98e451	-0.07465423
151	0x3c6c6380	0.0144280195
152	0x3d32f592	0.043691225
153	0x3cc13c16	0.023588222
154	0xbcb6d308	-0.022317424
155	0xbe285de2	-0.16442063
156	0xbd90fe50	-0.07079756
157	0x3d4c984e	0.049949937
158	0xbc9d41f0	-0.01919648
159	0x3d2e2fa0	0.042525887
160	0x3e1a69c5	0.1507941
161	0x3e21e45d	0.1580977
162	0x3e07c179	0.13257398
163	0x3dfe758c	0.12424764
164	0x3e2e4174	0.17017156
165	0x3db4fa78	0.088368356
166	0xbc850eae	-0.016242351
167	0x3e048853	0.12942629
168	0xbba54172	-0.005043202
169	0x3ceb2b1a	0.028707076
170	0xbe0a32c2	-0.13495925
171	0xbdef084a	-0.11671503
172	0x3e1dcc6e	0.15410015
173	0xbd92d28d	-0.071690656
174	0x3dcc4b31	0.09975279
175	0xbe01c099	-0.12671126
176	0x3db40641	0.08790255
177	0x3cda8082	0.026672605
178	0x3e55c6c3	0.20876603
179	0x3c2a5357	0.010395846
180	0x3c2ac57a	0.010423059
181	0xbdc21636	-0.09476893
182	0x3d56e469	0.052463923
183	0x3c9c355a	0.019068409
184	0xbd1deb02	-0.0385542
185	0x3e25ab77	0.1617869
186	0xbd7ae1d1	-0.06125051
187	0xbd956171	-0.07293976
188	0x3d7ff9d1	0.062494103
189	0xbd222d6e	-0.039594106
190	0x3ca6b32c	0.020349108
191	0xbd0cdfe3	-0.034393203
192	0xbd853b4a	-0.06505449
193	0x3e04518a	0.1292173
194	0x3dc971ab	0.098361336
195	0x3c22ccaa	0.009936491
196	0x3dc31ca1	0.09526945
197	0x3c666c58	0.014063917
198	0x3d914f17	0.07095163
199	0x3cc20587	0.023684276
200	0x3de805e7	0.11329251
201	0xbe45d7fa	-0.1932067
202	0x3da726ad	0.08161674
203	0x3db0507f	0.086091034
204	0x3d1cd53b	0.03828929
205	0xbd0e82e9	-0.034792814
206	0x3cfc8a60	0.030827701
207	0xbcecc99e	-0.028904732
208	0xbc935495	-0.017984668
209	0x3da1a782	0.07893278
210	0x3d5c97d4	0.053855732
211	0xbcc9e8c5	-0.024647126
212	0xbe0dfecd	-0.1386673
213	0x3de4bdc8	0.111690104
214	0x3e71408a	0.23559776
215	0x3c249120	0.010044366
216	0xbb4f6e17	-0.0031651312
217	0x3e38a35d	0.18031068
218	0x3d8f3fc3	0.069945835
219	0x3d8ed1b4	0.069735914
220	0x3bfd59e5	0.0077316635
221	0x3ca1d9a1	0.019757094
222	0x3cedb696	0.029017728
223	0x3e0692b9	0.13141908
224	0x3cdffd43	0.027342444
225	0xbc829085	-0.015938053
226	0xbdc1f7ab	-0.09471067
227	0x3d95656d	0.07294736
228	0xbe1530a5	-0.14569338
229	0xbc4a2847	-0.012338704
230	0x3dd4408c	0.10363874
231	0xbdaa3210	-0.0831033
232	0x3e819af0	0.2531352
233	0x3c82aab7	0.015950544
234	0x3bbdbe89	0.005790536
235	0xbcf86281	-0.030320408
236	0x3e0cd36f	0.1375253
237	0xbdb072e2	-0.08615662
238	0xbcfeb4b2	-0.031092022
239	0xbd1e0465	-0.03857841
240	0xbdb7fada	-0.08983393
241	0xbcad59f6	-0.02116106
242	0xbd188717	-0.037238207
243	0xbd810819	-0.06300373
244	0xbd7445d9	-0.059636924
245	0xbdaf0b42	-0.08547069
246	0x3da79e6a	0.08184512
247	0xbbfaec23	-0.007657544
248	0xbba0c7b6	-0.00490662
249	0x3e180573	0.14845829
250	0x3bad42d3	0.005287507
251	0x3d497e65	0.049192805
252	0xbd906a09	-0.070514746
253	0xbdcf5845	-0.10124258
254	0x3d1c8177	0.038209405
255	0xbd3507ba	-0.04419682

network_body._body_endoder.seq_layers.2.bias f4 [128]
0	0x00000000	0.0
1	0x00000000	0.0
2	0x00000000	0.0
3	0x00000000	0.0
4	0x00000000	0.0
5	0x00000000	0.0
6	0x00000000	0.0
7	0x00000000	0.0
8	0x00000000	0.0
9	0x00000000	0.0
10	0x00000000	0.0
11	0x00000000	0.0
12	0x00000000	0.0
13	0x00000000	0.0
14	0x00000000	0.0
15	0x00000000	0.0
16	0x00000000	0.0
17	0x00000000	0.0
18	0x00000000	0.0
19	0x00000000	0.0
20	0x00000000	0.0
21	0x00000000	0.0
22	0x00000000	0.0
23	0x00000000	0.0
24	0x00000000	0.0
25	0x00000000	0.0
26	0x00000000	0.0
27	0x00000000	0.0
28	0x00000000	0.0
29	0x00000000	0.0
30	0x00000000	0.0
31	0x00000000	0.0
32	0x00000000	0.0
33	0x00000000	0.0
34	0x00000000	0.0
35	0x00000000	0.0
36	0x00000000	0.0
37	0x00000000	0.0
38	0x00000000	0.0
39	0x00000000	0.0
40	0x00000000	0.0
41	0x00000000	0.0
42	0x00000000	0.0
43	0x00000000	0.0
44	0x00000000	0.0
45	0x00000000	0.0
46	0x00000000	0.0
47	0x00000000	0.0
48	0x00000000	0.0
49	0x00000000	0.0
50	0x00000000	0.0
51	0x00000000	0.0
52	0x00000000	0.0
53	0x00000000	0.0
54	0x00000000	0.0
55	0x00000000	0.0
56	0x00000000	0.0
57	0x00000000	0.0
58	0x00000000	0.0
59	0x00000000	0.0
60	0x00000000	0.0
61	0x00000000	0.0
62	0x00000000	0.0
63	0x00000000	0.0
64	0x00000000	0.0
65	0x00000000	0.0
66	0x00000000	0.0
67	0x00000000	0.0
68	0x00000000	0.0
69	0x00000000	0.0
70	0x00000000	0.0
71	0x00000000	0.0
72	0x00000000	0.0
73	0x00000000	0.0
74	0x00000000	0.0
75	0x00000000	0.0
76	0x00000000	0.0
77	0x00000000	0.0
78	0x00000000	0.0
79	0x00000000	0.0
80	0x00000000	0.0
81	0x00000000	0.0
82	0x00000000	0.0
83	0x00000000	0.0
84	0x00000000	0.0
85	0x00000000	0.0
86	0x00000000	0.0
87	0x00000000	0.0
88	0x00000000	0.0
89	0x00000000	0.0
90	0x00000000	0.0
91	0x00000000	0.0
92	0x00000000	0.0
93	0x00000000	0.0
94	0x00000000	0.0
95	0x00000000	0.0
96	0x00000000	0.0
97	0x00000000	0.0
98	0x00000000	0.0
99	0x00000000	0.0
100	0x00000000	0.0
101	0x00000000	0.0
102	0x00000000	0.0
103	0x00000000	0.0
104	0x00000000	0.0
105	0x00000000	0.0
106	0x00000000	0.0
107	0x00000000	0.0
108	0x00000000	0.0
109	0x00000000	0.0
110	0x00000000	0.0
111	0x00000000	0.0
112	0x00000000	0.0
113	0x00000000	0.0
114	0x00000000	0.0
115	0x00000000	0.0
116	0x00000000	0.0
117	0x00000000	0.0
118	0x00000000	0.0
119	0x00000000	0.0
120	0x00000000	0.0
121	0x00000000	0.0
122	0x00000000	0.0
123	0x00000000	0.0
124	0x00000000	0.0
125	0x00000000	0.0
126	0x00000000	0.0
127	0x00000000	0.0

action_model._continuous_distribution.log_sigma f4 [1, 2]
0	0x00000000	0.0
1	0x00000000	0.0

action_model._continuous_distribution.mu.weight f4 [2, 128]
0	0xb996aab4	-0.00028737413
1	0xbc9d0103	-0.019165521
2	0xbc8f561e	-0.017497119
3	0x3d2b520c	0.041826293
4	0xbd0245d6	-0.031804882
5	0x3b3ccacb	0.0028807397
6	0x3bf0aedb	0.007345063
7	0x3bbe6d00	0.0058113337
8	0xbcc991b1	-0.024605604
9	0xbc89fc43	-0.01684392
10	0xbca4bf4d	-0.02011075
11	0xbc826cf4	-0.015921094
12	0x3ba6f69b	0.0050953156
13	0xbc2de007	-0.010612494
14	0xbb689bc7	-0.003549324
15	0x3c8c5c57	0.017133875
16	0x3cee4fa5	0.029090712
17	0x3cd63a15	0.026150743
18	0x3c8439c9	0.016140835
19	0x3ce45f43	0.027877456
20	0xbcb64bbc	-0.02225291
21	0x3a83e724	0.0010063392
22	0x3c9b17cf	0.018932251
23	0x3d53ec40	0.051738977
24	0xbc856916	-0.01628546
25	0xbca614d1	-0.020273598
26	0x3ccf6522	0.025316779
27	0x3d0d6f78	0.034530133
28	0xbc5fccc3	-0.013659659
29	0x3c7b2175	0.015327801
30	0x3c552ac5	0.013010685
31	0x3cef1057	0.029182596
32	0xbccbe33b	-0.024888625
33	0xbce01582	-0.027354006
34	0x3c03677d	0.008020279
35	0xbaf95422	-0.0019022266
36	0x3ce336bf	0.027736066
37	0xbb314b75	-0.0027053033
38	0x3b967d4c	0.0045925733
39	0x3b60a395	0.003427719
40	0xbca35f3f	-0.019942878
41	0x3cac212d	0.021011913
42	0xbc7ebd8d	-0.015548122
43	0x3b9db2a3	0.004812555
44	0xbb3c6694	-0.0028747665
45	0x3b16a543	0.0022986687
46	0xbc3c0e29	-0.011477985
47	0xbc7657fa	-0.015035624
48	0xbd20ff09	-0.03930572
49	0xbcad36b9	-0.021144258
50	0x3c8de5e2	0.01732153
51	0xbce09d52	-0.027418766
52	0xbc2e5c4b	-0.010642122
53	0xbb01162e	-0.0019697058
54	0xbb529b5f	-0.0032136065
55	0x3af38bda	0.0018581108
56	0xbcce7aa0	-0.025204957
57	0x3c468477	0.012116543
58	0x3cff934f	0.031198172
59	0xbb8702ca	-0.0041202055
60	0x3bd2b8f3	0.006430739
61	0x3bc7b277	0.0060942727
62	0xbc10f9db	-0.008848633
63	0x3bffb840	0.0078039467
64	0xbc15cdff	-0.009143352
65	0x3a278983	0.0006391035
66	0x3ca9372f	0.020656196
67	0x3bd53b63	0.0065073236
68	0x3c307627	0.010770357
69	0xbcc3e200	-0.023911476
70	0x3c6ba657	0.01438292
71	0x3cd82f43	0.026389724
72	0xbcfcae4b	-0.030844828
73	0x39e6fcc2	0.00044057338
74	0xbca54222	-0.020173136
75	0x3c497b77	0.012297503
76	0x3c09ba67	0.008406258
77	0xbd089ff7	-0.03335568
78	0xbbdc361b	-0.006720317
79	0x3c4a9924	0.012365613
80	0x3c32adde	0.010905711
81	0x3b9e082c	0.0048227515
82	0xbc13f478	-0.009030454
83	0xbd1aa166	-0.037751578
84	0xbcd092b8	-0.025460586
85	0xbb1a369b	-0.0023531083
86	0x3c67c810	0.01414682
87	0xbd0dbcb9	-0.034603808
88	0x3c0fb56d	0.008771283
89	0x3c25e36c	0.010125022
90	0xbd191630	-0.037374675
91	0xbbbd47c8	-0.0057763793
92	0x3d1494c7	0.036274698
93	0x3c2f410b	0.01069666
94	0x3bd05fb2	0.006359064
95	0x3cc5975f	0.02412003
96	0xbc58bd6d	-0.013228756
97	0x3c885dd0	0.016646296
98	0xbb7299df	-0.0037017984
99	0xbd1c64f3	-0.03818221
100	0x3d39244c	0.04520063
101	0xbc91c189	-0.01779248
102	0x3ca8c2eb	0.020600757
103	0x3d207873	0.03917737
104	0x3b4e2e6a	0.003146077
105	0xba8c9489	-0.0010725419
106	0xbb7d21ca	-0.0038624876
107	0xbb32b48e	-0.0027268264
108	0xbc1633ec	-0.009167653
109	0x3aa77897	0.0012777027
110	0x3baaa2c6	0.0052073924
111	0x3d05632b	0.032565277
112	0xbc35eb3d	-0.011103448
113	0xbcba2eca	-0.022727389
114	0x3c6a0a6d	0.014284712
115	0x3b4933a7	0.0030700953
116	0xbcb11ae2	-0.021619264
117	0xbbda944d	-0.006670511
118	0x3c31f6af	0.010862037
119	0xbc9b6a1c	-0.018971495
120	0x3c7bede5	0.015376543
121	0x3c97b3c3	0.018518334
122	0xbbe1033d	-0.006866841
123	0xbd01ed15	-0.03172024
124	0xbc86074a	-0.016360898
125	0xbc14156f	-0.009038313
126	0x3c91aed7	0.017783565
127	0x3c21d402	0.009877207
128	0xbb6d1092	-0.0036173207
129	0xbba72bd3	-0.00510166
130	0xbbab82af	-0.0052340846
131	0xbc3d697f	-0.011560797
132	0xbc55b065	-0.013042544
133	0x3c2601c6	0.010132259
134	0x3ca1390b	0.01968052
135	0xbca7141e	-0.020395335
136	0x3c456e61	0.012050242
137	0x3c9389e8	0.018010095
138	0xbcaab88e	-0.020839956
139	0x3cae3367	0.021264745
140	0xbb23a08b	-0.0024967517
141	0xbc19ec25	-0.00939468
142	0x3d3822d6	0.044955097
143	0x3bab5752	0.0052289153
144	0x3c4503dd	0.012024847
145	0x3cfe8d82	0.031073336
146	0x3ccb757f	0.0248363
147	0xbc5f98aa	-0.013647238
148	0x3bac7a88	0.0052636303
149	0x3d058167	0.03259411
150	0xbc616d10	-0.013758913
151	0x3bd46dad	0.006482801
152	0x3c56298b	0.013071428
153	0xbc851baf	-0.016248552
154	0x3b49e3f6	0.0030806041
155	0x3ba49089	0.0050221127
156	0x38f2e4c8	0.00011582073
157	0xbbcc8b28	-0.0062421747
158	0xbb8fa045	-0.0043831193
159	0xbcd6503f	-0.026161311
160	0xbb31fa83	-0.0027157373
161	0xbccda5a8	-0.025103405
162	0x3d0983ff	0.033573147
163	0x3ccef178	0.025261626
164	0xb9cfbb57	-0.00039621696
165	0xbc8c9253	-0.017159617
166	0xbc486f97	-0.012233636
167	0x3cc6008b	0.02417018
168	0x3be45d7d	0.0069691525
169	0xbc7cec2b	-0.015437166
170	0x3d05ccc2	0.032665975
171	0x3c7f2593	0.015572923
172	0x3b402416	0.0029318384
173	0x3b8763b7	0.00413176
174	0xbc6285fd	-0.013825891
175	0xbc4beb1f	-0.012446194
176	0x3b55e84a	0.0032639676
177	0xbd18000c	-0.03710942
178	0x3bba815b	0.00569169
179	0x3c72a243	0.014809194
180	0xbc9fd4e8	-0.019510701
181	0x3c8e6a96	0.017384809
182	0x3c7ecf60	0.015552372
183	0x3cb13513	0.021631753
184	0x3c0a0832	0.0084248055
185	0xbc8a2953	-0.016865408
186	0xbcb42abb	-0.021993032
187	0xbb9886f5	-0.00465476
188	0x3cefc7aa	0.029270012
189	0x3c84b213	0.016198194
190	0xba3ff047	-0.0007321876
191	0x3cbd7f0b	0.023131868
192	0x3caeb4bb	0.021326413
193	0xbc4da0c2	-0.012550535
194	0xbbc11bfd	-0.005893229
195	0xbcd06d53	-0.025442755
196	0xbc6041c3	-0.013687554
197	0x3c2df998	0.01061859
198	0xbbc46a2c	-0.005994102
199	0x3cb07ac3	0.021542912
200	0x3b9ce591	0.0047881086
201	0x3c761887	0.015020496
202	0xbc2eb943	-0.010664287
203	0x3c122b33	0.008921432
204	0xbb5e8927	-0.003395626
205	0x3b43b2da	0.0029861243
206	0xbba58223	-0.005050914
207	0x3c6c88cf	0.014436915
208	0x3a231f34	0.0006222606
209	0x3cb6fea7	0.022338225
210	0xbba194d0	-0.00493107
211	0x3c034584	0.008012179
212	0xbc96ad23	-0.018393105
213	0x3c0edd9b	0.008719827
214	0xbbce603a	-0.006298092
215	0x39df195b	0.00042552766
216	0x3a30649d	0.000672886
217	0xbcb4b47b	-0.022058716
218	0xbc727ad3	-0.014799791
219	0xbd3a5831	-0.045494262
220	0x3b4e9d18	0.003152674
221	0xbc559e7f	-0.013038277
222	0xbc843cbb	-0.01614224
223	0xbc437a0c	-0.011930954
224	0xbcb236b7	-0.021754606
225	0xbc1d4f2b	-0.009601395
226	0xbaf33e48	-0.001855799
227	0x3cb7c1a2	0.022431199
228	0xbb44abca	-0.003000962
229	0xbc3b363b	-0.011426504
230	0xbc8d810b	-0.017273447
231	0x3bcc80e5	0.0062409514
232	0x3c0d81ca	0.008636901
233	0x3c22a292	0.009926455
234	0xbc9f32f5	-0.019433478
235	0x3c86c98f	0.016453533
236	0xbc4a7c50	-0.01235874
237	0xbafce37b	-0.0019293869
238	0x397e6363	0.00024260352
239	0xbcc56de3	-0.02410025
240	0x3c4b020f	0.0123906275
241	0xbc07fc22	-0.008299859
242	0xbbac963b	-0.0052669323
243	0xbc106c4a	-0.008814881
244	0xbb27cf92	-0.00256059
245	0x3cddc07a	0.027069319
246	0xb9cc344c	-0.00038948876
247	0x3c6ecf1b	0.014575745
248	0xbc1188fa	-0.008882755
249	0xbc1015e2	-0.00879428
250	0x3b2ccd2b	0.0026367407
251	0x3d09a42f	0.033603843
252	0xbcaadee3	-0.020858234
253	0xbd0d6fc4	-0.034530416
254	0xbce67feb	-0.028137168
255	0xba5752aa	-0.0008213917

action_model._continuous_distribution.mu.bias f4 [2]
0	0x00000000	0.0
1	0x00000000	0.0

action_model._discrete_distribution.branches.0.weight f4 [2, 128]
0	0x3b6c5577	0.0036061683
1	0xb9506d45	-0.00019877132
2	0x3aec4d58	0.0018028421
3	0x3b0ff65b	0.0021966908
4	0xbbc627cc	-0.0060472246
5	0xbc667b32	-0.014067458
6	0x3a9085b8	0.001102618
7	0xbb930188	-0.0044862665
8	0x3bc2a2fe	0.0059398403
9	0xbc358916	-0.011080047
10	0xbc2c9ecf	-0.01053591
11	0xbbe50fe5	-0.00699042
12	0xbb35153e	-0.002763107
13	0x3b293fc7	0.0025825368
14	0x3c1ccdd9	0.009570562
15	0xbb855dcb	-0.004070019
16	0x3bc4593a	0.005992082
17	0xbc249d32	-0.010047244
18	0xbb902057	-0.0043983865
19	0x3bbdbae5	0.005790102
20	0x3c229987	0.009924299
21	0xbb74ca23	-0.0037351928
22	0xbaddfdea	-0.0016936634
23	0xbb2fb37c	-0.0026809862
24	0x3bed9b88	0.007251207
25	0x3bca0c6f	0.006166033
26	0xbbcf213b	-0.0063211
27	0xb9847b3d	-0.00025268822
28	0x3b798d12	0.003807847
29	0x3c828020	0.015930235
30	0x3c55aa03	0.013041022
31	0xbc03c2e8	-0.008042075
32	0xbc14aa28	-0.009073772
33	0xbbdcbed8	-0.0067366175
34	0x3c0e8c2c	0.008700412
35	0xbc635635	-0.013875534
36	0xb9928aa6	-0.0002795059
37	0x3c85d8f3	0.016338801
38	0xbc17ba3d	-0.009260711
39	0x3c827e82	0.015929464
40	0xbb7e85a7	-0.0038836987
41	0x3929b87f	0.00016185826
42	0xbc84fabb	-0.016232839
43	0xbb8be3eb	-0.0042691133
44	0xbc47090b	-0.012148152
45	0x3b819f94	0.003955791
46	0xbc1cccb5	-0.00957029
47	0x3c3ba680	0.011453271
48	0x3bc080d1	0.005874731
49	0xbbf2aadd	-0.0074056224
50	0x3c92be1b	0.017912915
51	0xbb33a614	-0.0027412223
52	0xbbb28465	-0.0054479116
53	0xbc7cc79b	-0.015428449
54	0xbc02a129	-0.007972994
55	0x3bc9f739	0.0061635044
56	0x3ba83363	0.005133079
57	0x3bcb7cb6	0.006209935
58	0x3b3a98ab	0.0028472345
59	0x3b9610bb	0.004579631
60	0x3c8ebe8a	0.01742484
61	0x3c089dab	0.008338372
62	0x3b21b966	0.0024677156
63	0x3bee1ba0	0.0072664768
64	0xbc429ff4	-0.011878956
65	0x3baf198d	0.005343622
66	0x3bbe808b	0.0058136634
67	0x3c5b17e8	0.013372399
68	0x3c5577e7	0.013029075
69	0xbc51b5ea	-0.012799719
70	0xbc240e29	-0.010013142
71	0x3a447621	0.0007494409
72	0x3b517570	0.0031960867
73	0x3c3768b4	0.011194397
74	0x3b08090f	0.0020757352
75	0x3b93b44b	0.0045075766
76	0xbb3534b1	-0.0027649815
77	0xbb7a9f2a	-0.0038241842
78	0xbbd9f1eb	-0.0066511533
79	0x3c151001	0.009098054
80	0x3c0e31dd	0.0086788805
81	0xba0a0ef7	-0.0005266512
82	0x3b0ba43f	0.0021307615
83	0x3bb9d524	0.0056711603
84	0xbc771d73	-0.015082705
85	0x3c2843ab	0.01027004
86	0x3b206b40	0.0024477988
87	0xb9a02d4c	-0.00030551327
88	0xbb41d5d7	-0.0029576921
89	0x3bfc0bcd	0.0076918365
90	0x3bd80db3	0.00659343
91	0x3b948d0d	0.004533416
92	0xbc21691c	-0.00985172
93	0xbc47672d	-0.012170595
94	0x3a87d6a1	0.0010363647
95	0xbc603c93	-0.013686317
96	0x3c36579d	0.011129287
97	0x3c08e05f	0.0083542755
98	0xbc2b5797	-0.010457895
99	0x3993fe04	0.0002822728
100	0xbbebb78f	-0.0071935127
101	0xbba541df	-0.005043253
102	0xbbd15830	-0.0063886866
103	0xbc1eb0ee	-0.009685738
104	0x3beb3a72	0.007178598
105	0x3bb0d575	0.00539654
106	0x3b588e00	0.0033043623
107	0x3c8fc7dd	0.017551357
108	0xba0c2385	-0.0005345869
109	0x3bc8bb22	0.0061258236
110	0x3bb3a864	0.00548272
111	0x3ca305a4	0.01990015
112	0x3c37d2a7	0.011219657
113	0xbb455643	-0.003011123
114	0xbc0602d1	-0.008179382
115	0xbb951eb5	-0.0045507797
116	0x3bc2d684	0.0059459824
117	0x3ad39503	0.0016142431
118	0x3c68e40d	0.014214528
119	0xbb56ad9d	-0.003275729
120	0x3bf3a9fd	0.0074360357
121	0x3b67aa47	0.0035349296
122	0x39dc432a	0.0004201171
123	0x3be02327	0.006840128
124	0xbb16ac93	-0.0022991046
125	0x3b80cdcc	0.003930783
126	0x3be570e7	0.0070019844
127	0xbba496f9	-0.00502288
128	0x3bdcbed0	0.006736614
129	0xbbe8f7aa	-0.007109602
130	0x3b977331	0.004621886
131	0xb9cedb03	-0.00039454558
132	0xbc1ba89d	-0.00950065
133	0xbc1e1e14	-0.009650726
134	0x3c09822b	0.008392851
135	0x3c3d704f	0.011562421
136	0xbab7ecd7	-0.0014032376
137	0xbbf694c7	-0.00752506
138	0x3c3dcc58	0.011584364
139	0xbb2bab96	-0.0026194802
140	0xbc334bbe	-0.010943351
141	0xbb0c534c	-0.0021411953
142	0x3c23c8a8	0.009996571
143	0x3ba893ff	0.0051445956
144	0xbcb1701b	-0.021659901
145	0x3aacf355	0.0013195077
146	0x3c30456b	0.010758738
147	0xbc623a1b	-0.013807799
148	0xbc67ee97	-0.014156005
149	0x3aedabbd	0.0018132847
150	0x3b771105	0.0037699353
151	0x3c50e5a5	0.012750064
152	0x3bfe9375	0.007769043
153	0x3a7821ef	0.0009465506
154	0xbbb53093	-0.005529472
155	0x3bc594dd	0.006029709
156	0xba426873	-0.0007416077
157	0xbc3acfdf	-0.011402099
158	0xbb53ab95	-0.0032298316
159	0xbafc74c2	-0.0019260871
160	0xbbd3229d	-0.006443335
161	0xba935821	-0.0011241474
162	0x3bca59ff	0.006175279
163	0xbc87044e	-0.016481545
164	0xbba8cde0	-0.0051514953
165	0x3b4fb912	0.0031696004
166	0xbc4790a1	-0.012180478
167	0x3c5f32ab	0.01362292
168	0x3aa6e8e6	0.0012734204
169	0x3c28472a	0.010270873
170	0x3c03e04e	0.008049084
171	0x3c17c6e6	0.00926373
172	0xbb9e0ece	-0.004823542
173	0xbb4f6b5a	-0.003164968
174	0x3c8e88d6	0.017399233
175	0x3c0a86d8	0.008455001
176	0x3904244e	0.00012602026
177	0xbb3ea31b	-0.0029088918
178	0x3a81d5d6	0.0009905647
179	0xbb920567	-0.0044562104
180	0xbbba1115	-0.005678306
181	0x3a34d793	0.0006898578
182	0x3b8afd79	0.004241642
183	0xbc009c65	-0.007849787
184	0xbcaf49ba	-0.02139746
185	0x3b3cbf68	0.002880061
186	0x3bbf082a	0.0058298307
187	0x3c0a867e	0.008454917
188	0xbc3c6887	-0.011499531
189	0xbc276158	-0.01021608
190	0xbc21c3f7	-0.009873382
191	0xbb0136b7	-0.001971645
192	0xbbaa0d5a	-0.00518958
193	0xbb68f45d	-0.0035546042
194	0x3cba83a4	0.02276785
195	0xba8974aa	-0.0010487039
196	0x3c3b277d	0.011422989
197	0x3b4f4d93	0.0031631931
198	0xbc92fe14	-0.01794342
199	0x3b8cfbe4	0.0043024886
200	0xb9912543	-0.00027684317
201	0x3c224619	0.009904408
202	0xbbd1db40	-0.0064043105
203	0xbc110583	-0.008851412
204	0xbbb80240	-0.0056155026
205	0x3ad9f20f	0.0016627925
206	0x3c3870a3	0.011257323
207	0xbc2b1fac	-0.010444563
208	0xbb056f22	-0.002036043
209	0xbc5e15c8	-0.013554998
210	0xbbe05305	-0.006845834
211	0x3d17296b	0.036904734
212	0x3c121a4f	0.008917405
213	0xbbb06b94	-0.005383918
214	0x3c77a62f	0.015115305
215	0x3c7d7f68	0.015472271
216	0xbc2c8d92	-0.0105318
217	0xbc4d08fb	-0.012514348
218	0x3b019964	0.0019775266
219	0x3b1a72f3	0.002356705
220	0xbafe38cb	-0.0019395588
221	0xb9cdcab3	-0.0003925167
222	0x3b188bba	0.0023276643
223	0x3b04a613	0.002024059
224	0x3c1f165f	0.0097099235
225	0x3b00e235	0.001966608
226	0xbbffc5eb	-0.007805576
227	0x3bdf767b	0.006819544
228	0xbc052826	-0.008127248
229	0xbb70a338	-0.003671838
230	0xbb9a8b09	-0.0047162813
231	0x3b7314c0	0.0037091225
232	0x3c8a4e68	0.01688309
233	0xbc0ad00f	-0.008472457
234	0xbac757ea	-0.0015208696
235	0x3b89e76b	0.0042084954
236	0xb991ae9f	-0.00027786658
237	0x3b8aa153	0.004230657
238	0x3b616183	0.0034390397
239	0xbb2fd146	-0.0026827618
240	0xbb4d631f	-0.0031339598
241	0xbccbe67f	-0.024890183
242	0xbbb4c48a	-0.0055165933
243	0xbb15c805	-0.0022854817
244	0xbbdcf1ab	-0.0067426763
245	0xbc1f84d6	-0.00973626
246	0x3bcc541b	0.006235612
247	0x39cf9c10	0.00039598392
248	0x3bd04882	0.0063563
249	0x3ba8d3fe	0.0051522246
250	0x3bce0530	0.0062872395
251	0x3c83af12	0.016074691
252	0xbc501aa3	-0.012701663
253	0x3b1b6e17	0.0023716742
254	0xbacaf081	-0.0015483053
255	0x3b89205b	0.0041847653

action_model._discrete_distribution.branches.0.bias f4 [2]
0	0x00000000	0.0
1	0x00000000	0.0

network_body._body_endoder.seq_layers.0.weight f4 [128, 71]
0	0xbdf222e8	-0.11823064
1	0xbcfde00f	-0.030990629
2	0xbc93abdc	-0.018026285
3	0x3dfe17c5	0.124068774
4	0x3e656e7b	0.22405426
5	0xbd432605	-0.04764368
6	0x3e26cc9b	0.16288988
7	0xbda80a43	-0.08205082
8	0x3e958bbf	0.2920818
9	0x3da11063	0.07864454
10	0xbd754c6b	-0.05988733
11	0x3e28d3c3	0.1648703
12	0xbe80b493	-0.25137767
13	0x3d98040f	0.07422649
14	0xbe445425	-0.19172724
15	0xbd579352	-0.05263073
16	0x3cfa3fcf	0.030548004
17	0x3dba7dfd	0.091060616
18	0xbe2bad42	-0.16765311
19	0xbe1afa2f	-0.151345
20	0xbd7fa02a	-0.062408604
21	0x3e134ffe	0.14385983
22	0x3dac22fc	0.0840511
23	0x3dc7c61c	0.09754583
24	0xbd02bc43	-0.03191782
25	0xbd8ccf07	-0.06875425
26	0x3c18fb8e	0.009337319
27	0xbe2456ca	-0.16048732
28	0x3dfe33e6	0.124122426
29	0x3e013413	0.12617521
30	0x3dd8f4a3	0.10593536
31	0xbe2caefe	-0.16863629
32	0x3c94104d	0.018074179
33	0xbe0d3160	-0.13788366
34	0x3cf909ed	0.03040024
35	0x3ce8ceba	0.028418887
36	0xbda41093	-0.08010974
37	0x3e1fa4bf	0.1559019
38	0xbe430b74	-0.19047338
39	0xbdded02b	-0.10879549
40	0x3e363ec5	0.17797382
41	0x3c28102b	0.010257761
42	0x3c0d2538	0.008614831
43	0x3dff114e	0.124544725
44	0xbe210d82	-0.15727809
45	0xbe2c9538	-0.16853797
46	0x3d3d5e8e	0.046232753
47	0xbd51141f	-0.05104458
48	0x3df6a9bd	0.12044094
49	0x3d60f869	0.054924402
50	0x3d1dca71	0.03852314
51	0xbd63d733	-0.05562515
52	0xbe715642	-0.23568061
53	0x3cfc3cc9	0.030790703
54	0xbda70305	-0.08154873
55	0xbc1f597f	-0.009725927
56	0x3d06f911	0.032952372
57	0x3de8297c	0.113360375
58	0xbce2eeee	-0.027701821
59	0x3de37bf6	0.11107628
60	0xbe2dc19d	-0.16968389
61	0xbeb420ae	-0.35181183
62	0xbcc8435b	-0.02444618
63	0x3e586446	0.21132001
64	0xbca0a4e8	-0.019609883
65	0x3cca6edc	0.024711065
66	0xbd38f084	-0.04515125
67	0xbd816539	-0.06318135
68	0x3d0f2bd0	0.034953892
69	0xbcde36a5	-0.027125666
70	0xbc61a703	-0.013772729
71	0x3c9e6dbc	0.019339435
72	0x3d549493	0.051899504
73	0x3e0630fc	0.13104624
74	0x3e2873b8	0.16450393
75	0xbda1348f	-0.07871353
76	0x3df27adb	0.11839839
77	0xbd2c9f9f	-0.042144414
78	0x3dabe1c7	0.08392673
79	0xbe1f36a1	-0.15548183
80	0x3bf36934	0.0074283127
81	0x3d86d82c	0.065842
82	0xbdc1788b	-0.0944682
83	0xbe016859	-0.12637462
84	0xbe16f8b7	-0.14743315
85	0xbd597721	-0.053092126
86	0x3d8a23a4	0.06745079
87	0x3d99389b	0.074815
88	0xbd8c3b62	-0.06847264
89	0xbce691ae	-0.028145637
90	0x3dd80331	0.10547484
91	0x3e828f32	0.25499874
92	0x3dc6d1a6	0.09707956
93	0xbd8e0ce5	-0.06936053
94	0xbdd5f52a	-0.10447152
95	0x3ddf7cb9	0.10912461
96	0x3e3effa5	0.18652208
97	0xbdf840a4	-0.12121704
98	0x3e049030	0.12945628
99	0xbd7304c8	-0.05933073
100	0xbc19d8e9	-0.009390094
101	0x3c6aac3b	0.0143232895
102	0x3e2228f7	0.1583594
103	0x3d1a1b17	0.03762349
104	0xb937e06b	-0.00017535842
105	0x3e32509d	0.17413564
106	0xbd453d28	-0.048154026
107	0xbcd2f8fb	-0.025753489
108	0xbde93756	-0.113875076
109	0xbc5d34c6	-0.013501352
110	0x3ba10faa	0.0049151974
111	0x3e0564fd	0.13026805
112	0x3e6deaaf	0.23234056
113	0x3d512265	0.05105819
114	0x3db54a93	0.088521145
115	0xbc472f7d	-0.012157318
116	0xbdc5ef06	-0.09664731
117	0x3d17ec89	0.037090812
118	0x3de84044	0.11340383
119	0xbe2239cc	-0.1584236
120	0x3c1c3873	0.009534943
121	0xbd8f9878	-0.07011503
122	0x3da432b1	0.08017481
123	0xbd301738	-0.042990893
124	0x3da13790	0.07871926
125	0x3e089157	0.13336693
126	0xbe40258f	-0.18764327
127	0xbe33d93a	-0.17563334
128	0xbd39a6a1	-0.045324925
129	0x3e3f8613	0.18703489
130	0xbdb16c71	-0.08663262
131	0x3d4efe0a	0.05053524
132	0xbd0eb058	-0.034836143
133	0x3da180f6	0.078859255
134	0xbe1d5c6b	-0.15367286
135	0x3d0a77f6	0.03380581
136	0xbd967379	-0.073462434
137	0xbde4a2e0	-0.111638784
138	0x3c114d33	0.008868503
139	0xbc4b17eb	-0.012395839
140	0x3d1bc02e	0.038025074
141	0x3d5539e1	0.05205715
142	0x3d613669	0.05498353
143	0xbdcadfd7	-0.09905975
144	0xbdc17754	-0.09446588
145	0x3d338017	0.043823328
146	0x3bc7fe3c	0.006103305
147	0xbca57c67	-0.020200921
148	0xbe6cc147	-0.23120604
149	0xbc0779d9	-0.008268797
150	0x3c3c7b96	0.011504075
151	0xbe94318f	-0.2894406
152	0x3d8f2ef0	0.069913745
153	0x3b9d7888	0.004805628
154	0xbd0f84a4	-0.035038605
155	0x3e0ed4e6	0.13948402
156	0xbd3214b5	-0.04347678
157	0xbe6ed9ab	-0.23325221
158	0xbdd6d2ae	-0.10489403
159	0xbd679ea4	-0.056547776
160	0x3d469892	0.048485346
161	0x3da2fd5b	0.0795848
162	0xbdc200d1	-0.09472812
163	0x3da0deda	0.078550056
164	0xbdd263a0	-0.10272908
165	0x3e1b3b13	0.15159254
166	0x3d1bd25e	0.03804242
167	0x3d965937	0.07341235
168	0xbe120449	-0.14259447
169	0x3e0f1e74	0.1397646
170	0x3c8c64bc	0.017137878
171	0xbd2ea63c	-0.042639002
172	0xbd03ba04	-0.03215982
173	0xbe0b9bd4	-0.13633662
174	0x3d5d6604	0.054052368
175	0xbc98b853	-0.01864258
176	0x3e3de804	0.18545538
177	0x3d9ee16c	0.077578396
178	0x3d2e2576	0.042516194
179	0xbdd4257b	-0.10358711
180	0x3d8cd76a	0.068770245
181	0x3dba616f	0.09100615
182	0x3cbce071	0.02305624
183	0x3d75e1f1	0.060029928
184	0x3d938f43	0.072050594
185	0xbd580888	-0.05274251
186	0x3d86bbda	0.065787986
187	0xbcbcd316	-0.023049872
188	0xbdef9fab	-0.11700376
189	0x3e21f6fc	0.15816873
190	0x3e9ca63f	0.30595586
191	0x3d9b4037	0.075806074
192	0x3d29d23d	0.041460264
193	0xbdcab5c4	-0.0989795
194	0x3e0e79f8	0.13913715
195	0x3da5f537	0.08103412
196	0xbde67088	-0.112519324
197	0xbe2b2b6a	-0.1671578
198	0x3e7add9d	0.24498601
199	0xba2363eb	-0.00062328455
200	0xbd15d9d6	-0.036584698
201	0xbe886fc2	-0.26647764
202	0x3c1921fd	0.009346482
203	0xbd98dfba	-0.074645475
204	0x3e19e082	0.15027049
205	0xbe77413b	-0.24145977
206	0x3e835665	0.2565185
207	0xbd88004d	-0.06640682
208	0xbd187ce9	-0.0372285
209	0x3d9b9b83	0.07598021
210	0x3d941687	0.07230859
211	0xbe0bdd8d	-0.13658734
212	0x3e2b2bf6	0.16715989
213	0xbe27dfac	-0.16393918
214	0xbdbc95dc	-0.09208271
215	0xba9c00ff	-0.0011902152
216	0x3e0a966e	0.13533947
217	0x3d80b960	0.062853575
218	0x3da09406	0.07840733
219	0xbda94803	-0.08265688
220	0xbe0199ef	-0.12656377
221	0xbe79b8da	-0.24386922
222	0x3ba68268	0.0050814636
223	0xbcb88d34	-0.022528268
224	0x3d58781d	0.052848924
225	0x3c18cd47	0.009326286
226	0x3e0a46ff	0.13503645
227	0x3d1469a8	0.036233574
228	0xbe25350f	-0.16133521
229	0xbd181dd2	-0.037137814
230	0xbda29976	-0.079394266
231	0x3da58a0c	0.08082971
232	0x3e36381d	0.17794843
233	0x3e1f7484	0.15571791
234	0xbc340a9b	-0.010988857
235	0x3cbff6d0	0.023433119
236	0x3caaaebf	0.020835279
237	0xbe3ac047	-0.1823741
238	0xbd101217	-0.0351735
239	0x3cd77a18	0.026303336
240	0x3d81ee93	0.063443325
241	0x3bd098bd	0.006365864
242	0x3e35a10e	0.17737219
243	0x3d3add68	0.045621306
244	0xbe401a1f	-0.18759964
245	0xbc2a58b8	-0.010397129
246	0xbe3f9787	-0.18710147
247	0x3d2b38f0	0.041802347
248	0x3d944333	0.0723938
249	0xbc4274d5	-0.011868675
250	0xbd716fb4	-0.05894442
251	0xbc9e1abf	-0.019299863
252	0x3ce3e04e	0.027816918
253	0x3e4e0d8d	0.20122357
254	0xbe731594	-0.237387
255	0xbcf85b71	-0.03031704

network_body._body_endoder.seq_layers.0.bias f4 [128]
0	0x00000000	0.0
1	0x00000000	0.0
2	0x00000000	0.0
3	0x00000000	0.0
4	0x00000000	0.0
5	0x00000000	0.0
6	0x00000000	0.0
7	0x00000000	0.0
8	0x00000000	0.0
9	0x00000000	0.0
10	0x00000000	0.0
11	0x00000000	0.0
12	0x00000000	0.0
13	0x00000000	0.0
14	0x00000000	0.0
15	0x00000000	0.0
16	0x00000000	0.0
17	0x00000000	0.0
18	0x00000000	0.0
19	0x00000000	0.0
20	0x00000000	0.0
21	0x00000000	0.0
22	0x00000000	0.0
23	0x00000000	0.0
24	0x00000000	0.0
25	0x00000000	0.0
26	0x00000000	0.0
27	0x00000000	0.0
28	0x00000000	0.0
29	0x00000000	0.0
30	0x00000000	0.0
31	0x00000000	0.0
32	0x00000000	0.0
33	0x00000000	0.0
34	0x00000000	0.0
35	0x00000000	0.0
36	0x00000000	0.0
37	0x00000000	0.0
38	0x00000000	0.0
39	0x00000000	0.0
40	0x00000000	0.0
41	0x00000000	0.0
42	0x00000000	0.0
43	0x00000000	0.0
44	0x00000000	0.0
45	0x00000000	0.0
46	0x00000000	0.0
47	0x00000000	0.0
48	0x00000000	0.0
49	0x00000000	0.0
50	0x00000000	0.0
51	0x00000000	0.0
52	0x00000000	0.0
53	0x00000000	0.0
54	0x00000000	0.0
55	0x00000000	0.0
56	0x00000000	0.0
57	0x00000000	0.0
58	0x00000000	0.0
59	0x00000000	0.0
60	0x00000000	0.0
61	0x00000000	0.0
62	0x00000000	0.0
63	0x00000000	0.0
64	0x00000000	0.0
65	0x00000000	0.0
66	0x00000000	0.0
67	0x00000000	0.0
68	0x00000000	0.0
69	0x00000000	0.0
70	0x00000000	0.0
71	0x00000000	0.0
72	0x00000000	0.0
73	0x00000000	0.0
74	0x00000000	0.0
75	0x00000000	0.0
76	0x00000000	0.0
77	0x00000000	0.0
78	0x00000000	0.0
79	0x00000000	0.0
80	0x00000000	0.0
81	0x00000000	0.0
82	0x00000000	0.0
83	0x00000000	0.0
84	0x00000000	0.0
85	0x00000000	0.0
86	0x00000000	0.0
87	0x00000000	0.0
88	0x00000000	0.0
89	0x00000000	0.0
90	0x00000000	0.0
91	0x00000000	0.0
92	0x00000000	0.0
93	0x00000000	0.0
94	0x00000000	0.0
95	0x00000000	0.0
96	0x00000000	0.0
97	0x00000000	0.0
98	0x00000000	0.0
99	0x00000000	0.0
100	0x00000000	0.0
101	0x00000000	0.0
102	0x00000000	0.0
103	0x00000000	0.0
104	0x00000000	0.0
105	0x00000000	0.0
106	0x00000000	0.0
107	0x00000000	0.0
108	0x00000000	0.0
109	0x00000000	0.0
110	0x00000000	0.0
111	0x00000000	0.0
112	0x00000000	0.0
113	0x00000000	0.0
114	0x00000000	0.0
115	0x00000000	0.0
116	0x00000000	0.0
117	0x00000000	0.0
118	0x00000000	0.0
119	0x00000000	0.0
120	0x00000000	0.0
121	0x00000000	0.0
122	0x00000000	0.0
123	0x00000000	0.0
124	0x00000000	0.0
125	0x00000000	0.0
126	0x00000000	0.0
127	0x00000000	0.0

network_body._body_endoder.seq_layers.2.weight f4 [128, 128]
0	0xb960c8de	-0.00021437134
1	0xbd247238	-0.04014799
2	0xbd057e13	-0.032590937
3	0xbda431c0	-0.080173016
4	0xbb0239cb	-0.0019870873
5	0xbdd28da5	-0.10280923
6	0xbd9a8d14	-0.0754644
7	0xbcc6555f	-0.02421063
8	0xbc9930ec	-0.018700086
9	0x3d7543e6	0.059879206
10	0x3d7bd2fe	0.061480515
11	0x3d828a6a	0.06374057
12	0x3d86e315	0.06586281
13	0xbd64e478	-0.055881947
14	0x3d4e302f	0.05033892
15	0xbe351c43	-0.17686562
16	0xbc7d1496	-0.015446803
17	0x3d0d3708	0.03447631
18	0x3ccdb03b	0.025108447
19	0xbd8e0b7e	-0.06935786
20	0xbe150e01	-0.14556123
21	0x3bd643d4	0.0065388475
22	0xbcfdfae6	-0.031003427
23	0xbe0561d9	-0.13025607
24	0x3c929fda	0.017898489
25	0x3cebe995	0.028797904
26	0xbe050fe6	-0.12994346
27	0x3e523203	0.2052689
28	0xbdaecf92	-0.08535685
29	0xbc257051	-0.010097579
30	0xbd777566	-0.060414694
31	0xbc72afca	-0.014812419
32	0xbe36cf12	-0.17852429
33	0xbcebdc8e	-0.028791692
34	0xbe0635a3	-0.13106398
35	0xbdbc9736	-0.09208529
36	0x3d110135	0.03540154
37	0xbdf0e183	-0.11761763
38	0xbdb8ee20	-0.09029794
39	0x3db85921	0.09001375
40	0xbdd11060	-0.102082014
41	0x3d89e952	0.067339554
42	0x3e1bec22	0.15226796
43	0x3c9fba16	0.019497912
44	0xbd851e33	-0.06499901
45	0x3d0c21ce	0.034211926
46	0xbe00b7fa	-0.12570181
47	0x3db83763	0.08994939
48	0xbdfc9c36	-0.12334482
49	0x3d116ed5	0.03550609
50	0x3e071151	0.131902
51	0xbc74a6e9	-0.014932373
52	0x3c48d55d	0.012257901
53	0xbe1c924b	-0.15290181
54	0xbda023b9	-0.078193136
55	0x3d7cab0e	0.061686568
56	0xbd85814b	-0.06518801
57	0xbca13b15	-0.019681493
58	0x3cd684e2	0.02618641
59	0x3e0b0a01	0.13578035
60	0x3ce225b8	0.027605876
61	0xbd8406a9	-0.06446583
62	0x3ca677a0	0.020320714
63	0xbe2ac4e9	-0.16676678
64	0xbe2f35cb	-0.17110364
65	0xbdc4e7b5	-0.09614507
66	0xbdf5b772	-0.1199788
67	0x3dcbd4c6	0.09952693
68	0xbbd432cf	-0.0064757834
69	0xbd6f1bd7	-0.05837616
70	0xbcbb84db	-0.022890499
71	0xbdeb727e	-0.11496447
72	0x3dd43b73	0.103629015
73	0x3da3e62b	0.080028854
74	0x3e41193d	0.18857284
75	0x3bdab87a	0.0066748234
76	0xbd6b025b	-0.057375293
77	0x3d4b39ed	0.04961579
78	0xbc5939b3	-0.0132583855
79	0x3ce03d88	0.02737309
80	0x3d4e73d3	0.050403427
81	0x3e25fe3c	0.16210264
82	0x3c871e7d	0.01649403
83	0xbdbb83c7	-0.09155994
84	0x3e2e1992	0.17001942
85	0xbd62626f	-0.055269655
86	0x3cbc9535	0.023020366
87	0xbac65aeb	-0.0015133297
88	0x3d1e1920	0.03859818
89	0xbc7573ba	-0.014981205
90	0xbc852f93	-0.016258037
91	0x3d510020	0.05102551
92	0x3d3212c6	0.043474935
93	0xbd1aac78	-0.037762135
94	0xbd546299	-0.051851843
95	0x3d0246d4	0.03180583
96	0xbdd89c46	-0.10576682
97	0x3cfbc85a	0.030735184
98	0x3cc60bac	0.024175487
99	0xbde93112	-0.113863125
100	0x3c8f2738	0.017474756
101	0xbd430ddf	-0.04762065
102	0xbddf3690	-0.10899079
103	0xbda8223c	-0.08209655
104	0xbe5c9a7b	-0.21543305
105	0x3d679b83	0.056544792
106	0xbe13f1ee	-0.14447758
107	0xbdfbf7bb	-0.1230311
108	0x3d3d8264	0.04626693
109	0xbe3104e4	-0.17287022
110	0x3b5983e0	0.0033190176
111	0x3e053770	0.13009429
112	0x3c9c388f	0.019069938
113	0xbd852603	-0.06501391
114	0xbd8459c7	-0.06462436
115	0xbd820808	-0.06349188
116	0x3d3bb24c	0.045824334
117	0x3d82215c	0.06354019
118	0xbc4221fc	-0.011848923
119	0x3e29d754	0.16586047
120	0xbd0eb8e9	-0.034844313
121	0x3e487549	0.1957599
122	0xbd58f05a	-0.052963592
123	0x3e28cc07	0.1648408
124	0x3d6368a1	0.055519704
125	0xbd99cec5	-0.07510141
126	0x3de12f21	0.10995317
127	0xbda0e872	-0.078568354
128	0x3d2e1e4c	0.042509362
129	0x3c4dffbc	0.012573179
130	0xbc05e567	-0.00817237
131	0x3e27ae53	0.16375093
132	0xbd576aa2	-0.052591927
133	0x3bc5cb0b	0.0060361675
134	0x3e190d6c	0.14946526
135	0xbd962e78	-0.07333082
136	0xbcbaa801	-0.022785189
137	0xbce0c565	-0.027437875
138	0x3c88136f	0.01661083
139	0x3d912ed6	0.07089011
140	0x3a801a79	0.0009773514
141	0xbda788de	-0.08180402
142	0x3d503d7a	0.05083988
143	0x3c8f7cdb	0.01751559
144	0xbd970994	-0.07374874
145	0x3dfa18a8	0.12211734
146	0xbc20b863	-0.009809586
147	0x3d95f30b	0.073217474
148	0xbb26e5dc	-0.0025466597
149	0xbd45c27f	-0.04828119
150	0x3dc2382e	0.09483372
151	0xbd8e38c6	-0.069444224
152	0xbc7053f4	-0.0146684535
153	0x3d6c5445	0.057697553
154	0xbcaff9d2	-0.021481428
155	0xbdb725b3	-0.089427374
156	0xbd427d22	-0.047482617
157	0x3cf08841	0.029361846
158	0x3d8f0960	0.0698421
159	0xbd4be8eb	-0.049782675
160	0x3b0ac8f9	0.0021176918
161	0x3de6adef	0.11263644
162	0xbe23f910	-0.16012979
163	0x3db154ab	0.08658727
164	0x3cd6460d	0.02615645
165	0x3c396bff	0.011317252
166	0x3d8aeadd	0.06783078
167	0x3d70d25a	0.058794357
168	0x3ddb7f92	0.107176915
169	0xbbe1b0b0	-0.006887518
170	0xbc06a727	-0.008218563
171	0x3ccc7a6b	0.024960717
172	0xbe67961c	-0.22615856
173	0xbc33e125	-0.010978972
174	0xbd680309	-0.05664352
175	0xbd8e6873	-0.06953516
176	0x3d9d5559	0.076822944
177	0xbd320695	-0.04346331
178	0xbdfe3e88	-0.12414271
179	0xbde3497f	-0.11098003
180	0x3e085352	0.13313034
181	0x3dd0d0be	0.101960644
182	0x3deba892	0.115067616
183	0x3c4ab45f	0.012372105
184	0x3cb5a86f	0.022175042
185	0x3cc7591f	0.024334488
186	0x3e013228	0.1261679
187	0x3d973831	0.073837645
188	0x3c996a99	0.018727588
189	0xbd8dd4e6	-0.06925373
190	0xbcb08836	-0.021549325
191	0xbd4ee50e	-0.050511412
192	0x3de03c34	0.10948983
193	0x3c95813b	0.018250098
194	0xbc93e51b	-0.018053582
195	0x3dffe7f8	0.124954164
196	0x3e001355	0.12507375
197	0xbce1efb7	-0.027580125
198	0x3d9abc47	0.07555442
199	0x3ce58af7	0.028020365
200	0x3d592f08	0.053023368
201	0x3dfaae3e	0.12240265
202	0xbc64f923	-0.013975414
203	0xbca3aa1c	-0.019978575
204	0x3e05b925	0.13058908
205	0x3dac238f	0.0840522
206	0xbe35204b	-0.176881
207	0xbcb794ec	-0.022409879
208	0x3cb1cd8a	0.021704454
209	0xbcad0adc	-0.021123342
210	0x3d8aaf79	0.0677175
211	0xbd7956fa	-0.060873963
212	0xbce53dd8	-0.027983591
213	0x3e29fa15	0.16599305
214	0x3dd5f86a	0.10447772
215	0x3db6279f	0.08894276
216	0xbdb94403	-0.09046175
217	0x3cea363f	0.02859032
218	0x3d9d5221	0.076816805
219	0x3ba3b0ec	0.004995456
220	0xbe28dd2d	-0.16490622
221	0xbdb9b42e	-0.0906757
222	0x3d96b76d	0.073592044
223	0xbe3d1269	-0.18464054
224	0x3d8ce9bb	0.06880518
225	0x3dbdcd1e	0.092676386
226	0x3e1641d7	0.14673553
227	0xbc8033dd	-0.01564973
228	0x3d9eddff	0.07757186
229	0xbca8cdfb	-0.020606032
230	0xbd1336cf	-0.03594094
231	0xbdc1569e	-0.09440349
232	0xbc5caf7c	-0.013469573
233	0x3e21c0bf	0.15796183
234	0x3d9352ea	0.07193549
235	0xbd0944f1	-0.033513013
236	0x3d5c1c4d	0.053737927
237	0x3ca51f21	0.020156445
238	0xbc23a528	-0.009988107
239	0xbde791b4	-0.113070875
240	0x3e182d67	0.1486107
241	0x3dacc1d4	0.08435407
242	0xbd178bea	-0.036998667
243	0xbc4dc4e0	-0.012559146
244	0xbba9693e	-0.0051700165
245	0xbdb23f62	-0.087034956
246	0x3d2862df	0.041109916
247	0xbdf411e5	-0.119174756
248	0x3d807169	0.06271631
249	0x3d7a9d22	0.06118501
250	0x3d558d2b	0.05213658
251	0x3cb8dd19	0.022566365
252	0xbcb71f8b	-0.022353908
253	0x3dc316cd	0.09525833
254	0xbe5cdb0e	-0.21567938
255	0xbe0fd5ee	-0.14046451
