results/phase4_t1/NPCAgent/NPCAgent-999996.onnx (onnx, 107855 bytes, 9 tensors)

action_model._continuous_distribution.log_sigma f4 [1, 2]
-0.04497048 0.045914244
00000000: f732 38bd 9310 3c3d

action_model._continuous_distribution.mu.bias f4 [2]
-0.0031306022 0.0037311972
00000000: ca2a 4dbb 1a87 743b

action_model._continuous_distribution.mu.weight f4 [2, 128]
-0.07308142 -0.01913576 0.0642188 -0.008809309 0.060609918 -0.023977082 -0.055617884 -0.01818935
-0.058313545 0.060206346 0.071078435 0.041221555 0.11876719 0.047592383 -0.057198834 0.13061698
0.010259114 0.023253813 0.08077891 0.02995263 0.102640085 -0.0766633 0.07182385 -0.07852599
-0.017378114 0.018678077 -0.037696227 0.085002564 -0.0109313065 0.09472868 -0.028340323 0.021445362
-0.049637992 0.06977976 0.03080546 0.021226818 0.08033135 -0.03606855 0.06361679 0.019559164
-0.038194228 0.04995817 0.037653968 -0.06765692 0.0033646168 0.05915482 -0.08967222 -0.057550855
0.0816691 -0.0050707213 0.04331523 0.07888073 0.053762913 0.085830085 0.037294805 -0.08315292
-0.049123015 -0.0036973509 0.05789144 -0.09627386 0.043251667 0.05968626 -0.030331843 0.0032236786
0.038460102 -0.035741057 0.11082939 -0.0042775194 -0.05501339 0.06565251 -0.0863962 0.032056674
-0.011787986 -0.06397849 -0.04294032 -0.05839287 -0.055268075 0.058008283 0.0041949414 -0.012731689
0.0053876 -0.015138621 0.024118645 -0.03412008 0.12711497 -0.07817953 -0.06802682 0.06739206
0.0101901265 -0.060905755 0.05089301 0.06361622 -0.013140889 0.079801574 0.04570011 0.072496675
0.037155606 0.05068373 -0.04351266 0.037550498 -0.034646757 0.111169234 -0.07140059 0.005935716
-0.09794832 -0.024288114 -0.07578967 0.105141416 -0.04807794 0.03546545 0.030658225 -0.017904218
0.07209384 -0.113363266 -0.09387291 -0.014413428 0.066424385 0.06312681 0.08577918 0.007464995
0.043339133 -0.032745734 0.0014404737 -0.05692735 -0.021912359 -0.078045286 -0.076247334 0.07379213
-0.013207447 -0.06383241 0.035397742 0.027697075 -0.019384198 0.013457776 0.112255566 -0.045275733
-0.009984857 -0.04829081 0.059778627 0.04475696 0.02478932 0.0038758996 -0.0011678988 0.01706544
0.04795365 -0.031826902 -0.02918111 0.0033362845 0.032100335 0.038153183 -0.052052435 -0.0148458965
0.027133076 -0.004986248 0.01723662 -0.005839027 0.05276171 -0.01472071 -0.06035487 -0.03314476
-0.043703143 -0.003299906 0.018796826 -0.03584338 0.073429875 -0.06499386 0.018389946 0.07794565
0.05949954 0.13042809 0.02697487 0.037079323 -0.016311916 0.025063269 0.049603 0.10240001
0.1048251 0.014459047 -0.050230507 0.035997786 0.01017327 -0.046884988 0.035953514 0.05984191
0.03597574 0.02417438 0.053596742 0.018986164 -0.03542827 0.03415966 -0.07882959 0.08231384
0.017285885 -0.014122276 -0.093878485 0.0488867 0.006035522 -0.03810065 -0.04628252 -0.015969338
-0.022895852 -0.005163349 0.045499388 0.0072484915 -0.012377713 -0.05065976 -0.005112969 0.008900152
-0.037800554 -0.06640849 -0.03387355 -0.036702193 0.040305167 -0.016983708 0.042257015 0.034921356
0.0027220373 0.08042343 0.050693493 0.004149737 0.0337524 -0.06556193 -0.0023505436 -0.02732158
0.018469496 -0.030772774 0.0051432033 0.066537105 -0.08189426 0.0566254 0.030996062 -0.0007034339
0.016959136 0.004477597 -0.008512723 -0.0061128424 0.019090638 -0.001610985 -0.10276959 -0.101850666
0.037942 -0.095156804 0.05998114 -0.091402575 -0.020374104 0.0305497 0.005065853 -0.060802467
-0.0062250295 0.06313365 0.016266573 0.024357444 -0.06771036 -0.014241111 0.054843854 0.039838437
00000000: b6ab 95bd 99c2 9cbc 2585 833d ec54 10bc
00000010: 1b42 783d 966b c4bc 94cf 63bd d501 95bc
00000020: 2fda 6ebd ee9a 763d 9291 913d efd7 283d
00000030: 363c f33d 3bf0 423d 5349 6abd 75c0 053e
00000040: d815 283c c87e be3c 6a6f a53d 385f f53c
00000050: f734 d23d a601 9dbd 6218 933d 3cd2 a0bd
00000060: 8c5c 8ebc c402 993c 5c67 1abd d315 ae3d
00000070: 3919 33bc 1c01 c23d f729 e8bc 2fae af3c
00000080: 3551 4bbd b1e8 8e3d bb5b fc3c dde3 ad3c
00000090: c384 a43d 9ebc 13bd 8549 823d 8a3a a03c
000000a0: 8d71 1cbd f0a0 4c3d 0c3b 1a3d b68f 8abd
000000b0: e780 5c3b 534c 723d 12a6 b7bd 72ba 6bbd
000000c0: 2142 a73d 4b28 a6bb 506b 313d 388c a13d
000000d0: 8036 5c3d afc7 af3d 70c2 183d 144c aabd
000000e0: 3735 49bd 414f 72bb 931f 6d3d 3b2b c5bd
000000f0: a928 313d 9479 743d 7c7a f8bc 5a44 533b
00000100: 5788 1d3d 3765 12bd 85fa e23d 6f2a 8cbb
00000110: b855 61bd d374 863d 7ef0 b0bd dc4d 033d
00000120: 6622 41bc 2807 83bd 30e2 2fbd 5d2d 6fbd
00000130: c760 62bd 189a 6d3d b875 893b 9398 50bc
00000140: 778a b03b fb07 78bc 7794 c53c 7fc1 0bbd
00000150: 6d2a 023e 971c a0bd a551 8bbd d904 8a3d
00000160: 7df4 263c 5078 79bd 3075 503d 3949 823d
00000170: e24c 57bc 026f a33d 0a30 3b3d 2379 943d
00000180: 7a30 183d be99 4f3d 553a 32bd 8dce 193d
00000190: c2e9 0dbd b2ac e33d 793a 92bd 6580 c23b
000001a0: 2199 c8bd def7 c6bc 9d37 9bbd 6254 d73d
000001b0: 60ed 44bd 3844 113d f526 fb3c deab 92bc
000001c0: efa5 933d 002b e8bd 7140 c0bd 4c26 6cbc
000001d0: 8209 883d a148 813d ffac af3d eb9c f43b
000001e0: 6084 313d 6420 06bd 47ce bc3a a72c 69bd
000001f0: 8c81 b3bc 35d6 9fbd 9027 9cbd 5420 973d
00000200: 0c64 58bc 91ba 82bd 39fd 103d fae4 e23c
00000210: 9ccb 9ebc 017e 5c3c 3fe6 e53d 0c73 39bd
00000220: 8797 23bc 96cc 45bd 6fda 743d 1353 373d
00000230: f912 cb3c ce02 7e3b 2e14 99ba d2cc 8b3c
00000240: 0c6b 443d ed5c 02bd 390d efbc 91a5 5a3b
00000250: a47b 033d 8346 1c3d ef34 55bd 343c 73bc
00000260: 2f46 de3c ae63 a3bb d033 8d3c 4f55 bfbb
00000270: aa1c 583d 222f 71bc ab36 77bd cdc2 07bd
00000280: 1102 33bd 3c43 58bb cdfb 993c 82d0 12bd
00000290: 6762 963d 801b 85bd 83a6 963c f8a1 9f3d
000002a0: cab5 733d f18e 053e 67fa dc3c 7de0 173d
000002b0: 91a0 85bc 7c51 cd3c 842c 4b3d 19b7 d13d
000002c0: 8bae d63d a3e5 6c3c 81be 4dbd 6a72 133d
000002d0: c9ad 263c 790a 40bd fe43 133d ca1c 753d
000002e0: 4c5b 133d 5909 c63c 4288 5b3d df88 9b3c
000002f0: 3c1d 11bd 00eb 0b3d 6871 a1bd 2994 a83d
00000300: 219b 8d3c 1e61 67bc 5d43 c0bd 6c3d 483d
00000310: a1c5 c53b 6d0f 1cbd bd92 3dbd 21d2 82bc
00000320: 1590 bbbc 5031 a9bb 915d 3a3d c184 ed3b
00000330: e4cb 4abc 9c80 4fbd b18a a7bb f1d1 113c
00000340: c1d4 1abd 2d01 88bd febe 0abd 0a55 16bd
00000350: 0817 253d 6b21 8bbc b115 2d3d b209 0f3d
00000360: 3564 323b 0ab5 a43d fba3 4f3d 84fa 873b
00000370: f53f 0a3d 5545 86bd 940b 1abb 82d1 dfbc
00000380: 574d 973c 2f17 fcbc 5188 a83b 9b44 883d
00000390: 2eb8 a7bd 09f0 673d 74eb fd3c a666 38ba
000003a0: e3ed 8a3c ceb8 923b f378 0bbc 3d4e c8bb
000003b0: f863 9c3c b027 d3ba dd78 d2bd 1597 d0bd
000003c0: 1269 1b3d 92e1 c2bd c9ae 753d 4631 bbbd
000003d0: 98e7 a6bc 5d43 fa3c 74ff a53b 020c 79bd
000003e0: 55fb cbbb 374c 813d 7a41 853c 4389 c73c
000003f0: bbab 8abd 8d53 69bc f3a3 603d a12d 233d

action_model._discrete_distribution.branches.0.bias f4 [2]
0.027653588 -0.027653584
00000000: c789 e23c c589 e2bc

action_model._discrete_distribution.branches.0.weight f4 [2, 128]
-0.041162875 0.01665946 -0.041558214 -0.042566907 -0.015340732 0.04659822 -0.0622562 0.040113356
-0.07699097 0.032504667 0.09684999 0.06039662 -0.054701418 0.08765182 0.07376412 -0.06351447
-0.05394824 0.08246144 -0.0011170905 0.06048588 0.0703301 0.07411112 0.050384685 -0.09329873
0.10169359 0.08147058 -0.052489933 0.048664782 0.021505143 -0.0037921844 -0.0055882353 -0.06612259
0.027232978 0.0651904 0.11237711 -0.057756018 0.11582848 -0.09018968 0.072601326 -0.08127047
0.09611731 0.008992734 -0.04707677 0.028664997 -0.016670348 0.12108507 -0.07608335 -0.0064390264
0.008714561 0.088162705 0.024735317 -0.03606185 0.06199937 0.0597725 -0.07715439 0.042369165
-0.06977833 0.078826346 0.034958687 -0.050624043 -0.056730215 -0.08776279 0.015094158 -0.030230382
0.06668771 0.07249208 0.012152533 -0.06283811 0.08602741 0.084693685 0.0018541925 -0.054306097
0.08379499 0.023156393 0.05867763 -0.036446914 0.05829839 -0.067523085 0.050168093 0.06323596
0.03542972 0.026488591 0.10319908 -0.055026963 0.100777805 0.050194897 -0.075213395 -0.08665601
0.043287177 -0.03541221 0.09216692 0.052269425 0.08490945 0.031109143 0.07298864 0.03380272
0.07140293 0.074672796 0.058792844 -0.081165396 -0.0007362739 -0.042595375 -0.034496192 -0.006558104
0.05302865 0.11888036 0.042615276 0.08542491 -0.095237866 -0.0026545154 -0.03491809 -0.07751078
-0.044053327 0.04938216 -0.11660867 -0.054989077 -0.007397403 -0.048928957 -0.07117383 -0.061547086
0.104562074 0.090248615 0.08194568 0.07921305 -0.040516526 0.022532381 -0.07569749 0.083307184
0.037165955 -0.020243036 0.04062095 0.020211603 0.008327514 -0.06368611 0.061885454 -0.038564682
0.07543228 -0.03068974 -0.09180976 -0.053327583 0.051194165 -0.103986666 -0.07972937 0.05496495
0.048503175 -0.060871866 -0.0021933997 -0.035636887 -0.06679987 -0.06801546 -0.07521692 0.09123871
-0.06702816 -0.070827365 0.05035834 -0.054374993 -0.018215803 0.0016781994 0.0012655439 0.050275266
-0.04268217 -0.081406 -0.107617065 0.063309096 -0.13878211 0.08056746 -0.08460473 0.07681858
-0.11333117 -0.0020109334 0.0414296 -0.043606382 0.013082636 -0.11946575 0.056965485 -0.0057544285
0.009433497 -0.08913212 -0.031668678 0.063919134 -0.0815878 -0.07562711 0.0819926 -0.047037177
0.07008202 -0.06553688 -0.04249938 0.058630455 0.054347463 0.09537055 -0.025532316 0.018609744
-0.06394958 -0.079411745 -0.014770315 0.047062233 -0.092268646 -0.0900219 0.0031810936 0.05838192
-0.08523146 -0.021669395 -0.04844499 0.043192532 -0.05287128 0.05164265 -0.060029022 -0.08391971
-0.024315158 -0.021242946 -0.09154186 0.053781655 -0.11863212 -0.05264684 0.070027485 0.06794639
-0.02372119 0.04693918 -0.09857409 -0.038485687 -0.10201201 -0.05352087 -0.07557342 -0.047166012
-0.07264747 -0.043452393 -0.056413643 0.061087195 0.012844552 0.037719667 0.033974793 0.012169229
-0.044292208 -0.115401596 -0.046592653 -0.089655474 0.10640083 0.021503542 0.032875158 0.084787026
0.054906256 -0.051778458 0.10223579 0.04890224 0.017146373 0.059579436 0.08268562 0.05419092
-0.07099508 -0.07678063 -0.06917608 -0.07665414 0.037237797 -0.022976946 0.098597676 -0.10500791
00000000: 679a 28bd 6b79 883c f238 2abd a35a 2ebd
00000010: b257 7bbc c6dd 3e3d 5b00 7fbd e74d 243d
00000020: 71ad 9dbd 9d23 053d 4a59 c63d 7262 773d
00000030: 980e 60bd cc82 b33d a511 973d e013 82bd
00000040: d4f8 5cbd 8be1 a83d 566b 92ba 0bc0 773d
00000050: 3a09 903d 92c7 973d 2c60 4e3d 6813 bfbd
00000060: bb44 d03d 0cda a63d afff 56bd b954 473d
00000070: 8e2b b03c 4c86 78bb 841d b7bb 486b 87bd
00000080: b217 df3c 8b82 853d f825 e63d 9391 6cbd
00000090: 7b37 ed3d 5eb5 b8bd 01b0 943d 2271 a6bd
000000a0: 27d9 c43d 4356 133c 92d3 40bd dbd2 ea3c
000000b0: 4190 88bc 73fb f73d 96d1 9bbd 78fe d2bb
000000c0: 85c7 0e3c a68e b43d b8a1 ca3c 97b5 13bd
000000d0: 0df3 7d3d 02d4 743d 1f03 9ebd 4a8b 2d3d
000000e0: f1e7 8ebd b56f a13d d730 0f3d 285b 4fbd
000000f0: f15d 68bd fabc b3bd 7d4d 773c b5a5 f7bc
00000100: 9193 883d ba76 943d 6b1b 473c 44b1 80bd
00000110: 242f b03d e273 ad3d 6008 f33a 1270 5ebd
00000120: b59c ab3d 7ab2 bd3c f457 703d 5c49 15bd
00000130: 4bca 6e3d 8b49 8abd 0f7d 4d3d db81 813d
00000140: c11e 113d 9afe d83c 0a5a d33d f463 61bd
00000150: 9864 ce3d 2a99 4d3d 7b09 9abd b578 b1bd
00000160: e54d 313d 650c 11bd 03c2 bc3d 7718 563d
00000170: 01e5 ad3d 9ad8 fe3c 117b 953d b974 0a3d
00000180: b33b 923d 0dee 983d c4d0 703d 0b3a a6bd
00000190: 8102 41ba 7d78 2ebd e14b 0dbd 5de5 d6bb
000001a0: 9234 593d 8c77 f33d 5b8d 2e3d 41f3 ae3d
000001b0: 120c c3bd 61f7 2dbb 4506 0fbd f9bd 9ebd
000001c0: 4371 34bd f344 4a3d 87d0 eebd 3a3c 61bd
000001d0: ea65 f2bb bb69 48bd 96c3 91bd cc18 7cbd
000001e0: a424 d63d 44d4 b83d 23d3 a73d 743a a23d
000001f0: a8f4 25bd d495 b83c 4907 9bbd f59c aa3d
00000200: 543b 183d b9d4 a5bc 2762 263d ce92 a53c
00000210: 2070 083c dd6d 82bd 9a7b 7d3d 00f6 1dbd
00000220: 3d7c 9a3d 0d69 fbbc c106 bcbd 066e 5abd
00000230: f9b0 513d f6f6 d4bd 2749 a3bd ed22 613d
00000240: 44ab 463d c754 79bd 24bf 0fbb fcf7 11bd
00000250: 5fce 88bd b14b 8bbd 540b 9abd 5cdb ba3d
00000260: 0f46 89bd f00d 91bd 8c44 4e3d 50b8 5ebd
00000270: 4f39 95bc 07f7 db3a 9be0 a53a 70ed 4d3d
00000280: 80d3 2ebd 30b8 a6bd 5666 dcbd 33a8 813d
00000290: e61c 0ebe 8d00 a53d 3f45 adbd 0f53 9d3d
000002a0: 2c1a e8bd ddc9 03bb 16b2 293d 9b9c 32bd
000002b0: 8d58 563c 76aa f4bd a454 693d a58f bcbb
000002c0: f48e 1a3c e78a b6bd 04b7 01bd 09e8 823d
000002d0: 8117 a7bd 63e2 9abd bceb a73d 0eaa 40bd
000002e0: 2987 8f3d 3338 86bd d413 2ebd 7d26 703d
000002f0: 729b 5e3d a351 c33d 2629 d1bc 7673 983c
00000300: fff7 82bd a0a2 a2bd 31ff 71bc 54c4 403d
00000310: 58f7 bcbd 675d b8bd e579 503b e121 6f3d
00000320: d58d aebd 0484 b1bc 416e 46bd a7ea 303d
00000330: 8e8f 58bd 3e87 533d fee0 75bd 19de abbd
00000340: 9530 c7bc b005 aebc 4c7a bbbd 274a 5c3d
00000350: 66f5 f2bd 37a4 57bd 926a 8f3d 7a27 8b3d
00000360: f152 c2bc 4c43 403d 36e1 c9bd 2ba3 1dbd
00000370: aceb d0bd b338 5bbd 3dc6 9abd 2631 41bd
00000380: 32c8 94bd 23fb 31bd fe11 67bd 9136 7a3d
00000390: f571 523c f07f 1a3d 2729 0b3d 7261 473c
000003a0: bf6b 35bd ac57 ecbd f0d7 3ebd 4a9d b7bd
000003b0: aee8 d93d 3228 b03c 1aa8 063d d2a4 ad3d
000003c0: 62e5 603d a615 54bd ff60 d13d b74d 483d
000003d0: 8d76 8c3c 9109 743d 1457 a93d 4cf7 5d3d
000003e0: de65 91bd 2a3f 9dbd 30ac 8dbd d9fc 9cbd
000003f0: a986 183d 263a bcbc 94ed c93d 630e d7bd

network_body._body_endoder.seq_layers.0.bias f4 [128]
0.0045278403 0.05305583 0.015251755 0.02251903 0.011482251 0.039290387 0.0124191595 0.06238925
0.0002590799 0.02871172 0.03825765 0.047780182 0.056276288 0.012198733 0.03855485 0.03130842
0.02282186 0.020929607 0.010440671 0.017458927 0.008047324 0.018049622 0.01125255 0.0041912585
0.006701608 0.035095613 0.018669482 0.056807805 0.01306476 0.039398737 0.024949865 0.020720994
0.051252592 0.06093619 0.0115608545 0.038695775 0.04234602 -0.0018159306 0.024359379 0.009644349
-0.02576025 0.019993456 0.032445777 0.021052567 0.035698485 -0.024664462 -0.009357107 0.017822398
0.021463322 0.032901853 0.031451825 0.049477704 0.023177287 0.061672676 0.021408515 0.020514203
0.028538391 0.00010738359 -0.016433118 0.024908686 0.021108598 0.04085817 0.012311612 0.018350106
0.01133164 -0.016202623 0.01945508 0.031920884 0.019342925 0.024771117 0.020311499 0.019130556
0.010461782 0.011331978 -0.0008189604 0.0007254577 0.00948679 0.023852263 -0.04870403 0.03236455
0.027461344 0.009493111 0.044767983 -0.0073397597 0.045801234 0.03276176 0.034695428 0.02254095
0.03801933 0.022064928 0.011571127 0.0316457 0.0074662264 0.022162108 0.014222594 0.02210763
0.025925169 0.04852155 0.041709743 0.013346161 0.026714275 0.040042967 0.033802573 0.022436455
0.021999583 0.01726063 0.025774803 0.008475165 0.029092183 7.0793685e-05 0.013072633 0.0049247127
0.022796765 0.019552743 0.034339078 0.04425614 0.057896364 0.017076667 0.019032942 0.022732837
0.05432147 0.015990729 0.05362592 0.01574948 -0.035228238 0.030339997 0.028730571 0.041398413
00000000: 475e 943b 1251 593d 7fe2 793c d479 b83c
00000010: 0d20 3c3c f5ee 203d bb79 4b3c df8b 7f3d
00000020: 1ed5 8739 d734 eb3c 0eb4 1c3d 27b5 433d
00000030: f781 663d 32dd 473c b1eb 1d3d 423d 003d
00000040: e9f4 ba3c 9174 ab3c 590f 2b3c 0606 8f3c
00000050: ecd8 033c cddc 933c 9e5c 383c d356 893b
00000060: 2a99 db3b 6bc0 0f3d bef0 983c 4daf 683d
00000070: 930d 563c 9260 213d a963 cc3c 13bf a93c
00000080: 3dee 513d 3a98 793d bd69 3d3c 767f 1e3d
00000090: 0573 2d3d 8504 eeba 528d c73c 5503 1e3c
000000a0: 2907 d3bc 51c9 a33c dde5 043d 6f76 ac3c
000000b0: 9338 123d 200d cabc 8d4e 19bc 4700 923c
000000c0: d9d3 af3c 18c4 063d a1d3 003d 22a9 4a3d
000000d0: 4bde bd3c 7d9c 7c3d e960 af3c 670d a83c
000000e0: 58c9 e93c 2033 e138 bf9e 86bc 4d0d cc3c
000000f0: f0eb ac3c e55a 273d a5b6 493c f652 963c
00000100: 58a8 393c 5dbb 84bc 4360 9f3c 79bf 023d
00000110: 0e75 9e3c ccec ca3c 4d64 a63c afb7 9c3c
00000120: e567 2b3c c3a9 393c 81af 56ba a42c 3e3a
00000130: 7b6e 1b3c d265 c33c e17d 47bd b190 043d
00000140: 9df6 e03c fe88 1b3c a25e 373d 5e82 f0bb
00000150: 139a 3b3d 3231 063d cb1c 0e3d cca7 b83c
00000160: 28ba 1b3d 82c1 b43c d394 3d3c ec9e 013d
00000170: 3fa7 f43b 4f8d b53c e205 693c 0f1b b53c
00000180: 0561 d43c 88be 463d d6d7 2a3d dba9 5a3c
00000190: e5d7 da3c 1804 243d 9174 0a3d a8cc b73c
000001a0: 7838 b43c 2a66 8d3c ae25 d33c 6bdb 0a3c
000001b0: bb52 ee3c 1277 9438 992e 563c 7c5f a13b
000001c0: 48c0 ba3c 132d a03c 22a7 0c3d ed45 353d
000001d0: bd24 6d3d 5ee4 8b3c f9ea 9b3c 373a ba3c
000001e0: 3180 5e3d fdfe 823c daa6 5b3d 0e05 813c
000001f0: 7c4b 10bd 968b f83c 605c eb3c 6291 293d

network_body._body_endoder.seq_layers.0.weight f4 [128, 71]
0.17162895 0.05868788 0.20797385 0.025840243 0.04579223 0.297153 0.032007504 -0.06250595
0.13552094 0.002323297 0.06266969 0.20053674 0.008062422 0.048191864 0.13781366 -0.10843791
0.14733972 0.010377013 -0.062088065 -0.15798292 -0.040486027 0.00094572554 -0.14509226 0.0026686261
0.08296196 0.058497548 -0.24391946 -0.056113005 0.13944791 -0.31158617 0.07737279 0.030294891
0.26871285 0.04674292 -0.07707469 -0.014997721 0.2654937 -0.085601926 0.012983858 0.088608444
-0.0013650229 -0.10876441 -0.161859 0.1896057 0.20182228 0.046811566 0.15155873 -0.0018567952
-0.22977437 0.0509135 -0.00095757184 0.10508127 -0.05501535 0.21346343 -0.15990748 -0.0860752
0.2372654 -0.08422069 -0.09568348 -0.10213373 -0.12907271 -0.083876275 -0.05127082 -0.2838554
-0.08914666 -0.018735513 0.21207885 -0.006487358 0.035246216 0.06098877 -0.0018111564 -0.062164787
0.06099739 0.045284808 -0.09825409 -0.034529097 0.074619114 -0.07720944 -0.10066349 -0.02343149
0.08288831 -0.05612907 -0.13396835 -0.07582113 -0.095038086 0.018106168 0.10185072 0.024348235
-0.26141956 0.13300924 0.0794092 0.06851069 -0.048366375 -0.06793653 0.21477044 0.06630107
-0.007478192 -0.058926575 -0.12167249 -0.097009405 0.1128265 -0.16784662 0.20241418 0.05671578
-0.077456065 -0.114231385 0.14252293 0.107495315 0.12161004 0.029523322 -0.084649086 0.07512801
0.28940755 -0.07554996 -0.079531945 0.100393906 0.24242346 0.0811427 -0.059404515 0.35889196
-0.22820751 -0.09657226 -0.042125355 -0.0505516 0.017711949 -0.001185666 0.28840888 -0.039957553
-0.2935426 0.12790345 -0.09097411 -0.17011666 0.26475656 0.24171047 0.24801457 -0.2688972
-0.016223684 -0.012818209 0.11835896 -0.09995796 -0.06768434 -0.089962035 -0.15355392 -0.14752987
0.06074865 -0.02319958 -0.1810645 0.02312686 -0.15887854 0.021985568 0.20668428 0.04350749
0.37334508 -0.038177166 -0.11790043 0.16588159 -0.06880321 -0.06682087 0.02164527 0.066079095
0.09828608 -0.13678753 0.17814848 0.051966287 -0.08126665 0.014224835 -0.07803641 0.06921504
-0.20252061 -0.16817753 0.23627795 0.26091033 -0.075055756 -0.1018087 0.094047114 -0.012193217
0.05314599 0.00307732 -0.064193614 -0.087119624 0.22443809 -0.048832227 -0.025330372 0.15905468
-0.012524427 0.2098537 0.0753367 0.09053495 0.17869933 0.13877079 0.121995695 0.21023016
-0.1338467 -0.15869558 0.10554508 -0.16893484 0.22627471 0.029718416 0.06694013 -0.242279
-0.008282636 0.13078333 -0.14677231 0.26785362 0.01795059 0.35427222 -0.25010857 0.09330166
-0.06303299 0.15662232 -0.00058195717 0.21791913 0.19502561 -0.14059147 0.054623384 -0.07278022
0.0028620535 -0.03774421 0.1263609 -0.14839084 -0.0021431611 0.15613689 0.05083264 -0.012049934
-0.0009164736 -0.1947977 0.20592944 -0.021000307 -0.008267763 -0.17384936 -0.018127574 -0.15102078
-0.042914987 -0.12274869 0.0197334 -0.006051967 0.33190748 -0.14281146 0.017435059 -0.11579346
-0.12947266 -0.2735677 0.03823786 0.17667589 0.0019903183 -0.061222114 0.005185666 -0.09496034
0.06821671 -0.001753193 0.12991378 0.087975785 0.18113647 0.16536906 0.11679074 0.029783426
00000000: 80bf 2f3e b462 703d 19f7 543e ebae d33c
00000010: a290 3b3d 7024 983e 4d1a 033d 1f03 80bd
00000020: 00c6 0a3e 7542 183b f758 803d 8159 4d3e
00000030: 4018 043c d564 453d 061f 0d3e b214 debd
00000040: 39e0 163e 5904 2a3c 0e50 7ebd 46c6 21be
00000050: add4 25bd 91ea 773a 1193 14be 1ee4 2e3b
00000060: f6e7 a93d 209b 6f3d 06c6 79be c0d6 65bd
00000070: 6fcb 0e3e 3988 9fbe a075 9e3d fe2c f83c
00000080: bb94 893e 8175 3f3d 56d9 9dbd 00b9 75bc
00000090: caee 873e 1050 afbd 3fba 543c 5878 b53d
000000a0: 91ea b2ba e0bf debd 5ebe 25be ff27 423e
000000b0: 80aa 4e3e 7cbd 3f3d 3632 1b3e b55f f3ba
000000c0: f949 6bbe ad8a 503d 8f05 7bba d934 d73d
000000d0: c757 61bd 2896 5a3e c9be 23be 3248 b0bd
000000e0: b3f5 723e e67b acbd b3f5 c3bd 7d2b d1bd
000000f0: a32b 04be 53c7 abbd 5a01 52bd 7f55 91be
00000100: 8692 b6bd 387b 99bc 332b 593e e793 d4bb
00000110: 565e 103d 5ccf 793d 5364 edba 81a0 7ebd
00000120: 66d8 793d 907c 393d 7139 c9bd 626e 0dbd
00000130: e8d1 983d fc1f 9ebd a928 cebd 65f3 bfbc
00000140: 59c1 a93d 99e7 65bd 002f 09be 1c48 9bbd
00000150: 54a3 c2bd 6353 943c 1c97 d03d f375 c73c
00000160: c9d8 85be 9333 083e 4aa1 a23d 554f 8c3d
00000170: d21b 46bd 4f22 8bbd c8ec 5b3e dbc8 873d
00000180: 9f0b f5bb fe5c 71bd 6d2f f9bd deac c6bd
00000190: 9411 e73d fcdf 2bbe aa45 4f3e ce4e 683d
000001a0: 49a1 9ebd 25f2 e9bd 88f1 113e 8126 dc3d
000001b0: af0e f93d e5da f13c 805c adbd b7dc 993d
000001c0: 3a2d 943e f0b9 9abd a5e1 a2bd 529b cd3d
000001d0: db3d 783e 252e a63d 2652 73bd b0c0 b73e
000001e0: 3baf 69be adc7 c5bd a38b 2cbd 320f 4fbd
000001f0: a618 913c 5968 9bba 54aa 933e 88aa 23bd
00000200: 374b 96be 1ff9 023e a250 babd 1033 2ebe
00000210: 2c8e 873e f382 773e 88f7 7d3e e5ac 89be
00000220: 88e7 84bc 7703 52bc 2f66 f23d c2b6 ccbd
00000230: 169e 8abd 043e b8bd 3d3d 1dbe 1212 17be
00000240: 94d3 783d 0c0d bebc f968 39be 8a74 bd3c
00000250: 0eb1 22be 141b b43c 0ba5 533e e934 323d
00000260: 1627 bf3e a95f 1cbd c875 f1bd dddc 293e
00000270: b3e8 8cbd 61d9 88bd 6c51 b13c 7a54 873d
00000280: 364a c93d 0812 0cbe 8e6c 363e 9ada 543d
00000290: 216f a6bd 480f 693c 8ed1 9fbd 9dc0 8d3d
000002a0: 9061 4fbe bb36 2cbe d9f2 713e 0a96 853e
000002b0: d5b6 99bd 1481 d0bd c69b c03d 0fc6 47bc
000002c0: 9caf 593d ddac 493b f177 83bd c66b b2bd
000002d0: 19d3 653e 4d04 48bd a481 cfbc 3bdf 223e
000002e0: 4133 4dbc e3e3 563e 214a 9a3d 636a b93d
000002f0: f5fc 363e ee19 0e3e e1d8 f93d 9346 573e
00000300: 1c0f 09be 1881 22be 0528 d83d 41fd 2cbe
00000310: 8fb4 673e 0974 f33c e817 893d fc17 78be
00000320: e5b3 07bc 11ec 053e 7b4b 16be 1c24 893e
00000330: 1e0d 933c 2b63 b53e 3b0e 80be f114 bf3d
00000340: 7117 81bd 9a61 203e 7c8e 18ba 3126 5f3e
00000350: cbb4 473e 36f7 0fbe c5bc 5f3d cc0d 95bd
00000360: 4a91 3b3b ac99 1abd c064 013e c5f3 17be
00000370: 4774 0cbb 59e2 1f3e e335 503d 166d 45bc
00000380: 813f 70ba 0c79 47be 2bdf 523e d608 acbc
00000390: 8375 07bc 9105 32be 4780 94bc 31a5 1abe
000003a0: a0c7 2fbd aa63 fbbd f0a7 a13c 944f c6bb
000003b0: c7ef a93e 2b3d 12be f8d3 8e3c 1f25 edbd
000003c0: 7b94 04be 1111 8cbe 4d9f 1c3d 86ea 343e
000003d0: 0070 023b 0ac4 7abd 85ec a93b 917a c2bd
000003e0: 34b5 8b3d 65cb e5ba 1e08 053e a62c b43d
000003f0: d77b 393e 8256 293e fc2f ef3d 5ffc f33c

network_body._body_endoder.seq_layers.2.bias f4 [128]
0.015860269 0.0036671793 0.016947836 0.012751124 -0.0015531055 0.009759091 0.024581859 0.003569921
0.024774112 0.0043307627 0.019736214 0.006497639 0.04377815 0.0034325204 0.013332796 0.018354928
0.019467322 0.01419658 0.02183913 0.00077279255 0.0064888387 0.009919101 0.0016102995 0.02397063
0.0097796675 0.014294467 0.026593018 0.010125542 0.022462444 0.015912605 0.0030710506 0.00066714606
0.012778063 0.0127621265 0.02739413 -0.0018617102 0.015220026 0.028409094 0.01006668 0.041977555
0.033070855 0.021349784 0.018596077 0.00986782 -0.009543741 0.015664766 0.052719854 0.023754155
0.019702867 0.023047725 0.0063248468 0.0185459 0.009120292 0.011504599 0.029083895 0.022204978
0.019400045 0.018487755 0.0047920486 0.032937806 0.023385515 0.016116476 0.013231393 0.01798097
0.006296763 0.015322035 0.014790104 0.029412877 0.014854805 0.017732956 0.015294667 -0.00046481218
0.025325878 0.012428247 0.01032113 -0.0022501159 -0.0025537573 0.005088095 0.00346558 0.014704791
0.0010481097 0.006860777 0.017420897 0.00340288 0.016682059 0.019796582 0.026963027 0.014025801
-0.0017646211 0.02517774 0.013551643 0.006734731 0.019382594 0.00859166 0.009019667 0.011132055
0.0015754487 0.0033054838 0.007807284 0.03980592 0.010529186 0.023272788 0.012795871 -0.006367712
0.028659364 0.019081874 0.011297982 0.014521134 0.015139728 0.010805736 0.024609875 0.024604756
0.021228613 0.019475609 0.012499584 0.02914848 0.0056282696 0.014898114 0.01969657 0.018007658
0.0057813404 0.014981677 0.009825935 0.024816282 0.032297652 0.017496852 0.026588378 0.011265484
00000000: 65ed 813c 0f55 703b 30d6 8a3c 17ea 503c
00000010: 9391 cbba 98e4 1f3c e55f c93c 56f5 693b
00000020: 14f3 ca3c 12e9 8d3b d7ad a13c 26ea d43b
00000030: b850 333d 23f4 603b cd71 5a3c 135d 963c
00000040: ef79 9f3c c698 683c fae7 b23c 3b95 4a3a
00000050: 53a0 d43b ba83 223c af10 d33a 0e5e c43c
00000060: e63a 203c 5733 6a3c 9ad9 d93c 9ae5 253c
00000070: 2903 b83c 275b 823c ae43 493b 6ae3 2e3a
00000080: 155b 513c 3d18 513c a869 e03c a104 f4ba
00000090: 6a5d 793c 30ba e83c b7ee 243c a8f0 2b3d
000000a0: 4e75 073d bee5 ae3c cd56 983c a3ac 213c
000000b0: 5a5d 1cbc 6553 803c c6f0 573d 1398 c23c
000000c0: e867 a13c 95ce bc3c a940 cf3b 92ed 973c
000000d0: 476d 153c c97d 3c3c 5941 ee3c 37e7 b53c
000000e0: d8ec 9e3c a273 973c 9e06 9d3b cbe9 063d
000000f0: fb92 bf3c b306 843c 7cc8 583c d44c 933c
00000100: 1455 ce3b 4609 7b3c 3152 723c 46f3 f03c
00000110: 9161 733c b444 913c 7c96 7a3c 09b2 f3b9
00000120: 3778 cf3c d99f 4b3c f519 293c ae76 13bb
00000130: f05c 27bb 09ba a63b c91e 633b 5dec 703c
00000140: ba60 893a 5ed0 e03b 45b6 8e3c da02 5f3b
00000150: d0a8 883c 712c a23c 91e1 dc3c 79cc 653c
00000160: dc4a e7ba 8c41 ce3c b607 5e3c 05af dc3b
00000170: 3fc8 9e3c 09c4 0c3c 3ac7 133c 3963 363c
00000180: 497f ce3a d1a0 583b 3fd4 ff3b 880b 233d
00000190: 9b82 2c3c 93a6 be3c c6a5 513c 3da8 d0bb
000001a0: 0bc7 ea3c 9751 9c3c 2c1b 393c 0dea 6d3c
000001b0: 9f0c 783c 8b0a 313c a69a c93c ea8f c93c
000001c0: a1e7 ad3c 508b 9f3c 0ecb 4c3c cbc8 ee3c
000001d0: 596d b83b 3817 743c b35a a13c cc84 933c
000001e0: 6671 bd3b b575 753c f5fc 203c 844b cb3c
000001f0: 8b4a 043d 8f55 8f3c dfcf d93c dd92 383c

network_body._body_endoder.seq_layers.2.weight f4 [128, 128]
-0.033229 -0.11763185 0.051403064 -0.04298283 0.073497385 -0.013345552 0.029795298 0.032038707
0.007434446 0.039697353 0.1030729 0.03329369 0.027344864 -0.05986705 0.10374897 0.018610274
0.06997292 0.04696353 0.03987361 0.08195715 0.10171034 0.018552007 0.013059132 0.053261116
0.091437936 0.15370327 -0.20053107 -0.07361818 -0.0770761 -0.07342279 -0.102890775 0.037611835
0.068455905 -0.14044261 -0.09741505 0.0683183 -0.101118974 -0.020073075 -0.08053879 0.012413211
-0.13649231 -0.14702092 0.04682463 0.014915035 -0.031814564 0.052379154 -0.14009741 0.008147184
0.05529885 0.026591275 -0.019881483 0.19941176 0.023170182 0.20351732 0.0948491 -0.065935425
0.052124444 0.0047760564 -0.018624503 -0.14357239 0.06511722 0.15800238 0.0069735665 0.007965978
0.007854258 -0.0063105933 0.002448918 0.016441748 -0.038974606 -0.027845955 -0.062090706 -0.018063486
0.031320248 0.24966623 -0.11078394 -0.04944853 -0.10296295 -0.10360686 -0.035073146 0.0027446328
-0.17519766 -0.14568794 -0.14929764 -0.008173825 0.07861036 -0.06381873 0.08934724 0.0117292
0.08281441 -0.09339626 0.13820602 -0.15926158 0.034933835 0.059748054 0.11463181 0.1917772
-0.06238019 0.17183745 -0.11734863 -0.019719215 0.019054554 0.059192244 -0.14113514 0.18856911
0.023123935 0.065178044 0.10845767 0.12721302 0.07387111 -0.0951912 0.1623065 0.107601635
0.04402981 -0.07476012 0.023529788 0.051467985 -0.00017179403 -0.07038026 -0.05003462 0.073738106
-0.024185508 -0.013493798 0.038932897 -0.06921235 -0.07644717 -0.14897576 0.07370307 0.008646155
0.00039355212 0.006483166 0.15811278 0.008739389 -0.09959151 -0.13320336 0.09097145 -0.059196085
0.14752871 0.21261485 0.036533125 0.083746806 -0.09435835 0.14342307 -0.14499345 0.07399748
0.04258429 0.046277322 0.08920228 0.050569993 0.05873812 0.015357746 0.09141933 -0.21035586
0.014046629 0.18404277 0.08540837 -0.098144084 0.119939476 0.15139464 0.041727662 0.14827548
0.02378073 -0.008361971 -0.005492708 -0.08220439 -0.11735441 -0.070737846 0.09322851 0.08661227
-0.1303205 -0.09667881 0.08494069 0.04349242 -0.084007524 -0.03394053 0.048789877 -0.027519526
-0.06705162 0.23082864 -0.098953106 -0.06157564 0.019276986 -0.045803662 0.0040490725 -0.014594131
0.16857561 0.043576777 -0.033409383 0.06547521 0.025333906 0.0034669475 0.032244314 -0.079601645
-0.12959667 0.10485905 0.33969375 -0.07876431 -0.0002991004 0.01602399 -0.04627892 0.00299906
0.16055521 -0.033905424 0.044893745 0.11335604 -0.11672047 0.13960919 -0.06662826 -0.061109748
0.09100387 -0.04476584 -0.0068955426 0.17383498 -0.08326919 -0.097985946 0.042523716 0.036512688
-0.017868152 0.037862126 0.016652217 -0.04856903 -0.08759464 -0.027460143 -0.03449477 0.122044235
0.073116936 -0.059516218 0.007487897 0.11462444 0.155078 0.15017058 -0.05170589 -0.01095183
0.006327189 0.037586927 0.027073583 0.00032803812 -0.009535481 0.054019522 -0.091853894 0.03132887
0.025717838 -0.061629046 -0.16660738 -0.048486102 0.1528139 -0.04545348 -0.019865975 0.10793206
0.030826094 -0.14136171 0.039485134 -0.12592033 0.0058730165 0.13311128 -0.0055103474 -0.08299811
00000000: 221b 08bd f8e8 f0bd 058c 523d c40e 30bd
00000010: cc85 963d 4da7 5abc 4515 f43c 053b 033d
00000020: a79c f33b b199 223d e217 d33d f75e 083d
00000030: 5602 e03c 2737 75bd 577a d43d 9374 983c
00000040: f64d 8f3d d55c 403d 8352 233d 26d9 a73d
00000050: 834d d03d 61fa 973c f8f5 553c 5428 5a3d
00000060: d043 bb3d 6464 1d3e 0458 4dbe 21c5 96bd
00000070: 13da 9dbd b05e 96bd 66b8 d2bd de0e 1a3d
00000080: 9c32 8c3d 30d0 0fbe 8b81 c7bd 77ea 8b3d
00000090: 7717 cfbd 4a70 a4bc 85f1 a4bd c860 4b3c
000000a0: a4c4 0bbe a78c 16be 2fcb 3f3d 315e 743c
000000b0: fd4f 02bd 868b 563d b275 0fbe c47b 053c
000000c0: 0c81 623d f2d5 d93c 7ede a2bc 9932 4c3e
000000d0: 65cf bd3c d866 503e 3f40 c23d 2709 87bd
000000e0: 7180 553d 7780 9c3b 6a92 98bc a404 13be
000000f0: 2d5c 853d 60cb 213e 8482 e43b bc83 023c
00000100: 25af 003c 18c9 cebb 077e 203b d8b0 863c
00000110: d6a3 1fbd 331d e4bc d352 7ebd e0f9 93bc
00000120: a949 003d 81a8 7f3e b1e2 e2bd 8b8a 4abd
00000130: 3dde d2bd d52f d4bd dca8 0fbd 4cdf 333b
00000140: 0467 33be 382f 15be 7be1 18be 82eb 05bc
00000150: 78fe a03d 65b3 82bd b0fb b63d d52b 403c
00000160: 9a9a a93d 8a46 bfbd e185 0d3e 7815 23be
00000170: c816 0f3d 60ba 743d 15c4 ea3d 3e61 443e
00000180: 5f82 7fbd 28f6 2f3e 7b54 f0bd 318a a1bc
00000190: 4c18 9c3c 9173 723d bb85 10be 4318 413e
000001a0: 686e bd3c 117c 853d 0e1f de3d 2144 023e
000001b0: bd49 973d 9bf3 c2bd ad33 263e 3f5e dc3d
000001c0: 9a58 343d d51b 99bd 8bc1 c03c 18d0 523d
000001d0: 9c23 34b9 8723 90bd 1af1 4cbd 0104 973d
000001e0: b020 c6bc 1715 5dbc 1a78 1f3d 34bf 8dbd
000001f0: 5590 9cbd 1a8d 18be a3f1 963d 9aa8 0d3c
00000200: ac55 ce39 bd70 d43b 51e8 213e a72f 0f3c
00000210: a2f6 cbbd 7666 08be 3d4f ba3d 9877 72bd
00000220: c411 173e b5b7 593e c2a3 153d 7283 ab3d
00000230: f33e c1bd 7fdd 123e 2a79 14be fe8b 973d
00000240: dd6c 2e3d 4a8d 3d3d afaf b63d 7b22 4f3d
00000250: 6297 703d 0e9f 7b3c 0f3a bb3d 8767 57be
00000260: d523 663c b575 3c3e 95ea ae3d c4ff c8bd
00000270: d4a2 f53d 3207 1b3e a0ea 2a3d 87d5 173e
00000280: cecf c23c a600 09bc 2dfc b3bb c65a a8bd
00000290: 8257 f0bd 01df 90bd 97ee be3d c661 b13d
000002a0: bd72 05be 8aff c5bd 62f5 ad3d 1c25 323d
000002b0: 230c acbd 3a05 0bbd e5d7 473d a170 e1bc
000002c0: 5c52 89bd 585e 6c3e eda7 cabd bd36 7cbd
000002d0: c5ea 9d3c 9f9c 3bbd 15ae 843b 391c 6fbc
000002e0: 169f 2c3e 907d 323d 47d8 08bd de17 863d
000002f0: 0d89 cf3c ba35 633b 9d12 043d 3006 a3bd
00000300: fdb4 04be 57c0 d63d 57ec ad3e 2f4f a1bd
00000310: 93d0 9cb9 be44 833c f78e 3dbd e18b 443b
00000320: 9668 243e 6ae0 0abd 81e2 373d 3627 e83d
00000330: 240b efbd b6f5 0e3e 6674 88bd 374e 7abd
00000340: 3d60 ba3d 635c 37bd 01f4 e1bb cc01 323e
00000350: 0989 aabd dbac c8bd 592d 2e3d 548e 153d
00000360: 3b60 92bc 5115 1b3d 3b6a 883c 52f0 46bd
00000370: d264 b3bd 18f4 e0bc 634a 0dbd 54f2 f93d
00000380: 55be 953d 47c7 73bd 085d f53b 38c0 ea3d
00000390: c4cc 1e3e 51c6 193e 8ec9 53bd 4e6f 33bc
000003a0: 4f54 cf3b c0f4 193d 6bc9 dd3c 88fc ab39
000003b0: b53a 1cbc 9343 5d3d e51d bcbd b452 003d
000003c0: 37ae d23c bd6e 7cbd 209b 2abe 5d99 46bd
000003d0: 3f7b 1c3e 6e2d 3abd f8bd a2bc 7c0b dd3d
000003e0: 0187 fc3c 20c1 10be 2abb 213d 42f1 00be
000003f0: 6f72 c03b 534e 083e 2590 b4bb eafa a9bd
