results/phase4_t1/NPCAgent/NPCAgent-132304.onnx (onnx, 107855 bytes, 9 tensors)

action_model._continuous_distribution.log_sigma f4 [1, 2]
00000000: 7fe5 86ba d1ee 873c
-0.0010291784 0.016593369

action_model._continuous_distribution.mu.bias f4 [2]
00000000: 533a 48bb b5e6 3cba
-0.0030552342 -0.0007206009

action_model._continuous_distribution.mu.weight f4 [2, 128]
00000000: d442 493c 239e 9b3a 6496 c13c c50f fdba
00000010: 7964 31bd 86d2 eabb 7084 ed3b e39c 3b3c
00000020: b330 c7bb 3902 023a 2217 6a3c 42c5 4b3c
00000030: 1bce 83ba 2e34 823b ecd0 2fbd 483e 9e3b
00000040: 56dd a43c 05a8 36bc 9e05 573c d843 02bc
00000050: 9215 97bb 3add 8dbb eec7 94bb 3f1a 303c
00000060: 8a48 1ebd 4d67 6bbc 2c26 9c3c 6eeb 86bc
00000070: 9250 87bc e816 2ebb ca4d 833c 4559 98ba
00000080: bc32 2bba ef31 0dbd 2b79 f3b8 fbaa cb3a
00000090: 15aa 513c 11ce d0bb 7375 f33c 6804 e73c
000000a0: 82b0 403c efdd ba3b bd7a 693c 17f7 2e3c
000000b0: 2455 3ebb b8b0 993c eb8d 703a 0d92 aa3c
000000c0: d07c 153d f16b fdbc 78ce eb3b 9f2e 5d3b
000000d0: fd10 293c 852a eebb 012c 373c ae32 9dbb
000000e0: 62a9 8d3c 62d4 0cbd d7bd a93c 4008 273c
000000f0: 37e9 2dbb a4ba 97bb 5fb6 743c 1cda 0a3c
00000100: 5db9 bbbb 516d 873c f355 e53a 55fe b2bc
00000110: 0670 2d3d 3598 193b 4efd 0cbb c9f2 3bbc
00000120: 9af9 043c c330 eebb ee30 5dbc ab9e 0f3d
00000130: 0945 dabc 7c88 273c 47c5 053d c87d 3dbb
00000140: 3184 9fbb e45a 423c c3f9 c2bc b82a bfbb
00000150: 9da4 d7bb 4027 05bd 6611 6e3c f5a0 ecbc
00000160: 93fc 9f3a c9dc 513c 4a94 2ab8 a7fa 3f3b
00000170: 79b5 ac3c 3b94 b23c 7b9d 103d d13a f83b
00000180: 49ee 34bb a520 1e3c 5606 bb3c 4c36 1f3c
00000190: 2d70 87bc 5b5a cc3c 9a28 c9bb 87af 623c
000001a0: 3f52 6cbc 7659 77bc 1d67 8ebc 634e 1abc
000001b0: 47d0 d13c f134 ad3b 533d 48bc 5cdf ec3c
000001c0: c136 4a3c 7406 91bc ee2d 003d 1744 fdbc
000001d0: 38d3 b4bb c25b 21bd f3e8 2d3c 636c 6d3c
000001e0: 9485 adbc 2f1f d3ba c660 643c 4ec5 05bc
000001f0: 84e3 203b 8d91 e8bb bb3d fc3c 4488 273d
00000200: 778d 1fbd 1b61 33bd b751 d73b f312 11bd
00000210: 926e 68bc 8212 4cb9 01f6 25bc 7663 54bc
00000220: 4874 4ebc 09e2 033c 8fe0 d03c f761 03bc
00000230: 60e8 fa3c bb74 a03b c4f9 b13b 903b b13c
00000240: 4721 c73c a819 09bc 9825 92bb a6e8 dd3b
00000250: b94b 02bd 6ef4 943c a677 8f3c eeaa da3b
00000260: eb91 2e3d b0dd 4fbc 920b 1abd bccc 32bc
00000270: ca63 1c3d 8240 e43a 98c2 a4b9 6e18 80ba
00000280: 3486 aebc 267d 1d3c 3b37 693c d85d afbc
00000290: d743 a6ba 8511 b3bb a66a 3f3c f253 e639
000002a0: 6224 f33c e783 edbc dfe2 09bb 2311 fb3c
000002b0: efe3 f33b b2d9 573c 9a5b cabb 913e b53b
000002c0: 5699 c1ba f5b5 0e3d 5088 c0bc 5168 233d
000002d0: 6869 8b3b 0ce4 abbb 21c9 1d3b 98ce c2bc
000002e0: 2ce2 c93c c311 a0bc 3bc0 c4bc 5476 3d3b
000002f0: fdd4 f2bc edf4 febc c470 c33c dfbc 093c
00000300: 60e7 013c 4504 01bd 246b 00bc 6803 6ebb
00000310: 77c7 803c 1b95 f63c 19d4 e43a 9b18 623c
00000320: 0c94 d8bc f130 70bc 79ee e33c d2ff 343c
00000330: d654 fdba 7aa6 423c bda6 16bd 1ce2 163c
00000340: bf66 393d 0d2c dc3b 7e7f 453c e378 e43c
00000350: b9d9 9fbc 5c2f cb3c bccc cb3a 0ce5 ac3c
00000360: 256c eb39 433c b1bb caf2 3cbc a23c b139
00000370: 32d2 7dbc f1f1 323b a657 f43b 1ea6 31bc
00000380: 60d8 95bb dd9e b73b 70b0 e13c dd6a e2bb
00000390: a6f9 fb3b 7313 ca3c 36a7 d13c eada 16bd
000003a0: 39e7 cabc 703e 17bd b092 313c fe49 2ebc
000003b0: 99e6 033c ebef febb c421 e0bc 6675 a63c
000003c0: aaf2 123c abb8 13bd 33d8 68bc 643c 79bc
000003d0: 909c e23b cb3d 843c 6d08 4ebd 1ec1 c13c
000003e0: adc2 e1bb 02c2 753b 5126 193d 429c 053d
000003f0: 2270 f4bb b8ea ac3c 1eec 0c3c 5394 61bc
0.0122839995 0.001187269 0.023631282 -0.0019307068 -0.04330871 -0.0071662096 0.007248454 0.011450979
-0.0060788034 0.00049594376 0.014287742 0.012437167 -0.0010055931 0.0039735055 -0.042923853 0.004829202
0.020125072 -0.011148457 0.013123898 -0.0079507455 -0.0046107257 -0.004329351 -0.004540435 0.010748445
-0.038643397 -0.014367891 0.01906117 -0.016469683 -0.016517911 -0.0026563946 0.016028304 -0.0011623284
-0.00065306923 -0.03447145 -0.00011609712 0.0015538627 0.012796898 -0.0063722213 0.02971909 0.028200343
0.011760833 0.005702726 0.0142504545 0.010679028 -0.0029042447 0.018761024 0.0009176421 0.020821596
0.036495984 -0.03093526 0.007196244 0.0033749712 0.010318992 -0.0072682523 0.011179925 -0.0047973013
0.017292682 -0.03438223 0.020720406 0.010194838 -0.0026536712 -0.0046304036 0.014936059 0.008474853
-0.005728884 0.016531618 0.0017496928 -0.02184979 0.042343162 0.002343667 -0.0021513286 -0.011471459
0.00811615 -0.0072689964 -0.013500435 0.035063427 -0.026644247 0.0102254115 0.03265884 -0.0028914083
-0.0048680534 0.01186249 -0.023800736 -0.00583395 -0.0065809027 -0.032508135 0.014530515 -0.028885344
0.001220601 0.012808987 -4.0669263e-05 0.0029293688 0.021082627 0.021799197 0.035306435 0.007575371
-0.002760785 0.009651338 0.02283017 0.009717535 -0.016532982 0.024945429 -0.0061388733 0.013835794
-0.014423906 -0.015097013 -0.017383153 -0.009418103 0.02561201 0.005285852 -0.012221652 0.0289151
0.012342156 -0.017703272 0.031293802 -0.030916257 -0.0055183433 -0.039394148 0.010614621 0.014491173
-0.02118186 -0.0016107316 0.013939088 -0.008164717 0.0024549672 -0.007097429 0.030791154 0.040901437
-0.03895327 -0.04379378 0.0065710205 -0.035418462 -0.014186518 -0.00019461851 -0.010129453 -0.012963166
-0.012600966 0.008049496 0.025497703 -0.008018962 0.030628383 0.004896728 0.0054313857 0.021634847
0.02430786 -0.008367933 -0.004460048 0.0067721186 -0.031810496 0.01818296 0.017513108 0.0066732084
0.042619627 -0.012687132 -0.03760869 -0.01091307 0.038181104 0.0017414244 -0.000314255 -0.0009772906
-0.021304227 0.009612357 0.014234359 -0.021407053 -0.0012685013 -0.005464735 0.011683142 0.00043931563
0.029680435 -0.02899356 -0.0021039767 0.03064782 0.0074429433 0.013174461 -0.0061754705 0.00553114
-0.0014770429 0.034841496 -0.023502499 0.039894406 0.0042545088 -0.005245691 0.002407618 -0.023780152
0.02464398 -0.01953972 -0.024017444 0.002890964 -0.029642576 -0.03112265 0.023857482 0.008406847
0.007928699 -0.031498212 -0.007838044 -0.0036317948 0.015720112 0.030100396 0.001745823 0.013799812
-0.026437782 -0.014660106 0.027823674 0.01104732 -0.0019327651 0.011880511 -0.036780108 0.009209182
0.045264002 0.0067191184 0.012054322 0.027889675 -0.019512998 0.024802856 0.0015548686 0.021105312
0.00044903267 -0.005408795 -0.011532495 0.00033805246 -0.015492009 0.0027304853 0.0074567376 -0.010842828
-0.004572913 0.005603655 0.027549952 -0.0069097118 0.0076896725 0.024667477 0.025592428 -0.036829866
-0.024768459 -0.03692478 0.010838196 -0.010637758 0.008050584 -0.0077800653 -0.02735985 0.020319652
0.008968988 -0.036064785 -0.014211702 -0.015212152 0.0069156364 0.016142746 -0.050301004 0.023651656
-0.0068896622 0.003749967 0.037390057 0.032619722 -0.0074596563 0.021108016 0.008601217 -0.013768273

action_model._discrete_distribution.branches.0.bias f4 [2]
00000000: 023f 893c 033f 89bc
0.016753677 -0.01675368

action_model._discrete_distribution.branches.0.weight f4 [2, 128]
00000000: 415f edbb 4cf7 ac3c fcb4 6cbc f8cb 063d
00000010: ab27 82bc 6c40 903c db87 38bb 5211 21bb
00000020: 1e5d d03c 0651 833b 41f7 84bc a627 8abc
00000030: 1dff 6bbc 4908 8cbc cd74 c4bc 071c cfbb
00000040: 5eec b5bb 90a4 7a3c e6b5 02bc d6d5 fd3c
00000050: 8148 a63c 5b5a 9a3c 406a f93c 15ca 9bbc
00000060: 5ce9 8f3c ce29 4eba 9ffe 6c3c 7d6b 733c
00000070: 8935 bc39 8654 5ebc 532d b9bc b24c e63c
00000080: 2e84 c1bc 1dcd b13c ec04 b73b 3bc8 7d3b
00000090: ee04 e1bc 752d d23c 4c84 a9bc dcf6 47bb
000000a0: edc9 ea3b 868f 143c c607 bebc 9c15 a43c
000000b0: 08a4 623c 98e7 54bc 9940 523c 0068 8cbc
000000c0: 6535 abbc 0dc2 113d 5e47 a03c 947e 533c
000000d0: c6d1 4dbc 53b2 1fbd 4b7b a63c 6114 5ebc
000000e0: 2e80 6fbc 79cc ab3c e343 93bc 3ad5 83bc
000000f0: 518e ebbb b4ef ac3c d79b 35bc 6db5 83b9
00000100: 7d8c 5fbb 2eaf ddbc 5501 8dbc 6275 80bc
00000110: 1eac a8bb 0ecb b4bc 97ca fdbc cff0 e1bc
00000120: 750e 95bc 2dd5 67bc 6851 953c 8226 b0bc
00000130: c8e6 7fbc 658c 223c cf60 0b3c 9bf7 e4bc
00000140: 90a3 53bc b0cd aabb 7c48 9d3c c1a9 1b3b
00000150: 5caf f13c d2c6 483c 2884 eebc 7003 f23c
00000160: ec56 9bbc 275d 8d3b e306 053c 108a 2bbc
00000170: 5cd8 d9bb cb5c d93c aab6 6ebc 33b1 1d3c
00000180: 700c 8e3c ad37 f1bc ca33 67bc b784 a23c
00000190: 7eba 023d 8ac6 bebc a361 04bd ded9 c53c
000001a0: 7cf6 6fbc db2c 483c 0b4c bcbc 2536 133c
000001b0: a832 7cbc 80ef 613c 7fe5 9cbb 51d7 843c
000001c0: 69ae aa3c e78a 45bc 1531 45bc 5c37 903c
000001d0: f966 6b3c 5967 303c 7270 79bc d616 18bd
000001e0: 742c ed3c c554 e33a 9555 df3b 31b8 b33b
000001f0: 4e05 7b3c f57e 08bd 743e 93bc 35ab ddbc
00000200: 08d9 d13c fabd 9ebc 09ca 0b3d 9ab6 a7bc
00000210: 5ba7 b13c 9c95 fbbc a3b7 2cba 3d35 40bc
00000220: 8a24 09bc b1ee 5abb 0f75 ab3c 0334 af3c
00000230: eae7 a53c 4797 d63c df9b 063c 2fb2 d53c
00000240: 39c6 f83c efd6 87bc a188 aa3c 64d6 dbbc
00000250: 4e61 27bc 3197 1ebd d384 b6bc bb82 183d
00000260: 3a65 fdbc c011 cebc b099 3ebc 7708 64bc
00000270: ec1c 273b ea18 c13c 2347 973b 7653 ecbc
00000280: 8c3c c63c 78da cebc 3685 8cbc 4037 a0bc
00000290: 38e8 183d 760a d6bc b407 e53c 938e d53c
000002a0: 565d 34bc f3c7 b9bc 8d5c 903c 6793 05bc
000002b0: 5a6a 03bb 90c6 f83c 3230 133b cf38 033d
000002c0: 5ced b13c 6fc8 10bd 360e e0bc 8ac4 cdbb
000002d0: 6748 943a fa01 c13c 8597 eabc 8862 7f3c
000002e0: 6d14 ad3c 7377 a1bc b0d3 073d 3abf 9c3c
000002f0: 8cf2 a83c 8f33 83bc 289f b33c 48ca be3c
00000300: 9531 293b 8624 143c 3683 483c b758 4a3c
00000310: 7c93 7c3b db43 2c3c bb05 813b 0a33 043d
00000320: c88e 8bbb afc9 a93b f4b5 f7bb 21a6 ab3c
00000330: c72b b43c 34c4 03bd 2102 71bc bab1 c43c
00000340: 17bd 303c d131 533c 2220 493b 9c3f 1c3a
00000350: acf8 d9bc 3cbe 99bc 9a0d b13c 69d2 aabc
00000360: 59ac e93c b69f 4ebb 1e97 65bc b452 473a
00000370: a59e 03bc 34c2 26bc 0c3c 133d 37e2 b4bb
00000380: 039c 12bd d22c 243c 3894 533c 1ae2 ab3b
00000390: f05b 58bc ec6e e73c 98d0 fa3b 461f 6dbc
000003a0: e32e 303c ca1d abbb 8ac3 b03c e43d f1bb
000003b0: fb77 643c 368f 35bc 94f5 c3bb 3340 70bc
000003c0: 546a d9bc 9143 40bc fc81 fb3c 8eba 9cbc
000003d0: 29ff 9ebc 901c 11bc 0e61 1a3d 8718 123d
000003e0: 1842 d2bc eb8a 253b 9231 99bc 80b1 d4ba
000003f0: 0cac 81bc bc70 193c 1a05 b33c 6333 fbbb
-0.007244021 0.021114014 -0.014447447 0.032909364 -0.015888056 0.017608844 -0.0028157148 -0.0024576974
0.025435027 0.0040074615 -0.016231181 -0.016864609 -0.014404085 -0.017093794 -0.023981476 -0.00632048
-0.005551859 0.015298024 -0.007977938 0.030985754 0.020298244 0.018841913 0.030446172 -0.019017259
0.01756733 -0.0007864506 0.014465003 0.01485717 0.0003589804 -0.013569957 -0.02260462 0.028112743
-0.023622598 0.021704251 0.0055853035 0.0038724083 -0.027468171 0.025656441 -0.020692967 -0.003051213
0.0071651847 0.009067422 -0.023197066 0.020029835 0.013833053 -0.012994669 0.012832784 -0.017139435
-0.020899484 0.035585452 0.01956528 0.012908597 -0.012562221 -0.038988423 0.020322463 -0.013554663
-0.014617963 0.020971524 -0.017976707 -0.016092885 -0.0071885963 0.021110393 -0.011084518 -0.0002512144
-0.0034110837 -0.027061071 -0.01721255 -0.015680972 -0.005147471 -0.02206948 -0.030980391 -0.027580647
-0.01819537 -0.014149946 0.018227294 -0.021502737 -0.015618987 0.009921168 0.008506968 -0.027950099
-0.012917414 -0.005212508 0.019199602 0.0023752304 0.029502563 0.012254434 -0.029115751 0.029542655
-0.018962346 0.004314083 0.008119318 -0.010469928 -0.0066481065 0.026533505 -0.014569918 0.009624767
0.017339915 -0.029445494 -0.014111469 0.019838674 0.031916134 -0.02328803 -0.032319676 0.024151739
-0.014646169 0.012217726 -0.022985479 0.008985077 -0.015392937 0.013790011 -0.0047881003 0.016215952
0.020835118 -0.012057043 -0.012035628 0.017604522 0.014367812 0.0107668275 -0.015224563 -0.037131153
0.028951861 0.0017343989 0.006815622 0.005484604 0.015321089 -0.0333242 -0.017974116 -0.027059177
0.025616184 -0.019377697 0.034128223 -0.020472813 0.021686247 -0.030710988 -0.00065886433 -0.011731443
-0.008370528 -0.0033406431 0.020929841 0.021387106 0.020252187 0.026195182 0.0082158735 0.026085941
0.030367957 -0.01658198 0.020817103 -0.026835628 -0.01021607 -0.038718406 -0.022280132 0.03723405
-0.030932058 -0.025154948 -0.011633322 -0.013918034 0.0025499417 0.02357145 0.0046166345 -0.028848391
0.024198793 -0.025250658 -0.017153364 -0.019557595 0.037330836 -0.026128035 0.027957775 0.026068961
-0.011008581 -0.022678351 0.017622257 -0.008152819 -0.0020052404 0.03036812 0.0022459147 0.0320366
0.021719627 -0.0353474 -0.027350526 -0.006279533 0.0011313081 0.023560513 -0.028636703 0.0155874565
0.021127904 -0.019710278 0.033160865 0.019134153 0.020623468 -0.016015796 0.021926478 0.023289815
0.0025816907 0.009041911 0.012238314 0.012350253 0.0038540056 0.010514225 0.0039374507 0.032275237
-0.004258964 0.0051815133 -0.0075595323 0.02095324 0.02199353 -0.032169536 -0.01470998 0.024010528
0.01078727 0.012890295 0.0030689319 0.0005960406 -0.026607834 -0.018767469 0.021612931 -0.020852285
0.028524565 -0.00315283 -0.01401308 0.0007603571 -0.008033429 -0.010178138 0.035945937 -0.005520131
-0.035793316 0.010020452 0.012913756 0.0052454593 -0.013205513 0.028251134 0.007654261 -0.014472788
0.010753366 -0.005222057 0.021577615 -0.0073621143 0.013944621 -0.011081507 -0.005980203 -0.014663744
-0.026539959 -0.011734859 0.03070163 -0.019131925 -0.01940878 -0.0088569075 0.037690215 0.035667922
-0.025666282 0.0025259804 -0.018700395 -0.0016227216 -0.015829109 0.009365257 0.021853019 -0.007666038

network_body._body_endoder.seq_layers.0.bias f4 [128]
00000000: 14ff bcbb df73 49bc 4f1c 023b dcae f2ba
00000010: d184 18bb 53a1 eaba 2574 2fba 97c2 303c
00000020: c0cc a43b ad14 9cbb 109c ddbb 2e50 a03b
00000030: 42ab 0f3a 6f3f 793a 6fcf 123b 17a1 c4ba
00000040: 8349 42bb aed7 94ba 6b80 ef3b 58c3 84bb
00000050: c536 933b 2932 863b c661 263b 20fc 2dbb
00000060: 61f6 343b fc7d a2bb c484 8d3b 99a1 2dbb
00000070: eabb 473b f42e 1fbb adda 01bb 5d54 4fbb
00000080: b216 c7b9 f0a4 47bc 57fa 873a cb93 123c
00000090: aac2 203b 4161 4bba 409e c43a 525f 643c
000000a0: ee20 463c 704f 6a3a 5491 8abb f2a1 b8ba
000000b0: 7509 2e3c b110 793a 903a c23b a7f3 683b
000000c0: 4df5 16bb 947b cf39 f585 8a3a f82a cf3b
000000d0: 77a9 ab3b ca66 e03b a667 953a dc76 0bbb
000000e0: 79e4 abbb 5b95 eb3a 8179 95bb 0823 463b
000000f0: 754f 12ba fb1b efbb c9a7 283c 77d2 c83a
00000100: 8853 86ba f602 3fbb ea9e b83b 65bd 923b
00000110: e4d9 8bbb cc5f d8bc d87f 03bc ee7b 21bb
00000120: 7c4b c83b ef64 733b 130a 4ebc 3e08 bebb
00000130: f7c4 e5b9 fb8f 9dbb d6ff 5b3b 4706 8b3b
00000140: 5c4b 703a 3ab3 dd3b e0ef 98bb 3651 e13a
00000150: 41f2 2e3c c541 a0bb 4fac 87bb bc79 0cba
00000160: 6c54 ac37 2c48 e53b 5bb7 8fbb 1253 5f3a
00000170: 8687 063b dd74 d83a 1bfd 3b3b af61 3c3a
00000180: de4d 1d3c 025d 1dbb c4f9 6f3b 6459 dd3b
00000190: ce75 08bb 87b0 f13b bbb4 4fbb 90cd 3e3b
000001a0: e46f 383b e912 6a3b 4f2f e5bb 9257 97ba
000001b0: 7fa1 6dba 697d 71bb b3e6 5cbb aedf c0bb
000001c0: ecc1 4a39 061b 943c 1e38 803c bbe8 193a
000001d0: e045 91ba af69 66bb 8291 2eba 09e5 4a3b
000001e0: 2c0f 4a3b f156 543a 12b9 b9ba e4e8 9b3a
000001f0: 0826 703a 1be6 8a3b f973 d5bb c436 dc3a
-0.0057677124 -0.012295692 0.00198533 -0.0018515247 -0.0023272524 -0.0017900862 -0.0006693027 0.010788581
0.005029291 -0.004763207 -0.006762989 0.0048923707 0.00054805365 0.00095080485 0.0022401472 -0.0015001622
-0.0029645867 -0.0011355781 0.00730901 -0.004051607 0.004492613 0.004095335 0.0025387867 -0.0026547983
0.0027612674 -0.004958866 0.0043188054 -0.0026494025 0.0030476996 -0.002428946 -0.0019814179 -0.0031635978
-0.00037973147 -0.01218532 0.001037429 0.008946369 0.0024530091 -0.00077583274 0.0015000775 0.013938742
0.012092812 0.0008938229 -0.0042287502 -0.0014086349 0.010622372 0.00095010834 0.0059273914 0.0035545619
-0.0023034394 0.0003957419 0.0010568487 0.006322261 0.0052387076 0.006848191 0.0011398687 -0.0021280563
-0.005245742 0.0017973589 -0.0045616035 0.0030233283 -0.0005581298 -0.0072970367 0.010293909 0.0015321512
-0.0010248283 -0.0029146052 0.0056341784 0.004478144 -0.004267918 -0.026412867 -0.008026086 -0.0024640518
0.006112514 0.0037139019 -0.012575644 -0.0057993224 -0.00043825034 -0.0048084236 0.0033569238 0.0042426917
0.0009166503 0.0067657502 -0.004667267 0.001719034 0.010677875 -0.004890653 -0.004140414 -0.0005358716
2.054331e-05 0.006997129 -0.0043858713 0.00085191533 0.0020527556 0.001651432 0.0028684798 0.0007186187
0.0096010845 -0.0024011736 0.0036617378 0.006755041 -0.002082217 0.00737578 -0.0031693417 0.0029114224
0.0028142864 0.0035716838 -0.006994165 -0.0011546484 -0.00090648973 -0.0036848432 -0.0033706843 -0.0058860397
0.00019336463 0.018079292 0.015651759 0.00058711664 -0.0011083446 -0.0035158207 -0.00066592556 0.003095927
0.0030831797 0.00081001135 -0.0014169535 0.0011894968 0.00091609405 0.0042388565 -0.006514069 0.0016800989

network_body._body_endoder.seq_layers.0.weight f4 [128, 71]
00000000: 64f7 7e3e 3e7d e8bd 9890 013d d387 d3bc
00000010: e89b 2cbd db28 4c3d 2144 07be 4e94 943d
00000020: f417 7e3b f2bc c5bb f749 06be 8954 463e
00000030: 19a4 023e 865b 3ebd 5c13 dabb 6181 a4bd
00000040: 061f 193e 28f9 d1ba 46f8 023e 3ed5 bd3d
00000050: 4ca2 233d 894f 1c3d 64e8 983c f931 ccbd
00000060: 5092 da3c 3154 cabd f5da 53bc ad5e 66bd
00000070: 054a b4bd 3564 9abd c710 6cbd b54a 24bd
00000080: 9122 953d a66f 90bb 48b2 803c e5a9 d7bd
00000090: de65 153d 1a90 d43d 22bf cdbd d347 51be
000000a0: a033 9fbe 3380 9d3d b0e7 5b3e 269e 513d
000000b0: 9cea 1fbe b63e ed3d 8c75 4a3d 02bd a0bd
000000c0: 6102 5e3e 5c07 52be c479 05be 49be 7b3c
000000d0: 74b8 7cbd 3515 6c3d fcc6 96bd 9f0e 3ebd
000000e0: 4033 e53d a702 85bd 0a9e d23d 7635 62be
000000f0: b2e2 0ebe 9ad6 c6bb bf71 98be 8cbb b23d
00000100: 3da6 09be e32d 96bb 14dd 0a3d f032 9bbd
00000110: 6d2b 60bd ea09 f7bd 0853 08bd eeaf cbbd
00000120: 7363 813e 6304 e3bd 3168 103e 92db 72bd
00000130: fecb b9be 70aa f9bc d1ae e83d 8b77 633e
00000140: cab0 61be b0b8 0b3e 3931 633e 1d78 45bd
00000150: 9b40 14be 972a fabd afca 973e e9fa 4fbe
00000160: 7627 993d dd8f 103e 7cee 9fbd 3570 4f3e
00000170: bc23 14bd af38 a6be 6c92 2bbd 3c80 6d3e
00000180: 4bf3 313d 2f29 1bbd 01a9 07bd 73c8 9abe
00000190: 92a6 e03b cbc5 c63e 634c 85bd 1eb6 6bbd
000001a0: 5749 48be 97ab 82bb ea57 aabe df45 f83c
000001b0: cb5a 2dbe a5a2 c3bd 55fb c23d 8e91 103e
000001c0: e5f0 cbba b1d5 7fbd a923 80bd 1b6a d1bd
000001d0: e27d 1fbe 0043 17be 3447 373e d676 283e
000001e0: b5e0 0fbe 8b60 0fbe 2c84 34be 6575 54bb
000001f0: bbcf dd3d 4e37 093d b615 e8bc f011 373e
00000200: d441 d1bd 7ee3 293e 0353 6abe 915d bdbe
00000210: fab8 c73d c646 0bbd bfa5 9a3d 2599 993d
00000220: 7486 b13d b3a8 293e 548c 4ebe fcf9 c0bd
00000230: af7f 1ebe 7dc0 3b3e 739f 8dbc 5bdb b93b
00000240: 070f 54bd 67ae aabc 9da3 bb3d 0a2f cd3d
00000250: d5d7 99bd 02dd b1bd 309f aebd 4c08 2c3d
00000260: fafe 95bd d586 f13d 63f3 b23d 2888 a53c
00000270: 5983 083e 5c94 86be 2bb7 c93d 4847 4c3e
00000280: 36aa e7bd 896b 73be 5f4d 3bbd 301b bb3b
00000290: 5b0d 61be 2f18 20be 24ae cfbc 2546 d7bd
000002a0: 9ede 4d3e 2463 8abd 9291 883e 24b9 113d
000002b0: c4e8 6c3d 5915 253e df9b 76bd f016 eabc
000002c0: 0469 08be e0d6 a33d cc22 f33d 434c c3bd
000002d0: ab85 c3bd 67f4 61bd ac59 d33c 6e17 39bc
000002e0: 93f7 803d b0d5 f13d 8a5b d23c 4fc0 ad3d
000002f0: e67f a8be 827d 1bbd 797e 5a3c 8a72 b1bd
00000300: 4234 be3c fd0a 973d e590 e03d 3f9e 9bbd
00000310: cbb4 8bbd 2b3f 703d bad5 973d 97ee 83bd
00000320: 7acd 083d 6400 3cbc f4fb 2ebd d8c6 bf3d
00000330: a272 693e affa f83b 7bee c1bd a266 36bd
00000340: e331 11be 3f8e 66be 7ea9 af3c cd83 b83c
00000350: 3cd8 e9bd 30b1 013e d3c4 4fba 0a08 3c3e
00000360: 3819 f5bd 603d 88bd e89b 563e 33cf a6bd
00000370: 8172 d53d f775 943d 6898 cebd d843 00be
00000380: 1c9c 9fbd 85fc 53bb c5f2 0b3e 2919 883c
00000390: 9d10 623c 384d 873e b002 7e3e 91fd 73bd
000003a0: c46a afbd 2ba2 0a3e acf2 2d3d 68f6 ef3c
000003b0: 4449 9c3d 6ad9 88bd b1ca 5ebd 5d30 b9bd
000003c0: e9b5 f0bb 0e4d 453d fff2 acbc fec1 95bc
000003d0: 2aaf 603e dcdf 39be b25c 143e 0fae a53d
000003e0: 60ed c43d 8877 6ebe ad57 f7bd cb66 87bd
000003f0: 9fe3 ed3d 1cd3 f9bc c57f 08be 54f4 c8bc
0.2489906 -0.11352013 0.031632036 -0.025821602 -0.04214087 0.04984365 -0.13209583 0.072548494
0.0038771601 -0.006034487 -0.13114153 0.19368185 0.12757911 -0.046474002 -0.00665514 -0.080324896
0.14953241 -0.0016019689 0.12790021 0.09269188 0.0399497 0.038161788 0.0186655 -0.09970469
0.026681095 -0.098793395 -0.012930621 -0.056242634 -0.088031806 -0.07538644 -0.057633188 -0.04011031
0.07281984 -0.004407841 0.015710011 -0.10530452 0.0364741 0.10379048 -0.10046221 -0.20437555
-0.31094074 0.07690468 0.214751 0.051176213 -0.1561684 0.11584227 0.049428508 -0.078485504
0.21680595 -0.2051062 -0.13034731 0.015365192 -0.061699346 0.057637412 -0.07362172 -0.046400663
0.11191416 -0.064946465 0.1028405 -0.22090706 -0.13953665 -0.006068063 -0.2977428 0.08727178
-0.13442321 -0.004583107 0.033902243 -0.07578075 -0.054728914 -0.12062438 -0.03328231 -0.09945665
0.25271186 -0.11084821 0.14102246 -0.05929143 -0.36288446 -0.030476779 0.113614686 0.22213571
-0.22040096 0.13644671 0.22186746 -0.048210252 -0.1447777 -0.122151546 0.29646823 -0.20310558
0.0747823 0.1411738 -0.07809159 0.20257647 -0.03616689 -0.3246512 -0.041887686 0.23193449
0.043444913 -0.037881073 -0.03312016 -0.30231056 0.006855794 0.3882278 -0.0650871 -0.057546727
-0.19559227 -0.0039877403 -0.33270198 0.030306755 -0.16929166 -0.09552506 0.09520594 0.14118025
-0.0015559463 -0.06245965 -0.06256802 -0.10225316 -0.15575364 -0.14771652 0.17898256 0.16451582
-0.14050563 -0.14001672 -0.17628545 -0.0032418605 0.10830637 0.03350001 -0.028330665 0.17877936
-0.10217634 0.16590688 -0.22883229 -0.36985448 0.09752078 -0.03400304 0.07551145 0.07499913
0.08668223 0.1656826 -0.20170718 -0.09422681 -0.15478395 0.18335147 -0.017287945 0.005671901
-0.051772144 -0.020835115 0.09162066 0.100187376 -0.0751187 -0.08684732 -0.08526456 0.0420001
-0.073240235 0.11793295 0.087378286 0.020206526 0.13331355 -0.26285064 0.0984939 0.19949067
-0.11311762 -0.2377149 -0.045728084 0.005710028 -0.21977751 -0.15634225 -0.025351591 -0.10511426
0.20104453 -0.06757191 0.2667356 0.035576954 0.05783917 0.16121425 -0.060207244 -0.02857539
-0.1332131 0.079999685 0.11871871 -0.0953603 -0.095469795 -0.05516472 0.025799595 -0.01129709
0.06297221 0.11808336 0.025678415 0.084839456 -0.3291008 -0.03796149 0.0133358175 -0.08664425
0.023218278 0.07375143 0.109651364 -0.075985424 -0.06821593 0.05865399 0.07413812 -0.06441992
0.033399083 -0.0114747025 -0.04272075 0.09364098 0.22797635 0.007598243 -0.09469315 -0.044531472
-0.14179187 -0.225152 0.021443125 0.022523785 -0.114181966 0.12665248 -0.00079257524 0.18362442
-0.11967701 -0.06652331 0.20957911 -0.08144989 0.104222305 0.072490625 -0.10087663 -0.1252588
-0.077934474 -0.0032346558 0.13666828 0.01661356 0.013797906 0.264261 0.24805713 -0.05956799
-0.08565286 0.13538425 0.042467758 0.0292923 0.07631162 -0.066820934 -0.05439252 -0.09042428
-0.007345904 0.04816919 -0.021111963 -0.01828098 0.2194182 -0.18151802 0.14488485 0.0808984
0.09615588 -0.23287785 -0.1207727 -0.06611403 0.11615681 -0.030496173 -0.1332999 -0.024530567

network_body._body_endoder.seq_layers.2.bias f4 [128]
00000000: f369 033b 6562 f83a b86f bdbb 65a7 1d3b
00000010: d80e 303a 3566 513b ce59 2ebb 525a 67bb
00000020: b860 a63b 7cb2 3bbb cd45 823b c5cc c13a
00000030: 8bd6 cfba bfe3 1bbb 9c83 a8ba 18f9 fcba
00000040: 1e32 623b 4794 723b 57f1 88b8 1a3f 0d3c
00000050: 9444 c73a 5d33 873b 90a3 993b 0cf0 0abb
00000060: 6e5e 333b cd07 6c3b 06f6 be3a 78c3 713b
00000070: 12c3 2c3b 84ce 00ba 2a23 86bb 8056 233c
00000080: 3c0c 71bb f16a 9f3b 0302 313a 1d61 253b
00000090: 7779 dcbb 0eb9 273c 7a8a 53bb 9265 b43b
000000a0: 7910 90bb 8041 b83a a4cc 2d3b e72e 11bb
000000b0: 0e02 1bbb 8803 673b 8413 58ba e058 07bb
000000c0: be83 9e3b d8e9 983b e2db 2e3b 7300 bf3a
000000d0: c972 053b b587 b9bb c129 ec3a b82e f1b7
000000e0: 5fb6 babb 01ff 903b fff8 853b 6d88 bdbb
000000f0: 78e4 6fb9 46cc 113b bd44 8abb 63c9 bcb9
00000100: 2da1 2b3b 3894 c53a 1629 7cbb e96a 04ba
00000110: e3aa 89bb 2060 8cbb e9a2 d6bb 5cfa 92ba
00000120: bbd6 6d3a 6af5 99bb ade8 453c 95a6 d93a
00000130: 7e19 edb9 abc3 9739 58f6 753a 9541 86bb
00000140: 1250 aa3a 843c 84bb affb 663a a992 503b
00000150: 2255 b33b 7773 453a a3bc f8bb 7cb2 813b
00000160: 8de3 e8bb 3cc6 8ebb 920c ecb9 b5d6 85ba
00000170: 7f29 31bb 8a1c 0cbb b275 adbb 7456 1abb
00000180: 9e9d 283c ea9f edbb 1d9a 92ba 0c48 40bb
00000190: c42c d83b a037 baba 6483 343b 7019 053b
000001a0: fdf5 02bc d0f3 fb3a 7acf 9c3b 4ced 2539
000001b0: 5ecb a13b c118 a8ba 379e 3139 df93 17bb
000001c0: 8214 8c3a 7134 503b c423 31ba 3b32 9b3b
000001d0: 427a 913b 98f3 b23a 70f9 a03a 13ae 783b
000001e0: 903e e33b 7089 943a 35ab 15bb 2b88 0a3b
000001f0: 4a3a e1ba 1b15 9fba 3771 ab3b 904a 60bb
0.0020052164 0.0018950222 -0.00578114 0.0024056074 0.0006716079 0.003195179 -0.002660382 -0.0035301638
0.0050774477 -0.002864032 0.003975606 0.0014785758 -0.0015856785 -0.002378687 -0.0012856605 -0.001930031
0.0034514735 0.003701465 -6.5299384e-05 0.008621002 0.0015202933 0.004125996 0.0046886876 -0.0021200208
0.0027369517 0.0036015392 0.001456917 0.003689019 0.0026361388 -0.0004913586 -0.0040935474 0.009969354
-0.0036780974 0.0048650433 0.0006752314 0.0025234886 -0.006728347 0.010236992 -0.0032278583 0.005505272
-0.004396495 0.0014057606 0.002651968 -0.00221532 -0.0023652348 0.0035249908 -0.0008242654 -0.002065234
0.0048374822 0.004666548 0.0026681353 0.0014572277 0.0020362607 -0.0056619295 0.0018017815 -2.8751194e-05
-0.00569801 0.00442493 0.0040885205 -0.0057840855 -0.00022877927 0.0022247 -0.00421962 -0.000360082
0.0026188598 0.001507408 -0.0038476638 -0.0005051331 -0.0042012795 -0.00428392 -0.006550182 -0.0011213529
0.000907283 -0.004698445 0.0120794 0.0016605431 -0.00045223156 0.00028946748 0.00093827164 -0.0040971735
0.0012993834 -0.0040355343 0.00088113075 0.0031825698 0.005472795 0.0007532159 -0.0075908466 0.0039580446
-0.0071072043 -0.0043571275 -0.00045022793 -0.0010211082 -0.002703279 -0.0021379315 -0.0052935714 -0.0023550065
0.010291485 -0.0072517293 -0.0011184845 -0.0029339818 0.0065971334 -0.0014207251 0.0027544135 0.0020309351
-0.0079932185 0.0019222442 0.0047854753 0.00015824026 0.0049375733 -0.001282476 0.00016938975 -0.002312891
0.0010687264 0.0031769539 -0.00067573437 0.0047362125 0.004439623 0.0013652919 0.0012281369 0.0037945553
0.0069349483 0.0011332463 -0.0022837643 0.0021138291 -0.0017183509 -0.0012137027 0.005232002 -0.003422413

network_body._body_endoder.seq_layers.2.weight f4 [128, 128]
00000000: 1ae1 2d3e 2d38 943b 2ee4 aa3d 2159 e63c
00000010: e24e c53d 8978 f13d b870 11bc cdba 213d
00000020: 3180 62bd 658a 1ebc 8353 b3bc ace6 0c3e
00000030: 451c cfbc c359 cf3b ffaa 3ebc 289e acbd
00000040: 29ad cdbd 75b8 e1bc 93db c83d 7517 2b3b
00000050: 786e 4d3c 855b 923d 2676 bc3d f0bf e3bd
00000060: ee73 8dbd 06db 823c f28d e93d 9d10 a4bd
00000070: 371d aabd 08ba a2bd 4e9e d6bc 47ca 2ebc
00000080: 2d74 1d3c 10cb acbd efef 1f3e 28e7 16be
00000090: d29f b3bd d81c 863c e308 083d 5e2c 943d
000000a0: cf36 ee3c 2aad c73d 3258 97bd 8b6e a23d
000000b0: 2f06 273e 30eb 883d df3a 043e bdbc 4dbd
000000c0: edbd f83d 8079 7dbd 0e9e 86be 315e 843d
000000d0: 3e8f 89bd 69f6 bdbc 1165 223e fc17 c1bd
000000e0: 3c06 03bd 6aea 183e 4959 b0bb 6e44 333d
000000f0: 68be 173d da53 9f3d 096d a9bd fd58 b73d
00000100: 85a0 50bd 64cf f13d d87c d1bc a60d 513c
00000110: 1300 ed3d 3799 27be 777f 4cbe cfd6 8a3d
00000120: b689 fcbd 449c 67bd 33ac 08bd 2afd 6dbb
00000130: baa1 41be 6bb3 603d ea38 a2bd 531a 90bd
00000140: 9ec6 7c3d c09e fd3d 5f04 51bc a02e ca3b
00000150: 3a11 c73d e167 f6bd ee1e 1b3d 3f95 653d
00000160: 903c 15bd 752c 51bc 7f8e 00bb 4938 503d
00000170: 8f7e b0bc f99b 31bd 3de7 013d 3c5a d8bc
00000180: 5aa4 06bd e966 fa3d 9919 8bbd d8dc 07bd
00000190: 9ccb 95bd aa1c 97bd c917 cebd 1c81 a9bd
000001a0: 034c 0fbd 4e3a 2d3b 777f d4bd 75f4 043d
000001b0: 48f3 103d 6562 a63c 6bf5 7fbc 1173 fa3c
000001c0: 728b 12be 8e70 d5b9 8a0a d1bc 69b4 0abe
000001d0: d769 0c3d ca39 423d 2a65 75bd 8f9c 53bd
000001e0: 351c 913d e53e 323e 95cf 553d 1bc9 9bbd
000001f0: eeae 0dbb c6c6 2ebd f186 0bbe 6e57 7b3a
00000200: fa0c fc38 16b0 86bd 4454 b0bc 2457 80bd
00000210: e987 043e de6d a4bc 3858 c73b 3c9d fabd
00000220: 00f7 b93d b4ee 53bd 1abe bf3d 2fa4 df3b
00000230: 1414 25be a443 2fbe 1e26 963d 59d5 69be
00000240: c38f c2bc 75b1 f0bd 7399 54be ff4e 90bd
00000250: 601e 433c eb27 2a3d 847c 823d ff9f cb3d
00000260: 998b 563d eab4 e03d d88d 1dbb 4c67 1abe
00000270: 0e4f 313d 6233 0e3e 5c0b 753d 6f2c 41be
00000280: 3344 643d 0954 09bc 5561 843d 5f9c ca3d
00000290: 3cb3 953d 381f 3bbe abb4 1abd d14b 89bc
000002a0: 4a9e 1f3e fb57 82bc d6d4 0bbd 5d79 123d
000002b0: 2190 ecbd 01eb 8ebd a408 0b3e bcc4 583d
000002c0: 0a5e cd3d cd4f 933d 7ae3 773c 7a73 fe3d
000002d0: b199 be3d 87c4 79bd ba7a 8e3d f6b6 e6bd
000002e0: 17cd 11be b2b1 8fbc 680e 42be c5d0 c53c
000002f0: 2895 193e 3adb fdbd d3ab 9abc e192 7c3d
00000300: b8d4 5c3d 438a 103e 464d 133e 5209 3d3d
00000310: d4cb 443d 409c 57bd c1df 99bd 1116 b43c
00000320: 7d36 9bbc e7e4 643e 4752 af3d c573 703b
00000330: 17d9 413d 26a5 b13d 8cb9 d4bd c907 c4bd
00000340: b902 2abd b294 1d3d 1cab 0b3e fe97 05be
00000350: ee72 cc3d 1a52 41bb 1bf3 a03d e453 643d
00000360: 2e51 93bd 131c 8c3c 928d 433e d88a c6bd
00000370: b935 b0bd acc8 1abe d68f ed3d 9fca 02bd
00000380: 546f 863c 87ab 903d 7217 063d 40a2 57bb
00000390: d734 60bd dbc4 903b 1161 e4bd 17c4 37bd
000003a0: 83b8 ad3a afc1 c23d f683 40bd 4fb7 93bd
000003b0: e565 7e3c 940c 40bd b5ff f43d 3fc9 8f3d
000003c0: 33de 3dbe b8da 8c3d 6383 25bd 5e66 103e
000003d0: a9ba 273e 5f00 b7bd a0cf 3dbd 86e7 79bd
000003e0: d1a2 81bd 54c5 863d 2312 95bc 6d1a 203d
000003f0: 1ddd adbb 7909 153d f3e8 3c3d 0327 da3c
0.169804 0.0045232982 0.08344303 0.028118672 0.09634186 0.117905684 -0.008876972 0.039484788
-0.055298034 -0.0096765505 -0.021890407 0.1375987 -0.025282035 0.006327839 -0.011637448 -0.084286034
-0.10042793 -0.027553776 0.098075055 0.002610651 0.012538545 0.07146362 0.092022225 -0.111205935
-0.069068775 0.01597358 0.11404027 -0.08010981 -0.083063535 -0.07945639 -0.026198532 -0.010668344
0.009610218 -0.084371686 0.15618871 -0.14736617 -0.08770718 0.016371176 0.0332116 0.07235025
0.02907887 0.09749825 -0.07389869 0.07931241 0.16310953 0.066854835 0.12913083 -0.050228823
0.121456005 -0.06188345 -0.2629246 0.06463278 -0.067167744 -0.023188787 0.15858866 -0.09428403
-0.031988367 0.14933172 -0.0053817374 0.04376643 0.03704682 0.07779665 -0.0827275 0.0895252
-0.050934333 0.11807135 -0.025572225 0.012759602 0.1157228 -0.1636704 -0.19970499 0.06779253
-0.12330954 -0.05654551 -0.033367347 -0.0036314228 -0.1890935 0.054858606 -0.07921012 -0.07036271
0.061712854 0.12383795 -0.01275739 0.006170109 0.097200826 -0.12031532 0.037871294 0.056050535
-0.03643471 -0.012766947 -0.0019616184 0.050834928 -0.021544723 -0.043361638 0.031714667 -0.026410215
-0.03287158 0.1222666 -0.06791992 -0.033169597 -0.07314226 -0.07378514 -0.100631304 -0.08276579
-0.0349846 0.0026432457 -0.103758745 0.032459695 0.03538826 0.02031059 -0.015622477 0.030572446
-0.14311007 -0.00040710386 -0.02551772 -0.13545384 0.034280624 0.047418393 -0.05991093 -0.051662978
0.07085458 0.17406805 0.05219992 -0.07606717 -0.0021619159 -0.042670034 -0.13625695 0.0009587918
0.000120187135 -0.065765545 -0.021524556 -0.06266621 0.1294247 -0.02007192 0.0060835145 -0.12237021
0.09080315 -0.051741317 0.09362431 0.006824992 -0.1612094 -0.17115647 0.07331489 -0.22835292
-0.023750192 -0.11752597 -0.20761661 -0.07046317 0.011909097 0.041541975 0.06371406 0.09942626
0.052379224 0.109720066 -0.0024040844 -0.15078467 0.043288283 0.13886788 0.059825286 -0.18864606
0.055729102 -0.008381852 0.06463877 0.09893107 0.07309577 -0.18273628 -0.037769955 -0.016759785
0.15587726 -0.015911093 -0.034138523 0.035760272 -0.11550928 -0.06978417 0.13577515 0.052921996
0.10027702 0.07192955 0.015129918 0.12424369 0.09306658 -0.06097844 0.06957002 -0.11265366
-0.14238392 -0.017540786 -0.18950808 0.0241474 0.14998305 -0.1239533 -0.01888076 0.061663512
0.053913802 0.14115243 0.14384946 0.046151467 0.04804595 -0.052639246 -0.07513381 0.021983178
-0.01894688 0.22352944 0.08560615 0.0036690098 0.047326174 0.08674078 -0.10386953 -0.095717974
-0.041506503 0.038471885 0.13639492 -0.13046262 0.099828586 -0.00294984 0.07858869 0.055744067
-0.07193218 0.01710323 0.19096974 -0.09694451 -0.08603997 -0.15115613 0.115997 -0.031931516
0.016410507 0.07063966 0.032737203 -0.0032903105 -0.054737892 0.0044179983 -0.111513264 -0.04486474
0.0013253841 0.095095985 -0.047000848 -0.07212698 0.015527223 -0.046886995 0.11962835 0.070208065
-0.18541794 0.06877655 -0.040408503 0.1410155 0.16379799 -0.08935618 -0.046340585 -0.061011814
-0.06329883 0.06580606 -0.018197125 0.0390877 -0.0053059 0.036385987 0.046120595 0.02662993
