Assets/NeuralNetworks/Phase4/T1/NPCAgent.onnx (onnx, 107855 bytes, 9 tensors)

action_model._continuous_distribution.log_sigma f4 [1, 2]
000000 a4 16 4f bd 9c 01 f6 b7
       -0.0505587 -2.9326235e-05

action_model._continuous_distribution.mu.bias f4 [2]
000000 19 db 0d 3c 77 ea c2 b9
       0.008658194 -0.00037177253

action_model._continuous_distribution.mu.weight f4 [2, 128]
000000 f8 8a 03 3d 33 67 31 3c b7 e7 48 bd d9 d2 1e bd
       0.032114953 0.010827827 -0.049049105 -0.0387753
000010 c1 44 e3 3d 7b a6 5a 3d 56 a0 a1 bd e7 1f f1 bd
       0.11097098 0.053381424 -0.0789191 -0.11773663
000020 35 06 6c bc fb 0a b7 bd 87 7c 06 be ae 79 03 be
       -0.014405777 -0.08937641 -0.13133441 -0.12839386
000030 50 d7 6d bc ca e1 aa 3d e3 7c 80 3d 47 08 c0 bb
       -0.0145166665 0.08343847 0.0627382 -0.0058603617
000040 3b e4 f1 bd e1 a2 a1 bd 0f 8c ef 3d e3 52 13 3d
       -0.1181111 -0.07892395 0.11696636 0.03596772
000050 6e 70 09 be 9a 7e 61 bd 3c fc 1c 3d c8 e7 a6 bb
       -0.13421795 -0.055052377 0.038326487 -0.0050935484
000060 20 ed ee bb 40 b3 29 bc 43 ac cb bb 79 da 86 bb
       -0.007291451 -0.010357678 -0.0062156036 -0.0041153994
000070 f9 52 89 bd f3 bc a5 3d 4b 83 af 3d 66 fc 26 bd
       -0.06705279 0.0809268 0.08569964 -0.04076805
000080 b5 1c f1 3d b0 82 10 be 18 4b 84 bd 6e 43 3e 3d
       0.117730536 -0.14112353 -0.064596355 0.046451025
000090 2a 93 c7 3d dc 8e 9b 3c 89 7c bc 3d a2 5e 8f bd
       0.09744866 0.01898902 0.09203441 -0.07000472
0000a0 64 fa 88 3d af 7e 80 3b f7 ef f2 3d 17 bf 6a bd
       0.06688383 0.003921352 0.11862176 -0.057311144
0000b0 ef ea b9 bb 2d 64 2e 3d 15 4d 6b bc cf 95 1b be
       -0.005673758 0.042576004 -0.0143616395 -0.15193866
0000c0 08 35 82 3d be b8 97 bc 0e 72 01 3d b5 47 29 3d
       0.06357771 -0.01852071 0.03160291 0.04132815
0000d0 0d 4d 58 bd 8b af 0d bc d1 a4 c3 3d 67 cf b8 bd
       -0.052807856 -0.00864781 0.095529206 -0.09023934
0000e0 d2 6c ce 3c 58 b2 02 3d 78 12 07 3d 2b dc 32 ba
       0.025198374 0.031908363 0.032976598 -0.0006822969
0000f0 ef 94 e3 bd 52 0a f9 3c db 07 73 bd 3a 6c 49 3d
       -0.11112391 0.030400429 -0.059333663 0.04917548
000100 f4 f2 0c bd 59 83 0c be be 73 3f bc 7d 2a fb 3d
       -0.034411386 -0.1372198 -0.01168531 0.12263963
000110 0c 53 73 3d 0a 1a 40 3d 01 bd a6 3d be 2f 07 3e
       0.05940537 0.046899833 0.081415184 0.13201806
000120 5c 36 03 3e 83 c6 fe bd c9 80 bf 3d 68 b8 dc 3d
       0.12813705 -0.12440207 0.09350736 0.1077736
000130 bf df 94 3d 71 2f b6 3d b6 92 18 3d 5f 4f 6f 3d
       0.07269239 0.088957675 0.03724929 0.058425304
000140 d8 60 51 bd f4 5c b7 3c 6d 52 89 3d a2 75 8d 3d
       -0.051117748 0.02238319 0.067051746 0.06907202
000150 1e 07 c9 3c 0e 64 00 be 1a c7 63 bd 9d 6e e7 bd
       0.024539527 -0.12538168 -0.0556098 -0.11300395
000160 b7 8a ea 3d b8 da a8 3d b7 c0 82 3d 0c 97 68 bd
       0.11452239 0.08244842 0.06384414 -0.056784675
000170 f6 41 c3 3d da 85 56 bc a4 d3 cf bc 7a a9 d9 3d
       0.095340654 -0.013093436 -0.025369473 0.10628028
000180 13 80 e0 bd 2e 1f b8 3c c5 eb b3 3d f5 03 17 3d
       -0.10961928 0.022475805 0.08785204 0.036869008
000190 aa 44 f9 bd 98 35 a0 3d 76 93 08 3e 4b 27 33 3c
       -0.121713 0.07822722 0.13337502 0.010934661
0001a0 4d 63 12 3d cd a7 e4 bd a6 25 39 bd 44 f5 cb 3d
       0.03573923 -0.11164818 -0.04520192 0.0995889
0001b0 20 a7 06 be 83 70 28 3c 74 98 8b 3c 90 fb 66 3d
       -0.1314969 0.010280731 0.017040469 0.056392252
0001c0 42 bb 0d 3d 74 e3 8a bd a9 db 83 bc 13 61 f4 bd
       0.03460241 -0.067816645 -0.016095953 -0.11932578
0001d0 54 be 99 3c 96 c5 7b bd 79 05 c2 3d 88 07 d3 bd
       0.018767513 -0.06146773 0.094737 -0.10304171
0001e0 7e 7b 93 bd 1e 86 dc bd a1 a7 8f 3d 5a b2 d3 bd
       -0.07201289 -0.10767768 0.070143946 -0.10336752
0001f0 53 e1 a9 3c ec 8c fa bc dd 83 ba bd 8b ec 0c be
       0.020737326 -0.030584775 -0.09107182 -0.13762109
000200 dc d5 67 bd 0d 05 22 bc 01 cd 9e bd 77 ac b6 bd
       -0.056600437 -0.0098888995 -0.07753945 -0.08919614
000210 86 04 54 bc 85 56 ae bc dd 7e 2f bd b8 c0 3a bd
       -0.012940532 -0.02128149 -0.042845596 -0.045593947
000220 19 df ec bd 91 61 5e 3d 0a fd a9 3d fe 37 d3 3c
       -0.1156599 0.054292265 0.083002165 0.025783535
000230 d0 51 10 be 9e fe 75 bd 7b 2e 91 3d 6f b2 da bd
       -0.14093709 -0.060057275 0.070889436 -0.10678565
000240 da d6 7f 3d c1 72 24 bc f5 3f e5 bc e6 51 fe 3c
       0.062460758 -0.010037125 -0.027984599 0.031044912
000250 4e 9b a9 3d d8 a7 01 3e f9 fb a3 3d 0c 67 e3 bd
       0.08281575 0.12661684 0.08007044 -0.11103639
000260 6c d5 8b bd 3d d0 f6 3d f8 11 d4 bd 01 62 f4 3d
       -0.06827816 0.12051437 -0.1035499 0.11932755
000270 20 ce 0f 3e 85 11 8a 3d 38 20 69 bd 3b 5b 49 3e
       0.14043474 0.06741623 -0.05691549 0.19663708
000280 89 5e 41 3d 8b 82 53 bd 10 fa b2 bd be e0 f9 bc
       0.047209296 -0.051638167 -0.08739102 -0.030502673
000290 1c 32 ce 3d 75 7f 08 3e d5 91 4e 3d 77 10 21 bc
       0.10068151 0.13329871 0.050432045 -0.009830586
0002a0 ad 79 2e 3d 06 39 9e 3c c2 af db 3c 17 9e ab bd
       0.042596508 0.0193143 0.026817206 -0.083797626
0002b0 3c 85 05 3d 2d dd 0f bd 42 98 6a 3c 65 0d 88 3d
       0.032597765 -0.03512304 0.014318528 0.0664318
0002c0 8b a9 9d 3d ff cc b5 3d bc e9 0a bd b1 21 03 3e
       0.076983534 0.088769905 -0.033914313 0.12805821
0002d0 e5 d1 e2 bd 06 09 92 bd e4 47 cf 3d e9 81 7d 3c
       -0.110751905 -0.07130627 0.10121134 0.0154728675
0002e0 a4 fe 52 3d b7 ad 6e bc b2 c6 e9 bd 64 b5 b3 3d
       0.051512375 -0.014567784 -0.11414851 0.08774832
0002f0 1a fd 8b 3d 6a 1e 6b 3d fd a8 93 3d 72 bb d6 3c
       0.06835385 0.057402052 0.07209966 0.026212428
000300 f6 29 97 3d 6e 67 c2 3d df 09 e7 3b a6 3b 08 bc
       0.0738105 0.09492384 0.0070507373 -0.008315003
000310 e6 9d 41 bb 9e 5f 89 3d cd ed bc 3c 9d 63 3d bd
       -0.0029543578 0.06707691 0.023062611 -0.046237577
000320 42 ff 2f 3c 19 93 89 3d 8c ff 30 3d 14 bf e6 3c
       0.010742011 0.0671751 0.04321246 0.028167285
000330 23 77 02 bd 11 b8 1e bd 81 cc ae bd cd 60 7f bd
       -0.0318519 -0.03874976 -0.085351 -0.062348176
000340 b1 89 a0 3d fd 19 a2 3c 9a 06 28 be b9 48 92 bd
       0.078387626 0.019787783 -0.16408768 -0.07142777
000350 1f a8 74 bd 27 f4 85 3d 6d ca 64 bc f7 4b 2f bd
       -0.059730645 0.06540709 -0.013964278 -0.042797055
000360 a8 10 fe bc dc d7 1e bd 42 12 f6 3c 68 7e 9b 3b
       -0.031013802 -0.03878008 0.030038003 0.0047452934
000370 8e 9a 25 3d d0 1a 07 3e 61 3e 56 bd de c0 61 3c
       0.040430598 0.13193822 -0.052305583 0.013778893
000380 90 75 17 3e 75 9e 8b 3c d1 a3 85 3d 83 ea a3 3d
       0.1479094 0.017043332 0.06525386 0.08003714
000390 0d 56 e2 bd 56 c2 92 3c d3 a9 a4 bd 75 38 0c 3e
       -0.11051569 0.017914932 -0.08040204 0.13693412
0003a0 a2 65 b1 bd 76 88 de bc 93 9f 7f 3d 63 a7 08 3d
       -0.08661963 -0.027164679 0.06240804 0.033362757
0003b0 8d 52 2f 3b 66 87 95 3d c9 8d 05 bd dc fd 8a 3d
       0.0026752085 0.07301216 -0.03260592 0.06786701
0003c0 73 2f 8b bd 0f f1 c5 bc bc 1c 9a 3d 83 ab d1 bc
       -0.067961596 -0.024162797 0.07525012 -0.025594478
0003d0 30 a0 b0 3d af 72 99 bc 9d af fa bc f1 25 9b 3d
       0.08624303 -0.018731443 -0.030601317 0.07575596
0003e0 5f 1a 15 bd 99 ff 69 3d 0b 6d 65 3d d4 c8 a1 3c
       -0.036402103 0.057128523 0.056012195 0.019749083
0003f0 4f 8e 56 3d d4 f8 fd bd 55 9c 2c bd c7 07 09 bd
       0.05238181 -0.12400976 -0.042141277 -0.033454683

action_model._discrete_distribution.branches.0.bias f4 [2]
000000 80 ea 9c 3c 4a ea 9c bc
       0.019154787 -0.019154686

action_model._discrete_distribution.branches.0.weight f4 [2, 128]
000000 fd 9a d1 3d db 10 03 3e 66 82 6e 3d 60 c0 e5 bc
       0.1023464 0.12799399 0.058229826 -0.028045833
000010 09 0f e4 3d 3f 47 ed 3d 8e 6a fd bb e2 52 11 3e
       0.1113568 0.11585855 -0.0077336496 0.14191774
000020 b3 b2 38 bd 43 5e a8 3b c5 d9 33 be 8f e9 8a 3c
       -0.045092296 0.00513819 -0.17563541 0.016957073
000030 64 d4 3c bd f2 01 af bd 7c df fe bd 08 06 8f bd
       -0.04610099 -0.08545293 -0.1244497 -0.06983572
000040 ff 10 80 3c 42 a8 e2 bd 9b cd b4 3d 13 27 b4 3d
       0.015633104 -0.11067249 0.08828279 0.08796515
000050 29 53 cd bc fc 0e de 3d 6f 64 40 3d ee 9a 99 ba
       -0.025064068 0.10842702 0.04697078 -0.0011719146
000060 fa 0d db bd 8d 16 10 3e c3 26 df bd 0a 13 ac 3d
       -0.10696025 0.14071102 -0.10896065 0.08402069
000070 59 13 ea bb ae 8d 40 bd 66 6a 01 3d d8 54 a7 bd
       -0.0071434197 -0.047010116 0.03159561 -0.081704795
000080 6c 1a 30 3e d6 2e 91 3d 55 6e 1b bd 88 8b a2 3d
       0.17197579 0.07089011 -0.037947018 0.0793677
000090 70 a6 12 3e 23 03 b5 bc 2c 49 51 3d 09 26 f0 3d
       0.14321303 -0.022096222 0.051095173 0.11726005
0000a0 46 2a 93 3c 27 f5 ae 3d 6d 7b 36 be 9c 08 a5 3b
       0.017964493 0.08542853 -0.1782052 0.0050364267
0000b0 72 b3 45 bb 19 8a 1a 3d 99 c5 10 3e 5d ce f5 bd
       -0.0030166772 0.037729356 0.14137878 -0.12002251
0000c0 3e a7 cd 3d 32 91 a2 3d 6e 8b 22 be 1d 23 90 bc
       0.100416645 0.0793785 -0.158735 -0.017594868
0000d0 4a 24 0b be a7 b9 1f 3d c2 4d cc 3d ae 1f cd 3d
       -0.13588062 0.03899541 0.099757686 0.10015808
0000e0 db ac 24 3e 36 30 04 3e 7f fb 46 3d ce 37 d0 3d
       0.16081564 0.12909016 0.04857969 0.10166894
0000f0 0b 8e 29 3e 22 6b 8f 3d 6a c2 29 be 02 87 1a 3e
       0.16558091 0.07002856 -0.1657807 0.15090564
000100 ce 03 0e be ea a3 bf bd b4 e5 45 3e 55 65 6b 3d
       -0.13868639 -0.09357436 0.19325906 0.057469685
000110 46 1b 1c 3d de 64 79 3d 4a 78 10 3e 63 b8 a7 bd
       0.038111947 0.06088721 0.14108387 -0.08189466
000120 d9 52 7a bc 9b fd fa bd 2c ef 75 3d c7 86 b8 bd
       -0.0152785415 -0.12255403 0.060042545 -0.09010082
000130 1d 0d 27 be d8 6d 37 bd 42 9b b0 bd cb 67 37 bd
       -0.16313596 -0.04478249 -0.08623363 -0.04477672
000140 e6 34 d9 3d 1c 35 32 3e 75 a4 53 3c a0 fd e0 bc
       0.10605793 0.17403072 0.012917628 -0.027464688
000150 d7 43 bc 3d 83 b7 3c 3d a1 bf cb 3d 63 37 43 3d
       0.09192627 0.046073448 0.0994866 0.047660243
000160 25 0e b2 3b 46 ce a9 bd 7d e7 da 3d 7c 22 3e 3e
       0.005433815 -0.08291297 0.10688684 0.18567842
000170 e5 93 e0 3d 38 61 63 bd 92 56 26 bb f4 c1 70 3d
       0.10965709 -0.055512637 -0.002538119 0.058778718
000180 2f ea 64 bc 84 0b 28 be 0d 5f df bd a7 5d e7 3d
       -0.013971849 -0.16410643 -0.109068014 0.1129716
000190 f2 f9 0f bd 6f f5 15 3e 9e e6 aa bc f2 a2 a5 bd
       -0.035150476 0.14644407 -0.02086192 -0.0808772
0001a0 d0 3f 80 bd 96 36 1f 3d 9c 87 1c be d3 ba fe bd
       -0.06262171 0.038870417 -0.15286106 -0.12437978
0001b0 8a 67 d5 3d c0 4b f0 bd ac 9f f7 3d 8a 5e 17 3e
       0.10420139 -0.11733198 0.12091002 0.14782158
0001c0 ac 6b 9c bd 4d e3 08 3e 7c aa 86 3d b5 67 2a bd
       -0.07637724 0.13367958 0.06575486 -0.04160281
0001d0 e0 12 e9 3c 47 27 fd 3d 40 3e e5 3b 05 19 2f 3e
       0.028451383 0.12361007 0.006995946 0.17099388
0001e0 90 fa f4 3d b7 3c 2d 3d ba 30 03 be bf 86 ef 3d
       0.119618535 0.04229423 -0.12811556 0.11695623
0001f0 13 9f 85 3d 1f e1 d5 bb fc 1b 93 3d f6 8c 95 3d
       0.065244816 -0.0065270807 0.07183072 0.07302277
000200 6f 88 cb bd 0f 0c 09 be 44 c2 27 bd 1f 6d 06 3c
       -0.09938132 -0.13383506 -0.04095675 0.008204727
000210 b4 58 e9 bd fc 6a f1 bd ef 04 96 3c 5b c7 1e be
       -0.11393872 -0.11787984 0.0183129 -0.15505736
000220 8c 12 49 3d 41 c0 a8 3b a0 c5 2b 3e a4 b4 21 bc
       0.049089953 0.0051498716 0.16774607 -0.009869728
000230 34 6d 36 3d e7 c9 c3 3d ad c2 04 3e 26 f2 4c 3d
       0.044537738 0.09559994 0.12964888 0.05003562
000240 2e 8b 2b b8 8e f8 e2 3d 5c 7a a9 bd 63 00 ad bd
       -4.08992e-05 0.11082564 -0.08275291 -0.084473394
000250 ce 67 cb 3a bb 7f c0 bd 8b 78 a5 bc 97 cb ab 3c
       0.0015518607 -0.09399363 -0.02019908 0.020971103
000260 97 8c 00 3e ef 8b 16 be a8 ef ef 3d ee 28 9c bd
       0.12553631 -0.14701818 0.11715633 -0.07624994
000270 44 02 c9 bc 9f 61 fa 3c 3c ec 1a bd 8b 99 b8 3d
       -0.024537213 0.030564127 -0.037822947 0.09013661
000280 aa 1b 3b be 16 08 91 bd 90 5e 0a 3d 90 0d a6 bd
       -0.18272272 -0.070816204 0.033781588 -0.081080556
000290 e0 bc f1 bd 28 68 f6 3b 0a ed 89 bd e1 17 b9 bd
       -0.11803603 0.0075197406 -0.06734665 -0.09037758
0002a0 4b 5b 7b bc 9e 20 d2 bd d9 5a 24 3e 2d ff 62 bc
       -0.01534159 -0.102601275 0.1605028 -0.013854784
0002b0 f4 11 8b 3b 67 5a c8 bc ff a0 0d be 1d 55 ea 3d
       0.0042440835 -0.02445717 -0.13830946 0.11442015
0002c0 2a 96 aa bd 22 de bc bd 47 ea 0f 3e 0d 51 21 3d
       -0.08329423 -0.09222056 0.14054213 0.039383937
0002d0 21 e2 f3 3d ed e3 67 bd 81 b5 c2 bd 23 a0 d7 bd
       0.11908365 -0.05661385 -0.095072754 -0.105285905
0002e0 28 bf 3b be 52 c8 01 be ed bd 42 bd 70 f3 cc bd
       -0.18334639 -0.12674072 -0.04754441 -0.100073695
0002f0 59 c0 17 be a2 48 8c bd dd e3 3b 3e b0 38 13 be
       -0.14819469 -0.06849791 0.18348642 -0.14377093
000300 02 30 0e 3e e4 8d b5 3d 40 5f 26 be a4 42 8e bd
       0.13885501 0.08864954 -0.16247272 -0.069463044
000310 38 25 39 bd b4 7c 8e bd 10 e2 12 be 4b 5d 96 3d
       -0.04520151 -0.06957379 -0.14344049 0.07342013
000320 51 11 97 bb fa 96 c5 3d b7 56 81 bd 8d 4b b4 3d
       -0.0046102186 0.09647937 -0.06315368 0.08803473
000330 3e 00 22 3e 9a 30 d3 3c 5f cb bd 3d 18 b8 1d 3d
       0.15820405 0.025780011 0.092673056 0.038505644
000340 19 60 d3 bd 07 9f 15 be cc fe 81 bc 0d a8 59 3d
       -0.103210635 -0.14611445 -0.015868567 0.05313878
000350 b9 35 d5 bd b2 30 6e bd a4 3f f8 bd 3d 18 98 bd
       -0.104106374 -0.05815191 -0.121215135 -0.07426498
000360 0d de 1a bc f4 9e 89 3d 20 bc ec bd ca d3 35 be
       -0.009452355 0.06719771 -0.115593195 -0.17756572
000370 19 01 d3 bd 3a 40 1c 3d 83 b3 24 b9 23 96 55 bd
       -0.10302944 0.03814719 -0.00015707132 -0.052145135
000380 1a f9 8f 3c 14 71 1d 3e e0 7f e4 3d bc e0 f3 bd
       0.017574836 0.15375167 0.11157203 -0.11908099
000390 7c 0a 02 3d d2 64 19 be 23 41 ca 3b 7f 53 b1 3d
       0.03174828 -0.14979866 0.0061723157 0.08658504
0003a0 e0 06 4a 3d 93 53 e3 bc 0e d3 1f 3e 2b 99 00 3e
       0.049322963 -0.027749812 0.15607855 0.12558429
0003b0 5f 44 cf bd 28 81 02 3e 2a 64 f3 bd 7d 80 0c be
       -0.101204626 0.12744582 -0.11884339 -0.1372089
0003c0 e7 7c 64 3d f6 ef df bd 1d 54 3a bd d9 d6 86 3d
       0.05578318 -0.10934441 -0.045490373 0.06583948
0003d0 4e b3 d7 bc b6 74 01 be 8a f7 0d 3c 8f 27 1e be
       -0.026330616 -0.12642178 0.008664975 -0.15444778
0003e0 0b 68 fd bd 62 ae 33 bd ec fb de 3d a4 bd ec bd
       -0.1237336 -0.043867476 0.10887894 -0.115596086
0003f0 c0 ef 5c bd 5a bc c1 3c 06 0d 85 bd 93 d9 b2 bd
       -0.05393958 0.023649383 -0.06496625 -0.08732905

network_body._body_endoder.seq_layers.0.bias f4 [128]
000000 04 fc 2c 3c af f5 67 3d 13 b4 ca 3c 92 04 9b bb
       0.010558132 0.056630787 0.02474407 -0.0047307694
000010 e1 67 d9 3c a3 0c 20 3b 50 a7 d5 3c 48 c8 55 3d
       0.026538791 0.0024421595 0.026080757 0.052192956
000020 d8 a1 06 3c eb 20 23 3d d8 07 1f 3c 5d f2 5a 3c
       0.0082172975 0.039826315 0.00970646 0.013363448
000030 5e a6 d9 b9 95 5f 8d 3c bd 50 93 bb 48 b6 46 3c
       -0.0004151342 0.017257491 -0.0044957087 0.01212842
000040 63 62 05 3d f6 f9 93 3c 88 f0 16 3c c8 5e da 3a
       0.032564532 0.018063527 0.009212621 0.0016660327
000050 41 31 a3 3c 04 42 34 3d cd ca 4b 3d b2 f4 83 bb
       0.019920947 0.04400827 0.049753953 -0.0040269727
000060 93 52 93 3c ad 29 68 3c 29 0c 89 3d d1 9f b1 3b
       0.01798371 0.0141700925 0.066917725 0.005420663
000070 22 28 94 3c 5b a5 d8 3c b6 cd d9 3c 85 54 7c 3c
       0.018085543 0.026446035 0.026587348 0.01540101
000080 ff b9 c9 3c 38 43 c9 3c d6 c9 7d 3c e4 0d d8 bb
       0.024624823 0.024568185 0.015490016 -0.0065934528
000090 2f 27 67 3d 8a fe 05 3d a4 09 0e 3d 68 06 d5 3c
       0.056433853 0.03271345 0.034677163 0.026004031
0000a0 ef ac 17 3b fc e0 89 3d e3 07 c2 3c bf 19 6c 3c
       0.0023143848 0.067323655 0.023685401 0.014410435
0000b0 73 49 e8 3c f1 6a 10 3d d1 27 48 3c c9 0c 8b 3c
       0.028355336 0.035258237 0.012216524 0.01697387
0000c0 9f 97 cc 3c 6e c3 71 3d 7a ae 01 3d 73 b4 08 3d
       0.024974642 0.059024267 0.031660534 0.033375215
0000d0 fd c5 3b 3d 7e 70 b5 3c d4 6e 0d 3d 4b a3 0e 3d
       0.045843113 0.022148367 0.034529522 0.034823697
0000e0 3a a6 e6 3c 3e 3b f1 3b a5 d3 ad 3c a1 38 09 3d
       0.028155435 0.0073617985 0.021219084 0.03350127
0000f0 b3 70 89 3c 81 27 b5 39 89 eb a4 3c b6 fd a0 3c
       0.016777372 0.00034552443 0.020131843 0.019652229
000100 6f 6b 15 3d 9e e9 4e 3c cf dc 0a 3d a6 71 d9 3c
       0.03647941 0.012628941 0.033901986 0.02654345
000110 cd 0e a9 3c dd 62 d0 3c 61 ac eb 3c 5e 27 a2 3c
       0.02063694 0.025437767 0.02876872 0.019794162
000120 13 60 73 3b cf 02 4f bc 72 4e df 3c c0 56 ec 3a
       0.0037136122 -0.012634947 0.027259085 0.0018031225
000130 8f b9 1b 3c 29 ca b4 3c 4a f1 db 3c ff 71 aa 3c
       0.00950469 0.022069054 0.026848454 0.02080631
000140 f8 81 c4 3c 77 f5 69 3d 4e a7 ef 3c 18 b3 c0 3c
       0.023987755 0.05711886 0.029254582 0.023522899
000150 70 7a 3a 3d 47 66 2d bc 73 bb 88 3d ff 0d 60 3b
       0.04552692 -0.010583467 0.06676378 0.003418803
000160 b1 b3 6e 3d 3f e8 0c 3c d9 6b 83 3c 05 d7 95 3c
       0.058276836 0.008600294 0.016042637 0.018291006
000170 c8 ae 67 3d 42 95 a4 ba 98 6f 8d 3c f4 8c 8d 3c
       0.05656317 -0.0012556689 0.017265126 0.017279126
000180 ef b4 4b 3d 70 b2 cd 3c 4d d9 27 3d be 1a a0 3c
       0.0497331 0.0251095 0.04097872 0.019544002
000190 c3 3c 99 3c 2d 1b e3 3c 8b 5f 11 3d 97 82 b6 3c
       0.018705731 0.02772292 0.035491508 0.022279067
0001a0 f1 57 15 3d 42 0c 93 3c 82 c5 3e 3d 6a f0 f0 bb
       0.03646082 0.01795018 0.046575077 -0.0073528783
0001b0 b9 5b 10 3d b9 79 89 3d 81 59 81 3c 9b 4e 7b 3c
       0.035243724 0.0671267 0.01578975 0.015338565
0001c0 08 b3 b7 3b 0a fc 88 bc dd 72 d0 3c 4e 87 89 3c
       0.005606059 -0.016721744 0.025445396 0.016788151
0001d0 88 01 a8 3c 81 3b 0d 3d bf bb 84 3d 3a 26 f2 3a
       0.020508543 0.034480575 0.06481122 0.0018474527
0001e0 6a a6 b6 3c bd f3 87 3c f4 1e de 3c aa e0 f7 3c
       0.02229615 0.016595716 0.027114369 0.030258495
0001f0 ee 95 ad 3c a6 34 11 3d f0 7e 1d 3c ac 38 29 3d
       0.021189656 0.0354506 0.009612784 0.041313812

network_body._body_endoder.seq_layers.0.weight f4 [128, 71]
000000 02 75 44 3d 88 06 89 bd f5 b4 5d 3e 84 c5 18 3e
       0.04796315 -0.06690699 0.21651061 0.14919096
000010 eb 56 e5 3c 85 f4 05 be f3 7f 06 be 7b 4b 84 3d
       0.027995547 -0.13081558 -0.13134746 0.06459709
000020 98 34 62 3e aa 57 9d 3d 74 e7 c9 bd b1 d6 da 3c
       0.22090375 0.07682736 -0.09858599 0.026713701
000030 d0 50 e7 3d dc f6 0c be c2 ae 7e be 11 8d 1c bb
       0.11294711 -0.13766044 -0.24871352 -0.0023887793
000040 50 89 61 3e 39 bc b7 3d 5c bb 15 3d 40 21 c0 bd
       0.22025037 0.089714475 0.036555633 -0.09381342
000050 5d 3e 08 3c d3 f1 40 be d3 a5 05 3e a9 a7 af 3c
       0.00831565 -0.18842249 0.13051538 0.021442251
000060 f3 ff 70 bd aa e9 74 bb 9a d0 1f 3e 53 bf 3e be
       -0.058837842 -0.003737072 0.15606919 -0.18627672
000070 57 3e 97 be b0 0e d5 3d f3 22 43 be bc 2e 3c 3e
       -0.2953975 0.10403192 -0.19056301 0.18377203
000080 24 95 e4 3d 4c 53 9c be 77 2e 79 be b3 5b c3 bd
       0.11161259 -0.305323 -0.24334131 -0.095389746
000090 23 da c5 bd ce 2b ac 3c d7 d3 83 be 2c 1d 0d be
       -0.09660747 0.021016981 -0.25747558 -0.1378066
0000a0 81 e0 0d 3e 3a de 1d 3d 17 d8 e9 3d 7d ac 80 3c
       0.13855173 0.03854201 0.11418169 0.015707249
0000b0 a7 a1 54 be d8 d3 4f 3e 8a be 61 bd d7 cb 94 be
       -0.2076479 0.20295656 -0.055113353 -0.29061767
0000c0 1e 1b cd bc 1d e4 d8 3d a2 8d 90 bd f9 6a 04 be
       -0.025037345 0.10590384 -0.07058264 -0.12931432
0000d0 71 3a 9c 3e 8b 07 3c 3e 93 2c cb bd 3a 53 8d bd
       0.30513337 0.18362252 -0.09920611 -0.0690064
0000e0 85 20 99 bd 95 29 fc 3d a4 08 50 3d 17 68 f1 bd
       -0.07476906 0.12312619 0.05078949 -0.11787432
0000f0 57 bb a8 3d 6d 82 52 3d be 3a 99 bd b6 78 1d be
       0.08238857 0.051393915 -0.07481907 -0.15378079
000100 06 fb b1 bc af 61 16 be 58 f7 17 be 94 d3 6c be
       -0.021726143 -0.14685701 -0.14840448 -0.23127586
000110 a2 ae 4e 3d 3b 7c fb 3d 53 15 fa 3c 41 df 0a be
       0.05045951 0.122795545 0.030527746 -0.13561727
000120 39 9a 2e 3d 61 cf 0b be 20 d8 0a 3e dd 58 32 3e
       0.042627547 -0.13653328 0.13559008 0.17416711
000130 e2 fd ca 3d e6 63 0d be 73 75 58 3e 44 70 28 3e
       0.099117056 -0.1380764 0.21138553 0.16449076
000140 ed 65 21 bc 67 ad 02 3d 8c cc 60 bd 75 a5 21 3e
       -0.009850961 0.03190365 -0.05488257 0.15785773
000150 75 de 90 3c 44 ba 5b 3e da 79 41 be 88 2a 60 3d
       0.0176842 0.21457773 -0.18894139 0.05472806
000160 6f fa 14 3e 86 80 32 3e 84 f8 15 3e 5d c7 6d 3c
       0.14548658 0.1743184 0.14645582 0.014512864
000170 2e 76 f9 bc 9e 4c 32 3b e8 9a 3a 3d 77 8a c3 bd
       -0.03045186 0.0027206312 0.045557886 -0.095478944
000180 ae 46 a6 3d b2 fd b0 3d 95 fd 9e 3e 6e f2 bf bc
       0.0811895 0.086421385 0.31052843 -0.02343103
000190 f2 85 32 bd 70 06 d8 3d bc 2f d8 3d 1a b9 a1 3d
       -0.04358477 0.10548103 0.105559796 0.078966334
0001a0 66 b8 77 3c fe 9d 56 3e fb e8 b0 3b 01 36 87 bd
       0.015119648 0.20958707 0.005398867 -0.06602097
0001b0 1e a9 8f 3d 0a 72 29 be a5 94 2b 3a 50 96 04 bd
       0.070146784 -0.16547409 0.0006545282 -0.03236991
0001c0 be f6 3f 3e 90 6f 02 bd 45 25 be bd 9e a2 f9 3d
       0.18746468 -0.031844676 -0.09284452 0.1218922
0001d0 8b 09 32 be 3b ac 67 bd ae a2 09 3d 0c 34 64 be
       -0.17386453 -0.056560736 0.03360241 -0.2228548
0001e0 e3 61 2d 3d 23 56 b1 bd 18 16 c2 3c 9f 64 95 3d
       0.04232968 -0.086590074 0.023692176 0.072945826
0001f0 e4 02 a1 3d 71 91 5e 3d 74 97 49 bd 8b fd 6e 3c
       0.078618795 0.054337922 -0.049216703 0.014586817
000200 46 3c fa 3d 9a 9d 8a 3d 12 92 34 3c bb bb f6 3d
       0.122185275 0.06768341 0.011021154 0.120475255
000210 26 3f 27 be b6 61 c9 3d 21 39 9c bc 49 0e 60 3d
       -0.16332683 0.0983309 -0.01907021 0.054701123
000220 b9 f1 e8 3d a1 47 98 bc 0f 70 45 3e 20 29 89 be
       0.1137423 -0.018588843 0.19281028 -0.26789188
000230 60 78 f9 bd ea b2 67 3c 74 82 93 3e 6c 33 33 3d
       -0.12181163 0.0141417775 0.28810465 0.04375021
000240 20 79 14 bd 37 43 e2 bd 67 c5 51 be 88 4c 96 3d
       -0.036248326 -0.110479765 -0.2048546 0.07338816
000250 12 67 22 bd c0 39 fe 3c 2b f7 12 3e 8b 62 e2 3c
       -0.039649077 0.031033397 0.143521 0.02763488
000260 c3 68 a1 3d 77 66 f1 bd be bd 89 3d c4 9f ae 3d
       0.0788131 -0.11787122 0.067256436 0.085265666
000270 b8 87 04 3d 05 7d ab bd 5b 78 33 3e 90 14 8a bd
       0.032355994 -0.08373455 0.1752638 -0.06742203
000280 20 45 d7 3d fa 9d bb 3d c9 17 b9 bb 96 33 e2 bc
       0.105112314 0.09160991 -0.0056485874 -0.027612489
000290 8c 1f 4b be 79 be 87 3e 5e 61 10 3e 17 e4 42 3e
       -0.19836253 0.26512507 0.14099643 0.19032322
0002a0 12 6f 1b be 0a 1c b5 bd 8b 4a 91 bc ac 7f 68 3d
       -0.15179089 -0.08843239 -0.01773574 0.056762382
0002b0 4f d0 e3 3d 92 63 50 3e ac 78 cf 3d 89 12 fb 3d
       0.11123716 0.20350483 0.10130438 0.12259395
0002c0 55 c0 e5 3b ee 29 fd bd 0c 56 b9 3c b2 f2 ef bd
       0.007011453 -0.12361513 0.022624038 -0.11716212
0002d0 f1 ae 51 3c 37 eb 6e bd 99 29 12 3e 09 9b d5 3d
       0.012798057 -0.058329787 0.14273681 0.10429961
0002e0 32 b2 2d bd 43 f8 10 be ec 78 e1 bc 7c 86 1c 3e
       -0.04240627 -0.14157204 -0.02752348 0.15285677
0002f0 5b 84 27 bc fa 54 f2 3d ec 98 59 3e 5f a1 ee bc
       -0.010224427 0.11832614 0.21249741 -0.029129682
000300 47 5e 91 3d ad 26 e2 3d 78 89 02 3e 56 b1 97 bc
       0.0709806 0.11042533 0.12747753 -0.018517178
000310 ea 1a 68 bd c1 53 ec 3d 57 1b fc 3d 79 99 67 be
       -0.056666292 0.11539412 0.12309902 -0.22617139
000320 16 b3 af 3d a9 89 42 be 71 e0 cc 3d 5f aa 16 3e
       0.0857908 -0.18997826 0.10003746 0.14713429
000330 48 c1 e8 bd 0e e9 7f 3e bf 3a 41 be 5f 37 18 3d
       -0.113649905 0.24991247 -0.18870066 0.03716218
000340 6b d6 43 3d 2d c6 5c 3e 1c 35 a4 bd 4e e1 f2 3d
       0.047811907 0.21559973 -0.08017942 0.1185938
000350 fb 68 33 3e 8b d9 15 3d 89 82 27 be 11 b4 42 b8
       0.17520516 0.03658442 -0.16358389 -4.6420904e-05
000360 d2 07 7b bd 83 18 85 3d c2 ba a2 bd df 19 61 bd
       -0.061286755 0.06498816 -0.079457775 -0.054956313
000370 76 20 70 bc 6d 46 99 bb d6 6f 26 3d ee 7c 50 3d
       -0.014656177 -0.004677585 0.040634 0.050900392
000380 21 47 93 bc b8 23 b8 bb a4 88 bd 3c a1 42 5a 3e
       -0.017978253 -0.0056194924 0.023136444 0.2131448
000390 50 6e de bd 40 0c c8 bd 45 a5 ce 3d 11 ec b5 3d
       -0.10860884 -0.097679615 0.100901164 0.08882917
0003a0 68 03 e1 3d 08 c0 be bd 76 82 2e be 60 47 2d bc
       0.10986978 -0.09313971 -0.17041954 -0.010576099
0003b0 b0 df 42 be 16 ff 9e 3d 5e 9e 35 bd e9 4f d3 3e
       -0.19030643 0.077634975 -0.044340484 0.41271904
0003c0 34 6e bd 3d 85 1e 0a be 55 9c fc bc d8 63 78 bc
       0.09249535 -0.13488205 -0.030836264 -0.015160523
0003d0 71 15 b3 bd dc 96 14 be 1f 7f 9a bd 21 40 67 bc
       -0.08744324 -0.14510673 -0.07543778 -0.014114411
0003e0 44 e7 84 3d bc d8 0d 3d 2b d8 14 3d 93 9a 91 ba
       0.06489423 0.034630522 0.036338966 -0.0011108689
0003f0 9a f9 d8 bd c0 98 b8 3d 83 c8 c3 bc 87 55 27 3e
       -0.10594483 0.0901351 -0.023899322 0.1634122

network_body._body_endoder.seq_layers.2.bias f4 [128]
000000 7d 97 f7 3c 60 0d d0 3c e6 f9 35 3c ca e6 5f 3c
       0.030223602 0.025397003 0.011106944 0.013665864
000010 e3 5f 58 3c a8 0e b2 3c 11 8c 94 3c 35 b3 ac 3c
       0.013206455 0.021735504 0.018133195 0.021081546
000020 5d 40 a4 3c 1b ab ff 3b 47 55 6a 3c 0b 67 58 3c
       0.020050222 0.00780238 0.014302558 0.013208161
000030 73 fe 08 3d 4e 20 fc 3c 02 dc 22 3d 58 fc b7 3c
       0.033445787 0.030777123 0.039760597 0.022459194
000040 a2 d9 ae 3c 0a 5a d4 3c b1 b0 99 3c 0d 7e ec ba
       0.02134401 0.02592184 0.01876101 -0.0018042937
000050 9d 96 85 3c 03 b0 ac 3c 5c e0 44 3c 52 07 76 3c
       0.01630717 0.021080023 0.012016382 0.015016394
000060 b3 96 00 3d 8e 86 0e 3c f0 9c 0e 3d 08 40 b5 3c
       0.031393718 0.0086990725 0.034817636 0.022125259
000070 45 7c d7 3c 02 84 95 3c 19 8a 18 3d a7 98 0a 3d
       0.026304374 0.018251423 0.037241075 0.033836987
000080 7b a3 cf 3c a1 37 f8 3c 38 9b 1d 3d 9b 1a 9d 3c
       0.025346508 0.030299963 0.038478106 0.019177726
000090 57 93 a4 3c 92 c3 06 3d fc 67 c6 3c 06 e1 fd 3b
       0.020089788 0.032901354 0.024219505 0.007747772
0000a0 53 65 44 3c 52 f9 b0 bb 13 8a 13 3d 11 48 e7 3c
       0.011987048 -0.005400815 0.03602035 0.028232606
0000b0 0b 53 c1 bc ab 5a 25 3c 67 9d 2f 3c b0 c6 9f 3c
       -0.023599168 0.010092418 0.01071868 0.019503921
0000c0 2b 45 a3 3c 47 3f 03 3d f2 9a 89 3c 56 59 f5 3c
       0.019930443 0.032042768 0.016797516 0.029949825
0000d0 66 c1 d7 3c bd c4 c1 3c e8 b0 f7 3c ca bf d4 3b
       0.026337337 0.023653382 0.030235723 0.0064925896
0000e0 a9 4d 9e 3c d3 dd 7f 3c ca a8 eb 3c 14 62 ce 3c
       0.01932414 0.015616852 0.028767008 0.025193252
0000f0 6f 4b 87 3c a8 9b c6 3b a6 5e 3a 3d be 13 b6 3c
       0.016515462 0.006061036 0.04550042 0.02222621
000100 19 97 c9 3c 1e c6 0c 3d 48 10 ab 3c 69 c2 df 3c
       0.024608182 0.034368627 0.020881787 0.027314382
000110 43 08 1a 3c 7c e8 64 3c 13 15 68 3c 6e b1 24 3d
       0.009401384 0.013971444 0.014165181 0.040208273
000120 f0 b6 1c 3d 25 21 63 3d fd ce fb 3c c0 94 29 3c
       0.0382604 0.05545153 0.030738348 0.010350406
000130 c2 e2 b7 3c 47 fa 02 3d b5 1f 10 3d 1b 71 bf 3c
       0.022446994 0.031976964 0.03518649 0.023369363
000140 4f f3 71 3c 13 46 93 3c 69 67 14 3d a2 de 12 3d
       0.014767482 0.01797775 0.036231432 0.03585685
000150 3a 57 9b 3c 14 4f 94 3c ce cf 3c 3c 68 1d 51 3c
       0.018962491 0.018104114 0.011524154 0.012763359
000160 da 90 e3 3c 74 11 d1 3c 80 11 bc 3b f4 54 33 3c
       0.027779032 0.025521018 0.005739391 0.010945547
000170 8a 64 c9 3c c1 8c 2a 3d ae 84 96 3c a7 75 a1 3c
       0.024584074 0.04163814 0.018373813 0.019709421
000180 30 fb 72 3d b7 4b 87 3c 17 73 aa 3c 09 52 cb 3c
       0.059321582 0.016515596 0.020806832 0.02481939
000190 dc f1 bc 3c e3 42 b0 3c 1f a8 1d 3d 99 30 14 3d
       0.023064546 0.02151627 0.03849041 0.03617916
0001a0 af a0 7c 3c 3b e8 b8 3c 0d 3d 85 3c c5 9c 74 3c
       0.015419169 0.022571674 0.016264463 0.014929955
0001b0 fa 25 1c 3c f6 2e 46 3d 12 08 a9 3c 51 9e a8 3c
       0.009530539 0.04838463 0.020633731 0.020583304
0001c0 f1 5e 25 3a 39 02 7b 3c cb 58 02 3c a1 b6 97 3c
       0.0006308398 0.015320354 0.00795574 0.018519701
0001d0 51 7b 1f 3c 73 c2 21 3c 2e f0 9f 3c 00 08 3c 3c
       0.009733991 0.00987302 0.019523706 0.011476517
0001e0 9f cc de 3c a3 36 bb 3c b9 a8 f7 3c 1b 64 73 3c
       0.02719718 0.022853201 0.03023182 0.01485541
0001f0 5b cb c4 3b 24 c7 27 3d a5 f8 5c 3c 10 d6 17 3d
       0.006005687 0.0409614 0.013487016 0.03706938

network_body._body_endoder.seq_layers.2.weight f4 [128, 128]
000000 85 39 83 3c f5 ce bc bc d2 76 70 3d 6c 6b 8b be
       0.016018638 -0.023047904 0.058707066 -0.27230394
000010 52 95 44 3e e0 f6 c8 bd 38 c3 24 3e f0 60 c7 bd
       0.19197586 -0.09812713 0.16090095 -0.09735286
000020 3a 7f 67 3d 66 14 b7 3d 70 2f 85 3d 67 89 a1 3d
       0.056517817 0.089394376 0.065031886 0.078875355
000030 b2 2f 47 3b 27 1a 3a 3d d1 c4 05 3e 78 6f e6 3d
       0.003039342 0.045435097 0.13063361 0.1125173
000040 62 3f 3c bc b5 e0 85 3d fd 22 10 bd e6 f8 fd bc
       -0.011489721 0.06537 -0.035189617 -0.031002473
000050 ff d9 c4 bd d0 f0 86 3d 46 cf 2d 3d 99 32 ff 3b
       -0.09611892 0.065889 0.042434 0.007788014
000060 8e a3 4f 3e 83 92 75 3d 69 54 31 3e 90 a2 ae 3c
       0.20277235 0.059954178 0.17317356 0.02131775
000070 4f cf 1d be 8a 52 29 3d 09 b3 fc 3d 28 63 0f bd
       -0.15411113 0.04133848 0.12338836 -0.035006672
000080 19 fb 52 3d 60 c6 8b 3d 6e 16 1e bd 91 0e 0a be
       0.051508997 0.068249464 -0.03859561 -0.13482119
000090 e6 cd 36 be ce 6e 41 be b1 49 12 be 74 82 bb 3d
       -0.17851982 -0.18889925 -0.14285924 0.09155741
0000a0 d6 57 8d bd fe 70 f8 bd 2b 31 9a bd 5a 21 72 3d
       -0.06901519 -0.121309265 -0.07528909 0.059113838
0000b0 c5 d9 29 bc 20 eb 0f 3e 60 a3 9b bd 03 2d 1b be
       -0.010366862 0.14054537 -0.07599521 -0.1515389
0000c0 73 39 3c 3e dc 5e 25 bc 74 cd 75 3d 49 37 21 3e
       0.1838129 -0.010093417 0.06001039 0.15743746
0000d0 98 0a 4c bd fa 1e 1c 3e 38 7a d9 3d aa 30 d1 3d
       -0.04981479 0.15246192 0.106190145 0.1021436
0000e0 d8 71 95 3e 0e a3 88 be 3f 85 0e bd 18 23 25 3e
       0.29188418 -0.266869 -0.034795042 0.16126668
0000f0 4c c6 5c bd ff 4f f0 bc c5 fd 23 be 97 70 1a 3e
       -0.053900048 -0.02933502 -0.16014774 0.15082012
000100 21 26 00 3e f8 81 02 3e 50 63 07 bd 95 08 d0 3d
       0.12514545 0.12744892 -0.033053696 0.10157887
000110 c8 63 42 bd a7 00 05 be 6b b5 b2 3d 46 84 58 be
       -0.04745844 -0.1298853 0.08726009 -0.21144208
000120 31 34 d7 bc 50 79 a3 3d 88 1e 73 3d 95 cb b1 3b
       -0.026270004 0.07982123 0.05935529 0.00542588
000130 bb f3 03 3e 67 87 71 3c f0 3a bf bc 12 45 0e bd
       0.12885945 0.014741755 -0.023343533 -0.03473384
000140 67 ce 2b 3d 56 a0 97 be 31 2e 68 3e 66 e8 a5 bd
       0.041944887 -0.29614514 0.2267387 -0.08100967
000150 93 54 d5 3d c4 7e be bd f7 fa e5 bd 75 34 4d bc
       0.10416522 -0.093015224 -0.11229508 -0.012524714
000160 52 e1 ab bd c3 93 b6 3c 22 37 4f 3d ed 7d e0 3c
       -0.08392586 0.022287255 0.050589688 0.027403796
000170 6e 17 cf 3d 00 34 15 bd 33 8d 09 3e 92 f0 c5 3d
       0.10111891 -0.036426544 0.1343277 0.09665026
000180 8b 8f 28 bc c2 59 ca 3d 2f a2 c3 3b a6 bf cd 3c
       -0.01028813 0.09880401 0.0059702615 0.0251158
000190 4a 84 41 3d 65 1b 81 3d f6 b3 0f bd c6 6e b2 3d
       0.0472453 0.06304053 -0.035083733 0.087125346
0001a0 19 d5 4d be 37 a8 12 be 38 1e 22 be 61 bd b0 3c
       -0.20100822 -0.14321981 -0.1583184 0.021574678
0001b0 97 d7 ab 3d 0e ff 4a be 02 75 47 be 8b a3 76 3d
       0.0839073 -0.19823858 -0.19478229 0.06021456
0001c0 f4 ed c7 3d fd 18 3f bb fc 7d cd ba d0 a0 0a be
       0.09762183 -0.0029159181 -0.0015677805 -0.13537908
0001d0 1b aa 24 3d a0 bd 42 3d 18 27 60 bd be b5 f4 3d
       0.040201288 0.04754412 -0.054724783 0.11948727
0001e0 62 2e c8 3d e1 12 4d 3d 9b fd f2 3b 5a c3 3c 3e
       0.09774472 0.050066832 0.007415486 0.18433896
0001f0 e6 9a 8b 3d 8b 92 8f 3d 46 8a da 3c f1 5b a8 bd
       0.06816654 0.07010373 0.026677262 -0.082206614
000200 15 43 ef bd 6f 2f a8 3d c9 39 8c bb 43 25 95 3d
       -0.11682717 0.08212172 -0.0042793495 0.07282498
000210 8a f7 d9 3d 4c b7 6f 3d ed 55 b7 bc df 99 02 be
       0.106429175 0.058524415 -0.02237984 -0.1275401
000220 31 27 35 3e 92 c0 ac 3b 0c aa 40 3d 69 af 3e bc
       0.17690732 0.0052719796 0.04703717 -0.011638501
000230 02 0e 3c 3e 46 3d 30 3d 04 9a 09 3e c4 c3 85 3d
       0.18364719 0.043027185 0.13437659 0.0653148
000240 43 81 dc bc 60 04 99 3d 89 b4 31 be 0b 8e f4 3d
       -0.026917106 0.074715376 -0.17354025 0.11941155
000250 bc 59 cb 3d 31 34 bd 3c 76 47 18 be dc 47 07 3d
       0.09929225 0.023096176 -0.1487101 0.033027515
000260 41 3f 0f 3e 1c aa 94 3d 48 d4 c6 bd f6 5f 86 bd
       0.13988973 0.07259008 -0.09708458 -0.06561272
000270 e6 9e 03 be 22 6d c8 bd ce 6f 1f 3e 41 dc 64 bd
       -0.12853584 -0.097864404 0.15569994 -0.055874113
000280 99 1b c4 3d 65 05 c3 3c 2a 00 be 3d 91 c1 ef b8
       0.09575576 0.023806283 0.09277375 -0.000114324626
000290 c2 39 22 be e7 7d 8e bd 60 14 11 bd d2 ab d7 3c
       -0.15842345 -0.06957608 -0.03541982 0.026327047
0002a0 49 7e cc 3d b3 e6 55 bd 6a 2f bf be 46 b2 c3 3d
       0.099850245 -0.052221965 -0.37340862 0.09555487
0002b0 bc 65 ba 3d 03 a2 13 3d e3 32 92 3c a9 16 46 3d
       0.091014355 0.03604318 0.01784653 0.048361454
0002c0 e7 98 d5 3d 9f 5c 45 bd 52 83 38 bc b0 d2 fe 3c
       0.104295544 -0.048184033 -0.011261778 0.031106323
0002d0 1b 66 4f bc 50 03 ae 3d 21 31 35 bd 52 b8 cf 3c
       -0.012658621 0.084967256 -0.044236306 0.025356445
0002e0 ff 94 fc 3d f4 96 cf bd 29 7c f0 3d 26 be 5a bd
       0.12333106 -0.10136214 0.11742432 -0.053403996
0002f0 b7 da a2 bd e1 ea bd bc b4 12 40 3d 9b 2e d7 3d
       -0.07951873 -0.023183288 0.046892837 0.10506936
000300 26 1c 58 be 86 3b 0a be a9 47 ce 3d 2d af 22 3e
       -0.21104488 -0.13499269 0.10072262 0.15887137
000310 34 42 9c bd ad 70 4f 3e 17 91 07 3c 67 d6 e3 3c
       -0.07629815 0.20257826 0.008274338 0.027812196
000320 e7 87 df bd fa 16 f2 bc 43 85 f5 bd 77 08 93 3d
       -0.10914593 -0.029551972 -0.11988308 0.07179349
000330 82 ee e3 bc 71 2e a0 bd b1 f9 6b bc 08 8c 4e 3d
       -0.02782369 -0.07821358 -0.014402793 0.050426513
000340 67 f1 d9 bd 76 21 f5 bd 75 3b 61 bd 03 6e 66 be
       -0.10641747 -0.11969273 -0.054988343 -0.22502904
000350 7d c0 9b 3d eb 81 58 bd 4b fa e9 bd 40 d4 2a 3d
       0.076050736 -0.052858274 -0.11424693 0.041706324
000360 de 58 6e bd b4 79 21 3d fe 8b 37 bd d7 7e da 3d
       -0.05819022 0.039422706 -0.04481124 0.10668724
000370 03 56 b4 be 50 b8 42 3e 7d 9e d3 3d 6e 95 4d 3e
       -0.35221872 0.19015622 0.103329636 0.20076534
000380 87 14 14 be 7a 34 80 bd 07 7d b9 bd 62 3f 24 bd
       -0.14460956 -0.06260009 -0.0905705 -0.04009951
000390 c9 84 4e 3e fb c4 fc 3d 5e 49 c6 3d 4c 71 94 bc
       0.20167841 0.123422585 0.096819624 -0.01812043
0003a0 6e 42 6b be 50 aa 65 bb 30 a9 5a bd 3f 4e e4 3d
       -0.2297456 -0.003504414 -0.053384006 0.11147737
0003b0 14 a8 0b bb 77 12 db bc e0 af 04 be 1d 75 8f bd
       -0.00213099 -0.026742203 -0.12957716 -0.070047595
0003c0 69 47 1d 3e 5f be d5 3d b8 8f 1a be 52 92 74 3d
       0.15359272 0.10436701 -0.15093887 0.059709854
0003d0 69 2b 1d 3e ca 0b 4f bd 8a 3d bb 3c f8 5f ee 3d
       0.15348591 -0.050548352 0.022856493 0.11639398
0003e0 8e 2e 2c 3d 18 46 b5 3d 0a c3 30 be 2d b6 81 3d
       0.042036586 0.0885126 -0.17261901 0.063335754
0003f0 e0 ab bd 3d 18 32 f1 3d b5 68 86 3d 39 5f ed 3b
       0.09261298 0.11777133 0.0656294 0.0072440174
